src/main/python/saved_models/cpp_1_37_RNNClassifier1_128embs_147id_32hd_1hl_Falsebid_1.pt (torch, 98783 bytes, 7 tensors)

word_embeddings.weight f4 [147, 128]
1.2200602 -0.6460944 -2.2634797 -1.6118748 1.532747 -1.6230567 -1.9687936 0.4786529
0.54652053 -0.12209633 1.3874674 -0.39946902 1.9848168 -1.292194 -2.0980148 1.0451602
-1.0102382 -0.6804393 2.5379555 -1.058475 0.70459425 -0.25938654 -1.2608118 -1.4711466
-1.1153026 0.17542376 0.80119693 0.43127587 -2.541718 0.99970037 1.4405075 0.24233937
0.55547196 0.92974687 -1.2608428 -2.1565032 0.14302698 0.87265354 -0.8746947 1.7459246
-2.5583003 -1.2343018 -1.0504329 -1.4982924 -0.2920208 -0.5373983 0.3791928 1.3123232
-0.49267358 -0.2033406 -0.22806734 1.0458876 -0.4473891 -0.98793906 -0.14916109 2.7512038
2.5588336 0.88554734 -1.7029002 -2.22706 -0.21338521 0.45249623 1.3453484 -0.6573941
-0.44164833 -0.67145264 0.16297498 -1.163361 2.7868278 -1.2391887 0.7601299 0.50213975
-0.79192036 -0.44573215 1.4976048 1.5368323 -1.9055609 1.0545396 0.2143804 0.40107766
1.7160101 -1.1926507 -1.1975461 -0.9159972 -0.33366874 0.042778745 -2.5185537 1.4628425
0.41786012 0.680837 1.4900942 0.41797143 0.38968748 1.1066976 1.0286067 0.93504614
-1.3632497 2.7174478 -1.4739648 -0.8209926 0.27828857 0.04669264 -0.29851493 -0.9803431
0.5016043 -0.09290611 1.984239 0.5003446 -0.7441828 -2.0118623 2.441404 -1.4518915
1.5205547 1.1986674 0.89742684 -0.577807 -0.12889487 0.33105826 -0.11499332 -1.995797
0.692559 0.7598234 0.4233702 1.4983447 1.2495798 -0.0320752 1.1734463 1.0339446
0.06279382 0.70443463 -0.5919965 0.5778131 0.9258882 -1.2404053 -1.7295055 -0.35452646
-0.76928437 -0.4971141 -0.8944768 1.6880163 0.46314433 -0.83478975 1.1293602 0.8142384
-1.1315595 0.24280629 -0.2054683 1.1707655 0.6100246 0.34444162 -0.6171724 -0.5534293
1.189222 -1.1037774 -0.5839403 0.7758405 1.311998 0.81406283 0.3706638 -1.5260048
-0.65652436 -0.07426617 0.3476154 -0.5745314 -1.1320982 0.5068467 -1.4446276 -0.2164687
-0.5055445 0.16160308 1.1585118 0.35510236 0.72582114 -0.43514267 -0.08466206 0.21378376
-0.9995637 -0.3716443 -0.06637493 0.76257765 -0.9262751 -0.8671596 0.41691905 1.7302933
-0.79061633 -1.3127202 -0.52732027 0.12310413 -0.5508511 -0.4857558 1.3665674 -0.13267732
0.49630326 2.5011106 -0.8586381 0.5328948 -1.144033 -0.19879387 0.5978651 -0.6132201
-0.32748532 0.337842 -0.55238074 -0.08424668 -0.20200828 -1.2226591 2.2872815 -0.06157936
-1.1688195 -0.26399332 -1.5526494 -0.31254733 -0.347652 0.771569 0.22265437 -0.7295637
0.9739625 -1.1537285 0.21947473 0.50827867 -1.1656692 -0.6678071 0.92821366 1.0698502
-0.73152184 0.201954 0.32422066 -0.77636576 0.14969017 -1.229399 0.93167216 3.4889224
1.1997633 0.5446225 -0.1798898 -1.8112925 -0.024502086 0.6363408 -0.8155574 -0.92462206
1.8550608 0.69638926 -3.114252 0.430604 -1.0465224 1.1921926 1.4433609 1.6121372
1.2708242 -0.10704598 -1.3536727 -0.3254228 -0.1093658 -0.46319544 0.6052662 -1.3371123
00000000: ef2a 9c3f 7166 25bf dadc 10c0 ea51 cebf
00000010: 0e31 c43f 52c0 cfbf 6e01 fcbf fe11 f53e
00000020: c5e8 0b3f a40d fabd 8898 b13f 3487 ccbe
00000030: 7a0e fe3f 9d66 a5bf e045 06c0 cfc7 853f
00000040: 7c4f 81bf 4531 2ebf dd6d 2240 1c7c 87bf
00000050: 4a60 343f 50ce 84be 4862 a1bf 884e bcbf
00000060: 3cc2 8ebf 49a2 333e 3e1b 4d3f 31d0 dc3e
00000070: 82ab 22c0 5dec 7f3f 8d62 b83f d027 783e
00000080: 6933 0e3f e403 6e3f 4c63 a1bf 2604 0ac0
00000090: aa75 123e 3966 5f3f feeb 5fbf 757a df3f
000000a0: 31bb 23c0 9afd 9dbf 9674 86bf 0cc8 bfbf
000000b0: c083 95be ef92 09bf 8f25 c23e 35fa a73f
000000c0: b63f fcbe 8538 50be 7c8a 69be a5df 853f
000000d0: 2f10 e5be 93e9 7cbf afbd 18be b913 3040
000000e0: eec3 2340 3bb3 623f a2f8 d9bf 2788 0ec0
000000f0: a781 5abe 96ad e73e 6034 ac3f fb4a 28bf
00000100: bb1f e2be 52e4 2bbf eae2 263e 03e9 94bf
00000110: 635b 3240 bc9d 9ebf e097 423f 3b8c 003f
00000120: 4bbb 4abf 0137 e4be 84b1 bf3f ecb6 c43f
00000130: 6be9 f3bf 27fb 863f 8986 5b3e 0d5a cd3e
00000140: 38a6 db3f c7a8 98bf 3149 99bf cb7e 6abf
00000150: a1d6 aabe c438 2f3d fc2f 21c0 6c3e bb3f
00000160: c3f1 d53e 554b 2e3f 68bb be3f 5a00 d63e
00000170: 1e85 c73e 44a8 8d3f 62a9 833f 2f5f 6f3f
00000180: f77e aebf aaea 2d40 e1aa bcbf 922c 52bf
00000190: d77b 8e3e c840 3f3d f3d6 98be c4f7 7abf
000001a0: 2469 003f 8f45 bebd 8bfb fd3f 9516 003f
000001b0: c482 3ebf 5ac2 00c0 f73f 1c40 95d7 b9bf
000001c0: 89a1 c23f ef6d 993f c4bd 653f 29eb 13bf
000001d0: 04fd 03be 7880 a93e 9e81 ebbd 4776 ffbf
000001e0: 8c4b 313f c983 423f fbc3 d83e c2c9 bf3f
000001f0: 3bf2 9f3f 4961 03bd 7d33 963f 4c58 843f
00000200: 0c9a 803d d455 343f 158d 17bf 8feb 133f
00000210: 0207 6d3f 9ac5 9ebf 7060 ddbf 7e84 b5be
00000220: d2ef 44bf bd85 febe 6efc 64bf eb10 d83f
00000230: 4121 ed3e c8b4 55bf e08e 903f ee71 503f
00000240: f1d6 90bf 36a2 783e 4866 52be a5db 953f
00000250: 922a 1c3f a75a b03e 03ff 1dbf 8bad 0dbf
00000260: 6d38 983f 9448 8dbf 1d7d 15bf 7c9d 463f
00000270: 8def a73f 6c66 503f a5c7 bd3e 2054 c3bf
00000280: fb11 28bf dd18 98bd a5fa b13e 7d14 13bf
00000290: 98e8 90bf b5c0 013f 8fe9 b8bf f9a9 5dbe
000002a0: 5d6b 01bf 477b 253e 1d4a 943f facf b53e
000002b0: 6acf 393f 05cb debe 4d63 adbd 21ea 5a3e
000002c0: 68e3 7fbf 2948 bebe 94ef 87bd 4a38 433f
000002d0: 5d20 6dbf 2cfe 5dbf 6a76 d53e 407a dd3f
000002e0: d565 4abf 3707 a8bf 76fe 06bf 051e fc3d
000002f0: 9404 0dbf fcb4 f8be aeeb ae3f 90dc 07be
00000300: 761b fe3e 3212 2040 b5cf 5bbf cb6b 083f
00000310: ac6f 92bf 9f90 4bbe b00d 193f fefb 1cbf
00000320: 28ac a7be a0f9 ac3e d368 0dbf 8689 acbd
00000330: 42db 4ebe 1880 9cbf d262 1240 a43a 7cbd
00000340: e19b 95bf 222a 87be 37bd c6bf 3406 a0be
00000350: 71ff b1be 8c85 453f 82ff 633e b0c4 3abf
00000360: 9b55 793f 60ad 93bf fcbd 603e 8d1e 023f
00000370: a634 95bf 68f5 2abf 699f 6d3f daf0 883f
00000380: 0445 3bbf 08cd 4e3e 4000 a63e e8bf 46bf
00000390: 6148 193e f25c 9dbf 1182 6e3f 814a 5f40
000003a0: d891 993f 616c 0b3f 0835 38be 6fd8 e7bf
000003b0: 99b8 c8bc 3be7 223f 5fc8 50bf 08b4 6cbf
000003c0: a272 ed3f 9146 323f e84f 47c0 2178 dc3e
000003d0: 72f4 85bf c499 983f 0dc0 b83f 835a ce3f
000003e0: 5eaa a23f ec3a dbbd 2645 adbf d19d a6be
000003f0: 2dfb dfbd f427 edbe baf2 1a3f 7f26 abbf

rnn.weight_ih_l0 f4 [32, 128]
-0.01819899 -0.07833947 -0.21202764 -0.05433002 0.27661884 0.07618252 -0.22408387 0.08705495
0.101404265 0.021039661 -0.06427042 0.06770715 0.11800013 0.24144678 0.20749772 -0.321088
0.02490907 0.048552748 0.2757398 -0.036835704 0.0951839 0.15110388 0.17303896 -0.19228727
0.3798727 0.33472192 0.13203657 0.22233847 -0.20623851 -0.14273661 -0.045109406 -0.03268127
0.022746988 0.11868114 0.12951319 -0.05810903 0.08468649 0.073147796 0.014949717 -0.05571176
-0.028096477 -0.114270896 -0.113901734 -0.0034729724 -0.15934096 -0.09720986 0.02970688 0.12859602
-0.023343863 0.14343621 0.2733925 -0.20236567 -0.2413452 0.0025589473 -0.04948967 0.10645925
-0.11103976 0.11773702 0.19266446 -0.10781664 0.01585374 -0.06149577 0.082845025 0.30945915
-0.020323182 -0.121998265 0.11427035 -0.04831967 0.27903214 -0.034830507 -0.11712282 0.05887189
-0.30421913 0.15611283 0.042671718 0.23411335 -0.26422015 0.20023374 -0.04641769 0.03677813
0.36691818 -0.12321148 -0.081816725 -0.048814435 -0.221415 0.24674788 -0.2857796 -0.07555919
-0.010212941 -0.097975425 0.43537563 -0.097755924 0.37970382 0.1994779 -0.059477966 -0.09550837
0.09105248 -0.045300327 -0.072589576 -0.2114239 -0.033588897 0.2902448 -0.09475929 -0.08090392
-0.26680374 -0.036125604 0.042775862 0.11818927 0.003729353 0.058214825 0.046994314 -0.09421996
0.15346101 -0.02443331 -0.25577077 0.025139835 -0.1473762 -0.076421134 0.03908304 0.2810528
-0.1076827 0.020273369 0.1345698 0.08668513 0.1431433 -0.1359961 0.07777838 -0.12968647
-0.027126707 0.03834121 0.048393834 2.1351723e-05 -0.19780828 -0.086805955 0.07820512 0.015156586
-0.056909177 -0.030060658 0.30806097 0.10627115 -0.10700798 0.10654928 0.18952394 0.3241911
-0.04330081 0.045033135 -0.12181768 0.08514451 0.09567716 -0.1314136 -0.03489746 0.18703365
-0.060629323 -0.037169386 -0.02422923 -0.064290024 0.34290108 -0.17701152 -0.10866036 0.114112124
-0.08912222 0.19198632 0.1076194 0.23130953 0.103055574 -0.15573373 0.15332107 0.12749355
-0.010088102 0.06408736 -0.06741279 0.14539777 -0.22593203 0.18609361 -0.07987526 -0.015391446
0.12761353 -0.04408762 0.18140718 -0.06610666 -0.048622973 -0.18830352 -0.12469257 0.0630716
-0.050298043 0.042841054 0.065937735 -0.21504799 0.08995848 0.10251273 -0.014468144 0.016874818
-0.037273247 0.2742988 -0.09688885 0.02688113 -0.29053852 -0.2609621 -0.11504729 0.003635866
0.20542215 -0.24679834 0.164468 -0.031151095 -0.15994139 0.02046246 0.0012629897 0.06755042
0.14290638 -0.13572645 0.19236624 0.12634811 0.26334378 -0.11663562 0.042662796 0.25939935
0.017948354 -0.13850874 0.07200452 -0.097219944 -0.026335957 0.16554792 -0.31019312 -0.05607281
0.09472399 -0.16354771 -0.018475745 -0.12189672 -0.16225007 -0.20131695 0.034228425 0.035032563
0.17617449 0.06674961 -0.04389126 0.004092757 -0.0752082 -0.112113 -0.010395925 0.2822928
-0.098607846 -0.24708556 0.103727765 -0.123328865 -0.081043616 -0.042687397 -0.34252557 -0.1684765
-0.2581431 -0.00054337335 -0.14889005 0.09115656 0.160149 -0.19286083 -0.09706086 -0.18886977
00000000: 0c16 95bc 7270 a0bd c61d 59be 2889 5ebd
00000010: fca0 8d3e 9505 9c3d 3e76 65be de49 b23d
00000020: 0aad cf3d 5e5b ac3c 36a0 83bd 0caa 8a3d
00000030: 0daa f13d d33d 773e 487a 543e a565 a4be
00000040: 1b0e cc3c 3fdf 463d c42d 8d3e 09e1 16bd
00000050: c7ef c23d faba 1a3e 2031 313e f4e6 44be
00000060: ad7e c23e ac60 ab3e 9834 073e b2ac 633e
00000070: 3030 53be 8c29 12be a4c4 38bd ccdc 05bd
00000080: e457 ba3c 190f f33d 1b9f 043e bc03 6ebd
00000090: 1c70 ad3d 83ce 953d a8ef 743c 0432 64bd
000000a0: 952a e6bc dc06 eabd 5045 e9bd cf9a 63bb
000000b0: 472a 23be f715 c7bd d85b f33c adae 033e
000000c0: a13b bfbc f1e0 123e 1afa 8b3e f238 4fbe
000000d0: 3223 77be 03b4 273b aeb5 4abd 4f07 da3d
000000e0: d068 e3bd 1b20 f13d d549 453e f8ce dcbd
000000f0: b4df 813c fde2 7bbd a7aa a93d 6e71 9e3e
00000100: cd7c a6bc 3ada f9bd 9306 ea3d d9ea 45bd
00000110: 4ddd 8e3e 6faa 0ebd 17de efbd a723 713d
00000120: 9cc2 9bbe 0bdc 1f3e 8ac8 2e3d 69bb 6f3e
00000130: dd47 87be 130a 4d3e 7a20 3ebd aaa4 163d
00000140: b3dc bb3e 4d56 fcbd 878f a7bd a5f1 47bd
00000150: 9dba 62be 7aab 7c3e b451 92be c7be 9abd
00000160: 2e54 27bc 57a7 c8bd 8ee9 de3e 4234 c8bd
00000170: 8a68 c23e ef43 4c3e 2b9f 73bd e499 c3bd
00000180: b979 ba3d d68c 39bd d8a9 94bd 827f 58be
00000190: 8394 09bd f79a 943e 2911 c2bd f4b0 a5bd
000001a0: 809a 88be 71f8 13bd be35 2f3d 370d f23d
000001b0: 2968 743b ab72 6e3d 1c7d 403d 65f6 c0bd
000001c0: e224 1d3e 5d28 c8bc 63f4 82be 0ef2 cd3c
000001d0: c9e9 16be af82 9cbd 8a15 203d 27e6 8f3e
000001e0: bf88 dcbd 5614 a63c aacc 093e f987 b13d
000001f0: 2894 123e 9042 0bbe 454a 9f3d 88cc 04be
00000200: d438 debc ac0b 1d3d 9d38 463d 7a1c b337
00000210: 418e 4abe 52c7 b1bd 022a a03d 5453 783c
00000220: 9919 69bd c541 f6bc 2bba 9d3e b0a4 d93d
00000230: 0027 dbbd 8236 da3d 9012 423e 60fc a53e
00000240: 315c 31bd aa74 383d 8c7b f9bd 3f60 ae3d
00000250: 63f2 c33d 4991 06be a4f0 0ebd c085 3f3e
00000260: 7456 78bd ed3e 18bd 617c c6bc 7daa 83bd
00000270: bb90 af3e 8242 35be 5389 debd 9eb3 e93d
00000280: b685 b6bd 1098 443e 8f67 dc3d 68dc 6c3e
00000290: cd0e d33d aa78 1fbe 3300 1d3e ab8d 023e
000002a0: 9148 25bc 3c40 833d b80f 8abd 27e3 143e
000002b0: ba5a 67be 538f 3e3e a495 a3bd 672c 7cbc
000002c0: 1fad 023e 3895 34bd cec2 393e ee62 87bd
000002d0: e228 47bd a3d2 40be d15e ffbd af2b 813d
000002e0: 5205 4ebd 1a7a 2f3d 5d0a 873d 8a35 5cbe
000002f0: 273c b83d 32f2 d13d cb0b 6dbc 0f3d 8a3c
00000300: d5ab 18bd e470 8c3e a96d c6bd d135 dc3c
00000310: 77c1 94be d39c 85be ea9d ebbd b647 6e3b
00000320: 2f5a 523e b4b8 7cbe 4d6a 283e 9530 ffbc
00000330: adc7 23be e4a0 a73c e78a a53a e057 8a3d
00000340: 0d56 123e e0fb 0abe a8fb 443e 6661 013e
00000350: ffd4 863e a8de eebd 2fbf 2e3d fecf 843e
00000360: 6d08 933c 3cd5 0dbe 1b77 933d 401b c7bd
00000370: 81be d7bc 6585 293e a2d1 9ebe 9aac 65bd
00000380: a7fe c13d 0d79 27be 725a 97bc fda4 f9bd
00000390: e224 26be 0826 4ebe 1b33 0c3d 4e7e 0f3d
000003a0: 1667 343e 05b4 883d 52c7 33bd 891c 863b
000003b0: c206 9abd 809b e5bd ab53 2abc af88 903e
000003c0: e9f2 c9bd ff03 7dbe 396f d43d d893 fcbd
000003d0: 32fa a5bd fbd8 2ebd 835f afbe 1b85 2cbe
000003e0: 552b 84be 2b71 0eba a276 18be 4ab0 ba3d
000003f0: 19fe 233e 4f7d 45be d8c7 c6bd 1467 41be

rnn.weight_hh_l0 f4 [32, 32]
0.46421206 -0.2597963 0.028237905 -0.046974946 -0.35179424 -0.31239024 0.2898397 0.080846004
0.2799117 -0.22830158 -0.46287605 0.19787492 0.29667917 -0.3220078 -0.53820205 0.7101814
-0.018310452 -0.018540949 -0.23693036 -0.106435694 0.16378391 -0.2536304 0.4867613 -0.32591242
-0.18034261 0.15270396 0.02139665 -0.1884018 0.0993415 -0.06219831 0.12592234 0.2195667
-0.06786876 0.3084955 -0.14776222 -0.07373767 -0.71323127 0.19674644 -0.043776553 0.111557044
-0.20890123 -0.5875534 -0.11091529 -0.36753672 0.29960203 -0.38028574 -0.008164886 0.9919725
0.29334205 0.02351505 -0.17806034 0.52998424 -0.23557909 -0.19438177 0.97354704 0.17707735
-0.08679124 0.15964553 -0.42775318 -0.14338577 0.5048914 0.59795296 -0.17799036 -0.124356605
-0.26861635 -0.3895231 0.08310275 0.2602927 -0.1696248 -0.45462337 0.49947625 -0.025945283
0.33058342 0.27555653 0.40195772 0.20717631 -0.016568813 -0.68731004 -0.42025736 -0.5812598
-0.72411746 -0.3115545 -0.052603193 -0.17728956 0.3247737 -0.14053692 -0.47415197 -0.13993178
-0.13406031 -0.2270406 0.25947773 -0.27777866 0.17566237 -0.78393495 0.11036783 0.3334941
-0.22490394 -0.9437616 0.1066346 0.03410992 -0.047393937 -0.28527567 0.0076918853 -0.18237506
0.25451788 -0.010432853 0.34152547 0.19837704 0.0650366 0.035383243 -0.21154034 -0.7188686
-0.16563702 -0.04231595 0.07141914 -0.49113154 0.021227947 -0.39780337 -0.2360341 -0.41698068
-0.40646604 0.037002794 -0.15313935 0.14555223 0.0065231854 -0.12714203 -0.22306663 0.2606964
-0.15990856 -1.1781402 0.1153025 -0.21020009 -0.01574609 0.26489717 0.21234652 -0.12289904
-0.058396462 -0.10367324 -0.4273361 -0.064846024 0.008414664 -0.13362505 0.2875982 -0.005687097
-0.04417169 -0.24025613 0.26750058 0.111457095 -0.079872474 -0.10075064 -0.8803086 0.49368227
-0.2720993 0.121029146 -0.100529805 -0.14013408 -0.2532623 -0.057231992 0.14546926 0.028568469
0.096701734 0.24234125 -0.23784013 -0.10577388 -0.6983489 -0.12563738 -0.053841345 -0.36882037
-0.060634233 -0.21114331 0.49554175 -0.64836776 0.0728818 -0.56571376 -0.3450818 -0.1261455
-0.80204797 0.024202988 -0.14149025 0.32315317 -0.20121619 -0.4358644 0.5615218 0.21552257
-0.38108897 -0.0511122 -0.15069202 -0.06376989 0.29345056 -0.2205799 -0.018037245 0.16661091
0.2112246 -0.6112165 -0.054055937 0.016641684 0.11362436 -0.41920274 0.56242263 -0.3289731
0.74634486 0.292029 0.19689363 -0.15027356 -0.15130915 -0.3445736 -0.2567718 -0.43633088
-0.54259884 -0.23542725 -0.17370613 -0.22400497 0.21548867 0.0041723745 -0.28309906 0.06103588
0.36123124 0.08245784 0.24435174 -0.20330378 0.21535985 -0.5430439 -0.022348981 0.31234413
-0.3437285 0.4897428 0.02594048 0.22974692 -0.1925803 0.5213301 -0.17008825 0.119836695
-0.5456562 0.34946996 -0.057894696 -0.19738579 0.13728511 0.3255462 0.022088923 -0.3018364
-0.31840038 -0.05978315 0.034895215 0.03386126 -0.3199843 0.13994803 0.08303647 -0.13145253
-0.50608313 0.2272326 -0.009797216 0.26839405 0.068798654 0.21140589 0.053595368 0.1142178
00000000: 34ad ed3e 0504 85be 2e53 e73c cd68 40bd
00000010: 601e b4be 9df1 9fbe df65 943e 9792 a53d
00000020: 9650 8f3e e4c7 69be 17fe ecbe b99f 4a3e
00000030: 55e6 973e 35de a4be 9cc7 09bf 73ce 353f
00000040: cdff 95bc 30e3 97bc df9d 72be f5fa d9bd
00000050: f8b6 273e d8db 81be c738 f93e fedd a6be
00000060: bcab 38be 6d5e 1c3e 0748 af3c 67ec 40be
00000070: 8e73 cb3d a8c3 7ebd c9f1 003e 18d6 603e
00000080: c7fe 8abd 1ff3 9d3e fb4e 17be c703 97bd
00000090: 5396 36bf e677 493e 0b4f 33bd 0578 e43d
000000a0: 34ea 55be e669 16bf 8e27 e3bd c62d bcbe
000000b0: 7065 993e d0b4 c2be 04c6 05bc e9f1 7d3f
000000c0: ee30 963e a2a2 c03c 7355 36be 0cad 073f
000000d0: a53b 71be 040c 47be 613a 793f c453 353e
000000e0: 9bbf b1bd 1e7a 233e 7702 dbbe b8d3 12be
000000f0: 9040 013f 7213 193f 1b43 36be adae febd
00000100: 1588 89be 926f c7be c631 aa3d 1645 853e
00000110: 20b2 2dbe 65c4 e8be 5abb ff3e 348b d4bc
00000120: 3b42 a93e bf15 8d3e 67cd cd3e 0726 543e
00000130: 52bb 87bc 8df3 2fbf f92b d7be 71cd 14bf
00000140: c35f 39bf 1284 9fbe 7276 57bd 658b 35be
00000150: bd48 a63e e9e8 0fbe 0cc4 f2be 474a 0fbe
00000160: 1b47 09be 557d 68be 44da 843e 0139 8ebe
00000170: d6e0 333e f6af 48bf 8708 e23d bdbf aa3e
00000180: 384d 66be 5c9a 71bf 3e63 da3d d8b6 0b3d
00000190: 2520 42bd a70f 92be 360c fc3b 87c0 3abe
000001a0: 2b50 823e 8fee 2abc 6ddc ae3e 5a23 4b3e
000001b0: e931 853d 05ee 103d 089e 58be c607 38bf
000001c0: c09c 29be 7d53 2dbd 3344 923d 9875 fbbe
000001d0: 3be6 ad3c e2ac cbbe ecb2 71be 7e7e d5be
000001e0: 511c d0be 3e90 173d 90d0 1cbe a50b 153e
000001f0: 72c0 d53b 8531 02be 946b 64be 007a 853e
00000200: 12bf 23be 4ccd 96bf b823 ec3d b13e 57be
00000210: f2fd 80bc 9aa0 873e 5e71 593e 7eb2 fbbd
00000220: 2131 6fbd a352 d4bd cccb dabe fecd 84bd
00000230: a9dd 093c 01d5 08be 1240 933e d45a babb
00000240: 60ed 34bd b405 76be d6f5 883e 9e43 e43d
00000250: 2e94 a3bd 5a56 cebd e85b 61bf ecc3 fc3e
00000260: 9950 8bbe 21de f73d 92e2 cdbd 4f7f 0fbe
00000270: 99ab 81be 186c 6abd e5f5 143e 6c08 ea3c
00000280: 8f0b c63d 4e28 783e 5d8c 73be fa9f d8bd
00000290: fec6 32bf 16a7 00be be88 5cbd 06d6 bcbe
000002a0: 9a5b 78bd f435 58be a6b7 fd3e 6efb 25bf
000002b0: 0e43 953d 9ed2 10bf 90ae b0be 492c 01be
000002c0: 0453 4dbf 5845 c63c d2e2 10be 5574 a53e
000002d0: 9e0b 4ebe 9e29 dfbe e5bf 0f3f f3b1 5c3e
000002e0: 181e c3be 075b 51bd 024f 1abe ca99 82bd
000002f0: 273f 963e b3df 61be d8c2 93bc 0d9c 2a3e
00000300: 434b 583e af78 1cbf c269 5dbd 2454 883c
00000310: e3b3 e83d bea1 d6be eefa 0f3f 2a6f a8be
00000320: 7510 3f3f d384 953e 7c9e 493e 50e1 19be
00000330: c9f0 1abe f36b b0be 9877 83be c366 dfbe
00000340: c2e7 0abf d713 71be 05e0 31be 8f61 65be
00000350: 10a9 5c3e 6ab8 883b 5cf2 90be c200 7a3d
00000360: 4df3 b83e a8df a83d 5837 7a3e de2e 50be
00000370: 4b87 5c3e ed04 0bbf 3615 b7bc 92eb 9f3e
00000380: 2ffd afbe 91bf fa3e 2181 d43c c742 6b3e
00000390: c533 45be e475 053f 9d2b 2ebe f16c f53d
000003a0: 20b0 0bbf baed b23e fd22 6dbd 801f 4abe
000003b0: 7894 0c3e fead a63e d4f3 b43c 4d8a 9abe
000003c0: 6005 a3be 2ddf 74bd 49ee 0e3d 1bb2 0a3d
000003d0: fbd4 a3be 894e 0f3e 060f aa3d 7e9b 06be
000003e0: aa8e 01bf aaaf 683e 8184 20bc f26a 893e
000003f0: 4fe6 8c3d c97a 583e d186 5b3d 06eb e93d

rnn.bias_ih_l0 f4 [32]
0.05810098 -0.16713622 0.16394538 -0.10242981 0.07401071 -0.12885092 0.10501018 -0.07246655
0.2183012 0.21997474 -0.16825826 -0.14599636 0.25254086 0.48865837 0.21451944 0.03373869
-0.1776946 -0.22079705 0.11266534 -0.08043617 0.1015118 0.48572007 -0.08738991 0.06451589
0.006855295 -0.27316025 0.4000401 -0.15572345 0.07838062 -0.30424136 0.25314865 -0.14524962
00000000: 4bfb 6d3d c225 2bbe 4ce1 273e b8c6 d1bd
00000010: ed92 973d 7ff1 03be 940f d73d 5869 94bd
00000020: 5a8a 5f3e 0f41 613e e54b 2cbe 1280 15be
00000030: 094d 813e 6e31 fa3e fcaa 5b3e 9531 0a3d
00000040: 93f5 35be 9f18 62be 16bd e63d b8bb a4bd
00000050: 6be5 cf3d 4db0 f83e 7bf9 b2bd e820 843d
00000060: 62a2 e03b a9db 8bbe 0ed2 cc3e f875 1fbe
00000070: 0586 a03d 86c5 9bbe b39c 813e 51bc 14be

rnn.bias_hh_l0 f4 [32]
-0.070982605 -0.15518658 0.12692016 -0.4362791 0.06858775 -0.169817 0.04185943 -0.19408675
0.13988718 0.21578492 0.080747135 -0.27798504 0.2590108 0.22111218 0.2829392 0.1349355
-0.21902302 -0.0063557276 0.08339048 -0.035313 0.08714463 0.21458048 -0.081260696 0.19391763
-0.060900927 -0.31198388 0.24311574 -0.24109499 -0.08341788 -0.19848531 0.044886738 -0.17446603
00000000: 545f 91bd 3be9 1ebe 5cf7 013e f95f dfbe
00000010: bc77 8c3d 82e4 2dbe cb74 2b3d adbe 46be
00000020: 963e 0f3e b9f6 5c3e c15e a53d 0e54 8ebe
00000030: 109d 843e 3b6b 623e 68dd 903e 882c 0a3e
00000040: 9247 60be b543 d0bb a1c8 aa3d 5da4 10bd
00000050: e278 b23d fcba 5b3e 026c a6bd 5892 463e
00000060: 4073 79bd 5abc 9fbe 55f3 783e 9be1 76be
00000070: fed6 aabd bc3f 4bbe 28db 373d 39a7 32be

fc1.weight f4 [8, 32]
0.44302502 -0.12450833 0.58349687 -0.57659316 0.39014587 -0.0039680186 0.44728464 -0.61405975
0.30777964 -0.5435638 -0.2126461 -0.3779056 0.4378637 0.40254575 0.1359405 0.30635858
-0.0034948762 -0.37019205 0.27295548 0.46767464 -0.61481714 0.61793303 -0.014468363 -0.22039308
0.13897231 -0.47723764 0.4791651 -0.8075726 -0.44398287 -0.42142808 -0.3817213 -0.12299434
-0.49997416 -0.9466737 -0.47344825 -0.398387 -0.19654235 -0.9513586 -0.612201 0.10993296
-0.13179576 0.6484614 0.5564322 -0.49294037 0.3492784 0.5687422 0.4478795 -0.24229386
0.08407323 0.37021604 -0.36745745 -0.54917556 0.20013183 0.4606098 -0.48273182 0.49958456
-0.32483158 -0.4143844 -0.073358536 -0.10399369 0.526008 -0.06098977 0.44229537 -0.40665781
-0.65990186 0.08333331 -0.20605361 0.8343063 0.35464334 0.21733996 0.30043885 0.48963854
0.11218081 -0.3579228 0.06107889 0.58138126 -0.0024353245 0.2146458 0.10981451 -0.06422867
-0.39036033 -0.22174983 0.6551551 -0.7337713 0.42679575 -0.8164003 -0.19906746 0.27011722
-0.5743494 1.1549271 0.11062577 -0.17897844 0.019147892 0.52316874 0.49918726 -0.27751437
-0.51233685 -0.3510933 0.10467805 1.0068038 -0.32925898 0.3102184 -0.38711664 0.7437446
0.005338864 0.6093589 -0.07764698 0.20018518 -0.9149698 0.26195017 -0.6341044 -0.6941973
0.5588502 -0.13583954 -0.08784428 -0.71899885 0.7057734 -0.3518805 0.6119121 -0.31764352
-0.44591394 0.18268445 -0.8547608 -0.24518912 -0.38377365 0.76724 -0.37102732 -0.32564658
0.24030781 0.22232263 -0.34029552 0.75648826 0.18625742 0.9846919 0.16620871 0.79084206
0.46230438 0.91562045 -0.22663078 -0.073128834 -1.3707638 -1.0160863 0.22958678 -0.093794204
0.5962869 0.83932376 -0.41965076 0.14185344 1.1510965 0.15047319 0.28554514 0.27939704
0.13940628 1.0411841 0.4797358 0.915868 0.23006763 0.5525334 0.6251273 0.7338358
0.101459004 0.8724651 -0.5652655 -0.04479608 -0.4211502 0.16587937 -0.45036945 0.02516054
0.03106116 -0.1958494 -0.13109072 0.45234612 -0.103998974 -0.33039048 -0.484277 -0.15938109
-0.3299665 -0.09271276 -0.104187645 0.043843634 -0.118640654 -0.07616775 0.13374013 -0.41873416
0.6332543 -0.03641598 0.08261866 0.43306696 0.26992112 -0.053241163 -0.3281901 0.49402222
-0.21997593 -0.7371491 0.5074516 0.42154464 -0.35824677 0.112470634 0.49983874 0.15479222
0.20923096 0.0076888334 0.14654283 0.5119624 -0.35190132 -0.15025117 -0.32258487 -0.16871479
0.028229706 -0.12020744 -0.6619181 0.13736653 -0.09551789 -0.5015347 -0.5554297 -0.1490751
-0.56951666 -0.06947919 -0.47142133 -0.10675564 -0.67739564 0.058235902 -0.45324984 0.3000946
-0.3203318 -0.9164513 0.321478 0.27527285 0.0092734 0.10568696 -0.12506717 0.04524443
-0.4948771 -0.109669946 0.2968568 0.34839275 -0.19592568 -0.19089283 -0.055258933 -0.20366699
-0.055251043 0.19825234 0.81470376 -1.3927511 0.17915644 -0.4622022 0.93657804 0.00018491347
-0.5908873 0.38303912 -0.33515313 0.5559963 -0.11935957 -0.043701667 -0.2022319 0.2877968
00000000: 2dd4 e23e 39fe febd 0d60 153f 9c9b 13bf
00000010: 33c1 c73e 2706 82bb 7e02 e53e 0533 1dbf
00000020: 4b95 9d3e ff26 0bbf e6bf 59be d87c c1be
00000030: ac2f e03e 7a1a ce3e fd33 0b3e 08db 9c3e
00000040: 4b0a 65bb d089 bdbe d2c0 8b3e 0d73 ef3e
00000050: a864 1dbf dc30 1e3f b60c 6dbc b9ae 61be
00000060: c24e 0e3e 7e58 f4be 2155 f53e 14bd 4ebf
00000070: b951 e3be 6cc5 d7be f970 c3be 75e4 fbbd
00000080: 9dfc ffbe 3559 72bf cf67 f2be 62f9 cbbe
00000090: 6642 49be 3d8c 73bf 34b9 1cbf 8824 e13d
000000a0: 78f5 06be 9101 263f 5772 0e3f ae62 fcbe
000000b0: 9ed4 b23e 1799 113f 7650 e53e e21b 78be
000000c0: 962e ac3d f58c bd3e 6223 bcbe c596 0cbf
000000d0: 5cef 4c3e 0cd5 eb3e a028 f7be 8cc9 ff3e
000000e0: 5350 a6be 312a d4be 003d 96bd a5fa d4bd
000000f0: 76a8 063f 69d0 79bd 8a74 e23e 7435 d0be
00000100: 54ef 28bf a8aa aa3d b8ff 52be 1995 553f
00000110: d093 b53e 5e8e 5e3e 1fd3 993e e7b1 fa3e
00000120: 0dbf e53d a841 b7be dc2d 7a3d 67d5 143f
00000130: f799 1fbb 1ccc 5b3e 6ee6 e03d 528a 83bd
00000140: 4fdd c7be 6312 63be 3fb8 273f 70d8 3bbf
00000150: f984 da3e 9cff 50bf 57d8 4bbe ce4c 8a3e
00000160: 9008 13bf a7d4 933f c48f e23d 2046 37be
00000170: 0adc 9c3c 63ee 053f 7995 ff3e 5d16 8ebe
00000180: 8228 03bf 80c2 b3be 7261 d63d f2de 803f
00000190: a294 a8be f2d4 9e3e 2734 c6be 0c66 3e3f
000001a0: a3f1 ae3b f2fe 1b3f 6105 9fbd 58fd 4c3e
000001b0: 763b 6abf 551e 863e aa54 22bf eab6 31bf
000001c0: cf10 0f3f 8519 0bbe b4e7 b3bd 4f10 38bf
000001d0: 91ad 343f ae29 b4be 45a6 1c3f 2ca2 a2be
000001e0: d54e e4be a211 3b3e 9bd1 5abf db12 7bbe
000001f0: fb7d c4be d769 443f 4bf7 bdbe 26bb a6be
00000200: 4013 763e 8ba8 633e 373b aebe 37a9 413f
00000210: 44ba 3e3e c514 7c3f 9e32 2a3e a074 4a3f
00000220: 29b3 ec3e 1a66 6a3f e611 68be 92c4 95bd
00000230: 3075 afbf 1e0f 82bf cc18 6b3e 2d17 c0bd
00000240: 42a6 183f ecdd 563f 77dc d6be 0742 113e
00000250: 2157 933f a515 1a3e f932 923e 210d 8f3e
00000260: 85c0 0e3e 8545 853f ee9f f53e 5376 6a3f
00000270: d996 6b3e d472 0d3f 5808 203f aadc 3b3f
00000280: bdc9 cf3d df59 5f3f 3db5 10bf 187c 37bd
00000290: 00a1 d7be 48dc 293e d396 e6be 7a1d ce3c
000002a0: f973 fe3c bf8c 48be a53c 06be e999 e73e
000002b0: 6afd d4bd f128 a9be 28f3 f7be cc34 23be
000002c0: 5ef1 a8be 30e0 bdbd 5560 d5bd 6295 333d
000002d0: dff9 f2bd d6fd 9bbd 2cf3 083e 5364 d6be
000002e0: f41c 223f ec28 15bd f933 a93d f4ba dd3e
000002f0: 1a33 8a3e 6813 5abd 8808 a8be 7bf0 fc3e
00000300: 5f41 61be ceb5 3cbf 59e8 013f b3d4 d73e
00000310: 1f6c b7be 0157 e63d ddea ff3e da81 1e3e
00000320: a440 563e 9cf2 fb3b 530f 163e f80f 033f
00000330: 692c b4be 71db 19be d829 a5be 92c3 2cbe
00000340: fc41 e73c 512f f6bd 7773 29bf d0a9 0c3e
00000350: e29e c3bd 9464 00bf a430 0ebf 25a7 18be
00000360: d8cb 11bf 1b4b 8ebd 235e f1be b3a2 dabd
00000370: cd69 2dbf c588 6e3d 5d10 e8be 00a6 993e
00000380: 8802 a4be 8d9c 6abf c498 a43e 90f0 8c3e
00000390: 75ef 173c 6872 d83d 9c11 00be 3952 393d
000003a0: 8860 fdbe a39a e0bd 9dfd 973e 8960 b23e
000003b0: bea0 48be 6979 43be 3157 62bd 148e 50be
000003c0: eb4e 62bd a902 4b3e 6d90 503f ab45 b2bf
000003d0: c974 373e c4a5 ecbe 94c3 6f3f 55e5 4139
000003e0: 6444 17bf b41d c43e 3199 abbe c655 0e3f
000003f0: ca72 f4bd 8500 33bd e115 4fbe 1a5a 933e

fc1.bias f4 [8]
0.6035739 0.063344404 -0.5921673 -0.46988797 -0.44900104 -0.37456003 -0.34317642 -0.38214612
00000000: d283 1a3f b6ba 813d 4798 17bf 2895 f0be
00000010: 77e3 e5be 55c6 bfbe d2b4 afbe a8a8 c3be
