src/main/python/saved_models/cpp_1_37_RNNClassifier1_128embs_147id_32hd_1hl_Falsebid_2.pt (torch, 98783 bytes, 7 tensors)

word_embeddings.weight f4 [147, 128]
000000 e8 67 ed bf e7 bb 9f 3f 19 a0 e2 be 0a 1d 6c bf
       -1.8547335 1.2479218 -0.4426277 -0.9223181
000010 bc 06 c8 bd 9b 5b 20 c0 df 6b 1b c0 44 4d 26 c0
       -0.097669095 -2.5055912 -2.428459 -2.598466
000020 c8 b9 22 3e 62 07 b5 3f 85 fa 97 3f ec e5 54 3f
       0.15891182 1.4142878 1.1873327 0.8316333
000030 c6 a3 49 bf 76 08 dd be a8 ae 3a be b7 ba 96 3f
       -0.78765523 -0.43170518 -0.18230689 1.1775731
000040 1e 2d 8b bf 7c b2 2d 3f 5b a9 d2 be 78 ef 0e bf
       -1.0873144 0.6785047 -0.41144833 -0.5583415
000050 a6 8c 2d c0 00 68 c5 3f 46 e2 cb 3e c8 05 a3 bf
       -2.7117095 1.5422363 0.3982107 -1.2736139
000060 fe 8c 46 bf 90 02 ef 3f 97 6c 62 bf fd a3 b1 bf
       -0.77558887 1.8672657 -0.88446945 -1.387817
000070 14 41 4e 3f 82 85 0a 3f a6 47 19 bf 7c 66 45 3f
       0.8056805 0.54109967 -0.5987495 0.77109504
000080 40 e4 b6 3e 33 15 01 c0 bb 8b 02 bf e9 15 c5 3f
       0.35721016 -2.016919 -0.5099446 1.5397311
000090 0d a2 b3 3f 60 2e ff 3e 48 ac 60 3e 43 1e 36 3f
       1.4033829 0.4984007 0.2194072 0.71139926
0000a0 0e 59 00 bc 3e 45 34 40 56 54 02 3f b8 b2 0e bd
       -0.007833732 2.8167262 0.50909936 -0.03483841
0000b0 32 1a aa bf 72 30 20 bf 3f 17 98 3f 4d d7 05 c0
       -1.3289244 -0.6257392 1.1882094 -2.091266
0000c0 c1 78 83 3f 2c 66 81 3f ae d4 bd 3f dd 01 9c 3e
       1.0271226 1.0109305 1.483053 0.30470172
0000d0 2e 86 23 c0 d2 6b 37 3d 2d 42 b4 3f cc 45 ae ba
       -2.5550647 0.04478056 1.4082695 -0.0013295948
0000e0 7b 06 d0 bd a5 ff 4e bf a8 52 17 c0 df 2e 32 bf
       -0.10157486 -0.8085883 -2.36442 -0.6960277
0000f0 c4 c4 90 3c 22 df 70 3d f8 2f 9c 3e 4f e0 ac 3f
       0.01767195 0.058806546 0.30505347 1.3505954
000100 01 80 3f c0 a2 87 84 3a f5 e5 4d be 32 d0 a4 be
       -2.9921877 0.0010111223 -0.20107253 -0.3219009
000110 e0 57 c1 bd c0 31 23 40 7f e5 1b bf 9f 79 8e 3f
       -0.09440589 2.5499115 -0.6089706 1.1130866
000120 0c e6 08 bf 34 c2 55 3e e5 b8 c1 bf 19 19 af bf
       -0.53476024 0.20874864 -1.513455 -1.3679534
000130 55 2f d9 bf 1f df ef 3f a2 c7 3b 3f a5 5a 29 bf
       -1.696757 1.8739966 0.7335149 -0.6615394
000140 48 1c 82 3f b4 7b 4f 3e e1 ae cd 3f b5 f0 5e 3f
       1.0164881 0.20262033 1.6068994 0.8708604
000150 6f e9 22 bf e0 bd ff bd 57 e8 2e c0 ba db c1 bf
       -0.6363744 -0.12487388 -2.732931 -1.514518
000160 c5 f6 9a 3f 11 f2 cd 3f 58 bf 8e bf 39 7d 79 bf
       1.2106558 1.6089498 -1.1152143 -0.974567
000170 45 aa 18 40 24 b1 9c 3f 07 35 2e 3e 2c 7f c6 be
       2.3853924 1.2241559 0.17012416 -0.387689
000180 3a c3 35 3f 79 70 a7 3f fc 37 11 bf d9 73 6c 3f
       0.7100102 1.3081199 -0.5672605 0.9236427
000190 74 97 29 3f 3e 69 54 bd 48 f1 a0 3f 3a d3 a5 bf
       0.66246724 -0.05185818 1.2573633 -1.2955086
0001a0 a5 a2 32 3f c0 16 d6 3d 3a 2f 80 3f 63 51 a3 3f
       0.69779426 0.10453558 1.0014412 1.2759212
0001b0 f3 02 a6 3f 13 54 12 be f2 56 23 40 f2 8f 75 bf
       1.296965 -0.14289884 2.5521817 -0.9592277
0001c0 41 e0 a0 3f b9 46 c5 3f 35 51 2c bf ba c6 fb bf
       1.2568437 1.5412208 -0.6731141 -1.9670022
0001d0 62 09 c3 3e 93 2d 8d 3e 88 6e 70 bf 59 18 45 3e
       0.38093096 0.27573833 -0.9391866 0.19247569
0001e0 69 73 0e 3f 0c 2e 29 c0 33 6e 51 3f fb 53 3a 40
       0.5564485 -2.6434355 0.81808776 2.9113758
0001f0 0c 4f d1 be 58 05 0c c0 41 60 30 bf 4a f4 f2 3f
       -0.4088062 -2.1878262 -0.6889687 1.8980801
000200 bf 20 4f 3d 88 aa 05 40 06 24 6c 3e 51 11 5b 3f
       0.05056834 2.0885334 0.23060617 0.855733
000210 eb b1 3b 3e 68 44 3f bf f8 a0 b0 3f 8d b0 88 bb
       0.18329589 -0.74713755 1.3799124 -0.004171437
000220 3a 88 a2 3e 76 28 31 3f ac c7 9e 3f 81 0b 75 bf
       0.31744558 0.69202363 1.2404685 -0.9572068
000230 de f1 8c 3e 65 cd 0c be e0 c7 a7 3e 00 9a 6e bf
       0.2752828 -0.13750227 0.3276968 -0.93203735
000240 6e 02 86 3f 33 48 97 3e 70 6d 9f bf e3 9b a9 bf
       1.0469491 0.2954727 -1.2455273 -1.3250698
000250 57 25 c8 be 46 3f ca 3e 82 52 8f 3d d8 01 05 3f
       -0.39090988 0.395014 0.06998159 0.5195594
000260 55 f5 71 bf 66 59 dc 3e 05 51 97 3e 55 1a e7 bf
       -0.9451497 0.43036956 0.29554 -1.8054911
000270 ac e4 87 bf 0f e6 45 bf 13 cd 8f bf 86 62 f6 be
       -1.061666 -0.77304167 -1.1234459 -0.48122042
000280 0d 0c 6c bf af ab 07 c0 b9 c9 cf be c6 40 fc 3e
       -0.9220589 -2.1198537 -0.4058359 0.49268168
000290 7e 63 3e bf 17 b8 fb 3f a4 70 a0 3e 3b ae 14 40
       -0.74370563 1.9665555 0.31335938 2.3231342
0002a0 8e 10 19 3f 3d 40 46 bf 62 38 3f 3e b7 5a 04 3e
       0.59790885 -0.7744177 0.18673852 0.1292523
0002b0 4d ff c5 3e df 47 c9 3f 5c 6a 2b bf ea 07 78 bd
       0.38671342 1.5725058 -0.66959167 -0.060554422
0002c0 8d e9 f8 bf 5d 1f a9 3e ab 16 bd be d4 1e a4 3d
       -1.9446274 0.3303174 -0.36931357 0.080136925
0002d0 a2 b8 92 3e f0 0b 76 bf c3 9e 1d bf b9 8f 32 3f
       0.2865649 -0.96111965 -0.61570376 0.69750553
0002e0 ee fe 38 c0 09 fc dd 3e 76 c8 26 bf e3 b1 a4 be
       -2.8905597 0.4335635 -0.6514963 -0.32166967
0002f0 85 f5 06 ba dc cd 3d bf 8c 49 58 3e bf da be 3f
       -0.00051482796 -0.7414224 0.21121806 1.4910506
000300 b2 52 82 3e df 02 ed be 48 a0 0c 3f 84 3a b9 bf
       0.25453717 -0.46291253 0.5493207 -1.4470983
000310 13 91 8e 3e fb 1b 2b bf 95 2a bb bf e0 09 77 3f
       0.27845058 -0.6683957 -1.462237 0.96499443
000320 2e 4a 2f bf 6e 20 84 3f a0 13 13 40 24 93 85 bf
       -0.68472564 1.0322397 2.2980728 -1.0435529
000330 ca e5 3c 3d fd 4c 57 c0 0f 6d 34 40 6d 7c 37 3f
       0.04611758 -3.364074 2.8191564 0.71674234
000340 77 42 70 3f 60 89 33 bf 77 e7 80 3f d1 1c 59 3e
       0.9385142 -0.7013149 1.0070637 0.21202399
000350 d4 6e c4 be 64 ec 83 bf 1e 6f 90 bf 73 9b 71 3e
       -0.38365805 -1.0306516 -1.128391 0.23594455
000360 30 63 47 3f 22 9b 3c 3f 12 ee e2 3f 0a 34 7f bf
       0.77885723 0.73674214 1.7728903 -0.9968878
000370 5a c0 ca bf dc 4d 95 3f 6d 61 83 3e dd 55 38 3f
       -1.5839951 1.1664386 0.25660267 0.72006017
000380 a3 88 78 3f 23 a3 79 bf 1d 87 88 be ca d8 64 3e
       0.9708349 -0.9751455 -0.26665583 0.22348323
000390 94 ff 31 3f ea e7 25 40 99 8b 82 3e 06 1b a7 3f
       0.69530606 2.59228 0.2549713 1.3055122
0003a0 ca 46 c1 3f 0a 01 02 bf d3 77 d0 bc 66 69 36 bf
       1.5099728 -0.50782835 -0.025447762 -0.71254575
0003b0 22 96 56 bf 55 69 39 3f e9 d3 b7 3f 32 7b ee be
       -0.83822834 0.7242635 1.4361545 -0.46578366
0003c0 40 69 9b 3e 35 bb 08 c0 42 c3 18 40 01 00 d5 3f
       0.30353737 -2.1364262 2.3869176 1.6640626
0003d0 00 d2 b0 bd 43 3c 0e 40 e0 09 95 bf 0f 61 95 be
       -0.08633804 2.222428 -1.1643639 -0.29175612
0003e0 25 32 09 3f 2e 1a e0 bf f0 8f 75 3e 7a 57 3f bf
       0.5359214 -1.750799 0.23980689 -0.74742854
0003f0 80 fd 96 be 1b 8a 16 3f ae 1a 46 3f da 52 69 3b
       -0.2949028 0.5880448 0.7738446 0.0035602362

rnn.weight_ih_l0 f4 [32, 128]
000000 94 f4 4a 3e f1 cb b9 3e d9 97 01 3d 17 c5 31 3d
       0.19819862 0.36288407 0.031638954 0.04340085
000010 47 bb 17 3e 0e 01 15 be 83 87 83 3d b4 8f 0d 3d
       0.14817534 -0.14551184 0.06422331 0.034560874
000020 13 d8 59 bc e4 e8 bf bd ab fc 65 bd e6 f2 d3 3e
       -0.013296145 -0.09370592 -0.056149166 0.41396254
000030 9a ff ec 3d fa 00 22 3e c2 62 26 3e 01 d9 2f 3e
       0.1157219 0.15820685 0.1624861 0.17172624
000040 b5 93 f0 be 04 17 9d 3b 71 cb 00 be 01 46 4d be
       -0.46987692 0.0047940034 -0.12577607 -0.20046236
000050 49 d5 89 be 01 82 82 be 48 b9 36 bd 63 80 2f 3e
       -0.26920536 -0.2548981 -0.04461029 0.1713882
000060 1e cf 78 3c 2f ab 1f be 78 6b 00 bd 20 84 a9 3d
       0.015186099 -0.15592645 -0.03135249 0.08277154
000070 5b 7a a4 3d ff c3 0f 3e 07 fd b0 bd 46 6d da bd
       0.0803115 0.1403961 -0.08642011 -0.106653735
000080 bc 9d 43 be ea 44 1b bd f6 2b 87 bc 2c d9 1c 3c
       -0.1910314 -0.03790752 -0.016500454 0.009573262
000090 97 57 1d bb b3 42 bd 3d 59 8b 34 bd 62 dc 7a be
       -0.0024008506 0.092412375 -0.044078205 -0.24498132
0000a0 23 29 ce bd 1e 24 81 be 54 52 08 be 8e 63 7e 3d
       -0.1006644 -0.25222868 -0.13312656 0.06210666
0000b0 af 76 0e 3d df 24 38 3d 0e ce 61 bd de 7c 9b 3d
       0.034781154 0.044957038 -0.05512815 0.07592176
0000c0 36 99 51 3d fb 03 11 3d 2b 71 74 b9 cf f8 21 3d
       0.051171504 0.035404187 -0.00023311812 0.039543923
0000d0 e7 19 85 bd bd 55 35 be 68 b4 db 3c 62 a6 c1 be
       -0.06499081 -0.17708488 0.026819423 -0.37822253
0000e0 14 fa 65 be b7 a8 a6 be 09 35 8b 3e a3 b0 c3 bd
       -0.22458678 -0.32550594 0.271889 -0.09555175
0000f0 84 20 82 3d 85 66 29 be c1 7c a6 bb 4b 4b 47 3e
       0.06353858 -0.16543014 -0.00508079 0.19462316
000100 e4 c4 70 bd 96 fb a7 bd e2 2d f3 3e 6a b4 2a 3e
       -0.05878152 -0.08202283 0.47495943 0.16670385
000110 7b 7c 73 bc 7d c6 b9 3c 51 f3 a1 3e 87 56 3a be
       -0.014861221 0.022677654 0.31630948 -0.1819707
000120 27 77 0b bd dd c4 bb 3d 3f 1f fd 3c 01 1f 52 3e
       -0.03404918 0.09168408 0.030898688 0.2051964
000130 be bb 5c 3d cd 16 f8 3d 49 54 0f be 83 ca 6e ba
       0.053889982 0.12113724 -0.13996996 -0.0009109156
000140 30 63 1b be 12 39 0a 3e bf c2 10 be 8f e1 1a be
       -0.15174556 0.13498333 -0.1413679 -0.15125106
000150 28 c9 65 3e 08 86 69 3c b6 48 8f be d1 e1 b5 3e
       0.22440016 0.014253147 -0.27985162 0.35523847
000160 d9 50 8e be ea c0 20 3d 7b 3f 83 3c 7a 3f a3 3a
       -0.27796057 0.039246477 0.01602148 0.001245483
000170 74 cd 83 3e bd ee a0 bd 6b b2 b9 bc 2b a1 2e be
       0.25742686 -0.07858036 -0.022668084 -0.17053668
000180 be 2d 07 3f 57 a3 ef bd 3a 42 43 3d 88 75 29 3e
       0.5280417 -0.117010765 0.04767058 0.16548741
000190 c0 de 31 3d 15 51 74 3e 1d 73 22 be 6f 36 13 be
       0.04342532 0.23859055 -0.15864225 -0.14376234
0001a0 bd 6d aa 3d fb 47 8c 3d a9 ce 5a bd fd 21 89 bd
       0.08321712 0.06849667 -0.053419743 -0.06695936
0001b0 af 75 77 bd 3a 60 a7 3d c5 ec e2 3d a2 9c 23 3e
       -0.060414966 0.08172651 0.110803165 0.1597772
0001c0 6e 02 ab bd f5 32 8e 3d dd 61 07 be a6 a4 00 3f
       -0.08350073 0.06943313 -0.13220926 0.50251234
0001d0 33 91 45 3e 71 60 95 be 93 f1 f0 bd 96 72 15 3d
       0.1929367 -0.2917514 -0.117648266 0.03648623
0001e0 e6 19 26 bd f4 80 fa 3c fc 90 8a be 15 35 1e bd
       -0.040552042 0.030579068 -0.2706374 -0.03862484
0001f0 5e 38 30 3d 97 34 0a bd bf 64 1f bd 11 d6 15 be
       0.043022506 -0.03374156 -0.03891444 -0.14632441
000200 2a ba e8 3d 98 51 6b be fc 1b a1 3c aa 52 9b be
       0.11363633 -0.22980344 0.019666664 -0.30336505
000210 9b 59 89 be ca fa b4 3b 63 53 cc be 8e 6d 62 be
       -0.26826176 0.0055230604 -0.3990737 -0.22112104
000220 14 06 5a be d5 ce 83 3b 60 9b 40 3d f6 98 54 bd
       -0.21291381 0.004022459 0.047023177 -0.051903687
000230 f2 2e 86 be e6 27 a1 3d 42 8e 47 bc 8a ab b1 3d
       -0.2620769 0.07868938 -0.012179913 0.086752966
000240 5b 99 24 3e 41 03 58 bb 75 05 c7 3c 2d 12 cd 3d
       0.16074125 -0.0032960924 0.024294594 0.100132324
000250 e6 63 98 bd 63 1e f2 3d a2 63 1b be 22 1f ad bd
       -0.07440929 0.11822202 -0.15174726 -0.08453204
000260 72 95 34 3d 00 ed 9b bd b9 6d ac bd 59 11 60 be
       0.044087835 -0.076135635 -0.084193654 -0.21881618
000270 2d 0e 1f 3e 6a c6 60 bc 6e 1e 82 3e 08 0a 00 3c
       0.15532751 -0.013719181 0.2541384 0.007814892
000280 9b 33 b8 bd d4 9c 13 3e 81 c6 8e 3d 77 46 8b be
       -0.08994218 0.14415294 0.06971455 -0.27202198
000290 d0 ef 21 3e 2b 69 d9 bd e3 54 f1 be f6 f9 cc 3d
       0.15814137 -0.10615762 -0.47135076 0.10008614
0002a0 01 c5 db bc 22 71 88 3d 60 51 2e be 99 55 89 3d
       -0.026827337 0.06662203 -0.1702323 0.067057796
0002b0 60 64 9d bd cf 8f de 3d 11 15 92 bd 77 ee de bd
       -0.07685161 0.10867273 -0.07132924 -0.10885327
0002c0 0c de 0d be 63 17 6b 3e 2b ed 06 be 69 b2 e8 bd
       -0.13854235 0.2295814 -0.1317641 -0.11362154
0002d0 13 89 75 be 2f 16 e4 bd b9 e7 a1 ba be 9c 94 bd
       -0.23978071 -0.11137044 -0.0012352384 -0.07256459
0002e0 cf d5 91 3e c5 31 88 3d 45 ef 29 be 70 d3 be 3e
       0.28483436 0.06650118 -0.1659518 0.3727069
0002f0 dd 74 6e 3e a7 08 fe 3d 67 82 1b 3e ad ab 5a 3e
       0.23286767 0.12403994 0.15186463 0.21354552
000300 03 ba b3 be eb 5f 96 be c5 d9 f7 bd fa a6 75 be
       -0.35102853 -0.29370055 -0.12102083 -0.23989478
000310 7b be 03 3d 4f 5e 57 be 1c d8 fb 3d e6 7d 9f bb
       0.03216408 -0.2103207 0.12297079 -0.004867303
000320 f0 93 8a 3e d7 9f 49 be ca 28 6a be 3a d0 84 bc
       0.27065992 -0.1968988 -0.22867122 -0.016212571
000330 0d c4 9e bd f0 91 56 bd 2f 9d 40 bd 9d 69 50 3d
       -0.077522375 -0.05238527 -0.047024902 0.05088197
000340 c6 15 a1 bd 83 2f a8 3c 2b 23 a7 bd ca fb e1 bd
       -0.07865481 0.020530468 -0.08161005 -0.11034353
000350 07 a4 68 3d 9a 78 11 3e 20 4c e9 3d 8c eb 15 3c
       0.056797054 0.14206162 0.11391473 0.009150397
000360 6f ef f7 bd 98 60 c6 3c 86 84 85 be 4f d9 8f be
       -0.12106215 0.024215981 -0.2607767 -0.2809548
000370 f6 d4 2f bd cb 6c 0b 3e f7 f3 94 bc 5e 13 9b 3b
       -0.042927705 0.1361572 -0.018182738 0.0047325334
000380 50 d6 16 3e 17 0a dd 3d 5d 24 87 be 53 1b 24 be
       0.14730191 0.1079294 -0.2639493 -0.16026048
000390 1f f1 31 be 4c c1 1e bb 5b 59 05 3e 98 5b 1a be
       -0.17377137 -0.00242241 0.13022368 -0.15074003
0003a0 80 f8 25 3e 11 ee ec bd 72 87 25 be 3c 24 82 3e
       0.16208076 -0.11568845 -0.1616495 0.2541827
0003b0 34 b9 53 be 0b 36 75 bd 0e 9e 44 3e 91 6b 2c be
       -0.20676118 -0.059865993 0.19200918 -0.16837908
0003c0 ee 60 9a 3d a4 fe c5 3d 55 84 3e 3d da 75 05 be
       0.07538019 0.096677095 0.04651292 -0.13033238
0003d0 26 64 fe 3d dc c7 ab bd 5a ad 20 3c b3 c4 17 3c
       0.124214455 -0.083877295 0.009806955 0.009263205
0003e0 b2 44 87 3c 98 71 21 be a0 82 b4 bc d9 3e 01 3d
       0.016512249 -0.15765989 -0.022034943 0.031554077
0003f0 8c aa 87 3d 66 9e 0e 3e 46 be 87 be 8e 88 89 bc
       0.06624326 0.13927612 -0.26512355 -0.016788747

rnn.weight_hh_l0 f4 [32, 32]
000000 94 f4 4a 3e 22 34 ff bd 22 78 2a 3f ab 01 c5 bd
       0.19819862 -0.124611154 0.6658956 -0.09619459
000010 5b aa c3 bd c3 5d c1 bd 12 97 6a 3d fa 17 3c 3c
       -0.09553977 -0.09441712 0.057272978 0.011480326
000020 92 86 f3 3e 57 71 02 3e 6f 71 5e be d7 cc 34 3d
       0.47563607 0.12738548 -0.21722959 0.044140663
000030 cb 50 18 3e dc 5b 83 3d 03 5e f2 bd 59 a8 b2 be
       0.1487457 0.06414005 -0.118343376 -0.34894064
000040 12 d6 3a 3d 7c 96 9e 3e ca 2f 18 be 24 83 ed 3e
       0.04561431 0.30974185 -0.1486198 0.46389115
000050 34 65 aa 3e ed 96 5f 3d 3d 19 ca be 6e b6 fa be
       0.33280337 0.054587293 -0.3947238 -0.48967308
000060 7a a0 9f 3d d6 53 9b 3d 70 bb df 3e 17 4c a8 3b
       0.0779428 0.0758435 0.4369769 0.0051360237
000070 4f 12 79 bd 38 20 4f 3e 71 6e 69 3d fd 5a 17 3e
       -0.060808476 0.20227134 0.05699009 0.14780803
000080 d9 cb 37 3f 59 a2 eb bd 25 c6 87 bd ab cc 91 3c
       0.7179542 -0.11505575 -0.0662959 0.017797789
000090 38 db 29 bf bc 9e 31 be 34 9e 86 be a3 73 f8 bc
       -0.66350126 -0.17345709 -0.26292574 -0.030328577
0000a0 67 a0 79 3e 28 50 da be 1b f9 e1 3c b1 59 d1 bd
       0.24377595 -0.4263928 0.027584603 -0.102221854
0000b0 ca b2 84 3e 54 04 29 3c c4 ce 4c be 8b 82 42 3c
       0.25917655 0.010315973 -0.2000075 0.011871944
0000c0 c6 50 e6 be 60 4f 25 bd ae 35 26 3c 1a 48 a1 bd
       -0.449835 -0.0403589 0.010144634 -0.078750804
0000d0 47 fe e3 be 9c e9 bd 3c 8f 08 99 be 89 44 8b be
       -0.44529936 0.023182683 -0.29889342 -0.27200726
0000e0 46 27 11 3e 91 3d c1 3c 12 b2 31 bd f7 36 1e 3e
       0.14175138 0.023588927 -0.04338271 0.15450655
0000f0 eb 09 1c be 1d 76 cd 3e 8a 32 13 be fe 66 9c 3e
       -0.15238158 0.40129176 -0.14374748 0.30547327
000100 d3 65 88 bd 99 f0 17 3e 43 8e e2 be d8 50 a9 bc
       -0.066600464 0.14837874 -0.44249162 -0.020668432
000110 00 a3 f8 3c df e0 08 bf f2 7b 10 be ef 2a 22 bf
       0.030351162 -0.53468126 -0.14109781 -0.6334676
000120 ee ab 22 be c8 8e 45 be 47 da 8a be 1e 80 82 3c
       -0.15885898 -0.19292748 -0.27119657 0.015930232
000130 eb eb 17 be 9a cc a5 be 4c 8b 18 3d 9f ad 29 bf
       -0.1483609 -0.3238266 0.03724222 -0.6628055
000140 ba 77 83 3c 80 e9 80 be 40 dc 7f be dc 20 9a 3d
       0.016048301 -0.25178146 -0.24986362 0.07525799
000150 f0 70 af bd e7 df 0d bd 2e f7 b7 3e c0 30 c2 3e
       -0.08566463 -0.034637358 0.3593077 0.37927818
000160 47 99 17 3f a4 41 07 bd 2e dd be 3e 21 58 6d 3e
       0.5921826 -0.033021584 0.37278122 0.2317815
000170 02 0d 81 be 9c a4 5c be a8 23 ed 3d c8 c0 bf 3e
       -0.25205237 -0.21547168 0.115790665 0.37451768
000180 6b d7 3b 3f da a7 3d 3e 76 63 ca 3d 18 ba 87 3e
       0.73375577 0.18521062 0.09882252 0.26509166
000190 b8 08 2b bf 69 cc 1a be 10 61 41 be 54 09 07 3e
       -0.6681018 -0.15117039 -0.18884683 0.13187152
0001a0 cc 00 ca 3e d4 b5 9b be 37 5c 87 bd e9 1c a9 bd
       0.39453733 -0.3041216 -0.066093855 -0.08257467
0001b0 00 a8 99 bd 6c 30 b6 bd a6 3d 28 be 37 8f 6e be
       -0.075027466 -0.088959545 -0.16429767 -0.2329682
0001c0 39 5f 9f be 2d ad 24 be 34 f7 4c 3d 81 96 c6 3e
       -0.31127337 -0.16081686 0.05004044 0.387867
0001d0 67 9b 91 bd 05 2a 63 be ac bf 82 be 18 94 ad be
       -0.07109719 -0.22183998 -0.2553686 -0.3390205
0001e0 15 e1 fb 3b 66 08 9e 3d f5 f3 85 3d 93 83 4c be
       0.007686744 0.077164456 0.06540672 -0.19972067
0001f0 c7 8e 01 be 5d 6b ca 3c 69 43 07 bd 24 ec 95 3e
       -0.12652121 0.024709398 -0.03302327 0.29281723
000200 e6 b3 d8 be 01 a5 fe bd 55 a7 d1 be b1 ca 70 be
       -0.42324752 -0.12433816 -0.40947977 -0.2351482
000210 bd 36 82 3f 0e c4 40 bd 9e 5c 04 3f 4a 49 8e be
       1.0172955 -0.047061972 0.5170382 -0.2779029
000220 55 de 12 bf 57 01 9d 3d 93 0d 3a bd 6e 4a 28 3f
       -0.573705 0.07666271 -0.0454231 0.6573857
000230 ff a2 43 bc 8f d5 8b 3e c2 ba 39 be a4 54 d5 3e
       -0.011940717 0.2731137 -0.18137649 0.41666138
000240 4c b3 89 3e fb 90 01 bd d2 f8 d6 bd 70 a1 28 bf
       0.26894605 -0.031632405 -0.104966775 -0.65871334
000250 5e 6d 91 be cd 01 1d 3e 2b 03 f1 3d 82 fe d8 3d
       -0.28403753 0.15332718 0.11768182 0.105954185
000260 79 80 d7 be b0 f1 c3 bd 09 79 f2 be e6 fb 5a 3e
       -0.42090204 -0.095675826 -0.47357967 0.21385154
000270 4d 2e 25 bd 3d a2 11 3e 09 27 ba 3e 01 29 ee be
       -0.04032736 0.14222045 0.36357906 -0.46515658
000280 89 08 f5 bd 93 cb 09 bf 43 03 39 be 9a 8f 8d be
       -0.119645186 -0.53826255 -0.1806765 -0.27648622
000290 2f f9 e6 bc 59 11 f3 3d 31 bd 33 3f ad 3e bb bd
       -0.028194992 0.11868543 0.7021056 -0.09142814
0002a0 c2 2d 49 bf 4d 17 ac be 2c d6 66 be ef af dd 3e
       -0.78585446 -0.33611527 -0.22542638 0.4329829
0002b0 06 ab f4 bc 51 48 6e bd ed 38 e8 bd 85 0b f3 bc
       -0.029866707 -0.058174435 -0.11338983 -0.029668579
0002c0 d2 60 fb 3d 35 48 9a be 4f c8 16 be 2c 5b 2b 3f
       0.122743264 -0.30133215 -0.14724849 0.6693599
0002d0 cb da a2 3e 4c be 8a be e4 69 5f 3f fb f2 3c 3f
       0.3180755 -0.2709831 0.8727095 0.7380826
0002e0 6d b4 3d be 93 84 c9 3e cf 3b 9c 3d c4 76 39 bd
       -0.18525858 0.3935896 0.07628595 -0.04527928
0002f0 ff 40 49 be ba 56 6c 3d 0d b6 b1 3e 4d 95 52 be
       -0.196537 0.057699896 0.34709206 -0.20564766
000300 2e 6d aa bd 75 b4 19 bc 29 58 ab 3e 0d e7 37 bc
       -0.083216056 -0.009381403 0.33465698 -0.01122452
000310 31 55 90 bd ce a3 6e be 15 93 54 be 89 5c 4e 3e
       -0.07047499 -0.23304674 -0.20759232 0.20152487
000320 ae c3 28 3f b6 62 94 3e f9 bc a3 bd 14 8a a1 3d
       0.65923584 0.2898156 -0.07995028 0.078876644
000330 31 94 b1 bd 50 b1 8d 3e 3b 95 29 bf 6a f2 4e be
       -0.086708434 0.2767434 -0.6624333 -0.20209661
000340 1f d0 58 3f 54 76 6f bd d5 b4 e5 3c 69 62 12 3f
       0.8469257 -0.058462456 0.028040329 0.5718141
000350 ef d0 3e 3f ce 15 be 3d 7c 93 ba 3e 88 85 76 3e
       0.7453756 0.09281503 0.36440647 0.24074376
000360 bc 25 f5 3d 14 0a 20 bd 7b f4 b5 3d 8a cd b6 be
       0.11970088 -0.03907211 0.088845216 -0.3570369
000370 ba 3b 81 3e 86 de b9 3e f0 06 35 be f2 2a 90 3e
       0.2524088 0.36302584 -0.17678428 0.28157765
000380 71 ac 36 bf c8 5e 14 3d ff 8a b2 bb 86 22 a2 bd
       -0.71356875 0.036223203 -0.0054486985 -0.07916741
000390 4a af 69 3d 19 38 a7 3c 0f 9f a6 be ea f5 e8 be
       0.057051934 0.020412492 -0.32543227 -0.45500118
0003a0 8b cb 05 bf 6d fd 08 3f c2 46 b3 be d2 d5 8f be
       -0.52263707 0.535117 -0.3501492 -0.2809282
0003b0 f6 bf 06 be 69 11 3f be 1b 2e 79 3d eb 14 46 be
       -0.13159165 -0.18658985 0.060834985 -0.19343917
0003c0 72 9e 78 3e fd fa 78 be 53 bd 96 3c 34 21 33 be
       0.24279192 -0.24314494 0.018400824 -0.17493135
0003d0 0b 97 66 3e 4b bb 6c 3e 49 c7 5b bf c2 b2 cc bb
       0.22518556 0.23118322 -0.8585096 -0.0062468955
0003e0 9a 04 8b 3f de a0 7e 3e ab c1 01 3e b1 dc b1 3e
       1.0860779 0.24866053 0.12671535 0.34738687
0003f0 90 f9 80 be 73 fe 73 bd f9 ce 03 be 56 f9 c1 bd
       -0.251904 -0.059568834 -0.12871923 -0.09471385

rnn.bias_ih_l0 f4 [32]
000000 31 8a 39 3e 20 2b 1f be 19 f1 11 3e da 51 a3 bc
       0.18119122 -0.15543795 0.14252128 -0.01993649
000010 e0 ff 66 bd 8e fc 5c bd 5c 72 c3 3c c3 cb 1c bd
       -0.056396365 -0.053951792 0.023858242 -0.03828026
000020 8e 42 bf 3d 76 6c e6 3d 3a d8 84 3c 07 66 32 be
       0.09338866 0.11251156 0.016216386 -0.17421733
000030 13 64 4b 3d e2 4f 4d bc cf 0b a4 3d 96 f6 23 be
       0.049655985 -0.012531253 0.08010065 -0.16012034
000040 fd cb 36 3e f8 97 a0 3e 00 4a 98 bd 95 f9 16 bd
       0.17851253 0.31365943 -0.074359894 -0.036859114
000050 4c 9e a3 3e 49 5e 55 3e 6b b4 c0 3c ad 37 98 bd
       0.31956708 0.20836748 0.02352353 -0.07432494
000060 bb 23 9d 3c 12 5e 98 be d5 6d 1e 3e ff 33 83 be
       0.019182077 -0.2975927 0.15471585 -0.25625607
000070 dc 3c 8d 3e 83 4a ad bd 68 de bd bd 01 1c 5b bd
       0.27585495 -0.084614776 -0.09270936 -0.053493503

rnn.bias_hh_l0 f4 [32]
000000 ee 2f c2 3d 1a e9 4d be f4 c2 0f 3e 52 09 8a bd
       0.09481798 -0.20108452 0.14039212 -0.06740059
000010 bd 06 64 3e d4 41 72 be 67 37 2a 3e 7c 32 41 bd
       0.22268195 -0.23657924 0.16622697 -0.047167286
000020 a9 c4 43 3e 00 83 89 b8 3f 19 8e 3e 0c e9 aa be
       0.19117989 -6.55707e-05 0.27753636 -0.33380926
000030 da e6 45 3d 61 53 65 3e 23 a8 18 3e 06 49 b2 be
       0.04831586 0.22395088 0.14907889 -0.34821337
000040 12 e0 fa bc 21 50 04 3d ec 7e a5 bd 33 42 35 3e
       -0.030624423 0.03230298 -0.08080849 0.17701034
000050 41 19 4f 3e be 1d b7 3e 58 1f e5 bd 6e 52 45 be
       0.20224477 0.3576488 -0.11187619 -0.19269726
000060 e0 3c f2 bd e7 9d df be 86 1c d5 3d 53 77 cb bd
       -0.11828017 -0.43675157 0.10405831 -0.09934869
000070 1c d0 ac 3e 17 61 bc bc c9 b1 8c bd 25 3f 41 be
       0.33752525 -0.022995515 -0.06869847 -0.18871744

fc1.weight f4 [8, 32]
000000 a5 db 29 3d 4e ed d8 3e bf 63 c2 be 6a b8 c7 3e
       0.041469235 0.4236855 -0.37966725 0.39007884
000010 fc 57 e3 be 47 91 c8 be 08 6b 75 3e b9 04 95 be
       -0.44403064 -0.39173338 0.2396661 -0.29105166
000020 6a 35 d7 be a4 7a 4d be ff 05 25 3f d3 a0 b8 be
       -0.4203294 -0.20066315 0.64462274 -0.360602
000030 e1 d0 35 3f 03 e3 2a 3f fb 13 de 3e d7 4f 9e be
       0.7102185 0.6675264 0.4337462 -0.30920288
000040 a3 79 cf bd 62 3a c4 3e 14 b6 0a bf 62 16 66 bd
       -0.10130622 0.38325793 -0.5418408 -0.05617369
000050 aa d1 97 be 44 cc 15 3f 08 f6 c5 be e4 5f 9d be
       -0.29652148 0.5851481 -0.3866427 -0.3073722
000060 29 43 25 be ac 61 02 bf d8 10 ab 3e 93 62 fc be
       -0.16138901 -0.50930285 0.33411288 -0.49293956
000070 fd 54 d7 be 8a 7e bd be 0d b7 12 be 5d 89 10 3f
       -0.42057028 -0.37010604 -0.14327641 0.564596
000080 36 04 8c bd f2 3d 03 bf 1a 8e 11 3f e2 7b e5 be
       -0.06836741 -0.51266396 0.56857455 -0.44821078
000090 f9 d5 53 3f f8 0f 9c be 2d b6 8d 3e fa 6e 7b 3d
       0.8274837 -0.30480933 0.27678052 0.061385132
0000a0 cd ba e7 3e 68 78 33 3f dc b3 84 be ed e4 99 be
       0.45259705 0.701056 -0.25918472 -0.3005747
0000b0 20 6b 50 be 2d a2 0f 3e 20 41 6f 3e c3 18 15 bf
       -0.20353365 0.14026709 0.23364687 -0.5824091
0000c0 6e c5 d8 3e f3 9d 07 3e e5 b2 02 3c dd c6 00 3f
       0.42338127 0.13243847 0.007977222 0.5030344
0000d0 ce 94 14 3f 0b ef 86 3e 79 89 40 be 5c 20 93 3d
       0.5803956 0.2635425 -0.18802442 0.071839064
0000e0 7d 15 03 3f 60 fb b1 bd 6f 9d d1 be fd 9f 38 be
       0.51204664 -0.08690524 -0.40940425 -0.1802978
0000f0 36 0a 27 3f 65 ed b6 3e 3b 82 0c 3f 8f 76 08 bf
       0.65249956 0.35727993 0.54886216 -0.53305906
000100 30 7d 0d bf f1 81 34 bf 32 c7 b8 be 99 89 0e bf
       -0.55269146 -0.70510775 -0.36089474 -0.5567871
000110 ff 2d 22 be 89 5e 88 3f d0 06 fc be 5d b6 ee 3e
       -0.15837859 1.065385 -0.49223948 0.46623507
000120 88 8b 20 bf fe a4 a4 be 3e e3 b3 3c 33 71 2e 3f
       -0.6271291 -0.3215713 0.021958943 0.6814148
000130 99 88 b3 bd 1c 77 e6 3d e5 1a ba be 3c 35 7e be
       -0.08766288 0.11253187 -0.36348644 -0.24824995
000140 ad 09 08 be 95 17 8a bf 8f 9a 62 3e 67 f1 48 3e
       -0.13284941 -1.0788447 0.22129272 0.19623338
000150 27 7f db 3e 29 7f c6 3d ad e4 12 3f 72 02 c6 bc
       0.42870447 0.096922226 0.5738018 -0.024171088
000160 81 5c e8 3e d9 f9 83 3f fe 16 38 be b7 9d be 3d
       0.45383075 1.0310622 -0.17977521 0.093074255
000170 92 fd d4 bd a8 96 8e 3e 84 68 ca bc 7b 51 11 bf
       -0.10399927 0.27849317 -0.02470804 -0.56764954
000180 78 05 98 3e e4 fb 51 bf be 5c db 3d d7 fb af 3e
       0.29691672 -0.8202498 0.107110485 0.34371826
000190 32 c4 ba 3d bd c3 2f 3f 93 14 be be 38 ab 18 3f
       0.091194525 0.6865805 -0.37125072 0.5963626
0001a0 76 d0 17 bf e4 3e 71 be 26 5b 3b bd c5 18 e0 be
       -0.5930246 -0.23559147 -0.045741223 -0.43768898
0001b0 b4 80 88 bf c6 39 61 bf 64 e3 b5 be 94 ba c5 be
       -1.0664277 -0.8797878 -0.35525048 -0.3861891
0001c0 79 d4 f4 3e 79 50 66 bf 31 9d db 3e 42 19 8b 3e
       0.47818354 -0.8996654 0.42893365 0.27167708
0001d0 75 fe 89 3e 07 c8 80 bf e9 7d 9a 3e b0 03 d6 3e
       0.26951948 -1.0061044 0.30174187 0.41799688
0001e0 e6 26 cd 3d ad a6 7d 3e 63 29 e3 bd e8 35 0c 3f
       0.10017185 0.24770613 -0.11091878 0.54769754
0001f0 3d 66 c8 3d 62 f9 7f be ff 17 00 3f cc b2 a2 3c
       0.097851254 -0.24997476 0.50036615 0.019860648
000200 49 35 e1 be 98 0e 58 3e dd 53 33 bf 2f e8 b0 be
       -0.43985966 0.21099317 -0.7004984 -0.34552142
000210 dc ca dc 3e f7 f6 a6 3d 46 81 14 bf 0b 70 1f be
       0.4312352 0.081525736 -0.58009756 -0.15570085
000220 1b af 2c 3f c6 1f 71 3e 6f cd 64 be 75 c3 7f be
       0.6745469 0.23547277 -0.22343992 -0.24976905
000230 df 55 8d bf 14 56 bf bf fc 7f 5e bf e0 e5 31 3f
       -1.1041831 -1.4948144 -0.8691404 0.69491386
000240 8e 12 d9 be 03 24 c0 be 48 7b 93 3f 84 e8 6a be
       -0.4239697 -0.37527475 1.1521997 -0.2294026
000250 bf f9 45 bf 25 d5 b7 bf 11 63 d5 3e 53 40 08 3f
       -0.7733421 -1.4361922 0.41677144 0.5322315
000260 80 76 f3 3d 25 6b fa 3d ed c1 b2 3e 17 89 2a 3f
       0.118878365 0.122274674 0.3491358 0.6661543
000270 df 99 2e 3f 3c ae b8 be 25 ef 20 bf 78 78 ee be
       0.6820354 -0.3607043 -0.62864906 -0.46576285
000280 7e fe 7b 3e 3d e6 da 3c 40 21 0d 3e 27 1c 7a 3e
       0.246088 0.026721114 0.13782215 0.24424802
000290 6e e4 35 be 5b 3d 44 be ad c9 ae 3e 4a 53 08 3f
       -0.1776292 -0.1916403 0.3413824 0.5325209
0002a0 fd 95 e9 3e f6 23 e3 be 86 22 ee be 5d c8 20 3f
       0.45622244 -0.44363374 -0.46510714 0.6280573
0002b0 fd 7f 3a bc 27 c5 af bd 96 36 0f be 03 a6 ee 3e
       -0.011383054 -0.08582526 -0.13985667 0.46611032
0002c0 b8 42 bf be d9 da f3 bd 89 32 17 3e 8e a8 42 bf
       -0.3735559 -0.11906976 0.14765371 -0.76038444
0002d0 3f c3 bb be c1 d4 0b bd bd 94 57 be ba db a1 3d
       -0.36672398 -0.034138445 -0.21052833 0.07903238
0002e0 da 35 02 be fe 13 d6 3d 47 42 6f be 5d 13 9a 3e
       -0.12715855 0.10453032 -0.23365127 0.30092898
0002f0 d4 37 5b be d1 8c fa 3e a8 cc 94 3d 7a f5 f9 bc
       -0.21408015 0.4893556 0.072655976 -0.03051256
000300 0a 25 97 3e 22 a8 7b be e4 9a 9c 3e d5 2d ca 3d
       0.29520446 -0.24575856 0.30586922 0.09872023
000310 7b df 8a bd a1 ac 28 3f 4c 84 07 be 48 64 d0 be
       -0.06780907 0.6588841 -0.13234061 -0.4070151
000320 27 d1 8a 3e 06 1d 90 be 9d ef 25 3e d0 d6 bd 3e
       0.27112696 -0.28147143 0.16204686 0.3707795
000330 e5 4c 8c be bf d7 92 bd 86 75 aa be 3d 8b 8b 3d
       -0.27402416 -0.071700566 -0.33292788 0.06813667
000340 57 41 18 3f 7e f7 bb be 9a 49 83 3e 2d 67 ed 3e
       0.594747 -0.3671226 0.2564209 0.4636778
000350 28 23 01 bf 80 20 b4 be 59 b0 a7 3e e2 98 89 bb
       -0.5044427 -0.35181046 0.3275173 -0.0041991333
000360 94 23 98 be 63 02 6c 3d 63 87 9b be 03 e1 b3 be
       -0.29714644 0.057619464 -0.3037673 -0.35132608
000370 3b 9d 59 be f3 d9 80 be 8f 76 e5 3d 1c dd 5a 3e
       -0.21251385 -0.25166282 0.11204254 0.21373409
000380 36 09 73 3e aa 18 9b be 61 b3 00 3e fa b8 8a 3d
       0.23733982 -0.30292255 0.12568428 0.06773563
000390 b7 9d d5 3d 37 1f 40 bd dd 4a 09 be 64 0a 02 bf
       0.10430472 -0.04690477 -0.13407464 -0.50797105
0003a0 cf f3 99 bf dd d8 22 bd 54 ae 6e bf dd 3a c6 3e
       -1.202753 -0.0397576 -0.93234754 0.38716784
0003b0 b2 d4 f5 bd 07 00 6f be 27 38 3a 3b 0a a2 12 3e
       -0.12003459 -0.23339854 0.0028414817 0.14319625
0003c0 49 0d 63 3f 7a 26 95 be 92 0b 05 3e b4 d0 01 3f
       0.88692147 -0.29130918 0.12992695 0.5070908
0003d0 b1 78 54 3f 6d cc 87 be ab 21 e0 3d 4b c5 00 3d
       0.8299666 -0.26523152 0.10943922 0.031438153
0003e0 4a ed 06 be f9 3d 04 3f 6e d1 a5 3d 24 41 67 3f
       -0.13176456 0.5165706 0.08096586 0.9033377
0003f0 0d a5 8b 3b 62 6d 24 be d1 f7 89 bd f7 44 22 be
       0.004261619 -0.16057351 -0.0673672 -0.1584662

fc1.bias f4 [8]
000000 ae 69 a0 3e 9c 78 4c 3c 9f 9b cf be d2 78 ca be
       0.31330627 0.012479927 -0.40548417 -0.39545304
000010 d3 2f bb be 7e e8 de bd f7 8f 37 be 1e 8b df be
       -0.36559924 -0.10884188 -0.17926012 -0.43660825
