src/main/python/saved_models/cpp_1_28_CNNClassifier1_32embs_147id_32hd_0hl_Falsebid5kernel0.3dropout_2.pt (torch, 391371 bytes, 9 tensors)

emb.weight f4 [147, 32]
00000000: 11e2 703f e75c 5e40 8147 8abe 54fd 0c40
00000010: 176d 203f 0518 4bbd 0a97 acbf aa03 f7be
00000020: a75e c93f eeb4 3140 a9b2 e7be e51b cf3f
00000030: b031 a4be 3655 8d3f 6e66 45be 95f4 2e3f
00000040: 9647 5a3f 6cf9 10c0 b074 3a3f 3f40 fb3f
00000050: 3e1b a2bf eae0 b63c e0b0 57bf 3407 febe
00000060: dcb8 b73e b34e 0a3f db7e ad3f 00f8 d7bf
00000070: 6450 89be 5a1c 2640 16ce 3340 513e d33f
00000080: 9435 f23f 3ff8 54bf 307e ee3f 32cd f9be
00000090: 37fb 963f c6f3 673f 81af 08bf e178 fb3e
000000a0: 3028 75bf 0e25 ec3f 9fe0 30bf 4200 f93c
000000b0: a971 34bf 823f 873e 363b 88be 1718 2c3f
000000c0: 334d 973f 3151 2dbe 4d13 10bd 2e31 afbc
000000d0: 46ba 743f 3077 7a3f e4d4 dfbf dc93 8ebe
000000e0: 0c85 33be 58d6 17bc 1942 9dbe adbe 323f
000000f0: 8213 01c0 2d9b d2be a396 b93d 6df3 36bd
00000100: 7575 8fbf 616f 89bf 7b50 b6bf 88ff 883f
00000110: 550c 98bf c642 10bf 9e83 d9bf 5381 03c0
00000120: bf3c 4abf 32ea c9bf 8800 7abe 9e72 ba3d
00000130: 5e83 b3bf d7ad e4be 79c2 0abf cf8a e7bf
00000140: 81d4 83be 30fd 8bbf 5992 c43f e26a bcbe
00000150: 7678 5cbe 6e25 323d 0dba 913f f977 7e3e
00000160: bc71 a93f 6055 9d3f 44ea 353f 7ebe 8e3f
00000170: 3f43 863f 421f d53e ed63 a43f afac b33e
00000180: 707e ce3d 443d d9bd bbf0 b7bb 6f3c 96bf
00000190: 0795 fdbc 4ebe 6238 5a16 00bf 0619 553f
000001a0: cb15 f1be 5a77 f93e ec6c 453f f473 afbf
000001b0: 11c1 4ebe 71b4 e83e a949 c7be d6b7 9ebf
000001c0: c440 e63e acf2 1d3e 40a2 c53e 55c9 bc3f
000001d0: 6efd dbbe a9bd a33d 74df a83f 28f9 0a3f
000001e0: fbcb 2dbe 654d 3abf 8151 3abf 5462 87be
000001f0: 7fa8 8d3f e3a4 27be bb19 033f 6584 b23f
00000200: f4bb b63d 03aa 203f 5a9d 6abe 10ea 1d3f
00000210: cb02 32c0 36f8 72bf 83d1 53bf 8694 96be
00000220: 891e cd3d ca85 1cbe ca42 1bc0 9880 953f
00000230: e05d 2ebe 1f79 a1be a082 6c3d a680 15be
00000240: 5ee5 203e 16fd 323f 0846 92be 1099 cb3f
00000250: 37d1 583f 4c7b 9f3f 671d 95be dd46 1e3f
00000260: 4db2 92bf fd86 8dbe 211a 08bf 7f73 2a3f
00000270: b679 8d3f 279f d03f 6e7c 083f e973 e23f
00000280: 9c1c 40bd 4bc7 8ebe d857 62bf f490 b7bf
00000290: ac18 d6be 6073 e8be 8368 0bc0 6462 96be
000002a0: 1a8f 13c0 158a 123f 6242 95be 499b 6bbf
000002b0: 8464 98be e691 ccbf d12b b83f ebc6 663e
000002c0: b0e9 e9bf 92f4 2a3f 2c11 40bf fc51 08c0
000002d0: 56dd b53f fbf0 d2bf 3275 b13e f522 be3f
000002e0: f736 30be fc0c 313f 3293 8dbf b684 b43e
000002f0: ff74 4240 66a6 24c0 6d81 173e de13 d23f
00000300: fbe9 96bf b7dd 13c0 8453 4ebf 0ec6 4d3d
00000310: 1606 5fbf 5828 7abf a7fe b0bf c48c 983f
00000320: d793 91bf 020c 3dbf 716e e4bf 84ca 643f
00000330: 7009 72bf 166d 34bf c6ff 32bf ea7d dfbf
00000340: e9f7 af3e c890 a4be 2235 c23f b33d a13e
00000350: 279b 1e3e ba35 cb3e a745 703e 9969 dc3e
00000360: 0198 21be 5260 dd3f 499b e9bd f828 4d3f
00000370: 3f69 0240 0412 7cbf ad95 8bbd 73b0 6c3e
00000380: 8253 3ebe 1105 8a3f beec 8c3e fbbe 04bf
00000390: 06c1 dfbf 7520 79bd 27a6 2d3f 7101 223f
000003a0: 9340 f5be d7dc a13e ed49 6ebd ec8b 793f
000003b0: 72e7 7fbf 415a 31bf d741 1f3f d760 bebf
000003c0: 96fb 94bf e5bf 9a3f f378 e4bf 8489 1240
000003d0: aee7 a13f 622e 113f 4a9e 533f 91ee 963f
000003e0: c419 1fc0 8a9d 053f 87f1 513f 7757 503f
000003f0: eea4 ce3f aced 883f b19b 323d 2a9a 4cbd
0.9409495 3.4744203 -0.27007678 2.202962 0.6266646 -0.049583454 -1.3483593 -0.48244983
1.5732011 2.776668 -0.45253494 1.6180388 -0.3206916 1.1041629 -0.19277355 0.6834195
0.8526548 -2.2652235 0.728343 1.9628981 -1.2664564 0.022324044 -0.84254265 -0.4961487
0.35883224 0.54026335 1.3554338 -1.6872559 -0.26819146 2.5954804 2.8094535 1.6503392
1.8922601 -0.83191293 1.8632259 -0.48789364 1.1795415 0.90606344 -0.533928 0.4911566
-0.95764446 1.8448808 -0.69092745 0.03039563 -0.7048593 0.2641564 -0.26607674 0.6722426
1.1820434 -0.16925503 -0.035174657 -0.021385755 0.9559673 0.97838116 -1.7486844 -0.27847183
-0.17531222 -0.009267412 -0.3071449 0.698222 -2.0168157 -0.41134015 0.09061935 -0.044665743
-1.120772 -1.0737115 -1.4243311 1.0702982 -1.1878763 -0.5635189 -1.6993291 -2.0547683
-0.7899894 -1.5774596 -0.24414265 0.09103893 -1.4024465 -0.4466388 -0.5420299 -1.8089236
-0.25748065 -1.0936642 1.5357162 -0.36800295 -0.21530327 0.043492727 1.1384903 0.24850453
1.3237834 1.2291679 0.71060586 1.1151884 1.0489272 0.4162541 1.2842995 0.35092685
0.1008271 -0.106073886 -0.005613414 -1.1737193 -0.03095485 5.4059834e-05 -0.50034106 0.8324131
-0.4708694 0.4872387 0.77119327 -1.3707261 -0.20190836 0.45450166 -0.38923386 -1.2399852
0.44971287 0.15424603 0.3860035 1.4748942 -0.4296679 0.07995159 1.3193192 0.5428643
-0.16972344 -0.72774345 -0.72780615 -0.26442206 1.1067046 -0.16371493 0.51211137 1.3946654
0.08922568 0.6275942 -0.22911587 0.61685276 -2.7814205 -0.9490999 -0.82741565 -0.2941019
0.1001559 -0.15285411 -2.4259515 1.1679869 -0.17027998 -0.3153772 0.05774176 -0.14599857
0.15712497 0.6991743 -0.28569055 1.5906086 0.84694237 1.2459502 -0.29123995 0.6182688
-1.1460663 -0.2764205 -0.5316487 0.66582483 1.1052768 1.629857 0.53314865 1.7691623
-0.046902284 -0.27886423 -0.8841529 -1.4341111 -0.41815698 -0.45400524 -2.178254 -0.2937194
-2.3056092 0.57241946 -0.2915221 -0.9203382 -0.29764187 -1.5982025 1.4388372 0.22536819
-1.8274441 0.66779435 -0.750262 -2.130004 1.4208171 -1.6479791 0.34659725 1.4854418
-0.17208467 0.6916044 -1.1060545 0.352575 3.0383909 -2.5726562 0.14795466 1.6412313
-1.1790155 -2.3104074 -0.80596185 0.050237708 -0.8711866 -0.9771781 -1.3827714 1.1917958
-1.1373242 -0.7384645 -1.7846204 0.89371514 -0.9454565 -0.7047895 -0.6992153 -1.7460301
0.34368828 -0.3214171 1.5172465 0.31492385 0.15488873 0.39689428 0.2346407 0.43049315
-0.15780641 1.729502 -0.114065714 0.8014064 2.0376737 -0.9846499 -0.06815658 0.23114185
-0.18586543 1.0782796 0.2752437 -0.51853913 -1.7480781 -0.06082197 0.67831653 0.6328345
-0.4790083 0.316138 -0.05817597 0.9747913 -0.9996253 -0.6927834 0.6220984 -1.4873303
-1.1639278 1.2089812 -1.7849411 2.2896433 1.2648828 0.567114 0.82663405 1.1791555
-2.4859476 0.5219351 0.82009166 0.8138346 1.6144083 1.0697532 0.04360551 -0.04995171

conv1.weight f4 [32, 32, 5]
00000000: 4184 75bd b206 5bbd a536 a8bd cfb5 4b3d
00000010: 0892 c1bc f1a0 15be b8b2 a73c 889b 433d
00000020: fd5e b43d 50e6 903d 0657 27be b735 e7bd
00000030: f52d 02be 00bb 03be ae36 a5bb 536a 2d3c
00000040: 9b61 d6bd 5bb9 f03d 5932 cf3c 085b 993d
00000050: 7d64 87be a609 083d ae38 893c 1652 763d
00000060: 6b6e 84bd 69c3 863e ada0 b93d 0976 703d
00000070: a22e 67bd 8d7b 973d d46b acbd 042a 053e
00000080: bf22 893d 6b65 22bd f2e1 0c3c 5bb5 db3e
00000090: 0f3e c23b d6ee f83b ae07 003c 1748 1c3d
000000a0: 606b b83d ccef 36bd 88f8 3a3d 8e40 34bd
000000b0: 4857 123d a320 0bbe e74b 1abc fb4e 963d
000000c0: 276e a0bd 0cad 003e ec9e 15bd 7641 aabd
000000d0: ce56 0cbe 71ce 5cbd 71c1 05bd a3ab 3dbe
000000e0: 6b7c 02be f2ac b6bd dbe4 25bd 515d b43d
000000f0: 5f30 5ebe 358e 51be 4c0d ef3d 5bbf 48bc
00000100: 34db 07be a7bf 58be 2ae2 44be b5df 14bc
00000110: eaca 35bd 65e9 eabc cc7f 06be 6f2b f43d
00000120: 0ad0 733d 0eed 02bd a24d 6b3d 92e4 613c
00000130: 9e30 413d 9e05 aebd f178 5cbd e90a c03d
00000140: 4014 66bd a797 b53d a761 ae3d 3d80 383d
00000150: c2ed db3d d921 6d3e 5ce8 ff3d ff80 f13d
00000160: 666c b03c 02b6 533d e1a8 8a3e 3eed bd3d
00000170: 21a4 f83d 073d 513e 0b26 ce3c 94b4 9c3e
00000180: c25f a23d 6554 19bd ea33 d93d 20ff dc3c
00000190: bee2 4d3e 3bde 95bd 6d2f 83bd 6939 103d
000001a0: 6849 27bd d879 5ebe 70b4 9d3d d281 8b3d
000001b0: 61be 243e 6ca7 663c 450d 013e fc9a c93d
000001c0: cd89 7e3d ea12 12bd 9fee 89bd d07c c2bc
000001d0: e74c 163e d9e0 783d 7951 3cbe 131d b2bd
000001e0: aa18 34be 20f3 75bc bfe0 cd3d f0d2 5bbd
000001f0: 8149 92bc 52dd 0ebe 5a59 afbc 7a5b 913c
00000200: d7db dd3d 9928 9d3d 9bb9 3a3e 9ddf 8dbd
00000210: 18ae 803b 75e1 233c ec63 2bbd 3235 f6bd
00000220: b972 0d3e 3e8b f83d b953 023e d75b 003c
00000230: 87aa e93d 349c 513d 54c8 42bd c3f0 2e3d
00000240: 8821 5ebe 9ac4 16bd 6011 10bd de1d 143e
00000250: 7657 fc3c e2eb b83c 3378 06be 4f00 1b3e
00000260: d706 31bd ebb6 54bc c71f c5bc 1850 853b
00000270: 149f da3c be3b 853d e374 d43d ae4c fa3d
00000280: f1d5 6bbe ae18 ebbd 9ee1 7d3d feed 76bd
00000290: 4f8a 3abe ae11 33bd 828e 833d fc33 efbd
000002a0: abc8 73bd 1049 6bbe dec4 b73b fb4f 16be
000002b0: 3be9 4bbe 7964 4e3e 9ed2 ec3c 9c7c 1f3e
000002c0: 910d a13d ab98 c0bd 11b5 a13e cbcb 133e
000002d0: 10df 07be 5ca9 5b3e 7d9a 8ebd acc7 9a3e
000002e0: 37f7 f2bc 032c 2b3d 458e 9d3e 3c05 633d
000002f0: 295b 77bd ae90 efbd fc47 233d d604 543e
00000300: 6af2 a9bd 17dd 923e 9df2 ecbd 4595 463e
00000310: 73b5 b63d a16e 4c3d 9e63 b13e 422a 433e
00000320: 24a4 233c 040b 633e 4b02 433d 1fc8 413d
00000330: d9f1 edbd 26be f43a bead 2cbd ea3d f8bd
00000340: c69e c33d 92b0 18be 2ce0 f83d 3ce9 96bd
00000350: 67d4 09be acad 06be 239c e83d 7fd2 b23c
00000360: ce81 51bd 8f8b a63d 4bd4 f7bc b00c 043e
00000370: 7893 973c c934 2a3d 85ae 07bc 0d6d 2e3e
00000380: 6cfb 763d 04c5 3bbe fc95 77be 2efe bf3d
00000390: 3355 c1bd 7d93 723e 82ef 053e bf6a 513e
000003a0: ba2a 80bd d513 3d3e 8af0 873e f004 ad3d
000003b0: 346f 21be cc6f 2f3e 330e dfbd 8d85 863d
000003c0: 378f 883d a9c8 313d 4a39 553e 5c55 2e3c
000003d0: d6a5 b03e bb1f cb3d d874 3f3e 5252 df3c
000003e0: df1f 4d3d 0bf3 0f3e a086 373d 7ccc 123e
000003f0: de54 0b3e 0ce0 033d 0f6f 4b3e 6f95 be3d
-0.05994058 -0.053473182 -0.082135476 0.049733933 -0.023629203 -0.14612176 0.020470962 0.047755748
0.0880718 0.070751786 -0.1634179 -0.11289542 -0.12712844 -0.12864304 -0.0050419187 0.010584432
-0.104678355 0.11754104 0.025292562 0.07488066 -0.26443854 0.033212326 0.01675066 0.060136877
-0.06466373 0.2632096 0.090638496 0.058706317 -0.056440957 0.07396612 -0.08419004 0.13004309
0.066960804 -0.0396475 0.008598791 0.429118 0.005927808 0.007596831 0.007814331 0.038154688
0.09004855 -0.044662282 0.045647174 -0.044006877 0.03572777 -0.13586669 -0.009417511 0.07339283
-0.0783351 0.12566012 -0.036528513 -0.08313267 -0.13704988 -0.053907815 -0.032655183 -0.18522505
-0.12742774 -0.089197055 -0.040501457 0.08806861 -0.2169814 -0.20464404 0.11672458 -0.012252654
-0.13267213 -0.2116686 -0.192269 -0.009086539 -0.044382967 -0.028675744 -0.13134688 0.11922347
0.059524573 -0.031964354 0.057447083 0.013787406 0.047165506 -0.08497165 -0.053826276 0.09377081
-0.056171656 0.08866816 0.085147195 0.045044173 0.10738708 0.23157443 0.12495491 0.11792182
0.021536063 0.051687248 0.2708197 0.09273766 0.1214068 0.20433436 0.025164625 0.3060652
0.079284206 -0.037434 0.10605605 0.026977122 0.20106027 -0.07317778 -0.0640553 0.035211
-0.04084149 -0.21726167 0.07700431 0.06811871 0.16088249 0.014078002 0.12602718 0.09844014
0.062143136 -0.03566257 -0.067349665 -0.023741156 0.14677773 0.060761306 -0.18390454 -0.08696952
-0.17587534 -0.015011579 0.100526325 -0.053667963 -0.017857315 -0.13951614 -0.02140491 0.017743815
0.10832947 0.07673759 0.18234865 -0.069274165 0.0039270036 0.010002484 -0.04184334 -0.12021865
0.13813294 0.12135933 0.1272725 0.007834396 0.11409479 0.051174358 -0.04755433 0.042710077
-0.21692479 -0.036808588 -0.03517282 0.14464518 0.030803423 0.022573415 -0.1313179 0.15136836
-0.043219414 -0.012983064 -0.024063004 0.004068386 0.026687182 0.065055355 0.10373857 0.12221657
-0.23030831 -0.11479317 0.061982743 -0.06028556 -0.18216823 -0.043718033 0.064236656 -0.11679837
-0.059517544 -0.2297709 0.005608185 -0.14678948 -0.19913189 0.20155515 0.028909024 0.15574878
0.07863916 -0.09404119 0.31583455 0.1443321 -0.13268685 0.21451324 -0.0696306 0.30230463
-0.029658897 0.04179002 0.30772606 0.055424914 -0.06038967 -0.11697517 0.03986357 0.2070497
-0.0829819 0.28684303 -0.11569712 0.1939288 0.089213274 0.04991019 0.34646314 0.19059089
0.009987865 0.22172171 0.04760961 0.04730999 -0.116183944 0.0018672391 -0.04215788 -0.12121184
0.09551768 -0.14911106 0.121521324 -0.07368705 -0.13459931 -0.13152188 0.11357906 0.021828888
-0.051149182 0.081320874 -0.030252596 0.12895465 0.018502936 0.041554246 -0.008281355 0.17033787
0.06029837 -0.18336874 -0.24178308 0.09374653 -0.094400786 0.23689075 0.13079646 0.20450877
-0.062581494 0.18464597 0.26550704 0.084482074 -0.15765077 0.17132491 -0.1089138 0.065684415
0.06667941 0.043404255 0.20822635 0.010640468 0.34501523 0.099181615 0.18696916 0.027260933
0.050079223 0.14057557 0.044806123 0.14335817 0.13606593 0.03219609 0.19866584 0.09305846

conv1.bias f4 [32]
00000000: ca86 04be 72c1 5abe daff 9fbc 871c cbbe
00000010: e072 15be 591c 09bf d6e5 a7be ac3d 45bd
00000020: 1dc1 a4be f9ea 61be 3735 6bbe 8d3d a4be
00000030: b86e 23be 1515 89be bdcd a4be 24d9 74be
00000040: a3a5 6bbe c927 6cbe 9a14 9fbe 63fb dbbd
00000050: 64fb 8abd 2edd b3be 1882 20be d6e1 fdbd
00000060: 2af3 f6bd 58ad aebe d186 b4be eb45 eabd
00000070: 97dd a1be 46e0 3ebd 201c 51be c057 1cbe
-0.12942043 -0.21362856 -0.01953118 -0.39670202 -0.14594603 -0.5355888 -0.32792538 -0.048154518
-0.32178584 -0.22062291 -0.22969519 -0.3207821 -0.15960205 -0.26773897 -0.32188216 -0.23910958
-0.23012404 -0.23062052 -0.31070405 -0.107413076 -0.0678623 -0.35129684 -0.15674627 -0.123965904
-0.120580986 -0.34116626 -0.35259107 -0.11439117 -0.31614372 -0.046600603 -0.20420885 -0.15267849

conv2.weight f4 [32, 32, 3]
00000000: 8616 b13d 0550 183d df79 043e 27ce 49bc
00000010: e979 05bd f869 693e dc63 f9bd 8d74 a6bd
00000020: 6a05 fbbd 3ffc ca3d 235a 09be 96f9 ba3c
00000030: 342b 6cbd 6854 e53a 5d1b 2cbd b0d0 a03d
00000040: a4bf af3d e140 083e de95 a13c 5d09 34bd
00000050: d38a f63d 842f ebbc 2ee0 82bd 73b4 b43d
00000060: bd1f e0bd 513d fabd 9f41 03bd 0f7f cb3d
00000070: 9fe7 cbbd ccbf b63e 02d4 99bd 9c87 8abc
00000080: 8d8f 4cbe 5f9e 2d3c 8747 b3bd 5007 55be
00000090: 84fe b33d 752c 3b3d abd9 543e aa4d 02bc
000000a0: 3533 69bd 8b65 303e d33f ad3d 6788 a4ba
000000b0: 6789 b6bd 21c7 d4bd 03df 9dbd 50f4 37be
000000c0: ab80 183e 660f 99be db99 c23c 8823 a5bc
000000d0: 552e 853c 4170 2cbd 9db6 ac3d 8426 46bd
000000e0: 8f68 013e 0ac1 b03c 8c76 dabc 6b37 24be
000000f0: c4f9 93ba cfc1 e6bc 0153 1fbe e9cc d8bc
00000100: 92fc 1bbe 60f6 5f3e 777e e13d 2753 783d
00000110: 3d45 2fbe 2a67 1dbc 8dfb 013e 7711 a0be
00000120: 547f 653d a309 a03d 7e92 67be 1029 dcbd
00000130: 6d0f edbd dd04 70bd 3c9b d93c 057a 98bd
00000140: 13a5 c3bd 7ea6 353e c2bc 0a3e e0cd 553d
00000150: b8fc 153c d1a4 353e 8682 5fbe a2ec 18bc
00000160: 7a24 e73b df22 853d 86bd 3b3d f11b 063e
00000170: b418 c63e a505 483d b87d bd3d 6297 c63d
00000180: 53e6 92bd 5cf0 2ebe 96c2 853e b18a b4bd
00000190: 3d2e 933c 15e1 18be d3e3 11bc 8dde 32bd
000001a0: 4591 5fbd 77b5 b63c 4eec d33e cc65 5cbd
000001b0: ac7e fa3c a59c f6bb 6b14 da3d 4a5c 69bd
000001c0: 092a d0bc 0e49 2bbe daeb c0bc 209a 003e
000001d0: 8a4c 07be 2d24 0fbe bb4e e0bd 8633 4fbd
000001e0: abd3 203d 127b 6b3c 51ac f2bd 6829 62bc
000001f0: d191 1abd 7c33 f13c 0525 f8bd 35ec eabd
00000200: 59d8 8b39 9044 453c 9636 d23c c128 443e
00000210: b8fa 0dbe abfe 21bd eaeb 70ba 4ceb 98bd
00000220: c1d5 15be 4023 4a3e 21f2 bdbd b7b4 dc3d
00000230: e12b 33be be5d 5b3d d10d 37be 6053 d73d
00000240: 3968 d13c cde9 033e 0158 163e 3dbb f8bc
00000250: 2a14 923d c50d 643d cc7b 4d3c ee63 313d
00000260: b1fc 933d f3ac bdbd e3a7 38bd 6861 00be
00000270: 4496 bcbd c0ec 2abe 9138 03be 693a 5d3d
00000280: b0db 723c 0977 fc3d 0e12 d93d 8cb1 4c3e
00000290: e7a2 8dbe 8cab 50bd a182 523e 922c 6a3d
000002a0: 0d95 8bbc dac3 813e 9e56 dc3d 4dd9 6c3d
000002b0: e4b1 51be db5a fa3d 2e90 af3b 4bb3 a8be
000002c0: 6b3c ef3d 9012 713d cdd4 483e 0e46 ff3c
000002d0: a11d 28bc 6207 98bd 2223 833c c773 793d
000002e0: d20d c3bd acb2 f23d 6d2f 07ba acfb 05bd
000002f0: 0346 f5bd b620 0a3e 8df2 43be 31c9 553e
00000300: 05ad e53c f7fc aa3c 73c8 3d3e 08bd 8cbc
00000310: 515d 453e b713 513e 9afa 0fbd 06ed 0d3d
00000320: b13f 1abc 303e c4bb 3d19 9dbd 19fa 57be
00000330: c37f 03bd 4878 863d 1bd6 12bd 2462 b23d
00000340: af46 0bbc b7a4 a73e 7013 2dbe 3260 c83d
00000350: 3fe9 0fbe 2b55 d73d ef8a 1e3d d87c 08bd
00000360: 7804 2ebd cfad 9c3d 4c13 f9bd 4c58 123d
00000370: a436 5fbd f97a 073e 930a 803d 5b9b 583c
00000380: ba02 263e 5b2d debc 2078 cf3b 0f3b 7a3d
00000390: 75b1 a1bd 85a1 c03d aad7 8b3d 6ae1 92bc
000003a0: cb37 303d 69f4 113e 3632 bb3d 6f6e 5a3c
000003b0: ecba dfbd e0bc 0b3d 1b2b 03bd ecb9 5c3e
000003c0: 57e8 c83d b4ff 083e 7587 e4bd 3b35 883d
000003d0: 0711 863b c4be 5c3c 5c3f b6bd bf8b f63a
000003e0: 032c 28be d11a 6bbc 86fa 17bd b10f bebe
000003f0: 7ba1 c0bc b5d0 0abd 02c2 493e 0074 53be
0.08646874 0.037185688 0.12937115 -0.012317217 -0.032586966 0.2279433 -0.1217725 -0.08127699
-0.12256892 0.099113934 -0.1341329 0.02282409 -0.05765839 0.0017496468 -0.042018283 0.07852304
0.085814744 0.13306 0.019724783 -0.043954242 0.12038197 -0.02870918 -0.06390415 0.088234805
-0.109435536 -0.122187264 -0.032045003 0.09936344 -0.099562876 0.35693204 -0.075111404 -0.016910367
-0.19976635 0.010596841 -0.08753877 -0.20803571 0.087887794 0.045696694 0.20786159 -0.007953087
-0.0569336 0.17226236 0.08459439 -0.0012552858 -0.08912926 -0.10389543 -0.07708552 -0.17964292
0.14892833 -0.2989456 0.023755005 -0.020158544 0.016257444 -0.04209924 0.08433268 -0.048376575
0.12637542 0.021576423 -0.026667856 -0.16036765 -0.0011289646 -0.028168587 -0.15559007 -0.026464896
-0.15233067 0.21871328 0.110104494 0.060626175 -0.17116256 -0.009607116 0.12693615 -0.31263325
0.056029633 0.07814338 -0.22614476 -0.107500196 -0.11575208 -0.058598388 0.02656328 -0.074451484
-0.0955297 0.17739293 0.13548568 0.05219829 0.009154491 0.17738654 -0.21827134 -0.009333761
0.007053909 0.06500792 0.04583504 0.13096596 0.38690722 0.048833508 0.092524946 0.09696843
-0.07172837 -0.17083877 0.2612502 -0.08815516 0.017966384 -0.14929612 -0.008904415 -0.043669272
-0.0545819 0.022303326 0.41391224 -0.05380802 0.03057798 -0.0075259977 0.10648426 -0.05697278
-0.025410669 -0.16727087 -0.023549963 0.12558794 -0.13212791 -0.13978644 -0.10952517 -0.050586246
0.039264362 0.014372604 -0.11849273 -0.013803817 -0.037736718 0.029443495 -0.12116436 -0.11470834
0.00026673338 0.012040272 0.025660794 0.19156171 -0.13865173 -0.03954951 -0.00091904274 -0.07466754
-0.14632322 0.1974001 -0.09274698 0.10776656 -0.17497207 0.053556196 -0.17876364 0.105139494
0.025562393 0.12882157 0.14682008 -0.03036272 0.07132752 0.055677194 0.0125417225 0.04330819
0.072259314 -0.09261503 -0.045081984 -0.12537158 -0.092083484 -0.16691875 -0.12814547 0.054010782
0.014822885 0.12327392 0.10599147 0.19989604 -0.27663347 -0.05094485 0.20557643 0.05717141
-0.017038846 0.25344735 0.107587084 0.05782442 -0.20478016 0.122243606 0.0053577637 -0.3294929
0.11681446 0.058855593 0.19612427 0.031161334 -0.01026097 -0.07423283 0.016007964 0.06090143
-0.095241204 0.11850485 -0.00051569083 -0.032710716 -0.11976244 0.1348904 -0.19135495 0.2087753
0.028036604 0.020872576 0.18533497 -0.01717998 0.19273879 0.20417677 -0.0351511 0.03464987
-0.009414599 -0.0059888586 -0.076708294 -0.21091498 -0.032104265 0.065659106 -0.035848718 0.08710125
-0.008500739 0.32742855 -0.16901946 0.09783973 -0.1405382 0.105142914 0.038706716 -0.033322185
-0.04248473 0.07650339 -0.12161884 0.035728738 -0.05449547 0.13230504 0.06252017 0.013220633
0.16211978 -0.027121237 0.0063314587 0.06109148 -0.07895175 0.094058074 0.06828244 -0.017929751
0.04302196 0.14253391 0.09140436 0.0133319935 -0.109243244 0.034115672 -0.03202353 0.21555299
0.0980994 0.13378793 -0.11158649 0.06650778 0.0040913853 0.013473216 -0.088988036 0.0018809958
-0.16423039 -0.014349655 -0.037104152 -0.37121347 -0.0235145 -0.033890445 0.19702914 -0.20649719

conv2.bias f4 [32]
00000000: 2050 b0be 2e6f a0bd db12 64be 64cb 40be
00000010: dd71 d53a 19db 403d c268 9bbe 4709 b7be
00000020: 5b36 9cbe fa35 9cbe 27ef bdbd 7e6a 72bd
00000030: ca13 98be 9d41 08bd cb75 3dbe 3b52 1cbe
00000040: e2d4 b4be 4572 9abe 5b74 23be 91c7 84be
00000050: b3be 7cbe 038e 28be cc09 7abe fa83 71be
00000060: bd72 d0be bedf 7abe c890 8dbe 3c06 80be
00000070: 28eb acbe dae0 88be 17fb bdbe 4a57 8fbe
-0.3443613 -0.07833706 -0.22272818 -0.18827587 0.0016284544 0.047083948 -0.3035336 -0.35749266
-0.3051022 -0.3050993 -0.0927413 -0.05918359 -0.29702598 -0.0332657 -0.18501966 -0.15265743
-0.35318667 -0.30165306 -0.15962355 -0.25933507 -0.24682121 -0.16460423 -0.244178 -0.23585501
-0.40712538 -0.24499413 -0.27649522 -0.25004756 -0.3377316 -0.26734048 -0.3710563 -0.27996284

conv3.weight f4 [256, 64, 5]
00000000: 8ad9 80bd f5c2 423e 6819 0dbe 7599 4ebe
00000010: e899 8bbe 67ed 16bd 5117 94be 7419 22be
00000020: a236 9fbd b4fc 0e3a 38fe 52be 3902 9b3d
00000030: 5748 cbbd 23cf 5abd ab57 a63d a786 7abd
00000040: 9bef 9a3c f854 143e dc4c 15bd 2efc 2dbe
00000050: d680 4bbf 76c0 13be 1390 5fbe 650f 40bb
00000060: f0de f73c cffd eebe c1ec 083d 7040 26be
00000070: 5f52 07be d0ea 063e 9b71 963d 34df 28be
00000080: 0d0a bdbe 3c24 40be bf5e c2bd c068 25be
00000090: 8f30 0a3e e18c d3bd 50ba 00be 10d4 fabd
000000a0: 3b50 8dbe 093a 50bd d8ce 76bd 48ed 0bbe
000000b0: c0cc f2bc 5b6b 28be 70b0 9abe 1ed7 d33b
000000c0: 69a2 d63d b41e 6b3b 7d7c 95bd 3e8d 5a3e
000000d0: 032b e53d 5379 7abd a527 25be 5c49 bc3d
000000e0: 52ad 2a3d 4003 fb3d af03 453e 7978 7e3e
000000f0: e0e0 c0bd 5082 d9bd b496 b6bd b647 c2bd
00000100: e588 56be 6e08 953c 7702 f03d 3359 e6bd
00000110: 2a1a 973d b7f1 e53d fd36 4bbf 0386 0ebe
00000120: e0f0 a3bd 4c00 b7bd 27ec a1bc 098c 2c3e
00000130: 64ae 4cbe dfc4 1abd 9bec ff3d 0580 8f3d
00000140: 7678 aebe 20d2 2b3d 8f6a 7dbe e284 4cbe
00000150: f99b 07bd 5707 b53d f6f7 07bd 9569 b8be
00000160: 3071 283c f670 3ebe d615 36bf 35b8 1dbc
00000170: 2e14 a1bb df1f f9bd e6f9 c4bb 4035 b9be
00000180: d467 9a3d c7e8 8c3b de99 dfbd ad6a 8b3d
00000190: 0dc6 52be 9ec2 223d a028 75be b569 ca3c
000001a0: a685 b03d 6cd3 53bd 3a1c 973d 09c0 4dbd
000001b0: e7b7 9ebd 982e 733e de2e 173e d9e4 86bd
000001c0: abff e5bb 033e cc3d cd75 973d df6d b0be
000001d0: 2f2e 3bbc e515 0e3e 155b 163d b799 173e
000001e0: c701 93be ef48 8f3d e182 743e 75f1 04be
000001f0: 50d9 153e 747f 79be 3dd3 96be 89e5 d63c
00000200: 9d53 5ebe e591 0bbe 8a5c 22be e2ee bc3d
00000210: 2a55 cbbc 5fc5 2dbe 4142 2b3d 63c9 043d
00000220: 9bb3 943e ac55 833d 4c1b 013d 649e 57bd
00000230: 4497 b3bd 366f f23d 4af4 d33c aa4d aaba
00000240: ec99 ca3d c31c 7ebe b694 7cbe 22f7 8dbd
00000250: c342 73be 180b 013e 9c27 0dbe a313 043e
00000260: 3a18 7ebe 93fb c23b 6434 9a3d dabd 1ebf
00000270: 24b7 bebe eb3c 07be 0ec9 37bd c8b7 dfba
00000280: 2227 51be ef39 583e 56c3 523c 258b a53d
00000290: a2f9 b4be 7f00 d23d ec4f 91bd ba8d 85be
000002a0: 115d e4bd f868 c1bd f5d3 a93d f0cb 22be
000002b0: f96c 2d3e 5f6b 87be ed79 5fbe d446 fabe
000002c0: 4f36 0dbe 8515 51bd 40fa 46be 4966 4f3e
000002d0: ec43 23be 7735 9abd 3290 9bbd 1ac8 ea3c
000002e0: 59a9 353d c89f 00be 7544 86bd 45e0 083c
000002f0: 7087 7dbe 6f0a c4bd b687 883d 6abd 83be
00000300: 3ab6 cdbe e75b 293b 3181 94bd a12c dfbc
00000310: c3cb 53bd 3702 2dbe 4c95 523d 212c 3f3d
00000320: 452a 69bd ce8a 33be ff4f e4be 8c8a cf3d
00000330: cb41 7bbc 04a8 21bd a275 74bd 4f32 84bd
00000340: 4d23 31be 3465 c43d db4f fabe 8495 b4bd
00000350: b18e 62bd c501 c1bd f9e5 7b3d 0a0d 943d
00000360: cbf1 50bd 827c efbc f84d 7dbe 88e0 37be
00000370: 58fe f8be 9ca4 94be 3542 79bd 91cf 7c3d
00000380: 397b 8e3d 4acf 8b3d 8aa8 9dbd 290d 95be
00000390: 8a5d a5bd 0790 4f3d 28ff debe 502d b6bd
000003a0: 00fa 6ebe d793 e63d 6f00 b43d 8a1f 5a3d
000003b0: c7e5 aebe 4416 b4be d8f4 f8be 3c21 95be
000003c0: c9a1 053e b2de 4b3d c059 60be 06f2 9bbd
000003d0: 6b56 01be 3793 f5bd f734 a8be 9792 cf3c
000003e0: 21fd 0abd 619e 6e3d f72e 67be a29e 15bf
000003f0: 39dc 53be 5022 c63b d759 c33c 23cd 9abe
-0.06291492 0.19019683 -0.13779223 -0.20175727 -0.2726586 -0.0368475 -0.2892404 -0.15830022
-0.07774092 0.0005454526 -0.2060479 0.07568783 -0.09925907 -0.053420197 0.0812219 -0.06116357
0.01891308 0.14485538 -0.036450252 -0.1699073 -0.79493463 -0.14428887 -0.21832304 -0.002930605
0.030257672 -0.46678016 0.03342891 -0.16235518 -0.13215016 0.13175511 0.07345887 -0.16491395
-0.3692173 -0.18763822 -0.09490728 -0.1615324 0.13495086 -0.10329605 -0.12571073 -0.12247479
-0.27600273 -0.050836597 -0.060255855 -0.13664734 -0.029638648 -0.16447203 -0.30212736 0.006464853
0.10480196 0.0035876455 -0.07299135 0.21342942 0.111898445 -0.06115086 -0.16128404 0.0919368
0.041669197 0.12256479 0.19239686 0.24850644 -0.094178915 -0.10620558 -0.08915463 -0.09486334
-0.20950659 0.018192496 0.1171922 -0.11247482 0.07378037 0.11227744 -0.7938078 -0.13918309
-0.08004928 -0.089356035 -0.019765927 0.16850294 -0.199884 -0.037785407 0.12496301 0.0700684
-0.3407628 0.041948438 -0.2474768 -0.19972566 -0.03310773 0.088392906 -0.03319546 -0.36018053
0.010280892 -0.18597779 -0.7112707 -0.009626438 -0.0049157357 -0.12164282 -0.0060112355 -0.3617344
0.07539335 0.00430021 -0.1091802 0.06807456 -0.20583363 0.039736383 -0.23941278 0.024708608
0.086192414 -0.0517153 0.07378431 -0.050231967 -0.0774992 0.23748243 0.14763972 -0.06586618
-0.0070190034 0.09972765 0.073955156 -0.34458825 -0.011424585 0.1387554 0.036707956 0.14804731
-0.28712294 0.06996333 0.23878051 -0.12982734 0.1463368 -0.24365026 -0.29458037 0.026232498
-0.21711583 -0.13629873 -0.15855613 0.09225251 -0.024820883 -0.16969822 0.04181123 0.03241862
0.29043278 0.06412825 0.031520173 -0.052641287 -0.08769086 0.11837618 0.025873322 -0.0012993116
0.098926395 -0.24815659 -0.24666104 -0.069319025 -0.23755936 0.12601888 -0.13784641 0.12898116
-0.24813929 0.0059504 0.07529524 -0.6200844 -0.372491 -0.13206832 -0.044869475 -0.0017068321
-0.20425084 0.2111585 0.0128639545 0.0808318 -0.35346705 0.10254001 -0.07095322 -0.2608469
-0.111505635 -0.09443849 0.08292381 -0.15898108 0.16936101 -0.26449105 -0.21823855 -0.48882163
-0.13790248 -0.051045913 -0.194314 0.20253862 -0.15943879 -0.07529729 -0.075958624 0.028659869
0.044350956 -0.12560952 -0.06556026 0.008354251 -0.24758697 -0.095723026 0.0666651 -0.2573045
-0.4017809 0.0025842132 -0.07251204 -0.02724296 -0.051707994 -0.16895376 0.05141191 0.046672944
-0.056925077 -0.17533419 -0.44592282 0.101338476 -0.0153355105 -0.039466873 -0.059682496 -0.06454908
-0.17298622 0.095896155 -0.4888905 -0.0881758 -0.055311862 -0.09424166 0.061498616 0.072290495
-0.05101184 -0.029234175 -0.24736774 -0.17956746 -0.4863155 -0.29031837 -0.060854156 0.06172139
0.069570966 0.068266466 -0.07698162 -0.29111603 -0.08074482 0.050674465 -0.43554044 -0.088953614
-0.23337555 0.11258667 0.08789145 0.053252734 -0.3415968 -0.35173237 -0.486243 -0.29126918
0.13049997 0.049772926 -0.21909237 -0.07614522 -0.12630622 -0.1199097 -0.3285291 0.025338454
-0.03393281 0.05825651 -0.2257651 -0.5844518 -0.20689477 0.006046571 0.02384655 -0.30234632

conv3.bias f4 [256]
00000000: cb9d b63d 5427 edbd ef7c a43c 5c5a 12be
00000010: 8fc7 6b3d 4d31 dbbd 7a2b 37be d1fc 3dbe
00000020: e174 06bd 3208 dabd 24c0 9d3d ca03 1abe
00000030: 8645 2abe 9697 11be da83 1fbd d522 0c3e
00000040: 8fab 273e e222 18bd ddc7 dd3d c7d5 f9bb
00000050: 0a81 b2bc f76a fdbd af51 dcbd b6f3 6abe
00000060: 1fb2 eabc fd97 6abd 0e91 c83d 051b edbd
00000070: d8bf d9bd 00ad 10bd 38af fabb d1a7 383c
00000080: 61f5 503c c366 aebc 8b2a 17bd fc35 81bd
00000090: 0685 a1bc 1002 223e 61bc 2e3d aa45 6e3d
000000a0: e792 a83e 6bde 863d 12cb 80be 7c13 51bd
000000b0: dc94 81bd 05d3 56be 752d 3abd f986 253d
000000c0: efe5 ccbb b82b 1abe ea23 b5bd 67ab 21bd
000000d0: a58c d6bc 8b64 a7bd 059b b33d 6009 b83d
000000e0: 9ad4 37be 0ca9 0a3e cf7c 23be e634 72be
000000f0: fa74 c9bd 8276 003d e39e 89bd 838a 80bd
00000100: 2c88 76bd ebc8 68be a98c 713d afe3 8c3d
00000110: 3b90 0dbe 483c 98bc ab8e 0b3d 5ade 3fbe
00000120: ca26 f1bc 987c 933e 5c5a 02bd 2eb7 99bd
00000130: 9d99 9abd 19dc 883e 980b bd3d 803d 993d
00000140: 93d1 de3c cc8c ed3c c835 4e3d a668 60be
00000150: 38fc 2dbd 5b04 4ebe fbc6 fe3c 6cff 9cbd
00000160: 9037 17be 7219 c83d 6325 97bc 886f 363d
00000170: 4f4b fd3d 0479 69bc 865e e2bd 26c7 7cbc
00000180: 8be4 d33d b1ff 81bd 508a e93c cbaa f83a
00000190: d388 fcbc 7fc8 2a3b 3edd 583d b557 c0bd
000001a0: afd8 aebd a557 b2bd 2b4c 2ebd 9068 95bd
000001b0: 4c3b 713e f67c 55be e11b 81bd 2b6a b33d
000001c0: e864 3d3d 05af 8ebe 4400 233e b493 93bd
000001d0: f8dc 033d 99c3 d23c 6326 223e bbf9 103d
000001e0: 5b0c 7cbc b23c a4bd f783 dfbd 1968 01bd
000001f0: 8671 683e 044d 88bd fb80 f63d d4af 7e3d
00000200: 3894 283e e855 2abe 6d27 113e 4df8 0c3d
00000210: d744 6dbd ad38 033e cfaa 1f3e a182 823d
00000220: 3758 a8bd f8a9 3bbd b26a 0bbe 4fa2 83bb
00000230: 3cb0 363e deae c03d 667e 703d b280 c2bd
00000240: 4679 01bd 7e9c 73bd 0cd9 433e d30e 95bd
00000250: 9711 17bc 2b1e 3ebd 3bad 593d 116a f2bd
00000260: e6d8 00be 6b42 6cbd c5bb 9c3c 8d5a 1bbe
00000270: fa48 343e 2172 f8bd 36b4 803e 5257 2b3e
00000280: ec26 cdbc c6ac f5bd cbd6 64be cdbc 563c
00000290: 9af9 96bd 590b 253d 7a5b 06be db1f 68be
000002a0: df9f a2bd a2d5 3bbe 7130 50bd 969d 383d
000002b0: 3cce 09bd b2e0 92bd cca5 f5bd c332 24be
000002c0: eb94 303e 1d94 83bd 1e3a 39bd 9a35 de3c
000002d0: 8e7a 0cbd 5152 83bd ac2b 8a3d 039e b53d
000002e0: c344 49be 6077 47bd 3edf 3fbe 5174 34be
000002f0: 47a3 80bd 7e14 f3bd 026b 4c3c cee4 82bd
00000300: 7d43 12be 867d 0fbe 0747 a73d 771a f53d
00000310: 42b9 60bd 9a1c 98bc 3f8f e3bd 2604 e8bd
00000320: 4fd4 843d c364 133e 840f 8ebd 8b44 993d
00000330: 26ff b7bc 71a9 c2bd 8efe 1cbe 4ae4 56be
00000340: 570b 6b3d 7d55 1cbe 8b94 a43d 3ead 923b
00000350: 151c 39be d679 14bb e71d 07bd 26e5 43bd
00000360: acba 233d dfcd 90be 0895 bcbd 7a34 803b
00000370: 6608 c43d f59c bbbd 24e5 5ebd 2aa7 94bd
00000380: bbfc f9bd 822e e83d 3a46 ae3e 3396 4cbd
00000390: 4aa3 19be df00 eebb 524e f8bc 45d7 843e
000003a0: 1ff4 debc 12c7 833d f008 56bc 9fde 49bd
000003b0: c453 873e 3f3a d0bd b03d a63d 70c1 e03d
000003c0: 5e37 46be dbb9 81bd dd7a aabe f8c5 48bd
000003d0: 7ad4 56bc 7942 0abe 7f1a 9bbc 6dd2 d4bb
000003e0: 17f8 963e 2d72 57bd 5ed7 d9bd 0e5e 92be
000003f0: 1dbc 403c 9410 85bb f7a6 55be 4d6e b3bd
0.08916815 -0.11579767 0.020079104 -0.14292282 0.05756336 -0.10702763 -0.17887679 -0.18553473
-0.03282631 -0.106460944 0.077026635 -0.15040508 -0.16628084 -0.14217982 -0.038944103 0.13685162
0.16374038 -0.03714264 0.108291365 -0.007624361 -0.021790046 -0.123739175 -0.107577674 -0.22944531
-0.028649388 -0.057273854 0.09793292 -0.11577419 -0.106322944 -0.035321236 -0.0076502822 0.011270479
0.012753815 -0.021289235 -0.036905807 -0.06309125 -0.01971675 0.158211 0.04266012 0.058171906
0.32924578 0.065853916 -0.2515493 -0.051043972 -0.06327221 -0.20978935 -0.045453507 0.040411923
-0.006252996 -0.1505574 -0.08844741 -0.039470103 -0.026190111 -0.08173474 0.08769802 0.08986163
-0.17952195 0.13541049 -0.1596558 -0.23652992 -0.09836765 0.031363018 -0.06719758 -0.06276419
-0.060188457 -0.22732894 0.058972035 0.06879365 -0.13824551 -0.018583432 0.034071606 -0.18737164
-0.029437441 0.28805995 -0.031824455 -0.07505642 -0.07548831 0.2673042 0.09230727 0.07482433
0.027199542 0.028997801 0.05034426 -0.2191492 -0.042476863 -0.20118849 0.03110074 -0.07665905
-0.14767289 0.09770478 -0.018450445 0.04453996 0.123678796 -0.014250044 -0.11053185 -0.01542834
0.103463255 -0.063475974 0.028508335 0.0018971799 -0.030826962 0.0026059446 0.052945368 -0.09391729
-0.08537423 -0.08708123 -0.04255311 -0.07295334 0.23557776 -0.2084845 -0.063041456 0.08760484
0.04623881 -0.27867904 0.1591807 -0.072059065 0.032193154 0.025728034 0.15834956 0.03539441
-0.015383805 -0.08019389 -0.10913842 -0.031593416 0.22699556 -0.066553146 0.1203632 0.0621794
0.16462791 -0.16634333 0.14175196 0.034416486 -0.05792698 0.12814589 0.15592502 0.06372572
-0.08219951 -0.04581639 -0.1361492 -0.0040171514 0.17840666 0.09408353 0.058714293 -0.09497203
-0.031609796 -0.059475414 0.19125766 -0.07278218 -0.009220502 -0.04641549 0.05314372 -0.11836637
-0.1258274 -0.05768053 0.019132504 -0.15171261 0.17605963 -0.12131143 0.2513749 0.16732529
-0.025042973 -0.119958445 -0.22347562 0.013106537 -0.073718265 0.040294025 -0.13120833 -0.22668402
-0.07940649 -0.18343213 -0.050827447 0.04507216 -0.033643946 -0.071717635 -0.11994514 -0.16034989
0.17244308 -0.06424735 -0.04522144 0.027125169 -0.034296565 -0.06412185 0.06746611 0.08868029
-0.19655137 -0.04869783 -0.18737504 -0.17622496 -0.06281143 -0.11869143 0.0124766845 -0.06391297
-0.14283557 -0.14012727 0.08167844 0.119679384 -0.054864176 -0.018568326 -0.111113064 -0.11328916
0.06485807 0.14393906 -0.06936553 0.07483777 -0.022460531 -0.09504975 -0.1533148 -0.20985523
0.05738386 -0.15266986 0.08036145 0.0044762185 -0.18077119 -0.0022655628 -0.0329875 -0.047825955
0.039972946 -0.28282067 -0.09208113 0.0039125057 0.095719144 -0.091607966 -0.054417744 -0.072584465
-0.12206408 0.11336996 0.34037954 -0.04994793 -0.15003696 -0.0072632874 -0.030310784 0.25945488
-0.027216015 0.06434454 -0.013063654 -0.049284574 0.26431096 -0.101673596 0.08117235 0.10974395
-0.19357058 -0.06334277 -0.33296862 -0.049016923 -0.013112182 -0.1350192 -0.018933533 -0.0064948113
0.29486153 -0.05259912 -0.10636781 -0.28587383 0.0117636 -0.004060814 -0.20864473 -0.087612726

fc.weight f4 [8, 256]
00000000: 7d4e 0cbd 4e0a 43bc ed96 2a3d e517 29bc
00000010: 642c 22be bf7a 843d 149f 903c b3d9 143d
00000020: 3df5 f7bc c07c 85bd 62e6 363e 64f3 d7bd
00000030: 0650 42be f32e 1b3d 0d26 d3bd d80f 993d
00000040: e1fb c6bd 7fc8 503d c09c c1be ea68 5e3d
00000050: f59b 0cbd 7350 09bd d74a 0fbe 4553 cdbe
00000060: 2944 c73d f59e 5abe 4157 edba f44e 693b
00000070: 1efa d3bc 4a19 33bd acb2 3b3c 8cd8 e03d
00000080: 32ce 96bd d559 8e3d 8b4b 273c c401 463e
00000090: 8018 10be 90ea c63d 21e0 a93d 1cdb 42be
000000a0: 7e93 11be f7a3 b63d 0445 d1be fa6f 26be
000000b0: dd95 4a3d e935 463d 802b 3fbc e6a1 77be
000000c0: fd12 7ebb 7087 853b 94ce d63c 8918 593d
000000d0: 2cdd 893d 99d1 4e3d 7eb3 8f3d e4f9 383d
000000e0: 3b3d d03d dd90 dcba 6a82 2f3d d0d4 2abe
000000f0: 8c7d 423d 448a 5abd bc7b c73b b3d1 43be
00000100: 529d 0ebc dc00 ff3e 155c 90be 2e71 73bc
00000110: a61f 3dbd 2e0e 763d d95f 0e3d bab1 0abe
00000120: eeca 70be 6762 85bd 85a0 943c 571c 673e
00000130: cb3a 8cbc 653f a5bc 38dc 90bd 3ef9 723d
00000140: 9a55 673d 0a7f 983d 69f4 263e 3972 8f3c
00000150: ba36 703c 3a22 4fbd 5873 ddbc 2547 73bd
00000160: 028a 9cbe 1f6b d23d d6e9 01be bd24 083d
00000170: f704 773c 524f 1ebe 83ca a93c 880b 3dba
00000180: f311 263d 8e32 b43c b75f 933d 2deb ac3c
00000190: 751a 383b da42 b7bc d45e 793d f016 833d
000001a0: 2f84 183d dce1 bfbc 62e2 52be 6313 5cbd
000001b0: 848a 2ebe baae dbbe 4625 b13d 9405 e23d
000001c0: d661 33be 776b 27bd 4274 79be debd 9fbc
000001d0: 4712 c83d 97d4 f0bd 2b27 fc3c 7925 883d
000001e0: 2084 c9bd 576d 40be 15f7 07bd 1a0b 543d
000001f0: e7a1 dd3d b9a4 383d d9f5 a53d 83ae ab3d
00000200: 844f 9dbd 815d 06be f082 d13c 8cfb 803c
00000210: 23cd 3dbd 32bb 05be 7ca2 d53d 3444 e5bd
00000220: 7fd1 eabd 0e93 973d 1afb f1be 4f24 8a3c
00000230: d1a9 0dbe f4f6 50be e6f7 873d 74cb 22bc
00000240: 2b8a 083d ad40 28bd 1bae 46bd d308 be3c
00000250: 11eb 9a3d 76e3 7dbd 3616 8b3c 6546 eb3d
00000260: dfec 053d 681b 74bd a10c 093d 85d4 ca3c
00000270: 79a5 39bc 0c97 c1bd d57d db3d 1d12 54bc
00000280: 6ba9 8c3a 3bc0 ca3c 92c0 65be 0d9c 14bd
00000290: 231f 5c3d 4a91 04be 899c 383d 26cd 20bc
000002a0: a7d3 ac3c a709 bfbd 6411 033d db86 9ebb
000002b0: 1701 a53d b51d 4bbe e8ba 5e3c f7bd 77bc
000002c0: d75d 17be a638 b3bb 681d 943d 4193 69bd
000002d0: bf35 27bd 5e04 8d3d 2721 fbbc f3bd aebe
000002e0: 9563 0f3d a21d cf3d d1de c7be c37e da3c
000002f0: 1669 b03d b57c 083d 1495 323d c2b2 b93c
00000300: 4d82 0bbe 6486 a23d 3a28 cdbd b019 983d
00000310: 9212 373d b059 9e3c 1738 ad3d a9a6 4abe
00000320: 29a8 753c 7b18 903d fcad 76bd feb8 413d
00000330: ec0c 02bd 5f6c eb3c a7fd bb3a de1b 3abf
00000340: dbe8 713c 0885 4cbe 55df e63c ad5f dfbc
00000350: 0dd4 0dbe 37ed 4bbd 4f50 123d 7649 a4bd
00000360: ef1e 253d 8973 c53d f43d ba3a 1992 803c
00000370: 5a94 903d 7d36 c7bd 6ad8 d3bc 33f8 793d
00000380: ccf7 39be 287d a03d 8a00 46be 4aa6 cabd
00000390: a40e de3d ecb4 94bd a26e 67bc fc56 1bbe
000003a0: c5d1 c43c baa5 28be 1ab2 5a3d 31d9 903b
000003b0: f8fc 79be 723d 4fbe c812 60bc f996 5c3d
000003c0: 07c0 5a3c 944f ea3c b081 5d3a 9ade 613d
000003d0: 292c ab3d afbc 8e3d 18a6 8c3d 905e 10be
000003e0: 469c 72bd a2ac 16be bfe9 973c 4809 2bbe
000003f0: 95ef 9dbc 38bf 42be 4754 913a eb2a b13d
-0.03425454 -0.011904312 0.04164784 -0.010320638 -0.15837246 0.064687245 0.01765398 0.036340427
-0.030268306 -0.06517935 0.17861322 -0.1054447 -0.18975839 0.03788657 -0.10309992 0.07473725
-0.09716011 0.050972458 -0.37814903 0.054299273 -0.03432842 -0.033523988 -0.13993393 -0.40102592
0.097297974 -0.213497 -0.0018107669 0.0035600038 -0.025876101 -0.04372529 0.011456173 0.10978803
-0.073635474 0.06950728 0.010210882 0.19336611 -0.14071846 0.09712708 0.08294702 -0.19028896
-0.1421642 0.089179926 -0.40872967 -0.16253653 0.049459327 0.048391256 -0.011668086 -0.24182853
-0.0038768642 0.0040749833 0.026221551 0.053001914 0.06731638 0.050492857 0.07016657 0.04516019
0.10167929 -0.0016827841 0.042848982 -0.16682744 0.047483012 -0.053354517 0.0060877483 -0.19122963
-0.0087045 0.49805343 -0.28195253 -0.014858527 -0.04617276 0.060072117 0.034759376 -0.1354436
-0.23514912 -0.065129094 0.018142948 0.22569405 -0.017117878 -0.02017183 -0.070732534 0.059319727
0.05647812 0.07446106 0.16304173 0.01751052 0.014661485 -0.05056975 -0.02703254 -0.05939402
-0.30574042 0.10274338 -0.12686858 0.03323816 0.015076867 -0.15459946 0.020726448 -0.0007211496
0.04054446 0.021996763 0.071959905 0.021108234 0.0028091941 -0.022370744 0.06088145 0.06400859
0.037235435 -0.023423128 -0.2059417 -0.053729426 -0.17045027 -0.42906743 0.086496875 0.1103622
-0.1751779 -0.04087397 -0.24360755 -0.019499715 0.09769111 -0.11759298 0.030780395 0.06647772
-0.09839654 -0.1879171 -0.03319462 0.0517684 0.10821896 0.045078967 0.08103532 0.08382895
-0.07681182 -0.13121606 0.025575131 0.015744947 -0.04633821 -0.1305969 0.10431382 -0.11194649
-0.114657395 0.07401095 -0.47261888 0.016863016 -0.13834311 -0.20406705 0.0663908 -0.009936202
0.033334892 -0.041077305 -0.048505884 0.023197567 0.075643666 -0.0619845 0.016978364 0.11488036
0.0326966 -0.05959645 0.03345931 0.02475954 -0.011330956 -0.09452638 0.1071736 -0.012943772
0.0010731643 0.024749866 -0.22436741 -0.036281634 0.05374063 -0.12946048 0.04507116 -0.009814536
0.021097017 -0.09328013 0.031999007 -0.0048378534 0.080568485 -0.19835551 0.013594367 -0.015120975
-0.14781891 -0.0054693995 0.07232171 -0.057025198 -0.04082274 0.068855986 -0.030655457 -0.34129295
0.03500708 0.10113074 -0.39037183 0.026671773 0.086137936 0.033322055 0.043599203 0.022668246
-0.13623925 0.07935789 -0.10017438 0.074267745 0.044695444 0.019329876 0.08457964 -0.19790138
0.014993706 0.07035919 -0.06022452 0.047295563 -0.031750605 0.028738199 0.0014342562 -0.7269877
0.01476499 -0.19972622 0.028182665 -0.027267301 -0.13850422 -0.049786773 0.03572112 -0.08021824
0.040312704 0.09641177 0.0014209137 0.015694665 0.07059546 -0.0972719 -0.02586003 0.061027717
-0.18160933 0.07836372 -0.19336143 -0.09894998 0.10842636 -0.072610706 -0.014125498 -0.151699
0.024025807 -0.1646947 0.053392507 0.0044204225 -0.24412906 -0.20238283 -0.013676353 0.053854916
0.013351447 0.028602399 0.0008449806 0.05514393 0.08358032 0.06969582 0.06867617 -0.14098573
-0.059231065 -0.14714292 0.018544076 -0.1670276 -0.01927928 -0.19018257 0.0011087739 0.08650764

fc.bias f4 [8]
00000000: 4d30 833e a7ab 543e 067f 42be 3b0c 9cbe
00000010: 5eee 3bbe a28c ea3c 7954 ee3d 6b8d 4abe
0.25622788 0.20768605 -0.18993768 -0.3047808 -0.18352649 0.028631512 0.11637206 -0.19780509
