src/main/python/saved_models/cpp_1_37_RNNClassifier1_128embs_147id_16hd_1hl_Truebid_1.pt (torch, 97055 bytes, 11 tensors)

word_embeddings.weight f4 [147, 128]
0	0x3fa29424	1.2701459
1	0x3eb00d98	0.3438537
2	0x3f6564e7	0.8960709
3	0xbecf15ba	-0.40446264
4	0x3f653c9b	0.895456
5	0xbfdd0d84	-1.726975
6	0xbd37b94c	-0.044854447
7	0xbd41e8a1	-0.047340993
8	0xbf86cb4c	-1.0530791
9	0x3fa57133	1.2925171
10	0xbf86a3f5	-1.0518786
11	0x3eaca1e1	0.33717254
12	0xbef7cf47	-0.48400328
13	0xbf019f79	-0.5063396
14	0xbfc6ac81	-1.5521394
15	0xbe9cfc2b	-0.3066114
16	0xbd3ebd42	-0.04656721
17	0xbece8101	-0.40332797
18	0x3f9a6d88	1.2064676
19	0xbf96fdaa	-1.1796162
20	0xc000ce95	-2.0126088
21	0x3f0d5518	0.5520797
22	0x3ec6f747	0.38860533
23	0x3e233303	0.15937428
24	0xbfb9ddb3	-1.4520782
25	0xbf76dcf8	-0.9643092
26	0x3e8dc668	0.27690434
27	0x3f363e87	0.7118916
28	0xbf9b6c81	-1.2142488
29	0x3fae9c22	1.3641398
30	0x3fc78435	1.5587221
31	0xbf3b957f	-0.7327499
32	0x3f889739	1.067115
33	0xbb35143a	-0.0027630464
34	0x3f1a6c30	0.6032133
35	0xbf995703	-1.1979679
36	0xbfc633cf	-1.5484561
37	0x3e8e3193	0.27772197
38	0xbfe12b53	-1.7591347
39	0x3ff062f3	1.8780197
40	0x3f8ba9b0	1.091116
41	0x3ee00ea1	0.4376116
42	0xc0244e89	-2.5672934
43	0xbfb390b8	-1.402854
44	0xbd867f46	-0.06567244
45	0xbd037878	-0.03209731
46	0xbfab55f2	-1.3385603
47	0x3f12e67b	0.57382935
48	0x3e2f6377	0.17127787
49	0xbd2f531b	-0.042803865
50	0x3fb8c200	1.4434204
51	0x3f68c91f	0.90931886
52	0x3ec397c0	0.38201714
53	0x3f81a062	1.012707
54	0x3f2cb00d	0.6745613
55	0x3f33e254	0.70267224
56	0x3f02b37f	0.5105514
57	0xbe95d609	-0.29264858
58	0xbf2ba4fa	-0.6704861
59	0xbeec00db	-0.46094403
60	0x3f8e7f1d	1.1132542
61	0x3f0d895d	0.55287725
62	0xbdcc8791	-0.09986795
63	0xbf76afc1	-0.9636193
64	0x3fd282ae	1.644613
65	0xbf14524f	-0.5793809
66	0x3d5d104c	0.05397062
67	0xbea12a4f	-0.3147759
68	0x3fd39229	1.652898
69	0xbfc65389	-1.5494243
70	0xbf833dba	-1.0253212
71	0xbfecc7f1	-1.8498517
72	0x3ffa8400	1.9571533
73	0xbfbd84e2	-1.4806178
74	0xc011932a	-2.2746072
75	0xbeed90e6	-0.4639961
76	0x3fb43f95	1.4081904
77	0x3f16d546	0.5891918
78	0xbded2673	-0.11579599
79	0xbf8fa030	-1.122076
80	0xbf52ba64	-0.8231566
81	0xbd96416a	-0.073366955
82	0x3cd4c393	0.025972163
83	0x3e9ccfb4	0.30627215
84	0x3f81e4c1	1.0147935
85	0xbfd7b4ea	-1.6852086
86	0xbf8eaa9c	-1.1145816
87	0xc0157693	-2.3353622
88	0x3f030291	0.5117579
89	0xbfd59dbc	-1.6688762
90	0x3edd0610	0.43168688
91	0x3fdf03d2	1.7423041
92	0x3ec88ecc	0.39171445
93	0xbfb4396e	-1.4080026
94	0x3d67d347	0.056597974
95	0xbe9eb50a	-0.30997497
96	0x3f0ed271	0.5578986
97	0x3ed8fe67	0.42381594
98	0x3f13d5ac	0.5774791
99	0xbf4d1016	-0.8010267
100	0x3e7a7f16	0.24462542
101	0x3d38a9fa	0.045083977
102	0x3e6330cd	0.22186585
103	0xbdfe90d9	-0.12429971
104	0xbf11d286	-0.5696186
105	0xbe9cae4e	-0.30601734
106	0xbf823545	-1.0172507
107	0xbf089427	-0.5335106
108	0x3ee67493	0.45010814
109	0x3f8bf498	1.0934019
110	0xbf95edb6	-1.1713169
111	0xbd8452ab	-0.0646108
112	0xbf7c5032	-0.9855987
113	0xbfe01a51	-1.7508031
114	0xbf389e24	-0.72116303
115	0xbf641621	-0.89096266
116	0xbf86a564	-1.0519223
117	0xbc111d79	-0.0088571245
118	0x3e3b3c6d	0.1828477
119	0x40254d5c	2.5828466
120	0x3f051968	0.5199189
121	0xbfd6a5a3	-1.6769298
122	0x3f3e6161	0.7436734
123	0x3f9c360b	1.2203993
124	0xbf89d7b0	-1.0768948
125	0x3f042e33	0.51632994
126	0x3f9648d6	1.1740978
127	0x3fca61ed	1.5811135
128	0xbf848a98	-1.0354795
129	0xbf1d0d04	-0.61347985
130	0xbffcbceb	-1.9745153
131	0x3f6c5a8d	0.9232567
132	0x3dab151c	0.08353636
133	0x3db048e7	0.08607655
134	0xbf2499fe	-0.64297473
135	0x4002c035	2.0429814
136	0x3f41e8cb	0.7574584
137	0x3f08cba2	0.5343572
138	0xbf43717e	-0.7634505
139	0xbf0235d4	-0.50863385
140	0xbed7f1f0	-0.4217677
141	0xbe8fb500	-0.2806778
142	0xbe25c8dd	-0.16189905
143	0xbe794451	-0.24342467
144	0x3f936685	1.1515661
145	0xbd26b0e2	-0.040696032
146	0x3fc6be10	1.5526752
147	0x3d87802d	0.066162445
148	0x4001c5c5	2.027696
149	0x3f296a7c	0.6617811
150	0xbf49dfdc	-0.7885721
151	0x3f80d9d9	1.0066482
152	0xbfef04aa	-1.8673298
153	0x3ea409a8	0.32038617
154	0x3e0ed291	0.13947512
155	0xbfe09821	-1.7546426
156	0xbdc1abed	-0.0945662
157	0xbf2fb120	-0.68629646
158	0x3f1a4150	0.6025591
159	0x3f09fa31	0.53897387
160	0x3f5b430f	0.856492
161	0x3f9fe8db	1.2492937
162	0x3f881334	1.063086
163	0x3f993cab	1.1971639
164	0xbea1d529	-0.3160794
165	0x3ebd3415	0.36953798
166	0x3fa00b0c	1.2503371
167	0xbf6e15f0	-0.93002224
168	0xbdabfe4c	-0.08398113
169	0xbe48ddc2	-0.19615844
170	0x3f3db5b8	0.74105406
171	0x3e04a371	0.12952973
172	0xbe77a8d4	-0.24185497
173	0x3f94d2ac	1.1626792
174	0xbeb0d111	-0.34534505
175	0x3f82c9a4	1.0217786
176	0x3fa8d188	1.3188944
177	0xc01edaf4	-2.4821138
178	0x3ec3c67b	0.38237366
179	0x3f4d6ac7	0.80241054
180	0x3edaa95e	0.42707342
181	0xbd9b086f	-0.07569968
182	0xbec782e4	-0.3896705
183	0x3f505920	0.81385994
184	0xbef98aaf	-0.4873862
185	0xbeebfac4	-0.46089756
186	0x3e29f0d2	0.16595772
187	0x3faa3f30	1.3300533
188	0xbe43f57b	-0.19136612
189	0xbd9b71ca	-0.07590063
190	0xbf3f430a	-0.7471167
191	0xbea6f228	-0.32606626
192	0x3fe7499e	1.8069341
193	0xbfa4879d	-1.2853886
194	0xbeddcd11	-0.43320516
195	0xbfb2b4df	-1.3961447
196	0x3ee388cc	0.44440305
197	0x3dcdf4b4	0.10056439
198	0x3f941150	1.1567783
199	0xbceb330c	-0.028710864
200	0xbec45dd3	-0.38352832
201	0xbf5d95f2	-0.86556923
202	0x3f9a5971	1.2058545
203	0xbe7166fe	-0.23574445
204	0xbe4792cc	-0.19489592
205	0xbd6702f4	-0.0563993
206	0xc012c5e0	-2.2933273
207	0x3fe61304	1.7974553
208	0xbf9ccd0c	-1.2250075
209	0x3f9a2760	1.2043266
210	0x3eb026bc	0.34404552
211	0xc0263ad4	-2.5973406
212	0xc005f3ba	-2.093001
213	0xbf4490b4	-0.767833
214	0x3e94ef39	0.29088762
215	0x3f8717b9	1.0554115
216	0xbfc5f879	-1.5466453
217	0xbef3a15c	-0.47584045
218	0x3e9b5653	0.30339298
219	0x3f649f69	0.8930574
220	0x3ec8e2f5	0.39235654
221	0xbd4f4378	-0.050601453
222	0x3f721580	0.94564056
223	0xbe1ea698	-0.15493238
224	0x3eb939ab	0.3617681
225	0x3e525648	0.20540726
226	0x3ff24f31	1.8930417
227	0x3f7cf30a	0.9880835
228	0x3fa66ef0	1.3002605
229	0xbf4b92dd	-0.7952097
230	0x3fd1736d	1.636335
231	0xbebdc469	-0.37063912
232	0xbfc92fed	-1.5717751
233	0xc0005668	-2.0052738
234	0xbdc74cff	-0.09731483
235	0xbeaf2f9c	-0.3421601
236	0x402b2343	2.6740272
237	0x3e2145e8	0.15749323
238	0xbef69a0c	-0.48164403
239	0x3e8879f2	0.26655537
240	0x3f053e56	0.5204824
241	0x3f512a18	0.81704855
242	0xc002d11a	-2.0440125
243	0xbf7f10aa	-0.996348
244	0xbf399317	-0.72490066
245	0xbe9fbf65	-0.3120071
246	0xbfc0a01e	-1.5048864
247	0x3f880de1	1.0629236
248	0x3c4667d3	0.012109715
249	0xbebf51aa	-0.37366992
250	0xbf9847de	-1.1896932
251	0xbf323258	-0.6960807
252	0x3f94dcfe	1.1629941
253	0x3f576374	0.8413613
254	0x3e4edfe1	0.2020259
255	0xbf434913	-0.7628338

rnn.weight_ih_l0 f4 [16, 128]
0	0xbda98f98	-0.082793415
1	0x3dbc360a	0.09189995
2	0x3ea47f76	0.32128495
3	0xbe17dc09	-0.1483003
4	0x3e282058	0.16418588
5	0x3df3d88f	0.1190654
6	0x3cf01cc9	0.0293106
7	0xbdaa5bac	-0.08318266
8	0x3ed6c317	0.41945717
9	0xbda53b5f	-0.08067965
10	0x3e567568	0.20943224
11	0xbc41845d	-0.011811343
12	0x3e9825c0	0.297163
13	0x3d144a08	0.036203414
14	0xbde42d36	-0.11141436
15	0xbc8e9798	-0.01740627
16	0x3e11bbdb	0.14231817
17	0xbdf1413f	-0.11780023
18	0xbeadc63d	-0.33940306
19	0x3db3b603	0.0877495
20	0xbd7bfa07	-0.06151774
21	0x3dbf79ed	0.09349427
22	0xbde01125	-0.1094077
23	0xbc95314a	-0.01821198
24	0xbe962eb5	-0.2933251
25	0x3e84ccd7	0.2593753
26	0x3d7816d8	0.06056866
27	0x3d5cd71b	0.053916078
28	0x3e625e1e	0.22106215
29	0x3e43cbe4	0.19120747
30	0xbec30e58	-0.3809688
31	0x3def3e14	0.11681762
32	0xbdd6f27b	-0.10495468
33	0xbe95c60c	-0.2925266
34	0xbe59710e	-0.21234533
35	0xbd958978	-0.07301611
36	0x3e2bb9ca	0.16770092
37	0xbe098007	-0.13427745
38	0xbe686b09	-0.2269708
39	0xbe60d73c	-0.21957105
40	0x3e5d5518	0.21614492
41	0xbdbeeab0	-0.09322107
42	0xbcf54cc9	-0.02994384
43	0x3e5a5d05	0.21324547
44	0x3e06f0e1	0.13177826
45	0xbe8b9e5a	-0.2726925
46	0x3deb431c	0.114874095
47	0x3dff490f	0.12465107
48	0xbe97d2e0	-0.29653072
49	0x3cc6b08f	0.024254112
50	0x3df78448	0.120857775
51	0x3b892f70	0.004186563
52	0x3b2efa04	0.0026699314
53	0xbe99e7bc	-0.30059612
54	0x3dd97e5c	0.10619804
55	0xbca84352	-0.020539913
56	0x3ded8388	0.11597353
57	0xbd5d5c88	-0.054043323
58	0x3dc5bc82	0.09655096
59	0x3e28f590	0.16499925
60	0x3d88f1c8	0.06686741
61	0x3d49aaaf	0.049235042
62	0xbe00df9f	-0.12585305
63	0x3d2b89b1	0.04187936
64	0x3e38c44a	0.18043628
65	0xbe82b6c9	-0.2553008
66	0x3b0fd4aa	0.0021946826
67	0xbd8137f9	-0.06309504
68	0x3e5e21c1	0.21692564
69	0x3ee01ca0	0.4377184
70	0xbe7b8448	-0.2456218
71	0xbd255c07	-0.040370967
72	0x3d312253	0.043245625
73	0xbcebe55d	-0.028795892
74	0x3dd0d9b5	0.10197774
75	0x3dd54fea	0.10415633
76	0x3e170f82	0.1475201
77	0x3c9aa9e5	0.01887984
78	0x3e301ba2	0.17198041
79	0xbce20d78	-0.027594313
80	0x3dae0a04	0.08498004
81	0x3d7599b5	0.05996104
82	0xbe7a22a7	-0.24427281
83	0xbe11f7de	-0.1425471
84	0x3dbbb58e	0.09165488
85	0x3e8e0ac9	0.27742603
86	0xbe76c9e3	-0.24100451
87	0x3e1ec650	0.15505338
88	0x3e28d7a5	0.16488512
89	0x3e088772	0.13332918
90	0xbe87122d	-0.26381055
91	0x3e87026a	0.2636903
92	0xbe821aba	-0.25411016
93	0xbdff1973	-0.12456026
94	0x3eb057ff	0.34442136
95	0x3e125e78	0.1429385
96	0xbed77edc	-0.42088974
97	0x3e6ade4d	0.22936364
98	0xbdc68889	-0.09694011
99	0x3f095f10	0.5366068
100	0xbc033e18	-0.00801041
101	0x3e0ac4ca	0.13551632
102	0xbe93a2e0	-0.288352
103	0xbed9d417	-0.42544624
104	0xbdd7fc4f	-0.10546171
105	0x3e7ba8a9	0.24576057
106	0x3da67e50	0.08129561
107	0xbe3d21b6	-0.18469891
108	0xbe85ffa1	-0.26171592
109	0x3e8cab46	0.2747442
110	0x3ddcbe1e	0.107784495
111	0xbe276017	-0.16345249
112	0xbd024a8f	-0.031809386
113	0x3e5001d6	0.203132
114	0x3b2e16df	0.0026563925
115	0x3dabd6f7	0.08390611
116	0x3ea5c3c4	0.3237592
117	0xbd99ac9f	-0.07503628
118	0x3e36115d	0.17780061
119	0xbe3ad443	-0.18245034
120	0x3e5faf75	0.21844275
121	0x3cbce311	0.023057492
122	0xbdff4b59	-0.12465543
123	0xbe86a7e4	-0.26299965
124	0x3eb7b140	0.3587742
125	0x3df41667	0.119183354
126	0x3e03564c	0.12825888
127	0xbcf801ed	-0.030274356
128	0x3d2eb52d	0.04265325
129	0xbdccd401	-0.10001374
130	0xbcf1eb8f	-0.029531268
131	0xbe338635	-0.17531665
132	0x3e1836a4	0.14864594
133	0xbe970021	-0.29492286
134	0x3e10fcaf	0.14158891
135	0x3e823cfe	0.25437158
136	0xbe1883c4	-0.14894015
137	0x3efd0f7c	0.49425876
138	0x3e4a7968	0.19772875
139	0xbddce9a8	-0.10786754
140	0x3e310acf	0.1728928
141	0x3e36997e	0.1783199
142	0xbd017b10	-0.031611502
143	0xbdf638b4	-0.12022534
144	0xbe8fd21b	-0.28089985
145	0x3e1249c8	0.14285958
146	0x3ef88db9	0.48545626
147	0x3e42bad3	0.1901658
148	0xbe743540	-0.23848438
149	0x3e2ce9eb	0.16886108
150	0x3d159cff	0.036526676
151	0xbc8ea9e0	-0.017414987
152	0xbe021fa6	-0.12707385
153	0x3eac7296	0.33681172
154	0xbd470cb2	-0.04859609
155	0xbdba7692	-0.09104647
156	0xbe7322fd	-0.23743816
157	0xbbcce922	-0.0062533775
158	0x3e4f7787	0.2026044
159	0xbe92ab00	-0.28646088
160	0xbc1330da	-0.008983815
161	0x3e469342	0.19392112
162	0x3e8723c1	0.26394466
163	0x3e2bab57	0.1676458
164	0x3e442336	0.19154057
165	0x3e450f09	0.19244017
166	0xbbc22baa	-0.0059256153
167	0x3e406306	0.18787774
168	0x3e169be9	0.14707913
169	0x3e07a8c8	0.13247979
170	0xbe93d8a7	-0.2887623
171	0xbe4dc662	-0.20095208
172	0xbd82dd94	-0.06389919
173	0x3d1af253	0.037828755
174	0xbde242c9	-0.110478945
175	0x3eb56d90	0.35435152
176	0x3e4b65f5	0.19863112
177	0x3df143a1	0.11780477
178	0xbbbcecf7	-0.005765553
179	0x3e762480	0.24037361
180	0xbe2410c0	-0.16022015
181	0xbe08f9c3	-0.13376527
182	0xbe594c06	-0.21220407
183	0x3e77cf4f	0.24200176
184	0xbdbaad74	-0.09115115
185	0x3ec264c1	0.37967494
186	0x3daf52d3	0.08560719
187	0xbd87e840	-0.06636095
188	0xbcb902c0	-0.02258432
189	0xbd3080da	-0.043091632
190	0x3e2b0f25	0.16704996
191	0xbd514342	-0.051089533
192	0xbd56a42d	-0.052402664
193	0x3e9c8377	0.3056905
194	0xbdf33a3a	-0.1187634
195	0x3d7b9dcd	0.061429787
196	0xbdaf8592	-0.085703984
197	0x3b5bbeab	0.0033530395
198	0x3e23c5cc	0.15993422
199	0x3e52b327	0.20576154
200	0xbe5bbe08	-0.2145921
201	0xbe008d93	-0.12554006
202	0xbe27d36a	-0.16389242
203	0x3d996f6a	0.07491954
204	0x3b4bd763	0.0031103722
205	0x3ecfcf75	0.40587965
206	0x3d518bc4	0.05115868
207	0x3e2d61a0	0.16931772
208	0xbd98cf16	-0.074613735
209	0x3a86d228	0.001028602
210	0x3db19020	0.08670068
211	0xbe3c73da	-0.18403569
212	0x3dfa5eb3	0.12225094
213	0xbe2c42d2	-0.16822365
214	0x3d5756ec	0.05257313
215	0x3e03733e	0.1283693
216	0x3ebb2409	0.3655093
217	0xbdbb5178	-0.09146398
218	0x3e71ed87	0.23625766
219	0x3e1d63ad	0.15370055
220	0xbc6bd43c	-0.014393862
221	0xbe17ce3d	-0.14824767
222	0x3e92ac77	0.28647205
223	0x3e1753a2	0.14777997
224	0x3e9b2550	0.30301905
225	0xbda7ca16	-0.08192842
226	0xbe236d5e	-0.15959689
227	0xbdd4158c	-0.10355672
228	0xbe32447b	-0.17408936
229	0xbd87cc2c	-0.066307396
230	0xbe17f75c	-0.14840454
231	0x3e0d9ecd	0.13830109
232	0xbdb72a01	-0.089435585
233	0xbd5c2ce2	-0.05375374
234	0x3e3aca4a	0.1824123
235	0x3e0a092d	0.13480063
236	0xbd8da626	-0.06916456
237	0x3e21d1ef	0.1580274
238	0x3ebaf3b2	0.3651405
239	0x3bc94930	0.006142758
240	0xbe2fba7a	-0.17160979
241	0xbdf623d6	-0.12018554
242	0xbeb3e7d3	-0.35137805
243	0xbd93778a	-0.07200535
244	0xbe7ab9a3	-0.24484877
245	0x3dbebe97	0.09313696
246	0xbea666cf	-0.32500312
247	0x3e815da1	0.25266746
248	0xbe059684	-0.13045698
249	0xbe471f5d	-0.19445558
250	0x3dc4ff54	0.096190125
251	0xbd0faa13	-0.035074305
252	0x3e30305f	0.17205952
253	0x3d42181e	0.04738628
254	0x3dc8e7d3	0.09809842
255	0x3e3a9d9a	0.18224183

rnn.weight_hh_l0 f4 [16, 16]
0	0x3e833cd8	0.25632358
1	0xbe68b228	-0.22724211
2	0x3dce7cb5	0.1008238
3	0xbe337549	-0.1752521
4	0x3e4facb1	0.2028072
5	0xbda22d44	-0.0791879
6	0xbea41ace	-0.320517
7	0x3e0eab86	0.13932618
8	0xbf1a8150	-0.60353565
9	0x3f2b65b6	0.66952074
10	0x3e856a29	0.26057556
11	0xbf0293ea	-0.5100695
12	0x3d151129	0.03639332
13	0x3f399287	0.7248921
14	0xbeb16288	-0.34645486
15	0xbd6a44d4	-0.057194546
16	0xbe72c8a1	-0.23709346
17	0x3f0eba41	0.5575295
18	0xbf53f5b3	-0.8279678
19	0xbe1f24d4	-0.15541393
20	0x3f034e5a	0.5129143
21	0x3f86a084	1.0517735
22	0x3eaa3b5f	0.33248422
23	0xbd12d285	-0.0358453
24	0xbf42a334	-0.7603028
25	0x3e08deb9	0.13366212
26	0xbf2f4564	-0.68465257
27	0x3ecde9c0	0.402174
28	0xbe8dbec0	-0.27684593
29	0x3e8456e1	0.25847533
30	0x3e231b20	0.15928316
31	0xbd9ea30d	-0.07745943
32	0x3e5769d6	0.21036467
33	0x3d35119c	0.044206247
34	0x3e16dbd6	0.14732298
35	0x3eac543c	0.33658016
36	0xbf4dab34	-0.8033936
37	0x3db45f5e	0.08807252
38	0xbe47f071	-0.19525315
39	0xbe37ad42	-0.17937186
40	0xbe35328b	-0.17695062
41	0xbf89a5cb	-1.0753721
42	0x3f2cb7df	0.67468065
43	0x3dc92659	0.09821767
44	0x3d521fb4	0.051299766
45	0xbf1a206d	-0.6020573
46	0x3f25ab18	0.64714193
47	0x3ea8d804	0.32977307
48	0x3e128d2e	0.14311668
49	0xbea2b120	-0.3177576
50	0xbe4327f3	-0.19058208
51	0x3ec0e707	0.3767626
52	0xbe0cb1c7	-0.13739692
53	0x3f1b9d49	0.60786873
54	0x3f11f464	0.57013535
55	0xbf4302d6	-0.761762
56	0xbefe1d5a	-0.49631768
57	0x3e008779	0.12551679
58	0xbf19f728	-0.60142756
59	0x3cba87cc	0.022769831
60	0x3eeee9b9	0.4666269
61	0xbef5cab1	-0.48006204
62	0xbf2f7298	-0.6853423
63	0x3f00e758	0.50353
64	0x3f92cc02	1.1468508
65	0x3ec6284d	0.38702622
66	0xbddeb607	-0.10874563
67	0x3ee2b7bc	0.44280803
68	0x3ed72ed8	0.42027926
69	0xbf1ce502	-0.6128694
70	0xbe8fcd01	-0.28086093
71	0xbe42fe78	-0.19042385
72	0xbf29c7b0	-0.66320324
73	0x3e838f21	0.25695136
74	0x3f40b58a	0.75277007
75	0x3ebf2a49	0.3733695
76	0xbf253c4a	-0.6454512
77	0xbe0dc3c8	-0.13844216
78	0x3eb7c93e	0.35895723
79	0xbefceae0	-0.49397945
80	0xbe98014c	-0.2968849
81	0x3dfc20c9	0.12310941
82	0x3e807556	0.2508952
83	0xbd357cc3	-0.044308435
84	0x3f156b1d	0.58366567
85	0xbf34bcc3	-0.7060053
86	0xbe6c62e3	-0.23084597
87	0x3f5c8c08	0.8615117
88	0x3ed9c197	0.4253051
89	0x3f534171	0.8252173
90	0xbf273d90	-0.6532831
91	0xbe362669	-0.1778809
92	0x3dbd843a	0.09253736
93	0x3f40b28d	0.75272447
94	0x3db2b171	0.087252505
95	0xbf76b8b6	-0.96375597
96	0x3e2dfc32	0.16990736
97	0xbeef9d1a	-0.46799546
98	0x3f15f111	0.58570963
99	0xbe6d4014	-0.23168975
100	0xbdd952d8	-0.10611504
101	0xbdc6e6d0	-0.09711993
102	0xbe39c11d	-0.18140073
103	0x3cfc0790	0.030765325
104	0x3f01a7f3	0.50646895
105	0x3e6a1073	0.22857837
106	0x3f536cdc	0.8258798
107	0xbea78b53	-0.32723483
108	0x3d70443a	0.058658816
109	0xbe7d572b	-0.24740283
110	0xbe264977	-0.16238962
111	0x3e8c2090	0.27368593
112	0x3e2ee322	0.17078832
113	0xbf22caa9	-0.63590485
114	0x3f352cda	0.70771563
115	0xbe64ec99	-0.2235588
116	0xbe4730f8	-0.19452274
117	0xbf114474	-0.56745076
118	0x3dbe28f7	0.09285157
119	0xbd5585f8	-0.052129716
120	0x3ebc1e67	0.36741945
121	0xbe43ddfd	-0.1912765
122	0x3e69dc51	0.2283795
123	0x3e99881a	0.2998665
124	0x3e8cdac4	0.27510655
125	0xbefcbca9	-0.49362686
126	0x3e904c44	0.28183186
127	0x3f39c15d	0.72560674
128	0xbc3db6d8	-0.011579238
129	0xbf2f72c7	-0.6853451
130	0x3f5a5f1c	0.85301375
131	0x3e8a1c43	0.26974687
132	0xbea6bc49	-0.32565525
133	0x3e6907da	0.22756901
134	0x3e1a005d	0.15039201
135	0xbf3d0721	-0.73839
136	0xbe9f6da3	-0.31138334
137	0xbdcfba10	-0.101429105
138	0x3ee43338	0.44570327
139	0xbd5420e5	-0.051789183
140	0x3f03c135	0.51466686
141	0xbf22a757	-0.6353659
142	0xbf1ceb9a	-0.61297
143	0x3fa26971	1.2688428
144	0x3f8e2749	1.1105739
145	0xbcf6515f	-0.030068098
146	0x3f309a0d	0.6898506
147	0x3d856fb9	0.0651545
148	0x3e748a2a	0.2388083
149	0xbece8fbe	-0.40344042
150	0xbef28a24	-0.47371018
151	0x3e8be8cb	0.27326044
152	0x3f0f378b	0.55944127
153	0x3f012d5c	0.5045984
154	0x3f4cd197	0.8000731
155	0xbe135369	-0.14387287
156	0x3ea776c2	0.32707793
157	0x3ef0ae82	0.4700814
158	0x3e30575e	0.17220828
159	0xbe759e26	-0.2398611
160	0xbe0d3ee9	-0.1379353
161	0xbf1584f8	-0.5840602
162	0x3f5ebb7f	0.87004846
163	0xbea7059a	-0.3262146
164	0xbf353cda	-0.7079598
165	0x3ee44562	0.44584185
166	0x3e14cb2d	0.1453063
167	0xbeef04f4	-0.46683466
168	0xbe79ae23	-0.24382834
169	0xbe9052eb	-0.2818826
170	0x3e40f781	0.18844415
171	0x3e9b18ad	0.30292264
172	0x3ed21006	0.4102785
173	0xbf2b2959	-0.66859967
174	0xbe0cd1d3	-0.13751917
175	0x3f9007c5	1.1252371
176	0xbd239df0	-0.039945543
177	0x3f063242	0.5242044
178	0xbf2a16a5	-0.664408
179	0xbe879775	-0.2648274
180	0xbe7239d4	-0.23654872
181	0x3ebe55bd	0.37174788
182	0x3ea260d4	0.317145
183	0xbe0f6444	-0.14003092
184	0xbe18073b	-0.14846508
185	0xbe9c6f48	-0.3055365
186	0xbf811ab5	-1.0086275
187	0x3f2899f2	0.658599
188	0x3dbe6fb4	0.092986494
189	0xbeb8ba1b	-0.36079487
190	0x3e90e188	0.28297067
191	0xbeb65f18	-0.35619426
192	0x3ee06582	0.43827444
193	0x3dfe57a8	0.12419063
194	0x3efd0c2a	0.49423343
195	0xbd668e9c	-0.056288347
196	0xbc8f401e	-0.017486628
197	0x3f41e4ed	0.7573994
198	0xbee8263e	-0.45341676
199	0x3eacc1b1	0.33741525
200	0xbebfe608	-0.37480187
201	0xbe46ff6b	-0.19433372
202	0xbe5a4462	-0.21315148
203	0xbe398d0d	-0.18120213
204	0xbd2f67b0	-0.042823493
205	0x3df0facb	0.11766585
206	0xbc00b3a6	-0.0078553315
207	0x3f24ae53	0.643285
208	0x3f31c563	0.69441813
209	0x3f13f9ed	0.5780323
210	0xbec3b457	-0.38223526
211	0x3e335a0d	0.1751482
212	0x3e83da07	0.2575228
213	0xbf0402fe	-0.51567066
214	0xbf08d3a1	-0.5344792
215	0x3e02acd7	0.12761246
216	0xbefbdff7	-0.4919431
217	0xbe14b022	-0.14520314
218	0x3edb99f4	0.42890894
219	0x3e30479d	0.17214818
220	0xbeff873b	-0.4990786
221	0xbe74002d	-0.23828192
222	0xbda73394	-0.081641346
223	0xbf920e2d	-1.1410576
224	0xbf7fac76	-0.9987253
225	0xbf026076	-0.5092844
226	0xbf2d4b33	-0.6769287
227	0xbd8c4217	-0.06848543
228	0xbe0541ee	-0.13013431
229	0x3ebd839d	0.37014475
230	0x3f066547	0.52498287
231	0x3d22d91c	0.039757833
232	0xbea94d84	-0.33066952
233	0xbef55070	-0.4791293
234	0xbf230223	-0.63675135
235	0xbe2f073e	-0.17092606
236	0xbeda26fe	-0.42607874
237	0xbdd43ebb	-0.103635274
238	0xbe53142a	-0.2061316
239	0x3f28fbb3	0.6600906
240	0x3ce73771	0.028224679
241	0xbe3911d7	-0.18073212
242	0xbda8cde4	-0.082423955
243	0xbe3aed69	-0.18254627
244	0x3eaf3009	0.34216335
245	0x3e24dbcf	0.16099475
246	0xbcee445b	-0.029085329
247	0xbeedd7d0	-0.46453714
248	0x3e35d43d	0.17756744
249	0x3e0a0d02	0.13481525
250	0xbf5420e5	-0.82862693
251	0x3d49c49b	0.049259763
252	0xbed64336	-0.41848153
253	0x3f17ddcb	0.59322804
254	0xbdd73bc1	-0.10509444
255	0xbe939d2b	-0.28830847

rnn.bias_ih_l0 f4 [16]
0	0x3e049027	0.12945615
1	0xbe899d46	-0.26877803
2	0xbc1382fe	-0.009003399
3	0x3d63face	0.055659108
4	0xbe271f19	-0.16320457
5	0xbebbea67	-0.36702272
6	0x3ebc549c	0.36783302
7	0x3e0e22e7	0.13880502
8	0xbe8381ad	-0.25684872
9	0x3d05b062	0.032638915
10	0xbd5faf4f	-0.054610547
11	0x3d8656be	0.065595135
12	0xbe16fe1d	-0.14745374
13	0xbe951e09	-0.29124478
14	0xbda8604c	-0.08221492
15	0xbe7fdf7e	-0.24987599

rnn.bias_hh_l0 f4 [16]
0	0x3deb8077	0.11499112
1	0x3dfb95b8	0.12284416
2	0xbe1c81ab	-0.1528384
3	0x3e02eba9	0.1278521
4	0xbe7d2d9c	-0.2472443
5	0xbc37e2ab	-0.011223475
6	0x3e5603f4	0.20899945
7	0xbcb84c1d	-0.022497231
8	0xbe8af7de	-0.27142233
9	0xbe434f6f	-0.1907327
10	0x3c79992d	0.015234274
11	0x3de329c2	0.11091949
12	0x3e9225c7	0.28544447
13	0xbedf4bbf	-0.43612477
14	0xbe1f731c	-0.15571254
15	0x3e0d1ff1	0.13781716

rnn.weight_ih_l0_reverse f4 [16, 128]
0	0xbe06276d	-0.13100977
1	0xbe322bbf	-0.173995
2	0xbd4662f7	-0.048434224
3	0xbdf45219	-0.119297214
4	0x3e13d20f	0.144356
5	0x3e25ba03	0.16184239
6	0x3e1f6b63	0.15568309
7	0x3e26d5b1	0.16292454
8	0xbd19764c	-0.037466332
9	0x3c5d22cf	0.013497069
10	0x3db3aa1f	0.087726824
11	0xbe83c3d9	-0.25735357
12	0x3e82cca2	0.25546747
13	0x3dd55981	0.10417462
14	0x3e260b03	0.16215138
15	0x3e9d54b1	0.30728677
16	0x3df3c2b8	0.11902374
17	0xbd68514f	-0.056718167
18	0xbdfbe4c1	-0.12299491
19	0xbe71f010	-0.23626733
20	0x3e840e40	0.25792122
21	0x3e219fe9	0.15783657
22	0x3dfd9ada	0.12383051
23	0xbd2fa0d0	-0.042877972
24	0x3e454387	0.19264041
25	0x3dbda9e9	0.092609234
26	0x3d44ddcb	0.04806308
27	0x3e1d905c	0.153871
28	0xbdaaa8cd	-0.083329774
29	0x3ea4a984	0.3216058
30	0xbd154c52	-0.036449738
31	0x3db7bbb3	0.08971348
32	0x3de9b354	0.11411157
33	0x3e198291	0.14991213
34	0xbe6e6e7c	-0.23284334
35	0xbdcd5fa1	-0.100280054
36	0x3d628a1c	0.055307493
37	0xbe8dfe40	-0.2773304
38	0xbde9b43d	-0.11411331
39	0x3e04dfb7	0.12975965
40	0xbd6db829	-0.058036957
41	0x3db7a1d1	0.08966411
42	0xbc968ddf	-0.018378196
43	0x3da85b89	0.08220584
44	0x3f38214b	0.719258
45	0x3d8fbb8e	0.07018195
46	0x3dc9ec36	0.09859507
47	0xbe1b63f1	-0.15174843
48	0x3e2c862d	0.16848059
49	0x3d8916f4	0.06693831
50	0x3bde86d7	0.0067909765
51	0xbdc7222a	-0.09723313
52	0xbbd4c923	-0.006493704
53	0xbd9d1a44	-0.076710254
54	0x3e24fb89	0.16111578
55	0x3c888e1e	0.01666933
56	0x3dd4a0d6	0.103822395
57	0xbe398ca0	-0.1812005
58	0xbe482ed2	-0.1954911
59	0x3e0d227e	0.13782689
60	0x3ceabd6a	0.028654773
61	0xbdb6f4dd	-0.08933423
62	0xbbb8a400	-0.0056347847
63	0xbead57d8	-0.33856082
64	0xbe80dcdb	-0.251685
65	0xbe02bb3f	-0.12766741
66	0x3e453664	0.1925903
67	0xbe07317f	-0.13202475
68	0xbe14ff66	-0.14550552
69	0x3e7c5bd7	0.24644409
70	0x3d7c1f5d	0.061553348
71	0x3e529dbf	0.20567988
72	0x3e52b95f	0.20578526
73	0x3db2e3be	0.087348446
74	0x3e003717	0.12521015
75	0xbdb85722	-0.09000994
76	0xbe4b0e14	-0.19829589
77	0xbdd4e509	-0.103952475
78	0xbec1ddd0	-0.37864542
79	0x3d4133ef	0.04716867
80	0x3ce1ad22	0.027548376
81	0x3bb14244	0.005409511
82	0x3e9691cc	0.2940811
83	0x3e4b5466	0.19856414
84	0x3e0fdf5a	0.14050046
85	0xbe584225	-0.21118982
86	0xbdce9a1a	-0.10087986
87	0xbd43590c	-0.047692344
88	0xbf13b86d	-0.57703286
89	0xbe5a1f18	-0.21300924
90	0x3e987707	0.2977831
91	0xbe92630b	-0.2859119
92	0x3e4f422a	0.20240083
93	0x3e994fbf	0.29943654
94	0xbe07514d	-0.13214608
95	0xbd3814a7	-0.04494157
96	0xbe293fb2	-0.16528204
97	0x3da44194	0.080203205
98	0x3c9ab0b0	0.01888308
99	0x3e723167	0.23651658
100	0x3d46c72c	0.04852979
101	0x3e86e63f	0.2634754
102	0x3db8d6c8	0.09025341
103	0xbeaf9995	-0.3429686
104	0xbdd9beaf	-0.10632073
105	0xbe43dc49	-0.19127001
106	0xbd8fdb21	-0.070242174
107	0x3e02c89b	0.12771837
108	0xbe80ad3f	-0.25132176
109	0x3e5d8398	0.2163223
110	0xbeb1d7c8	-0.3473494
111	0x3d1c966c	0.03822939
112	0xbe706eab	-0.23479716
113	0xbe9ed747	-0.3102362
114	0x3d9c9038	0.07644695
115	0xbdd42f6e	-0.10360609
116	0x3eb6bba4	0.35690033
117	0xbd09459d	-0.033513654
118	0x3e8b10f5	0.27161375
119	0x3df802a8	0.12109882
120	0xbbd9eb8c	-0.006650394
121	0xbcc4b345	-0.024011264
122	0x3ea683f6	0.32522553
123	0x3dc0cede	0.09414457
124	0xbe730d3a	-0.23735514
125	0x3d1c1985	0.038110275
126	0x3e87ca9f	0.26521775
127	0x3e0cb628	0.13741362
128	0x3b83b569	0.0040194285
129	0xbc877dc5	-0.016539464
130	0xbdcf812f	-0.10132062
131	0x3c30f9dc	0.010801759
132	0x3e767fc2	0.24072173
133	0x3e267015	0.16253693
134	0x3e91a0be	0.2844295
135	0x3da0e6d4	0.07856527
136	0xbdbad6bd	-0.09122989
137	0xbe60b3c8	-0.21943581
138	0xbe32e7d0	-0.17471242
139	0x3b7c1ca9	0.0038469231
140	0xbb9f079e	-0.004853203
141	0xbd6d8163	-0.05798472
142	0x3e02465e	0.12722155
143	0x3d234bbc	0.039867148
144	0xbc758bb5	-0.014986922
145	0x3dd0eb52	0.10201134
146	0x3d1af4d9	0.03783116
147	0xbe0a51fb	-0.13507836
148	0xbe00bd66	-0.1257225
149	0xbdefc1fc	-0.117069215
150	0x3e0ac9d6	0.13553557
151	0x3cdca51f	0.026934205
152	0xbea6e5df	-0.32597253
153	0xbe846a2f	-0.25862262
154	0x3db75913	0.089525364
155	0x3dced683	0.100995086
156	0xbd9c8079	-0.07641692
157	0x3dd9e8fa	0.1064014
158	0xbd2b8f3e	-0.041884653
159	0xbdc0822d	-0.09399829
160	0xbdff467e	-0.12464617
161	0x3e57e604	0.21083838
162	0xbe24a0df	-0.16076992
163	0x3da7eefd	0.0819988
164	0x3e918d50	0.28428125
165	0x3d0ccd91	0.03437573
166	0xbd010f72	-0.03150887
167	0x3e87c012	0.26513726
168	0xbe0f69db	-0.14005224
169	0x3e64a396	0.22328028
170	0xbe62c894	-0.22146827
171	0xbd8d7e57	-0.06908863
172	0xbe88eb6f	-0.26742122
173	0xbd005285	-0.031328697
174	0x3e7b1077	0.24518
175	0x3c9671f3	0.018364882
176	0xbdb04e1b	-0.086086474
177	0x3e9ba412	0.30398613
178	0x3e3bcf24	0.18340737
179	0x3dfafeb2	0.122556105
180	0x3e41a30b	0.18909852
181	0xbeeef708	-0.46672845
182	0xbe22b945	-0.15890987
183	0x3e1378c1	0.14401533
184	0x3e7f2c41	0.24919225
185	0x3dbd3eef	0.09240519
186	0xbe83a965	-0.25715175
187	0x3e87e613	0.2654272
188	0x3e5f8edb	0.21831839
189	0x3d6f4465	0.058414835
190	0x3e51e1cf	0.20496295
191	0x3ef655aa	0.48112231
192	0xbc4387f6	-0.011934271
193	0xbe8bce1c	-0.27305686
194	0xbd198a3e	-0.037485354
195	0xbdeff107	-0.11715894
196	0x3e510150	0.20410657
197	0xbe255f6f	-0.16149686
198	0x3da57354	0.08078638
199	0x3d0a8d1a	0.03382597
200	0x3db0ee75	0.08639232
201	0x3da260c8	0.07928616
202	0x3e44f739	0.19234933
203	0xbe4a6858	-0.19766366
204	0x3e83c5ab	0.25736746
205	0x3d7d2e84	0.06181194
206	0xbd4f1b2f	-0.050563034
207	0x3cdc594d	0.02689805
208	0x3d8dd828	0.06925994
209	0xbe1d043d	-0.15333648
210	0x3df709f2	0.12062444
211	0xbeacf4ba	-0.33780462
212	0xbdc3c393	-0.09558787
213	0xbdeecc0e	-0.11660014
214	0x3b59b7a0	0.0033221021
215	0xbe7a1da9	-0.24425377
216	0x3e1969bb	0.14981739
217	0xbe1315c6	-0.14363775
218	0xbe610cd1	-0.21977545
219	0x3e34f0c9	0.17669977
220	0xbe2861f6	-0.16443619
221	0xbe6343b7	-0.221938
222	0x3e01902e	0.12652656
223	0xbe1f6bee	-0.15568516
224	0x3d4ddad5	0.050257523
225	0x3e066f98	0.13128507
226	0xbdbb6573	-0.09150209
227	0x3d81f557	0.06345623
228	0xbec5a8bb	-0.38605294
229	0x3e135b15	0.14390214
230	0xbe7fca2d	-0.24979468
231	0xbdeaf1d3	-0.114719056
232	0xbea8a4ed	-0.32938328
233	0x3ee5dd24	0.4489528
234	0x3d45bb30	0.04827422
235	0xbd893ba6	-0.0670083
236	0xbc8927d8	-0.016742632
237	0xbd05dd02	-0.032681473
238	0xbd740ff9	-0.059585545
239	0xbe7945bd	-0.2434301
240	0xbe0bb103	-0.13641743
241	0xbdbeb004	-0.09310916
242	0xbc714818	-0.014726661
243	0x3d08e0e7	0.03341761
244	0xbe0ddb17	-0.13853107
245	0xbe9caffb	-0.30603012
246	0xbe8489e5	-0.25886455
247	0xbe71ae6e	-0.23601696
248	0xbdbc0583	-0.09180739
249	0x3befa187	0.0073129567
250	0x3c97e284	0.018540628
251	0x3d7715e1	0.0603236
252	0xbe2f70b2	-0.17132834
253	0x3de48e5b	0.11159965
254	0xbe1f045b	-0.15529005
255	0xbe08e21b	-0.13367502

rnn.weight_hh_l0_reverse f4 [16, 16]
0	0xbf6b35c8	-0.9187894
1	0x3f9034b1	1.126608
2	0xbf348cc3	-0.70527285
3	0x3e82d123	0.25550184
4	0xbf01177d	-0.50426465
5	0x3e9e5ab5	0.3092858
6	0x3db9c068	0.09069902
7	0x3f153001	0.58276373
8	0x3adc4372	0.0016804768
9	0xbcf95a6e	-0.030438628
10	0xbc877ccc	-0.016539
11	0xbdebc142	-0.115114704
12	0x3f1c67eb	0.61096066
13	0xbe7df805	-0.24801643
14	0x3ea5d168	0.32386327
15	0xbd5fb6f8	-0.054617852
16	0xbf27f453	-0.65607184
17	0x3eaec539	0.34134844
18	0xbf7a4dd3	-0.97775
19	0x3c1904dc	0.0093395375
20	0x3e9fc559	0.31205252
21	0xbd342f94	-0.043990687
22	0xbd5aa765	-0.053382296
23	0x3f590f45	0.84788924
24	0x3d016951	0.03159458
25	0xbe1b5629	-0.15169586
26	0x3f1d4ff2	0.6145011
27	0x3eb66209	0.3562167
28	0x3f1d586e	0.6146306
29	0x3e39e0d9	0.18152179
30	0xbe63f005	-0.22259529
31	0xbee63320	-0.4496088
32	0xbe825797	-0.2545745
33	0x3c9087ed	0.01764294
34	0x3f8d2389	1.102647
35	0xbec445bf	-0.38334462
36	0x3ed205d1	0.41020063
37	0xbe036cc7	-0.12834464
38	0x3e7c6311	0.24647166
39	0xbee8b310	-0.45449114
40	0x3e243c05	0.1603852
41	0x3f2b7ce8	0.66987467
42	0xbf077df0	-0.5292654
43	0xbe1a2577	-0.15053354
44	0xbe77ab6b	-0.24186485
45	0x3e8223bc	0.25417888
46	0x3dc99120	0.098421335
47	0xbeff61a2	-0.49879175
48	0xbdf2a5b8	-0.118480146
49	0xbec0b3fc	-0.37637317
50	0x3e9ae149	0.30250004
51	0x3f0cc095	0.54981357
52	0x3ebaca79	0.364826
53	0x3eedd88b	0.46454272
54	0xbe496bbe	-0.19670007
55	0x3cf0b47e	0.02938294
56	0xbeca10b4	-0.39465868
57	0x3e9cb004	0.3060304
58	0xbe48d47e	-0.1961231
59	0xbe56d187	-0.20978366
60	0x3f0e1c51	0.5551196
61	0xbeb8fd73	-0.36130866
62	0x3dd81f41	0.10552836
63	0x3e98a6c6	0.29814738
64	0xbe85a6b5	-0.2610375
65	0x3f300908	0.6876378
66	0xbefe9504	-0.49723065
67	0xbe5973e0	-0.21235609
68	0x3e8f5f56	0.28002423
69	0xbeeb4c08	-0.45956445
70	0x3d024a80	0.03180933
71	0x3f3afd5e	0.7304286
72	0x3c4a560b	0.012349616
73	0x3e03073b	0.12795727
74	0xbe0ced3c	-0.13762373
75	0xbec34763	-0.381404
76	0x3e5e3a97	0.21702038
77	0xbf036875	-0.51331264
78	0xbf2d3947	-0.67665523
79	0xbf703027	-0.93823475
80	0x3e8bd811	0.27313283
81	0x3f08dfc9	0.5346647
82	0xbef148ea	-0.47125942
83	0xbd999040	-0.07498217
84	0x3f02f5b5	0.5115617
85	0x3e32644b	0.17421071
86	0xbdea223c	-0.11432311
87	0x3f2fc63e	0.6866187
88	0xbe6fb5cb	-0.23409192
89	0x3eb59dc5	0.3547193
90	0x3d91f3ed	0.07126603
91	0xbea4deaa	-0.3220113
92	0x3e7f8fd8	0.24957216
93	0xbef054cd	-0.46939698
94	0xbf11c1f6	-0.56936586
95	0xbf8b6e59	-1.089305
96	0xbf484a95	-0.78238803
97	0xbdd8682a	-0.10566743
98	0xbf6a8461	-0.91608244
99	0xbed72a25	-0.4202434
100	0xbeb0e1ad	-0.34547177
101	0xbe90f203	-0.2830964
102	0x3dd625b7	0.10456412
103	0xbdb88e97	-0.09011572
104	0x3e928656	0.28618115
105	0xbe56d478	-0.20979488
106	0xbbee0007	-0.007263187
107	0x3d792cec	0.060833856
108	0x3f76016d	0.96095926
109	0x3f232bd5	0.6373876
110	0x3ebbe194	0.3669554
111	0xbec9f39a	-0.39443666
112	0x3dfd3fcc	0.12365684
113	0x3f1de6a6	0.61680067
114	0xbe894c9c	-0.2681626
115	0x3e378ced	0.17924853
116	0x3eb3953b	0.3507479
117	0x3dfd675c	0.1237323
118	0xbe2749a1	-0.16336681
119	0x3f0cc6d7	0.54990906
120	0xbdf56153	-0.11981454
121	0x3df967a0	0.12177968
122	0xbe70a868	-0.23501742
123	0xbf22f0cc	-0.63648677
124	0x3e95b8fc	0.29242694
125	0xbec36bd8	-0.38168216
126	0x3e452871	0.19253708
127	0x3d101180	0.03517294
128	0x3aa5f31f	0.0012660957
129	0x3e0f8d88	0.14018834
130	0xbe85c53c	-0.2612704
131	0xbe808460	-0.25100994
132	0xbe3d6cbb	-0.18498509
133	0x3cbfab6d	0.023397172
134	0x3ec24fbd	0.3795146
135	0x3e18ddac	0.14928311
136	0x3e47bb46	0.19505033
137	0xbedc29d7	-0.4300067
138	0xbded7036	-0.11593668
139	0x3eab5d52	0.33469635
140	0xbe30d855	-0.17270024
141	0x3e9627cc	0.29327238
142	0xbe94e020	-0.29077244
143	0x3e7eac43	0.248704
144	0xbe9db010	-0.30798388
145	0xbe803ded	-0.25047246
146	0x3dff5818	0.124679744
147	0xbe26d637	-0.16292654
148	0xbec1163a	-0.3771227
149	0xbed3aa1f	-0.4134073
150	0x3ea3dfa7	0.3200657
151	0xbdcdf3db	-0.10056277
152	0x3b82ad58	0.0039879493
153	0x3e038bfc	0.12846369
154	0x3f33b8d0	0.70203876
155	0x3e40d3bc	0.1883077
156	0xbd88de74	-0.066830546
157	0xbdebaf68	-0.115080655
158	0xbe48ff61	-0.1962867
159	0xbedca238	-0.43092513
160	0x3f38ce70	0.7219
161	0xbf413041	-0.75464255
162	0xbe407d3f	-0.18797778
163	0xbe8c7ee8	-0.27440572
164	0xbda3b2ce	-0.07993089
165	0x3ea161f5	0.31520048
166	0x3da89e30	0.08233297
167	0xbf8fa69a	-1.1222718
168	0x3e1a762c	0.15084141
169	0xbe98bdf9	-0.29832438
170	0xbe778ece	-0.2417557
171	0x3eaabcf1	0.33347276
172	0xbd7028d8	-0.0586327
173	0xbd81215c	-0.06305191
174	0x3de4f38a	0.11179264
175	0x3f472f3f	0.77806467
176	0x3f95e750	1.1711216
177	0xbf3b9773	-0.7327797
178	0x3ecc0ff0	0.3985591
179	0xbe926b6b	-0.28597578
180	0x3e7895df	0.24275921
181	0x3f2b3a49	0.6688581
182	0x3d95ee16	0.07320802
183	0xbf04c76b	-0.5186679
184	0xbdc38869	-0.095475025
185	0x3dead121	0.114656694
186	0xbe876f90	-0.26452303
187	0x3e18fb0f	0.14939521
188	0xbe7b400e	-0.24536154
189	0xbdcbc833	-0.09950294
190	0xbf828e44	-1.0199666
191	0xbeb36f16	-0.3504569
192	0xbed70417	-0.41995308
193	0x3e2f8eb6	0.17144284
194	0xbfac291a	-1.3450043
195	0x3ecf7acf	0.40523383
196	0x3e29e262	0.16590264
197	0x3ef926f0	0.4866252
198	0xbec836fc	-0.3910445
199	0x3a863538	0.0010239249
200	0xbe8f9132	-0.28040463
201	0xbe2755e4	-0.16341358
202	0x3e82d9be	0.2555675
203	0x3dec0c90	0.115258336
204	0x3ec8eab0	0.39241552
205	0xbd9d548d	-0.076821424
206	0x3eeaed62	0.45884234
207	0x3f5b3aa0	0.8563633
208	0xbf2357b0	-0.63805676
209	0x3d04ef86	0.03245499
210	0xbec64358	-0.38723254
211	0xbe00ebbc	-0.12589926
212	0xbd90c472	-0.07068719
213	0xbe608d0e	-0.21928808
214	0x3e57492a	0.21024004
215	0xbe1e41f4	-0.15454847
216	0x3e3452a0	0.17609644
217	0xbe7f6d65	-0.24944074
218	0x3e8fae5c	0.28062713
219	0x3e96e59e	0.2947206
220	0x3f01c3dc	0.5068948
221	0x3e883f54	0.26610816
222	0x3ebf3737	0.37346813
223	0xbe99608d	-0.29956475
224	0x3db8a75f	0.090162985
225	0xbd094a44	-0.03351809
226	0x3d86e517	0.06586664
227	0xbe885aad	-0.2663168
228	0xbe54c297	-0.20777355
229	0xbe0c5872	-0.13705614
230	0x3ebb9cd5	0.3664309
231	0x3ea23550	0.316813
232	0x3d4c17fb	0.049827557
233	0xbd44afd7	-0.048019256
234	0xbdbb582d	-0.091476776
235	0x3ebdd6d0	0.3707795
236	0xbe2aeaa8	-0.16691077
237	0xbceac2f2	-0.02865741
238	0xbe614082	-0.21997264
239	0xbe29198f	-0.16513656
240	0xbd661a70	-0.056177557
241	0xbe3db139	-0.18524636
242	0xbcea0cad	-0.028570497
243	0xbd2dc51c	-0.042424306
244	0xbfc62534	-1.5480103
245	0xbd2d6cae	-0.042339973
246	0xbd4963e7	-0.04916754
247	0xbe180ff2	-0.14849833
248	0xbe9f6a90	-0.31135988
249	0x3d699779	0.05702922
250	0xbe90bcc6	-0.28269023
251	0x3c9c82cc	0.019105338
252	0xbdadc2a7	-0.084843926
253	0xbe19ee34	-0.15032274
254	0xbedc393f	-0.43012425
255	0x3f779f01	0.96726996

rnn.bias_ih_l0_reverse f4 [16]
0	0xbbf2cc6f	-0.0074096243
1	0x3de78a64	0.11305693
2	0xbdd4426d	-0.10364232
3	0x3ef0ae33	0.47007903
4	0x3dd0a72a	0.10188134
5	0xbadd793d	-0.0016897094
6	0xbea271d0	-0.31727457
7	0x3f1320e4	0.5747206
8	0xbee2c17e	-0.44288248
9	0xbe8ca0d6	-0.27466458
10	0xbe32e50e	-0.1747019
11	0xbe9132cb	-0.28359064
12	0x3eede268	0.46461797
13	0xbe8925b0	-0.26786566
14	0xbe02d259	-0.12775554
15	0x3e84658e	0.2585873

rnn.bias_hh_l0_reverse f4 [16]
0	0x3e1b57df	0.15170239
1	0x3e802179	0.25025538
2	0xbeda969f	-0.4269304
3	0x3f1fe127	0.6245293
4	0x3d399998	0.045312494
5	0xbcdb0116	-0.026733916
6	0xbea04085	-0.31299224
7	0x3e939b26	0.28829306
8	0xbecc8467	-0.39944765
9	0xbc6ad79a	-0.01433363
10	0xbe95f539	-0.29288653
11	0xbe90480d	-0.2817997
12	0x3ef097c3	0.46990785
13	0xbdbce573	-0.092234515
14	0xbe879b3a	-0.26485616
15	0x3e805900	0.25067902

fc1.weight f4 [8, 32]
0	0xbf0615d7	-0.52377075
1	0x3ee5122a	0.4474042
2	0x3e88bf1f	0.26708314
3	0x3f40b295	0.75272495
4	0xbe88ca9f	-0.26717088
5	0xbf1797c7	-0.5921597
6	0xbe897cff	-0.26853177
7	0x3f141e4b	0.57858723
8	0x3f46b740	0.7762337
9	0xbf1609aa	-0.58608496
10	0x3f0e425b	0.5557
11	0x3eeda030	0.46411276
12	0x3ec86434	0.3913895
13	0xbf0bf995	-0.54677707
14	0x3eb5548f	0.35416076
15	0xbdeadb3f	-0.11467599
16	0x3e9e247f	0.3088722
17	0xbc538ad7	-0.01291152
18	0x3e7a2aaf	0.24430345
19	0x3f0289fa	0.50991786
20	0x3edec83b	0.4351214
21	0x3ec4e820	0.38458347
22	0xbf1e6464	-0.61871934
23	0x3e08281b	0.13296549
24	0xbf1ca1e7	-0.61184543
25	0x3e63a920	0.22232485
26	0xbf04a690	-0.51816654
27	0xbed274d6	-0.41104764
28	0x3ed18681	0.4092293
29	0xbecc1995	-0.39863268
30	0x3e9d5e15	0.3073584
31	0x3e8c5bb6	0.2741372
32	0x3e917dad	0.28416196
33	0xbf7822c5	-0.96928054
34	0xbe86e9cb	-0.26350245
35	0xbe7187c9	-0.23586954
36	0xbe49d125	-0.19708689
37	0x3e1d3e58	0.15355814
38	0x3f37532c	0.71611285
39	0xbea5a9c8	-0.32356095
40	0xbf00bf15	-0.5029157
41	0x3f2093f3	0.6272575
42	0x3f009252	0.5022327
43	0xbf2a4d82	-0.6652452
44	0x3ef22a58	0.4729793
45	0xbf02faa3	-0.5116369
46	0xbf3281d4	-0.6972935
47	0xbedc6a3f	-0.4304981
48	0x3f196971	0.59926516
49	0x3d952a6b	0.07283481
50	0xbf187b9f	-0.5956363
51	0x3e9e5ef3	0.30931816
52	0xbf22dbf2	-0.6361686
53	0x3eefff4a	0.46874458
54	0xbdf5bbe5	-0.11998729
55	0x3ede2cde	0.43393606
56	0x3dc5215e	0.09625505
57	0xbf136f80	-0.5759201
58	0xbd091904	-0.033471122
59	0x3e55f07d	0.2089252
60	0x3ef46cbc	0.47739208
61	0x3d4dc520	0.05023682
62	0xbf27373c	-0.65318656
63	0x3ea19922	0.31562144
64	0x3eeb0e58	0.4590938
65	0xbed4ffe2	-0.41601473
66	0x3cb1eb44	0.021718629
67	0xbd9efa50	-0.07762587
68	0xbe2a7fc1	-0.16650297
69	0x3ea03379	0.3128927
70	0xbdaa9553	-0.083292626
71	0xbf23c6f0	-0.6397543
72	0xbea63651	-0.32463315
73	0xbe49cf1d	-0.19707914
74	0xbf5305aa	-0.8243052
75	0xbf110fe1	-0.56664854
76	0xbf0d3157	-0.5515341
77	0x3f03d17e	0.51491535
78	0x3bf083a9	0.007339914
79	0xbe8b41ef	-0.2719874
80	0x3cd37935	0.025814632
81	0x3f80efd3	1.0073189
82	0x3e66d523	0.22542243
83	0xbe1c7243	-0.15277962
84	0x3cc46a43	0.02397645
85	0xbebfdbbf	-0.3747234
86	0x3f35e630	0.71054363
87	0x3e7dac1c	0.24772686
88	0x3e4eed9f	0.20207833
89	0xbcd8fa30	-0.026486486
90	0xbdcbc706	-0.0995007
91	0x3e371df7	0.17882524
92	0x3d483929	0.048882637
93	0x3f505315	0.81376773
94	0x3ee20aef	0.44148967
95	0xbf23cb33	-0.6398193
96	0xbe46fbd2	-0.19432
97	0x3e114db1	0.14189793
98	0xbf5d8ff3	-0.86547774
99	0xbdc468cf	-0.09590303
100	0x3f23caf6	0.6398157
101	0xbf098333	-0.5371582
102	0xbe4cdcbc	-0.20006078
103	0xbf33eb11	-0.7028056
104	0xbe8e3805	-0.27777115
105	0x3d2bec54	0.041973427
106	0xbde70bf7	-0.11281579
107	0xbef30c40	-0.47470284
108	0xbeef5204	-0.4674226
109	0x3ed5bc59	0.4174526
110	0x3de97f00	0.114011765
111	0x3e878e12	0.2647558
112	0xbecbdc50	-0.39816523
113	0xbee89fa3	-0.45434293
114	0xbebd7689	-0.37004498
115	0xbe933d8e	-0.287579
116	0x3ca3950c	0.019968532
117	0x3e17cb9a	0.14823762
118	0x3fa8fb6a	1.3201725
119	0xbae663b4	-0.0017577321
120	0x3f8580dd	1.0429951
121	0xbf3c3e7c	-0.73532844
122	0x3f0cd82b	0.55017346
123	0xbe46557a	-0.19368544
124	0x38726f83	5.780115e-05
125	0x3f0ee990	0.5582514
126	0xbed93c8a	-0.42429
127	0xbf0e1542	-0.55501187
128	0x3e905c0d	0.2819523
129	0xbf0db132	-0.55348504
130	0x3da10ccd	0.0786377
131	0xbea129fa	-0.31477338
132	0x3e769aec	0.24082536
133	0xbf0c7955	-0.5487264
134	0x3f32fc2f	0.6991605
135	0x3dd4f7a1	0.10398794
136	0x3f2c55f0	0.6731863
137	0x3f1f07a7	0.6212105
138	0x3edd6ab9	0.43245485
139	0xbf058f7f	-0.5217208
140	0xbf38d513	-0.72200125
141	0x3f06a02d	0.5258816
142	0x3ebe5c85	0.37179962
143	0x3ee5c5dd	0.4487752
144	0xbf27f675	-0.6561044
145	0x3efd250e	0.49442333
146	0xbf084f9c	-0.53246474
147	0xbfa247f9	-1.2678214
148	0x3f045261	0.516882
149	0xbf2407e3	-0.64074534
150	0xbdf1a599	-0.11799163
151	0xbf8125d3	-1.0089668
152	0x3ed13c11	0.4086614
153	0x3d5dd3be	0.05415701
154	0x3f48aa94	0.7838528
155	0xbe79aeaf	-0.24383043
156	0xbf80799f	-1.0037116
157	0xbe9938b4	-0.29926074
158	0xbf1adf27	-0.60496753
159	0x3ddfd3e7	0.10929089
160	0xbd566cf2	-0.052349992
161	0x3ea20d24	0.3165065
162	0xbe064257	-0.13111244
163	0xbea36174	-0.31910288
164	0xbf5ae734	-0.8550904
165	0x3f3b62a3	0.7319738
166	0xbde81755	-0.11332575
167	0xbe5f80ce	-0.21826479
168	0xbf70a635	-0.9400361
169	0xbeacb221	-0.33729652
170	0xbf200bf1	-0.6251822
171	0x3d9dbe23	0.07702281
172	0x3dcaffd8	0.099120796
173	0xbf0f0a89	-0.5587545
174	0x3ed3777d	0.413021
175	0x3e608bdb	0.2192835
176	0xbf049b21	-0.5179921
177	0xbebc8686	-0.36821383
178	0x3e8b7a04	0.27241528
179	0xbe8d35e1	-0.2758017
180	0xbf42339f	-0.7586002
181	0xbf1fea06	-0.62466466
182	0x3e8fb3d1	0.28066877
183	0xbeb343bc	-0.35012615
184	0x3dd0fde8	0.10204679
185	0xbcad365c	-0.021144085
186	0x3f61dae8	0.8822465
187	0x3d46a6a2	0.048498757
188	0x3e5b9806	0.21444711
189	0x3d18ed24	0.03733553
190	0x3e8e2f9b	0.27770695
191	0x3d04b4c9	0.032398973
192	0xbdd6f0af	-0.104951255
193	0x3ea415de	0.32047933
194	0xbeb38128	-0.35059476
195	0xbee13816	-0.43988103
196	0x3f88ff06	1.0702827
197	0xbea38745	-0.3193914
198	0xbe96c33e	-0.29445833
199	0xbea09856	-0.31366223
200	0x3d87240a	0.06598671
201	0xbf0d5562	-0.5520841
202	0xbe302562	-0.1720176
203	0x3d439b2d	0.04775541
204	0x3d339fd8	0.04385361
205	0x3f878d9d	1.0590092
206	0x3e41014a	0.18848148
207	0xbdd3fa6a	-0.10350497
208	0xbfa581e6	-1.2930267
209	0xbed62ac0	-0.4182949
210	0x3eeb8e84	0.46007168
211	0xbe5ccc7c	-0.2156238
212	0x3f2db569	0.67854935
213	0x3f63d75d	0.89000493
214	0x3cff93a3	0.031198328
215	0xbe78149c	-0.24226612
216	0x3ea962c7	0.33083174
217	0xbe1a8dfb	-0.15093224
218	0xbf72bc3d	-0.9481848
219	0x3feaa3f3	1.8331283
220	0xbf12f963	-0.57411784
221	0x3d8efeb8	0.069821775
222	0xbd86fcb6	-0.065911695
223	0x3d2c4835	0.04206105
224	0xbe486a04	-0.19571692
225	0xbcc0809c	-0.023498826
226	0xbd45abf5	-0.048259694
227	0xbb09f1b1	-0.00210486
228	0x3f2ecb43	0.682789
229	0x3e713b19	0.235577
230	0xbebe346b	-0.37149367
231	0xbe87f0a2	-0.26550776
232	0xbe505242	-0.20343879
233	0x3fa52d78	1.2904501
234	0xbea6075a	-0.32427484
235	0x3e97151d	0.29508296
236	0xbd84861a	-0.0647089
237	0x3f3ee4cf	0.74567884
238	0xbfc9642d	-1.5733696
239	0x3e2d1de2	0.1690593
240	0x3f0bbd21	0.5458546
241	0xbef66072	-0.48120457
242	0x3f1af23d	0.60525876
243	0xbdac92ec	-0.084264606
244	0x3e3186f5	0.17336638
245	0xbe3f9313	-0.18708448
246	0x3ec9511f	0.39319703
247	0xbf17f064	-0.5935118
248	0x3e751fab	0.23937862
249	0xbd01652a	-0.03159062
250	0xbea3dc84	-0.32004178
251	0xbe9fdca2	-0.31223017
252	0xbe8eb5ef	-0.2787318
253	0xbd94c61d	-0.072643496
254	0x3eb3e1fa	0.35133344
255	0xb9718b3a	-0.00023035417

fc1.bias f4 [8]
0	0x3f1093b0	0.56475353
1	0x3e579d9d	0.21056218
2	0xbeda6af5	-0.42659727
3	0xbf017dea	-0.50582755
4	0xbeba2a3f	-0.36360356
5	0xbef4d2bd	-0.4781703
6	0xbe2b1bd7	-0.16709839
7	0xbe1812cd	-0.14850922
