src/main/python/saved_models/cpp_1_28_CNNClassifier1_64embs_147id_64hd_0hl_Falsebid5kernel0.3dropout_0.pt (torch, 836427 bytes, 9 tensors)

emb.weight f4 [147, 64]
000000 34 4d f5 bf fc 8e 6e bf 7a 22 cb be 69 a2 02 c0
       -1.9164186 -0.93186927 -0.3967474 -2.0411627
000010 a8 e6 a7 3e ef b6 d4 be 96 77 63 bf e4 e9 c5 bf
       0.32793164 -0.41545817 -0.8885435 -1.5462003
000020 ee 1c b8 bf 20 7d 25 3f 01 7b 6c bf 7a 5e bd bc
       -1.4383829 0.6464405 -0.9237519 -0.023116339
000030 7b 81 46 bf e3 40 92 3f 40 ce f6 3e 70 02 05 3f
       -0.7754132 1.1426052 0.4820423 0.51956844
000040 a4 7d dc be 9a 8c c4 bf ec ac a0 3f 1c fd 48 3c
       -0.43064606 -1.5355408 1.2552772 0.012267377
000050 e8 2d 78 3f 7d 5c bb bb 52 dc 93 be 03 04 6f 3f
       0.9694505 -0.0057178126 -0.2887903 0.93365496
000060 6b f6 a7 3f 2b 8d d7 be d5 6c 32 c0 5a 83 e7 bf
       1.3122076 -0.4209989 -2.7878926 -1.808696
000070 c4 a5 72 3d 1d 33 61 bf b4 55 a5 bf b9 59 6b bf
       0.059240118 -0.8796862 -1.291678 -0.9193378
000080 f2 f8 10 40 a1 12 cf 3e 58 75 58 3d 04 f7 6b bf
       2.2651944 0.404439 0.052846283 -0.9217379
000090 0c 1c 10 3f 82 95 de 3e fd 65 3e 3f e4 75 98 bd
       0.56292796 0.4347344 0.7437437 -0.07444361
0000a0 1f 6a 3b bf 14 7e ff 3e 60 f5 62 be c9 28 e9 3c
       -0.732088 0.49900877 -0.22163916 0.02846183
0000b0 5c 80 3c 40 64 78 a2 bf c0 bb 99 3f 91 60 9d bf
       2.9453344 -1.269299 1.2010422 -1.2295095
0000c0 60 46 94 bf 39 65 a4 3f 19 4d 95 bc f1 6c ef be
       -1.1583977 1.2843391 -0.01822524 -0.46762803
0000d0 07 96 80 3f e8 8f ff 3e 18 d8 ce 3f a1 5b fd 3f
       1.0045785 0.4991448 1.6159697 1.9793588
0000e0 6b 3b 9c 3e b5 2b 86 3f 82 e3 09 bf 7d f2 4c bf
       0.30514082 1.0482088 -0.53862774 -0.8005751
0000f0 12 4f 94 3f ab 7a 88 bf 56 89 5d c0 14 9a 9d bf
       1.158663 -1.0662435 -3.4615073 -1.2312646
000100 8a ea d0 bc 7f fc 82 bf 97 9f 18 bf 3b b5 80 bf
       -0.025502462 -1.0233306 -0.59618515 -1.0055307
000110 2e a9 57 be 40 51 f7 bb dd 32 d6 3f fa 74 29 3c
       -0.2106063 -0.0075475276 1.6734272 0.010342831
000120 81 36 34 bf 51 b6 3d be 43 09 7f bf 25 cd 54 bf
       -0.70395666 -0.1852658 -0.9962351 -0.83125526
000130 14 0b ec be 90 61 0f bf f6 88 ca 3e 83 76 7b bf
       -0.46102202 -0.56008244 0.39557618 -0.9822771
000140 1b a9 01 bf 0c 57 cc 3d cd 6a 27 bf 47 50 3b 3f
       -0.5064866 0.099775404 -0.6539734 0.7316937
000150 f5 99 b7 bf 49 35 00 bf 99 c0 2f 3e 3d d5 23 be
       -1.4343859 -0.50081307 0.17163314 -0.15999313
000160 52 5f 82 3e 46 80 00 bf 0b 46 85 bf dd 75 3b 3f
       0.2546335 -0.5019573 -1.0412 0.7322672
000170 02 30 86 bf d1 16 f1 be d3 0f 95 3e 66 cf fe 3f
       -1.0483401 -0.4708772 0.29113635 1.9907043
000180 7b 54 29 3f 51 4f 98 3f 5e 08 51 3f af dc 69 bf
       0.6614453 1.1899205 0.8165339 -0.9135236
000190 74 4c b1 3f 3a 58 50 bf a8 75 6d bf d0 54 8e 3f
       1.3851457 -0.81384623 -0.92757654 1.1119633
0001a0 05 e8 aa 3f ad b1 1a 3f 71 d9 d3 bd 9c d8 1a be
       1.3352057 0.6042736 -0.10344208 -0.15121692
0001b0 87 88 06 c0 c2 b9 1e bf ac 36 bd bf d3 13 91 bf
       -2.102083 -0.62002194 -1.478231 -1.1334175
0001c0 1d b1 5f 3f 29 6d 0f bf 96 94 a4 3f 5e 1b 51 3f
       0.8737963 -0.5602594 1.2857845 0.81682384
0001d0 3d 3b 52 3e 02 37 9c 3e c9 22 09 3f 48 c4 dc be
       0.2053041 0.30510718 0.535687 -0.431185
0001e0 8a b8 23 40 f1 f6 6e be 35 ba 5c bc 48 29 ee 3f
       2.5581384 -0.23336388 -0.01347213 1.8606348
0001f0 f4 7d fd bf f7 37 e6 3f 98 82 d0 3d 44 15 ae 3e
       -1.9804063 1.7985829 0.10181159 0.340006
000200 24 71 5d 3f f0 6d ec bf a1 23 3e 3f 48 7d 9c 3f
       0.86500764 -1.847105 0.74273115 1.2225733
000210 59 ba 6c be fc d6 db bf 21 93 25 3f d1 e3 43 bf
       -0.23117961 -1.7174983 0.64677626 -0.76519495
000220 d8 8d b9 bf 54 48 c5 bf c9 9b b6 3d fd 9a f6 3e
       -1.4496412 -1.5412698 0.089164324 0.48165122
000230 bd 1a 0a 40 d6 e8 43 3f 2f b7 c4 3f c2 0d d5 bf
       2.157882 0.76527154 1.5368403 -1.6644824
000240 9c 11 ab bf fe d6 84 bf 15 c0 ab 3f 4e 1e 44 3f
       -1.3364749 -1.037811 1.3417994 0.7660874
000250 64 c6 6b 3f 34 60 dc bc 41 9a 17 3e 1a c5 cc bf
       0.92099595 -0.026901342 0.14804937 -1.5997651
000260 27 9d 47 3e 48 4f 17 3f 01 5c 55 3f b0 4a a6 3f
       0.19493543 0.5910535 0.8334351 1.2991543
000270 3f 0b ae 3f e2 56 f1 3f 8b 18 18 bf 5d bd 16 40
       1.3597182 1.885464 -0.5941245 2.3553078
000280 13 a4 78 3e fc 22 f9 3c 98 12 63 bf 66 4c a2 be
       0.2428134 0.03041219 -0.88700247 -0.31698912
000290 ad 6c 74 bf af 2d 8c bf 99 4e 27 3f a6 38 6d 3f
       -0.95478326 -1.0951442 0.65354306 0.92664564
0002a0 1b c2 8c 3e 74 55 ab 3f c7 15 be 3f 1e 6f e0 bf
       0.2749184 1.3385453 1.4850396 -1.753391
0002b0 5f cb 0b bf b1 2e 40 bf 8e 1b 58 3d a4 8e f1 3e
       -0.54607195 -0.75071245 0.052760653 0.4717914
0002c0 8a ea 5a 3f 45 d3 91 3f fc 05 32 3f 1d ea c9 3f
       0.8551413 1.1392599 0.6954038 1.5774571
0002d0 7a 8a 7a bf 6d 1a 34 3e 2f 33 d6 be 0d b1 cf bd
       -0.9786755 0.17588206 -0.41835925 -0.10141192
0002e0 14 78 cc 3f 6f 0a 90 be f3 ae f8 3e a3 11 97 3f
       1.5974145 -0.2813296 0.48570976 1.1802257
0002f0 4d 67 68 bd d6 10 b0 3f f3 f9 ca bd 3b 6c 49 3f
       -0.05673914 1.3755138 -0.09910955 0.7868077
000300 ef f1 dc be 56 77 6a 3f 8f d3 ff 3f 61 3b ea be
       -0.4315333 0.9158834 1.9986438 -0.45748428
000310 24 3f 7d 3f 6c 70 be bf c2 4a 56 c0 50 f3 29 bf
       0.9892447 -1.4878058 -3.3483129 -0.6638689
000320 d9 8e b5 be e3 89 97 3f 5b c8 6d bf c9 73 cf 3d
       -0.35460547 1.1838955 -0.92883843 0.10129506
000330 ce 01 f5 bf 9e 5f fd bd 82 ae 8f 3f 03 40 ac 3e
       -1.9141176 -0.12371753 1.122513 0.33642587
000340 c2 43 01 3f 48 d3 26 3f 5d 11 20 bf 78 09 c6 3f
       0.50494015 0.6516614 -0.62526494 1.547164
000350 0e ff 1a 3f 41 96 13 40 36 1e d9 3f 8f 0b 80 3f
       0.6054543 2.3060458 1.6962345 1.0003527
000360 ff e0 9c bf aa 95 de 3f ac 6e d5 3f 68 d4 42 bd
       -1.2256163 1.7389424 1.6674399 -0.047565848
000370 2c 1b dd 3e 11 dc 26 bf 9a 8c c3 3f 2a 96 bc 3f
       0.43184793 -0.65179545 1.5277283 1.4733326
000380 dc 97 db 3f 14 9f 74 bd fd 10 8d be de cd fc bf
       1.7155719 -0.05972202 -0.27552024 -1.9750326
000390 d3 40 69 3f a2 93 51 3f 37 42 5d 3f df 00 15 3f
       0.9111454 0.81865895 0.8642916 0.58204454
0003a0 34 1e 55 3e fc 37 0d 3f fd 46 0e 3f a2 14 89 bf
       0.20812303 0.5516355 0.5557707 -1.0709422
0003b0 06 15 bd 3f 42 40 0e c0 82 2a 7a bf 61 84 11 3f
       1.4772041 -2.222672 -0.9772111 0.5684262
0003c0 26 02 6a bd 90 13 96 3f 07 45 ce 3f 0b d3 75 bf
       -0.057130955 1.172472 1.6114815 -0.9602515
0003d0 04 54 7e bf 90 95 06 3e e0 d7 1f 3d 21 22 c6 be
       -0.9934695 0.13142991 0.039024234 -0.38697913
0003e0 f0 fa 28 3f 2c 74 09 bf 79 9f 17 bf 5b d7 1b 3f
       0.660079 -0.5369289 -0.5922771 0.6087548
0003f0 1d 2a 38 3e 93 ab 62 bf 5e ac 6f be aa 7f 85 3f
       0.17984815 -0.8854305 -0.23405597 1.0429585

conv1.weight f4 [64, 64, 5]
000000 dc 09 a0 bd d0 30 9f 3d ad 08 1e bc b4 cc df 3d
       -0.078143805 0.07772982 -0.009645623 0.10927716
000010 d4 c5 0e bd 4d 27 86 3d 34 bc 1e 3e 6c 3a 61 bc
       -0.034856632 0.06550465 0.15501481 -0.013746839
000020 b1 f0 43 bd 19 40 81 3d 59 60 11 3e 39 9f 42 be
       -0.047836963 0.06311054 0.1419691 -0.19006051
000030 33 da b7 3d 1b 33 b4 bd 75 16 dc 3d 51 cd ee 3c
       0.08977165 -0.0879881 0.10746471 0.029150637
000040 ad 50 38 bd ed d2 fd bd c3 d5 3a 3d 68 48 82 be
       -0.044998813 -0.123937465 0.045614015 -0.25445867
000050 94 76 92 3d 76 06 06 be 13 c1 24 3b f7 bf 80 bd
       0.07151523 -0.13088402 0.0025139495 -0.062866144
000060 8b 1a 98 bd cb d9 6b bc fd 7f 43 3c 53 a2 86 3d
       -0.07426938 -0.014395188 0.01193237 0.0657393
000070 11 b5 d9 3d 2c 38 87 3e 4e 2c ee bc 62 4e 25 bc
       0.10630239 0.26410043 -0.02907386 -0.010089489
000080 ac d9 ec 3d 88 d4 17 3e 52 fc 24 3d 49 ca 1d be
       0.11564955 0.14827168 0.040279694 -0.15409197
000090 9e 66 29 3d 51 49 d8 bd 0f 2f 3e 3b 75 d9 ae be
       0.04135763 -0.10560859 0.0029019748 -0.34150282
0000a0 cd a8 a0 3d 23 01 09 3e d3 bf e9 3d dc 69 51 3d
       0.07844696 0.1337934 0.11413541 0.051126346
0000b0 ce f0 74 3e 41 4b bb bd 56 c5 97 bd d7 eb 2e 3c
       0.23919985 -0.09145213 -0.07410686 0.010676346
0000c0 c4 ac 05 3d 0d 61 c8 be 53 8a d7 3c 16 ae 83 3c
       0.032635465 -0.39136544 0.026311075 0.016074222
0000d0 95 66 02 3e 45 2a ff 3b b9 16 bb 3c bd c3 1b 3e
       0.12734444 0.0077870213 0.022837983 0.15211387
0000e0 cc c0 7b 3d 98 62 1a be a3 fb 04 3e b0 e6 22 bd
       0.061463162 -0.15076673 0.12986617 -0.039770782
0000f0 93 3d f9 bd 4a ac 36 3d 07 60 6a bd 8a 6b 66 bd
       -0.121699475 0.0445979 -0.057220485 -0.0562549
000100 b3 8e 3f 3e 14 de 6e 3d c5 1e ef 3c 35 39 30 3e
       0.18706779 0.05831726 0.029189477 0.17209323
000110 ca aa 1b 3d 7a 49 fe 3d 24 d3 b5 3e 67 d1 33 ba
       0.038004674 0.12416358 0.3551265 -0.00068595115
000120 35 ad 8c 3e f3 76 10 bd 1c 36 38 3e 4b 90 8c 3d
       0.27475896 -0.03526969 0.17989391 0.06863459
000130 45 cf f3 bd c0 27 8d be 09 82 07 3d 47 f2 55 3d
       -0.11904768 -0.2756939 0.033082996 0.052233007
000140 7d 2c e9 bd 27 71 e9 bd 80 c0 94 3d 9e 06 77 bd
       -0.113854386 -0.11398535 0.07263279 -0.060309045
000150 a3 1f d0 3b 04 e7 c3 bd ad 35 dc 3d 20 21 2a 3c
       0.0063514276 -0.09565547 0.10752425 0.010383874
000160 03 de 33 3e 8f 82 91 be 7e 53 37 3d 39 31 e1 3a
       0.1756516 -0.2841992 0.04475736 0.0017180807
000170 3d 82 56 3e 91 f3 ca 3d 22 82 1f bd e0 49 56 3d
       0.2094812 0.09909738 -0.038942464 0.052316546
000180 92 8b e5 bd de 73 c8 bd e1 3b e0 3c 69 17 b6 3e
       -0.112082615 -0.09787725 0.027372302 0.35564736
000190 6e e6 39 be 09 94 65 bd 6d 84 45 be e1 dd 32 3c
       -0.18154308 -0.05604938 -0.19288798 0.010917158
0001a0 74 fb 9d bd 2f 0b a1 bd e0 79 08 bd 53 60 fc bd
       -0.077139765 -0.07863461 -0.033319354 -0.1232306
0001b0 8b 3d e0 bd e2 65 98 3d 8a 1a 8e 3b 67 7c 9a bd
       -0.109492384 0.074413076 0.00433666 -0.07543259
0001c0 04 47 b4 bd 0b 5e bd 3d b7 fc 19 3e be 45 dd 3c
       -0.08802608 0.09246453 0.1503781 0.027010795
0001d0 cb 72 4e 3e 6c 37 a6 3d d3 1c 63 bb a6 99 c3 3e
       0.20160978 0.0811604 -0.0034654632 0.38203162
0001e0 ea 29 89 bc e3 c6 8a 3d 34 e8 11 bd 52 73 03 bd
       -0.016743619 0.06776216 -0.035621837 -0.0320924
0001f0 b8 53 cd 3d 2c af 8f 3d dd 6a 8d bd a1 94 2d bd
       0.10025734 0.07015833 -0.06905148 -0.04237807
000200 bd 50 09 be 6c d9 ec bd 48 72 8a bd 35 0d 12 be
       -0.13409705 -0.115649074 -0.06760079 -0.1426285
000210 60 c2 01 be aa 56 e7 bd ce dd 44 be cb d4 62 bc
       -0.12671804 -0.11295827 -0.19225237 -0.013844679
000220 e8 8f 7e be 60 75 9a bd 56 60 d3 3d 40 1f 07 be
       -0.24859583 -0.07541919 0.10321109 -0.13195515
000230 5a 64 24 3d 92 f6 47 3e 55 1e 1b 3e 39 dc b5 3b
       0.040134765 0.19527653 0.1514829 0.005549934
000240 75 d0 45 3c 1e f6 d6 3c 5e 00 31 be 6c f9 f5 3b
       0.012073626 0.026240405 -0.17285296 0.00750654
000250 07 12 12 be dd 1f b7 bd 71 0b 4c be 25 5c ca bc
       -0.1426469 -0.08941624 -0.1992624 -0.024702141
000260 90 ea f2 bd 86 73 fd 3c cd 9b 58 be 6c 50 d0 bd
       -0.118611455 0.030938875 -0.21153183 -0.10171589
000270 29 d4 8e bd bf a0 df bd ff ec 3a bd d2 38 4e bd
       -0.0697406 -0.10919332 -0.045636173 -0.050347157
000280 a9 20 22 3d fe 2d 00 3e 75 56 31 3d 28 44 1b 3d
       0.03958193 0.12517545 0.043295342 0.037906796
000290 74 00 e3 3c a5 46 81 3d 0c 86 0e be d6 4e af bc
       0.027710177 0.063123025 -0.13918322 -0.021399897
0002a0 45 21 52 be 29 3b e0 bb 81 84 a6 3e 50 c5 0b be
       -0.20520504 -0.00684299 0.32522967 -0.13649487
0002b0 cc 29 8e be c0 d4 23 be f9 47 12 be 64 56 97 bd
       -0.27766263 -0.15999126 -0.14285268 -0.073895246
0002c0 cd 34 37 3e 3b b9 e7 3d 56 76 ad 3b 23 d1 d2 3b
       0.17891236 0.11314627 0.0052936478 0.0064336224
0002d0 8d 5f 03 3d b5 68 a7 3c f0 0f 39 3e f9 0a bc 3d
       0.032073546 0.02043567 0.18072486 0.0918178
0002e0 74 d3 1a 3e 07 15 f6 bc 85 86 ba 3e 01 11 be 3d
       0.15119725 -0.030039323 0.36430755 0.09280587
0002f0 06 c1 cf 3d 90 5e 11 3e cd 0a 2f 3e 90 43 2d be
       0.10144238 0.14196229 0.17093964 -0.16920304
000300 0b 28 af 3d 3c 6d 1c bd c0 af 2d bd ec 6b 17 3c
       0.085525595 -0.03819011 -0.042403936 0.009242039
000310 8e 50 eb bd a4 dd 7c ba 39 b8 be 3d 76 25 cb bd
       -0.11489974 -0.0009646064 0.093124814 -0.099192545
000320 6e 0d 23 be c5 b2 d5 bc 79 ba 94 3c 26 b5 b8 bd
       -0.15923092 -0.02608622 0.018155323 -0.09018926
000330 1c 36 94 bd ba 19 b9 bd 13 ab 4a be 4f 2e af 3c
       -0.07236883 -0.0903811 -0.19791822 0.021384386
000340 2b e6 10 3d 02 f5 e8 bd 2e e0 5e bc d5 88 94 be
       0.035375755 -0.113748565 -0.013603253 -0.29010645
000350 f6 85 d2 bd c3 62 01 be 47 b1 46 be a7 8f 0f bd
       -0.10279457 -0.12635331 -0.19403563 -0.035049107
000360 a2 56 25 3e f8 76 ca bd 64 cd 2f bd 08 0b c4 bc
       0.16146329 -0.09885973 -0.042920485 -0.023931041
000370 cd f9 ca bd 4f 56 27 be 5d 5b 4e be 2b 17 2b bd
       -0.09910927 -0.16341518 -0.2015204 -0.04177014
000380 fd d2 b5 bd f8 9b 0c 3e cf 42 c5 bd 19 6f 26 be
       -0.088781334 0.13731372 -0.09631883 -0.16253318
000390 ed 86 1e be ce c6 c5 bd e8 af 06 3e 61 6b b9 3d
       -0.15481158 -0.096570596 0.1315304 0.09053684
0003a0 c9 b0 87 bd c9 64 eb 3d df b3 a0 3e 5d eb de 3d
       -0.06625516 0.114938326 0.3138723 0.10884736
0003b0 96 8f 2b 3d 72 75 b0 bd 18 40 76 bd 72 82 9e be
       0.04188498 -0.08616151 -0.06011972 -0.30958897
0003c0 76 84 e4 3d e7 14 15 39 ee f1 b6 3d df eb 1d 3c
       0.111580774 0.00014217534 0.08932863 0.009638756
0003d0 c0 5b 0b 3e 10 cb dc 3d 00 b0 88 be 7b 62 1a bb
       0.13609219 0.107809186 -0.26696777 -0.0023557234
0003e0 6c fb 37 3e ef ce b5 3d df 40 40 3d f5 24 1c 3e
       0.17967004 0.0887736 0.046936866 0.15248473
0003f0 65 f9 e6 bc ab f4 36 bd 35 72 a4 3d bb 1f 3e bd
       -0.028195092 -0.044666927 0.08029596 -0.04641698

conv1.bias f4 [64]
000000 f3 83 8f be b3 f5 31 be b9 00 02 be 13 f9 63 be
       -0.28030357 -0.17378883 -0.12695588 -0.22262983
000010 38 97 9f bd 25 f4 4a be fb 52 45 be 78 46 11 be
       -0.077925146 -0.19819696 -0.19269936 -0.14187038
000020 ca 59 4d be 21 6d 51 be 93 cd 14 be 9a 52 4d be
       -0.20053783 -0.20451786 -0.14531545 -0.20051041
000030 f3 ac 58 be a1 6e d9 bd 22 61 3b be 52 3c 8c be
       -0.21159725 -0.10616804 -0.18298772 -0.2738977
000040 4b 05 ba bd 45 8c ea be 97 cf a4 be 87 b8 1c be
       -0.09083041 -0.45810142 -0.32189628 -0.15304767
000050 58 e1 44 be 4f 47 05 be e4 24 03 be ad c2 66 be
       -0.19226587 -0.13015483 -0.12807041 -0.225352
000060 39 d9 2f be 61 c1 16 be c7 6f 09 be f4 09 51 be
       -0.17172708 -0.14722206 -0.13421546 -0.20413953
000070 52 29 3a be 37 8a f7 bd 41 bd 77 be f5 97 8e be
       -0.18179825 -0.12086909 -0.24193288 -0.2785031
000080 c3 f0 63 be b9 db 6a be ae 7f 1f be f7 6e a7 be
       -0.22259812 -0.2293538 -0.1557605 -0.32701847
000090 a2 29 43 be 41 17 2d be c4 90 7e be c6 60 5d be
       -0.1905885 -0.16903402 -0.24859911 -0.21618947
0000a0 d3 f2 b3 bd 32 d5 ec bc 1d 1c 65 be 14 16 4c be
       -0.087865494 -0.028910253 -0.22374006 -0.19930297
0000b0 96 56 40 be 7f 40 99 bd 56 a7 25 be c2 5c 98 be
       -0.1878303 -0.07483005 -0.16177115 -0.2975827
0000c0 77 45 6d be a1 11 47 be b1 72 52 be 8f 02 73 be
       -0.2317103 -0.19440319 -0.20551564 -0.23731445
0000d0 32 e3 63 be 9f ec 93 be 09 85 6a be 98 be 42 be
       -0.22254637 -0.28891465 -0.22902311 -0.19018018
0000e0 19 ae a0 bd cc 29 49 be f1 d0 5c bd 2b 33 67 be
       -0.078457065 -0.1964485 -0.0539102 -0.22578113
0000f0 ba 61 a5 bd 3a 11 d4 bd 7f d9 9f be 78 29 a6 be
       -0.080752805 -0.10354848 -0.31220624 -0.32453513

conv2.weight f4 [64, 64, 3]
000000 7c b7 27 bd e8 5a 86 3d 5d b2 71 bc c1 14 10 3e
       -0.04094647 0.06560308 -0.014751998 0.14070417
000010 07 38 b8 3e 71 e5 88 3d 42 b5 ef 3c a5 10 a3 3d
       0.35980245 0.066843875 0.029261235 0.07962159
000020 2a 07 ec bd bb a1 ae bd f7 c2 fd bd 32 e6 cf 3d
       -0.11524804 -0.085269414 -0.12390702 0.10151328
000030 d2 a6 34 bd 63 c4 bd bd 90 a1 04 bc 65 5b 1d 3e
       -0.044104405 -0.092659734 -0.00809516 0.15366895
000040 1d 12 87 3e fc 55 8a bd 29 88 89 bd 78 ae ed bd
       0.26381007 -0.067546815 -0.067154236 -0.11605543
000050 66 2b a5 3c 13 70 a6 bd 21 34 59 bd a0 cb 1e bd
       0.020162296 -0.08126845 -0.05302823 -0.03876841
000060 ef d8 53 3c 79 27 9c 3e 53 10 6c 3e 4b 45 b9 3d
       0.012930139 0.30498865 0.23053102 0.0904642
000070 b2 27 35 be a1 85 94 bd 7f c1 37 3e 69 94 1e 3d
       -0.17690924 -0.0725205 0.17944907 0.038715754
000080 5f dc dd bc 9e d1 dd bc a2 b6 cd ba 4e 9a 7b bd
       -0.02708262 -0.027077492 -0.0015694688 -0.061426453
000090 28 35 6c be cb a0 20 3d 41 6c 42 be 81 1a c2 3d
       -0.23067153 0.039215844 -0.18986608 0.094777115
0000a0 f7 cd d6 3d b7 d9 6c bd 6c a2 97 3c 6c 53 a5 3e
       0.104885034 -0.057824817 0.018510066 0.32290208
0000b0 ae e3 ba 3d e4 9d a7 3c 8e 43 26 3d d1 57 ab 3d
       0.09125458 0.02046103 0.04059177 0.08366359
0000c0 16 ca 72 3c 63 f4 dc 3c 75 75 7b 3a f0 e0 15 bd
       0.014818689 0.026972001 0.00095923926 -0.03659147
0000d0 43 22 45 bc f4 b7 95 3d 80 25 f7 3d a0 ca c2 3d
       -0.012032094 0.07310477 0.120676994 0.09511304
0000e0 92 22 3a 3d 4b 53 a3 3d 28 5a 3a 3e c1 8b c1 bd
       0.045443125 0.07974871 0.18198454 -0.09450484
0000f0 81 7c 25 3e 80 e2 1d 3e 23 e3 64 bd 4d 21 0f 3c
       0.16160776 0.15418434 -0.055880677 0.008735967
000100 00 3a 7f 3d 8b 22 69 3d f5 01 e2 3c 92 98 22 3e
       0.062311172 0.05691771 0.027588824 0.15878513
000110 0e 71 ba 3d 8d 64 cd 3d eb cb 95 3d bb 98 35 bd
       0.09103595 0.10028944 0.07314285 -0.04433511
000120 47 3a 1c bc a7 5d b5 bc 12 a0 96 3c 80 b9 57 bd
       -0.009535379 -0.022139383 0.018386874 -0.05266714
000130 e6 c4 9a 3a d3 1c 61 bd 6c 98 e0 3d f5 5c d3 3d
       0.0011807948 -0.05495913 0.10966572 0.103204645
000140 df e3 d3 3a fa f3 41 be 48 62 53 be 73 3b e5 bc
       0.0016165933 -0.18940726 -0.2064296 -0.02798245
000150 32 9e 49 3e ff fd 4f 3d 9e 14 28 bd f4 6a a1 bc
       0.19689253 0.05077934 -0.041035287 -0.01970432
000160 4a 0a 7a 3a 79 18 38 bd 54 3d 1b be 6c 41 34 be
       0.00095382764 -0.044945214 -0.15160114 -0.17603081
000170 c3 15 00 be 1a 85 15 bc e6 7b b2 bd 02 a5 e7 bb
       -0.12508301 -0.009125972 -0.08715038 -0.007069231
000180 6d 23 e3 bc 42 a4 8a bd 1b 5b b1 3c 42 a2 62 3b
       -0.027726853 -0.06769611 0.021649888 0.0034581576
000190 65 5f 2d bd 9f 63 cf 3d 09 04 03 3d fb a5 bf bd
       -0.042327303 0.10126423 0.03198627 -0.0935783
0001a0 23 e7 9f bc e5 07 a6 3d 39 b0 35 3d 77 ab 54 bc
       -0.019519394 0.081069745 0.044357512 -0.0129803335
0001b0 65 c3 66 bd d4 6e 51 bd 6f b8 fb 3d 47 d0 8d bd
       -0.056338686 -0.051131085 0.12291037 -0.069244914
0001c0 95 83 b9 3d 05 e4 7e 3d b5 85 2d bd 6a 3f 0a be
       0.090583004 0.062229175 -0.04236384 -0.13500753
0001d0 15 11 a6 bd 79 81 f2 bd 90 09 4a be 79 d1 ee bd
       -0.08108727 -0.11841101 -0.1973021 -0.116610475
0001e0 b1 5c d9 bd 84 0e 5c 3d 8d d7 aa bc bf 01 d6 3c
       -0.106133826 0.05372478 -0.020854736 0.02612388
0001f0 83 c5 84 bd db 0c c9 bd 89 1c 6a be 7f 6b 4c be
       -0.06482985 -0.09816905 -0.22862448 -0.19962882
000200 b1 0e 30 be 95 51 1a 3d a0 3f a1 3d b7 d0 cf 3d
       -0.17193104 0.03767546 0.07873464 0.10147231
000210 b9 60 9b bd 88 a4 da bc e0 df e8 3c fa d1 6f 3d
       -0.07586808 -0.026689783 0.028427064 0.05854986
000220 97 d0 0f 3e ec b9 82 bd 1b a5 43 bc af c6 7b 3d
       0.14044414 -0.06383118 -0.01194122 0.061468776
000230 35 28 d5 3d d1 3f c4 bd 98 5a 1d 3d a8 41 bb bc
       0.104080595 -0.095824845 0.038416475 -0.022858456
000240 31 57 08 be a2 e4 07 be ce 9d 8a 3d 20 f9 b4 bb
       -0.13314511 -0.1327081 0.0676838 -0.005522862
000250 82 0b c4 bd 6f 32 a4 3d a4 ac eb bc a4 f7 0c bd
       -0.095725074 0.08017432 -0.028768845 -0.034415856
000260 2d c2 d8 bc 9f 18 e6 bd 14 1e 57 3c 3b 44 13 be
       -0.026459778 -0.11235165 0.01312973 -0.14381497
000270 af fb b8 ba 46 52 03 bd f6 d1 4a 3e db f3 84 3d
       -0.0014113093 -0.032060884 0.19806656 0.06491824
000280 7f fc 6c be 2d 8e 11 bd 63 48 17 be 49 72 c9 be
       -0.23143195 -0.03553598 -0.14773707 -0.39345005
000290 08 06 ab 3d df 0d 79 bd f3 23 33 3d 38 8b b7 3d
       0.0835076 -0.060804244 0.043735456 0.08962101
0002a0 d5 5a b2 bd a2 e6 81 3d 51 93 01 bd f7 7d bb 3d
       -0.08708731 0.06342818 -0.031634632 0.09154885
0002b0 25 1c 46 3e 0b fa 79 3d 59 b8 f6 bc 19 46 52 be
       0.19346674 0.061029475 -0.0301172 -0.20534553
0002c0 dd bb 27 3d 65 ba ca bc ff af a6 3b d0 85 c2 bd
       0.040950645 -0.024747083 0.0050868983 -0.09498179
0002d0 e7 3e 48 bd a8 c2 94 bd 9f f6 32 3d e0 29 e3 3d
       -0.048888113 -0.0726369 0.043692227 0.110919714
0002e0 87 be 4c be d5 cd 05 bd e8 66 9d bd c3 6e a7 3e
       -0.19994555 -0.032667 -0.076856434 0.32701692
0002f0 90 60 fd 3c a0 38 b9 3d 51 e5 30 3d fb 9a 99 3c
       0.030929834 0.090440035 0.043187443 0.018750658
000300 82 5a ab bd 20 39 22 be 36 9a 30 3e 4b 03 10 3e
       -0.08366872 -0.15842104 0.17246327 0.14063756
000310 44 d7 ed 3d 72 cb 0b bc 22 9c 0a 3d 97 9b bf bd
       0.11613324 -0.008532392 0.033840306 -0.09355848
000320 23 ab e0 3d a7 01 06 3e da a5 90 be e4 be 85 3d
       0.10970142 0.13086568 -0.28251535 0.0653055
000330 75 dc 78 3d 0b 96 af 3d 8d 6b 18 3c 15 15 23 3e
       0.06075712 0.0857354 0.009302986 0.15926011
000340 65 af 2e 3e 93 44 0a 3e 42 f8 36 3e 87 f5 5a bd
       0.17059095 0.13502721 0.1786814 -0.05345681
000350 38 3f 32 3d 4c c2 b3 bd da a2 2a bd 6e e8 ae 3c
       0.04351732 -0.087772936 -0.041659214 0.021351065
000360 44 dc 5f bd d6 77 2d bd 1d 82 34 3d ec 7a 85 3e
       -0.05465342 -0.042350613 0.0440694 0.26070344
000370 8b f1 1c 3e c9 05 3b 3d fb 18 2b bb c5 e9 55 bd
       0.15326516 0.045659814 -0.0026107419 -0.052224893
000380 ac 1f e6 bd bb 5b 09 3e 50 96 b5 3c 9c c2 1d be
       -0.1123651 0.13413899 0.022166401 -0.15406269
000390 22 25 1d be 7d 43 05 be 57 6f b4 bd 92 00 d7 bd
       -0.15346196 -0.13014026 -0.08810299 -0.10498156
0003a0 d4 f8 b9 bd 3b 89 6d 3d 28 a6 a1 bc 36 a3 d3 bd
       -0.09080663 0.0579922 -0.01973255 -0.103338644
0003b0 dd a2 65 3c 98 4d 8c be a1 df 10 bc a7 64 12 3d
       0.01401588 -0.2740295 -0.00884238 0.03574052
0003c0 97 62 65 3c 49 3e 33 bd 96 1c 63 bd 96 54 96 3d
       0.014000556 -0.04376057 -0.055447184 0.07340352
0003d0 1d f9 08 3c 55 8c 88 3d 3c 71 4f 3c 96 67 24 bd
       0.0083601745 0.06667391 0.0126612745 -0.04013785
0003e0 e3 e7 bd 3d 8b ad 33 be c0 c7 70 bb 6f 76 07 be
       0.092727445 -0.1754667 -0.0036740154 -0.13228773
0003f0 02 a6 f1 bb b9 c8 94 bd e4 37 75 be 96 82 86 bd
       -0.007374526 -0.07264847 -0.23947102 -0.06567876

conv2.bias f4 [64]
000000 ef 5c 41 bd 30 a9 15 be a5 e3 4a bd c7 f5 93 be
       -0.04720777 -0.14615321 -0.049533505 -0.2889845
000010 90 9c 31 be 07 3e 82 be 81 6f d1 bd 14 a6 26 bd
       -0.1734488 -0.25437948 -0.10226346 -0.04068573
000020 91 41 97 be 8a 31 58 be 7f 38 03 be f1 d0 18 be
       -0.2954221 -0.21112648 -0.1281452 -0.14923455
000030 b4 f6 6f be c6 1d 90 be 18 fe 32 be 28 58 fe bd
       -0.23433954 -0.28147715 -0.17479742 -0.12419158
000040 09 10 ac be 32 8c 6e be 2f 31 47 be 1f 6c 56 bc
       -0.33605984 -0.23295668 -0.19452356 -0.0130873015
000050 f6 2d 5b be 32 f7 51 be 2f 43 c7 bd 18 20 5b be
       -0.21404251 -0.20504454 -0.09729611 -0.21398962
000060 a0 c9 13 be 3f 34 89 be f7 e5 86 be 3e 61 23 be
       -0.14432383 -0.26797673 -0.26347324 -0.15955064
000070 e7 b1 9a be 17 34 13 be 78 88 ac be 46 75 da bd
       -0.30213854 -0.1437534 -0.33697867 -0.106668994
000080 64 f3 62 bc e7 5e 8f be a5 a0 d2 bd c1 3f a8 be
       -0.013851974 -0.28002092 -0.10284547 -0.3286114
000090 31 88 d1 bd c8 ec ad bd 29 24 7d be 4d ae 9d be
       -0.102310546 -0.08492428 -0.24720825 -0.30797043
0000a0 ba 1a 1c be f8 6e 4a be 34 f3 70 be 50 bd 0f be
       -0.1524457 -0.19768894 -0.23530275 -0.1403706
0000b0 37 fb 55 be 06 67 2a be 02 f8 0c be 11 b6 53 be
       -0.20896612 -0.16640863 -0.13766482 -0.20674922
0000c0 58 6d 5e be dc c5 5b be 43 5e 60 be e8 74 6e 3b
       -0.21721399 -0.21462196 -0.21910958 0.00363856
0000d0 19 23 9d be ca c9 6c be af 8d dc bd 79 b7 21 be
       -0.3069084 -0.23123851 -0.107692115 -0.15792646
0000e0 76 e3 e9 bd 6b 1d 65 bd 9f e5 7f be f8 3e 22 bd
       -0.11420338 -0.05593626 -0.24989937 -0.039610833
0000f0 16 2a 07 be ac 93 71 be 62 ba 24 be 60 2f be 3c
       -0.13199648 -0.23591489 -0.16086724 0.02321595

conv3.weight f4 [256, 128, 5]
000000 88 1d 4f bc b4 d2 72 3c c4 59 28 bd 4b 2e 26 3d
       -0.012641318 0.014820743 -0.041101232 0.040571492
000010 5b eb 60 3e a7 a7 6f be 88 0a d3 bd d1 e3 87 3d
       0.21964781 -0.23403798 -0.10304743 0.066352494
000020 c8 8e 08 be 69 ec 87 bd bf 38 14 3b 82 f8 13 3e
       -0.13335717 -0.066368885 0.002261683 0.14450267
000030 13 bc 99 3a ed 23 4e 3e 39 e8 a3 3d 61 b0 a7 be
       0.0011729024 0.20130892 0.08003277 -0.32751754
000040 76 a8 f3 bd 3f 1a d3 3d b3 86 50 3e 55 a7 b4 3d
       -0.11897366 0.103077404 0.20363884 0.088209786
000050 3c 58 51 be d0 59 58 bd 02 92 d5 bd 39 6f a2 be
       -0.20443815 -0.052820027 -0.104282394 -0.3172548
000060 b3 d1 12 be 7c 65 77 3d 13 4b dc bd 28 77 48 bd
       -0.14337806 0.060399517 -0.10756507 -0.04894176
000070 76 62 ff bc 1d 3b 95 bd 8a 37 98 3d 17 81 05 be
       -0.03117488 -0.072866656 0.07432468 -0.13037525
000080 64 3f 37 3d f3 7a 9c bd d6 63 00 be 05 d6 97 bc
       0.04473819 -0.07640638 -0.12538084 -0.01853467
000090 54 4b bb bd 50 ba fb 3d 1e 68 17 be c7 71 9d 3d
       -0.09145227 0.12291396 -0.14785811 0.07687717
0000a0 b3 1d 3c 3d 65 90 df 3b 56 7e 8a bd d6 3d 06 be
       0.04592676 0.006822633 -0.06762378 -0.13109526
0000b0 6b a1 3d be a8 4c f5 bd 16 93 93 3b 72 d0 8f 3c
       -0.18518607 -0.11977512 0.004503618 0.01755545
0000c0 44 68 31 3d e1 1a 4a 3c 3b 7d 23 be 5e 56 1f 3d
       0.043312326 0.01233551 -0.1596574 0.038900726
0000d0 e9 44 80 bd 9c b8 e4 bd e1 e1 cf bc b4 1a 82 bc
       -0.062631436 -0.11168024 -0.025376262 -0.015881874
0000e0 22 8d a0 bd 96 cf 90 3d cf 88 e8 3c b2 31 7d 3d
       -0.07839419 0.07070844 0.028385548 0.06181497
0000f0 91 d8 01 bd 1f 22 8d bd 9a 98 af bd d5 df 0b be
       -0.031700674 -0.06891274 -0.08574028 -0.13659604
000100 42 55 44 bb 6b d0 71 be e3 40 72 3c 51 57 0a be
       -0.0029958044 -0.23614661 0.014785978 -0.13509871
000110 2f 17 f4 bd 1a 2a 8f bd d1 34 25 3d 73 56 f9 bc
       -0.119184844 -0.06990452 0.040333573 -0.03043673
000120 e7 ce f4 3c 57 8e 65 3d bd dd 05 3e e9 32 3a bd
       0.029883815 0.05604395 0.13072868 -0.045458708
000130 93 63 0e 3d b6 ea 34 be 28 60 83 3b 35 4c 77 3d
       0.03476293 -0.1766766 0.0040092655 0.06037541
000140 f8 e6 40 3e 82 3c 8a bd 6a 0c 1b 3d a9 0c 5e bd
       0.18838108 -0.06749822 0.037853636 -0.054211292
000150 60 19 c3 3b c3 82 84 bd a5 27 f2 bd 18 c1 c8 bd
       0.0059539527 -0.06470253 -0.11823968 -0.09802455
000160 68 0b 21 be d8 e3 96 3d 43 1c 94 bd 5d 62 d0 bd
       -0.15727007 0.073676765 -0.07231953 -0.10175011
000170 0d 48 b5 3c 26 af e6 3c ff ca 01 be bf 3a 03 be
       0.022129083 0.02815969 -0.12675093 -0.12815379
000180 be ec 39 bd db 4d d7 bd 82 d1 e2 3a d8 ea 96 bd
       -0.04539179 -0.105128966 0.001730487 -0.07369012
000190 39 72 bd bd 0e 92 5f bd ac d4 23 be 28 31 93 3d
       -0.09250302 -0.054582648 -0.15999097 0.0718711
0001a0 49 b5 a4 3c 36 90 64 bc 33 d3 c8 3b 40 ab 25 3c
       0.020105975 -0.013950398 0.0061286925 0.01011163
0001b0 6a d1 9d bd 94 07 80 bc 85 8f ad bb a1 b8 af bc
       -0.07705958 -0.015628614 -0.00529665 -0.021450343
0001c0 7b 70 e5 3d 36 3e 4c bd 23 23 8a be 43 ae 87 3d
       0.112030946 -0.049864016 -0.26979932 0.06625035
0001d0 da 1f 91 bc 69 23 8e bc 34 24 b0 bd 95 ef 2a be
       -0.017715383 -0.01735087 -0.08600655 -0.16692956
0001e0 6d 43 51 3d 3f 0f 2d be c4 8c 19 be 52 19 ba bc
       0.051089693 -0.16900347 -0.14995104 -0.022717152
0001f0 f1 17 d4 bd ab 83 57 bd 3d f8 92 bc ae ba a9 bd
       -0.10356129 -0.052615803 -0.017940635 -0.082875594
000200 98 78 da bd c1 e3 c3 bc 46 70 20 be 22 46 82 3d
       -0.10667533 -0.023912312 -0.15667829 0.06361033
000210 3b a2 cc bc b7 96 7c 3d 54 08 df bd fc 2c 01 be
       -0.024979701 0.06166717 -0.1089026 -0.12614816
000220 a4 d7 1f be ad 82 6f bd aa 37 59 bc cf 48 8e 3d
       -0.15609604 -0.05847423 -0.0132579 0.06947481
000230 0e 6a 6e be d4 2c 58 3d a6 47 23 bd 05 cc 78 be
       -0.23282644 0.052777126 -0.03986325 -0.24296577
000240 41 3f de 3d 31 e6 53 bd 2a 11 ba 3c 0c a9 19 3e
       0.108519085 -0.0517332 0.022713263 0.15005893
000250 1b 8c 43 be 57 5c 0b bc 9a e2 7b be 26 1f 9e bb
       -0.19096415 -0.008505902 -0.2459816 -0.0048254905
000260 45 fe 2f be b4 5c 6d 3d 5e a9 18 be ce b0 49 bd
       -0.1718684 0.057949737 -0.14908358 -0.04924088
000270 33 8f 07 bd bc f0 92 3d a7 99 f3 bd 7f 7f 1b be
       -0.03309555 0.07174823 -0.11894541 -0.15185355
000280 3d 11 0c bc 5c 84 89 be f5 a8 95 bb 7f 6a 79 bb
       -0.008549032 -0.26858795 -0.0045672604 -0.0038057861
000290 a6 2e 2d be b3 f7 02 3c 84 6d 1d be 65 33 86 be
       -0.16912326 0.007993626 -0.15373808 -0.26211086
0002a0 e4 81 54 bd 29 32 15 3d 45 ba a8 3c 74 8a 42 3d
       -0.051881686 0.03642479 0.020596633 0.04749532
0002b0 47 4f 65 3d 40 f1 82 3c 65 6a 41 3e 1c 1a ba bd
       0.055983808 0.015984178 0.18888243 -0.09087011
0002c0 42 f1 6e 3d cf 42 32 3d 97 5a 4b bd 85 12 99 bc
       0.05833555 0.043520745 -0.04964694 -0.018685589
0002d0 83 a6 86 be 13 f2 ac bd 0d c8 32 be bc e2 17 3d
       -0.26298913 -0.084446095 -0.17459126 0.037081465
0002e0 ae 2e 60 3d 10 39 9b bb 62 2f 29 be e4 de 25 bd
       0.054732017 -0.004737027 -0.16521981 -0.04049577
0002f0 30 c5 97 be cb 83 9a be 60 a4 12 be d7 a6 a0 bd
       -0.2964263 -0.30178675 -0.14320517 -0.07844322
000300 10 f6 00 be ed 80 83 3d 68 9e 74 3d d9 db 0f be
       -0.12593865 0.06421075 0.05972138 -0.14048709
000310 41 c4 32 be 5e f7 79 bd 55 f3 a3 bb 93 33 34 bd
       -0.17457677 -0.061026923 -0.0050033727 -0.043994498
000320 a5 41 9a bd d0 13 2e be 31 6a c7 3d 59 ae dc bc
       -0.07532052 -0.16999745 0.09737051 -0.026938604
000330 27 9e 5d 3e a8 bf 0f bd 22 f5 d3 bd 43 79 9c bd
       0.21642362 -0.035094887 -0.1034949 -0.07640316
000340 b9 f4 52 3e bf 37 10 bd cf f5 54 bc 38 5d 9f 3d
       0.20601167 -0.035209414 -0.012998058 0.07781452
000350 ed 5d 2a bb b7 1f e7 3c 73 45 bd 3d 20 a2 48 be
       -0.0025995926 0.028213365 0.09241762 -0.19593096
000360 61 9e ef 3c 60 6d 5e 3d 76 85 4d bd e1 8e fb 3d
       0.029250326 0.054303527 -0.050176106 0.12283111
000370 6c 30 2e be db f4 db bc ca 08 3b bc 2c a9 ef 3c
       -0.17010659 -0.026850155 -0.01141567 0.029255472
000380 99 0e e5 3d 4c 2c c8 bd 83 ba aa bd e3 bf 19 be
       0.11184425 -0.09774074 -0.083363555 -0.15014605
000390 82 c3 23 bc 74 cf a5 3d c6 9a a6 bb 7b 76 2f be
       -0.009995343 0.08096209 -0.0050843684 -0.1713504
0003a0 f2 d5 0e bc 33 b5 4a 3e 72 e9 73 be d0 ac 2a 3d
       -0.008718001 0.19795685 -0.23819521 0.041668713
0003b0 53 4d c1 3b 7e 6d 6e bd 9a 25 94 3c d5 38 f9 3d
       0.0058991103 -0.05820989 0.018084336 0.12169043
0003c0 bd 6c 17 be 7a 9c 72 3d d2 fa e3 3c d9 cf 39 be
       -0.14787574 0.05923126 0.027829561 -0.18145694
0003d0 d2 e5 12 bd b3 ea 65 be 9f ce c2 bc ae 9d 9f bd
       -0.035863705 -0.22452812 -0.023780165 -0.07793747
0003e0 8f 66 e2 bd c6 b1 1e bd 1d b6 bf bd e5 5e 1a be
       -0.11054718 -0.038743757 -0.09360907 -0.15075262
0003f0 a4 1d 2c 3d fb 67 22 be e0 c2 f5 bd 9b 92 e3 bd
       0.042020455 -0.15859978 -0.1200006 -0.11111947

conv3.bias f4 [256]
000000 3a 1c 19 bd b7 d0 99 3d aa c7 bb bd 56 96 e5 3b
       -0.037380435 0.07510512 -0.09168942 0.007006447
000010 64 ba 27 bd cf 25 9c bd 8f db 3e bd 8d 66 d5 bd
       -0.04094924 -0.07624399 -0.046596106 -0.10419951
000020 5c 6b 1f 3d 1a 51 4c bd 71 69 65 bd 04 de b0 3d
       0.038920745 -0.049882032 -0.05600876 0.08636096
000030 51 17 b9 3a 24 6a f0 bd da 6d e1 bc 3f 1d 69 3e
       0.0014121329 -0.11738995 -0.027518202 0.22765063
000040 57 5f 82 be 82 a6 68 3d 9d 4b 88 be f2 4b 47 be
       -0.25463364 0.05679942 -0.26620188 -0.19462565
000050 73 dd a6 bd 44 41 bb bd c6 3b fc bd 76 7a c1 bc
       -0.08147707 -0.09143308 -0.123160884 -0.023617964
000060 80 52 36 bd 69 cc 2e be 8e 36 ca bd be dc 2f be
       -0.044512272 -0.17070164 -0.09873687 -0.1717405
000070 02 85 22 be d9 97 71 be c6 f4 cc 3d 56 7f 41 be
       -0.15871051 -0.23593082 0.10007624 -0.18896231
000080 a6 de 52 be a5 88 95 bc d8 b2 25 bd d8 e0 53 bd
       -0.20592746 -0.018253634 -0.04045376 -0.0517281
000090 60 5e 04 3d 68 31 49 be 3f 41 23 be e9 ef bc bc
       0.032316566 -0.19647753 -0.15942858 -0.023063617
0000a0 10 d1 7b bb f5 b8 31 be 2d f7 a6 3d f7 ad 59 be
       -0.0038424172 -0.17355712 0.08152614 -0.21257769
0000b0 06 56 8a 3d d9 dc e9 bc 32 f6 1d 3e 69 33 76 be
       0.06754689 -0.028547691 0.15425947 -0.24043049
0000c0 6b 1c 21 be e3 5c 60 bc d3 07 1d bd 0d 0a 48 3d
       -0.15733497 -0.013694021 -0.03833754 0.04883771
0000d0 6a 27 71 be 09 20 d8 3d 0e b0 2d bd 14 f0 a0 bd
       -0.23550192 0.10552985 -0.042404227 -0.07858291
0000e0 5f 54 8d bd 40 5d 62 3c 30 29 cc bc 31 df 83 3e
       -0.06900858 0.013816178 -0.024921983 0.2575622
0000f0 17 c7 c3 3b 74 d5 ce bd f2 7e 83 be 33 1a 27 bd
       0.005974661 -0.10099307 -0.2568279 -0.04079647
000100 64 92 59 be 0c bb 49 3d 48 a9 08 bd bf ed 46 bc
       -0.2124725 0.049250647 -0.033364564 -0.012141644
000110 0a cb e6 bd 5f 6e 2a be 46 99 22 be 6f c7 c3 3d
       -0.112691954 -0.16643666 -0.15878782 0.09559523
000120 bb dd 5f 3e ea 9b 6c be c1 3f 05 be 04 51 0c be
       0.21861927 -0.23106351 -0.13012601 -0.1370278
000130 ac 54 04 be 14 1c 08 be 5f b3 de 3b c9 d8 e3 bd
       -0.12922925 -0.13291961 0.006796285 -0.11125333
000140 25 78 0e be 2a 4b 24 bd 27 de 1a bd a2 9f 27 be
       -0.13913019 -0.040110745 -0.037809517 -0.16369489
000150 35 68 fc bc 37 d5 3d be 87 25 f3 3a b2 06 7b bd
       -0.030811409 -0.18538366 0.0018550613 -0.061285682
000160 d1 40 d3 3e 48 eb 25 bd 0e 8e c5 3d cb 5a 34 be
       0.41260388 -0.040507585 0.096462354 -0.1761276
000170 0c a4 be 3d 5e 8b 42 be 23 20 e5 bd 1d fd 8b bd
       0.09308633 -0.18998477 -0.1118777 -0.06835387
000180 e0 d6 87 3c 1d 98 d2 3b 14 19 8c bd fd ac a1 bd
       0.016581953 0.0064268247 -0.06840721 -0.07894323
000190 51 a7 7e bd 3e c6 5e bd 2c 55 34 3e ab 7b 2a be
       -0.062171284 -0.054388277 0.17610615 -0.16648738
0001a0 f2 48 09 3d 5e 86 ff 3c fd b3 3a be da 4f a0 3a
       0.03351683 0.031192001 -0.18232723 0.0012230829
0001b0 d4 30 49 be e0 78 ae bd 4a e6 79 bd b5 59 d5 bd
       -0.19647533 -0.08519149 -0.061010636 -0.10417501
0001c0 1a d0 d5 bd 21 7e 8d 3d ef b4 14 be 76 2c c2 bd
       -0.10440083 0.06908823 -0.14522146 -0.094811365
0001d0 6e 9d 61 be 05 66 17 be 45 3c d5 bd 80 97 a0 bc
       -0.22032711 -0.14785011 -0.10411886 -0.01960349
0001e0 d0 8f 5a 3e 7a 71 f4 bd cc 5f 58 bd 2f a3 77 be
       0.21343923 -0.119357064 -0.052825734 -0.24183343
0001f0 25 c3 1a be 93 3e 5b 3c a1 c7 16 3e 28 05 b8 bd
       -0.15113504 0.013381618 0.1472459 -0.089853585
000200 84 84 57 bd 12 cf f9 bd 77 56 91 be ee bc 2d be
       -0.05261661 -0.12197699 -0.2838628 -0.16966602
000210 ec 97 e9 bd 67 7b 08 b8 fb 68 95 3d c8 8d a5 3c
       -0.1140593 -3.2539854e-05 0.07295414 0.020209208
000220 0a 8a 83 bc 67 4e 03 3d f2 89 01 be 7c 62 c1 bd
       -0.016057033 0.032057192 -0.12650278 -0.094426125
000230 ad 96 f8 bc fd 23 53 be d0 ba bf bd 5b e7 e2 bd
       -0.030345285 -0.20619197 -0.093618035 -0.11079284
000240 db 78 86 3d 24 26 14 be bf 1a bb bd 71 55 4a bd
       0.0656602 -0.14467674 -0.09135961 -0.04939789
000250 fa a4 ff 3d bb c0 a5 bd b0 66 88 bd ee 22 b6 3c
       0.12482639 -0.08093401 -0.06660211 0.022233453
000260 2c de c3 bd db 06 20 3e a9 6a f9 bd b5 40 7a bd
       -0.0956386 0.15627615 -0.12178547 -0.061096866
000270 c3 60 09 3d 40 37 84 bd c4 07 c6 3d e4 62 5b bd
       0.033539545 -0.064558506 0.0966945 -0.053561106
000280 f1 b3 e1 3d a5 db 18 be b4 c9 89 be 28 7f 6e bc
       0.11020649 -0.14927538 -0.269117 -0.014556684
000290 11 74 a3 3e a9 25 93 be 39 98 bd bd fc ba 3e bd
       0.3192449 -0.2873967 -0.0925755 -0.04656504
0002a0 1c b0 e3 bc 61 bf 11 3e 77 f1 37 3c 9d e2 9c 3c
       -0.027793936 0.14233162 0.011227003 0.019151026
0002b0 07 11 1e be 12 13 49 3c e3 2a d7 bd cb 80 05 bd
       -0.15436183 0.012272613 -0.10506227 -0.03259353
0002c0 53 78 75 bd b1 eb c5 bc 5d f7 31 be 87 b3 1c bd
       -0.059929203 -0.024160238 -0.17379518 -0.038257148
0002d0 e0 16 a5 3e f2 d9 1e be b9 b1 0c 3e 32 c5 c6 bd
       0.32244015 -0.15512827 0.13739671 -0.09705581
0002e0 83 e3 18 3e 75 0c 41 be d1 3e ab bc 37 68 11 be
       0.14930539 -0.18852408 -0.020903977 -0.14199911
0002f0 d2 30 26 bd 73 75 cc 3e 01 f5 80 bd e5 4f f7 bd
       -0.040573902 0.39933357 -0.06296731 -0.120757855
000300 9e 7b d3 bc ca a4 d7 bd dc 58 6b bd 79 03 ed bc
       -0.025815781 -0.10529478 -0.05745779 -0.02893232
000310 a5 6f 95 bc 92 f1 58 be f1 b8 e8 3c c2 59 8d be
       -0.018241713 -0.21185902 0.0284085 -0.27607542
000320 b4 d5 f6 bd 27 e0 cc 3b 08 fd 35 bd 64 0a 1d be
       -0.120524794 0.006252307 -0.044430763 -0.15335995
000330 f3 61 48 3e 47 6d cf 3d d5 81 70 bd ef 0e 79 3d
       0.19568615 0.10128265 -0.058717567 0.060805257
000340 76 55 a8 bd 34 90 5a bd 45 9b 24 be a5 af a2 3d
       -0.082194254 -0.05336018 -0.16074856 0.07943658
000350 84 a7 0f be 0b f0 09 bd fe 9f aa bd 20 95 3a be
       -0.14028746 -0.03367619 -0.08331297 -0.18220949
000360 dc e6 44 bd 62 0d 83 bb cc 4f b2 bd 49 8b 27 3d
       -0.048071727 -0.003999398 -0.08706626 0.040904317
000370 19 ee 0a be c1 78 70 3e e4 79 41 be 9a 75 87 3d
       -0.1356739 0.23483564 -0.18894154 0.066142276
000380 d6 8f 84 be 35 1e 2f bd d2 ff a0 bc 1b 91 61 3e
       -0.25890988 -0.042753417 -0.019653235 0.2202801
000390 43 98 7f be bf a4 b9 bc 62 3d 5d bd a5 80 d5 3c
       -0.24960427 -0.022661565 -0.054013617 0.026062319
0003a0 26 fb 7f bd ea e7 4d be fe a9 87 bd fb af 49 3e
       -0.062495373 -0.20108 -0.0662422 0.19696037
0003b0 f2 43 94 bd b0 c8 b7 bd 78 c7 f6 3e 5a 14 c5 bd
       -0.07239522 -0.08973825 0.48199058 -0.096230224
0003c0 42 d4 e7 bd 26 92 8a 3e 60 1a 23 3e f4 db ec bd
       -0.11319782 0.27064627 0.1592803 -0.1156539
0003d0 2b 0c 78 be 2e 77 25 bd 2d c4 33 be 1a ad 07 be
       -0.24223392 -0.04039686 -0.17555304 -0.13249627
0003e0 0d 3d 08 be de 02 16 3e cd 7e 40 3e 8c dd a7 bd
       -0.13304539 0.14649531 0.1879837 -0.081965536
0003f0 16 e5 41 3e 6a a3 57 3e 3a 0f f3 3d bf c5 8f bd
       0.18935046 0.21058431 0.118681386 -0.07020139

fc.weight f4 [8, 256]
000000 41 cf 3a bd 93 47 c1 3d c7 e5 fb 39 99 82 e5 3c
       -0.04560781 0.0943748 0.00048045648 0.028016375
000010 cd 63 7a 3c c2 b3 4a 3c 1e d9 53 3c b3 62 53 bd
       0.015282583 0.012371959 0.012930183 -0.0516078
000020 cd 8d b8 39 fc 18 e0 bc 64 84 5d 3d bb cf 4c 3d
       0.00035200865 -0.027355663 0.054081336 0.050002795
000030 e0 f6 6e bd 4a 1a aa bb 13 c0 a7 bd 2c b0 56 3c
       -0.058340907 -0.005191122 -0.08190932 0.013103526
000040 47 a4 fb 3c 4c 2d 9d 3c ed 87 ef bc e3 29 21 be
       0.030717982 0.019186638 -0.02923962 -0.15738635
000050 29 af 1a be 7b 01 fa ba 0c 30 56 3d 7b 78 ae 3d
       -0.15105881 -0.0019073928 0.052291915 0.085190736
000060 f0 ea 1e bc 0f a4 d2 3b f8 df 9f be b3 d9 b2 bd
       -0.009699568 0.0064282487 -0.31225562 -0.08732929
000070 72 b8 02 3d 5a 09 a5 bd 30 d9 d1 3b 68 69 2e bc
       0.031914182 -0.08058424 0.0064040646 -0.010645248
000080 19 b0 8e bc c5 36 64 3d b3 f6 02 3c 97 99 73 3d
       -0.017417954 0.055716295 0.007993388 0.059472647
000090 6b 7b 15 3c 6c f6 06 3c 32 79 6a 3d 79 aa a9 bd
       0.009123663 0.0082374625 0.057244487 -0.08284468
0000a0 0b cc fd bc 9c f8 0c 3d b3 57 5a 3d b3 7d e8 3c
       -0.030981084 0.03441678 0.053306293 0.02838025
0000b0 71 82 77 bd 26 ef ee 3c a7 f1 be bd c5 ec 20 3c
       -0.060427133 0.02916677 -0.09323435 0.009822075
0000c0 3f ba d4 ba a2 24 f9 bd a6 fa d3 bd 78 37 bd bc
       -0.0016229822 -0.1216519 -0.10350542 -0.023097739
0000d0 4e 0a e0 3c f2 9b e3 bd 22 55 0f bd 75 a0 1e bd
       0.027348664 -0.111137286 -0.0349933 -0.038727242
0000e0 d1 1b 59 3d 9b 17 97 bd cc 8b 13 3d 11 f7 72 3d
       0.053005043 -0.07377549 0.036021993 0.059317652
0000f0 6a b3 ba ba a3 45 34 bf 19 1d 0e 3c e5 c5 ae 3d
       -0.0014244143 -0.7041876 0.00867393 0.08533839
000100 2f 76 33 be 9f 05 54 3d cc 39 6e bc aa ff 8e 3d
       -0.17525552 0.051763173 -0.014540147 0.06982358
000110 95 33 65 bd 14 46 db bd 97 fc f4 3c 05 25 55 be
       -0.055957396 -0.10706726 0.0299056 -0.20814903
000120 e6 b9 08 be 2b e0 09 be 9d a6 b4 3c 70 1c 84 bd
       -0.13352165 -0.1346442 0.022052104 -0.064507365
000130 6b c4 13 bd 42 8c f4 ba 00 f6 f5 3b ac 05 ce 3d
       -0.03607599 -0.0018657523 0.007506132 0.100596756
000140 6c 7e a1 bb d8 08 8d 3d 80 b3 31 3d e1 44 e5 3c
       -0.0049284007 0.068864524 0.043384075 0.027986946
000150 82 fa 57 3d 17 81 21 3d 91 05 03 3e 0f 5c de bd
       0.052729137 0.03942975 0.12795092 -0.108574025
000160 25 fe 03 be 7a b2 00 3c 3d 18 9b bd 83 0f 97 bc
       -0.12889917 0.007855052 -0.075729825 -0.018440014
000170 75 d4 fe bc e0 40 b9 bd 2f a7 e6 3c b7 44 e1 3c
       -0.031107167 -0.09045577 0.028155891 0.027498586
000180 91 2a 0d 3e 1d 36 25 3d db f9 e0 3d eb c0 f6 bb
       0.13785769 0.04033481 0.10985156 -0.007530322
000190 d1 85 60 bb 17 28 95 bd 11 45 b5 bb c4 81 18 3d
       -0.0034259448 -0.07283037 -0.005531915 0.03723313
0001a0 bb cc 0f bc 9b 6b b5 bd 95 4d c7 bc 0a aa 39 be
       -0.008776839 -0.08858415 -0.024328986 -0.18131271
0001b0 5d 71 84 bc cf 1c 68 bc 57 8c 4d 3d 9c 81 23 3d
       -0.016167337 -0.014167025 0.050182667 0.039918527
0001c0 1a ba da 3c 1b 3e 7b 3d d3 d1 07 bd 8a b5 b5 bb
       0.026700068 0.061338525 -0.03315909 -0.005545323
0001d0 95 2f 47 3c e9 a3 c3 3b 95 47 23 bd 88 bb 1d bd
       0.0121573405 0.0059704673 -0.039863188 -0.03850892
0001e0 c1 c7 9c 3d 6a 37 fa bc 7a 7a 78 3c 9a 9b 3a 3c
       0.076552875 -0.030544002 0.015165919 0.011389637
0001f0 85 da ee bc 8e c1 71 3b 5d 25 d0 bd 49 5d f7 3c
       -0.029156933 0.003688905 -0.101633765 0.030195849
000200 ba 87 bf bb ac e1 16 bd 81 81 09 3c 41 1e a3 3a
       -0.0058450373 -0.03683631 0.008392693 0.001244493
000210 00 2c 6c 3d e1 b8 06 bd a1 65 cf bc 83 59 db 3c
       0.05765915 -0.032891158 -0.025317015 0.026776081
000220 ab cf 1f bd 41 2f 55 bd 3a de b7 bd 5a 87 c1 bd
       -0.039016407 -0.052047018 -0.08977933 -0.094496444
000230 09 48 d0 bd ad d7 94 3e 3b 67 14 bc 04 e5 07 be
       -0.101699896 0.29070798 -0.009057815 -0.13270956
000240 f5 e9 cd bc 9f a2 f7 3b 84 65 86 be dd 95 a8 bd
       -0.025135973 0.0075572277 -0.26249325 -0.08231709
000250 db 4d 67 bd b8 22 5d bd a6 d1 13 bd da 6f 89 bd
       -0.056470733 -0.05398819 -0.03608861 -0.06710787
000260 35 fa d2 3d 7b e4 a0 3d e2 c3 1e bc bd 59 a8 3b
       0.103016295 0.07856079 -0.009690257 0.0051376508
000270 7d b5 0b 3d 72 12 6b bc 35 8c d8 bc e9 ad 52 3d
       0.034108628 -0.014347659 -0.026434043 0.051435385
000280 db e6 3e be bf 94 a4 bd 62 f2 8a 3d 75 e0 65 ba
       -0.18642752 -0.080361836 0.06784512 -0.00087691034
000290 e1 80 f8 3d e5 04 a2 3b 7c ed fa ba 3f 3a d3 3c
       0.12133957 0.004944431 -0.0019144262 0.02578461
0002a0 f3 67 4c bd b4 cf 5b 3c 8e f2 04 3d f3 41 d2 bd
       -0.04990382 0.0134162195 0.03245788 -0.10266485
0002b0 38 ec d2 3c 1c 29 97 3d f6 9c ad 3c fb 8b 90 3c
       0.025747404 0.07380888 0.021193009 0.017644873
0002c0 f4 4b 9b 3d 2c 53 81 bd 5b 91 62 3d 85 91 ee bc
       0.07582846 -0.06314692 0.055314403 -0.029122123
0002d0 d5 d6 e2 bc 99 ca 9b 3c 31 37 f1 bd 20 65 b0 3c
       -0.02769033 0.019017505 -0.11778105 0.021532595
0002e0 e2 99 b6 3d a1 81 01 3d 88 3d 17 3d 7b 2d 2b bd
       0.089160696 0.031617764 0.036923915 -0.04179142
0002f0 21 94 74 3c 68 f9 87 bd 2c e2 21 bd c5 6e 0a 3d
       0.014927895 -0.06639367 -0.039522335 0.033797044
000300 d6 d3 66 bb 09 c5 eb 3c 0f 11 00 3c a5 3f 58 3d
       -0.003522148 0.028780477 0.007816567 0.05279507
000310 c3 a0 5a 3d 52 1e dd bd d7 9e 18 3d a5 df 4b bb
       0.05337597 -0.10796799 0.037260856 -0.0031108644
000320 04 d3 9f bd 87 15 36 be 4d ae 0f bc 9e c4 a8 bd
       -0.0780392 -0.1778165 -0.008769584 -0.08240627
000330 e7 03 fc 3b 04 ea 73 bc 82 b9 ae 3d 37 2a fc 3c
       0.007690895 -0.014887337 0.085314766 0.030781848
000340 a3 08 cd 3c f0 58 1e bc e8 3f d3 3b 0d 43 91 3d
       0.025028532 -0.009664759 0.006446827 0.07092867
000350 12 9d 6c be e3 38 b5 3a f4 41 9a 3c b0 30 f1 3c
       -0.23106793 0.0013826158 0.018830277 0.029442161
000360 eb 0b 14 be 1c a0 ec bd 25 28 a9 be f8 61 00 3d
       -0.14457671 -0.11553976 -0.3303844 0.03134343
000370 29 5d 79 bc 34 30 fc 3c b3 f0 b2 3c e5 61 73 3d
       -0.015219965 0.030784704 0.02184329 0.05941953
000380 81 58 39 be 5a b3 e1 3c d3 b9 92 3d 5b 16 25 3d
       -0.18100168 0.027551342 0.071643494 0.040304523
000390 2a 6e cf bc 55 cf 5c 3b db 08 36 bd 0d 40 81 3c
       -0.025321085 0.0033692915 -0.04444204 0.015777612
0003a0 a2 a8 f8 bd 5a f1 79 3d 04 12 82 bd f3 63 29 be
       -0.12141539 0.061021186 -0.063510925 -0.16542034
0003b0 b3 7a 33 3d 53 f3 8c bd 30 5d 09 bd 6f f7 d3 3b
       0.043818187 -0.06882348 -0.033536136 0.0064687054
0003c0 cd 28 45 bc 72 5e 09 bc 04 a3 2c bd 8a c2 b1 bd
       -0.012033653 -0.008384334 -0.04214765 -0.086796835
0003d0 f8 34 8b bc fe 19 04 bc 94 85 2e b9 2b 43 d5 3c
       -0.01699303 -0.008062838 -0.00016643695 0.026033005
0003e0 39 c0 b1 3c de 9d 7d bd c9 07 94 bc 5a 83 bb bc
       0.021698104 -0.061918132 -0.018070119 -0.022889782
0003f0 28 dc da bc ed 08 10 3d 80 65 1c 3d 68 72 a5 bd
       -0.026716307 0.035164762 0.038182735 -0.08078462

fc.bias f4 [8]
000000 1a d4 33 3e 38 b4 b6 3e 23 40 b0 be 5c f2 d6 be
       0.17561379 0.3568437 -0.34423932 -0.4198178
000010 70 95 2e be 57 eb b6 3d 8d ef 51 3e 24 13 7d be
       -0.17049193 0.08931606 0.20501538 -0.24714333
