src/main/python/saved_models/cpp_1_55_RNNClassifier1_128embs_147id_32hd_1hl_Truebid_2.pt (torch, 121631 bytes, 11 tensors)

word_embeddings.weight f4 [147, 128]
0	0xbe4c521b	-0.19953196
1	0x3cd081bc	0.025452487
2	0x3ead4d82	0.33848196
3	0xbef46de9	-0.47740105
4	0x3f77f415	0.96856815
5	0xbe98d715	-0.29851595
6	0x3f2b57bb	0.6693074
7	0x3fbb4b5c	1.4632373
8	0xbe6b9044	-0.23004252
9	0xbf3483d0	-0.7051363
10	0xbff95ad2	-1.9480841
11	0x3f7edb83	0.995537
12	0xbfff32c0	-1.9937363
13	0xbfa235ed	-1.2672707
14	0x3f3dd44a	0.7415205
15	0x3f43a081	0.76416785
16	0xc006fa55	-2.109029
17	0xbf41c8fb	-0.75697297
18	0xbf3e2584	-0.74275994
19	0x3e607b1a	0.2192196
20	0xbf9e1fd5	-1.2353464
21	0xbe9be962	-0.30451494
22	0x3ff7a379	1.9346763
23	0x3f8e23a0	1.1104622
24	0xbe1f35b2	-0.15547827
25	0xbfea88fe	-1.8323057
26	0x3fa01992	1.2507803
27	0x3e63d017	0.22247349
28	0xbfb50f2a	-1.4145253
29	0x3f072045	0.52783614
30	0x3f8b466a	1.0880864
31	0xbf600721	-0.8751088
32	0xc04589ac	-3.0865278
33	0x3de6e07b	0.11273285
34	0xbf013f6f	-0.50487417
35	0xbe0fe264	-0.14051205
36	0xbf8fcc62	-1.1234248
37	0xbf9d0eb2	-1.227011
38	0xbfa9dbe3	-1.3270229
39	0x3f994d17	1.1976651
40	0x3fc14e94	1.5102105
41	0xbe7fde47	-0.24987136
42	0x3fc35e6c	1.526319
43	0xbe369f6e	-0.17834255
44	0x3f2848f4	0.6573632
45	0x3fa543e0	1.2911339
46	0x3e6cb45b	0.23115675
47	0xbfa959d9	-1.3230544
48	0x3ca02f3e	0.019553777
49	0x3fd4470b	1.658418
50	0xbf38ec5f	-0.72235674
51	0xbc5b3d62	-0.013381334
52	0xbebee1ad	-0.37281552
53	0xbfb3149f	-1.3990668
54	0xbf77feb7	-0.9687304
55	0x3feef82e	1.8669488
56	0x3acfa5f7	0.0015842308
57	0xbf12c0b8	-0.57325315
58	0x3db526e4	0.088453084
59	0x3f7ed6b9	0.9954639
60	0x3e7e5dbb	0.24840443
61	0xbf27abb1	-0.65496355
62	0xbf36a887	-0.713509
63	0xbe0bbd51	-0.13646437
64	0xbeb3b01b	-0.35095295
65	0xbf2d471b	-0.67686623
66	0x3fa20165	1.2656676
67	0x3f08baa1	0.53409773
68	0x3ec9f996	0.3944823
69	0xbfbb1486	-1.4615638
70	0xbeb5bb85	-0.3549463
71	0xbeb743e3	-0.3579398
72	0x400255c9	2.036486
73	0x3f146b17	0.57975906
74	0xbde1dd53	-0.11028542
75	0xbf5a8599	-0.85360104
76	0x3da86a57	0.08223408
77	0x3fd0a751	1.6301061
78	0x3fc5ff5a	1.5468552
79	0xbedf4ed5	-0.43614832
80	0xbe84e470	-0.25955534
81	0x3f905067	1.1274537
82	0xbeeff4ad	-0.4686636
83	0xbfc77b56	-1.5584514
84	0xbf4250f1	-0.75904757
85	0x3fe7029f	1.8047675
86	0xbe4e4d35	-0.2014664
87	0xbdd1eff5	-0.10250846
88	0xbf3ceffb	-0.7380368
89	0xbe8d2478	-0.27566886
90	0xbf63b803	-0.88952655
91	0x3ff6eccc	1.9291015
92	0xbfaa92a3	-1.3326
93	0x3f809164	1.004437
94	0x3f26fac6	0.652264
95	0x3f86f66a	1.054395
96	0xbfda1673	-1.7038101
97	0xbf07a60d	-0.5298775
98	0xbf536c5c	-0.8258722
99	0x3f4fe3ed	0.8120716
100	0xbfaf0945	-1.3674704
101	0x3f9988f9	1.1994926
102	0xbf54d2c6	-0.83134115
103	0x3f952d37	1.1654423
104	0xbfa3430b	-1.2754835
105	0x3f8064bf	1.0030745
106	0x3dd7308b	0.10507306
107	0x3f6e4ed8	0.93089056
108	0xbf8f2595	-1.1183344
109	0x3faa9068	1.3325319
110	0x401efa9c	2.484046
111	0xbd7dcdc2	-0.061963804
112	0x3fc671c0	1.5503464
113	0x3f32c9f1	0.6983939
114	0xbd454620	-0.04816258
115	0xbfd3dc58	-1.6551619
116	0x3f9c6ab0	1.2220058
117	0xbf2e8420	-0.68170357
118	0x3f9fc99c	1.2483401
119	0xbf44f388	-0.769341
120	0xbf6cef9b	-0.9255311
121	0x3f222f62	0.6335355
122	0x3ed626d5	0.418265
123	0x3f1005ef	0.56259054
124	0x3e331631	0.17488934
125	0xbdb178a6	-0.0866559
126	0x3e8b9ff5	0.27270475
127	0xbf7713f7	-0.9651484
128	0x3ea7add9	0.32749823
129	0xbfa01a07	-1.2507943
130	0xbf62ff81	-0.8867112
131	0x3f039d8f	0.5141229
132	0x3c012465	0.007882212
133	0xbfeeffc1	-1.86718
134	0x3ff8cd7e	1.9437711
135	0xbe2909aa	-0.16507593
136	0xbe9adbc2	-0.30245787
137	0x3f7addd2	0.9799472
138	0xbf4b43a2	-0.79400074
139	0x3ecb766b	0.39738783
140	0xbf696431	-0.91168505
141	0x3e77d02b	0.24200504
142	0x3fb1084b	1.3830656
143	0xbf460f5f	-0.77367204
144	0x3d4978de	0.049187534
145	0x3f16017e	0.58596027
146	0x3f19878c	0.59972453
147	0x3fae1170	1.3599072
148	0xbe87d1fa	-0.26527387
149	0xbfd8b992	-1.6931632
150	0xbf1e346d	-0.61798745
151	0x3f8f4da5	1.119557
152	0xbf7364ad	-0.95075494
153	0xbf4ba37e	-0.79546344
154	0x3f2b70eb	0.66969174
155	0x3f4a226d	0.7895878
156	0x3ce0348c	0.027368806
157	0xbeba1d00	-0.3635025
158	0xbf12b70e	-0.5731057
159	0xbff01968	-1.8757753
160	0xbd9d8866	-0.076920316
161	0x3ef9e553	0.48807773
162	0xbd900e1c	-0.07033941
163	0xbf5fe768	-0.8746247
164	0x3fcfa710	1.6222858
165	0x3e35e8c9	0.17764582
166	0xbf159ef7	-0.58445686
167	0x3eff9f33	0.49926147
168	0xbee8e9f0	-0.4549098
169	0x3f7b5793	0.981805
170	0xbf367302	-0.7126924
171	0xbe895d34	-0.2682892
172	0x3f479f63	0.7797758
173	0x3ec28cf2	0.37998158
174	0xbfcf5946	-1.6199119
175	0x404c151e	3.188789
176	0xbe4e8a3c	-0.2016992
177	0x3f22cd98	0.6359496
178	0xbd7a8b69	-0.061168108
179	0x3e24e7ce	0.16104051
180	0xbe080e7a	-0.13286772
181	0xbe0e6663	-0.13906245
182	0xbbffdadf	-0.007808074
183	0x3e1c6d68	0.1527611
184	0x3e956572	0.2917896
185	0x400dcca3	2.215615
186	0xbf40e4a4	-0.7534888
187	0xbf6d69f8	-0.9273982
188	0x3e228887	0.15872394
189	0x3e1cbe9d	0.15307088
190	0x3f41f1ae	0.757594
191	0x3f74e152	0.9565631
192	0xbe794b14	-0.24345046
193	0x3fe917a4	1.821034
194	0x3f928789	1.1447612
195	0xbf43f932	-0.76552117
196	0x3fa95919	1.3230315
197	0x3f9cc1b2	1.2246611
198	0x3f0ed9a1	0.55800825
199	0xbfb81f63	-1.4384578
200	0xbf30025d	-0.68753606
201	0xbfa937a8	-1.322011
202	0xbd824269	-0.06360323
203	0x3f28061d	0.6563433
204	0xbf252e6e	-0.6452397
205	0xbf90887d	-1.1291653
206	0xbf4c583b	-0.7982213
207	0x3fdadc63	1.7098507
208	0x4032d4d6	2.7942405
209	0x3f0a8f1f	0.54124635
210	0xbf36b446	-0.71368825
211	0xbf20876f	-0.62706655
212	0xbfe3db7b	-1.7801355
213	0x3d16f380	0.036853313
214	0x3f8990e4	1.0747342
215	0xbfabd66b	-1.342481
216	0xbf009502	-0.5022737
217	0xbf75a5cc	-0.9595611
218	0x3dcb755b	0.09934493
219	0xbdfa9c85	-0.12236885
220	0x3f098046	0.53711355
221	0xbf79b43b	-0.97540635
222	0x3f07d3fe	0.5305785
223	0xbf49e938	-0.7887149
224	0xbdcb605b	-0.09930488
225	0x3f104cb6	0.5636705
226	0x3fa6d51c	1.3033786
227	0x3e96ed38	0.2947786
228	0x3ed0fcc1	0.40817836
229	0xbef9affe	-0.48767084
230	0xbe6c20ff	-0.23059462
231	0xbef9a651	-0.48759702
232	0x3e33af72	0.17547396
233	0x3f26f02a	0.6521021
234	0x3f7ae1c5	0.98000747
235	0xbe80fc70	-0.25192595
236	0xbed69c8a	-0.41916305
237	0xbd5c1cfa	-0.05373857
238	0xbeb9def9	-0.36302927
239	0x3e2b9c1c	0.1675877
240	0xbf74ee05	-0.9567569
241	0xbf30ce93	-0.6906521
242	0x3f97cc0d	1.1859146
243	0x3fb0e923	1.3821148
244	0xbee796f5	-0.4523236
245	0xbf2c0c62	-0.67206395
246	0xbdb42c39	-0.08797497
247	0xbfe87c81	-1.8162996
248	0x3ccc698b	0.02495267
249	0x3d8a4a1e	0.06752418
250	0x3f57bb64	0.8427031
251	0xbf878035	-1.0586001
252	0x3f268f18	0.65062094
253	0x3f28c99e	0.65932643
254	0x3f7fa9ac	0.99868274
255	0xbe36d25d	-0.17853685

rnn.weight_ih_l0 f4 [32, 128]
0	0xbdf16ffe	-0.11788939
1	0xbd039dfe	-0.032133095
2	0xbe3237d6	-0.17404112
3	0xbe24bd3a	-0.16087809
4	0xbc763174	-0.015026439
5	0xbe19cfe5	-0.15020712
6	0xbe86f332	-0.26357418
7	0x3e6e6cd8	0.23283708
8	0x3e068545	0.13136776
9	0xbd698739	-0.057013724
10	0x3dbcbed2	0.092160836
11	0x3d7fab92	0.06241948
12	0x3dbbf1a4	0.09176949
13	0xbd03203a	-0.032013156
14	0xbd171368	-0.03688374
15	0xbda76655	-0.08173815
16	0xbd325b84	-0.043544307
17	0xbd6a54a0	-0.05720961
18	0x3d1bbc76	0.038021527
19	0xbe0522ea	-0.130016
20	0xbe13d9a5	-0.14438494
21	0xbdd36a7f	-0.10323047
22	0x3e18db2b	0.14927356
23	0x3ef62266	0.4807312
24	0xbdbc1f9a	-0.09185715
25	0xbdddccb2	-0.10830058
26	0xbe5987aa	-0.21243158
27	0xbe7346ee	-0.23757526
28	0xbd4076e0	-0.046988368
29	0x3c2ddd0f	0.0106117865
30	0x3cd6ddd2	0.026228819
31	0x3da38c41	0.07985736
32	0xbd95a08f	-0.07306015
33	0x3d1b41e9	0.037904654
34	0x3dfaf8f6	0.12254517
35	0xbda74bc4	-0.08168748
36	0x3e06c898	0.13162458
37	0x3c99c470	0.018770427
38	0xbe8b12f8	-0.2716291
39	0x3cf322ad	0.02967962
40	0x3d1fa17e	0.03897237
41	0xbd3d8273	-0.046266984
42	0x3e2f9797	0.1714767
43	0xbb9fea05	-0.004880192
44	0xbd4aea80	-0.049540043
45	0x3e83f6aa	0.25774127
46	0x3dfc3919	0.12315578
47	0xbe8e0303	-0.27736673
48	0x3db7e3c3	0.08978989
49	0x3dcc11d8	0.09964341
50	0xbdfb0e2a	-0.12258561
51	0xbd547be1	-0.051875953
52	0x3c6bc05d	0.014389125
53	0xbe385271	-0.18000199
54	0x3e1c8d17	0.15288197
55	0x3e098cd1	0.13432623
56	0xbe0e64da	-0.1390566
57	0xbde7dd67	-0.11321526
58	0x3d6878ea	0.056755938
59	0x3d8f35fe	0.0699272
60	0x3e697c9e	0.22801444
61	0x3e4a0842	0.19729713
62	0xbc895aa1	-0.016766848
63	0xbc9e5362	-0.01932687
64	0x3cef0f31	0.029182049
65	0xbeab0077	-0.33398792
66	0xbe5b147a	-0.2139453
67	0xbd2e99e6	-0.042627238
68	0xbc431011	-0.011905686
69	0x3c640bf8	0.013918869
70	0x3e113b61	0.14182808
71	0xbd78a9ec	-0.060708925
72	0xbb7c35cc	-0.0038484214
73	0x3e50fe51	0.20409514
74	0xbda60eb8	-0.08108276
75	0xbd65bd87	-0.05608895
76	0x3dfbe071	0.12298668
77	0xbe2fc510	-0.17165017
78	0xbe154781	-0.14578058
79	0xbdd968d3	-0.10615697
80	0xbcb7cbcb	-0.022436043
81	0xbadd6b32	-0.0016892909
82	0xbe2cc6ff	-0.16872786
83	0xbe67c8d5	-0.22635205
84	0x3c96065f	0.018313585
85	0xbc8dd750	-0.017314583
86	0x3ca2c8ca	0.019871134
87	0x3e1d12ed	0.15339251
88	0x3dd14816	0.102188274
89	0x3e42676c	0.18984765
90	0x3e36dbe2	0.17857316
91	0xbd05c6b8	-0.032660216
92	0x3cf1cbae	0.029516067
93	0x3cc2b97c	0.023770086
94	0xbe0a728e	-0.13520262
95	0x3d8c7fbe	0.068603024
96	0xbe9fce87	-0.31212255
97	0xbc1acb4c	-0.009447884
98	0x3c782bc2	0.015147151
99	0x3e385c06	0.18003854
100	0xbdd382e4	-0.103277
101	0xbe202cec	-0.15642136
102	0x3c89e49f	0.016832648
103	0xbdb04ff9	-0.086090036
104	0x3e8156a4	0.25261414
105	0x3dc53dd3	0.09630933
106	0xbdd7ec33	-0.10543098
107	0x3cba759e	0.022761162
108	0xbe3f05ba	-0.18654528
109	0x3e48f5cc	0.19625014
110	0x3dca1a7e	0.09868334
111	0xbe08091a	-0.13284722
112	0xbd77f374	-0.06053491
113	0x3e9701b4	0.29493487
114	0xbc5e6c61	-0.013575644
115	0xbe591dd5	-0.21202786
116	0xbd6c6d0b	-0.05772118
117	0x3e14a6ab	0.14516704
118	0x3c2133fe	0.009839056
119	0xbe0d1b72	-0.13780001
120	0x3c000116	0.007812759
121	0xbdd4f606	-0.10398488
122	0xbb9354f0	-0.0044962093
123	0x3d9eb952	0.07750191
124	0x3e7b19bc	0.24521536
125	0x3da7491a	0.0816824
126	0x3d89da43	0.06731083
127	0x3e0a2e3c	0.134942
128	0xbd87d99f	-0.06633305
129	0xbdd27192	-0.10275568
130	0x3e772df0	0.24138618
131	0xbe72f2cf	-0.23725437
132	0xbc7a7a26	-0.0152879115
133	0x3e803dd9	0.25047186
134	0xbdb9d234	-0.09073296
135	0x3e4c08b6	0.19925198
136	0x3ed3549a	0.41275483
137	0xbeb1f261	-0.34755233
138	0xbe221acc	-0.15830535
139	0x3e7467bb	0.23867695
140	0xbe08edc3	-0.13371949
141	0xbe211019	-0.15728797
142	0xbd9ab856	-0.075546905
143	0xbde9f7f6	-0.11424248
144	0xbe8865ab	-0.26640067
145	0xbe938d44	-0.28818715
146	0xbd438c8e	-0.047741465
147	0xbdfceda5	-0.123500146
148	0xbf00a119	-0.50245816
149	0xbdb64724	-0.08900288
150	0xbe7fbacf	-0.24973606
151	0x3e043cb2	0.12913778
152	0xbc013128	-0.007885255
153	0xbd57e92c	-0.052712604
154	0xbda0b681	-0.0784731
155	0x3dfbbaa9	0.12291462
156	0x3e5219ce	0.20517656
157	0x3eb4dd94	0.353253
158	0x3da91fae	0.082579955
159	0x3e45ed5b	0.19328825
160	0x3cacdc6c	0.0211012
161	0xbd9466ee	-0.07246195
162	0xbecf154f	-0.40445945
163	0xbe2046e9	-0.1565205
164	0xbded0373	-0.115729235
165	0x3e9446bb	0.28960213
166	0x3e5253bd	0.20539756
167	0xbd4b57cb	-0.049644273
168	0xbcf85a43	-0.030316478
169	0x3e15cb89	0.14628424
170	0xbd0c6c59	-0.034283016
171	0x3e0db301	0.13837816
172	0x3e55658f	0.20839523
173	0xbe6888eb	-0.2270848
174	0xbe564e11	-0.20928217
175	0xbe2e9ca9	-0.17051949
176	0xbd8cba64	-0.06871489
177	0xbe417334	-0.18891603
178	0xbe397a49	-0.18113054
179	0x3da28fba	0.0793757
180	0xbe326786	-0.17422304
181	0x3ddc2b2b	0.10750421
182	0xbeb2bb7b	-0.3490866
183	0x3d853a76	0.06505291
184	0x3e7bd4a6	0.24592838
185	0xbedecd4e	-0.4351601
186	0x3e91575b	0.2838696
187	0xbdec76bc	-0.11546084
188	0xbd1d9395	-0.038470823
189	0xbe12a1e1	-0.14319564
190	0x3d779816	0.060447775
191	0x3d835aff	0.064138405
192	0x3cd7e8e8	0.026356176
193	0xbd776b0f	-0.060404833
194	0x3d7d0418	0.061771482
195	0xbdd673ad	-0.10471282
196	0xbd614cab	-0.055004757
197	0x3ed438e6	0.4144966
198	0x3dd265ab	0.10273298
199	0x3d49d954	0.049279526
200	0x3df5b52c	0.119974464
201	0xbe512a85	-0.20426376
202	0xbb963f6b	-0.0045851967
203	0xbd044c41	-0.032299284
204	0x3e649e3c	0.22325987
205	0x3d9ded23	0.07711246
206	0x3e5d6889	0.21621908
207	0xbb217a80	-0.0024639666
208	0x3e8edc2b	0.2790235
209	0xbdde9697	-0.108685665
210	0xbe1b0531	-0.15138699
211	0x3d7edaa1	0.06222022
212	0xba9aba10	-0.0011804719
213	0x3e047c40	0.12938023
214	0xbde0886f	-0.10963523
215	0x3e091321	0.13386203
216	0x3e9358d5	0.2877871
217	0xbe2575d4	-0.16158229
218	0x3e274e5c	0.16338485
219	0xbd545d9b	-0.05184708
220	0xbe04b3d3	-0.12959222
221	0xbda2a094	-0.07940784
222	0x3e833f57	0.25634262
223	0xbbfb9d36	-0.007678653
224	0xbe9d56ae	-0.30730194
225	0xbe04a930	-0.12955165
226	0xbd668052	-0.05627472
227	0xbe9cf865	-0.3065826
228	0x3dbb8efa	0.0915813
229	0x3e6b0cea	0.22954145
230	0xbd93481a	-0.07191487
231	0xbead8937	-0.3389375
232	0xbeb777a8	-0.35833478
233	0x3d7fb4f2	0.062428422
234	0xbda89285	-0.082310714
235	0xbc1dcb40	-0.009630978
236	0xbe0d2e59	-0.13787211
237	0x3c4c22e4	0.01245949
238	0x3ef04e49	0.46934727
239	0xbe050093	-0.129885
240	0x3d94cea4	0.07265976
241	0xbe88adcf	-0.26695105
242	0x3e8c37b4	0.27386248
243	0x3da0479b	0.07826158
244	0x3e361b29	0.17783798
245	0x3de76cbd	0.11300037
246	0x3d7ffdeb	0.062498014
247	0x3e114bbb	0.14189045
248	0x3d926575	0.07148258
249	0xbdfd4754	-0.123671204
250	0x3eae5443	0.34048662
251	0xbca1b0cf	-0.01973763
252	0xbdfda655	-0.12385241
253	0xbdf48ff5	-0.1194152
254	0x3dad291a	0.08455105
255	0xbda19b86	-0.07890992

rnn.weight_hh_l0 f4 [32, 32]
0	0x3eb3f083	0.35144433
1	0x3df4339d	0.11923907
2	0x3efb10c5	0.49036232
3	0xbda8bf96	-0.08239667
4	0x3c64cdd2	0.013965087
5	0xbe0f8e56	-0.1401914
6	0xbe98a885	-0.2981607
7	0x3dc27249	0.094944544
8	0xbdedc695	-0.11610142
9	0xbece8aa6	-0.40340155
10	0x3a3516f1	0.00069080206
11	0x3ddc786a	0.10765155
12	0xbdb6a1e8	-0.089176
13	0x3e18a2f8	0.14905918
14	0xbf525a5b	-0.8216912
15	0x3f9816a9	1.1881915
16	0xbd9db72c	-0.07700953
17	0xbf140a23	-0.5782797
18	0xbe2c0d4b	-0.16801946
19	0x3f058fd8	0.52172613
20	0x3cbd278d	0.023090148
21	0xbed646cd	-0.41850892
22	0xbe18f2ee	-0.1493642
23	0xbee3c14d	-0.44483414
24	0xbd1eb1d0	-0.038743794
25	0x3f267cee	0.6503438
26	0x3d047590	0.03233868
27	0xbecefb13	-0.4042593
28	0xbedfaa41	-0.4368458
29	0xbe7670b0	-0.24066424
30	0x3e15ae95	0.14617379
31	0xbded6d50	-0.11593115
32	0xbefa061b	-0.48832783
33	0x3eff4069	0.4985383
34	0xbd6392d4	-0.055559948
35	0xbd4fba5f	-0.050714847
36	0x3ec3a3af	0.38210818
37	0xbe14c92b	-0.14529864
38	0xbde5e83e	-0.11225937
39	0xbe0a6d81	-0.13518335
40	0x3e2bbe79	0.16771878
41	0xbe0595c2	-0.1304541
42	0x3edf622f	0.43629596
43	0xbf162dab	-0.58663434
44	0xbdfa4f3f	-0.12222146
45	0xbe264dea	-0.1624066
46	0xbe5c8e13	-0.21538572
47	0x3f2fa68f	0.68613523
48	0xbd4f6a69	-0.05063859
49	0x3e2c5342	0.16828635
50	0x3de1433c	0.10999152
51	0xbeabaa71	-0.33528474
52	0xbef068fc	-0.46955097
53	0x3f1c88a0	0.61145973
54	0x3ebf3b7d	0.37350073
55	0x3f064aae	0.524577
56	0x3e9f5134	0.3111664
57	0x3e938cf3	0.28818473
58	0x3ed489d6	0.4151141
59	0x3e37875d	0.1792273
60	0x3ee5e36a	0.44900066
61	0x3e1b92ef	0.1519277
62	0xbdffcfac	-0.12490782
63	0x3e253096	0.16131815
64	0x3ea33eec	0.31883943
65	0x3d842dd0	0.064540505
66	0xbe78a264	-0.24280697
67	0x3de0b433	0.1097187
68	0x3f4f904a	0.8107954
69	0xbdc6cc84	-0.09706977
70	0xbe06a138	-0.13147438
71	0xbca96bcf	-0.02068129
72	0x3efc7d8e	0.4931454
73	0xbd90cede	-0.07070707
74	0x3da236f5	0.079206385
75	0xbedc9934	-0.43085635
76	0xbe9f2b12	-0.31087548
77	0x3e1c80a8	0.15283453
78	0x3ed3460c	0.4126438
79	0x3e7a347d	0.24434085
80	0xbe91a300	-0.28444672
81	0xbd2670cb	-0.04063491
82	0xbe2dd1c3	-0.16974549
83	0xbd02a0c2	-0.03189159
84	0x3d592159	0.05301032
85	0x3ccf67c7	0.02531804
86	0x3e9d8ad8	0.30769992
87	0x3e2e76d9	0.17037524
88	0xbecdb45f	-0.40176675
89	0x3e823ce8	0.25437093
90	0x3f3886ae	0.72080505
91	0xbe064c46	-0.13115034
92	0x3daf4cad	0.085595466
93	0x3d51bb7a	0.051204182
94	0xbdfe1d15	-0.12407891
95	0x3cd45440	0.02591908
96	0xbe91ccda	-0.28476602
97	0x3ea1e78f	0.31621978
98	0x3cb17a1c	0.021664672
99	0x3e2a6f0e	0.16643927
100	0x3eb829d0	0.359694
101	0xbd85e182	-0.06537153
102	0xbe6a2df6	-0.22869095
103	0xbe1e560f	-0.15462516
104	0x3e9884ac	0.2978872
105	0xbf4d92fd	-0.8030241
106	0xbe8391de	-0.25697225
107	0xbe87e530	-0.26542044
108	0x3c8fdc5d	0.017561132
109	0xbd3338f6	-0.043755494
110	0x3e296b77	0.16544901
111	0x3f1643ad	0.58697015
112	0xbec8fe89	-0.39256695
113	0x3e0cf6da	0.13766041
114	0x3e0e8c3e	0.13920686
115	0xbe627a3f	-0.22116946
116	0x3ede1312	0.43373924
117	0xbdb33eff	-0.0875225
118	0x3f0e189e	0.5550631
119	0xbbb270db	-0.0054455823
120	0x3ee27ab7	0.4423425
121	0x3cc5bfa8	0.02413924
122	0xbc299375	-0.010350098
123	0x3eb4a427	0.35281488
124	0x3e8398a1	0.25702384
125	0xbd304da1	-0.043042783
126	0xbe176c13	-0.14787321
127	0x3e9e45d6	0.30912656
128	0xbed99b6d	-0.42501393
129	0x3e3784ca	0.17921749
130	0x3e953539	0.29142168
131	0x3dc774ea	0.097390965
132	0x3e2e75e6	0.17037162
133	0xbd09a5ff	-0.03360557
134	0xbe8ddd0c	-0.27707708
135	0xbe337844	-0.17526346
136	0x3d8cf820	0.068832636
137	0xbedf96f6	-0.43669862
138	0xbee2a634	-0.44267428
139	0xbf444fdd	-0.7668436
140	0xbe130e1b	-0.1436085
141	0xbf327d82	-0.6972276
142	0x3de8e12d	0.11371074
143	0xbedb8895	-0.4287764
144	0xbe97b7d6	-0.29632443
145	0x3e7172cf	0.23578952
146	0xbe17e559	-0.14833583
147	0x3de2d982	0.110766426
148	0xbe17298e	-0.14761946
149	0xbe8d5e6e	-0.27611107
150	0x3ed767c2	0.42071348
151	0x3cd1aa91	0.025594028
152	0xbf2dbeb0	-0.6786909
153	0x3c1a68c9	0.009424397
154	0x3eac831b	0.33693776
155	0x3d33a96a	0.043862738
156	0x3dfe1ba2	0.12407614
157	0x3ead4ece	0.33849186
158	0x3cd375b3	0.02581296
159	0x3eb9f05f	0.363162
160	0xbed1bdca	-0.4096511
161	0xbe21c81e	-0.15798995
162	0x3d836b50	0.064169526
163	0xbe3b471e	-0.18288848
164	0xbee8418e	-0.45362514
165	0x3f8c175d	1.094463
166	0x3d0ba92a	0.034096874
167	0xbd15af6d	-0.036544252
168	0xbed11d3b	-0.40842614
169	0xbe02b5e0	-0.12764692
170	0xbe9f0139	-0.3105562
171	0x3e008ac6	0.12552938
172	0x3eac5fc5	0.33666816
173	0x3d15ff3a	0.036620356
174	0xbed0b84f	-0.40765616
175	0xbdcdfe85	-0.100583114
176	0xbe7e7786	-0.24850282
177	0xbe34dc2a	-0.17662111
178	0x3f306f2b	0.6891963
179	0xbf13970c	-0.57652354
180	0x3f62d518	0.88606405
181	0x3f26118f	0.6487054
182	0xbe5a7443	-0.21333413
183	0x3c9a8bb8	0.018865451
184	0x3f209c39	0.62738377
185	0xbe47ce46	-0.19512281
186	0x3e29bdd0	0.16576314
187	0x3cf557c3	0.029949075
188	0x3e9650a8	0.2935841
189	0x3db29797	0.0872032
190	0x3bd14fde	0.0063876947
191	0x3e3806c0	0.17971325
192	0xbf4c0578	-0.79695845
193	0xbe70e538	-0.2352494
194	0xbe6458e1	-0.2229953
195	0x3cf7e9c4	0.030262835
196	0xbe72d979	-0.23715772
197	0x3f1bd318	0.6086898
198	0x3e9413b6	0.28921288
199	0x3dc226d6	0.094800636
200	0xbedb7541	-0.42862895
201	0xbe4de33a	-0.20106211
202	0xbedb3d79	-0.42820337
203	0x3e1b06dc	0.15139335
204	0x3e8557a6	0.26043433
205	0xbe8ab4b2	-0.27090985
206	0x3e0db0a7	0.13836919
207	0xbec8c2e5	-0.39211193
208	0x3e736fae	0.23773071
209	0xbc9e2f82	-0.019309763
210	0x3efeca9f	0.49763963
211	0xbf2ff608	-0.6873479
212	0xbd5190bc	-0.05116342
213	0x3f0f138b	0.55889195
214	0xbde01e05	-0.10943226
215	0x3e068b6f	0.13139127
216	0x3f2999d9	0.6625038
217	0xbee41f4e	-0.44555134
218	0x3dbcd4de	0.09220289
219	0xbcf16191	-0.029465469
220	0x3f2766c4	0.6539118
221	0x3e4b8146	0.19873533
222	0x3ea1163d	0.3146228
223	0x3c837575	0.016047219
224	0x3ce0ac63	0.02742595
225	0xbeab7686	-0.33488864
226	0x3d8ca9d8	0.068683326
227	0xbe94cc59	-0.29062155
228	0xbd80ce43	-0.06289341
229	0xbe95f6e2	-0.2928992
230	0x3dfad68b	0.12247952
231	0x3ebd02f6	0.36916322
232	0x3ceeb026	0.029136728
233	0x3e06d16c	0.13165826
234	0x3d5740ef	0.05255216
235	0xbce2093e	-0.027592298
236	0x3e9e3cdf	0.30905816
237	0x3df13151	0.117769845
238	0x3ea5494b	0.3228248
239	0xbf30d798	-0.6907897
240	0x3e6a96b9	0.22909059
241	0xbe67435d	-0.22584291
242	0x3cca43ee	0.024690595
243	0x3de24cbb	0.110497914
244	0xbdaca4ff	-0.08429908
245	0x3df4f48b	0.11960705
246	0xbd8c8d24	-0.06862858
247	0xbe872082	-0.2639199
248	0xbd3dd19f	-0.04634249
249	0xbed896cd	-0.42302552
250	0xbecc230f	-0.39870498
251	0x3e2f9c05	0.1714936
252	0x3edb0546	0.4277746
253	0xbcc7804e	-0.024353173
254	0xbccdf33d	-0.0251404
255	0x3e3186e3	0.17336611

rnn.bias_ih_l0 f4 [32]
0	0x3d6ea760	0.05826509
1	0x3e4042a4	0.18775421
2	0x3ddb7b5b	0.107168876
3	0x3e98bf78	0.2983358
4	0x3db18d77	0.086695604
5	0xbe1e70d5	-0.1547273
6	0x3d84b397	0.064795665
7	0xbe38ccaa	-0.18046823
8	0xbc5b1a44	-0.013372961
9	0x3d1e59bc	0.038659796
10	0xbe433866	-0.19064483
11	0xbd9214cc	-0.07132873
12	0x3e029cf2	0.12755182
13	0xbe43047d	-0.19044681
14	0xbdd86f44	-0.10568097
15	0x3e435241	0.19074346
16	0xbc49ea55	-0.0123239355
17	0x3e08872f	0.13332818
18	0xbdec9758	-0.11552304
19	0x3e0c205b	0.13684218
20	0x3e35188f	0.1768515
21	0xbe5ddc90	-0.21666169
22	0xbdff51ad	-0.1246675
23	0xbebd9926	-0.37030905
24	0x3da397b5	0.0798792
25	0xbd3cc344	-0.046084657
26	0xbd8513d8	-0.064979255
27	0xbdddeafc	-0.10835835
28	0x3c532820	0.0128879845
29	0x3ed90d34	0.42392886
30	0xbd3d39dd	-0.04619776
31	0xb9a2fea2	-0.00031088764

rnn.bias_hh_l0 f4 [32]
0	0x3da9cd8f	0.0829116
1	0x3dec5100	0.11538887
2	0xbda024a9	-0.07819492
3	0x3ebc3a6f	0.3676333
4	0x3e09d1ab	0.13458888
5	0xbe24866b	-0.16066901
6	0xbe544656	-0.20729956
7	0xbdd7310f	-0.10507404
8	0x3e0091b5	0.12555583
9	0xbe49b89b	-0.19699328
10	0xbe5b747b	-0.21431153
11	0xbe457b8e	-0.19285414
12	0x3dc0f0ec	0.09420952
13	0xbd4ac84e	-0.04950743
14	0xbe909173	-0.2823597
15	0x3d5b244d	0.053501416
16	0x3d5b9dea	0.053617395
17	0x3e8b1d19	0.27170637
18	0xbcd87ce4	-0.02642674
19	0x3d0f5583	0.03499366
20	0xbb13e4cc	-0.0022566793
21	0xbcb1f40a	-0.021722812
22	0xbe088b91	-0.1333449
23	0xbdc574e5	-0.096414365
24	0x3d29337f	0.041308876
25	0x3c629441	0.013829292
26	0xbd3ac5a7	-0.045598652
27	0xbe4fec51	-0.20304991
28	0x3dcd0d77	0.10012334
29	0x3effe157	0.49976608
30	0xbd296f87	-0.041366126
31	0x3d3eddc5	0.046598215

rnn.weight_ih_l0_reverse f4 [32, 128]
0	0xbd953a80	-0.072865486
1	0xbe3eaf2c	-0.1862151
2	0x3d35d77a	0.044394948
3	0xbccc0e17	-0.024909062
4	0x3db152ba	0.08658357
5	0x3e3c1627	0.18367825
6	0x3d4ed57a	0.050496556
7	0x3e78f962	0.24313882
8	0x3dbcb2cd	0.09213791
9	0xbc061718	-0.008184217
10	0xbdb07141	-0.086153515
11	0xbdce3c78	-0.10070127
12	0xbd68f6ae	-0.056875877
13	0x3dc606f5	0.09669296
14	0xbcab463f	-0.02090752
15	0x3e19e7c4	0.15029818
16	0xbc4ffe76	-0.012694946
17	0xbdf89801	-0.121383674
18	0x3ddef422	0.108864084
19	0xbe2b3655	-0.16719945
20	0x3cf2e1e4	0.029648729
21	0xbe6ac375	-0.22926123
22	0x3bd59ebd	0.006519167
23	0x3b5a61a7	0.0033322365
24	0x3d9dc66f	0.07703864
25	0xbd184834	-0.037178233
26	0x3e032c96	0.12809977
27	0x3ccc43ea	0.024934728
28	0xbd21998a	-0.039453067
29	0x3e59dc06	0.21275339
30	0x3d3536ac	0.044241592
31	0x3e073177	0.13202463
32	0x3d983f5d	0.074339606
33	0x3d726322	0.05917657
34	0xbe80ba92	-0.25142342
35	0x3e14e1d6	0.14539275
36	0xbe986232	-0.29762417
37	0xbe77c326	-0.24195537
38	0xbe0c6343	-0.1370974
39	0xbdea22f9	-0.11432452
40	0xbe7b240f	-0.24525474
41	0x3d7af880	0.061272144
42	0x3e7e5be9	0.24839748
43	0x3dee310b	0.11630448
44	0x3e8e4f2d	0.2779478
45	0xbe6f633b	-0.23377697
46	0x3cb83b7f	0.022489307
47	0x3c6e5c14	0.01454832
48	0x3cf17662	0.029475395
49	0x3c8c2987	0.017109646
50	0xbe187bc2	-0.1489096
51	0xbe41ae07	-0.18914042
52	0x3c9887a2	0.018619362
53	0xbe5ea470	-0.21742415
54	0xbdda3999	-0.10655517
55	0xbcea8a57	-0.028630419
56	0xbd7ff794	-0.06249197
57	0xbe295028	-0.16534483
58	0x3da99822	0.0828097
59	0xbe1e058d	-0.15431805
60	0xbdae9c6c	-0.08525929
61	0xbce89cba	-0.028395046
62	0x3dae8c21	0.08522821
63	0x3e2d4af2	0.1692312
64	0x3e816523	0.25272474
65	0x3e5963ff	0.21229552
66	0xbd104980	-0.035226345
67	0x3ddf2f05	0.1089764
68	0x3e0a0762	0.13479379
69	0x3e5a891a	0.21341363
70	0x3df58822	0.11988856
71	0x3e0577a7	0.13033925
72	0x3e484ff6	0.19561753
73	0x3dc171d8	0.09445542
74	0x3d42e249	0.047579084
75	0x3de11dd7	0.109920196
76	0x3e9a86ac	0.3018087
77	0xbe82db04	-0.2555772
78	0x3e9b13bb	0.3028849
79	0x3e54dc20	0.20787096
80	0xbe18cc38	-0.14921653
81	0x3e93280f	0.287415
82	0xbdd9f67c	-0.10642716
83	0xbde62ca7	-0.112389855
84	0xbe8db26b	-0.27675185
85	0xbbc906c0	-0.006134838
86	0x3d1b77dc	0.037956104
87	0x3e179b7e	0.1480541
88	0x3ec6b8a4	0.38812745
89	0x3cb672bf	0.022271512
90	0x3d0a0659	0.03369746
91	0xbdb876ef	-0.0900706
92	0xbe4cb48e	-0.19990751
93	0xbb86d70f	-0.0041149925
94	0x3df00649	0.11719949
95	0xbe7e2989	-0.24820532
96	0xbe5cad49	-0.21550478
97	0x3880e6a5	6.1464765e-05
98	0xbe80dc34	-0.25168002
99	0xbe73f47e	-0.23823735
100	0xbe0249d9	-0.12723483
101	0x3e373c38	0.17894065
102	0xbdf45cfc	-0.11931798
103	0xbe4a8589	-0.19777502
104	0xbe5d6872	-0.21621874
105	0x3df09e85	0.11748985
106	0x3eae4340	0.34035683
107	0x3e020a79	0.12699308
108	0x3d99ae85	0.0750399
109	0xbc4bc01d	-0.01243594
110	0x3e131e01	0.14366914
111	0xbbd88bea	-0.006608476
112	0xbd629169	-0.055314455
113	0x3d5ab0e1	0.05339134
114	0x3d9b936d	0.075964786
115	0xbc8a721f	-0.01690012
116	0x3c081714	0.0083062835
117	0x3e1d6e4f	0.1537411
118	0x3db6d900	0.08928108
119	0xbbde6afa	-0.006787655
120	0xbd3cde2e	-0.046110325
121	0xbce9fa2e	-0.028561678
122	0xbd2da0e9	-0.042389784
123	0x3d5e07f3	0.0542068
124	0x3df7cbce	0.120994195
125	0xbde6f52d	-0.11277232
126	0xbe9ec492	-0.31009346
127	0xbccc0546	-0.024904858
128	0xbd69e955	-0.05710729
129	0x3e53bcbc	0.20677465
130	0xbdf8c12d	-0.1214622
131	0xbe42eb87	-0.19035159
132	0x3db7418f	0.08948051
133	0xbed57b47	-0.41695616
134	0xbe051710	-0.12997079
135	0xbdd93f21	-0.10607744
136	0x3bc55a2d	0.0060227127
137	0x3dc896a1	0.09794355
138	0xbea03e3c	-0.3129748
139	0xbd827689	-0.06370265
140	0x3d44f68e	0.048086695
141	0xbd0b1df2	-0.033964105
142	0xbe29adcb	-0.16570203
143	0x3d75c7e5	0.060005087
144	0xbd3c387b	-0.0459523
145	0xbdfcd74b	-0.123457514
146	0xbe150799	-0.1455368
147	0x3c891f63	0.0167386
148	0xbe143a77	-0.14475428
149	0xbe01bb7f	-0.1266918
150	0x3e06d1ca	0.13165966
151	0x3e19ca8c	0.15018672
152	0x3d68f97a	0.056878544
153	0xbd24ad22	-0.040204175
154	0xbe79c2a7	-0.2439066
155	0x3dd9b492	0.10630144
156	0xbcfdb29e	-0.03096896
157	0xbf0782a3	-0.5293371
158	0x3dd64b10	0.10463536
159	0x3d33ad65	0.043866534
160	0xbe19ef4f	-0.15032695
161	0xbdf39884	-0.118943244
162	0x3e915b3c	0.2838992
163	0xbd04f700	-0.03246212
164	0x3d2bc875	0.041939218
165	0xbe009b35	-0.12559207
166	0x3cdfb20a	0.027306575
167	0x3dab0427	0.08350401
168	0xbe15a185	-0.14612396
169	0x3edb7ea2	0.4287005
170	0x3e1eaf0f	0.15496467
171	0xbdf90ae9	-0.12160284
172	0x3d353aa8	0.044245392
173	0x3e715943	0.23569207
174	0x3dea5f49	0.114439555
175	0x3b8aaa63	0.0042317375
176	0x3e1d1e95	0.15343697
177	0x3d0cacde	0.034344546
178	0xbda2c32f	-0.079473846
179	0x3dc83222	0.09775187
180	0xbd168a96	-0.03675326
181	0xbed246d5	-0.41069666
182	0x3ea80bed	0.328216
183	0x3e107082	0.14105418
184	0xbd807017	-0.062713794
185	0x3c4f8443	0.012665811
186	0xbe9abfee	-0.30224556
187	0x3ef3f302	0.47646338
188	0x3e2023eb	0.15638702
189	0x3e6cfb6d	0.23142786
190	0x3e74f806	0.23922738
191	0x3e071a05	0.1319352
192	0x3e2373d8	0.1596216
193	0xbec9caef	-0.3941264
194	0xbe228d00	-0.158741
195	0x3ebc8996	0.3682372
196	0x3e7b2e8b	0.24529473
197	0xbea6cfc4	-0.32580388
198	0xbd9f719f	-0.077853434
199	0x3d8a7afa	0.06761737
200	0xbde8deaa	-0.11370595
201	0x3de8c220	0.113651514
202	0x3e95c6c6	0.29253215
203	0xbe21d276	-0.1580294
204	0xbdf0aea4	-0.1175206
205	0xbe870580	-0.26371384
206	0xbe1ba567	-0.15199815
207	0x3d844779	0.06458945
208	0xbf03042d	-0.51178247
209	0x3d39378b	0.045218986
210	0x3afe3708	0.0019395063
211	0xbdcaff47	-0.099119715
212	0xbe329eab	-0.1744334
213	0x3e626700	0.22109604
214	0xbd02118a	-0.031755008
215	0x3e5cf3f0	0.2157743
216	0xbad150bd	-0.0015969496
217	0xbdfa3c4d	-0.12218533
218	0xbd80f8be	-0.06297444
219	0xbd898770	-0.06715286
220	0xbd1da5b8	-0.03848812
221	0x3c54aebe	0.012981115
222	0x3db00c7e	0.08596133
223	0x3e1d3cc9	0.15355219
224	0xbe6b92cc	-0.23005217
225	0xbd503459	-0.050831173
226	0xbe8f2355	-0.27956644
227	0x3eec484d	0.4614891
228	0x3e0326ff	0.12807845
229	0x3df9d7b2	0.12199344
230	0xbcca857e	-0.024721857
231	0xbdb61e57	-0.088925056
232	0x3e8f04a2	0.27933222
233	0xbdffa7c3	-0.1248317
234	0x3d90a64c	0.070629686
235	0x3d6e04fb	0.05811022
236	0xbe92f5be	-0.2870311
237	0xbd9a2c1f	-0.07527947
238	0xbe4caa48	-0.19986832
239	0xbd9642ce	-0.07336961
240	0x3d38260b	0.044958156
241	0x3e861967	0.26191255
242	0xbe90f38b	-0.2831081
243	0xbdddd3db	-0.10831424
244	0xbdc81015	-0.097686924
245	0x3d4f97b5	0.05068179
246	0xbe2a21d9	-0.16614474
247	0x3dca8b82	0.0988989
248	0xbd94516e	-0.07242094
249	0x3ed62980	0.41828537
250	0xbe6e4465	-0.23268278
251	0x3e0a3dc2	0.13500121
252	0x3e7a5d5a	0.24449673
253	0x3d812f72	0.063078776
254	0x3d05a052	0.032623596
255	0xbcd7c7ef	-0.026340453

rnn.weight_hh_l0_reverse f4 [32, 32]
0	0x3dd5cd8e	0.10439597
1	0x3d462e9d	0.048384298
2	0x3ef1a1e9	0.4719384
3	0x3e9a11f6	0.30091828
4	0xbd70f17f	-0.05882406
5	0x3ece2ceb	0.40268645
6	0xbed829fc	-0.42219532
7	0x3e0654e2	0.13118318
8	0x3ea75ae5	0.32686535
9	0x3f0b94e6	0.54524076
10	0x3cb35836	0.021892648
11	0x3dbd476e	0.0924214
12	0x3c1b9b3e	0.009497462
13	0xbe28cea2	-0.16485074
14	0x3e53c363	0.20680003
15	0xbda8c323	-0.082403444
16	0x3e65d4e9	0.224445
17	0xbe026302	-0.12733081
18	0x3e89a5da	0.26884347
19	0xbe9ba113	-0.30396327
20	0xbe025ffd	-0.12731929
21	0xbce68144	-0.02813781
22	0x3a99e257	0.0011740428
23	0x3da0adca	0.07845648
24	0x3c953ac8	0.018216506
25	0x3d4fb386	0.050708316
26	0xbef6e051	-0.48218015
27	0x3e06535a	0.13117734
28	0xbe39ddd1	-0.18151022
29	0xbf5227e5	-0.82092124
30	0xbdb993fe	-0.090614304
31	0x3ebbac1b	0.36654744
32	0x3e38adeb	0.18035094
33	0x3e5e15d3	0.21688013
34	0x3e2b18c9	0.16708674
35	0x3e594146	0.21216306
36	0x3d305f8e	0.043059878
37	0x3e02e475	0.12782462
38	0x3d90d90b	0.07072648
39	0x3ddaa500	0.106760025
40	0xbc3b05fc	-0.011415001
41	0x3ef379c1	0.47553828
42	0xbe692ad7	-0.22770248
43	0x3e2661fb	0.16248314
44	0xbcbf633f	-0.023362754
45	0xbe002ca4	-0.12517029
46	0x3e28fbb7	0.16502272
47	0xbe88691b	-0.2664269
48	0x3d661943	0.056176435
49	0x3d9e71be	0.07736538
50	0xbe556dd9	-0.20842685
51	0xbdcf3494	-0.1011745
52	0x3c829862	0.015941802
53	0xbddfe9a7	-0.109332375
54	0x3cee019b	0.0290535
55	0xbe0fc29f	-0.14039086
56	0xbeb6ee39	-0.35728624
57	0xbc4cdd74	-0.01250397
58	0xbeaacc5b	-0.33359036
59	0x3e233aeb	0.15940444
60	0x3d58ab0f	0.05289751
61	0xbd13f986	-0.036126636
62	0xbe710e27	-0.23540555
63	0x3d84ce3a	0.06484647
64	0x3e3614d3	0.17781381
65	0xbda6d0cb	-0.08145293
66	0x3ca355ce	0.019938376
67	0x3d0a8221	0.033815507
68	0xbde0e8af	-0.10981881
69	0xbd7d396c	-0.06182234
70	0x3ce1ebed	0.027578318
71	0x3d3425e2	0.04398144
72	0x3f222e51	0.63351923
73	0x3e806de0	0.25083828
74	0xbe68359f	-0.22676705
75	0x3e5be17e	0.21472737
76	0xbdac7391	-0.0842048
77	0xbef4d914	-0.47821867
78	0x3b810272	0.003937059
79	0xbdf92a35	-0.121662535
80	0x3da92757	0.082594566
81	0x3f18d5c9	0.5970121
82	0x3f0191ac	0.506129
83	0xbf2a92ce	-0.66630256
84	0x3f3d262f	0.7388639
85	0xbba9fbb7	-0.0051874775
86	0x3e01d7d5	0.1267999
87	0xbe757aa6	-0.23972568
88	0xbe035c7c	-0.12828249
89	0xbe86835d	-0.26272097
90	0xbe479f9a	-0.19494477
91	0xbce17c79	-0.027525174
92	0xbefbe4a0	-0.49197865
93	0xbeea2ecb	-0.45738825
94	0xbe6ca99b	-0.23111574
95	0xbe895b0c	-0.26827276
96	0x3e7b3801	0.24533083
97	0xbc3ac2d9	-0.011398994
98	0xbf48ad7e	-0.7838973
99	0xbe771776	-0.24130043
100	0xbef1d726	-0.47234458
101	0xbf31192f	-0.6917905
102	0x3edf610b	0.43628725
103	0x3e5319fc	0.20615381
104	0xbdd4afcc	-0.10385093
105	0xbeb05eeb	-0.34447417
106	0xbb87de25	-0.0041463547
107	0x3e713569	0.2355553
108	0x3dc5ca76	0.09657757
109	0xbdccf9d4	-0.100085884
110	0xbea370c9	-0.31921986
111	0x3f0e0884	0.55481744
112	0xbdabacf6	-0.08382599
113	0xbe016f40	-0.12640095
114	0x3e9baed7	0.3040683
115	0xbe5b98b7	-0.21444975
116	0x3d63a2ad	0.05557506
117	0xbe604fce	-0.21905443
118	0x3dc89f51	0.09796012
119	0x3ea5d48e	0.3238873
120	0xbd38dfb7	-0.045135226
121	0x3e012c8d	0.12614651
122	0xbedfc130	-0.43702078
123	0xbe3ff982	-0.18747523
124	0xbd90a440	-0.07062578
125	0x3df13f3f	0.11779641
126	0x3e6611a8	0.22467673
127	0xbc329b15	-0.010901232
128	0xbe80e32d	-0.2517332
129	0xbded02f7	-0.11572831
130	0xbf0e06b3	-0.5547897
131	0x3e6769c0	0.22598934
132	0x3f15610a	0.58351195
133	0xbdb222c6	-0.08698039
134	0xbd2386c0	-0.03992343
135	0x3e9e0217	0.3086097
136	0x3e897c84	0.2685281
137	0xbe0daa07	-0.13834392
138	0x3f113e59	0.5673576
139	0x3e932b4f	0.2874398
140	0x3eb38ff6	0.3507077
141	0xbd70d9f4	-0.058801606
142	0xbf37fef0	-0.7187338
143	0xbbc681de	-0.006057962
144	0xbec0ac5c	-0.376315
145	0xbbf0081a	-0.0073251845
146	0x3e89a89d	0.26886454
147	0xbdfb81df	-0.1228063
148	0x3e8a7744	0.27044117
149	0x3e8dc105	0.27686325
150	0xbe0ba7cd	-0.1363823
151	0xbe808152	-0.25098664
152	0x3e79cef4	0.24395353
153	0xbbfa78d5	-0.007643799
154	0x3eff39a9	0.4984868
155	0xbe4a37a3	-0.19747786
156	0x3ec7ba9b	0.39009556
157	0x3dfe70e9	0.1242388
158	0x3ea44f00	0.32091522
159	0x3ee0f1cd	0.4393448
160	0x3d5f29b5	0.054483134
161	0xbe067ceb	-0.1313359
162	0xbf03e3a7	-0.51519245
163	0x3e2d7c3b	0.16941921
164	0xbef0941d	-0.46988
165	0xbf84388e	-1.0329759
166	0xbea4255a	-0.32059747
167	0x3e382069	0.17981113
168	0x3e93705f	0.2879667
169	0xbefcbeae	-0.49364227
170	0xbe8875b5	-0.26652303
171	0x3e982b4b	0.2972053
172	0x3eef56d7	0.4674594
173	0x3d043349	0.03227547
174	0xbdb87728	-0.09007102
175	0xbd88cea3	-0.06680038
176	0x3c85eddc	0.016348772
177	0xbc06f50f	-0.008237137
178	0x3e83e265	0.25758663
179	0x3ea3d2b0	0.3199668
180	0x3f431723	0.7620718
181	0xbd9e2dda	-0.07723589
182	0xbe33b3eb	-0.17549102
183	0xbf16cc44	-0.58905435
184	0xbdd8c2d2	-0.10584034
185	0xbdf0522f	-0.11734425
186	0x3e2961fb	0.16541283
187	0x3cb1e220	0.02171427
188	0x3d613a3b	0.054987174
189	0x3f279f19	0.6547714
190	0x3c48bcfe	0.0122520905
191	0xbe60c9b6	-0.21951947
192	0x3e562a0f	0.20914482
193	0xbefda7ab	-0.49541983
194	0xba4d5a17	-0.0007833554
195	0x3f1475c3	0.5799219
196	0x3c916cca	0.01775207
197	0xbe705885	-0.23471268
198	0xbdf4db54	-0.11955896
199	0xbdae96db	-0.08524867
200	0x3e50358e	0.2033293
201	0xbea84e76	-0.3287236
202	0x3d51e4b5	0.051243503
203	0x3f0b70a6	0.5446876
204	0x3e8a5910	0.27021074
205	0xbf229b11	-0.6351786
206	0xbe7dc2a6	-0.24781284
207	0x3e56f4f8	0.20991886
208	0x3e879f61	0.26488784
209	0x3d9fd20a	0.07803734
210	0x3e197cb4	0.14988977
211	0xbeb4d842	-0.35321242
212	0x3f3fc2db	0.749067
213	0xbe551150	-0.20807385
214	0x3dc185ba	0.094493344
215	0xbd7cf42c	-0.061756298
216	0xbe0d1658	-0.13778055
217	0x3e80bc9b	0.25143895
218	0x37216c4a	9.621561e-06
219	0xbdada2a3	-0.08478286
220	0x3d571f46	0.05252006
221	0xbe0699d0	-0.13144612
222	0xbe8302dd	-0.25588122
223	0xbd780911	-0.06055552
224	0xbdb6d922	-0.089281335
225	0xbeba64a7	-0.36404917
226	0x3e80e7a8	0.2517674
227	0x3ea4a188	0.3215449
228	0xbf0aa8a9	-0.54163605
229	0xbf008624	-0.5020468
230	0xbd7a97cf	-0.061179932
231	0x3e08f07a	0.13372985
232	0x3d3f4a5c	0.046701774
233	0xbd781745	-0.060569067
234	0xbdfe57cb	-0.12419089
235	0x3f229ac9	0.63517433
236	0x3de98940	0.114031315
237	0xbe519da3	-0.2047029
238	0x3e8caafa	0.27474195
239	0x3eee7480	0.46573257
240	0x3d7b4a86	0.061350368
241	0x3e8d63e5	0.27615276
242	0x3ecd3505	0.40079513
243	0xbf3c6c58	-0.7360282
244	0x3e3553f4	0.17707807
245	0xbf0256e8	-0.5091386
246	0xbe0c18fa	-0.13681403
247	0x3ef6e682	0.48222739
248	0xbe296176	-0.16541085
249	0x3e6fd7b5	0.2342213
250	0xbe97645b	-0.29568753
251	0x3e103463	0.14082484
252	0xbdbfe942	-0.09370662
253	0xbf12a434	-0.57281804
254	0xbedcc0de	-0.43115896
255	0x3e1052ca	0.14094082

rnn.bias_ih_l0_reverse f4 [32]
0	0xbdf49a0a	-0.11943443
1	0x3d2322bc	0.039828047
2	0x3c932922	0.01796395
3	0x3d2c0b62	0.042003043
4	0xbe1a5160	-0.15070105
5	0xbcff8904	-0.031193264
6	0x3e88a31b	0.2668694
7	0x3e377f7e	0.17919728
8	0xbdc35da6	-0.095393464
9	0xbdca77a0	-0.09886098
10	0x3e0dd587	0.13850985
11	0x3dab74fa	0.08371921
12	0x3c330651	0.010926799
13	0x3e133c11	0.14378382
14	0xbe0f0f84	-0.13970762
15	0x3d3b956b	0.045796793
16	0x3e7edc5b	0.24888746
17	0xbc32522c	-0.010883849
18	0xbea20885	-0.31647125
19	0xbd0f53b3	-0.03499193
20	0x3d731786	0.059348606
21	0xbe047b52	-0.12937668
22	0x3e53f33f	0.2069826
23	0x3dc7c9e7	0.09755307
24	0xbea9a512	-0.3313375
25	0x3e7daaad	0.24772139
26	0xbdee8c48	-0.1164785
27	0xbc66c3ec	-0.014084797
28	0x3d6f5b07	0.05843642
29	0x3d94f217	0.072727375
30	0xbe6f3201	-0.23358919
31	0xbd7bbaa8	-0.061457306

rnn.bias_hh_l0_reverse f4 [32]
0	0xbdb2f4c5	-0.08738092
1	0x3d946606	0.07246022
2	0xbe1c3394	-0.1525405
3	0xbdc64552	-0.096811906
4	0xbd05f2d5	-0.032702286
5	0x3d258b4f	0.04041606
6	0x3eb1c940	0.34723854
7	0x3e0435f9	0.12911214
8	0x3da46dd4	0.080287606
9	0xbdc0816d	-0.09399686
10	0xbbcdd36a	-0.006281306
11	0x3df499c8	0.11943394
12	0x3db46035	0.088074125
13	0x3dad97c8	0.084762156
14	0xbc08d8d7	-0.00835248
15	0xbdf53eb6	-0.11974852
16	0x3cef47c0	0.029209018
17	0xbdee911b	-0.116487704
18	0xbe75fbf4	-0.24021894
19	0x3dbc998a	0.09208973
20	0xbcce2733	-0.025165176
21	0xbe4a3357	-0.19746147
22	0xbcda20c6	-0.026626956
23	0x3e74fa21	0.23923542
24	0xbd5ff44b	-0.054676335
25	0x3e856011	0.26049855
26	0xbd0537cd	-0.03252392
27	0x3e551527	0.2080885
28	0x3e2570d1	0.16156317
29	0xbdca5a92	-0.09880556
30	0xbe6642b2	-0.2248638
31	0xbdae43f9	-0.085090585

fc1.weight f4 [11, 64]
0	0x3ea509ff	0.3223419
1	0x3f0349a1	0.51284224
2	0x3e724cd6	0.23662123
3	0x3d47e165	0.048798937
4	0xbd9524b6	-0.07282393
5	0xbdd00018	-0.10156268
6	0xbdbb1c9f	-0.091363184
7	0x3e48cda8	0.19609702
8	0xbe95a91e	-0.2923059
9	0xbe39e799	-0.18154754
10	0x3dfd9c6c	0.12383351
11	0xbec44d0a	-0.38340026
12	0x3e78b357	0.24287163
13	0xbe0cee4a	-0.13762775
14	0xbeabe0d3	-0.33569965
15	0x3ebc2b21	0.36751655
16	0x3e2fb123	0.17157416
17	0x3e5387d1	0.20657279
18	0xbe4a8e20	-0.19780779
19	0x3da258fd	0.079271294
20	0x3ef81664	0.48454583
21	0xbddcfe07	-0.10790639
22	0x3dd54d23	0.10415103
23	0xbe1fbe6f	-0.15599988
24	0xbdb034ee	-0.086038455
25	0x3ef59001	0.4796143
26	0xbeacb701	-0.3373337
27	0xbeb5e73a	-0.35527974
28	0xbded3059	-0.11581487
29	0x3e656cf9	0.22404851
30	0xbd2160a0	-0.03939879
31	0xbec103ac	-0.37698114
32	0x3e991874	0.2990147
33	0x3d9d7c86	0.076897666
34	0xbe7a5611	-0.24446894
35	0x3ca698c7	0.020336522
36	0x3e437a0a	0.19089523
37	0x3e8e2a46	0.27766627
38	0xbdb2b285	-0.08725456
39	0xbe14a03a	-0.14514247
40	0x3e34e2f9	0.17664708
41	0x3d73d874	0.059532598
42	0xbd27c82a	-0.040962376
43	0xbd382e58	-0.04496607
44	0x3e421284	0.18952376
45	0xbe6cbfba	-0.23120013
46	0x3d527c6e	0.051388197
47	0x3ebbf274	0.36708415
48	0x3ebc0c4e	0.36728138
49	0xbef5a40a	-0.47976714
50	0xbe089cd4	-0.13341075
51	0xbddfa260	-0.109196424
52	0xbe891361	-0.26772597
53	0xbec8f187	-0.3924677
54	0x3eb0dda3	0.34544095
55	0x3ef979b4	0.48725665
56	0xbec2db6d	-0.38058034
57	0x3eaec1f6	0.34132355
58	0xbeaabe69	-0.33348396
59	0x3ecb0aee	0.39656776
60	0xbd4686e4	-0.048468485
61	0x3e9b998d	0.30390587
62	0xbe7613c8	-0.24030983
63	0xbf0d8973	-0.55287856
64	0x3e8aa7ed	0.27081242
65	0xbf53bc33	-0.82709044
66	0x3e19f719	0.15035667
67	0x3e9cc30c	0.3061756
68	0x3d8e2f0d	0.06942568
69	0x3e8587e4	0.2608024
70	0xbe8d4707	-0.27593252
71	0xbf525ea8	-0.82175684
72	0x3c3eaf49	0.011638471
73	0x3e98dc66	0.2985565
74	0xbea9edbb	-0.33189186
75	0x3f2e57f5	0.6810296
76	0xbdc40ad9	-0.095723815
77	0x3f5c6d5c	0.8610437
78	0xbef5ee87	-0.48033544
79	0x3e98c669	0.29838875
80	0xbc766ad4	-0.015040118
81	0xbefbbc12	-0.49166924
82	0x3e464aaa	0.1936442
83	0x3e2ffadf	0.17185543
84	0x3e2bbfdc	0.16772407
85	0xbcd37752	-0.025813732
86	0xbe9cd52e	-0.30631393
87	0xbee699c9	-0.45039204
88	0x3d94ae87	0.07259851
89	0xbf119343	-0.5686533
90	0x3ec9467f	0.39311597
91	0x3e8e876d	0.27837697
92	0x3ed205c5	0.41020027
93	0x3e1fd4e8	0.15608561
94	0x3e8d0126	0.2753994
95	0x3eeb49fe	0.4595489
96	0xbf07873a	-0.52940714
97	0x3f1cd475	0.61261684
98	0x3e5c5849	0.21518053
99	0x3db94a1c	0.09047338
100	0xbef222da	-0.47292215
101	0xbe4d9b5e	-0.20078799
102	0x3e934925	0.28766742
103	0x3ece5ccf	0.40305182
104	0x3e006dea	0.12541929
105	0xbe9ea4b7	-0.30985042
106	0x3ed138bf	0.40863606
107	0x3f2391c3	0.6389429
108	0x3bb316b7	0.0054653543
109	0x3d6c0772	0.057624288
110	0xbec4221e	-0.3830728
111	0xbec97e4e	-0.39354175
112	0xbf437e53	-0.7636463
113	0x3e3ad1ad	0.18244047
114	0xbec0f412	-0.3768621
115	0xbdd14ffd	-0.10220335
116	0x3e152b99	0.14567412
117	0x3dfad699	0.122479625
118	0xbe5fea1c	-0.2186665
119	0x3e8d1518	0.27555156
120	0x3d8bb898	0.06822318
121	0x3e588e45	0.21148022
122	0xbe01be1d	-0.12670179
123	0xbf304e92	-0.6886989
124	0x3e9ba885	0.30402008
125	0xbe61eb3e	-0.22062394
126	0x3d0fa3f2	0.03506846
127	0x3f45dac6	0.77286947
128	0x3e598fa5	0.21246202
129	0xbe91540d	-0.28384438
130	0x3f09aded	0.53781015
131	0xbeff5d0e	-0.49875683
132	0x3eba7881	0.36420062
133	0x3d7c549d	0.06160413
134	0xbee3dd4b	-0.4450477
135	0xbf1cc22d	-0.6123379
136	0x3e962afd	0.29329672
137	0x3c03e8ee	0.00805114
138	0x3e8dea21	0.2771769
139	0x3c166e89	0.009181627
140	0xbea616a8	-0.3243916
141	0xbe0efa0d	-0.13962574
142	0x3e8a9b01	0.27071384
143	0x3ebd0649	0.36918858
144	0x3d1de6c9	0.038550172
145	0xbf036c1a	-0.51336825
146	0x3df95771	0.12174881
147	0xbeb679d8	-0.35639834
148	0x3d5bd720	0.053671956
149	0xbe6d1373	-0.2315195
150	0x3eb0b402	0.34512335
151	0xbe82a878	-0.25519156
152	0x3ea79608	0.32731652
153	0xbee373c6	-0.44424266
154	0x3f032ff9	0.51245075
155	0x3ecf1017	0.40441963
156	0x3e580a86	0.21097764
157	0xbf30e222	-0.6909505
158	0xbf06c0a2	-0.52637684
159	0x3ef2fe23	0.47459516
160	0xbf26074d	-0.6485489
161	0xbe1846bf	-0.14870737
162	0xbf16f5f8	-0.5896907
163	0x3e90dc57	0.28293106
164	0xbe300145	-0.17187984
165	0x3eb2005c	0.347659
166	0xbe980297	-0.29689476
167	0x3e78b818	0.24288976
168	0x3edbfc99	0.42966154
169	0x3dd4a400	0.10382843
170	0xbeaf5b8b	-0.3424953
171	0xbed72999	-0.42023924
172	0x3e06e83f	0.13174532
173	0xbdbb60c3	-0.09149315
174	0xbe9a3936	-0.30121773
175	0xbf0b9380	-0.5452194
176	0x3caf618a	0.021408815
177	0xbe18d488	-0.14924824
178	0x3de07785	0.109602965
179	0x3f0f2396	0.55913675
180	0xbeef25af	-0.46708438
181	0x3ed1eaf7	0.40999576
182	0xbf0b307e	-0.5437087
183	0xbe592278	-0.21204555
184	0x3eb1551f	0.34635255
185	0xbf280d87	-0.6564564
186	0xbdbca6d6	-0.09211509
187	0x3d125665	0.035726923
188	0x3de65045	0.11245779
189	0x3dd0b295	0.10190312
190	0xbd20161d	-0.03908359
191	0x3dae273a	0.085035756
192	0xbec1fcf8	-0.37888312
193	0xbe5ee700	-0.21767807
194	0xbeb360d1	-0.35034803
195	0xbea4af0d	-0.32164803
196	0x3e96835d	0.29397097
197	0xbd71599a	-0.05892334
198	0xbd5a8407	-0.053348567
199	0xbeee6790	-0.46563387
200	0xbdfb85b3	-0.122813605
201	0x3f0bdd2d	0.5463436
202	0x3effc6a5	0.4995624
203	0x3b8a06cb	0.0042122356
204	0xbea285fc	-0.31742847
205	0x3f24528c	0.64188457
206	0x3e3f7151	0.1869557
207	0xbe0e2250	-0.13880277
208	0xbed4799e	-0.41499037
209	0xbe017866	-0.12643585
210	0xbe4cbddd	-0.19994302
211	0x3e7ae54a	0.2450153
212	0xbeae1c30	-0.3400588
213	0x3e1827f9	0.14858998
214	0x3eb18ef4	0.34679377
215	0xbd70cc67	-0.058788683
216	0xbeb43efe	-0.3520431
217	0xbecf9904	-0.4054643
218	0x3e6ffe98	0.23436964
219	0x3ee36047	0.4440939
220	0xbf0a3529	-0.53987366
221	0xbe713c77	-0.23558222
222	0x3e9ab07c	0.30212772
223	0x3eec1ae2	0.4611426
224	0xbed6d352	-0.419581
225	0xbedd0f88	-0.43175912
226	0x3d839b65	0.064261235
227	0x3ea6915b	0.32532772
228	0xbd6dc0fa	-0.058045365
229	0x3d5d4997	0.05402526
230	0xbeb56d8b	-0.35435137
231	0xbe09f956	-0.1347402
232	0x3ec962e7	0.3933327
233	0xbeac7af3	-0.33687553
234	0xbe0da09e	-0.13830802
235	0xbede1714	-0.43376982
236	0xbf084772	-0.53234017
237	0x3ef4690a	0.47736388
238	0x3e8796be	0.26482195
239	0xbe247ae9	-0.16062512
240	0xbd572d8b	-0.052533668
241	0xbecb7daf	-0.39744326
242	0x3eb8d9fa	0.36103803
243	0x3f035586	0.51302373
244	0xbf1089b9	-0.5646015
245	0x3f0be9a3	0.54653376
246	0xbf03cbbd	-0.51482755
247	0xbdf5b344	-0.11997083
248	0x3f00ec86	0.50360906
249	0xbe8a814c	-0.2705177
250	0xbde9a903	-0.114091896
251	0x3ddafed1	0.106931336
252	0x3cf0d323	0.029397553
253	0xbe4242f0	-0.18970847
254	0x3f16e257	0.5893912
255	0x3e8b514f	0.2721047

fc1.bias f4 [11]
0	0x3dd4a70c	0.10383424
1	0x3e48cd7a	0.19609633
2	0xbe8dee1b	-0.27720723
3	0xbec93119	-0.3929527
4	0xbdf21f9f	-0.118224375
5	0xbebe4160	-0.37159252
6	0xbe5e35df	-0.21700238
7	0x3dc2d4c8	0.09513241
8	0xbe54ad3c	-0.20769209
9	0xbe48297e	-0.19547078
10	0xbec01db3	-0.3752266
