src/main/python/saved_models/cpp_1_66_RNNClassifier1_128embs_147id_16hd_1hl_Falsebid_1.pt (torch, 87135 bytes, 7 tensors)

word_embeddings.weight f4 [147, 128]
-0.22893007 0.3036964 -2.9432867 -1.0187794 -0.014676474 1.2635239 0.48006615 1.1442908
1.1896211 -0.4725973 -0.5983924 -1.7432733 0.72538275 0.7505592 3.4671097 0.28786144
-0.03644151 0.17759001 -0.41825727 1.0850838 1.3876508 0.6583649 1.5778161 -1.092948
-2.210203 0.4745451 2.448419 -1.5249025 -1.1539581 -0.7085225 1.6650428 -0.047320593
-0.28265437 -0.28143275 -1.3710225 -1.4034882 -0.5540891 -0.29718298 -0.98597634 -0.23071784
-0.9903082 -1.2010692 1.9646161 -2.03408 -0.5404256 -0.73110634 -2.592211 -0.96820897
0.65085804 -1.0092458 0.41317302 -0.077634886 -1.1829911 -2.2108047 -1.7153097 1.3963677
1.5295944 -0.39320922 0.15088491 -1.710986 1.2627677 -1.0982963 -2.2464275 -0.6327716
-0.2344413 -1.8913171 -1.1715642 -0.3572427 0.049089123 -0.30423668 -1.2622403 0.90551656
1.3944889 -1.530245 0.0051151384 0.09608781 2.3715184 1.0193827 0.6553999 -1.3390012
-1.4239557 -0.6975054 -0.08974329 -0.8000472 1.1935197 2.3594382 1.9096365 -1.5825536
0.8698148 -0.3237686 1.4269342 -1.2883852 1.7874637 0.9917691 1.0126371 -1.286865
-1.2535107 1.2932395 0.5349973 0.23282795 -0.6497384 0.1299861 -0.035113066 0.75329924
0.2217557 -0.20451805 0.6725577 -0.32963294 -1.3185143 -1.937678 0.83211124 1.0876888
2.5965893 -1.9897084 0.1396239 2.653025 -0.9881946 0.23627491 1.6899064 0.7917027
-0.6693651 -0.7896794 0.56596875 -1.5202261 -1.0299585 -0.928977 -1.200374 1.2303807
0.20227133 0.10598343 0.91352284 -1.5899092 -0.5561559 -0.68971175 0.15424097 -0.8153596
1.3073891 0.30359194 -0.7916396 0.16182454 1.4216372 -0.68797565 1.1498871 -2.3764467
0.79373807 1.2480929 0.5651042 0.53799987 0.019932073 -0.016848385 1.5798444 -0.13748422
-1.185823 2.7064764 1.9051231 -0.9773522 0.6523509 -0.73255396 -0.6973786 -0.64593625
-1.5509073 0.74658173 0.2649273 -1.0815645 0.58711267 2.0847042 -0.3496767 -1.4961535
-1.1886986 -1.7136292 0.49615267 0.94607407 -1.3172934 -0.86968696 -0.11466908 -1.7634312
-0.47571605 0.4583444 0.808888 1.2257335 -0.05679365 0.44269413 -1.2990057 -0.19140223
-1.3176521 -1.5867915 -1.0764698 2.6213994 -1.3686937 -0.4901619 0.79941005 0.15096535
-0.17156282 -0.6983513 -0.5629112 -0.32909843 -2.5683653 -0.4605691 1.6123523 0.86358875
1.0523056 0.67978585 -0.68753225 0.06502303 -1.5619429 -1.790575 0.4712121 0.95823675
-0.77789086 -0.9021897 0.38338262 2.2663453 0.6964854 0.9667531 0.90488297 -0.6427657
0.07824242 0.120098695 1.2538728 -1.1865203 1.3283246 0.4451383 -0.43201035 0.7596635
0.5594288 0.39125094 0.7375651 -0.20003179 1.384306 1.4683748 0.783467 -0.48553717
-0.7391522 0.49268898 -0.17198038 -0.31946373 0.13739604 0.29361835 0.34965658 -0.16995656
-0.12040162 1.0183784 -1.2587782 1.348212 2.7348967 0.47023493 0.4903733 -0.83753854
0.24432187 1.584952 2.1400113 0.09573932 -1.1427352 -0.18111274 0.49889186 -0.5642058
00000000: a56c 6abe 187e 9b3e cf5e 3cc0 5d67 82bf
00000010: 9875 70bc 27bb a13f 3bcb f53e 1f78 923f
00000020: 8145 983f 46f8 f1be 3f30 19bf 9423 dfbf
00000030: afb2 393f a624 403f 20e5 5d40 9362 933e
00000040: b143 15bd 28da 353e d125 d6be 07e4 8a3f
00000050: 8b9e b13f 9a8a 283f e1f5 c93f b8e5 8bbf
00000060: f773 0dc0 93f7 f23e e6b2 1c40 0130 c3bf
00000070: e6b4 93bf bb61 35bf 1f20 d53f 3dd3 41bd
00000080: 13b8 90be f417 90be aa7d afbf 80a5 b3bf
00000090: c9d8 0dbf 5e28 98be f268 7cbf 4c41 6cbe
000000a0: d784 7dbf a3bc 99bf 8a78 fb3f 5e2e 02c0
000000b0: 5559 0abf c929 3bbf c9e6 25c0 8bdc 77bf
000000c0: a29e 263f f72e 81bf 6a8b d33e 0aff 9ebd
000000d0: 416c 97bf d37d 0dc0 458f dbbf 2dbc b23f
000000e0: c0c9 c33f b852 c9be 9381 1a3e 9701 dbbf
000000f0: 5fa2 a13f f994 8cbf 78c5 0fc0 52fd 21bf
00000100: 6111 70be ae16 f2bf d1f5 95bf 84e8 b6be
00000110: ad11 493d e9c4 9bbe 1791 a1bf efcf 673f
00000120: 9d7e b23f 11df c3bf e49c a73b b0c9 c43d
00000130: f5c6 1740 227b 823f 4ac8 273f 6464 abbf
00000140: 2e44 b6bf b78f 32bf 54cb b7bd e5cf 4cbf
00000150: 41c5 983f 0901 1740 f86e f43f 1e91 cabf
00000160: 2fac 5e3f ffc4 a5be c8a5 b63f cee9 a4bf
00000170: 9ccb e43f 94e4 7d3f 189e 813f feb7 a4bf
00000180: 0a73 a0bf df88 a53f 95f5 083f 736a 6e3e
00000190: 4155 26bf 141b 053e b8d2 0fbd 38d8 403f
000001a0: ed13 633e 2e6d 51be be2c 2c3f a6c5 a8be
000001b0: 14c5 a8bf d505 f8bf 3e05 553f 6339 8b3f
000001c0: 852e 2640 c4ae febf 91f9 0e3e 29cb 2940
000001d0: 52fa 7cbf 0df2 713e da4e d83f 07ad 4a3f
000001e0: 835b 2bbf 6e28 4abf 54e3 103f c596 c2bf
000001f0: aed5 83bf 70d1 6dbf dba5 99bf 1d7d 9d3f
00000200: 3720 4f3e d70d d93d a2dc 693f 2582 cbbf
00000210: 3c60 0ebf f390 30bf 58f1 1d3e 68bb 50bf
00000220: 8758 a73f 6770 9b3e e5a8 4abf 55b5 253e
00000230: 35f8 b53f 2c1f 30bf 802f 933f b417 18c0
00000240: 6b32 4b3f 82c1 9f3f abaa 103f 5cba 093f
00000250: 9648 a33c a005 8abc 5738 ca3f aac8 0cbe
00000260: 0cc9 97bf e936 2d40 13db f33f c133 7abf
00000270: 7800 273f a888 3bbf 6787 32bf 145c 25bf
00000280: 2184 c6bf fb1f 3f3f 8da4 873e b570 8abf
00000290: 044d 163f cb6b 0540 d308 b3be f581 bfbf
000002a0: 4727 98bf 3458 dbbf b907 fe3e e931 723f
000002b0: 129d a8bf cea3 5ebf 9fd7 eabd 1db8 e1bf
000002c0: 0e91 f3be 1eac ea3e 4913 4f3f d6e4 9c3f
000002d0: 75a0 68bd cea8 e23e d245 a6bf f2fe 43be
000002e0: d3a8 a8bf fc1b cbbf c3c9 89bf 02c5 2740
000002f0: 5b31 afbf 80f6 fabe 23a6 4c3f a996 1a3e
00000300: 2aae 2fbe 27c7 32bf f31a 10bf 977f a8be
00000310: 1960 24c0 b7cf ebbe 8f61 ce3f 2714 5d3f
00000320: f3b1 863f 7206 2e3f 1d02 30bf cb2a 853d
00000330: bfed c7bf 9031 e5bf b642 f13e 014f 753f
00000340: db23 47bf e7f5 66bf ba4a c43e cd0b 1140
00000350: de4c 323f 227d 773f 69a6 673f 4b8c 24bf
00000360: 903d a03d 4ef6 f53d e77e a03f e6df 97bf
00000370: 8a06 aa3f 2be9 e33e 7630 ddbe 4f79 423f
00000380: ba36 0f3f 0b52 c83e 11d1 3c3f 22d5 4cbe
00000390: f030 b13f b5f3 bb3f 4b91 483f 5498 f8be
000003a0: 1439 3dbf bb41 fc3e a01b 30be c090 a3be
000003b0: 8cb1 0c3e 2555 963e 3006 b33e 1809 2ebe
000003c0: 2095 f6bd 395a 823f a51f a1bf 3692 ac3f
000003d0: 8c08 2f40 a2c2 f03e 3612 fb3e ed68 56bf
000003e0: 832f 7a3e b5df ca3f f2f5 0840 fa12 c43d
000003f0: 2645 92bf 9e75 39be c16e ff3e cb6f 10bf

rnn.weight_ih_l0 f4 [16, 128]
-0.28675044 -0.11603454 0.29523388 0.049380686 0.21128426 0.07790951 0.31412113 0.024260301
0.25766408 -0.1417053 0.2919153 -0.07340033 0.11681414 0.011350195 0.17903098 0.2031818
-0.06911876 0.2656878 0.0768519 -0.21579672 -0.12112724 0.18903348 -0.18667738 0.10740981
-0.13024123 0.21263626 0.20168823 0.14871627 -0.14511433 -0.09324265 0.15235734 0.29156807
-0.16118193 0.30326402 0.10863794 -0.36049902 0.23003744 -0.18804593 0.020467939 -0.09190027
0.24225615 -0.20739779 -0.009987894 -0.31414077 0.08075017 0.10913005 0.08563739 -0.03617995
-0.18953757 0.08408202 0.22045502 -0.22259465 -0.057841584 0.2012074 -0.26419553 -0.20611455
0.31417248 -0.09906218 -0.1634205 -0.22581181 0.30717137 0.08423337 -0.15307318 -0.17225207
-0.20754203 -0.17677599 -0.14885578 -0.028952489 -0.38497677 0.123067744 0.11481092 -0.1498811
-0.14314352 -0.07517097 0.10541103 0.62394875 0.3969129 0.13806042 -0.044092014 0.072486416
0.11060756 -0.02719932 0.19534864 0.26488158 0.16851307 0.13356444 -0.14384845 -0.023014894
-0.13141304 0.28350332 -0.051284354 0.1439162 -0.1364985 0.015322219 -0.036052503 0.2067748
-0.0771663 0.16798878 0.23481028 0.062080335 0.12720269 0.33026153 -0.051521715 -0.13579291
0.23477863 -0.20459887 0.08959602 0.10427128 -0.25801727 -0.09182302 -0.17926906 -0.039719034
0.064521335 -0.14596152 0.06126219 -0.33163172 -0.12191752 -0.25843653 -0.13563955 0.116554104
0.12903413 0.2510412 0.081278116 0.3084214 -0.0021146385 0.03462812 -0.11473777 0.2621777
0.12362648 0.109773055 0.24388194 0.24209014 -0.09193915 0.17937432 -0.23971368 0.2896092
-0.04399089 -0.18125595 0.15731287 -0.1864145 -0.06543366 -0.18776196 -0.1157998 0.23161301
0.26137328 0.18332386 -0.069724835 0.31492966 -0.09603423 -0.17722611 0.0011741654 0.053982425
0.09912153 -0.27831542 -0.09665821 0.0063922848 -0.031507384 -0.21130699 -0.02751032 -0.22489098
0.36793315 0.09403092 0.20586897 0.05076259 -0.39517117 0.27576354 0.103063464 0.017626155
0.05832189 0.14000264 -0.351571 0.052726697 0.47738707 -0.013074315 0.26064485 0.35194293
0.060292777 0.3841409 0.11591498 -0.17475967 0.18727632 0.15155728 -0.24052963 0.2159267
0.42945465 -0.057555243 -0.26285335 0.23024991 0.25439602 0.15662435 -0.23296067 0.20039237
0.09521977 0.011954029 -0.13597779 -0.24053098 0.18723068 0.09693132 0.1851024 -0.4070093
-0.22603111 0.067634575 -0.18487535 0.3319129 0.016144218 -0.16600952 0.07419242 -0.093263485
-0.19314426 0.18197693 -0.16129462 0.18527043 -0.18624409 -0.0052869483 -0.03434823 -0.22164372
-0.19174477 0.3152404 0.19117974 0.06448409 0.20340031 0.17679018 -0.0473114 0.048613902
0.28581682 -0.34549388 0.03441738 0.051564224 0.049627174 0.24428266 -0.13664952 0.19372834
0.037823953 -0.23458278 -0.050549343 0.1018169 -0.23915383 -0.3154959 0.030505659 0.046656437
0.097950116 -0.1851533 0.11432728 -0.1164899 0.05139441 -0.037569694 -0.29264235 0.022532493
-0.1712411 0.19067095 -0.17261627 0.26705158 0.32189238 0.28800642 0.34357128 0.4042138
00000000: f4d0 92be 84a3 edbd e528 973e 6743 4a3d
00000010: e75a 583e 058f 9f3d 7cd4 a03e 8abd c63c
00000020: 8cec 833e 321b 11be ec75 953e ea52 96bd
00000030: 403c ef3d 2bf6 393c e653 373e e40e 503e
00000040: 238e 8dbd 3b08 883e 8764 9d3d d1f9 5cbe
00000050: 8f11 f8bd fe91 413e 5b28 3fbe adf9 db3d
00000060: f55d 05be 52bd 593e 5c87 4e3e 1449 183e
00000070: da98 14be 01f6 bebd 9003 1c3e 6948 953e
00000080: e00c 25be 6c45 9b3e 917d de3d 5493 b8be
00000090: ef8e 6b3e 1d8f 40be 61ac a73c 3536 bcbd
000000a0: ff11 783e 1660 54be 44a4 23bc 0fd7 a0be
000000b0: 5860 a53d 937f df3d a862 af3d 6d31 14bd
000000c0: 2316 42be 3233 ac3d f6be 613e daef 63be
000000d0: 4ceb 6cbd 5009 4e3e a344 87be b10f 53be
000000e0: 37db a03e 1de1 cabd b457 27be 363b 67be
000000f0: 9145 9d3e 8c82 ac3d 37bf 1cbe d962 30be
00000100: e685 54be c404 35be a66d 18be c52d edbc
00000110: ad1b c5be f10a fc3d fd21 eb3d 6e7a 19be
00000120: 3794 12be 3df3 99bd bde1 d73d 1bbb 1f3f
00000130: 2b38 cb3e b65f 0d3e d499 34bd c273 943d
00000140: 3786 e23d 1cd1 debc 7909 483e 8f9e 873e
00000150: b18e 2c3e 1ec5 083e 024d 13be bb89 bcbc
00000160: 2491 06be 5927 913e 8b0f 52bd c55e 133e
00000170: 43c6 0bbe 0b0a 7b3c caab 13bd c6bc 533e
00000180: 5d09 9ebd 4005 2c3e 1b72 703e f347 7e3d
00000190: 6c41 023e 0a18 a93e 6f08 53bd 4c0d 0bbe
000001a0: cf69 703e 5e82 51be 1e7e b73d 2e8c d53d
000001b0: d71a 84be b50d bcbd 4f92 37be 6db0 22bd
000001c0: c323 843d f076 15be 10ee 7a3d a2cb a9be
000001d0: e5af f9bd cb51 84be 18e5 0abe ebb3 ee3d
000001e0: 8621 043e 7988 803e 2475 a63d 69e9 9d3e
000001f0: bf95 0abb 37d6 0d3d a3fb eabd 283c 863e
00000200: e12f fd3d b2d0 e03d 30bc 793e 7ae6 773e
00000210: 984a bcbd e7ad 373e 8177 75be a847 943e
00000220: cb2f 34bd 299b 39be a016 213e 71e3 3ebe
00000230: 1502 86bd ac44 40be 7228 edbd f62b 6d3e
00000240: b8d2 853e 40b9 3b3e e5cb 8ebd 763e a13e
00000250: 98ad c4bd c37a 35be 74e6 993a ad1c 5d3d
00000260: 3b00 cb3d 5c7f 8ebe bdf4 c5bd 5f76 d13b
00000270: e30d 01bd dc60 58be 535d e1bc d249 66be
00000280: bc61 bc3e 4893 c03d 51cf 523e 6fec 4f3d
00000290: e053 cabe e130 8d3e f012 d33d ba64 903c
000002a0: efe2 6e3d da5c 0f3e 1d01 b4be f3f7 573d
000002b0: 146c f43e a735 56bc 3e73 853e dd31 b43e
000002c0: 8ff5 763d 1eae c43e d564 ed3d 33f4 32be
000002d0: 5dc5 3f3e d531 1b3e 664d 76be e41b 5d3e
000002e0: 7be1 db3e 0cbf 6bbd b794 86be a2c6 6b3e
000002f0: 3240 823e 2262 203e 3e8d 6ebe a833 4d3e
00000300: 9502 c33d d5da 433c c33d 0bbe c14d 76be
00000310: 66b9 3f3e ee83 c63d 7c8b 3d3e 8663 d0be
00000320: b374 67be ff83 8a3d f74f 3dbe 7df0 a93e
00000330: e140 843c 66fe 29be 32f2 973d ed00 bfbd
00000340: 9cc7 45be 2958 3a3e 6b2a 25be 88b7 3d3e
00000350: c5b6 3ebe 233e adbb bbb0 0cbd 92f6 62be
00000360: be58 44be 3167 a13e 9fc4 433e 3c10 843d
00000370: 2c48 503e 7c08 353e 99c9 41bd 5f1f 473d
00000380: 9556 923e 93e4 b0be 3df9 0c3d 0235 533d
00000390: dd45 4b3d 3c25 7a3e daed 0bbe b960 463e
000003a0: 4aed 1a3d 7836 70be d40c 4fbd 6185 d03d
000003b0: bee4 74be ae88 a1be 01e7 f93c d21a 3f3d
000003c0: 129a c83d d498 3dbe 6c24 ea3d 4292 eebd
000003d0: f282 523d aee2 19bd 38d5 95be 1096 b83c
000003e0: d459 2fbe 3f3f 433e 52c2 30be fcba 883e
000003f0: 14cf a43e 9475 933e 93e8 af3e 1cf5 ce3e

rnn.weight_hh_l0 f4 [16, 16]
0.4690282 0.0712249 1.0237148 0.2589911 0.51931465 -0.37465742 0.28665635 0.015208756
-0.07915924 -0.074612126 0.4431134 -1.4096731 0.7220383 0.2457189 -0.014342484 -0.05829268
0.074012846 0.24584736 0.6840182 0.25321564 -0.014469002 -0.3768811 0.44304663 0.7276534
0.08288363 0.17236394 -0.18564379 0.18064968 -0.12703185 -0.24876484 0.07237653 -0.12021618
0.10089863 0.15935422 1.3941313 0.03369631 -0.37060496 -0.53601897 0.488099 0.30959177
-0.25059134 -0.5170534 -0.07513854 -1.7570312 -0.48943698 0.6576801 -0.6066247 0.8759307
-0.07667955 -0.04139609 -0.22657305 0.6258492 0.3704046 -0.03803723 -1.154358 -0.44704428
0.2743955 0.7921572 0.045211423 -0.5213941 -1.4451778 -0.16663331 -0.7506971 1.0670655
-0.62820977 -0.45695475 -0.6497237 0.45560583 0.76147425 0.044002715 -0.8098955 0.3935617
-0.51990706 0.5440414 -0.329157 0.3373445 0.7351715 0.09643703 0.7560241 -1.2863058
-0.31139687 0.41072726 -0.17008182 -0.6098767 0.18124247 0.09559205 0.818378 -0.41735834
-0.102168 -0.72157145 -0.23240466 0.22279978 -0.012730904 0.5957319 0.9932793 -1.645262
0.84717774 -0.1411554 0.96577233 -0.60471517 -0.3283686 -0.1309913 0.19701864 0.03568167
0.11763664 -0.1539587 0.2396955 -0.40874618 -0.3630913 -0.3226778 -0.8999022 0.04096228
0.5709066 0.19603138 0.36133692 0.050289996 0.44020587 -0.34473753 0.7173286 0.8042403
-0.41307515 -0.3285824 0.5780689 -0.7979467 0.9067517 -0.0061838585 -0.4765111 1.0916846
0.67608577 0.25337136 -0.12797219 0.2712392 -0.8855635 -0.16151744 0.5671026 0.23909532
0.35002556 -0.4006416 -0.4987175 -0.44457993 -0.43011886 0.08966288 -0.21429564 1.0743364
0.78447604 1.517596 -0.3558362 -0.7368667 -0.07136469 0.8896277 0.5213519 -0.5186901
-0.2352826 -0.0075259046 -0.17637429 0.24029808 0.42096826 0.23421133 -0.5977437 -0.16814953
-0.45587766 0.3747856 0.13882309 -0.16606262 -0.20472428 0.27923748 -0.7663191 -0.40979287
0.2288318 -1.0601759 0.46863157 -0.88135666 1.2759339 0.71944433 0.2325284 -0.037942186
-0.47325706 -0.5288075 -0.17634596 -0.5037276 -0.1499023 0.33095208 0.66394544 0.08577662
-0.010567 -0.28624594 -0.7677427 1.483018 -1.236476 -0.42500624 0.9556919 0.29945785
-0.30538982 -0.52734345 -1.1399529 0.036855374 0.80946785 0.17318423 -0.4055209 0.6012308
-0.21251413 0.36188564 0.02613641 -0.6618575 1.3478626 -0.25866178 0.73890156 -0.014962491
0.545774 0.19676109 0.5475792 0.58869094 -0.43214548 0.08262575 -0.5453913 0.7030748
-0.18190597 0.08149357 -0.14923449 -0.6869455 0.52670276 0.08260807 -0.39524183 -1.1559932
0.51788616 -0.094725296 -1.3115566 -0.49743643 0.33188626 0.07330323 -0.18587707 -0.19920035
-0.07302845 0.64180636 -0.12129228 0.5847469 0.25350165 -1.085406 -0.75896925 -0.4046864
-0.7389519 -0.14232886 0.0030368732 -0.22713253 1.1927432 -0.26177335 0.16515404 0.23243481
-0.12386588 -0.5720329 -0.21099816 0.16551058 0.5248529 0.6533653 0.611701 0.36105102
00000000: 7724 f03e 5cde 913d 1609 833f 7b9a 843e
00000010: cef1 043f 19d3 bfbe 9fc4 923e 252e 793c
00000020: 3d1e a2bd 3ece 98bd c2df e23e 2b70 b4bf
00000030: 81d7 383f bc9d 7b3e bdfc 6abc 4ec4 6ebd
00000040: 0c94 973d 69bf 7b3e d11b 2f3f 7ba5 813e
00000050: 650f 6dbc 8ff6 c0be 02d7 e23e 7e47 3a3f
00000060: e5be a93d 2c80 303e 6819 3ebe 3bfc 383e
00000070: a314 02be 36bc 7ebe 253a 943d e733 f6bd
00000080: f1a3 ce3d c12d 233e e572 b23f 2405 0a3d
00000090: efbf bdbe 8a38 09bf 1de8 f93e d082 9e3e
000000a0: 824d 80be 9d5d 04bf 3ce2 99bd 66e6 e0bf
000000b0: 7c97 fabe b95d 283f c24b 1bbf ff3c 603f
000000c0: 2b0a 9dbd f28e 29bd c402 68be a737 203f
000000d0: aca5 bd3e edcc 1bbd 01c2 93bf fde2 e4be
000000e0: 917d 8c3e d0ca 4a3f 9d2f 393d 157a 05bf
000000f0: 96fb b8bf eca1 2abe af2d 40bf 9a95 883f
00000100: 5bd2 20bf f9f5 e9be 4b54 26bf 2b45 e93e
00000110: faef 423f 313c 343d 5055 4fbf eb80 c93e
00000120: a118 05bf 4c46 0b3f 4487 a8be 6bb8 ac3e
00000130: 3334 3c3f c780 c53d cc8a 413f aba5 a4bf
00000140: 696f 9fbe d84a d23e ee29 2ebe e120 1cbf
00000150: a097 393e c4c5 c33d 3881 513f feaf d5be
00000160: 753d d1bd e8b8 38bf 7dfb 6dbe a025 643e
00000170: 4895 50bc e381 183f 8d47 7e3f f297 d2bf
00000180: a4e0 583f 0b8b 10be db3c 773f 9dce 1abf
00000190: ee1f a8be 9522 06be 41bf 493e f126 123d
000001a0: 7beb f03d 59a7 1dbe bd72 753e 2e47 d1be
000001b0: 1ae7 b9be 0636 a5be fe5f 66bf 10c8 273d
000001c0: ef26 123f 73bc 483e 2701 b93e e2fc 4d3d
000001d0: aa62 e13e 7081 b0be d9a2 373f b1e2 4d3f
000001e0: 967e d3be f43b a8be 53fc 133f 3c46 4cbf
000001f0: e120 683f f7a1 cabb 43f9 f3be 52bc 8b3f
00000200: f513 2d3f e4b9 813e 240b 03be dddf 8a3e
00000210: 4ab4 62bf d464 25be a32d 113f 67d5 743e
00000220: 8d36 b33e e520 cdbe e657 ffbe fb9f e3be
00000230: 8a38 dcbe 2ca1 b73d 5170 5bbe db83 893f
00000240: 6cd3 483f 9640 c23f 2a30 b6be 4ca3 3cbf
00000250: a727 92bd a4be 633f 5177 053f e0c8 04bf
00000260: eced 70be dd9b f6bb 769b 34be b310 763e
00000270: 2789 d73e 18d5 6f3e bb05 19bf 642f 2cbe
00000280: cc68 e9be e6e3 bf3e a427 0e3e 520c 2abe
00000290: 3ea3 51be 37f8 8e3e 7d2d 44bf 5fd0 d1be
000002a0: e252 6a3e d8b3 87bf 7af0 ef3e 97a0 61bf
000002b0: cd51 a33f 812d 383f ed1b 6e3e 4469 1bbd
000002c0: c04e f2be ee5f 07bf 0994 34be 4bf4 00bf
000002d0: fd7f 19be 8d72 a93e 54f8 293f a7ab af3d
000002e0: 3621 2dbc d48e 92be c98a 44bf 89d3 bd3f
000002f0: d844 9ebf 6b9a d9be 39a8 743f 8a52 993e
00000300: 0e5c 9cbe fbff 06bf fae9 91bf a9f5 163d
00000310: 4939 4f3f 3557 313e 6fa0 cfbe 43ea 193f
00000320: 4e9d 59be 1349 b93e 061c d63c 7e6f 29bf
00000330: c386 ac3f 516f 84be a728 3d3f 3c25 75bc
00000340: d8b7 0b3f bd7b 493e 272e 0c3f 73b4 163f
00000350: 2c42 ddbe b037 a93d c49e 0bbf b6fc 333f
00000360: 8f45 3abe 1ae6 a63d edd0 18be a9db 2fbf
00000370: fed5 063f 6b2e a93d 235d cabe 96f7 93bf
00000380: 3094 043f 56ff c1bd 16e1 a7bf fdaf febe
00000390: ffec a93e 0120 963d 8f56 3ebe 2dfb 4bbe
000003a0: f18f 95bd 6c4d 243f 1668 f8bd f9b1 153f
000003b0: f8ca 813e 95ee 8abf cf4b 42bf 0e33 cfbe
000003c0: f42b 3dbf a8be 11be 4706 473b 6e95 68be
000003d0: cfab 983f 2807 86be 241e 293e 6403 6e3e
000003e0: 65ad fdbd c070 12bf e70f 58be 9b7b 293e
000003f0: c25c 063f f342 273f 7098 1c3f aedb b83e

rnn.bias_ih_l0 f4 [16]
0.2912827 -0.14249173 0.3084705 0.04092322 0.3454384 0.12754354 -0.16768968 0.031912435
-0.46033472 -0.14889592 -0.21853551 0.14166617 0.37166938 0.030491298 -0.20237362 -0.23348857
00000000: 0223 953e 5ae9 11be d8ef 9d3e 1b9f 273d
00000010: 4ddd b03e c69a 023e d8b6 2bbe 9db6 023d
00000020: feb0 ebbe 2c78 18be c6c7 5fbe f010 113e
00000030: 734b be3e e3c8 f93c 083b 4fbe a117 6fbe

rnn.bias_hh_l0 f4 [16]
0.2911132 -0.085679635 -0.021464793 0.11927806 0.43074778 -0.18787982 0.15536693 0.46047267
-0.5588414 -0.02481256 0.06576415 -0.13448685 0.18212035 -0.08888784 -0.04378409 -0.4708485
00000000: ca0c 953e ce78 afbd efd6 afbc 0e48 f43d
00000010: f98a dc3e 9163 40be 8218 1f3e 13c3 eb3e
00000020: 3b10 0fbf b643 cbbc 5baf 863d ecb6 09be
00000030: c27d 3a3e d40a b6bd f256 33bd 0e13 f1be

fc1.weight f4 [12, 16]
0.30007276 -0.5576648 0.8366423 -0.3998445 0.18315808 0.82545006 -1.1090376 0.8915406
-0.59528077 -0.8087497 0.8924957 -0.6733272 -0.9514075 0.831791 -0.37415633 0.49667516
0.91015416 1.3752688 0.9387338 1.419998 -0.32571054 -1.7604431 1.3735058 0.88761026
-0.7724901 0.7577393 -1.1942204 1.1025602 -0.06715462 -0.08422226 -1.529796 -0.33530954
0.4729019 1.3170344 0.25339007 -0.11164822 -0.39410985 0.49870995 1.7208272 -1.6131724
1.513028 1.8150091 0.8043327 -0.023807567 -1.2303333 -1.0903338 -0.51238155 -0.825947
0.5457445 1.2476434 -0.48763865 0.73415345 -0.28195128 0.44493425 -0.49080855 -0.16898777
1.9302132 1.0098016 -0.9077565 -0.2860034 -1.0005586 -1.3047751 1.1044015 1.6725396
-1.8523867 -0.33728084 0.3747533 -0.33803904 -0.6919169 -0.42481053 1.9731867 -1.8441384
2.9043515 -0.71795017 -0.6200875 -0.8278692 -0.08183452 -0.88770777 -0.43636698 1.6106031
-0.5724898 0.63147545 -0.32311702 -2.0486732 -2.3381116 0.5797512 0.07268194 -0.04497051
1.3357403 0.36654544 0.1842046 0.54121983 -2.1244574 -0.35062551 0.54746485 -0.06357157
0.5255963 -0.3312244 -0.8862267 1.8534445 0.6234807 0.4996015 -0.7788524 -0.048087645
0.08128301 -0.5563467 -0.59226745 -0.16412719 -0.7163642 0.13394108 0.3429757 -0.4166858
0.05371252 -0.102409184 -1.3237524 -0.6471233 0.9822416 0.27087533 0.29964566 -0.084897906
-0.744889 0.3746292 -0.524875 0.9218724 1.2985986 -0.27447414 0.32166523 -1.0068827
-0.32635123 -0.011626169 0.19448216 1.1362174 -1.3209289 -1.5241983 -0.67280537 0.24856508
0.4431961 -0.6831779 0.8170974 0.39557877 1.0602549 0.15707442 0.9450627 -0.6095832
1.245221 0.4858789 0.19589236 0.40390572 -1.262709 0.5318949 -0.23041272 0.10222256
0.86066943 0.8211319 0.156886 -0.9649704 -0.43307927 0.15951635 0.86508876 0.52674377
-0.6737068 0.35326248 -0.2773584 1.3886471 -1.2898865 0.38548845 0.10073917 -0.6530978
-0.32777417 1.9047784 0.11391477 -1.2440548 -2.0870297 -0.30547893 0.17089634 0.16009755
0.3123972 1.1254797 -1.2370737 0.36828205 -1.4729122 -0.66072035 0.44884643 -1.5799557
1.6763338 0.78173274 -0.85460126 0.61412525 -1.2170668 -0.56727064 0.23564787 0.9458032
00000000: 23a3 993e 1fc3 0ebf 312e 563f 6bb8 ccbe
00000010: cb8d 3b3e b250 533f f2f4 8dbf 013c 643f
00000020: 5264 18bf 380a 4fbf 997a 643f 2c5f 2cbf
00000030: 718f 73bf 41f0 543f 6b91 bfbe 354c fe3e
00000040: ddff 683f cf08 b03f dc50 703f 7fc2 b53f
00000050: 88c3 a6be 3356 e1bf 0acf af3f 6d3a 633f
00000060: e9c1 45bf 34fb 413f 37dc 98bf b120 8d3f
00000070: 5d88 89bd b87c acbd 5bd0 c3bf b1ad abbe
00000080: 3320 f23e 9594 a83f 58bc 813e d2a7 e4bd
00000090: c4c8 c9be e956 ff3e 1144 dc3f 6f7c cebf
000000a0: e7aa c13f 3852 e83f bfe8 4d3f 1608 c3bc
000000b0: 907b 9dbf 0f90 8bbf 702b 03bf 4371 53bf
000000c0: e9b5 0b3f c7b2 9f3f c6ab f9be 7bf1 3b3f
000000d0: eb5b 90be 6cce e33e 424b fbbe 210b 2dbe
000000e0: 3a11 f73f 2e41 813f bb62 68bf 0a6f 92be
000000f0: 4e12 80bf df02 a7bf 075d 8d3f c715 d63f
00000100: 021b edbf 13b0 acbe aadf bf3e 7413 adbe
00000110: 7721 31bf c480 d9be 6291 fc3f ba0c ecbf
00000120: e5e0 3940 95cb 37bf 0ebe 1ebf 3cef 53bf
00000130: db98 a7bd d140 63bf 7e6b dfbe 3e28 ce3f
00000140: b18e 12bf 60a8 213f 986f a5be 761d 03c0
00000150: 9fa3 15c0 936a 143f 45da 943d ff32 38bd
00000160: 8af9 aa3f d8ab bb3e 21a0 3c3e 628d 0a3f
00000170: 1cf7 07c0 3085 b3be a826 0c3f d031 82bd
00000180: 7b8d 063f 3f96 a9be c1df 62bf ab3d ed3f
00000190: 6e9c 1f3f c5cb ff3e df62 47bf 8df7 44bd
000001a0: b577 a63d bd6c 0ebf d79e 17bf f510 28be
000001b0: a563 37bf da27 093e 839a af3e d757 d5be
000001c0: a901 5c3d e8bb d1bd b870 a9bf dfa9 25bf
000001d0: 2f74 7b3f 2cb0 8a3e 286b 993e f4de adbd
000001e0: 0cb1 3ebf 66cf bf3e 355e 06bf d4ff 6b3f
000001f0: 7b38 a63f e087 8cbe 4eb1 a43e 88e1 80bf
00000200: 8217 a7be b07b 3ebc 5526 473e 926f 913f
00000210: 3314 a9bf ee18 c3bf f93c 2cbf d887 7e3e
00000220: 99ea e23e bfe4 2ebf 4c2d 513f 4d89 ca3e
00000230: 6fb6 873f 1ed8 203e a1ef 713f a50d 1cbf
00000240: 6763 9f3f 1fc5 f83e 0298 483e bbcc ce3e
00000250: 73a0 a1bf 442a 083f 50f1 6bbe 105a d13d
00000260: d554 5c3f b335 523f b9a6 203e 4d08 77bf
00000270: 91bc ddbe 4158 233e 7576 5d3f aed8 063f
00000280: 0d78 2cbf d2de b43e ec01 8ebe 30bf b13f
00000290: 001b a5bf be5e c53e 5750 ce3d 6b31 27bf
000002a0: 04d2 a7be c7cf f33f 264c e93d 303d 9fbf
000002b0: e591 05c0 bc67 9cbe 73ff 2e3e 9df0 233e
000002c0: 87f2 9f3e b80f 903f 6e58 9ebf 778f bc3e
000002d0: 6388 bcbf f824 29bf 33cf e53e fd3b cabf
000002e0: 1b92 d63f a31f 483f 26c7 5abf 5037 1d3f
000002f0: d8c8 9bbf a638 11bf ad4d 713e 2920 723f

fc1.bias f4 [12]
0.033492476 0.17571193 -0.6423953 -0.97836703 -0.75651735 -0.7780004 0.20133053 0.5269375
-0.2175217 -0.6012873 -1.0655622 -4.510829
00000000: 682f 093d d4ed 333e 0574 24bf 4376 7abf
00000010: 1fab 41bf 092b 47bf 9729 4e3e 60e5 063f
00000020: 02be 5ebe f7ed 19bf 5864 88bf b658 90c0
