src/main/python/saved_models/csharp_1_28_RNNClassifier1_128embs_183id_16hd_1hl_Falsebid_0.pt (torch, 105311 bytes, 7 tensors)

word_embeddings.weight f4 [183, 128]
0	0xbf8d524a	-1.1040738
1	0xbe9e9119	-0.30970076
2	0xbfa6ebd8	-1.3040724
3	0xbf998d94	-1.1996331
4	0xbd63911a	-0.0555583
5	0x3e455b70	0.19273162
6	0xbfbf7960	-1.4958916
7	0xbfcedc53	-1.6160988
8	0xbf8019d1	-1.0007879
9	0x3e2fe2f3	0.17176418
10	0xbf02ba12	-0.5106517
11	0x3dd7ce11	0.10537351
12	0xbee6592d	-0.4498991
13	0x3f7425d3	0.95370215
14	0x3e54a12c	0.20764607
15	0x3e09e394	0.1346572
16	0xbf505cb7	-0.8139147
17	0xbfb9da32	-1.4519713
18	0x3fc3d8f9	1.530059
19	0x3eabfa8b	0.33589587
20	0x3f3bb008	0.7331548
21	0xbd1341ed	-0.035951544
22	0xbf05689b	-0.5211274
23	0x3f8fccab	1.1234335
24	0x3f44928c	0.7678611
25	0x3e89911b	0.2686852
26	0xc006a220	-2.1036453
27	0xbf9bf3b5	-1.2183748
28	0xbeaa01e5	-0.3320457
29	0xbf17b8ac	-0.5926616
30	0xbf736872	-0.95081246
31	0xbf21d40c	-0.6321418
32	0x3ff3a2e3	1.9034084
33	0x3ed1ef76	0.41003007
34	0x3f5c072a	0.8594843
35	0x3ea47fea	0.3212884
36	0x3f2e6009	0.6811529
37	0x3e8fa9e5	0.28059307
38	0x3ea61259	0.32435873
39	0xbd973cc6	-0.073846385
40	0x3f08f7e5	0.5350326
41	0x3e564988	0.20926487
42	0x3e291bd3	0.1651452
43	0xbde8d497	-0.11368673
44	0x40062d72	2.0965238
45	0xbfcf2c87	-1.6185464
46	0x40211b70	2.5172997
47	0xbc1cb7a1	-0.009565265
48	0xbfbbab28	-1.4661608
49	0x3eafe8b9	0.3435724
50	0x3eca0676	0.39458054
51	0xbee742b7	-0.45168087
52	0x3fb71905	1.430451
53	0x3e40eeae	0.18841049
54	0x3fcd4387	1.6036233
55	0x4033c09f	2.8086317
56	0x3f0d137e	0.5510787
57	0x3f917407	1.1363534
58	0xbf22926c	-0.6350467
59	0x3ed7ae97	0.4212539
60	0x3f9d9d13	1.231356
61	0x3cde34fb	0.027124872
62	0xc0468725	-3.1019986
63	0xbf97e2c3	-1.1866077
64	0x3ef12aab	0.47102866
65	0xbf98c29a	-1.1934388
66	0xbf95c4e8	-1.1700716
67	0xbedd9e81	-0.4328499
68	0x3d83596c	0.0641354
69	0x3ef632d7	0.48085663
70	0x3fff9f1c	1.9970431
71	0x3ebf16d2	0.37322098
72	0xbf2c9c4f	-0.6742601
73	0x3e9a4191	0.30128148
74	0xbef8cc36	-0.485933
75	0xbee6c3bb	-0.45071205
76	0xbf41362a	-0.7547327
77	0xbe71ec46	-0.23625287
78	0x3eb55cad	0.35422269
79	0xbf4a6335	-0.7905763
80	0xbde00683	-0.10938742
81	0xbe5a6143	-0.21326165
82	0xbdfb2d11	-0.12264455
83	0x3f94c1ee	1.1621683
84	0xbfa09804	-1.2546391
85	0xbe967423	-0.2938548
86	0x3dd4a74c	0.10383472
87	0x3eb146af	0.3462424
88	0x3e8915c5	0.2677442
89	0xbf44ed42	-0.76924527
90	0xbf4ada6c	-0.79239535
91	0x3ee9ff76	0.45702714
92	0xbf699a3e	-0.9125098
93	0xbf400370	-0.75005245
94	0x3f179f0c	0.5922706
95	0x3fc51fab	1.5400289
96	0x3f96aba6	1.1771133
97	0x3f935395	1.1509882
98	0x3f34e126	0.7065605
99	0xbf01a396	-0.5064024
100	0x3fe4296c	1.7825141
101	0xbf805188	-1.0024881
102	0xbf84423e	-1.0332716
103	0x3f9af3a6	1.2105606
104	0x3fe96791	1.8234731
105	0x3f4a03da	0.78912127
106	0x3d65e0eb	0.0561227
107	0x3ef5a7f0	0.4797969
108	0xc01edf94	-2.4823961
109	0xbf45abf6	-0.77215517
110	0xbf5be205	-0.85891753
111	0xbf458247	-0.7715191
112	0x3ef7989f	0.48358628
113	0xbf929d4e	-1.1454256
114	0x3fe323e9	1.7745334
115	0x3f0883db	0.53326195
116	0xbe78f0f9	-0.24310674
117	0x3f156b59	0.58366925
118	0x3f856967	1.0422791
119	0xbf149d46	-0.5805248
120	0x3ff45354	1.908793
121	0xbce03a93	-0.02737168
122	0xbf1c5ced	-0.61079293
123	0x40098bdf	2.149162
124	0xbfe5aca6	-1.7943313
125	0x400f11c9	2.2354605
126	0xbea89ad8	-0.32930636
127	0x3ecbda18	0.3981483
128	0x3f365d86	0.71236455
129	0xbfe36497	-1.7765073
130	0x3eb52dbd	0.35386458
131	0x3f998ced	1.1996132
132	0xbe9b227a	-0.3029974
133	0xbfe18407	-1.7618417
134	0x3f22852d	0.6348446
135	0xbf4dea7a	-0.8043591
136	0xbfce38e9	-1.6111118
137	0xbfef9103	-1.8716129
138	0x3f0b0787	0.5430836
139	0x3f29223c	0.6606786
140	0x4012e4bf	2.2952116
141	0x3f2cc6a3	0.67490596
142	0x3fdb4e1f	1.7133216
143	0xbfe5aac0	-1.7942734
144	0xbfae7f8a	-1.3632672
145	0xbf7bb448	-0.9832196
146	0x3fc17130	1.5112667
147	0x3f2451a4	0.64187074
148	0x3ef22850	0.4729638
149	0xbedb7029	-0.4285901
150	0x3f0d26a2	0.55137074
151	0xbfc61040	-1.5473709
152	0x3f04a2ff	0.5181121
153	0x3dda2f35	0.10653535
154	0x3e89d9ed	0.26924077
155	0x3fa991ff	1.324768
156	0x3fdf7d8e	1.7460191
157	0x3fed6fa0	1.854969
158	0xbf34d49b	-0.7063691
159	0x4023a74d	2.5570862
160	0x3ed5c70e	0.4175343
161	0xbe59d2e8	-0.2127186
162	0xbf57077d	-0.839958
163	0xbed70c95	-0.42001787
164	0xbf1fc0d8	-0.6240363
165	0xbf7a3014	-0.9772961
166	0x3f5ff5b3	0.8748428
167	0x3f7cbe79	0.9872814
168	0x3e9e80ca	0.30957633
169	0x3fc2a5f8	1.52069
170	0x3f9a451b	1.2052339
171	0xbfe86549	-1.815591
172	0xbece9283	-0.40346155
173	0xbf758a8a	-0.9591452
174	0xbbaaa563	-0.005207704
175	0xbda182ff	-0.07886314
176	0x3f57f9ba	0.8436543
177	0x3f9535b3	1.1657013
178	0x3f06e507	0.5269322
179	0x3fcf43b1	1.6192533
180	0xbf76c726	-0.96397626
181	0x3e10eab8	0.14152038
182	0xbe2796bd	-0.16366096
183	0xbeb768f3	-0.35822257
184	0x3fdc73a6	1.7222793
185	0xbe9b6e43	-0.3035756
186	0x3e749b70	0.2388742
187	0x3fac083b	1.3440012
188	0x3dd367fe	0.10322569
189	0x3f8cd868	1.1003542
190	0xbeaef0b5	-0.3416802
191	0x3f7284cd	0.9473389
192	0xbf118a43	-0.56851596
193	0x3f566cb4	0.8375962
194	0x3fe44efe	1.7836607
195	0xbe481d67	-0.19542466
196	0x3f03d18b	0.5149161
197	0xbfec7a25	-1.8474776
198	0xc03aabe9	-2.9167426
199	0xbf113c88	-0.5673299
200	0xbf0a9157	-0.5412802
201	0x3f652a20	0.895174
202	0xbf61ebfb	-0.882507
203	0x3f0824c8	0.53181124
204	0xbfc5dc07	-1.5457772
205	0xbe317582	-0.17329982
206	0x3f3a6e5a	0.72824633
207	0x3d69b8d1	0.05706102
208	0x3f67cffa	0.9055172
209	0x3f85ecfd	1.0462948
210	0xbf0545d8	-0.520597
211	0x3fad698e	1.3547838
212	0x3e70d678	0.23519313
213	0x3ff505ed	1.9142433
214	0x3feb0f85	1.8364111
215	0x3fa98a47	1.3245324
216	0xbf7810fc	-0.96900916
217	0x3fa0359f	1.2516364
218	0x3f9aebe7	1.2103242
219	0xbf0725ce	-0.5279206
220	0x3e5fcfce	0.21856615
221	0xbf1305cd	-0.57430726
222	0x3fba8313	1.4571251
223	0x3fe2aead	1.7709557
224	0x3fd33060	1.6499138
225	0xbedd2fb4	-0.43200457
226	0xbe8ac40a	-0.2710269
227	0xbfb8367b	-1.4391626
228	0x3f9f9f05	1.2470404
229	0x3fa30d8e	1.2738512
230	0x3ec82a80	0.39094925
231	0x3ec64074	0.3872105
232	0xbda37d3d	-0.07982872
233	0x3eaef67d	0.3417243
234	0x3f72e659	0.9488273
235	0xbfb124d0	-1.3839359
236	0x3fdcaedc	1.7240863
237	0xc0175850	-2.3647652
238	0xbf6df31e	-0.9294909
239	0x3e96560e	0.2936253
240	0x3e5c4b92	0.21513203
241	0x3f703f28	0.9384637
242	0x3fbb9c4f	1.4657077
243	0xbf0e751b	-0.5564744
244	0xbf3eade3	-0.7448408
245	0xbe4f024d	-0.20215721
246	0xbe6b2e10	-0.2296679
247	0x3aae803e	0.0013313366
248	0x3ec0242a	0.3752759
249	0xbf14c0de	-0.5810679
250	0xbf1282d5	-0.57230884
251	0x3f813e6c	1.0097175
252	0xbdd85eb5	-0.10564939
253	0xbf970047	-1.179696
254	0xbdb9eaa7	-0.090779595
255	0x3f102843	0.56311435

rnn.weight_ih_l0 f4 [16, 128]
0	0xbe11539b	-0.14192049
1	0xbe4373b0	-0.190871
2	0x3eabe0d3	0.33569965
3	0xbe40743c	-0.1879434
4	0xbdc87616	-0.09788148
5	0xbe8963f0	-0.2683406
6	0x3e1c5828	0.15268004
7	0x3dc3493e	0.09535454
8	0x3c9ef2f7	0.019402964
9	0xbdab8d6d	-0.08376584
10	0xbe07426b	-0.1320893
11	0xbe05ab43	-0.13053612
12	0xbe633a2c	-0.2219016
13	0xbd198dd4	-0.037488773
14	0xbe8e05c0	-0.27738762
15	0xbdf32c62	-0.118737
16	0x3e0d1263	0.13776545
17	0xbe19a0fa	-0.15002814
18	0x3d94d465	0.072670735
19	0x3e13f0cd	0.14447327
20	0x3da9cbf8	0.08290857
21	0x3e74356c	0.23848504
22	0xbddc797c	-0.10765359
23	0x3dd46d5a	0.1037242
24	0x3e554efd	0.20830913
25	0xbe15740d	-0.14595051
26	0xbe59409f	-0.21216057
27	0xbc73486c	-0.01484881
28	0x3daacf7b	0.08340355
29	0xbcec2502	-0.02882624
30	0x3ea25a5f	0.31709573
31	0x3ebfb66e	0.3744387
32	0xbe36caba	-0.17850772
33	0xbe735684	-0.23763472
34	0xbe8f76b7	-0.2802026
35	0xbc86c156	-0.016449612
36	0xbe8c9c9a	-0.27463228
37	0xbe4712b8	-0.19440734
38	0xbe8268de	-0.25470632
39	0xbcc49da6	-0.024000954
40	0xbe86c57b	-0.2632254
41	0xbd1e0532	-0.038579173
42	0xbd833be4	-0.064079076
43	0xbdfeec14	-0.12447372
44	0x3c8b64b4	0.017015792
45	0x3e6bff4e	0.2304661
46	0x3d8e0840	0.06935167
47	0xbe67f3dc	-0.22651619
48	0x3e250177	0.1611384
49	0xbd1e916d	-0.038712908
50	0x3d714f13	0.0589133
51	0xbd28c533	-0.04120369
52	0xbe5b7f83	-0.2143536
53	0x3e45acd7	0.19304214
54	0xbd07588b	-0.033043426
55	0x3dc5bcf2	0.09655179
56	0xbe9c8b30	-0.30574942
57	0xbe95bc28	-0.29245114
58	0x3e64b932	0.22336271
59	0xbc801b06	-0.015637886
60	0x3b93190f	0.004489071
61	0xbe248e5d	-0.16069932
62	0xbdea587a	-0.11442657
63	0x3bf20954	0.007386366
64	0x3e43bc4f	0.19114803
65	0x3e186cfc	0.14885324
66	0x3dc66a1d	0.09688208
67	0xbd69c875	-0.057075936
68	0x3d9dac59	0.07698888
69	0xbddc3dbe	-0.10753964
70	0xbe096f3f	-0.13421343
71	0x3e15dffe	0.14636227
72	0x3ea1aeb5	0.31578603
73	0x3e483cf5	0.19554503
74	0xbe7280ee	-0.23681995
75	0xbe47100e	-0.19439718
76	0x3ea70278	0.3261907
77	0x3d6f9420	0.058490872
78	0xbe788c4d	-0.2427227
79	0xbd8695e7	-0.0657156
80	0xbdf4a769	-0.119459935
81	0xbdfc8653	-0.12330308
82	0x3de9832c	0.11401972
83	0xbe378c8c	-0.17924708
84	0x3cca103a	0.02466594
85	0xbdde16e5	-0.108442105
86	0xbc2e1fa7	-0.010627664
87	0xbe80d249	-0.25160435
88	0xbddee906	-0.108842894
89	0x3e2b97ce	0.16757128
90	0xbb82e4f8	-0.0039945804
91	0x3e6132a6	0.21991977
92	0xbe1fb27d	-0.15595432
93	0x3e281d3c	0.16417402
94	0x3e8844bf	0.2661495
95	0xbca0f275	-0.019646863
96	0xbe745721	-0.23861362
97	0x3e2f58f0	0.1712377
98	0xbd77c4f2	-0.060490556
99	0xbe05c40d	-0.13063069
100	0xbe6058cb	-0.21908872
101	0x3e932126	0.28736228
102	0xbe5e04c8	-0.21681511
103	0xbd339022	-0.043838628
104	0xbe24b9a3	-0.1608644
105	0x3cbf96c0	0.023387313
106	0xbd936d07	-0.0719853
107	0xbe66d5ec	-0.22542542
108	0x3ecb02f7	0.396507
109	0xbdfcbe95	-0.12341038
110	0xbd46e065	-0.048553843
111	0xbd6821a4	-0.056672707
112	0x3e1db934	0.1540268
113	0x3e2dbfbf	0.16967677
114	0xbd92fca0	-0.07177091
115	0x3da53783	0.08067229
116	0x3ad39f6a	0.0016145532
117	0x3d076573	0.033055734
118	0xbd9c72b6	-0.07639067
119	0x3ca5469f	0.020175276
120	0x3e15c17a	0.14624587
121	0x3b25b6dd	0.0025285997
122	0x3e82b60e	0.25529522
123	0x3deedfa2	0.11663748
124	0x3d946d89	0.07247455
125	0xbdfbd97a	-0.1229734
126	0x3e1fb38f	0.1559584
127	0x3e0a4566	0.13503036
128	0x3e840273	0.2578312
129	0x3e10726d	0.1410615
130	0xbdc194dd	-0.094522215
131	0xbd564873	-0.052315187
132	0xbe6b060a	-0.22951522
133	0xbd26bf4a	-0.04070977
134	0xbe9cf7c6	-0.30657786
135	0xbeaf4308	-0.34230828
136	0x3dc4671b	0.09589978
137	0xbe76cfe1	-0.24102737
138	0x3c39630a	0.011315117
139	0x3cab226e	0.02089044
140	0xbe875811	-0.26434377
141	0x3e4736d4	0.19454509
142	0x3e6ff7e6	0.2343441
143	0x3ec0f96c	0.37690294
144	0x3da47f22	0.08032061
145	0x3e24e579	0.16103162
146	0xbe23bd77	-0.15990244
147	0x3e2195e8	0.15779841
148	0xbda002f6	-0.07813065
149	0xbe4dd1fe	-0.20099637
150	0x3c7bc462	0.0153666455
151	0x3da04f54	0.07827631
152	0xbe834705	-0.2564012
153	0x3e207f21	0.15673496
154	0xbdfc5961	-0.12321735
155	0x3d828c3c	0.06374404
156	0x3c8416f7	0.016124232
157	0x3e3dae5d	0.18523546
158	0x3e881ad1	0.2658296
159	0xbe0564ab	-0.13026683
160	0x3ce90572	0.02844498
161	0x3d839a25	0.06425885
162	0x3e576113	0.21033125
163	0x3cbca378	0.023027167
164	0x3dccb38a	0.09995182
165	0x3e47f23b	0.19525997
166	0xbe5721fa	-0.21009055
167	0x3e978ef7	0.2960126
168	0xbbe16f27	-0.0068797055
169	0xbea9a748	-0.33135438
170	0x3e083f79	0.13305463
171	0xbe0e82b9	-0.13917054
172	0xbe48ea81	-0.19620706
173	0xbd909abf	-0.070607655
174	0x3d780722	0.060553677
175	0x3e94455c	0.28959167
176	0x3e2adc95	0.16685708
177	0x3dee6caf	0.116418235
178	0xbe55e45b	-0.20887892
179	0xbde0a989	-0.10969836
180	0x3e16b26b	0.14716499
181	0xbe72a5ce	-0.23696062
182	0x3e8f89d4	0.28034842
183	0xbd386305	-0.045016307
184	0xbd337882	-0.043816097
185	0xbdceb150	-0.100924134
186	0x3d89544b	0.06705531
187	0xbe3cca3c	-0.18436521
188	0x3e2f42f3	0.17115383
189	0xbe270007	-0.16308604
190	0x3df0edd5	0.11764113
191	0x3d825ca3	0.06365325
192	0x3dee7c4c	0.116448015
193	0x3d6dd7c5	0.058067102
194	0xbcbf497b	-0.023350468
195	0x3e800304	0.250023
196	0xbd2ed3ee	-0.04268258
197	0x3ce55347	0.027993811
198	0xbe7c1cfa	-0.24620429
199	0x3d9f8f4c	0.077910036
200	0xbc384007	-0.011245734
201	0x3dacd45d	0.084389426
202	0xbe4389df	-0.19095562
203	0xbea1d3e1	-0.31606963
204	0x3e887124	0.2664882
205	0xbeb3d768	-0.3512528
206	0x3e23bc13	0.15989713
207	0x3e152969	0.14566578
208	0x3d769351	0.060199086
209	0xbe68a7cd	-0.22720261
210	0x3d1b8be3	0.037975203
211	0xbe04d69d	-0.12972493
212	0xbe267054	-0.16253787
213	0xbd667b6b	-0.056270044
214	0x3eb1a201	0.34693912
215	0xbc97153a	-0.018442739
216	0xbdd356c9	-0.10319287
217	0xbeb3d3d6	-0.35122555
218	0xbce79512	-0.028269324
219	0x3e1e1aa3	0.15439849
220	0x3eae636d	0.3406023
221	0xbcb72d6c	-0.022360526
222	0x3e96cb9a	0.2945221
223	0xbe8e532e	-0.27797836
224	0x3e78d22f	0.24298929
225	0x3c4f273e	0.012643633
226	0x3d71d5e0	0.059041858
227	0x3e72a871	0.23697068
228	0xbd2d16f2	-0.04225821
229	0xbe15b8be	-0.14621255
230	0x3e84b508	0.25919366
231	0xbe53d221	-0.20685627
232	0xbdfba442	-0.12287189
233	0xbe3e1f0c	-0.18566531
234	0x3d5c4fb8	0.053786963
235	0xbd98b5d5	-0.07456557
236	0xbe46556a	-0.1936852
237	0xbe21060f	-0.15724967
238	0xbd3782ee	-0.0448026
239	0x3cea72cf	0.028619198
240	0x3e5b67f8	0.2142638
241	0xbdac1b78	-0.08403677
242	0x3e9c712b	0.3055509
243	0xbda1bb1e	-0.07897018
244	0x3b9eb454	0.004843274
245	0x3de0dd6f	0.10979735
246	0x3b901a7e	0.0043976894
247	0x3d719b2b	0.05898587
248	0x3e29739c	0.16548008
249	0x3e0a996d	0.1353509
250	0x3daf8b5d	0.08571503
251	0x3e01c1d3	0.12671594
252	0x3d7f4efd	0.06233119
253	0xbd944db3	-0.072413824
254	0xbe80f0ee	-0.25183815
255	0x3e035b04	0.12827688

rnn.weight_hh_l0 f4 [16, 16]
0	0xbe2fae60	-0.17156363
1	0xbfae4cfb	-1.3617243
2	0xbfa11f53	-1.2587684
3	0x3d08fd36	0.033444606
4	0xbeaa1f5e	-0.33227056
5	0x3e28d735	0.16488345
6	0x3f00d2d4	0.503217
7	0xbe07fcd2	-0.13280037
8	0x3e73e84b	0.23819081
9	0x3f1de304	0.61674523
10	0xbdb7ed05	-0.08980755
11	0xbeda8817	-0.42681953
12	0xbe380fa0	-0.1797471
13	0x3e205c60	0.15660238
14	0x3e837597	0.2567565
15	0xbedbcafe	-0.42928308
16	0xbee732e6	-0.4515602
17	0xbe39df06	-0.18151483
18	0x3f229d0b	0.6352088
19	0x3ebf5778	0.3737142
20	0x3d68d6e7	0.05684557
21	0xbd84121d	-0.06448767
22	0x3f198140	0.59962845
23	0x3ecff0c2	0.4061337
24	0x3f97c05e	1.1855581
25	0x3f43ab73	0.76433486
26	0xbf811904	-1.0085759
27	0x3df77c87	0.120842986
28	0xbf0dda3f	-0.5541114
29	0x3d81c6c4	0.0633674
30	0x3e9a83fd	0.30178824
31	0xbdbd6952	-0.09248604
32	0xbf658e7a	-0.89670527
33	0x3f00c85f	0.5030574
34	0xbe46716d	-0.19379206
35	0x3d73de00	0.059537888
36	0xbb5d69be	-0.003378495
37	0x3f01119c	0.50417495
38	0xbf15a65d	-0.58456975
39	0xbd7332c4	-0.059374586
40	0x3ef7da65	0.4840881
41	0xbfbe0897	-1.4846371
42	0x3d7b1885	0.06130268
43	0x3eb540bb	0.35400948
44	0x3f299fa5	0.66259223
45	0x3f1c7b40	0.61125565
46	0x3ec1c789	0.37847546
47	0xbf32ccc1	-0.6984368
48	0xbe88f51c	-0.26749504
49	0xbe4b8504	-0.1987496
50	0x3cd0b772	0.025478099
51	0x3e96596e	0.29365104
52	0x3d23001c	0.039795026
53	0xbf7301df	-0.9492473
54	0x3f2bc695	0.6709989
55	0xbe95c5c0	-0.29252434
56	0x3f31b047	0.694096
57	0x3e8df426	0.27725333
58	0xbe1cb96a	-0.15305105
59	0xbe581a5a	-0.21103802
60	0x3e3520f5	0.17688353
61	0xbd8d3f53	-0.06896844
62	0x3e2b050c	0.16701144
63	0xbf480f36	-0.7814821
64	0x3e3933a7	0.1808611
65	0xbdf27f23	-0.11840656
66	0xbd412865	-0.047157664
67	0xbf6c998c	-0.92421794
68	0x3e4e40bd	0.20141883
69	0x3f7db0df	0.9909801
70	0xbf14af3a	-0.58079875
71	0x3f00136f	0.50029653
72	0xbf514353	-0.81743354
73	0xbe01c30a	-0.12672058
74	0x3f7940ee	0.973647
75	0x3e6a352b	0.22871844
76	0x3e8cf891	0.2753339
77	0x3ef03c28	0.46920896
78	0xbee0dc14	-0.43917906
79	0x3f09e4aa	0.5386454
80	0x3c9fe89f	0.019520102
81	0xbf04d949	-0.5189405
82	0xbe77ba5d	-0.24192186
83	0x3e831397	0.25600883
84	0x3f925175	1.1431109
85	0xbd120c09	-0.03565601
86	0xbf184748	-0.59483767
87	0xbd527600	-0.051382065
88	0x3e844646	0.25834864
89	0x3f48816f	0.783225
90	0x3cec27f3	0.028827643
91	0x3fb75ebb	1.4325784
92	0xbebe5fb0	-0.3718238
93	0x3e13a807	0.14419566
94	0x3e9183d3	0.28420886
95	0xbec6fdec	-0.38865602
96	0xbcdcfe6b	-0.026976785
97	0xbd1b948b	-0.03798346
98	0x3dc3d09f	0.09561276
99	0xbe86d81c	-0.26336753
100	0xbfcea472	-1.6143935
101	0x3e5c9a3c	0.2154321
102	0x3e2d2de2	0.16912034
103	0x3d82d30f	0.063879125
104	0xbea6259c	-0.3245057
105	0xbf0bffc5	-0.5468715
106	0xbe554fcd	-0.20831223
107	0xbf623f67	-0.88377994
108	0x3db82e10	0.08993161
109	0x3e543e8d	0.20726986
110	0x3ded6901	0.115922935
111	0x3ecc1b39	0.3986452
112	0x3e097dd8	0.13426912
113	0xbeeb49fc	-0.45954883
114	0xbf9b8f04	-1.215302
115	0xbe9d8459	-0.30765036
116	0x3ec3b314	0.38222563
117	0x3e234aee	0.15946552
118	0x3dd76615	0.105175175
119	0x3da598a1	0.08085752
120	0xbdba8a64	-0.09108427
121	0xbdc050ec	-0.093904346
122	0x3e8118e0	0.2521429
123	0x3f1c13cc	0.6096771
124	0x3e947add	0.28999987
125	0x3e4bc71a	0.1990017
126	0xbd85ee72	-0.065396205
127	0xbe970d56	-0.29502362
128	0x3d8a8b5d	0.06764863
129	0x3d98b255	0.07455889
130	0x3f5d9d56	0.865682
131	0xbe074916	-0.13211474
132	0xbf7763d8	-0.96636724
133	0x3e1bfed8	0.15233934
134	0xbdb12fc1	-0.086516865
135	0x3e5ce0eb	0.21570174
136	0x3e2e884f	0.17044185
137	0xbf29063d	-0.66025144
138	0x3d781e7e	0.060575955
139	0xbfa381e9	-1.277402
140	0x3d895f7e	0.06707667
141	0x3e9a098e	0.30085415
142	0xbdd439af	-0.10362565
143	0x3f2363fb	0.63824433
144	0x3e9c5c2b	0.3053907
145	0xbe796973	-0.24356632
146	0xbea06a3a	-0.31331044
147	0x3e47f8ae	0.19528458
148	0x3cb5e9c4	0.022206195
149	0x3f29037e	0.66020954
150	0xbe95d4dd	-0.29263964
151	0x3e368e99	0.17827834
152	0xbe957800	-0.29193115
153	0x3fc54e92	1.5414603
154	0xbc89a893	-0.016804015
155	0x3ea7709e	0.32703108
156	0xbecb31c3	-0.39686403
157	0x3ec20733	0.37896118
158	0xbeb35703	-0.35027322
159	0x3e8eaed8	0.2786777
160	0x3e08b542	0.13350394
161	0xbe7aa657	-0.24477516
162	0x3d2a018e	0.04150539
163	0xbcc35505	-0.023844251
164	0x3fdd2d72	1.7279494
165	0x3df6e1d6	0.120547935
166	0xbf2bb31b	-0.6707017
167	0xbddcbe78	-0.107785165
168	0x3e179c95	0.14805825
169	0x3f1cb367	0.61211246
170	0xbd94bb7e	-0.07262324
171	0x3f270221	0.65237623
172	0xbe844348	-0.25832582
173	0xbe62df8e	-0.22155592
174	0x3ec91e4c	0.39280927
175	0xbe9bdfd5	-0.30444208
176	0x3c2a7ea0	0.010406166
177	0x3d26f9ef	0.0407657
178	0x3eca9fe2	0.39575106
179	0xbf0f37e4	-0.5594466
180	0x3cf59ebc	0.029982917
181	0x3f8daa46	1.1067588
182	0xbf53f143	-0.8279001
183	0x3ebaa8f3	0.36457023
184	0xbf3a791d	-0.72841054
185	0x3f099467	0.5374207
186	0x3f7cfa1d	0.9881914
187	0xbd5e3385	-0.05424835
188	0xbd83cafa	-0.06435199
189	0x3e5d002a	0.21582094
190	0x3ebd7d26	0.37009543
191	0x3f51ee6a	0.82004416
192	0xbe2affb3	-0.16699104
193	0x3ddcb66e	0.10776983
194	0xbddba0d0	-0.10724032
195	0x3dbb8fac	0.091582626
196	0xbe9b70c9	-0.30359486
197	0xbe00ba39	-0.12571038
198	0x3e6b8337	0.22999273
199	0xbc21b763	-0.009870383
200	0x3ee85f0e	0.4538502
201	0xbf26c4c9	-0.6514402
202	0xbe6536f4	-0.22384244
203	0x3d6b542f	0.05745333
204	0x3dabbf9b	0.08386155
205	0xbe7f2636	-0.2491692
206	0x3efb2eb6	0.49059075
207	0xbf36ce6d	-0.7140873
208	0x3dbf04c7	0.09327083
209	0xbe388efa	-0.18023291
210	0xbd042a7b	-0.032267075
211	0xbe0bfe65	-0.13671263
212	0x3e134864	0.14383084
213	0x3e6a9196	0.22907099
214	0xbe23b231	-0.15985943
215	0x3e37eef5	0.17962249
216	0x3d06cf6c	0.032912657
217	0x3ea7253e	0.326456
218	0xbd922314	-0.07135597
219	0x3de736ee	0.11289774
220	0x3e478107	0.19482814
221	0xbc69d40a	-0.014271745
222	0xbd564d81	-0.052320007
223	0x3df7cee3	0.121000074
224	0xbc8a76c3	-0.016902333
225	0x3fbf4805	1.4943854
226	0x3f990b4e	1.1956575
227	0xbe785944	-0.24252802
228	0xbf3c7dba	-0.73629344
229	0x3d681762	0.056662925
230	0xbeadb7a7	-0.33929178
231	0x3e3e8221	0.18604328
232	0xbe8de404	-0.27713025
233	0x3d2632da	0.04057584
234	0x3e8df356	0.27724713
235	0xbd640c18	-0.055675596
236	0x3d9779e4	0.07396296
237	0x3e3bfeef	0.18358968
238	0xbe0eedb3	-0.13957863
239	0x3ef5796e	0.47944206
240	0x3f04e999	0.5191894
241	0xbf101668	-0.5628419
242	0xbe66b159	-0.2252859
243	0xbea1a47e	-0.3157081
244	0xbea29bf6	-0.31759614
245	0xbba008d4	-0.004883865
246	0x3e6385d9	0.22219028
247	0xbd22a9b2	-0.039712615
248	0x3e653d3c	0.2238664
249	0xbf0bfd72	-0.546836
250	0x3cd030a1	0.025413813
251	0x3f2acc87	0.66718334
252	0x3eca3b15	0.394982
253	0x3e744db7	0.23857771
254	0xbe9b7682	-0.30363852
255	0x3e425985	0.18979461

rnn.bias_ih_l0 f4 [16]
0	0xbd9ee465	-0.077584065
1	0xbdb1cc0c	-0.08681497
2	0x3dff2539	0.124582715
3	0x3dc03ecd	0.09386978
4	0xbdb887fd	-0.09010313
5	0x3d8a91f4	0.067661196
6	0xbe78edaf	-0.24309419
7	0x3d20e5d2	0.039281674
8	0x3e8f977d	0.28045264
9	0xbe273103	-0.1632729
10	0xbc4a9f59	-0.012367093
11	0xbe6ff568	-0.23433459
12	0x3de32015	0.110901035
13	0xbe189faa	-0.14904657
14	0x3dd19c7a	0.10234924
15	0xbe918c9e	-0.28427595

rnn.bias_hh_l0 f4 [16]
0	0xbe88b8e9	-0.26703575
1	0x3e9c32e3	0.30507573
2	0xbba7ee36	-0.0051248325
3	0x3e8fb74c	0.28069532
4	0x3d2bfe32	0.041990466
5	0xbe2d8f47	-0.16949187
6	0xbe5f7027	-0.21820126
7	0xbe8a6e8f	-0.27037475
8	0x3d782796	0.060584627
9	0xbdafcee6	-0.085843846
10	0xbdca7594	-0.098857075
11	0xbd93eb09	-0.07222564
12	0x3e03aaec	0.1285817
13	0xbe5480b3	-0.2075222
14	0xbe5ee2a0	-0.21766138
15	0xbef4b239	-0.47792223

fc1.weight f4 [8, 16]
0	0xbfa31716	-1.274142
1	0x3e83880a	0.25689727
2	0x3f19d3bd	0.6008871
3	0x3f0078c5	0.5018428
4	0xbeb011de	-0.34388632
5	0xbed2d32c	-0.41176736
6	0x3e65ee4a	0.22454181
7	0xbf0c3750	-0.547719
8	0x3f087df9	0.5331722
9	0x3f234875	0.63782436
10	0xbf416490	-0.7554407
11	0xbe9975dd	-0.29972735
12	0xbf3e68e1	-0.7437878
13	0xbed4f709	-0.41594723
14	0x3fa4ad19	1.2865325
15	0xbf044a79	-0.51676136
16	0x3fa7e981	1.3118135
17	0x3f295e65	0.6615966
18	0xbff89f6c	-1.9423652
19	0x3d3f79d0	0.04674703
20	0xbf258313	-0.6465313
21	0x3f8516b4	1.0397553
22	0x3efdd3b6	0.49575585
23	0xbefb7aca	-0.49117118
24	0xbf730748	-0.94932985
25	0xbfe44376	-1.7833087
26	0x4005a2fa	2.0880723
27	0xbe88bc14	-0.26705992
28	0x4029537d	2.6457207
29	0xbf938a58	-1.1526594
30	0xbfa9bf3c	-1.3261485
31	0xbfd65680	-1.6745148
32	0x4032e989	2.7955039
33	0xc01d08be	-2.4536586
34	0x3e6c2d58	0.23064172
35	0xc00acd7c	-2.1687918
36	0x3fc12438	1.5089178
37	0xbfa2a1df	-1.2705649
38	0xbfd8f966	-1.695111
39	0x3ee32ab4	0.44368517
40	0xbffb68a4	-1.9641309
41	0xbfcf8505	-1.6212469
42	0xbfacd31c	-1.3501925
43	0x3ef4f4c8	0.47843003
44	0x3f7f3c08	0.99700975
45	0x4039bc7b	2.902129
46	0x3fa765d0	1.3077946
47	0xbe38662b	-0.18007724
48	0x3d4b3466	0.049610518
49	0xbf05b4ac	-0.5222881
50	0xbfcf6d9b	-1.6205324
51	0xbfa4d59c	-1.2877688
52	0x3ec91ae8	0.3927834
53	0xbf626be0	-0.88445854
54	0xbfe50ce6	-1.7894561
55	0xbe393b65	-0.18089063
56	0x3fa6c616	1.3029201
57	0x3f684f2c	0.90745807
58	0x3f01ace5	0.5065444
59	0x3fb51782	1.4147799
60	0x3ffba4d8	1.9659681
61	0x3fde7c42	1.738167
62	0xbffdfe34	-1.9843202
63	0x3faabd20	1.3338966
64	0x3ee92ee4	0.45543587
65	0xc02102a0	-2.5157852
66	0xbfc4643c	-1.5343089
67	0xbeb849f6	-0.35993928
68	0x3ef08bbd	0.46981612
69	0xbf056b01	-0.521164
70	0xc0049c9c	-2.0720587
71	0x4020edb6	2.5145087
72	0x3f2c0c34	0.6720612
73	0xbfa0948f	-1.2545336
74	0x403171ff	2.7725828
75	0x3fcff834	1.624762
76	0xbf4b5b1f	-0.79435915
77	0x3d0bd6fc	0.034140572
78	0x3f206d10	0.62666416
79	0xbedafecc	-0.4277252
80	0xbf99c627	-1.2013596
81	0x3a06cc1e	0.000514211
82	0x3f1d69d7	0.61489624
83	0x3e9c739a	0.30556947
84	0x3df6a629	0.12043411
85	0x3fa9410f	1.3222979
86	0xbfd74392	-1.6817496
87	0x3f251273	0.64481276
88	0xbf09ee8f	-0.53879637
89	0x3e4ad2f3	0.19807033
90	0x403c64ba	2.9436479
91	0xbd5e405f	-0.054260608
92	0xbf402b65	-0.75066215
93	0xbe107c93	-0.14110021
94	0xbe81c386	-0.25344485
95	0x3f9d605c	1.2295032
96	0x3fc3858c	1.527513
97	0xbe8eafdf	-0.27868554
98	0x3e8b0e15	0.2715918
99	0xbe3bc2cc	-0.18336028
100	0x3e808786	0.25103396
101	0xbf6d4caa	-0.92695105
102	0x3f18aeee	0.5964192
103	0x3e9721f7	0.295181
104	0x3f5ffc35	0.8749421
105	0x3e81fbe6	0.25387496
106	0xbea27486	-0.31729525
107	0x3e00c173	0.12573795
108	0xbe45d9ce	-0.19321367
109	0x3ec43984	0.3832513
110	0xbfad5b4d	-1.3543488
111	0x3f7dae68	0.9909425
112	0x3f0129c2	0.5045434
113	0x3e2428a2	0.16031125
114	0x3ee1d6f1	0.441093
115	0xbd6e0b76	-0.0581164
116	0xbe3a5d26	-0.18199596
117	0x3ec9b487	0.39395544
118	0x3f5c98a3	0.86170405
119	0x3f49cd16	0.7882856
120	0xbfb15c1b	-1.3856233
121	0x3f0c0d75	0.54708034
122	0xbf3dc5ae	-0.7412976
123	0x3dcf1968	0.10112268
124	0xbe2a9598	-0.16658628
125	0x3dd4b7dd	0.10386632
126	0xbf29936b	-0.66240567
127	0x3f6110a5	0.8791602

fc1.bias f4 [8]
0	0x3d4bb765	0.049735446
1	0xbdaf2efb	-0.08553883
2	0xbf8afd37	-1.0858525
3	0xbdfee9fe	-0.12446974
4	0xbe70d6dd	-0.23519464
5	0xbca2fe91	-0.019896777
6	0xbe6b66df	-0.22988461
7	0xbe6747ef	-0.22586034
