src/main/python/saved_models/csharp_1_28_RNNClassifier1_128embs_183id_32hd_1hl_Falsebid_2.pt (torch, 117215 bytes, 7 tensors)

word_embeddings.weight f4 [183, 128]
000000 e8 7d 9d bd 04 91 e2 bf ca 2b ec 3e c1 d1 9e 3f
       -0.0769003 -1.7700505 0.46127158 1.2407762
000010 15 89 02 40 45 03 eb 3b 1f a0 57 3e 84 15 68 3f
       2.0396168 0.0071720206 0.21057175 0.9065783
000020 08 45 6c be 07 92 cd be 28 8e a9 bf 15 66 b2 bf
       -0.23073208 -0.40150473 -1.3246508 -1.3937403
000030 f0 b1 62 bf 1a f6 e3 bf 26 19 b9 3f 5b 66 55 3f
       -0.8855276 -1.7809479 1.44608 0.8335931
000040 3c 0d 15 bf b4 42 65 3d c1 0b b0 3f 13 b2 2e 3f
       -0.5822332 0.055971816 1.3753587 0.6824047
000050 3d df b3 be 74 a1 73 bf 28 41 b3 3e 1c 74 03 3f
       -0.35131255 -0.9516823 0.35010648 0.51349044
000060 d6 5b 72 bf af 75 6f 3e 85 a8 db 3f a3 9f bb 3f
       -0.9467138 0.23384736 1.7160803 1.4658092
000070 5e a4 12 bf 98 cd e4 3f 10 7e 00 c0 96 8b 34 40
       -0.57282054 1.7875242 -2.0076942 2.8210196
000080 c9 bd 45 3e a9 89 22 c0 32 f8 91 3f 9a d3 31 bf
       0.19310679 -2.539652 1.1403868 -0.69463503
000090 9a f8 6f c0 9c 19 82 3f 05 ee 6b 3e 8e b6 e5 3f
       -3.7495484 1.0164065 0.23040016 1.7946336
0000a0 a8 65 ae 3e 38 5b 50 3f 84 06 ce be f4 29 b8 3d
       0.34061933 0.8138919 -0.40239346 0.08992377
0000b0 37 9f f2 bc 0e 99 e1 3f ef e1 ce bf a1 dd c4 3b
       -0.029616935 1.7624834 -1.61627 0.0060078655
0000c0 28 e2 a0 3f af 3e c4 3c 4e 69 bf bd 9e c4 94 3f
       1.2569017 0.023955671 -0.09346257 1.1622503
0000d0 37 00 26 bf 94 22 f7 bf 18 41 46 be 8f 31 09 3d
       -0.6484408 -1.9307427 -0.19360769 0.03349453
0000e0 1a 9c 96 3e f3 dc ed be 56 9d 1b c0 b1 fb 42 be
       0.2941597 -0.46457633 -2.431478 -0.19041325
0000f0 6a 8b cf be 47 81 45 bd ef cf 12 3e 02 e0 81 be
       -0.40536052 -0.04821899 0.14337133 -0.25366217
000100 7b f2 43 bf 1a 89 07 3f 33 d9 b1 3e e8 dd b5 3e
       -0.7654187 0.52943575 0.34736022 0.35520864
000110 00 bc 86 3f 96 81 3d bf 82 2d 6a bd 8c 60 1b bd
       1.0526123 -0.7402586 -0.057172306 -0.03793387
000120 54 9e ee bf 6f d5 a1 3f fe 9c b9 be ec 0d 72 bf
       -1.8642068 1.264326 -0.36252588 -0.94552493
000130 76 38 fc be 82 91 84 3f 18 79 9a 3e 09 73 12 be
       -0.49261826 1.0356905 0.30170512 -0.14301695
000140 55 91 ed be 88 6f 08 c0 29 80 0c 3e 5d e4 f2 be
       -0.46399942 -2.1318073 0.13720764 -0.47439852
000150 7b 3e 87 3f a9 bf c7 bf 6c ff d7 3f 9d 4e 66 be
       1.0565943 -1.5605365 1.6874824 -0.22490926
000160 23 ea 22 40 90 71 d9 bf 82 ec 85 bf 1f af b7 be
       2.5455406 -1.6987782 -1.0462801 -0.35875794
000170 96 35 db 3f b2 94 bd bf ea 39 8f 3f 1a 05 82 bd
       1.7125728 -1.4811003 1.1189549 -0.06348629
000180 89 b3 15 be fe 2e b8 bf 33 92 52 3d 27 2b 2f be
       -0.14619268 -1.4389341 0.051408958 -0.17106305
000190 a7 4a cb bf 30 a9 cb 3f ea db c0 bd ae bc 3b 3e
       -1.5882157 1.5911007 -0.09416945 0.18333694
0001a0 70 af 7e 3f 17 29 26 40 ab 30 ed be f3 1a 0b bf
       0.99486446 2.596258 -0.46326193 -0.54337996
0001b0 d2 c8 d6 3f 4b a4 87 3f 03 01 39 3f 83 13 0b 40
       1.6780035 1.0597013 0.7226717 2.173066
0001c0 f8 0f 52 be 2f 98 e2 bf 65 a5 dd bf e0 e3 b1 3d
       -0.20513904 -1.7702693 -1.73161 0.08686042
0001d0 ce 37 9d 3f 85 e1 a8 be bd 99 31 bd 2a 72 33 bf
       1.2282655 -0.32984558 -0.043359507 -0.70096076
0001e0 57 87 61 3f 6b 52 b8 bf 32 e1 90 3f c8 fd 44 3e
       0.8809714 -1.4400152 1.1318724 0.19237435
0001f0 3f 8e 2c bd 50 ad 32 be 8e d8 e5 be 28 8b a9 be
       -0.042127844 -0.17448926 -0.4489178 -0.3311398
000200 4b de e0 bd 72 b2 90 3f 00 81 97 3f 3c 06 25 bf
       -0.10979899 1.1304457 1.1836243 -0.6446264
000210 75 45 58 bf 21 89 d0 3e 27 23 c4 3e 7a 82 f4 3d
       -0.84480983 0.4072962 0.3830807 0.11938949
000220 39 eb 74 be d9 96 2b 3f 8b 63 47 3e 74 9e 8e bf
       -0.23917855 0.6702705 0.19471566 -1.1142106
000230 8f 23 23 40 36 33 0f 3f 68 69 08 bf a1 7c b2 be
       2.5490453 0.55937517 -0.5328584 -0.3486071
000240 f3 08 c8 bd 46 0f 89 be f4 1a fa 3e f4 bb a6 3f
       -0.09767332 -0.26769465 0.4884869 1.3026109
000250 6a 43 a9 3f 7e 4a 86 be 52 31 f9 3e c9 65 ab bd
       1.3223698 -0.26228708 0.4867044 -0.08369023
000260 eb 9d c1 3f d4 f3 0d bf 6a f6 32 bf a7 0b 9c bf
       1.5126318 -0.5545018 -0.6990725 -1.2191056
000270 a6 1e 81 3f 5e 85 82 be 71 4c a2 bf 2b a9 ea be
       1.0087478 -0.25492376 -1.2679578 -0.4583219
000280 56 b3 2d bf 5a 11 c7 bf ab 93 7a be 45 d3 14 bf
       -0.6785177 -1.555217 -0.24470393 -0.5813487
000290 84 11 52 bf 53 02 06 40 93 df d6 3f 54 97 2b bf
       -0.82057977 2.0938919 1.678698 -0.67027783
0002a0 09 01 60 bf 05 da 74 bf 0d 66 19 c0 1c 4e c4 3d
       -0.8750158 -0.9564517 -2.3968537 0.09585211
0002b0 7a c8 de 3f bd d6 5e 3e 03 e2 a0 bf 74 59 25 3f
       1.740493 0.21761604 -1.2568973 0.6458962
0002c0 da 15 2b 3f cc 68 54 bf f1 62 f1 3f b5 6e 07 bf
       0.6683022 -0.8297241 1.885832 -0.529033
0002d0 d0 11 8d 3f 1a d9 46 3f fc 4c 61 bf 1e 18 9f bf
       1.1021061 0.7767502 -0.88008094 -1.2429235
0002e0 61 c6 f9 be ca c1 05 3f f3 3c d9 3e e0 06 90 bf
       -0.48784164 0.52248824 0.42429313 -1.1252098
0002f0 72 8b 16 3f cd 83 d8 3e 03 2a 07 bf e3 61 08 bf
       0.58806527 0.42288056 -0.5279848 -0.53274363
000300 1b 32 c8 bf 0f f0 e8 3f df 70 ae be 83 4b 2b c0
       -1.5640291 1.819826 -0.3407049 -2.6764839
000310 ee 43 19 40 b7 64 10 3f fb 74 c7 3e cf b4 ad 3f
       2.394771 0.5640368 0.38956437 1.3570803
000320 50 ad bb bf 0f 6c 9b bf 4c 6f 9d 3f c3 7d fe 3d
       -1.4662266 -1.2142352 1.229959 0.12426331
000330 47 9b b2 bf c0 a5 b4 bd 7c 98 ae 3e 39 c0 5b bf
       -1.3953637 -0.08820677 0.3410071 -0.85840183
000340 8d d6 bc 3f 7c 31 45 3f 5f 37 c3 be e5 04 d4 be
       1.4752976 0.7702863 -0.38128182 -0.41409984
000350 d6 60 8a 3f 4c be fb be fe bd 48 bf 2d 78 0a 40
       1.0810802 -0.49168622 -0.78414905 2.163585
000360 a2 09 0f c0 e4 57 1d c0 d6 f0 6b 3f 3b 9e 47 3f
       -2.234963 -2.4584894 0.9216436 0.77975816
000370 78 e1 99 3f 4a 80 9a 3f db 19 2d 3d 50 71 54 bf
       1.2021933 1.2070401 0.042260986 -0.829854
000380 d2 e0 e5 3e ce b6 80 3e ee 62 a1 bf c1 bb 84 3f
       0.44898087 0.2513947 -1.2608316 1.0369798
000390 f1 9d 72 3f 77 74 71 be 70 42 4a bf 57 b9 d4 3e
       0.9477225 -0.23579584 -0.79007626 0.41547653
0003a0 7a f4 b5 be c0 26 9f bf ad 13 6a be 32 03 a9 bf
       -0.35538083 -1.24337 -0.22859068 -1.32041
0003b0 cb bb b2 bf 36 dd e7 bf 4b 5a 59 3e 77 f6 bd bf
       -1.396356 -1.8114383 0.2122585 -1.484084
0003c0 28 76 e1 be 7b 54 9f be 77 ad 91 3f d7 b7 bb bf
       -0.4403546 -0.3111914 1.1381062 -1.4665478
0003d0 cb 60 b7 3e 8a 5f eb 3e db 84 e7 3f 21 cc d2 3d
       0.35816035 0.45971328 1.8087419 0.10292841
0003e0 2a 2d f8 be 7e 69 51 bf d5 8a 6c 3f ed 5b 03 3f
       -0.48471957 -0.81801593 0.9239934 0.5131214
0003f0 d5 7b fe be 49 30 11 c0 d9 dc 1c bf 23 eb 92 be
       -0.4970385 -2.268572 -0.61274487 -0.2869502

rnn.weight_ih_l0 f4 [32, 128]
000000 5c de 91 be 3c 82 e4 be 38 39 a7 bd a4 22 bb bd
       -0.2848996 -0.4463061 -0.081652105 -0.091374665
000010 25 aa d7 3c 55 bf e4 bd ae 73 39 3e 81 95 35 bc
       0.026326248 -0.11169306 0.18110535 -0.011083008
000020 9f 78 c5 3d 15 a1 a7 bd 73 50 5d be 3a 8a 8a be
       0.09642147 -0.08185021 -0.2161272 -0.27058583
000030 57 7f 86 be aa ae d7 3d 4a 0b 0f 3f a8 95 09 be
       -0.26269028 0.105313614 0.558766 -0.13435996
000040 4f b6 74 bd 99 a3 b9 3b c5 63 73 be a7 dd 52 bd
       -0.059744176 0.0056652543 -0.23768528 -0.051480915
000050 39 e3 8a 3d 80 84 50 bd e4 38 03 be a6 e7 81 3e
       0.067816205 -0.05090761 -0.12814671 0.25372046
000060 ec b9 a2 bc 81 9a 4a 3e 23 55 5f 3c 41 04 86 3e
       -0.019864045 0.19785501 0.013631138 0.2617512
000070 5a 18 06 bd cc 0a 05 3e 2a 17 03 be 7f 77 88 3d
       -0.032738067 0.129924 -0.12801805 0.06663417
000080 52 0f 93 3e ea 28 ce be b6 57 ca 3a 61 6c f4 3d
       0.28722626 -0.4026559 0.0015437517 0.11934734
000090 b9 e6 84 3d f7 35 80 3d 85 41 9f 3d 85 4d 27 3d
       0.06489319 0.06260293 0.07776169 0.040845413
0000a0 11 d9 ad bd af 87 e9 bc df f9 4f bd 32 1c bf bd
       -0.08488668 -0.028507082 -0.050775405 -0.0933155
0000b0 5c 54 75 bd 44 03 28 3e b4 1a 3b be e2 3a 0d bd
       -0.059894904 0.16407496 -0.18271905 -0.034479983
0000c0 aa 34 b6 3e 82 8b 0a be 60 11 e0 bd 24 cb df 3d
       0.35587054 -0.1352978 -0.10940814 0.10927418
0000d0 24 e3 2b bd ec b8 f8 be b6 62 58 3e 8d fe 6f bd
       -0.041964665 -0.48578584 0.21131405 -0.058592368
0000e0 8a 31 11 3e 85 60 6e 3e 96 b0 ed 3d 36 70 25 bf
       0.14179054 0.23279007 0.11605947 -0.64624345
0000f0 91 c8 7d 3c aa b3 e3 3d 03 8e 2f 3e 94 2a ea bd
       0.015489713 0.111182526 0.17144017 -0.114339024
000100 f3 83 ae bd 7a 92 f9 bc cd 7d 9c be 35 c6 0e 3c
       -0.08521261 -0.030465353 -0.30564728 0.008714248
000110 6f 4b 9c be d5 27 9c be f1 b5 23 3d b5 53 3a bc
       -0.305263 -0.3049914 0.039968435 -0.011372496
000120 a6 ca a7 be 3b 80 56 3e 2b f7 16 be 60 a5 83 3d
       -0.32771796 0.20947354 -0.14742725 0.06428027
000130 a0 82 2a 3e cc f3 f2 3d 1b d6 b1 bd e9 d1 d5 3c
       0.16651392 0.11862907 -0.086834155 0.02610107
000140 f5 f1 81 bd 53 0f e6 3c c7 a8 90 3e da 9c 39 3e
       -0.06344978 0.028083479 0.28253767 0.1812624
000150 94 b8 79 3e b9 2f 43 3d 3c ee 2f be 89 e8 a3 3d
       0.24386817 0.047652934 -0.17180723 0.08003337
000160 29 7b 7b 3d a1 44 6a 3e a5 f4 48 be 61 54 e4 bd
       0.06139675 0.22877742 -0.19624574 -0.111489065
000170 c6 43 81 3e 4a 2a b1 bd c6 26 56 bc 4d 91 87 bc
       0.2524702 -0.08650644 -0.013070768 -0.016548777
000180 9a 02 cf 3e 48 08 be 3c a8 33 c6 bd 3c 45 21 3e
       0.40431672 0.023197308 -0.096778214 0.15749067
000190 4a 9e 33 3d f7 af 58 3e fc 5e 46 3e 87 2c 8e be
       0.043852128 0.21160875 0.19372171 -0.27768347
0001a0 f3 b0 d4 bd 17 ea e0 3d 41 61 e0 3e d8 b1 b8 bd
       -0.10385313 0.10982149 0.438242 -0.09018296
0001b0 59 0f 4d 3e ed 4c 83 bb c2 64 46 3d 1a fb 2c 3e
       0.20025386 -0.004006973 0.048435934 0.16892663
0001c0 72 51 4c bd 52 34 01 bc 5c 48 db bc bb 8d c2 3d
       -0.04988236 -0.007886009 -0.026767902 0.09499689
0001d0 d1 18 d3 3d c1 68 c1 ba ed 58 17 bb 7e 65 4e 3e
       0.10307468 -0.001475595 -0.0023093775 0.20155904
0001e0 0c 48 97 3d 63 85 b3 bd 26 fd 55 be ec 96 60 be
       0.07386789 -0.08765676 -0.2089735 -0.21932572
0001f0 77 fe 95 3b f8 0b 59 bd bf 16 52 be f7 a4 4b 3e
       0.0045774537 -0.05298993 -0.2051649 0.19887148
000200 1a f0 0b be 51 03 9a be ef c1 6c bd 65 b3 03 3e
       -0.1366581 -0.30080655 -0.057802137 0.12861402
000210 d6 8c 86 3d de 08 81 bc aa 1a 76 3d 09 d0 a3 3d
       0.06569831 -0.015751299 0.060084023 0.07998664
000220 3c 80 89 bd f8 3f 7a bd 9e ab 3d 3b e4 ff 0e 3c
       -0.06713912 -0.06109616 0.0028941403 0.008728001
000230 97 72 80 bd c6 52 69 3e ac 01 f5 bc 01 6e 0f 3e
       -0.06271856 0.22785482 -0.029908024 0.14006807
000240 e4 59 e7 3c 7c a6 4b be fe 3f 01 be 64 8c 04 3e
       0.028241105 -0.19887727 -0.12622067 0.1294418
000250 4d 13 02 be a0 54 94 be 3a 3d f3 3d 4d 09 b6 bd
       -0.12702675 -0.28970814 0.118769124 -0.08888493
000260 c2 6b ac bd 80 a5 3c 3c 96 e1 4b 3e 38 a5 96 be
       -0.08418991 0.011514068 0.19910273 -0.29422927
000270 53 57 c7 bb e4 23 16 bc ce de aa 3d b0 23 00 3d
       -0.006083408 -0.00916383 0.08343278 0.031284034
000280 d5 9e 88 3c d8 88 a0 3d bc f0 8a bc d8 69 4c 3e
       0.0166773 0.07838601 -0.016960494 0.19962251
000290 9c 30 af be 89 79 a7 3d c0 a4 40 3e 46 41 36 3d
       -0.34216774 0.08177478 0.18812847 0.044495843
0002a0 f4 5b 46 be 4e bd 18 bc dd 99 52 be 0e 50 15 3e
       -0.19371015 -0.0093224775 -0.20566507 0.1458132
0002b0 03 86 4e 3e f7 d1 a7 3d ed 5a 53 bd eb 4d 1f be
       0.20168309 0.081943445 -0.051600385 -0.15557067
0002c0 97 72 eb bd 64 15 4e be 7f 24 a3 be 1e 48 97 3d
       -0.11496466 -0.20125347 -0.31863782 0.07386802
0002d0 8e 25 52 3e d6 09 d3 3c d6 cc 07 bd 17 6c e8 bd
       0.20522138 0.025761526 -0.03315433 -0.113487415
0002e0 37 36 10 be 76 42 9d bd 3e 6f 1d be 4f 77 23 be
       -0.14083181 -0.07678692 -0.15374467 -0.15963481
0002f0 26 af 50 3d ee b7 22 bd 2e 8f c7 bd 59 1b 7f 3d
       0.050948285 -0.03972619 -0.09744106 0.06228194
000300 8d d1 e3 3e ea cf 97 bd cc 39 88 bc 75 7f 43 be
       0.44495812 -0.07412703 -0.016629122 -0.1909159
000310 5c 85 43 3d d5 91 0e 3e 02 17 49 be 56 10 f3 bd
       0.047734603 0.13922818 -0.19637683 -0.1186835
000320 14 e5 13 be 63 19 07 be 5f 17 65 3e af 2f 89 bd
       -0.14442855 -0.13193278 0.22372197 -0.06698548
000330 10 df 72 3d 0c 2f bc 3d 66 a6 10 be 9f cf 31 3e
       0.05929476 0.09188661 -0.14125976 0.17364357
000340 ca 54 66 3e c6 5c 39 bc 61 3b 62 3e 74 73 29 be
       0.22493282 -0.011313623 0.22092964 -0.16547948
000350 42 06 fa 3d d2 01 9a bc 1b 53 66 be d8 2d 4a 3e
       0.12208225 -0.018799696 -0.2249264 0.1974405
000360 08 dd 82 3e 83 a4 88 bd a9 97 a1 bd e9 0a 12 3c
       0.25559258 -0.06672003 -0.07890255 0.008913734
000370 07 2f 24 bd cb 89 ba 3d c5 14 84 3e 78 a4 77 3d
       -0.04008391 0.09108313 0.25797096 0.060459584
000380 28 44 26 be 31 f6 d1 bd 9b 3c e6 bd 2b ff 83 3d
       -0.16236937 -0.102520354 -0.11242028 0.06445154
000390 14 f2 ff bc 8c 30 32 3d 8b 45 e7 bd d2 5c 22 bc
       -0.031243362 0.04350333 -0.11292561 -0.009909825
0003a0 37 44 04 3e b2 f7 de bd 28 ea 3b 3e 5c fe 24 bc
       0.12916647 -0.10887088 0.18351042 -0.01007041
0003b0 d9 a2 41 3d e3 de cc bd 77 6b 20 be 59 aa 0a 3f
       0.047274444 -0.1000345 -0.15665995 0.5416618
0003c0 22 3a 79 3d 38 07 17 3e d8 53 2c be e3 50 2a be
       0.060846455 0.14748847 -0.16828859 -0.16632418
0003d0 90 af a6 3d b2 82 cc 3d a2 4f 6b 3e 45 65 5a 3e
       0.08138955 0.09985866 0.22979596 0.21327694
0003e0 63 48 c4 bd 1d 52 f2 bd 7c c1 a0 3d 63 56 12 bd
       -0.09584119 -0.11832068 0.07849404 -0.035726916
0003f0 fe 35 38 be 9c 08 82 3d 88 31 5f be 23 c5 2a 3d
       -0.17989346 0.06349298 -0.21796238 0.04169191

rnn.weight_hh_l0 f4 [32, 32]
000000 3d 72 59 3e d0 1a a2 3e c4 f3 1f 3f ba 45 de 3e
       0.21234985 0.3166108 0.6248133 0.43412572
000010 1a 97 74 3e a7 15 15 be 67 f1 e8 3b b0 69 34 3e
       0.23885766 -0.14559041 0.0071088555 0.17618442
000020 9b e2 45 be 21 7f 3c 3e f1 00 81 be 4d 66 8a be
       -0.19324724 0.18407871 -0.2519603 -0.27031174
000030 49 9a 9d bd 66 0a 8e bd e2 7c 29 3e 52 21 1f 3e
       -0.07695443 -0.06935577 0.16551545 0.15540054
000040 d1 1d 9d be b8 20 54 3e 8a c2 b2 bd 8f 79 9d be
       -0.3068681 0.20715606 -0.08728512 -0.30756804
000050 e1 7a 91 3e 01 41 34 3e 96 20 28 bf cb 7a 88 3e
       0.28414062 0.17602922 -0.6567472 0.26656184
000060 d2 fb 46 3e 14 70 94 be 04 7e 28 3f 08 62 f4 3e
       0.19432 -0.2899176 0.65817285 0.47731042
000070 7d 77 ce bd c4 a0 ae bd 35 f0 90 be af a8 64 3d
       -0.10081384 -0.08526757 -0.28308263 0.05582493
000080 c5 8e 20 bd e3 e8 0b 3c 34 5f 88 3e e0 a9 a7 3e
       -0.039198656 0.008539411 0.26635134 0.32746792
000090 6c 25 a4 3e 98 91 0d 3f 40 4e 86 bc cc 53 27 be
       0.320598 0.55300283 -0.016394734 -0.1634056
0000a0 c5 7b 17 bf 7a 1a 99 3e 51 cf 49 3d 93 11 5a be
       -0.5917323 0.29903013 0.049269978 -0.21295767
0000b0 63 aa dd bc 64 3c 88 bd 51 74 14 bb fa 27 02 3f
       -0.027058786 -0.066521436 -0.0022652338 0.5084225
0000c0 fb 26 f6 be 5d 2b eb bd 71 c8 a2 3e a0 b5 55 3d
       -0.48076615 -0.1148288 0.3179355 0.052175164
0000d0 13 f8 d4 3e 4f 65 51 bc bb 5f 25 bf 22 fc 29 3e
       0.41595516 -0.0127805015 -0.645992 0.16600087
0000e0 8c 81 9d be 0b df 31 3c ab da bc be 0c 13 f8 be
       -0.307629 0.0108564 -0.3688558 -0.48452032
0000f0 97 8e 4f 3e 07 23 21 3f 4f cc 65 bf cf 14 28 3e
       0.20269237 0.6294407 -0.89764875 0.16414188
000100 90 cd a7 3e 74 9b 77 3c df 0d 9b 3e 74 91 69 3e
       0.3277402 0.0151127465 0.3028402 0.22809392
000110 72 2d 8d 3e 31 fe 03 3f a8 43 9e be 8b c7 0a be
       0.27573735 0.5155974 -0.30910993 -0.13552682
000120 04 c9 bf be 92 c0 f0 bd 81 b3 be be ea 80 0f 3d
       -0.3745805 -0.1175548 -0.37246326 0.03503505
000130 ff 78 37 bf f1 74 14 bf fb 8b 90 3e 49 73 be bd
       -0.71669 -0.5799094 0.28231797 -0.09299333
000140 37 52 c6 be 4d a4 e8 3e 5e 0b ab be 79 9d 47 3e
       -0.387346 0.45437852 -0.3340711 0.19493665
000150 30 d0 d4 3e ad 4b 89 3e e2 7a c2 3d 14 df a9 3e
       0.41565084 0.2681555 0.09496094 0.33178008
000160 56 15 f2 bd 37 35 b0 3d fe b2 24 bc 2b 81 35 be
       -0.11820476 0.086039 -0.010052441 -0.17725055
000170 e0 89 09 be 00 57 a5 3e 55 5a 43 3e ac d3 3f 3c
       -0.13431501 0.32292938 0.19077428 0.011708181
000180 dd 71 1f 3e 03 1d a8 3e ca cc 8f 3d 34 c0 c7 3e
       0.15570779 0.32834634 0.07021482 0.39013827
000190 09 24 bf be e8 a0 9a 3e f2 2c 83 be 94 29 c9 bd
       -0.3733218 0.30200887 -0.25620228 -0.098223835
0001a0 32 b8 05 3e 48 c3 d9 3e ac 82 b9 3c b4 a6 b4 3b
       0.13058546 0.425318 0.022645317 0.0055130366
0001b0 6d 0d 4e bf 0d 4d 3e bf 05 8d b3 3e 44 a8 af be
       -0.80489236 -0.7433632 0.35068527 -0.34308064
0001c0 69 a9 ff bd a7 4c 7c be 5a db 1f bf 52 02 03 3f
       -0.12483484 -0.24638616 -0.6244408 0.51175416
0001d0 a6 75 94 be 3f d4 3f 3e 30 de 35 be 43 39 bc 3e
       -0.2899601 0.18733309 -0.17760539 0.36762437
0001e0 bb df 3f be e8 73 06 bd 4c f0 09 be a8 b4 27 3f
       -0.1873769 -0.03282538 -0.13470572 0.65510035
0001f0 9c 69 00 be 5b b1 18 3f 65 f1 e3 3e e3 b4 99 be
       -0.12540287 0.5964562 0.44520107 -0.30020818
000200 fc 41 92 3e 20 85 e9 3e 45 7c 12 3e c0 9a 5f be
       0.28565967 0.4560938 0.14305218 -0.21836376
000210 9a 03 e9 3e 56 f3 21 3f fe 3f cf bc c4 b2 cd bd
       0.4551056 0.63261926 -0.025299069 -0.100438625
000220 7f 9e 7b bd 26 ce 9c be 35 14 12 bf 47 16 18 bf
       -0.06143045 -0.3062603 -0.57062083 -0.5940899
000230 3c c7 7a be fc e5 4c bb 9d 5e f1 be 60 16 20 3d
       -0.24490064 -0.003126501 -0.47142497 0.03908384
000240 26 8a 81 bf 1f 4c 1f bd 81 64 80 3e 0d 93 14 bf
       -1.0120285 -0.038890954 0.25076678 -0.5803688
000250 46 00 83 3e e1 e6 88 3d 0b b2 67 be 72 ce c5 3d
       0.25586146 0.06684662 -0.22626512 0.09658517
000260 53 91 72 be 50 1d 3e 3f 28 3d 92 be 71 f4 97 be
       -0.2368825 0.7426348 -0.28562284 -0.29678681
000270 24 b2 94 3d 66 13 85 3e 94 76 65 3d bf fb a7 3d
       0.0726054 0.25991362 0.056021288 0.08202314
000280 31 99 e0 3d d2 98 39 3f 59 46 37 3e 2d 45 aa bc
       0.10966719 0.7249881 0.17897929 -0.020784939
000290 9b 85 13 3e 52 7b 48 3e ce 9b b2 bd 50 3d 04 be
       0.14406435 0.19578293 -0.08721124 -0.12914014
0002a0 13 89 e1 bb d2 59 12 3f dd 73 1f 3d 3b bf 39 3e
       -0.0068827956 0.57168305 0.038928855 0.18139355
0002b0 88 ca da 3c 2b 7a bb bd eb 1f d3 bb 21 f3 dd 3d
       0.026707903 -0.09154161 -0.006443014 0.10837389
0002c0 50 a2 ee 3d a5 72 7d bd 80 8a ac be d6 36 16 be
       0.116520524 -0.06187691 -0.33699417 -0.14669356
0002d0 cc f6 3e be 4b 4a fa bd c6 99 b9 bf 07 3e b0 3d
       -0.18648833 -0.122212015 -1.4500053 0.08605581
0002e0 bb 7c 06 bd 73 76 34 be ec c6 a1 3e 50 6a 2a be
       -0.032833796 -0.1762331 0.31597078 -0.16642118
0002f0 32 e1 40 3c 3a 1a d8 3e b1 bf 2f be eb 8c 6f 3d
       0.011772441 0.4220751 -0.17162968 0.058484
000300 b2 42 0d 3e 12 ff c6 bc 55 44 cf 3e 52 32 33 be
       0.13794973 -0.024291549 0.4048182 -0.17499664
000310 bc 42 88 bd 22 a2 84 bd 72 4a d4 bd 31 29 b4 bd
       -0.066533536 -0.06476237 -0.10365762 -0.08796919
000320 6a 44 3c bd 97 8b ae be 16 63 f3 bd a4 41 f0 be
       -0.045963682 -0.34090874 -0.118841335 -0.4692508
000330 62 30 3d 3e a6 0f 20 3f 7d 94 08 be 2a fe 5e bd
       0.18475488 0.6252388 -0.13337894 -0.05444161
000340 ba 49 df be f7 bb e7 3c 20 97 0d 3f 23 f7 d6 be
       -0.43610936 0.02828787 0.55308723 -0.41985425
000350 21 cf 60 3c bb ce 9a bd b9 95 0a 3f 88 ae 85 3e
       0.013721258 -0.07558962 0.5413471 0.2610972
000360 56 51 3e 3e dc 1b 24 3f 20 09 0c be 59 19 1d be
       0.18585715 0.6410501 -0.13675356 -0.153417
000370 c5 2e 18 3d 08 af 79 bf 3b d7 87 3e c1 f0 2d be
       0.037153978 -0.975327 0.26531395 -0.16986372
000380 05 26 8f 3c 6c cb a3 be 6f ea 78 be 3e 30 44 3e
       0.017474184 -0.31991136 -0.2430818 0.19159028
000390 cd fc 9c 3d 4e f3 9d bd 2d d9 bb 3d 40 1e 27 3e
       0.076654054 -0.07712422 0.09172282 0.16320133
0003a0 4e d8 2b be 5f 7c b5 bd 87 2e e3 3c 54 04 8a be
       -0.16781732 -0.088616125 0.027732147 -0.26956427
0003b0 3d 8e 7a 3c e4 ed a0 bd 7f e8 59 3c a8 87 93 3d
       0.015292701 -0.07857874 0.01330006 0.07203609
0003c0 16 08 97 3d a6 db 0e be 6d cb 24 3d 91 e2 39 be
       0.07374589 -0.13950977 0.040233064 -0.18152834
0003d0 bb 95 9d 3b ab 8e ae 3d 51 d4 02 3e d9 04 04 be
       0.004809109 0.085233055 0.12776305 -0.12892474
0003e0 f1 db 85 be fe de b5 bd 4a a1 ca 3c 6b 26 28 bc
       -0.26144364 -0.08880423 0.024735112 -0.010263066
0003f0 7d 9b 85 bd 61 b7 fc bc 64 d2 43 3d eb 84 4e 3e
       -0.06523798 -0.03084916 0.047808066 0.20167892

rnn.bias_ih_l0 f4 [32]
000000 6a b5 16 bd c6 30 de 3d af e0 7c 3d 7a 40 7d bc
       -0.036794104 0.108491465 0.061737712 -0.015457267
000010 f3 a9 e5 3b 34 09 13 3c 1f e6 03 be 52 de 7d be
       0.007008785 0.008974362 -0.12880753 -0.2479184
000020 4e e4 8c 3b 44 8d 72 bb 7a d0 00 3e e1 33 ab bd
       0.004299677 -0.003701047 0.12579527 -0.083595045
000030 71 c2 17 be b6 2d 40 3e 45 cb e5 bd 36 8e 92 bc
       -0.14820267 0.18767437 -0.11220411 -0.017890077
000040 0c cd 85 bc de 14 01 be 58 db 47 bd 32 5b 2f bd
       -0.016333126 -0.12605616 -0.048793167 -0.04281158
000050 bc 0e b5 3b 21 ce dc bb db 64 06 bd 22 62 68 bd
       0.005525438 -0.0067384397 -0.032811027 -0.05673421
000060 dd 76 80 3e 98 da a6 bd 3c 24 6c bd 59 0d ec 3d
       0.25090685 -0.08147162 -0.057651743 0.11525983
000070 22 f1 48 be c0 70 a2 3d bb 5c cd bd d6 ba 84 be
       -0.19623235 0.079316616 -0.100274526 -0.25923795

rnn.bias_hh_l0 f4 [32]
000000 69 ba fc 3d 83 5e 08 3d 15 4c 80 3c 52 a4 44 be
       0.123402424 0.03329326 0.015661279 -0.19203308
000010 2f 15 cb bd c4 bf 2c bd e2 b2 9f 3c 3c 5e 3a be
       -0.0991615 -0.04217507 0.019494478 -0.1820001
000020 48 3c 4c 3c 26 f8 2d 3d e4 15 0b 3d 6c 50 6f 3d
       0.012465544 0.04247298 0.033956423 0.058426306
000030 b2 39 20 be 9d fb 06 3e 01 29 a6 bc d3 a6 94 bd
       -0.15647009 0.1318192 -0.020283224 -0.07258382
000040 0e 16 41 be 79 41 7e 3d c8 b8 03 be 12 f1 2a 3e
       -0.1885607 0.06207416 -0.12863457 0.16693524
000050 fd 5b c6 bd 0e 83 bf 3c bc 13 6f 3c fa f2 09 3e
       -0.09685514 0.023377921 0.014592107 0.13471594
000060 b3 6f 64 bd 7c 5c 5c 3d 27 02 77 3e a4 5e 8b 3d
       -0.055770587 0.053799137 0.24121915 0.06805161
000070 54 e3 c2 3d c8 2e dc bd 3f cd a1 3c 85 aa 84 be
       0.09516016 -0.1075111 0.01975119 -0.25911346

fc1.weight f4 [8, 32]
000000 8b 34 1a 3f c2 70 a9 3e 34 b4 9f 3e 2d f2 8c be
       0.60236424 0.3309384 0.31192172 -0.27528515
000010 b5 ce b0 be 21 1c b0 3e c8 15 0f bf 93 03 01 bf
       -0.34532705 0.3439646 -0.5589261 -0.5039608
000020 53 28 c3 3e 8c 7a bd bc 32 7a ee be 9a db 85 3e
       0.38116702 -0.023129724 -0.46577603 0.26144105
000030 64 f6 de be 2b 0d c4 bd ec b9 2b bf a5 05 e6 be
       -0.43547356 -0.09572824 -0.6708057 -0.4492618
000040 82 6b 0a be b1 ec 19 bf 9a 90 b1 bd 1e 35 0f 3e
       -0.13517573 -0.6012679 -0.08670159 0.13985106
000050 03 d2 06 bf bd 55 e0 be 50 e1 8d 3d 51 8a 7e 3e
       -0.526642 -0.43815413 0.069277406 0.24857451
000060 65 83 dd 3e 3d 37 af be ea 84 ef 3d 80 44 87 3e
       0.4326431 -0.3422183 0.11695273 0.2641945
000070 00 ad ca 3e 15 6f 17 3c b3 17 f4 3e 98 d0 f4 be
       0.39585114 0.009242793 0.4767433 -0.47815394
000080 6d 80 86 bf 04 bc e3 bf 5d a1 10 bf f2 78 70 3f
       -1.0507942 -1.7791753 -0.5649622 0.9393455
000090 52 91 e8 be 5e 00 0e 3e 3a 37 b2 3e 93 af 13 bf
       -0.4542337 0.13867328 0.3480776 -0.5768978
0000a0 52 ef 5c bf 71 90 10 3f 11 45 3d 3e cf 57 47 3e
       -0.86302674 0.564704 0.18483378 0.1946709
0000b0 57 0b 80 3e be c2 ae 3e 85 1b 31 3f 57 81 75 3f
       0.25008652 0.34132951 0.69182616 0.9590048
0000c0 ce 20 80 3e ee ed e4 3e 9d 8b 64 bf 76 51 a9 3e
       0.25025028 0.44712776 -0.8927553 0.33069962
0000d0 80 44 90 3f 73 c2 e3 3f 11 b7 77 3f 87 e8 5b bf
       1.1270905 1.7793716 0.9676371 -0.85901684
0000e0 f2 02 9b bf a7 a3 fd bd 35 59 0e 3f 62 12 0d 3f
       -1.2110274 -0.1238473 0.5560487 0.55106175
0000f0 8d 09 c3 bf 82 aa 7b 3e 7c 8a fe 3e 6c 5e b0 be
       -1.523729 0.24576762 0.4971503 -0.34447038
000100 bb 97 ce 3e 77 65 7b bf db 89 a0 bd 99 49 2d 3f
       0.40350136 -0.982017 -0.07838794 0.67690426
000110 5e c3 6d 3f ed 7d b0 bd 93 4b c2 3f 6e fb 24 40
       0.9287623 -0.086177684 1.5179313 2.577846
000120 84 7d 3c be ce 65 0d bf e1 59 c2 3e 29 7b 83 bf
       -0.18407255 -0.55233467 0.37959197 -1.027196
000130 b9 bd 3c be e8 ab 0e 3f 62 07 9b 3f d9 48 37 be
       -0.18431748 0.5573106 1.2111628 -0.17898883
000140 08 2e 91 bf b9 e0 cc bf aa 45 9d be 3c 3b 31 bf
       -1.1342173 -1.600608 -0.30717212 -0.6923101
000150 4b e4 5e be 88 e2 6d 3f b6 d7 9a bf eb 85 a0 be
       -0.21766774 0.92923784 -1.209708 -0.3135217
000160 03 f7 13 3f f5 9d 72 3f 70 94 1c 3e 6e 27 d8 be
       0.57798785 0.94772273 0.15291 -0.42217582
000170 22 2d b3 bf 62 c0 7d 3f 7b 19 96 bf 7a a4 b8 3d
       -1.3998148 0.9912168 -1.1726526 0.090157464
000180 d4 51 5b bf c4 ef 30 3f 94 2c f9 bf b4 7b 3e 3f
       -0.85671735 0.69115853 -1.9466729 0.74407506
000190 23 70 47 3f e3 b1 ac 3d 19 3f 88 3a 81 16 00 40
       0.7790548 0.08432367 0.0010394781 2.0013735
0001a0 49 7a 70 3e 46 9a 03 bf 2e b1 25 3f 94 7a 94 be
       0.23484148 -0.5140728 0.6472348 -0.2899977
0001b0 bd 9a 0a bf 04 1e 40 bf 06 71 62 bf 14 55 99 3e
       -0.5414236 -0.750458 -0.8845371 0.29947722
0001c0 bc ba 1a bf 55 fa 95 3e 4f fb 88 3e 56 ca c8 be
       -0.60441184 0.2929255 0.26754233 -0.3921687
0001d0 bd f5 27 3f 4d 88 8b 3f 9a fb ba be 21 92 88 3c
       0.6560934 1.0900971 -0.36520082 0.016671242
0001e0 4d e0 35 bf ff 21 5b 3f 38 db 39 be 50 b0 fb 3d
       -0.7104538 0.8559875 -0.18150032 0.12289488
0001f0 b5 15 ad bf 17 4f 5c bf f7 15 1c bf 02 8e 3e 3f
       -1.352225 -0.8605818 -0.60971016 0.74435437
000200 38 32 62 3e c5 cd 8f bf 89 c6 82 be 82 08 7f 3e
       0.2208947 -1.1234671 -0.25542095 0.24905589
000210 cd 76 4b 3f d9 81 a7 3e f6 35 a0 3f 30 53 dc 3f
       0.7947815 0.32716253 1.2516468 1.7212887
000220 f0 5b 27 bf 16 be 95 bd d0 1d 6f 3e e7 b5 a0 be
       -0.6537466 -0.07311647 0.23351216 -0.3138878
000230 5b 3c 75 bf e7 28 5e 3f 10 d9 a7 be e6 a5 45 bb
       -0.9579522 0.8678116 -0.32782793 -0.0030158698
000240 22 90 18 bf f1 40 98 3f 6e 66 55 bf 21 6c 8a be
       -0.5959493 1.1894819 -0.8335942 -0.2703562
000250 e9 4a 9a 3f 52 2e c8 be d1 5f cc 3e 71 20 69 3f
       1.2054111 -0.3909784 0.39916852 0.91065127
000260 2c aa aa bf d2 34 d9 3f 1d 1f b5 bf eb f0 92 be
       -1.3333182 1.6969244 -1.415012 -0.2869943
000270 f5 65 43 3f e9 9b 2b 3f 61 b3 5e bc c4 21 d4 3f
       0.7632745 0.67034775 -0.013592572 1.6572804
000280 af 8d 27 be f2 9e ca 3e 06 e6 81 3d 7c 2c d6 3e
       -0.16362642 0.3957439 0.063427016 0.41830814
000290 5a 10 a0 3f 70 3c 0e bf 07 d8 ad 3f 89 f7 0f 3e
       1.250499 -0.5556097 1.3581551 0.14059271
0002a0 83 a7 49 be 46 4e f2 be a9 94 20 3e be 9b a3 bc
       -0.19692807 -0.47325343 0.1568171 -0.019971725
0002b0 80 76 11 3d 33 cf 0c bf 2e 47 66 bf b8 fa 6c 3f
       0.0355134 -0.5500366 -0.8995236 0.92570066
0002c0 37 d4 94 3e ae ff c2 3d e0 4e 38 3e d4 78 b6 be
       0.29068157 0.09521423 0.17998838 -0.3563906
0002d0 83 9d 02 40 43 45 62 be a9 c4 19 bf 91 ed 07 bf
       2.0408638 -0.22096734 -0.60065705 -0.5309687
0002e0 49 1d 6e 3e c0 93 70 bd 75 1d e8 be b9 d6 0f be
       0.23253359 -0.058734655 -0.45334974 -0.14046754
0002f0 7a c0 22 3e d7 cb 12 3f 98 8d 06 bf cf 15 17 3e
       0.15893736 0.57342285 -0.52559805 0.14754413
000300 53 a5 c1 3e cf 49 0d 3d 82 da 39 be d8 de 16 bf
       0.37821445 0.034494217 -0.1814976 -0.5893378
000310 2a 43 07 bd 7b 82 06 3f 9e 89 95 be ac f1 cc 3e
       -0.033023037 0.5254285 -0.29206556 0.4002813
000320 24 11 f9 be 30 a0 04 3f e1 f1 18 3c 6c fa 8b be
       -0.4864589 0.51806927 0.009335012 -0.27339494
000330 8e 4c 27 3f 9e 87 99 3d 36 8c 70 3f ea a5 56 3e
       0.6535119 0.0749657 0.93963945 0.20961729
000340 b1 a5 3b 3e 19 4e c1 3e fa 73 ff 3e 75 86 ce 3e
       0.18324925 0.37754896 0.4989317 0.40336958
000350 5c ee 73 be 9e 7a fa bd ea 30 7c be ab 62 d7 3e
       -0.23821396 -0.122304186 -0.24628034 0.42067465
000360 38 85 69 3d 83 87 3c 3e 5d 70 8b 3d f5 5d 76 bd
       0.057011813 0.18411069 0.06808541 -0.0601482
000370 10 73 7f 3d 41 b7 bf bd 93 5b e3 be 12 4d 00 3f
       0.06236559 -0.09361125 -0.44405803 0.501176
000380 3d ef 28 bf e2 91 e7 3d f5 ca 69 3d 3b 35 6e 3d
       -0.6599005 0.11307122 0.05707832 0.058156233
000390 20 d4 23 bf 11 8b 27 bf f5 af cc be 54 66 32 3e
       -0.6399555 -0.65446573 -0.39977995 0.17421848
0003a0 b0 e0 95 3e 67 02 2c 3e 2d 21 05 3e 77 d7 e7 bb
       0.29272985 0.16797791 0.13000937 -0.007075246
0003b0 1e 0f 75 3e 32 bd 80 be 34 f2 66 3f cb 77 c1 be
       0.23931548 -0.25144345 0.9021332 -0.37786707
0003c0 f8 9d 36 be 17 04 d7 3e 5a 13 6b 3e c7 6c 30 bf
       -0.17833698 0.41995308 0.22956601 -0.6891598
0003d0 0b 39 8e be 61 34 e5 bd 65 b5 80 be bb 7e f2 be
       -0.27777895 -0.11191631 -0.25138393 -0.47362313
0003e0 fb 0a 20 3e 50 22 49 3d 23 b1 06 bf 1e be 25 bd
       0.15629189 0.04910499 -0.5261404 -0.040464513
0003f0 05 00 7a 3c 93 37 ee 3c 78 3b e5 be a8 08 16 3f
       0.015258794 0.029079234 -0.44771934 0.5860696

fc1.bias f4 [8]
000000 f7 ad dd 3e e1 74 7d bd e6 df 88 bf e9 40 2a bf
       0.43296787 -0.061879043 -1.0693328 -0.66505295
000010 aa 1f 54 bf 9e 8e 60 be 1f 8c c2 be 6d 20 76 be
       -0.82860816 -0.21929404 -0.3799753 -0.24035807
