src/main/python/saved_models/csharp_1_55_RNNClassifier1_128embs_183id_16hd_1hl_Truebid_0.pt (torch, 115871 bytes, 11 tensors)

word_embeddings.weight f4 [183, 128]
00000000: 93fe afbf 8fd2 2bbf 3a9b 7ebf 53b5 bcbf
00000010: b108 7fbf 1757 9b3d 541d aabf b99b d6bf
00000020: b917 85be 13bf 62bf 1c52 2ebf c6bf 663e
00000030: 3940 13bf 3383 da3f 4704 973e 426b 193f
00000040: 3680 5bbf 925d 2abf 1d78 c43e 5ad7 0c3f
00000050: a100 9d3f 55e7 893d e437 5ebf 1f9c 063f
00000060: 7656 473f 7882 c83d c26e 11c0 28d0 a2bf
00000070: c398 243f 3c2e 40bf c04d 9cbf fcb5 a7be
00000080: 1f63 cf3f aa5d 3e3e cdcc 463f 69ee 1abf
00000090: be03 1f3f 73b8 b43d 050a 023f 6289 8ebd
000000a0: 8d45 02bf 1fe3 36bb bc93 383e 9d26 19bf
000000b0: 5cf4 fd3f 24fa 9fbf 3f30 fc3f f6df 0d3d
000000c0: 2d91 fdbe 67d1 e43e e69f 0d3f 1be8 ecbe
000000d0: 82bf 9b3f b886 783e cbc9 dd3f 5240 1d40
000000e0: a09c 343e dc14 453f 487a 81bf 3102 4dbe
000000f0: d3f1 ae3f 53ab 1cbf d5f1 31c0 c82e 6fbf
00000100: be92 ca3d 098d 85bf 35a1 a5bf 6e3b 34bf
00000110: 41ac aabe a3f5 9ebe 52e2 be3f d3da db3e
00000120: 6335 4cbf 07b1 953e 49c9 50bf d1ad 99bf
00000130: 703c 14bf 044e 2cbf 890a 343f c9e0 26bf
00000140: a08c 12be e3ce 8bbe b6fb ecbe 47d3 533f
00000150: a5dc 80bf f502 c1bd 5341 1e3f d37b 9abd
00000160: 2d22 ac3e f242 4cbf 8e02 a2bf 62fb 313f
00000170: bf17 4ebf 51cc 9fbf 2007 9d3e 3324 be3f
00000180: 5016 8c3f d8bb e83f b565 893f 1246 68bf
00000190: 9bdf ef3f 9782 d6be 2cff 80bf be86 5a3f
000001a0: 1318 d83f e337 f33e 5125 ccbe 852a f53c
000001b0: 2ced 0cc0 c1f6 85bf e3bc a2bf 1aee 7cbf
000001c0: 9bc6 113f a877 95bf 9ce6 d43f 002e b43e
000001d0: 794e ff3d 5d8c 353f ab0c 533f a622 afbe
000001e0: de2f 1940 600c d83d 351c 973e 83d4 f23f
000001f0: aba9 d8bf 91fd ec3f a30b 39bd de67 243f
00000200: 865d 363f 9764 e3bf bd2d b53e ed8c 993f
00000210: 7a22 9bbe 0784 e1bf 2d85 223f 7aea 4dbf
00000220: e938 cebf 0391 efbf 8707 0b3f 3c22 293f
00000230: bfe4 1240 a3c6 2c3f 1f4e db3f c0aa e5bf
00000240: 8a7f aebf 48b4 7bbf 3071 c13f a451 243f
00000250: 5028 f23e 2970 dbbe a226 0d3f 4010 c6bf
00000260: ffa2 043f 352f da3d edd9 893e ff91 a93f
00000270: 8e7d df3f a06f ed3f 9bd4 34bf 4da7 2340
00000280: 0ec7 d53e e8d2 59be 7d07 57bf 950c d7be
00000290: d8c0 1fbf 1430 7abf b3f5 5f3f 79be 7c3f
000002a0: ca80 9e3e f8a5 c23f 1b45 9a3f 4965 e8bf
000002b0: 8392 cebe 8a8a 75bf 63a5 aabb ff82 a1bd
000002c0: baf9 573f b335 953f 07e5 063f b143 cf3f
000002d0: 26c7 76bf b8ea 103e bd96 27be f368 b7be
000002e0: a673 dc3f 436e 9bbe 709b 743e 3b08 ac3f
000002f0: fe67 d33d 68d8 8c3f b5f0 aebe cd84 723f
00000300: 438a 11bf b46c 563f fe4e e43f 671d 48be
00000310: 8bd1 033f 257a ecbf e9ab 3ac0 883c 11bf
00000320: 5791 0abf 202a 653f fbeb 61bf c824 083f
00000330: 07dc c5bf 8275 31be 5a6e 3a3f d1b8 693d
00000340: facf 673f fdec 853f d845 05bf 8e69 ad3f
00000350: 78d6 703e ed05 f53f 850f eb3f 478a a93f
00000360: fc10 78bf 9f35 a03f e7eb 9a3f ce25 07bf
00000370: cecf 5f3e cd05 13bf 1383 ba3f adae e23f
00000380: 6030 d33f b42f ddbe 0ac4 8abe 7b36 b8bf
00000390: 059f 9f3f 8e0d a33f 802a c83e 7440 c63e
000003a0: 3d7d a3bd 7df6 ae3e 59e6 723f d024 b1bf
000003b0: dcae dc3f 5058 17c0 1ef3 6dbf 0e56 963e
000003c0: 924b 5c3e 283f 703f 4f9c bb3f 1b75 0ebf
000003d0: e3ad 3ebf 4d02 4fbe 102e 6bbe 3e80 ae3a
000003e0: 2a24 c03e dec0 14bf d582 12bf 6c3e 813f
000003f0: b55e d8bd 4700 97bf a7ea b9bd 4328 103f
-1.3749565 -0.6711816 -0.99455607 -1.4742836 -0.9962264 0.075849704 -1.32902 -1.6766273
-0.2599466 -0.88572806 -0.6809404 0.22534093 -0.5751987 1.7071289 0.2949545 0.5992929
-0.8574251 -0.66549027 0.3837289 0.550161 1.2265817 0.06733576 -0.8680403 0.5258197
0.77866304 0.0979051 -2.2723851 -1.2719774 0.64295596 -0.7507055 -1.2211227 -0.3275603
1.6202124 0.18590418 0.7765625 -0.60520035 0.62115085 0.088242434 0.5079654 -0.069597974
-0.50887376 -0.002790637 0.18025106 -0.59824544 1.9840198 -1.2498212 1.9702224 0.034637414
-0.49524823 0.4469101 0.5532211 -0.46270832 1.2167819 0.24270141 1.7327207 2.4570508
0.17637873 0.76984954 -1.0115442 -0.20020367 1.3667549 -0.6119892 -2.7803853 -0.9343076
0.0989127 -1.0433666 -1.2939821 -0.7040318 -0.33334544 -0.3104678 1.4912817 0.42940387
-0.7976896 0.29236624 -0.81557137 -1.200617 -0.5790472 -0.6730654 0.70328575 -0.65186745
-0.14311457 -0.2730628 -0.4628579 0.8274426 -1.0067335 -0.09424392 0.61818427 -0.07543149
0.33619824 -0.7978965 -1.265703 0.69524205 -0.80504984 -1.2484227 0.30669498 1.4854797
1.0944309 1.8182325 1.0734164 -0.9073192 1.8740114 -0.41896507 -1.0077872 0.8536185
1.6882347 0.47503576 -0.3987222 0.029927501 -2.2019758 -1.0465928 -1.2713894 -0.98800814
0.5694367 -1.1677141 1.6632876 0.35191345 0.12466139 0.709173 0.82441205 -0.34206122
2.3935466 0.10549235 0.29513708 1.8971103 -1.6926779 1.8514882 -0.045177113 0.6422099
0.71236455 -1.7765073 0.35386458 1.1996132 -0.3029974 -1.7618417 0.6348446 -0.8043591
-1.6111118 -1.8716129 0.5430836 0.6606786 2.2952116 0.67490596 1.7133216 -1.7942734
-1.3632672 -0.9832196 1.5112667 0.64187074 0.4729638 -0.4285901 0.55137074 -1.5473709
0.5181121 0.10653535 0.26924077 1.324768 1.7460191 1.854969 -0.7063691 2.5570862
0.4175343 -0.2127186 -0.839958 -0.42001787 -0.6240363 -0.9772961 0.8748428 0.9872814
0.30957633 1.52069 1.2052339 -1.815591 -0.40346155 -0.9591452 -0.005207704 -0.07886314
0.8436543 1.1657013 0.5269322 1.6192533 -0.96397626 0.14152038 -0.16366096 -0.35822257
1.7222793 -0.3035756 0.2388742 1.3440012 0.10322569 1.1003542 -0.3416802 0.9473389
-0.56851596 0.8375962 1.7836607 -0.19542466 0.5149161 -1.8474776 -2.9167426 -0.5673299
-0.5412802 0.895174 -0.882507 0.53181124 -1.5457772 -0.17329982 0.72824633 0.05706102
0.9055172 1.0462948 -0.520597 1.3547838 0.23519313 1.9142433 1.8364111 1.3245324
-0.96900916 1.2516364 1.2103242 -0.5279206 0.21856615 -0.57430726 1.4571251 1.7709557
1.6499138 -0.43200457 -0.2710269 -1.4391626 1.2470404 1.2738512 0.39094925 0.3872105
-0.07982872 0.3417243 0.9488273 -1.3839359 1.7240863 -2.3647652 -0.9294909 0.2936253
0.21513203 0.9384637 1.4657077 -0.5564744 -0.7448408 -0.20215721 -0.2296679 0.0013313366
0.3752759 -0.5810679 -0.57230884 1.0097175 -0.10564939 -1.179696 -0.090779595 0.56311435

rnn.weight_ih_l0 f4 [16, 128]
00000000: 44dc f0bd 551d 64be 501f 9c3e cd8e 2fbe
00000010: 7dd1 8abe 83d4 1ebe c390 52bd d762 843d
00000020: a1e5 873e 56ac 47be 5e0f f1bd 3770 bbbd
00000030: 8d46 e1bd 8dbb 95bc 75bf 5dbe 510b 0dbe
00000040: 605f 2b3d 6b47 84be 9bb8 0a3c c823 3b3e
00000050: c5b6 863d 3433 b03d 46e8 40be d3ba 96bd
00000060: 57d3 a2bd 47e2 223c 451f 8fbd 0c4a 08be
00000070: 2766 993d f1f2 17bd f39d 883e 5241 4d3e
00000080: 6c9b 43be 9922 30bd 35ac babe 4652 e7bd
00000090: 88a4 66be 6b20 09be 91a1 e7be 1908 74bd
000000a0: 2653 d6be ba6a a1bd f378 4a3d 4ff0 0bbe
000000b0: ea59 8f3e 1cc9 d43e e356 6abe 8858 1fbe
000000c0: e3ad a53d fb81 7bbe 1ce4 8c3e 865d 0a3e
000000d0: 17a6 21be 9d3f 8c3d 52be 123b 6c04 083e
000000e0: 337b 49bd c632 b3be f0db 223e 4617 ba3c
000000f0: 8022 ebbb 7ce6 98be 7f1d 46bc 9338 803e
00000100: b399 7e3e 7de6 273e 54ac babb 6bba a63d
00000110: f43b ca3c d066 e3bc 9596 74be 3ab1 873e
00000120: 0e0a 953d aada 813e ed13 07be 8402 00bf
00000130: e1ac 893e 83ec 403e 42ef 07be 4506 b43e
00000140: 124c e7bc 7a3f 1abe 410e bfbd 55f3 adbd
00000150: 7b9e 0cbb 0ec7 4ebc 129e d3be f309 3abe
00000160: f58e 443d 4040 8a3e 67b5 1e3e 8eae 513e
00000170: 8f48 3bbe e81a d83e 45de 54bd 6acf 95bd
00000180: c421 4abd ed46 823e f477 773e e88e d0bd
00000190: 23de c2bd 6a90 503e ff66 793e f4bb 94be
000001a0: a529 32be 6961 31be 4f6d 0abe 710a 0fbe
000001b0: 7360 be3d 08cd c9bd 25aa 90bd 3023 d33c
000001c0: d4fc df3d b117 9c3d fd02 263d a801 d3bd
000001d0: 2c6e 143e 0bf7 db3b d153 a4bd 6abd 413d
000001e0: 8c5a f53c f026 19bd 1bb0 143e 28ee 893e
000001f0: 5a43 7b3d ab6c 4fbe 0cfc 6d3e d028 bf3e
00000200: d835 563e 622a 593e e0d5 21be bbb8 2ebd
00000210: 480c 35be 1ee9 023c ad85 a8be b7b4 26be
00000220: 61f3 87bd 4f74 cdbd e650 22bc 81e4 713e
00000230: 2c72 cebe ed20 ed3b 8d40 7e3e 8043 1e3e
00000240: 2a65 33be 2c11 883d 5f39 6dbe edc2 0c3e
00000250: 64d9 b2bd 331e 85be 54c3 56bc d93e cdbb
00000260: 5c96 fcbd 7add 78bd 3587 6a3d 796d b0bc
00000270: 18b8 6cbd ef97 a4bc 97bc 343e d3e8 8dbe
00000280: 4de5 52bd 187e 0c3e 16d0 9c3d 7641 713d
00000290: ed9c 443e 09d6 453e d8be 84be d7f8 8c3e
000002a0: 9350 12be eb9a c7bd b079 4e3e 8f29 0ebe
000002b0: 5b7b 69be 4618 afbe 393e 953e 1913 a03e
000002c0: 198b 1f3e 8f14 0f3e 5cd8 8abe 3e60 a4be
000002d0: 1577 9a3e 6b9b 77be f37c 5d3e e595 103c
000002e0: c02a 9d3c ef99 3cbe f164 353c 9ee8 5fbe
000002f0: 7dfc 3d3e aedb 58be 5453 223e e58a c6bd
00000300: 000c bf3d a698 1a3e 428c cf3c ffda 1d3e
00000310: d589 52bd 0ef9 8bbd 9c66 38bd 598e 4abe
00000320: 64fa a7be 37b3 7f3e be55 13be 3571 79bd
00000330: 701d d03c 1946 00be 3fce aa3e 320e 153e
00000340: 37d2 0e3c cf19 9bbd e9a8 933c 81bd 12be
00000350: 801d febd 40f7 96bd ae6d cb3d 4abb ca3e
00000360: efa0 66be d3c3 64be 0f98 36bd b825 613e
00000370: 8286 fc3e e894 b43d 8613 2abc a7b0 88be
00000380: ad43 663e d974 82bd 4dec ce3d ff4b af3e
00000390: 9ab5 11bd e834 c9bd 7fb5 b73d f046 e8be
000003a0: 9b0a 043d 7f24 d3bd 77d5 943c e703 933d
000003b0: 1a78 ca3d 3e1b 8fbd d9dd 90bd b41b ce3d
000003c0: 4320 de3d b19f e5bd 40e7 773e a3ea ab3d
000003d0: bc70 8ebe 497f a93d c465 6b3d b47b 853e
000003e0: 6fce aabc 3541 9c3e 2e68 6fbe fcb6 7e3e
000003f0: 1cf8 a6bc 5931 423d 70d2 543e bcd4 1b3e
-0.11760762 -0.22276814 0.3049264 -0.17144318 -0.27112952 -0.15510754 -0.051407587 0.06464165
0.2654238 -0.19499335 -0.11770509 -0.09152263 -0.109997846 -0.018277908 -0.21655066 -0.13773848
0.041839004 -0.25835738 0.008466865 0.18275368 0.06577829 0.08603516 -0.18838605 -0.07359853
-0.07950466 0.009941644 -0.06988386 -0.13309497 0.07490187 -0.03709692 0.26683006 0.20044449
-0.19102257 -0.043001745 -0.3645951 -0.11294989 -0.22523701 -0.13391273 -0.45240453 -0.059578035
-0.41860312 -0.078816846 0.049431752 -0.13665889 0.27998286 0.41559684 -0.22884707 -0.15561116
0.08089807 -0.24561302 0.27517784 0.13512239 -0.15786014 0.06848071 0.0022391272 0.13282937
-0.049189758 -0.34999675 0.15904212 0.022716176 -0.0071757436 -0.29863346 -0.012091993 0.25043163
0.24863319 0.16396518 -0.0056968126 0.08141025 0.024686791 -0.027758986 -0.23885567 0.265024
0.072773084 0.2536214 -0.13191195 -0.5000384 0.2688971 0.18840222 -0.13274863 0.35161033
-0.028234515 -0.15063277 -0.093288906 -0.084936775 -0.0021456766 -0.0126207005 -0.41331536 -0.18167858
0.047987897 0.27002144 0.15498887 0.20476744 -0.18289398 0.42208028 -0.051969785 -0.07314952
-0.049348608 0.25444737 0.24166852 -0.10183507 -0.095150255 0.2036759 0.24355696 -0.29049647
-0.17398699 -0.17322315 -0.1351826 -0.13968827 0.0929574 -0.0985356 -0.070637025 0.025773615
0.10936895 0.07621706 0.040530194 -0.1030305 0.14495152 0.0067127994 -0.08023799 0.04729978
0.029950403 -0.03739065 0.14520304 0.2693951 0.06134353 -0.20256297 0.2324068 0.37335825
0.20918977 0.21207574 -0.15804243 -0.04265664 -0.17680466 0.00799015 -0.32914487 -0.16279875
-0.06638218 -0.1003195 -0.009906983 0.23622324 -0.4032148 0.007236591 0.24829312 0.15455437
-0.1751906 0.066439 -0.23166417 0.13746233 -0.0873287 -0.25999603 -0.013108093 -0.0062635955
-0.12333366 -0.06075809 0.05725785 -0.021536576 -0.057792753 -0.020091979 0.17650066 -0.27716693
-0.05148821 0.13719976 0.07656877 0.05890032 0.19200487 0.19319929 -0.25926852 0.275336
-0.14288549 -0.09746345 0.20163608 -0.13883041 -0.22800963 -0.34198207 0.29149035 0.3126457
0.15580405 0.13972686 -0.27118194 -0.32104677 0.30168977 -0.24180381 0.21629696 0.0088248
0.019185424 -0.18418096 0.01107143 -0.2186608 0.18553348 -0.21177551 0.158521 -0.09694461
0.09328461 0.15097293 0.025335435 0.15415572 -0.051400978 -0.06834613 -0.04501973 -0.19780864
-0.3280822 0.24970709 -0.14388177 -0.06089898 0.025404662 -0.1252674 0.33360478 0.14556196
0.008717111 -0.07573282 0.018024879 -0.14330103 -0.124079704 -0.07371378 0.09933029 0.39596015
-0.22522329 -0.22340326 -0.044578608 0.21987045 0.4932137 0.08817464 -0.010380631 -0.26697275
0.22486754 -0.06369943 0.101036645 0.34237668 -0.03557358 -0.09824544 0.089701645 -0.4536662
0.032236677 -0.103096955 0.018168194 0.07178479 0.09886189 -0.06987618 -0.07073564 0.10063878
0.10845997 -0.11212099 0.24209309 0.08394363 -0.27820385 0.08276231 0.0574701 0.2607094
-0.020850388 0.305185 -0.23379585 0.2487449 -0.02038198 0.047410343 0.207834 0.1521787

rnn.weight_hh_l0 f4 [16, 16]
00000000: b19a 14bf c130 b63e d357 7bbc 72c8 f0bd
00000010: 1242 22bf 6a11 a53e f262 4dbd 9d78 c8bd
00000020: c99d 7a3f 647c a03f b8c7 f9be 3da4 34bf
00000030: 1a87 d2be 9a21 a53e 040d 033f 8666 c1be
00000040: 5f12 4dbf a4ad a9be a956 703e b7c7 d9bd
00000050: 2d6e 323e eeed 89be 2972 ad3e 4aaa bbbe
00000060: c2a2 a43f e994 3f3e 5e2f 32bf 08d5 b83e
00000070: a0e5 0b3f 812b ea3d a696 823d 6396 adbe
00000080: 4d86 913e 0afe 47bf 69c9 923e 06cf e03e
00000090: 7bb5 d3bd 0c2b 56be cddb 67bf c24d fd3e
000000a0: c43b c3be 0359 f8bd 41ca 923e 0588 9e3e
000000b0: 3e54 283e 5113 453f 74e5 f8be ab34 abbe
000000c0: a179 88bf a9f8 17be 281b 9d3e 3266 803e
000000d0: 4e9e 12be 18d7 2abf 07b9 6d3e 4fe8 18bf
000000e0: 4630 273f 60c4 cc3e af42 63bf 0792 35bf
000000f0: 730b 75bf 3b5b d9bd 0dfa 67be f1ad 35be
00000100: 3b6d a9be 508e 02bf ddc6 00be c050 65bd
00000110: b62a 2d3f 4a3e 0ebf 3a66 8a3d e431 18be
00000120: 3d59 38bf 7e2e a5be c4a4 a3be 5c37 793f
00000130: c77a 113d 1d4a bfbd 1e85 36bd 83da 48be
00000140: cc67 38be 03df 57be 8b30 b6be 5c2a cebe
00000150: abb9 e8be 84fe 093d edb1 02be 996a 663f
00000160: 2f86 233d 9b0d 7a3f ca5b f33c d857 13be
00000170: 9287 0e3e b12e 7a3f 3aef 6c3e 8a69 afbe
00000180: 95c8 83be b004 493f e766 d13d 6b93 30be
00000190: 8aaf ecbd 3a76 bf3e 17e3 7d3e 4179 183f
000001a0: d8ce e03c 14eb 08be 606e 05bf 2c8d 073d
000001b0: dced debe 1910 e43e 5220 d73d b913 643f
000001c0: 4756 d9be fae9 0e3f bb14 b6bc 3ca5 27be
000001d0: 2d40 303e 40be aa3e 1d65 0fbd 303a 323e
000001e0: 0dba 643f d415 09bf ff5c 04be 4af8 f83e
000001f0: 04f4 e23f 0369 11be bb35 0c3f 5ec5 d33e
00000200: b3dd 3a3e ffd8 77bf 756e 133f 0226 7f3d
00000210: e703 babe 2199 cb3d 595e 93be 5d22 14be
00000220: 0bc8 493f 9e09 583f c61c 5dbc d7bd 6fbe
00000230: 6120 e43c ff1a b73f 32a0 09bf cbcf 08bf
00000240: ac60 093f 1f42 88bc b254 cfbe 72e3 8c3e
00000250: 28e4 6dbe 88cf 6d3f 7bc9 65be 313e 8abe
00000260: 7f5b 533f 95a9 27bd d59f 2f3e dd4c 92bf
00000270: b5dd 17be 40fa 373e a01a 14be c056 39be
00000280: 7471 6c3f f873 33be 15fd debe 9f54 1dbf
00000290: 332f 00bf be9b 4d3f f82d 083e 19c1 333f
000002a0: 1fd8 893f e246 2a3f 168b ce3e a0fa 50be
000002b0: d540 023e 53d1 6abd 23c5 3fbd a12c 5b3e
000002c0: 819c c43d ef03 a1bc 12eb 91bd 0482 f0bd
000002d0: 9d8d 6f3e 9a32 d3bd db77 29bf 13eb 37be
000002e0: cf0a f1be e5e2 8dbf 7735 a8be e08b 293f
000002f0: 95a2 a6bd 3f7b 44bf e11e 643f 53de 8d3f
00000300: c47e 7f3f 2674 35bf 5204 8b3e 72bc 99be
00000310: 2d68 cbbe 482c ee3e ded9 21bf 09e9 663f
00000320: a9b0 c5be 2692 44be 0e2b e93e a15c 413f
00000330: 8e6f 753f 015b c13e 31fa 873e 6b49 ec3d
00000340: 03b2 8dbc 77e1 4c3e 1b5b c2be 796f b93c
00000350: 97e4 d5be 7900 d43e 65f1 c23d 5d7e f53d
00000360: 5840 bf3f c1c5 0f3f b87b 14bf 1e2d 01bf
00000370: d7e4 d13e 7175 3cbe 5403 413c bcf1 993e
00000380: 5ee6 15be 33ce de3c a065 a43e 0d0b 2bbe
00000390: 60fc 80bb 9810 47be 767c 80bf 9518 1bbe
000003a0: 0fba c7bf 6626 9fbe 2c95 343f 9a67 273f
000003b0: a657 21be c3a3 713d 156e c33d 907e db3d
000003c0: 85b1 91bf b376 42be 3593 853e e015 89be
000003d0: 0a57 3e3e 1f82 02bf 7a78 2ebe e3d7 7bbf
000003e0: 03aa ef3b d6d1 3bbe 97b8 1ebe c89e 493f
000003f0: 545d 493f 52d9 853e 9280 433e 96c1 bdbe
-0.5804854 0.3558407 -0.015340763 -0.11756982 -0.63382065 0.32239848 -0.05014319 -0.0978863
0.9789701 1.2537961 -0.48785186 -0.7056311 -0.411187 0.32252198 0.51191735 -0.37773532
-0.8010616 -0.3314029 0.23470558 -0.10633796 0.17424841 -0.26939338 0.3387616 -0.36653358
1.286217 0.18709148 -0.69603527 0.3610003 0.54647255 0.11434079 0.0637639 -0.33903798
0.28422776 -0.7812201 0.2866929 0.43907946 -0.10337349 -0.20914859 -0.90569764 0.49473387
-0.38131535 -0.12126353 0.28669932 0.3096315 0.16438386 0.769826 -0.4861256 -0.3343862
-1.0662118 -0.1484095 0.3068478 0.2507797 -0.14318201 -0.66734457 0.23215114 -0.59729475
0.65308034 0.39993572 -0.88773626 -0.70925945 -0.95720595 -0.10613104 -0.2265398 -0.17742135
-0.3309115 -0.509984 -0.1257586 -0.055985212 0.67643297 -0.55563796 0.067577794 -0.14862782
-0.72011167 -0.32262033 -0.31961644 0.97350097 0.03551748 -0.09340308 -0.044560544 -0.19614606
-0.18008345 -0.21081166 -0.3558391 -0.40266693 -0.45454153 0.03368999 -0.12763186 0.90006405
0.03992289 0.9767701 0.029706854 -0.14388978 0.13918903 0.97727495 0.23138133 -0.34260207
-0.2573897 0.7852278 0.10224705 -0.17243735 -0.11556919 0.37394887 0.24793659 0.5956002
0.02744238 -0.13370925 -0.52121544 0.033093616 -0.43540847 0.44543532 0.105042115 0.89092594
-0.42448637 0.5582577 -0.022226682 -0.16371626 0.17211981 0.33348274 -0.03500854 0.1740501
0.8934639 -0.5354893 -0.129261 0.4862693 1.7730718 -0.14200215 0.54769486 0.41361517
0.18248634 -0.96815485 0.5759042 0.062292106 -0.36331102 0.099413164 -0.2878292 -0.14466234
0.78820866 0.84389675 -0.01349563 -0.23412262 0.02784747 1.4305114 -0.53760064 -0.53442067
0.53663135 -0.016633091 -0.40494305 0.27517277 -0.23231566 0.9289479 -0.2244014 -0.27000573
0.82561487 -0.04093321 0.17150815 -1.1429707 -0.14830668 0.17966557 -0.14463282 -0.18099499
0.92360616 -0.17524707 -0.4355246 -0.61457247 -0.5007202 0.8031577 0.13298786 0.7021652
1.076908 0.6651441 0.4034049 -0.20408106 0.12720044 -0.057328533 -0.046818864 0.21403743
0.09600163 -0.019655196 -0.07124914 -0.117435485 0.23393865 -0.10312386 -0.6619851 -0.17960767
-0.4707856 -1.1084868 -0.3285329 0.6622906 -0.08136479 -0.7675056 0.8910962 1.1083473
0.99802804 -0.70880353 0.27151734 -0.30026585 -0.39727917 0.4651816 -0.63223064 0.90199333
-0.38611344 -0.19196376 0.4554066 0.75531965 0.95873344 0.37764743 0.26558068 0.11537441
-0.017296797 0.20007883 -0.37960133 0.022636162 -0.41775963 0.4140661 0.095186986 0.119869925
1.4941511 0.56161124 -0.5800128 -0.5045947 0.40994903 -0.18404175 0.011780579 0.3006724
-0.1463866 0.027197933 0.32108784 -0.16703434 -0.0039363354 -0.19439924 -1.0037982 -0.15146096
-1.5603656 -0.31083983 0.7054012 0.6539246 -0.15756091 0.058994066 0.09542481 0.10717499
-1.13823 -0.18990593 0.26088873 -0.26774502 0.1858789 -0.509798 -0.17038146 -0.9837629
0.007313968 -0.18341765 -0.15500103 0.78757906 0.7865803 0.26142365 0.19092014 -0.37061757

rnn.bias_ih_l0 f4 [16]
00000000: 71fb 10be 6796 5ebe ef7e bd3e fdd7 d63d
00000010: aadd 213e 4d07 29bd 6cfc debe 3559 a23d
00000020: 6d3d 4f3e 31aa 72be 8b03 f5bd b2cc bbbd
00000030: dafa 30bd 273a 353d db69 593e b6e8 68bd
-0.14158417 -0.21737061 0.37010905 0.10490415 0.15807214 -0.04126673 -0.43551958 0.07927171
0.20238276 -0.23697735 -0.119635664 -0.09169902 -0.04320798 0.04424491 0.21231787 -0.056862555

rnn.bias_hh_l0 f4 [16]
00000000: 427d a9be 97b5 323e 202c 763e d25d 953e
00000010: 9990 943e 0e8d 8ebe ad3d d2be 75e9 6bbe
00000020: d33a 8fbc af61 23be a812 53be e631 903d
00000030: ff1b d1bc cc29 69bc 908c dcbd f742 80be
-0.33103377 0.17452084 0.2404027 0.29173142 0.2901657 -0.2784199 -0.4106268 -0.23038276
-0.017484104 -0.15955232 -0.20612586 0.07040767 -0.025526045 -0.014231157 -0.10768998 -0.2505109

rnn.weight_ih_l0_reverse f4 [16, 128]
00000000: 4011 43be b7c0 dbbd c0bd 7bbe 8705 493e
00000010: 53a2 cabe 45ac 07be 354c efbd 97db 3fbe
00000020: cdcb 353e 51d6 5c3e bf91 08be 2819 fabc
00000030: 64c0 f0be 5816 d6bd 9173 a13d a4f3 a4be
00000040: bb31 4d3e a6c9 0b3e 7331 78bd 51c3 8c3d
00000050: c162 77be ea4b 9dbd 20a0 6c3e a0d0 31be
00000060: aac8 cebd 54ad 62be 0597 923e f67f 2ebd
00000070: 3854 053d adfe afbe 1239 cb3c 0d59 8bbc
00000080: 207c ad3c f75e 44be 7ec0 1a3e 1d67 88bd
00000090: 7c67 853d 037a 56be e3e2 08be 7341 28bc
000000a0: e1e2 8dbe c1c3 513d 2e69 2dbe 28c9 bdbc
000000b0: 8a34 5fbe 704f 09bf 7113 663e 7bc9 fcbd
000000c0: 12c6 2d3a 916c b2be 1027 5a3d 9db4 1b3e
000000d0: 97f0 13be 848d 90be 0f6a 173d 98af b2bd
000000e0: 66b7 e43e 6168 b93d 2688 b0bd 79d7 403d
000000f0: 33f4 463d 2b46 553e 2a88 81ba 053e 90be
00000100: 9738 403e de9a 8fbe f6c4 3bbd 4d24 04be
00000110: db63 a93b 2a85 44bd c897 23be 5228 933e
00000120: 57eb 3cbd 0015 713d 008d f03d cdd2 96bb
00000130: bd65 35be 199c f3bb 3fec 893e 96de 623d
00000140: e446 f93d 67fb 1b3e f9dc 99bc 3f85 5c3e
00000150: 4e31 b0bc a12b 923e 6e11 46be ca1d d23e
00000160: 1ab8 ba3c c09f cabd 6083 ec3c e0d4 f43d
00000170: a3da aabe b945 bbbe 83e4 6abe 0566 293e
00000180: 9acb 8c3e 9e68 2dbe fb1f d83d d209 ae3c
00000190: a6e6 503e faa3 85bc a2d9 703e 7700 323e
000001a0: a3e8 163e 08f0 903c f993 f13d 9835 86bd
000001b0: f1bf e7be e0e4 173e cea3 fe3e 4943 223e
000001c0: f9d5 a63e 422b 99bc 02a5 debd 77b2 c03b
000001d0: 84d4 80be f0fd 813e 422f bd3e 98b3 b93e
000001e0: ac76 91be d005 d63e 74e0 80be eae2 ea3d
000001f0: e000 343e c7a0 733e 7fcf ffbd 51d5 993d
00000200: ce19 81be 49f0 a03e 8186 5a3d 3d81 99bc
00000210: 80c6 ab3e 9390 243e 1a04 4b3e 4853 07be
00000220: c51c aabd 42f0 2a3e e2c5 61be a069 2e3e
00000230: cda5 393d 6841 643e 48b3 053e 89cd 633e
00000240: 1978 b63e 0d69 8e3e 4dc4 ed3e ccb0 b93d
00000250: 3326 abbd e044 a23d 6426 413e 3b1e 523e
00000260: f026 e3be fbc3 5a3e ad39 84be f042 003d
00000270: b151 6f3e b6a2 ca3c 21e8 4fbd a62d 92bd
00000280: 8d3e df3e 67d5 a6bd 593d 8fbd d183 753e
00000290: ada8 563e cc2e dcbd 13c4 b7be 0bc3 7d3e
000002a0: 325f 603e 0d0e 6c3d 754b 85be f7c4 33be
000002b0: 9734 e63d 9d4d 9d3e 2bba babc a1f8 01be
000002c0: 6cb4 043f df5f c53e 9b55 3d3e b15f 04be
000002d0: 8e66 983d 970c 633e 5870 a43e 4c18 8ebe
000002e0: 2cbe dabc 158d 523e 65b7 893e 8629 8abe
000002f0: c296 163e 4174 a63d 701a 363e d8cf 663e
00000300: 65ba 80be 6a80 b6bd e7d2 83bc 2d54 e3bd
00000310: 56d2 ae3e 5229 d63e 6ada 3abe 420a 503e
00000320: 5251 223e 23e2 c2be 2d07 b2be 680b bb3d
00000330: 5aea 813e e462 113d ebef 0cbb ab64 b2be
00000340: 50a0 c8be 2734 77be 089f 423d 3672 f4bd
00000350: 41ff 663b 2582 b2bd 75ef 02be a1ef 8abe
00000360: 50c5 333e 579a d43c 93bd 5f3e ef4e a53e
00000370: 4d54 973e a74b 493e 1011 373a 0053 fbbd
00000380: 09a0 15be 0c1c 87be 1054 513d 3e8d cd3b
00000390: c247 b8be b050 63b8 049b d3bd 488f 83bd
000003a0: 6830 7f3b 9404 963d e8a5 0cbc 9734 fdbd
000003b0: cde4 a53c 53d6 ddbd 51b5 46be 46ff abbd
000003c0: 1c8b 9c3e d1c3 85be d261 e3be 90eb 353e
000003d0: 0839 173e d7d5 bdbe 1e01 a6bd c334 d7be
000003e0: 2df7 8abd 8725 15be 9542 e5bd 6718 2dbd
000003f0: 552b 46bd ab54 923a 360f 0c3d 418f e1ba
-0.19049549 -0.10730117 -0.24584103 0.19631015 -0.3957697 -0.1324931 -0.11684457 -0.1873611
0.17753525 0.2156613 -0.13336848 -0.030529574 -0.47021782 -0.104534805 0.07883371 -0.32217133
0.20038502 0.13651142 -0.060594033 0.06873191 -0.24158765 -0.07680495 0.23107958 -0.1736474
-0.100968674 -0.22136432 0.28630844 -0.0426025 0.03255102 -0.3437399 0.024807487 -0.017010236
0.021177351 -0.19176851 0.15112492 -0.06660292 0.06513879 -0.20944981 -0.133678 -0.010269511
-0.27712157 0.051212076 -0.16934654 -0.023167208 -0.21797386 -0.53636837 0.22468354 -0.12343117
0.0006628941 -0.34848455 0.05325991 0.15205617 -0.14447246 -0.28232968 0.03696638 -0.08724898
0.44671172 0.09053112 -0.08619718 0.04708049 0.04857273 0.20827548 -0.0009882499 -0.28172317
0.18771587 -0.28047842 -0.045842133 -0.12904473 0.0051693744 -0.047978558 -0.15975869 0.287417
-0.046122875 0.058857918 0.117456436 -0.004602766 -0.17714591 -0.00743438 0.26938054 0.055388056
0.121717244 0.15232621 -0.018782126 0.21535204 -0.021507885 0.2854891 -0.19342586 0.41038352
0.022792865 -0.09893751 0.028871238 0.11954665 -0.33369932 -0.36576632 -0.22938733 0.16542824
0.27499086 -0.1693444 0.10552975 0.021244917 0.20400485 -0.016313542 0.2352052 0.1738299
0.14737181 0.01769258 0.11795802 -0.06553191 -0.45263627 0.14833403 0.49734348 0.1584598
0.32585123 -0.018697385 -0.108713165 0.0058806497 -0.25162137 0.2538905 0.36950117 0.36269832
-0.28410852 0.4180131 -0.25171244 0.11469062 0.17578459 0.237918 -0.124907486 0.0751139
-0.25215 0.31433323 0.05335093 -0.018738383 0.3354988 0.16070776 0.19825783 -0.13215363
-0.083062686 0.16693214 -0.22048143 0.1703248 0.045324136 0.22290576 0.13056672 0.22246374
0.35638502 0.27814522 0.46438828 0.090669245 -0.08356895 0.07923293 0.18862301 0.20519345
-0.44365644 0.21363823 -0.25825253 0.031313837 0.23371007 0.02473579 -0.050758485 -0.07137613
0.4360241 -0.08146172 -0.06994123 0.23976065 0.20962782 -0.10751113 -0.3589178 0.24781434
0.21911314 0.057630587 -0.26034132 -0.17555605 0.112404995 0.30723277 -0.02279385 -0.126925
0.518378 0.38549706 0.18489687 -0.12927128 0.07441436 0.22172771 0.3211696 -0.27752912
-0.02670201 0.20561631 0.2689773 -0.26984805 0.14705947 0.081276424 0.17783523 0.22540224
-0.25142208 -0.08911212 -0.016091777 -0.1110004 0.3414485 0.418284 -0.18247381 0.20316413
0.15851334 -0.38063154 -0.347711 0.09133035 0.2537411 0.0354947 -0.0021505307 -0.3484243
-0.3918481 -0.24140988 0.047514945 -0.119358465 0.0035247358 -0.08716229 -0.12786658 -0.27135947
0.17555737 0.025952501 0.2184966 0.32286784 0.29556504 0.19657765 0.00069834385 -0.1227169
-0.1461183 -0.26388586 0.05110556 0.006272941 -0.35992247 -5.4196164e-05 -0.10332301 -0.06423813
0.0038938764 0.07325092 -0.008584477 -0.12363546 0.020250702 -0.10831895 -0.19405104 -0.08398299
0.30574882 -0.2612596 -0.44410568 0.17765641 0.1476785 -0.3707721 -0.08105682 -0.42032441
-0.06785426 -0.14565097 -0.1119434 -0.0422596 -0.04838117 0.0011164149 0.034194194 -0.0017208831

rnn.weight_hh_l0_reverse f4 [16, 16]
00000000: 2ea9 e23d 1693 6e3f 713c 4fbd 52ce a5be
00000010: c69a 003f 0251 a0be a09f edbe 7d00 dd3e
00000020: 0152 41bf 0bed 5c3e c784 c2be 986a 49bf
00000030: 020c 853e c627 df3d 2119 61be 307d 0ebf
00000040: de8c 81bd 2549 853e a3d4 16be 43b6 bfbe
00000050: 7839 8d3d 800d 47be 3085 3abf 6f62 9abe
00000060: 1530 613e 0343 f9be 0afa c0bc 85b3 073e
00000070: aa64 14be 643e bb3e d700 e7be 3887 02bf
00000080: 6cf6 c73c c721 0c3d 86fd a0be ff32 263e
00000090: 016e 573e 3871 d03e 9ead 37be 00a4 fc3d
000000a0: 95bc 28bd 5679 a63e c727 ddbe 4b82 cbbd
000000b0: 21bb 1b3e 9cf4 b53d c070 e03e 87c0 b13e
000000c0: cfe4 e8bd 98e4 833e 5bd8 163e 2a64 70be
000000d0: e965 1d3e e59c e43d 1046 debe bf38 4a3d
000000e0: 0a4e afbe 412d 12bf dc3a 2ebf 1537 acbe
000000f0: df41 67bf fcb9 5a3e e723 0abf 18cb 153f
00000100: c2a4 8cbd fd1c 423d 03ed 3ebe 0b5b 49bf
00000110: 54b6 f73e ff37 40be 344c 88bf 591d ac3e
00000120: aa6e 7cbe 3d53 acbe 1f23 c5be ad2f 94bf
00000130: 1b65 26bf 69c8 ed3d 9133 1e3f 4f9d c23e
00000140: 1b0e 08be 8d64 c13e dbba 5dbe cf75 6fbe
00000150: afdc 55be 6051 913e 9e0c b7be ca42 123e
00000160: cbca 83bf f95f ddbe c798 31bb d793 4bbe
00000170: e1a1 c7bd 062e dd3e fe6b 3ebe d678 d33e
00000180: 6aae 933f 3c2f 0c3e 89c1 1f3e 08f9 ba3d
00000190: f7b7 473e 5e14 ecbe 40b9 9dbd 3115 573f
000001a0: 9a32 7d3f 5a14 6d3f 3f6e 01bf 7bcb 99be
000001b0: a423 65be 0c34 423e aef7 a33f c9f8 7b3d
000001c0: ff32 26be 44bc 52be d6eb 783e 9d38 6cbf
000001d0: 39f9 9fbe 9dfb 18bf f788 153f bc30 543d
000001e0: cedd 413e 3207 1ebf f1c3 1e3f 904a 6e3d
000001f0: 74d8 13be 4ab4 22bf 17c0 44bd 7b45 87bf
00000200: 6355 fb3e 3950 ce3d 2324 8a3e 6344 a43d
00000210: 55a1 643f cd1d dcbd 9b3a 10bf b759 4c3f
00000220: bde2 2a3c 44fc 0c3f 2daa f9bd aa81 8ebf
00000230: 9052 af3d 5748 2ebf 5d14 973f f86a 333e
00000240: a4dc 39bf 1a19 4cbd e3f7 bd3e 2502 9dbe
00000250: edf3 3ebf 92e9 343e d2db db3e f050 14bf
00000260: 8b23 83bf 953d 97be efe5 313f 7e24 f03e
00000270: df70 9ebd b41b afbd 172d a8bf a099 8dbd
00000280: dd8e 353e 8457 be3e 2875 04bf 1d2d 7a3e
00000290: 6f27 3abf 2f9b efbc 1f6c 833f 5649 f6be
000002a0: 67b5 3fbc 17cb fd3d 3a04 cf3e 214d 2f3f
000002b0: 094c 193f 83da 023f 059f 01bf 725f 75be
000002c0: f1e6 8e3e 520d 01bf 9376 aa3e 204b cd3e
000002d0: 994b 193e 836a 993e 4324 2f3f c674 263f
000002e0: 9469 5fbf 75d4 fe3e 13dd 643e 2ab0 d63d
000002f0: 0544 bb3d 3ad5 e0be ce45 9a3f 6498 303e
00000300: 51f0 c23c 6ca4 6a3d 0bd8 07bf 7538 a8be
00000310: b9ec f8be 3740 1abf 47ba c4bd 6a91 e8bd
00000320: 7ebc 24bd dfab 88bd 051b 013e 1921 8abe
00000330: 909d e3be 983d 373f 041a 883f 5f08 85bf
00000340: 48ed bf3f 59e9 a6be c5ae 213e 98a1 60be
00000350: cd50 3d3f dba0 043e 6101 7bbe ee6a b2be
00000360: c57f 513f 057e 8bbe e5bb b0be c087 84be
00000370: e800 e8bd cf5c 853d 627a 883f 1c1a 673e
00000380: dec5 243f 0d14 443f 2086 5abf f9c9 46bf
00000390: 4c29 cebd e8bd 1abe 483a 48bd e6e1 cf3d
000003a0: 8432 2dbe d797 9ebc dcf8 90be 123c 8bbf
000003b0: a92c 113f 605b d93e dc12 d23f a16e 68bf
000003c0: 03ab d43e 9f9f e13d 334b 68be dbaf 94be
000003d0: fc35 aebe a46e 2b3e e070 1fbf c6f5 2bbf
000003e0: f04f 15bf 449f 82bf 7033 9bbe ed63 49bf
000003f0: 30dc 3bbf 0d75 0cbe 1944 4bbf 51a5 213f
0.11067425 0.93193185 -0.05059475 -0.32383972 0.50236166 -0.31311804 -0.46410847 0.43164435
-0.75515753 0.215748 -0.37991926 -0.78678274 0.25985724 0.10896258 -0.21982242 -0.5565977
-0.063256964 0.26032367 -0.14729552 -0.37443742 0.06895727 -0.19438744 -0.7285948 -0.30153224
0.21990998 -0.48683938 -0.023556728 0.13252075 -0.14491525 0.36571038 -0.45117828 -0.5098758
0.024409495 0.0342119 -0.31443423 0.16230391 0.21038057 0.4071138 -0.17937323 0.12335968
-0.04119547 0.32514447 -0.4319441 -0.09936961 0.15208103 0.08884546 0.4383602 0.347172
-0.11371767 0.2576034 0.1473097 -0.2347571 0.15370907 0.11162738 -0.43412828 0.049370524
-0.34239227 -0.571003 -0.6805856 -0.33635774 -0.90334886 0.2136001 -0.5396103 0.5851302
-0.068673626 0.047390927 -0.186451 -0.78654546 0.48381293 -0.18771361 -1.0648255 0.3361614
-0.2465159 -0.33657256 -0.38503358 -1.157705 -0.64998025 0.11610491 0.61797434 0.38010642
-0.13286631 0.37772027 -0.21653311 -0.23384784 -0.20884965 0.28382397 -0.35751814 0.1428329
-1.0296263 -0.43237284 -0.002709912 -0.19880615 -0.09747673 0.43199176 -0.18595883 0.41303128
1.1537602 0.13689893 0.15601172 0.0912953 0.19503771 -0.4610929 -0.07701349 0.8401671
0.98905337 0.9260918 -0.5055885 -0.30038056 -0.22376877 0.18965167 1.2809961 0.061516557
-0.16230391 -0.2057963 0.24308714 -0.92273885 -0.3124483 -0.5975893 0.58412117 0.05180429
0.18932268 -0.6172973 0.6201773 0.058176577 -0.14438039 -0.6355635 -0.048034754 -1.0568079
0.49088582 0.10073895 0.26980695 0.08020856 0.89308673 -0.107478715 -0.56339425 0.79824394
0.010430035 0.55072427 -0.121906616 -1.113332 0.085606694 -0.6807913 1.1803089 0.17521274
-0.72602296 -0.049828626 0.37103185 -0.306657 -0.7459095 0.17667225 0.42941147 -0.57936
-1.0245222 -0.2953917 0.69491476 0.4690284 -0.07736372 -0.08550206 -1.313876 -0.06914067
0.1773028 0.37176144 -0.51741266 0.24431272 -0.7271642 -0.029248802 1.0267371 -0.48102826
-0.0117009645 0.12392252 0.40432912 0.68477064 0.59881645 0.5111467 -0.5063327 -0.23962191
0.2791057 -0.5041095 0.3329359 0.40096378 0.14970244 0.29964074 0.68414706 0.6502193
-0.87270474 0.49771467 0.22349958 0.104828194 0.09143833 -0.4391268 1.2052553 0.17245632
0.023796232 0.05728571 -0.5306403 -0.32855573 -0.48618105 -0.60254234 -0.09605842 -0.113558605
-0.040218823 -0.06673407 0.12607963 -0.26978377 -0.44456148 0.7157836 1.0632939 -1.039318
1.4994287 -0.32599905 0.15789326 -0.21936643 0.7395142 0.12951986 -0.24512245 -0.34847206
0.81835586 -0.27244583 -0.34518352 -0.2588482 -0.11328298 0.065118425 1.0662348 0.22568554
0.6436442 0.76593095 -0.8536091 -0.77651936 -0.100664705 -0.15111506 -0.048883706 0.101505086
-0.16913801 -0.019359512 -0.28314865 -1.0877707 0.5670877 0.42452526 1.6412005 -0.90793806
0.41536722 0.110167734 -0.22684936 -0.29040417 -0.34025562 0.16741425 -0.6228161 -0.67171896
-0.583251 -1.0204854 -0.3031268 -0.786681 -0.73382854 -0.13716526 -0.79400784 0.6314288

rnn.bias_ih_l0_reverse f4 [16]
00000000: 27fb 733d 70e4 3cbe cf16 573e 1ccd 3e3e
00000010: ab43 a6bd 1e61 b93e f7f4 9cbe 336a babd
00000020: 9e04 70be 74a9 593e 608b 81bd 9650 403e
00000030: d194 8d3e ca0d 053e c4d8 08be e142 85bd
0.05956569 -0.18446517 0.21004795 0.1863293 -0.081183754 0.36206907 -0.30655643 -0.09102287
-0.23439261 0.21256047 -0.06325412 0.18780741 0.276526 0.12993541 -0.1336394 -0.06506897

rnn.bias_hh_l0_reverse f4 [16]
00000000: 34cc 403e a6a2 4fbe 06c8 2a3e f798 3b3e
00000010: 852a 33bd fc04 16bd 8bbd 333d 4bee ca3c
00000020: 753b f6bc 64f5 3b3d 9f3e 55be 6711 123e
00000030: d4ae babd 0a44 5cbd f5c0 50be 3a3e e7bc
0.18827897 -0.20276889 0.16677865 0.1832007 -0.04374172 -0.036625847 0.043881934 0.02477183
-0.030057648 0.04588832 -0.2082467 0.14264451 -0.09115377 -0.053775825 -0.20386107 -0.028227914

fc1.weight f4 [11, 32]
00000000: ba56 a2be ebb4 023f c9af 193f 535c 493f
00000010: 7132 173f 8abb 8ebe 83d1 20bf 2a04 50be
00000020: 2396 98be a9fb f1be 9494 103d 7864 a33e
00000030: a055 a9be 6ebc c8be 3165 eb3e 20d7 b93e
00000040: 98c4 153f 6d1d f3be ca0a 063f 883c f33e
00000050: b1e0 423e 1422 343f 5ee0 893e 0ea0 c33e
00000060: 98a9 46be ca1c 703d be7d dc3e aef4 bf3e
00000070: 8b57 ca3e 52c5 1cbf 5c35 bdbc 2b37 233f
00000080: 6fb9 b23c 1f0d 2bbf 7fcb 73bf 10da 0e3e
00000090: ba12 8bbd 5869 37be aed5 88be 71e7 8f3f
000000a0: c1c4 4b3e e0e0 f53e 19c6 ccbe 49c1 733e
000000b0: 2f3c 00bf ba4d 373f 88d3 993e 2d13 6dbf
000000c0: bb03 98bf 3197 7cbc 686e 56bf f36b 79bf
000000d0: 42ac 05be 6e2b 9abf 308d 0abf bec1 98bf
000000e0: c630 a83f d835 363f 2170 0bbf 3597 483f
000000f0: 120a 6dbf cb47 883f dc44 05bf 0002 39bf
00000100: 4f26 2d3e c0b8 2a3f 224f 35bf 277b 1dc0
00000110: b0a5 29c0 c04c 573e 2a28 fb3f 21ac 45bf
00000120: c713 ef3e 4520 28bf f90c a6be b8e9 84bf
00000130: 5ebb 8d3f 9c54 14b8 18d4 ebbf 53c0 cabe
00000140: a3a0 d63d e422 a1be e790 8ebf f210 493f
00000150: 84f2 9fbd 729a adbf 60ef 87bf 96b9 3b3f
00000160: 36d2 37be a87f 0d3f 811c 9fbf e551 213f
00000170: 6f7f e7bf 5a2b 5cbe beff 2ebe 7ef8 39be
00000180: 6f9f c33e 1f4b cc3e ae01 803d dc7f 1dbb
00000190: d5c9 aa3d d45e d03f 8506 c43f 841c 6dbe
000001a0: 3ca1 ad3e 76dc 943c 23aa 64bd aae5 703e
000001b0: 38eb a13f 4fc4 543d b590 dabf 9aba 6c3f
000001c0: 96a7 65bf 5cff d13f c7c7 883e f8ec 3cbf
000001d0: 15a4 ff3f c028 97bf a37f 94bf e1aa c5be
000001e0: ee01 8abf 65bb 91bf f0f5 76bf 6f98 9b3f
000001f0: d39f 75bf c6e9 553f 6f47 38bf 5c89 783f
00000200: 6406 363f cb43 3ebf 8d5b a8bf 02b9 e5bf
00000210: bc0f 0bbe b22c 8c3f a4f8 e13f b249 f83d
00000220: 3fe2 963e 7344 903e f206 f83f 73b3 b5bf
00000230: 51de a1be c419 ce3d d3d4 dcbe bb39 153f
00000240: ef1c 85bf a926 fdbe b14f 343f 9dcd 46bf
00000250: 99b8 76be 60a2 d7be 28f2 2dbe 68f8 b1bd
00000260: 840a 583f c8df 8ebf a3c8 b4bf 65b3 163e
00000270: 95f2 84bf 926e 2ebf 1b8a c83f 7563 6abf
00000280: 8f47 113e 3a97 21bf ee1f 1abe f3d3 ccbf
00000290: af03 8bbf adab a33b 1c22 8fbc 7121 1440
000002a0: 0962 12bc 8378 c03f dcce f73e 8281 853b
000002b0: 1d30 f63f 8287 a83f dc40 90bf 8069 8cbe
000002c0: 0fbd e63d cbe4 be3d e269 91bd 5ca0 293e
000002d0: 441e b4bc 39d8 d73d c4e1 743e d516 96bc
000002e0: 1092 47be 7ad5 1d3e 678f 8c3d 7267 a1be
000002f0: 9fc9 a23d b4f4 7f3e 061a a9be b9fe 0fbe
00000300: 212b 1d3e 8f67 fa3e b1f8 e7be 0aa0 56bd
00000310: 875b 3bbe 2ef4 9fbd c20f 1a3e 064b 9b3f
00000320: 15f5 a03e 3525 febd d06f b1be 3579 adbe
00000330: ec03 e2bd a44c 3c3f 0114 fdbe 56f3 aa3f
00000340: 6e3a dbbd a45c c33e 170b aabe 151d 193f
00000350: f60d 7f3f ef54 dcbe 992e 053e 7ea0 d1bd
00000360: 8602 5c3f b451 4fbf f5b2 7bbf c174 90be
00000370: 9900 0a3d 06c9 2e3f 021b 9b3e abac 273f
00000380: 5e52 a23e f797 5c3f 1829 cdbe 1dba 203e
00000390: a5d6 86bd c46d c93e 831c 803e 4eed 953f
000003a0: 4a23 dd3e 59df 59be 4fa3 283f 7104 13bf
000003b0: 1b45 60bd 5bc0 863f 20df 9abf 9414 853f
000003c0: c4c0 22be d8c4 0a3f 486c 08bf 6321 62bf
000003d0: 6a25 443e 4c5b 94be 3e08 32bf 4c82 33be
000003e0: 455c 96be 9ba5 bb3f c68b e63d f666 d4be
000003f0: a5a0 a3bd 696a 0ec0 3011 e4be 3ca1 aabf
-0.31706792 0.5105731 0.6003385 0.786565 0.5906134 -0.27877456 -0.6281969 -0.20314088
-0.29802045 -0.47262314 0.035297945 0.3191259 -0.3307314 -0.3920626 0.4597564 0.3629694
0.58503103 -0.47483388 0.5236021 0.4750712 0.19031025 0.703645 0.2692899 0.3820805
-0.19400632 0.058621205 0.43064684 0.37491363 0.39519915 -0.61238587 -0.023096733 0.63756055
0.021816937 -0.66816896 -0.95232385 0.13950372 -0.06790681 -0.17911279 -0.26725525 1.1242505
0.19899274 0.48023129 -0.39994887 0.23804201 -0.5009183 0.71602976 0.30044198 -0.92607385
-1.1876138 -0.015416906 -0.83762217 -0.9743034 -0.13053992 -1.2044504 -0.54121685 -1.1934125
1.3139884 0.7117591 -0.5446797 0.78355724 -0.9259349 1.064691 -0.52058196 -0.72268677
0.16909145 0.66688156 -0.7082387 -2.4606416 -2.6507378 0.21025372 1.9621632 -0.7721577
0.46694776 -0.6567424 -0.32431772 -1.0383825 1.1072805 -3.536475e-05 -1.8424101 -0.39599857
0.10479858 -0.31471932 -1.1137971 0.7854148 -0.07809928 -1.3562758 -1.0619926 0.73330057
-0.17951283 0.5527291 -1.2430574 0.63015586 -1.8085765 -0.21500912 -0.17089745 -0.18161198
0.38207576 0.39901063 0.062503204 -0.002403251 0.08339278 1.6278939 1.531449 -0.23155409
0.33912075 0.01817153 -0.055826318 0.2352511 1.2649908 0.051945027 -1.7075411 0.9247223
-0.8970884 1.6406054 0.26714918 -0.73799086 1.9971949 -1.1809311 -1.1601452 -0.38606933
-1.0781839 -1.1385313 -0.9646902 1.2155894 -0.95947 0.83559835 -0.71984 0.97084594
0.711035 -0.74322194 -1.3152939 -1.7947085 -0.13580221 1.095114 1.7654004 0.12123431
0.29469487 0.28177223 1.937712 -1.4195389 -0.31614926 0.10063508 -0.43131122 0.58291215
-1.0399455 -0.49443558 0.704341 -0.7765749 -0.24093856 -0.4211607 -0.16986907 -0.08689958
0.84391046 -1.1162043 -1.412373 0.14716871 -1.038653 -0.68137467 1.5667146 -0.9155801
0.14187454 -0.6312138 -0.15051243 -1.6002182 -1.0860499 0.0049948306 -0.01747232 2.314541
-0.008934506 1.5036777 0.4840001 0.0040742764 1.9233433 1.3166354 -1.1269794 -0.2742424
0.11266529 0.093209825 -0.07100274 0.16565078 -0.021987088 0.10539288 0.23914248 -0.018321434
-0.19489312 0.15413466 0.06863289 -0.31524235 0.079486124 0.2499569 -0.33027667 -0.14062013
0.15348484 0.48907134 -0.45306924 -0.05239872 -0.18296634 -0.078102455 0.15045074 1.213227
0.31436983 -0.124094404 -0.3465562 -0.33881536 -0.11035904 0.73554444 -0.49429324 1.335551
-0.10704504 0.38156617 -0.33211586 0.5981 0.9963068 -0.4303355 0.13006057 -0.102356896
0.8594135 -0.80984044 -0.9831994 -0.28214076 0.033691976 0.6827549 0.30294043 0.65497845
0.31703466 0.8616938 -0.40070415 0.15695997 -0.06583909 0.39341557 0.25021753 1.1713045
0.43190986 -0.21276607 0.6587419 -0.5742865 -0.054753404 1.0527452 -1.2099342 1.0396905
-0.15893847 0.5420661 -0.53290224 -0.88332194 0.19154897 -0.28975904 -0.69543827 -0.17530173
-0.2936727 1.4659914 0.112571284 -0.41484803 -0.07989625 -2.2252448 -0.44544363 -1.3330455

fc1.bias f4 [11]
00000000: 7061 1a3f 37a4 493e a74c 23bf bb79 afbe
00000010: d9d6 1cbf 3081 a2be 8355 f9be aeb1 5bbf
00000020: f5de 52be 52d4 eabe 8e10 1dbf
0.6030493 0.19691549 -0.6378884 -0.3427256 -0.6126533 -0.31739187 -0.48698053 -0.8581799
-0.20592864 -0.45865113 -0.61353385
