src/main/python/saved_models/csharp_1_66_CNNClassifier1_64embs_183id_64hd_0hl_Falsebid5kernel0.3dropout_1.pt (torch, 849739 bytes, 9 tensors)

emb.weight f4 [183, 64]
0	0x3ef3f3ad	0.47646847
1	0x402f613d	2.74031
2	0x3f5cce88	0.8625264
3	0x3f905029	1.1274463
4	0xbf812eb3	-1.0092376
5	0xbdc64817	-0.09681719
6	0x402da8f2	2.7134366
7	0x3faa52e2	1.3306544
8	0x3f71dda6	0.94478834
9	0xbf129a98	-0.5726714
10	0xbe006767	-0.12539445
11	0xbeff4165	-0.4985458
12	0xc045216a	-3.0801644
13	0x3ea6b438	0.3255937
14	0x3e1be86c	0.1522538
15	0xbf6b0d76	-0.91817415
16	0xbf35ac76	-0.7096628
17	0xbddd909e	-0.10818599
18	0x3f00baab	0.5028483
19	0x3fdd1237	1.7271184
20	0xbf52df42	-0.82371914
21	0xc004d4bc	-2.0754843
22	0x3e9e01b7	0.30860683
23	0xbd997a60	-0.07494044
24	0xbf3f2a63	-0.7467405
25	0xbf0fb7c7	-0.56139797
26	0x3f601c2a	0.87542975
27	0x3f39d352	0.72588074
28	0x3e0c6ac1	0.13712598
29	0x3f980105	1.1875311
30	0xbf73081f	-0.94934267
31	0xbfaf94e3	-1.3717312
32	0x3f6c5aef	0.92326254
33	0xbe298d66	-0.16557845
34	0x3f9d18c9	1.2273189
35	0x3f414d3d	0.7550848
36	0x3fe6b166	1.8022888
37	0x3edec4b7	0.43509457
38	0x3f0e0aec	0.55485415
39	0x3fd55692	1.6667044
40	0x3d717012	0.05894477
41	0xbf8d6e8d	-1.1049362
42	0x3e0a4ef0	0.13506675
43	0xbfb5116e	-1.4145944
44	0x3f9430e1	1.1577417
45	0xbfe55bc8	-1.7918634
46	0xbf9d63a0	-1.2296028
47	0xbe85cd9c	-0.2613343
48	0x3ea7e46e	0.32791466
49	0xbf958138	-1.168006
50	0xbf92ec6b	-1.1478399
51	0xbe4188fd	-0.18899913
52	0x3e878242	0.26466566
53	0xbe0a365b	-0.13497297
54	0xbda97a69	-0.08275301
55	0xbfa0ab57	-1.2552289
56	0x3f5fcaf7	0.87419075
57	0xbfc31e5a	-1.5243638
58	0x3fdc0b43	1.7190937
59	0x3f9f0e67	1.242627
60	0x3efd8ef4	0.49523127
61	0xbf1aeaaa	-0.6051432
62	0x3fc7307d	1.5561672
63	0x3f4e85e4	0.8067305
64	0xbf3e78f2	-0.744033
65	0xbf682d20	-0.90693855
66	0xbf40c9f7	-0.75308174
67	0x3fe61421	1.7974893
68	0xbfa09a73	-1.2547134
69	0xbf21fd16	-0.63276803
70	0x3f43b30a	0.76445067
71	0x3fff4093	1.9941581
72	0xbf8341e3	-1.0254482
73	0x3e58ab6e	0.21159145
74	0xbf99a719	-1.2004119
75	0x3f8ef01f	1.1167029
76	0x3f33b49c	0.70197463
77	0xbdf95260	-0.12173915
78	0xbef869ad	-0.48518124
79	0xbf4b6234	-0.7944672
80	0x3f5a8815	0.85363895
81	0x3e6d857f	0.23195456
82	0xc00bddd3	-2.185414
83	0xbf4563dd	-0.77105504
84	0xbf8dd6fd	-1.1081234
85	0xbe6fccd6	-0.23417982
86	0xbe1ccf0b	-0.15313356
87	0xbeebd0bc	-0.4605769
88	0xbefcf015	-0.49401918
89	0x4010e0a7	2.2637117
90	0xbf80b7d0	-1.0056095
91	0x3fa19beb	1.2625707
92	0xbe452376	-0.19251809
93	0x3dd26c78	0.10274595
94	0xbf3d693f	-0.7398872
95	0xbe82fd9b	-0.2558411
96	0x3e78d0ec	0.24298447
97	0xbebd89f0	-0.370193
98	0x3fade834	1.3586488
99	0x3fa14244	1.2598348
100	0x3e56fe2f	0.20995401
101	0xbd602099	-0.054718588
102	0x3e2b387d	0.16720767
103	0xbfb1fec5	-1.3905874
104	0x3e94d7f5	0.29071012
105	0x3e5a1028	0.21295226
106	0x3f4103fc	0.75396705
107	0x3ee8acba	0.4544428
108	0xbe326d2e	-0.17424461
109	0xbfa94069	-1.3222781
110	0xbdb87c30	-0.09008062
111	0x4003e682	2.060944
112	0x3f810195	1.0078608
113	0x3fffb874	1.9978166
114	0x3dc84503	0.09778788
115	0x3fcb9e95	1.590777
116	0xbd1670e1	-0.036728743
117	0xbe2e2fce	-0.17010424
118	0xbe638cf5	-0.2222174
119	0xbf5fb921	-0.8739186
120	0xbf00f901	-0.5037995
121	0x3f2539a1	0.6454106
122	0xbf2195f2	-0.63119423
123	0xbfcc12f5	-1.5943285
124	0x40462104	3.095765
125	0x3fdf5e07	1.745057
126	0xbfaa85c3	-1.3322071
127	0xbe1f15d1	-0.15535666
128	0x3dbb3209	0.09140403
129	0xbf8f9095	-1.1215998
130	0xbf942603	-1.15741
131	0x3e69e757	0.22842155
132	0xbe91f8c5	-0.2851011
133	0x3f970772	1.1799147
134	0x3f3c0b69	0.7345491
135	0xbfb857b0	-1.440176
136	0xbd2ed5a1	-0.0426842
137	0xbf0e88b1	-0.55677325
138	0xbef96a7a	-0.48714048
139	0x3d7b7db6	0.061399184
140	0xbff5b9c8	-1.9197321
141	0xbf222471	-0.63336855
142	0xbf964613	-1.1740135
143	0x3f3a0fdd	0.72680455
144	0xbd7a6752	-0.06113369
145	0x3f25a649	0.64706856
146	0x3fd7a621	1.6847574
147	0x3feff54c	1.8746734
148	0xbf906e5e	-1.1283681
149	0x3f12457c	0.57137275
150	0x3f04941d	0.517885
151	0x3eb99c6f	0.36252162
152	0x3e949c00	0.2902527
153	0xbf7f33fe	-0.9968871
154	0xbf6c637e	-0.92339313
155	0xbf3998f5	-0.7249902
156	0xbeb5f99d	-0.35542002
157	0x3f9e39f8	1.2361441
158	0x3fe25a4f	1.768381
159	0x3f9d39f2	1.2283309
160	0xbf6ee39d	-0.9331606
161	0x3f10a3b3	0.56499785
162	0x3f136b9d	0.5758608
163	0x3f123e3e	0.57126224
164	0xc0002cda	-2.0027375
165	0x3e997dbf	0.2997875
166	0xbfa3a2ff	-1.2784117
167	0x3fbd02f7	1.476653
168	0xbf0fd726	-0.56187665
169	0x3f539c62	0.82660496
170	0xbf97cded	-1.1859719
171	0xbec962bb	-0.39333138
172	0xbeb382fb	-0.35060868
173	0x3ead32a5	0.338277
174	0x3dcd6bd9	0.10030336
175	0x3d77cd41	0.06049848
176	0xbe94acce	-0.2903809
177	0x3f6cd1b1	0.92507464
178	0xbfb8f0d7	-1.4448498
179	0xbf340927	-0.70326465
180	0x3e252117	0.16125904
181	0xbf0710a1	-0.5275975
182	0xbf903b4c	-1.1268096
183	0xbfadbc1c	-1.3573031
184	0xc014e1b9	-2.326277
185	0x3f165b09	0.5873266
186	0x3f54e15a	0.8315636
187	0xbf954318	-1.16611
188	0xbfd8cb2b	-1.6937002
189	0xbf143ab6	-0.57902086
190	0xbf16f5c4	-0.5896876
191	0xbf163822	-0.586794
192	0xbee74aac	-0.45174158
193	0xbf90757c	-1.1285853
194	0xbf86c72e	-1.0529535
195	0x3f14912d	0.5803402
196	0x3f62f407	0.88653606
197	0x3f428986	0.75991094
198	0x3e682be2	0.2267299
199	0x3e98d4cc	0.2984985
200	0x3da6665d	0.08124993
201	0xbedfd4e9	-0.43717125
202	0xbf8d000c	-1.1015639
203	0xbfcf1435	-1.6178042
204	0xbf8f49e4	-1.1194425
205	0xbf79ff94	-0.97655606
206	0x4005e255	2.0919392
207	0xbf9fc7b0	-1.2482815
208	0xbec1ea7b	-0.37874207
209	0x3f04456b	0.51668423
210	0xbf81f2bb	-1.01522
211	0xbfe77c0e	-1.8084733
212	0x3fc6590e	1.5495927
213	0x3e870d96	0.26377553
214	0xbf53d329	-0.8274408
215	0xbfb59399	-1.4185668
216	0xbf9b80e5	-1.214871
217	0xbe1ed941	-0.15512563
218	0x400bb146	2.182695
219	0xbfd19509	-1.6373607
220	0x3f8fc3a1	1.1231576
221	0x3f8d2443	1.1026691
222	0xbf3b43a1	-0.7315007
223	0x3da92174	0.08258334
224	0x3ebffb60	0.3749647
225	0x3f996c76	1.1986225
226	0xbe1c2c63	-0.15251307
227	0x3dbb7ddd	0.09154866
228	0xbfb22b51	-1.3919469
229	0xbf223df9	-0.6337581
230	0x3fef0c6c	1.8675666
231	0xbff0a656	-1.8800762
232	0xbfb02a37	-1.3762883
233	0xbf7f1d87	-0.9965443
234	0xbf5e84c1	-0.86921316
235	0x3f973fcd	1.1816345
236	0x3f3d88b9	0.7403675
237	0x3f9a0abd	1.2034527
238	0x3dad1508	0.08451277
239	0xbf884ff8	-1.0649405
240	0xbed83c28	-0.42233396
241	0xbf597142	-0.8493844
242	0x3fc45d8b	1.5341047
243	0x3ef63543	0.4808751
244	0xbe9453c9	-0.28970173
245	0x3ede718e	0.4344601
246	0x3ef76463	0.48318776
247	0x3f1b67a0	0.60704994
248	0xbfb6343d	-1.4234692
249	0x400234ad	2.034465
250	0x3f1b8a98	0.6075835
251	0xbd921616	-0.07133119
252	0xbeb82999	-0.35969236
253	0xbf362973	-0.71156996
254	0x3eefdf1e	0.46849912
255	0x3fc6c017	1.5527371

conv1.weight f4 [64, 64, 5]
0	0x3be6b063	0.00704007
1	0x3a00acef	0.00049085816
2	0xbd40eedb	-0.04710279
3	0x3ca58962	0.02020711
4	0x3e2df2ad	0.16987105
5	0x3e7b8e84	0.24566084
6	0xbcf7c453	-0.030244982
7	0xbdf81460	-0.12113261
8	0xbd8a75ed	-0.06760774
9	0x3e269787	0.1626874
10	0x3cc906bb	0.024539342
11	0x3e0ccabf	0.13749216
12	0x3cdce2ef	0.02696368
13	0xbcc6119f	-0.024178324
14	0x3ddb9e1b	0.107235156
15	0xbdb29ea7	-0.08721667
16	0xbced0434	-0.028932668
17	0xbd08e949	-0.033425603
18	0xbd8f5a8a	-0.06999691
19	0xbc8c9eb4	-0.01716552
20	0xbd378b03	-0.044810306
21	0xbddbc10b	-0.107301794
22	0xbe8aebb5	-0.27132955
23	0x3ddfd2b9	0.10928864
24	0xbdef409c	-0.11682245
25	0x3cbc1b9e	0.022962388
26	0x3c5d7003	0.013515475
27	0xbda11590	-0.07865441
28	0x3ccb376b	0.024806699
29	0x3e43cbdd	0.19120736
30	0x3d9b42f7	0.07581132
31	0x3dc2c84f	0.09510862
32	0x3e34ddd7	0.1766275
33	0xbd2816d9	-0.041037414
34	0x3d74001e	0.059570424
35	0x3da7ac87	0.08187204
36	0xbd192405	-0.037387867
37	0x3e0fbb3d	0.1403627
38	0x3c8dca05	0.017308244
39	0xbd581769	-0.0527567
40	0xbe0d3f27	-0.13793622
41	0x3cb90f59	0.022590326
42	0x3e2bcdfd	0.16777797
43	0xbc8881c5	-0.016663441
44	0x3d8bb542	0.068216816
45	0xbe08bbaf	-0.13352846
46	0x3e9e4b92	0.3091703
47	0xbd689054	-0.056778267
48	0x3d4f484d	0.05060606
49	0x3e4fbf6f	0.2028787
50	0x3d76f60d	0.060293246
51	0x3e5f78a9	0.21823372
52	0xbb116dc3	-0.0022190667
53	0x3e1f86d8	0.15578783
54	0x3d4823dc	0.048862323
55	0x3d3b31da	0.04570184
56	0x3cbd5d23	0.0231157
57	0xbd51b94f	-0.051202115
58	0xbe47b303	-0.19501881
59	0x3e3a72df	0.18207882
60	0x3dd258a0	0.1027081
61	0x3d5b1b8f	0.05349308
62	0xbdb931ba	-0.09042688
63	0x3dfbecb7	0.12301009
64	0xbe47cb7e	-0.1951122
65	0x3b867d1f	0.004104271
66	0xbd29038c	-0.04126315
67	0x3dafd3b5	0.08585302
68	0xbbb40333	-0.0054935454
69	0xbc9b1a85	-0.018933544
70	0x3e0474f0	0.12935233
71	0x3da7beef	0.081907146
72	0x3dc90f6e	0.09817396
73	0x3e2c512f	0.16827844
74	0x3d9c9de3	0.07647302
75	0xbc0a4d8d	-0.008441341
76	0x3e5e748a	0.21724144
77	0xbd9b532d	-0.07584224
78	0xbcb9baf0	-0.022672147
79	0x3e344e6b	0.17608039
80	0xbb25f515	-0.0025323082
81	0xbcbc14a2	-0.022959057
82	0xbe71e7ee	-0.2362363
83	0x3c588a2e	0.013216538
84	0x3d533dc7	0.051572587
85	0xbd1e1c69	-0.038601313
86	0x3cd174d7	0.025568409
87	0xbdfa70c2	-0.12228538
88	0xbe025c2f	-0.12730478
89	0xbc428c96	-0.011874339
90	0xbc91deee	-0.017806496
91	0xbe83bd45	-0.2573034
92	0x3da5ada4	0.0808976
93	0xbd8fd51f	-0.070230715
94	0x3db94027	0.09045439
95	0x3becd518	0.007227551
96	0x3dce8d15	0.10085503
97	0x3dadecaf	0.084924094
98	0x3d173a50	0.036920846
99	0x3dc48f87	0.09597688
100	0xbe5b15d1	-0.21395041
101	0x3e2111a2	0.15729383
102	0x3d54cd5a	0.05195365
103	0xbc8e9a9f	-0.017407713
104	0x3e0873b7	0.13325392
105	0xbccb83fd	-0.02484321
106	0xbe4b34c2	-0.19844344
107	0x3d82e3b5	0.06391088
108	0x3e188f67	0.14898454
109	0xbdf63cb5	-0.12023298
110	0xbd5d5d33	-0.05404396
111	0x3c436f1f	0.011928349
112	0xbd1c2ccd	-0.038128663
113	0xbd193417	-0.037403192
114	0x3e820210	0.253922
115	0xbeb3ca71	-0.35115388
116	0xbe5c5469	-0.21516575
117	0x3c8c4f75	0.017127732
118	0xbcc85218	-0.024453208
119	0xbea48853	-0.32135257
120	0x3e4af830	0.19821239
121	0x3e44f55b	0.1923422
122	0x3dc56324	0.0963805
123	0x3e03b3be	0.12861535
124	0xbde78173	-0.11303987
125	0xbe13a09f	-0.14416741
126	0xbde3d572	-0.11124696
127	0xbd9b0d5e	-0.07570909
128	0xbe896ec8	-0.26842332
129	0x3c6cd4e2	0.014455052
130	0x3d3b195e	0.04567849
131	0x3d89c7fb	0.06727596
132	0xbc57188d	-0.013128412
133	0xbe0140c9	-0.1262237
134	0x3c091c73	0.008368599
135	0x3d2a8aa9	0.041636143
136	0x3ddfacfc	0.10921666
137	0x3c6b980b	0.014379512
138	0xbdcd6d5d	-0.10030625
139	0xbd48c4cf	-0.049015816
140	0xbe0c6e79	-0.13714017
141	0x3d09474e	0.033515267
142	0x3dd9ffce	0.10644494
143	0x3ce0c167	0.027435971
144	0xbe7534af	-0.23945878
145	0x3bfecb45	0.0077756965
146	0x3d771487	0.06032231
147	0xbe0dcb62	-0.13847116
148	0x3dff2138	0.12457508
149	0x3e05e7ca	0.13076702
150	0x3d506906	0.05088141
151	0x3d9dd37d	0.07706354
152	0xbe1ab72b	-0.15108936
153	0x3d953f8c	0.07287511
154	0xbe3c7f64	-0.1840797
155	0xbd3dc973	-0.046334695
156	0xbd2edc38	-0.042690486
157	0xbd84e622	-0.06489207
158	0x3a4697c6	0.00075757166
159	0xbde428a9	-0.11140568
160	0x3ce375a2	0.027766053
161	0x3d384462	0.04498709
162	0x3d9b225a	0.075749114
163	0x3ea1c791	0.3159757
164	0xbd9dceef	-0.07705485
165	0xbe37ca4c	-0.17948264
166	0xbe0e073c	-0.13869947
167	0x3db470d0	0.0881058
168	0x3d334f09	0.043776546
169	0xbedc94e7	-0.43082353
170	0xbbeb3a99	-0.0071786162
171	0x3e9ca5fd	0.3059539
172	0x3d1c0787	0.038093116
173	0x3dd36f60	0.103239775
174	0xbe112c4c	-0.14177054
175	0xbdaefa73	-0.08543863
176	0xbe01b686	-0.12667283
177	0xbdfb7b51	-0.1227938
178	0xbd79e2a6	-0.061007164
179	0xbd18147a	-0.037128903
180	0x3e83950b	0.25699648
181	0x3e0655b7	0.13118635
182	0x3da2c58a	0.07947834
183	0xbdb979f0	-0.09056461
184	0xbd006a09	-0.031351123
185	0xbd3c96e6	-0.046042345
186	0x3e01af70	0.1266458
187	0xbc4a84be	-0.01236075
188	0xbeb94976	-0.3618886
189	0xbe67c644	-0.22634226
190	0x3c947a89	0.018124836
191	0x3cfe1136	0.031014066
192	0xbdf44eab	-0.11929067
193	0xbd7a6157	-0.061127987
194	0xbc06142d	-0.008183521
195	0x3d357243	0.04429842
196	0xbe843dcb	-0.25828394
197	0xbd2357be	-0.0398786
198	0x3c4656a6	0.01210562
199	0xbd33c58a	-0.04388956
200	0xbe60dbcf	-0.2195885
201	0x3dcaf11d	0.0990927
202	0x3d160dd2	0.036634274
203	0xbe216dff	-0.15764616
204	0x3e2e286a	0.17007604
205	0xbbac22ca	-0.0052531706
206	0x3ebd78b2	0.37006146
207	0xbe87b029	-0.26501587
208	0xbe8ad11d	-0.27112666
209	0x3e6e6e79	0.2328433
210	0xbd078f4f	-0.033095654
211	0xbdecb0c5	-0.115571536
212	0x3d0ebe99	0.034849737
213	0xbe119ab5	-0.14219172
214	0xbe121ecf	-0.14269565
215	0xbe5708eb	-0.20999496
216	0xbe220c89	-0.15825094
217	0x3d961e49	0.07329995
218	0xbd81cc38	-0.0633778
219	0x3deadb8e	0.11467658
220	0x3e219c14	0.15782195
221	0xbdb69b09	-0.08916289
222	0xbba891ac	-0.0051443186
223	0xbe862fa1	-0.26208213
224	0xbd77b910	-0.060479224
225	0x3cf9813b	0.03045713
226	0x3db9867c	0.09058854
227	0xbe1333ab	-0.14375179
228	0x3de7b103	0.11313059
229	0xbcc9fd69	-0.024656968
230	0x3ccdeaf6	0.025136452
231	0x3d85d426	0.06534605
232	0xbd684340	-0.05670476
233	0x3e3effa9	0.18652214
234	0xbe2c4f42	-0.1682711
235	0xbd8cc831	-0.06874121
236	0x3e4ea9f1	0.20182015
237	0x3bfa6a8e	0.007642097
238	0x3e65b7b0	0.22433352
239	0x3e5ecf4a	0.21758762
240	0xbe044f46	-0.12920865
241	0xbe65d4e4	-0.22444493
242	0x3d2d6242	0.042330034
243	0xbe2b7ddc	-0.1674723
244	0xbd93d68c	-0.07218656
245	0xbe1626e9	-0.1466328
246	0xbe00c446	-0.12574872
247	0xbdaf6a25	-0.08565167
248	0x3de83e46	0.11340003
249	0xbc10c8e9	-0.008836963
250	0x3dc23861	0.0948341
251	0xbd0617b0	-0.032737434
252	0xbc5f8b83	-0.013644102
253	0x3d668318	0.056277364
254	0xbe3a6550	-0.1820271
255	0xbc6ca6c2	-0.014444055

conv1.bias f4 [64]
0	0xbe0b5f31	-0.13610531
1	0xbe84b9b2	-0.25922924
2	0xbe1eded8	-0.15514696
3	0xbe584651	-0.21120574
4	0xbddc9e44	-0.10772374
5	0xbd95c572	-0.0731305
6	0xbe8829f0	-0.26594496
7	0xbe0086e5	-0.12551458
8	0xbe4e6dd3	-0.20159082
9	0xbe363315	-0.17792924
10	0xbddeed4f	-0.10885107
11	0xbd44bc3a	-0.04803107
12	0xbe519cdb	-0.20469992
13	0xbdc56383	-0.09638121
14	0xbdb51267	-0.088414006
15	0xbe848544	-0.25882924
16	0xbe165569	-0.14681019
17	0xbe4fd279	-0.20295133
18	0xbe6468dd	-0.22305627
19	0xbe2c0e02	-0.16802219
20	0xbde57d81	-0.112055786
21	0xbe46e66a	-0.19423833
22	0xbe5aa365	-0.21351393
23	0xbe8c505f	-0.27405068
24	0xbe4b3224	-0.19843346
25	0xbe2f7653	-0.17134981
26	0xbe34c322	-0.17652562
27	0xbe38271d	-0.1798367
28	0xbd671785	-0.056418914
29	0xbe801d49	-0.25022343
30	0xbe115767	-0.14193498
31	0xbe5e18e1	-0.21689178
32	0xbe6538a6	-0.22384891
33	0xbe7be6aa	-0.2459971
34	0xbe53d9d0	-0.20688558
35	0xbd1fa928	-0.03897968
36	0xbde27ed9	-0.110593505
37	0xbdfe81fc	-0.12427136
38	0xbe982b75	-0.29720655
39	0xbddb42c2	-0.107060924
40	0xbeca7e26	-0.3954937
41	0xbe96e9de	-0.29475302
42	0xbe31ed21	-0.17375614
43	0xbe63d4fc	-0.22249216
44	0xbe15649a	-0.14589158
45	0xbe003a4e	-0.12522241
46	0xbe337f3f	-0.1752901
47	0xbe2c1d3b	-0.16808026
48	0xbdf8cbb8	-0.12148231
49	0xbe89fc50	-0.26950312
50	0xbc52a675	-0.012857069
51	0xbe0841e9	-0.13306393
52	0xbdeb96b9	-0.115033574
53	0xbd0a44a9	-0.033756886
54	0xbdbafc3c	-0.09130141
55	0xbe211ba2	-0.15733197
56	0xbe44643c	-0.19178861
57	0xbe2c04b1	-0.16798665
58	0xbd50fafb	-0.051020604
59	0xbe8dd072	-0.27698094
60	0xbe264456	-0.16237006
61	0xbe40874b	-0.1880161
62	0xbe89a38c	-0.2688259
63	0xbe74a9b1	-0.23892857

conv2.weight f4 [64, 64, 3]
0	0x3d255cdb	0.040371757
1	0x3db8d76b	0.09025463
2	0x3d51292b	0.05106465
3	0x3e7d9d1e	0.24766967
4	0x3dbaa4f2	0.09113492
5	0x3d2ef34d	0.0427125
6	0x3dd7becc	0.105344385
7	0x3df8f96b	0.12156948
8	0x3e1ae700	0.15127182
9	0xbcc4b6a5	-0.024012873
10	0xbd9da4c3	-0.076974414
11	0x3e0e2756	0.13882193
12	0x3e1f2e5e	0.15545031
13	0xbe0a4006	-0.13500986
14	0x3e73cc20	0.23808336
15	0x3c78069d	0.0151382955
16	0x3dc0294a	0.09382875
17	0x3db0949d	0.08622096
18	0xbe36c0ed	-0.17847033
19	0xbdb2dd25	-0.08733586
20	0xbdab06e5	-0.083509244
21	0x3cd9c205	0.026581774
22	0x3d6548cc	0.055977628
23	0xbc6ebb31	-0.014570997
24	0xbd943218	-0.07236117
25	0xbe40b40e	-0.18818685
26	0x3d4fc34e	0.050723366
27	0x3d2759e4	0.04085721
28	0xba43ec98	-0.0007473915
29	0x3d1785a1	0.036992673
30	0x3cc8d33e	0.02451479
31	0xbd8dd250	-0.069248796
32	0x3e6d8d9d	0.23198552
33	0xbd961b34	-0.07329407
34	0xbe2c5820	-0.16830492
35	0xbd3a839b	-0.045535665
36	0x3deb6ca8	0.11495334
37	0xbe41dae8	-0.18931162
38	0x3e7d0a33	0.24710922
39	0x3dd61772	0.104536906
40	0xbd75319a	-0.059861757
41	0xbed893e8	-0.42300344
42	0x3e3ccaa4	0.18436676
43	0xbd9f69a3	-0.077838205
44	0x3e6d414d	0.23169442
45	0x3b8a68ae	0.0042239046
46	0xbe0134b6	-0.12617764
47	0x3d390ea7	0.04517999
48	0xbd92835c	-0.07153961
49	0x3bd6049a	0.0065313103
50	0xbd8de66c	-0.06928715
51	0x3a7474d6	0.0009325271
52	0x3d670028	0.056396633
53	0x3e19e232	0.15027693
54	0xbe597a66	-0.21238098
55	0x3ddf0162	0.108889356
56	0xbe6042d5	-0.21900494
57	0xbbeb1536	-0.0071741594
58	0x3e3a4bf8	0.18193042
59	0xbddd1489	-0.107949324
60	0x3cb6a595	0.022295753
61	0xbd1244d0	-0.035710156
62	0x3e0a74a6	0.1352106
63	0x3e0f54df	0.1399722
64	0xbcfa5abb	-0.030560842
65	0x3e5a5204	0.21320349
66	0xbd282990	-0.041055262
67	0x3e936846	0.28790492
68	0x3de199a4	0.11015633
69	0xbe78fbda	-0.24314824
70	0x3e4a347c	0.19746584
71	0xbd2b1a12	-0.04177291
72	0x3d1a9893	0.037743162
73	0xbbcf3ab4	-0.0063241366
74	0x3dc25ca1	0.09490324
75	0xbea36250	-0.31910944
76	0x3cba6e75	0.022757748
77	0xbe854b08	-0.26033807
78	0x3e0679bc	0.13132375
79	0xbcde2997	-0.027119441
80	0x3e2185bd	0.15773673
81	0x3e19647a	0.14979735
82	0xbd911f80	-0.07086086
83	0x3d8fa19a	0.07013245
84	0xbe52c00c	-0.20581073
85	0xbe287fcb	-0.16454999
86	0x3ea4af7a	0.32165128
87	0xbdf73f2d	-0.12072597
88	0x3d8edc54	0.06975618
89	0xbdee1779	-0.11625571
90	0xbbadf574	-0.0053088013
91	0xbe0e07f6	-0.13870224
92	0xbd597890	-0.053093493
93	0x3bc54808	0.0060205497
94	0x3e242228	0.16028655
95	0xbc905c5d	-0.017622167
96	0x3e8d2c0a	0.27572662
97	0xbdf2e682	-0.11860372
98	0x3d63146c	0.055439398
99	0x3d993601	0.074810036
100	0xbd8bcbb8	-0.06825966
101	0xbd96ed3d	-0.07369468
102	0xbdd788aa	-0.105241135
103	0x3d863984	0.06553939
104	0x3e2571c2	0.16156676
105	0x3d33271b	0.043738466
106	0xbe03b069	-0.12860264
107	0xbe2d30e3	-0.1691318
108	0x3e26b5b3	0.1628025
109	0xbd403724	-0.046927586
110	0xbde54d2a	-0.111963585
111	0xbcb8e63d	-0.022570724
112	0xbd25276f	-0.04032081
113	0xbe016b5d	-0.12638612
114	0xbce23335	-0.027612308
115	0x3d92f43b	0.071754895
116	0xbd820866	-0.06349258
117	0x3cd8e7a7	0.026477648
118	0xbe306ddf	-0.17229412
119	0xbe061e8c	-0.1309759
120	0x3b652038	0.003496183
121	0x3e22d286	0.15900621
122	0xbdeee9f8	-0.1166572
123	0xbd16d104	-0.036820427
124	0xbdadf8d6	-0.08494727
125	0xbe146919	-0.14493217
126	0xbd4c2f62	-0.049849875
127	0x3da40815	0.08009354
128	0x3ce30f2b	0.027717194
129	0x3d8256b6	0.06364195
130	0x3da4d32c	0.0804809
131	0x3d48c4ae	0.049015693
132	0xbc5a0013	-0.013305682
133	0x3db90f9a	0.09036179
134	0xbe8b3268	-0.27186894
135	0x3d5f1a54	0.054468468
136	0xbd4b391c	-0.04961501
137	0xbe86129e	-0.2618608
138	0xbdd0934d	-0.101843454
139	0xbe198b32	-0.14994505
140	0x3e0b0ef3	0.13579921
141	0xbe24c6f4	-0.1609152
142	0x3dc06a52	0.09395279
143	0x3e135d92	0.14391163
144	0xbd4f2a8a	-0.050577678
145	0xbde145d6	-0.10999648
146	0xbcca32b7	-0.024682386
147	0x3e4ce858	0.20010507
148	0xbde07ef9	-0.10961718
149	0x3e2e7cec	0.17039841
150	0x3d36e900	0.0446558
151	0x3d42ab22	0.047526486
152	0xbe28a5e8	-0.16469538
153	0xbcb9ca04	-0.022679336
154	0xb9ad6b7e	-0.0003307722
155	0xbd61379b	-0.05498467
156	0x3e84ed23	0.2596217
157	0xbd2093a4	-0.0392033
158	0xbd97423c	-0.0738568
159	0x3e293a1b	0.16526072
160	0xbdc7136d	-0.09720502
161	0xbe09c271	-0.1345308
162	0x3c85c587	0.01632954
163	0xbe1af3bf	-0.15132044
164	0x3c05908d	0.008152139
165	0xbdc47d57	-0.09594219
166	0x3dda709d	0.106660105
167	0xbcb051bf	-0.021523355
168	0x3e955282	0.2916451
169	0x3dc9f0ee	0.09860407
170	0xbc4da3ff	-0.012551307
171	0x3c8d9a52	0.0172855
172	0xbdc41e5d	-0.09576104
173	0x3ec64397	0.38723442
174	0x3d7215b3	0.059102725
175	0xbdbca81d	-0.092117526
176	0xbd014ecd	-0.03156929
177	0x3e6c812e	0.23096153
178	0xbd8413fe	-0.06449126
179	0x3e4b6098	0.19861066
180	0x3e481db8	0.19542587
181	0x3d8ae820	0.067825556
182	0x3e4dfbac	0.20115536
183	0x3e02487c	0.12722963
184	0xbc5e7322	-0.0135772545
185	0xbe95e44d	-0.29275742
186	0xbd269c14	-0.04067619
187	0xbd48ab3d	-0.04899143
188	0xbe5a732f	-0.21333002
189	0xbe1f40ad	-0.15552016
190	0x3dd8bd0f	0.10582935
191	0xbe114e9d	-0.14190145
192	0xbbac2ad8	-0.005254131
193	0x3c6f795d	0.014616338
194	0xbe2111d3	-0.15729456
195	0x3d0a12cb	0.03370933
196	0xbd141b51	-0.036158863
197	0x3d5ed044	0.054397836
198	0xbd1e0704	-0.03858091
199	0xbe248110	-0.16064858
200	0x3dac356c	0.08408627
201	0xbddb64ee	-0.1071261
202	0xbdedd02f	-0.116119735
203	0xbe1867a7	-0.1488329
204	0xbd52d19c	-0.05146943
205	0xbe1f424d	-0.15552635
206	0xbdc9fd07	-0.09862714
207	0x3ca7c32c	0.020478807
208	0x3d54f92a	0.051995434
209	0x3e2da1e2	0.16956285
210	0x3dbd3659	0.092388816
211	0x3e6d01e9	0.2314526
212	0xbdd94a23	-0.106098436
213	0x3db7238b	0.08942326
214	0x3d2140f3	0.03936858
215	0xbe0be68d	-0.13662167
216	0xbb9d7c4d	-0.0048060776
217	0x3d82a46a	0.06379016
218	0x3d810b02	0.06300928
219	0x3dc5e2bb	0.09662386
220	0x3e19351e	0.14961669
221	0x3e4f74c3	0.20259385
222	0xbd82c43c	-0.06385085
223	0x3e11dfef	0.1424558
224	0x3e1c7597	0.15279232
225	0xbde8af56	-0.11361568
226	0x3d254de3	0.04035748
227	0xbe080d04	-0.13286215
228	0xbda03277	-0.078221254
229	0x3d4172fe	0.047228806
230	0xbdd9eabf	-0.106404774
231	0x3ca47a3f	0.020077823
232	0xbe08bcc5	-0.1335326
233	0x3e41ca0e	0.18924734
234	0x3db61b72	0.088919535
235	0xbdc0fb83	-0.09422972
236	0x3d36b144	0.044602647
237	0x3ccb7ebc	0.024840705
238	0x3e490226	0.19629726
239	0xbc386d16	-0.011256477
240	0xbe1256fa	-0.14290991
241	0x3dc96316	0.09833352
242	0x3e26141d	0.1621861
243	0x3d09c95c	0.033639297
244	0x3c497f32	0.012298392
245	0x3eb07e92	0.34471565
246	0xbb797585	-0.0038064432
247	0xbc811544	-0.01575721
248	0x3dd79f46	0.10528426
249	0xbda82a7c	-0.08211228
250	0x3df4da0f	0.11955654
251	0xbe80294c	-0.25031507
252	0xbd0ad4b9	-0.033894274
253	0x3da1b4f1	0.0789584
254	0x3e616a18	0.22013128
255	0x3d553fff	0.052062985

conv2.bias f4 [64]
0	0xbe383798	-0.17989957
1	0x3d4a6433	0.049411964
2	0xbe54b6b0	-0.20772815
3	0xbe9c51c0	-0.3053112
4	0xbe907a21	-0.28218177
5	0xbe15867a	-0.1460208
6	0xbe2bc27f	-0.16773413
7	0xbdc766c4	-0.09736398
8	0xbe09fad1	-0.13474585
9	0xbe38449d	-0.17994924
10	0xbe83423a	-0.25636464
11	0xbe8a66f2	-0.27031666
12	0xbe28ca8d	-0.16483517
13	0x3dae3c9e	0.085076556
14	0xbd4e42ad	-0.050356556
15	0xbd4f8e4a	-0.050672807
16	0xbdf10a74	-0.11769572
17	0xbe122505	-0.14271934
18	0xbe45757d	-0.192831
19	0xbe4ccada	-0.19999257
20	0x3d876fc2	0.06613113
21	0xbe5b3593	-0.21407156
22	0xbe6ba47d	-0.23011966
23	0xbe4dc7f9	-0.20095815
24	0xbe848234	-0.25880587
25	0xbdc90cb8	-0.09816879
26	0xbe8e3c40	-0.27780342
27	0xbe238d63	-0.15971904
28	0xbe53b0a1	-0.20672847
29	0xbe671628	-0.22567046
30	0xbe5ce311	-0.21570994
31	0xbd5a43e1	-0.05328739
32	0xbdf59633	-0.11991539
33	0xbe79af4f	-0.24383281
34	0xbde660bb	-0.112489186
35	0xbe6f071e	-0.23342559
36	0xbe9e435d	-0.3091077
37	0xbea8768c	-0.32902944
38	0xbe30f08d	-0.17279263
39	0x3d1af669	0.03783265
40	0xbe361700	-0.17782211
41	0xbeb31acd	-0.34981385
42	0xbe8fc412	-0.28079277
43	0xbd1bf70c	-0.0380774
44	0xbe9515f5	-0.29118314
45	0xbcf2819f	-0.029602824
46	0xbe32e25d	-0.17469163
47	0xbe2e4379	-0.17017926
48	0xbe997bc0	-0.29977226
49	0xbe7aee4d	-0.24504967
50	0xbea2dbcb	-0.31808314
51	0xbd06b545	-0.032887716
52	0xbe2ed89d	-0.17074819
53	0xbdacbc74	-0.08434382
54	0xbe67e9b0	-0.22647738
55	0xbe4affa1	-0.19824077
56	0xbe939f1b	-0.28832325
57	0xbde519fb	-0.11186596
58	0xbeb815c8	-0.35954118
59	0xbe29ebd7	-0.16593872
60	0xbe84d51d	-0.25943843
61	0xbe931b2e	-0.28731674
62	0xbe9cf0ac	-0.30652368
63	0xbe8a44f8	-0.27005744

conv3.weight f4 [256, 128, 5]
0	0xbd832ac5	-0.06404642
1	0xbd13673f	-0.035987135
2	0x3e5a2ee7	0.21306954
3	0xbe03b670	-0.12862563
4	0x3d7d2108	0.06179908
5	0xbdbe1da0	-0.09282994
6	0x39880f45	0.00025951318
7	0xbdb4e444	-0.08832601
8	0x3d29c87d	0.041450966
9	0x3e3e5e9a	0.18590775
10	0xbe96dfb7	-0.29467556
11	0xbcc2bd1b	-0.023771813
12	0x3dcdc2ce	0.10046922
13	0xbd44afe7	-0.048019316
14	0x3e1fe883	0.1561604
15	0x3e14aa88	0.14518178
16	0x3d134a47	0.03595951
17	0xbe3b1284	-0.18268782
18	0x3d62654b	0.05527238
19	0x3e9a5533	0.30143127
20	0xbe4eea12	-0.20206478
21	0x3ba8a409	0.0051465076
22	0xbdc1eb66	-0.09468727
23	0xbd7c4cfc	-0.061596856
24	0xbe1131a6	-0.14179096
25	0x3de9c1b7	0.11413901
26	0xbd49bae4	-0.0492505
27	0xbbaf34f8	-0.0053468905
28	0x3d8b55da	0.06803484
29	0x3ddff505	0.10935406
30	0xbe10278c	-0.14077586
31	0x3d7bd90a	0.06148628
32	0xbdd2271a	-0.10261364
33	0x3e12468a	0.14284721
34	0xbe186bda	-0.14884892
35	0xbddff449	-0.109352656
36	0xbd6c4a23	-0.05768789
37	0xbaf22677	-0.0018474598
38	0x3d55bd8f	0.05218273
39	0x3e52dc9f	0.20591973
40	0x3e165bb6	0.14683422
41	0x3e07b6b8	0.13253295
42	0xbdccb9f1	-0.09996403
43	0xbad6e237	-0.0016394322
44	0x3d026b5c	0.031840667
45	0xbea6c480	-0.32571793
46	0x3e50672f	0.20351861
47	0xbdcc2505	-0.099679984
48	0x3d2e8072	0.042602964
49	0xbdc72422	-0.09723689
50	0x3df09475	0.11747066
51	0xbcfab14f	-0.030602125
52	0xbd0236c9	-0.03179053
53	0xbe27cac9	-0.1638595
54	0x3e677d70	0.22606444
55	0xbe6f85b4	-0.23390847
56	0xbd14c7b1	-0.036323253
57	0x3d38dd4a	0.045132913
58	0x3c648234	0.0139470585
59	0x3de97a5b	0.114002906
60	0xbe07d54c	-0.1326496
61	0x3d250c1a	0.040294744
62	0xbd15945b	-0.036518436
63	0x3e15a3ad	0.14613219
64	0xbd33fa1d	-0.0439397
65	0xbd3de14b	-0.046357434
66	0x3b9afe95	0.0047300556
67	0xbe14b9ea	-0.14524046
68	0xbd393137	-0.04521295
69	0xbd8ce879	-0.06880278
70	0xbe99fd9f	-0.3007631
71	0x3d0a72f7	0.033801045
72	0xbe190c47	-0.1494609
73	0xbc75de59	-0.015006625
74	0x3e8aa63a	0.27079946
75	0x3deaf306	0.11472134
76	0x3d6d3762	0.057914145
77	0xbd3f220a	-0.04666332
78	0xbb8b4474	-0.0042501036
79	0xbe3117d4	-0.17294246
80	0xbe805d21	-0.25071052
81	0xbd028c36	-0.031871997
82	0x3d0d527c	0.03450249
83	0xbe75a2eb	-0.2398793
84	0xbe0e08c4	-0.13870531
85	0xbd54d62b	-0.05196206
86	0xbdccf754	-0.100081116
87	0x3d2974ba	0.041371085
88	0x3e430c88	0.19047749
89	0xbdadb970	-0.08482635
90	0x3e09a90d	0.13443394
91	0xbdd2486e	-0.10267721
92	0xbdc5514c	-0.09634647
93	0xbdb13bc2	-0.08653976
94	0xbe7566b2	-0.23964956
95	0x3cf713b7	0.030160768
96	0x3debf47a	0.115212396
97	0xbe1f16b9	-0.15536012
98	0xbd5abb8e	-0.053401522
99	0x3dad94df	0.084756605
100	0xbe0d36cb	-0.13790433
101	0x3d5ee63a	0.05441878
102	0xbde4322c	-0.11142382
103	0xbdc8b0be	-0.09799336
104	0x3e484db2	0.19560888
105	0xbdb01c12	-0.08599104
106	0x3e45b459	0.19307078
107	0xbe7790f1	-0.24176385
108	0x3d7716e2	0.060324557
109	0xbe0a2524	-0.1349073
110	0xbd311618	-0.04323396
111	0x3dd2cbc6	0.10292773
112	0xbcdeaad2	-0.027181063
113	0xbc258a42	-0.010103764
114	0x3d893034	0.06698647
115	0xbcfc2c33	-0.030782795
116	0xbe968cbb	-0.29404244
117	0x3e22556c	0.15852898
118	0xbda0c492	-0.07849993
119	0x3de08547	0.10962921
120	0x3db03908	0.08604628
121	0x3d830afc	0.063985795
122	0xbd170dd2	-0.036878414
123	0xbe181085	-0.14850052
124	0xbc4f9312	-0.012669342
125	0xbc1c6c0a	-0.009547243
126	0x3dbb1e92	0.0913669
127	0xbe0b4b1f	-0.13602875
128	0x3da79cc4	0.081841975
129	0xbda76a9f	-0.08174633
130	0x3e19b898	0.15011823
131	0x3df03d27	0.11730414
132	0x3dc9970b	0.09843262
133	0xbdcb3a8d	-0.09923277
134	0x3c8723eb	0.01649662
135	0xbd1268e4	-0.035744563
136	0x3d9e667f	0.07734393
137	0xbd6203c5	-0.055179376
138	0xbde1f61f	-0.11033272
139	0x3e14f42e	0.14546272
140	0x3e895459	0.26822165
141	0x3d174c72	0.03693814
142	0xbe1c3d2b	-0.15257709
143	0xbd063fa8	-0.03277555
144	0xbe33df79	-0.17565717
145	0x3dadcfa8	0.08486873
146	0x3e99a842	0.30011183
147	0x3d8f5112	0.06997885
148	0x3e89face	0.2694916
149	0xbdb40bb8	-0.08791298
150	0xbda76387	-0.0817328
151	0xbe512e46	-0.20427808
152	0xbccd66a1	-0.025073351
153	0xbe069c78	-0.13145626
154	0x3e8329ad	0.25617734
155	0x3d4ca85c	0.049965248
156	0xbe85bf31	-0.2612243
157	0xbd9324e7	-0.07184773
158	0xbeb82e7f	-0.35972974
159	0xbe5cbcf9	-0.21556462
160	0xbd80b2b3	-0.06284084
161	0x3daf40d0	0.08557284
162	0xbddc251f	-0.10749268
163	0x3e1a3fd8	0.15063417
164	0x3e8b5f3b	0.27221093
165	0xbddc3eb1	-0.10754145
166	0xbd4b622d	-0.049654175
167	0xbc85a91b	-0.016315987
168	0x3c9b4d3f	0.018957732
169	0xbe27eb24	-0.16398293
170	0xbe9d2fff	-0.3070068
171	0xbd907422	-0.070534006
172	0x3a2e6923	0.000665324
173	0x3c820c7b	0.015875092
174	0xbe381010	-0.17974877
175	0x3d88c822	0.06678797
176	0xbd0bc2ac	-0.0341212
177	0x3c3a6bcf	0.011378243
178	0x3d146779	0.03623149
179	0xbdfac6b8	-0.12244934
180	0xbd9d939d	-0.076941706
181	0xbd648c01	-0.05579758
182	0xbd9db3f5	-0.0770034
183	0xbc9c010b	-0.019043466
184	0x3e3685d6	0.17824492
185	0x3b4312f1	0.0029765929
186	0x3dc88c02	0.09792329
187	0x3e095934	0.13412935
188	0x3d17dc47	0.037075307
189	0xbcdb8f5e	-0.026801761
190	0x3dafc1f2	0.08581914
191	0x3e274a43	0.16336922
192	0x3d41b3e4	0.047290698
193	0xbe1ad10f	-0.15118812
194	0x3e831a88	0.2560618
195	0xbdd69e6f	-0.104794376
196	0x3e83174f	0.2560372
197	0xbdf956be	-0.12174748
198	0xbd8326b7	-0.06403869
199	0xbe01d7df	-0.12680005
200	0xbe391020	-0.18072557
201	0x3e4175b9	0.18892564
202	0xbd37fb18	-0.044917196
203	0xbdc70942	-0.09718563
204	0xbc5d8dc6	-0.013522571
205	0x3dc3f3c0	0.09567976
206	0x3e42cde5	0.19023855
207	0x3e47dc20	0.19517565
208	0xbe46b4cb	-0.19404905
209	0xbdb31ffd	-0.08746336
210	0xbe8489dd	-0.2588643
211	0x3e000106	0.1250039
212	0xbdd72162	-0.10504414
213	0xbcffd546	-0.031229626
214	0xbd9932fc	-0.074804276
215	0x3bf0cce5	0.007348644
216	0xbe5a6f1f	-0.21331452
217	0x3dd56290	0.1041919
218	0xbda6ec0a	-0.0815049
219	0x3d890301	0.06690026
220	0xbcbd5b64	-0.023114868
221	0x3da9fb47	0.082998805
222	0x3dea5256	0.114414856
223	0xbb5952e9	-0.003316099
224	0x3e29581f	0.16537522
225	0x3d5c134f	0.05372935
226	0x3d8d6afe	0.06905173
227	0xbd809337	-0.06278079
228	0xbd083bfb	-0.033260327
229	0x3e2e11c3	0.16998963
230	0x3d89c1cf	0.06726419
231	0xbcb5bb28	-0.02218397
232	0x3a967f01	0.0011481942
233	0x3b499633	0.0030759692
234	0xbe353218	-0.1769489
235	0x3dd66431	0.10468329
236	0xbe0bc52b	-0.13649432
237	0x3d5eb76d	0.054374147
238	0xbd787f14	-0.060668066
239	0x3e56a551	0.209615
240	0xbdc76284	-0.09735587
241	0x3e917bdf	0.2841482
242	0x3d763f0f	0.06011873
243	0xbe185072	-0.14874437
244	0xbe83dc70	-0.25754118
245	0x3e30df93	0.17272787
246	0xbd953ed1	-0.07287372
247	0x3c81c134	0.015839197
248	0xbe1707a2	-0.14749005
249	0x3ddb157a	0.10697456
250	0xbe210662	-0.15725091
251	0x3c1d57f1	0.009603486
252	0x3bb4997b	0.0055114604
253	0xbda2cda2	-0.079493776
254	0xbe060ed4	-0.13091594
255	0x3cabe470	0.02098295

conv3.bias f4 [256]
0	0x3c0b036c	0.008484703
1	0xbe12374d	-0.14278908
2	0xbd70a51a	-0.058751203
3	0x3da3dc3f	0.08000993
4	0xbdebbcea	-0.11510642
5	0xbd33842c	-0.04382722
6	0x3ca16136	0.019699674
7	0xbe299e6c	-0.1656434
8	0xbc84626f	-0.016160218
9	0xbe74e22e	-0.23914406
10	0xbdf0d9d4	-0.117602974
11	0xbdab473b	-0.083631955
12	0xbe953c99	-0.29147795
13	0xbe6aed51	-0.22942092
14	0xbe1d4566	-0.15358505
15	0xbdd394fb	-0.1033115
16	0xbe27838b	-0.16358773
17	0xbde921fb	-0.113834344
18	0xbe901695	-0.2814223
19	0xbdb338c7	-0.08751064
20	0x3cb3cd35	0.021948436
21	0xbdebd176	-0.11514561
22	0xbe3fbbdb	-0.18724005
23	0x3e4d5594	0.20052177
24	0x3d890dea	0.06692107
25	0xbe02c4da	-0.12770405
26	0xbeb5fbb2	-0.3554359
27	0xbdd9a9fc	-0.10628125
28	0xbd1331c0	-0.035936117
29	0xbc68b664	-0.014203642
30	0x3c705be4	0.014670346
31	0x3cc49b6b	0.02399989
32	0xbe6c19a1	-0.23056652
33	0x3d7865ff	0.060644146
34	0x3d9048c4	0.07045129
35	0xbdf0cc49	-0.11757714
36	0xbe2294db	-0.15877096
37	0xbd94bfba	-0.072631314
38	0xbe1b3dcc	-0.15160292
39	0xbd744d29	-0.0596439
40	0x3e57523e	0.21027467
41	0xbe173a4c	-0.14768332
42	0xbe064ea3	-0.13115935
43	0xbe4d1fc1	-0.20031644
44	0x3d8dd737	0.069258146
45	0xbd57128b	-0.05250792
46	0x3d97cb78	0.074118555
47	0xbdae1647	-0.08500343
48	0xbe0e1899	-0.13876571
49	0xbe89de32	-0.26927334
50	0xbda28e0b	-0.07937249
51	0xbe1d0f2b	-0.15337817
52	0xbe7d7f58	-0.24755609
53	0xbc1f9885	-0.009740953
54	0xbe1f37f4	-0.15548688
55	0x3d21cfed	0.039504934
56	0xbe206410	-0.15663171
57	0xbe4443b5	-0.19166453
58	0xbdf0ecd2	-0.1176392
59	0x3aacad60	0.0013174228
60	0xbe1455e6	-0.14485893
61	0xbd6f8457	-0.05847582
62	0xbd239282	-0.039934643
63	0xbd852435	-0.065010466
64	0xbe2e2f96	-0.1701034
65	0xbe724764	-0.23660046
66	0x3cc9ab2c	0.024617754
67	0x3d9114fb	0.0708408
68	0xbe59d4e3	-0.21272616
69	0xbda4e7bd	-0.08052013
70	0xbd59c4a4	-0.053166047
71	0xbd2bfad4	-0.041987255
72	0xbcafbd36	-0.021452527
73	0xbc88c331	-0.016694637
74	0x3bff9016	0.007799159
75	0x3d2c7cb2	0.042111106
76	0xbea295c4	-0.31754887
77	0x3bb980c2	0.005661101
78	0xbd487f92	-0.048949786
79	0x3d1c4601	0.0381527
80	0xbe16585e	-0.14682147
81	0x3e2505cb	0.16115491
82	0x3b85643e	0.0040707877
83	0xbe6bca9e	-0.23026511
84	0x3e310d8f	0.17290328
85	0x3daea2bd	0.085271336
86	0xbdcaea15	-0.09907929
87	0xbe05b3c8	-0.13056862
88	0xbe113e17	-0.14183842
89	0x3e49313c	0.19647688
90	0x3e1e518d	0.15460797
91	0x3d7a6a93	0.061136793
92	0xbc6bb7d5	-0.014387091
93	0xbe216a31	-0.15763165
94	0xbe1887bb	-0.14895527
95	0xbe99367f	-0.2992439
96	0x3e84e05c	0.25952423
97	0xbe3e74b3	-0.18599205
98	0x3d8aeea3	0.067837976
99	0xbe539569	-0.20662464
100	0xbc9ebe0e	-0.019377735
101	0x3d892596	0.06696622
102	0xbe052e83	-0.13006024
103	0x3e6d7edb	0.23192923
104	0xbdd93c77	-0.10607236
105	0x3e9b6515	0.30350557
106	0x3e0a3327	0.13496076
107	0x3e653a7a	0.22385588
108	0x3e032197	0.12805782
109	0xbdf2a6e3	-0.11848237
110	0xbe72b8c7	-0.237033
111	0xbd2f9b71	-0.04287285
112	0x3cb0697f	0.02153468
113	0xbe39f51d	-0.1815991
114	0xbd8742b4	-0.066045195
115	0xbe404268	-0.18775332
116	0xbc28ddd5	-0.010306795
117	0xbdf2dff6	-0.118591234
118	0xbbd35aec	-0.0064500477
119	0x3e3e607a	0.1859149
120	0x3d293fca	0.0413206
121	0x3e618f8a	0.22027412
122	0x3d888397	0.06665724
123	0x3e1f5915	0.15561326
124	0x3e2e94c1	0.17048933
125	0xbeb4f59e	-0.3534364
126	0xbd8e5574	-0.06949893
127	0xbeb76f10	-0.3582692
128	0x3d25835b	0.040408473
129	0xbdc45b54	-0.09587732
130	0x3d4942bf	0.04913592
131	0xbdb554c6	-0.0885406
132	0x3ecdf421	0.40225318
133	0xbd9d08b4	-0.076676756
134	0xbd58e769	-0.052955065
135	0xbea56eec	-0.3231119
136	0xbd4425ac	-0.04788749
137	0xbe8515c7	-0.25993177
138	0xbe0828b0	-0.13296771
139	0xbe3f9547	-0.18709289
140	0xbd37e1f1	-0.04489321
141	0xbe8feacd	-0.28108826
142	0xbce76881	-0.028248074
143	0x3e5cb1e0	0.21552229
144	0xbe00ed09	-0.12590422
145	0x3e3d7d16	0.18504748
146	0xbdf91c84	-0.12163642
147	0xbe353698	-0.17696607
148	0x3e92a199	0.28638914
149	0x3e01e273	0.1268404
150	0xbd006c97	-0.03135356
151	0xbe094b6a	-0.13407674
152	0x3f06f49b	0.5271699
153	0x3e4738b8	0.1945523
154	0x3e2a94d1	0.16658331
155	0x3e931d98	0.28733516
156	0xbe28643c	-0.16444486
157	0xbe39d51e	-0.18147704
158	0xbd670fd8	-0.056411594
159	0x3eb915af	0.36149356
160	0x3e369a2b	0.17832248
161	0xbe434226	-0.19068202
162	0xbe1f2fcf	-0.15545581
163	0xbe6aabda	-0.22917119
164	0xbe0bbdab	-0.13646571
165	0xbe502a54	-0.20328647
166	0xbdd68ee5	-0.10476474
167	0x3e728d08	0.23686612
168	0xbe12266d	-0.14272471
169	0x3b9d0562	0.0047919014
170	0xbe1a3e99	-0.15062942
171	0xbc682c37	-0.014170698
172	0xbe63975a	-0.22225705
173	0xbaed66d0	-0.0018112306
174	0xbe169999	-0.1470703
175	0xbbfc1deb	-0.007693996
176	0xbdc5bc93	-0.09655108
177	0xbdf18f53	-0.11794915
178	0xbd80073c	-0.0625138
179	0xbe560156	-0.20898947
180	0x3d6316a0	0.0554415
181	0x3df3a4b6	0.118966505
182	0xbd85cc52	-0.06533112
183	0x3c7eb471	0.01554595
184	0xbda5e4ce	-0.08100282
185	0xbe02c9d3	-0.12772302
186	0x3ca005fa	0.0195341
187	0x3d07c5c0	0.033147573
188	0xbe1e1474	-0.1543749
189	0xbdd0c715	-0.10194222
190	0x3d3bd9bf	0.045861956
191	0xbdbb33f5	-0.091407694
192	0xbd50249a	-0.050816156
193	0x3ebf1b01	0.3732529
194	0xbd621e55	-0.055204708
195	0xbc834036	-0.01602183
196	0x3d25f3e0	0.04051578
197	0x3db53bb1	0.08849276
198	0xbe05dc59	-0.13072337
199	0x3e8b848c	0.27249563
200	0x3dc9a839	0.09846539
201	0x3d924a5d	0.0714309
202	0x3e216d61	0.15764381
203	0x3e81a308	0.25319695
204	0xbda35d8e	-0.079768285
205	0x3dd7c994	0.10536495
206	0x3d4b8713	0.049689364
207	0xbdc6745e	-0.09690164
208	0xbe001f7c	-0.1251201
209	0xbd84a26b	-0.06476291
210	0xbe9a6067	-0.30151674
211	0x3cbb3559	0.022852587
212	0xbdccb0e6	-0.09994678
213	0x3e0aaa26	0.13541469
214	0xbcd2f75d	-0.025752718
215	0xbe09cb67	-0.13456498
216	0xbd29f45a	-0.041492797
217	0xbe309a74	-0.17246419
218	0x3e843e78	0.2582891
219	0x3d66f60d	0.056386996
220	0x3e19967f	0.14998816
221	0xbd7cd91d	-0.061730493
222	0xbdde4244	-0.10852483
223	0xbdd940a5	-0.10608033
224	0x3d18dc80	0.03731966
225	0x3da85b95	0.08220593
226	0xbe1b32ad	-0.1515605
227	0xbd1c4574	-0.038152173
228	0x3e0d0cb3	0.13774376
229	0xbe2b4ad2	-0.1672776
230	0x3eb1c461	0.34720138
231	0xbeb1495e	-0.34626287
232	0xbe17df53	-0.14831285
233	0x3e995048	0.29944062
234	0xbd7b3172	-0.06132645
235	0xbd2409fc	-0.040048584
236	0x3df3811f	0.11889862
237	0xbda83237	-0.08212703
238	0xbd24053b	-0.04004405
239	0xbe2bb92f	-0.1676986
240	0xbd589ecc	-0.052885816
241	0x3ec523e2	0.3850394
242	0xbdc94559	-0.0982768
243	0xbd9643cf	-0.07337152
244	0xbceb994d	-0.028759623
245	0x3eff8290	0.499043
246	0x3e3d612b	0.18494098
247	0xbe914ab8	-0.28377318
248	0x3dd059e4	0.10173395
249	0x3eae10b4	0.33997118
250	0xbe08751e	-0.13325927
251	0xbe498e3b	-0.19683163
252	0xbea8d85e	-0.32977575
253	0x3e8840c8	0.26611924
254	0xbe5bc053	-0.21460085
255	0xbe9aa41e	-0.30203336

fc.weight f4 [12, 256]
0	0xbca6bb4b	-0.02035298
1	0x3d9fa6ce	0.07795487
2	0x3ccf943f	0.025339244
3	0x3d51a30a	0.051180877
4	0xbde09650	-0.1096617
5	0xbe3ac08d	-0.18237515
6	0x3d7de5eb	0.061986845
7	0xbd1080a1	-0.03527892
8	0x3cdbefe6	0.02684779
9	0x3d0bfc9a	0.034176446
10	0xbdc0a5c8	-0.0940662
11	0xbdd511b8	-0.1040377
12	0x3d21c618	0.039495558
13	0xbdc4a26e	-0.096012935
14	0x3cae655d	0.021288568
15	0xba501fd0	-0.0007939311
16	0x3d6ab0db	0.05729757
17	0xbd7e50ec	-0.062088892
18	0xbc5f27dd	-0.013620344
19	0x3d85f4a1	0.065408
20	0xb91af385	-0.00014777303
21	0x3daf1566	0.08549003
22	0xbd3a1c7e	-0.04543733
23	0x3cdd8c54	0.027044453
24	0x3d489aa3	0.048975598
25	0xbcfee6c8	-0.031115904
26	0xbc6bdb90	-0.0143956095
27	0xbcfb1f74	-0.030654646
28	0x3d6d5467	0.05794182
29	0x3d25f2f9	0.04051492
30	0x3d00883a	0.031379916
31	0x3b8c9328	0.0042900033
32	0xbd59dc08	-0.053188354
33	0x3c609ff8	0.0137100145
34	0xbd8e532e	-0.06949459
35	0x3d361b8c	0.044459864
36	0x3b9d322e	0.0047972417
37	0xbd5c0f90	-0.05372578
38	0x3d8d7aa9	0.06908161
39	0xbd9d32c8	-0.076757014
40	0x3cd63a67	0.026150895
41	0x3d51a831	0.05118579
42	0xbd23350c	-0.03984551
43	0xbdefdc8f	-0.1171199
44	0xbcf8aead	-0.03035673
45	0x3d5b0333	0.053469848
46	0xbdd8e451	-0.10590423
47	0xbdc95c16	-0.09832017
48	0x3d654601	0.055974964
49	0x3b8488f6	0.0040446473
50	0x3d2b217f	0.04177999
51	0x3bc19d2b	0.0059086285
52	0xbd8243d2	-0.06360592
53	0xbd5be8d5	-0.053688843
54	0xbc62aa37	-0.013834528
55	0x3d9aadd0	0.07552683
56	0x3d8392d6	0.06424491
57	0x3cd17efb	0.025573244
58	0x3bf53b0f	0.007483847
59	0xb9ed72e9	-0.00045289777
60	0xbc29237f	-0.010323404
61	0xbd00b937	-0.031426635
62	0xbcaa4904	-0.02078677
63	0x3d57b479	0.052662347
64	0x3cc773d9	0.024347233
65	0x3ca2cdc9	0.019873517
66	0x3cfa8ec5	0.030585656
67	0xbd962726	-0.07331686
68	0xbd4868c7	-0.04892805
69	0xba91907c	-0.0011105682
70	0x3d2e9405	0.04262163
71	0x3d88da7f	0.066823
72	0x3d8802fa	0.06641193
73	0xbe20fca3	-0.15721373
74	0x3d59ec98	0.05320415
75	0x3db66a92	0.089070454
76	0xbb75a2bb	-0.0037481028
77	0xbde2eb2e	-0.11080013
78	0x3ce940d3	0.028473293
79	0xbe0c3cc9	-0.13695063
80	0x3d802dde	0.062587485
81	0xbb9bae12	-0.0047509754
82	0x3d112125	0.035432
83	0xbd47a5d0	-0.048742115
84	0x3d1be44c	0.038059518
85	0xbd53cf5f	-0.051711436
86	0xbd6c4d74	-0.057691053
87	0xbe0294d9	-0.12752093
88	0x3d98dc23	0.07463863
89	0xbe13a07b	-0.14416687
90	0x3d07dc5a	0.033169128
91	0x3d177519	0.036976907
92	0xbda3b796	-0.079940006
93	0xbd19bff6	-0.037536584
94	0xbcb86a04	-0.02251149
95	0x3d3fbc5e	0.0468105
96	0xbe85b5b1	-0.26115182
97	0xbcfb14b2	-0.030649517
98	0x3c91f280	0.017815828
99	0x3b151c06	0.00227523
100	0xbc989f61	-0.018630685
101	0x3d644a10	0.055734694
102	0xbd48ad3c	-0.048993334
103	0xbe0579ea	-0.13034788
104	0x3ce70b9b	0.028203776
105	0xbe9ed71a	-0.31023484
106	0x3cd0aa0f	0.025471715
107	0x3cd7f796	0.026363175
108	0x3d67a216	0.05655106
109	0x3d7bb7a6	0.061454438
110	0x3d258596	0.0404106
111	0x3ceb2172	0.028702471
112	0x3d5357bb	0.05159734
113	0xbd8642da	-0.0655572
114	0x3d1bbe2b	0.038023155
115	0x3d1a7bde	0.037715785
116	0x3d732efc	0.05937098
117	0x3d34c037	0.044128623
118	0xbceaf201	-0.02867985
119	0x3d207cb2	0.03918142
120	0x3dc8cf88	0.098052084
121	0xbdb06d57	-0.08614605
122	0xbcff8f5e	-0.031196292
123	0x3c575d7e	0.013144849
124	0xbda3f382	-0.0800543
125	0xbd176002	-0.036956795
126	0x3d49eb41	0.04929662
127	0xb8d3a9db	-0.00010092902
128	0xbdb27740	-0.087141514
129	0x3e51b75f	0.20480107
130	0x3e6f8d89	0.23393835
131	0xbc59ff9e	-0.013305573
132	0xbe9e8bf6	-0.30966157
133	0x3d10db85	0.0353656
134	0xbdec050c	-0.115244
135	0x3db947e4	0.09046915
136	0x3dd7e4bc	0.105416745
137	0x3c2f46b2	0.010698007
138	0xbd2cf6b8	-0.042227477
139	0x3ccf0e2f	0.025275318
140	0x3d90baa2	0.070668474
141	0x3d896b58	0.06709927
142	0xbe6c1431	-0.23054577
143	0x3ea89d31	0.32932428
144	0xbd727023	-0.059188973
145	0x3b255a51	0.0025230835
146	0xbc4b2565	-0.012399052
147	0x3c5794c4	0.013158027
148	0x3d8e3654	0.06943956
149	0x3cda035b	0.026612928
150	0xbd24425b	-0.040102344
151	0x3d12fc88	0.035885364
152	0x3d05ec1b	0.03269587
153	0x3c135e04	0.008994583
154	0x3cb13abb	0.02163445
155	0x3cd12462	0.025530044
156	0xbe30e5f7	-0.17275225
157	0xbd091e8e	-0.033476405
158	0xbc6ed1eb	-0.0145764155
159	0xbe195fee	-0.14978
160	0x39a8d96e	0.00032205455
161	0xbd90c088	-0.070679724
162	0xbd0a812d	-0.033814598
163	0x3c416ae2	0.011805268
164	0x3d360c87	0.04444554
165	0xbe220847	-0.1582347
166	0xbb7a58e2	-0.003819995
167	0x3e0aec8d	0.135668
168	0x3d01b2b3	0.03166456
169	0xbe14cdca	-0.14531627
170	0xbc893f0a	-0.016753692
171	0xbd448d01	-0.047986034
172	0xbcd1d6bd	-0.02561509
173	0x3c704071	0.0146638015
174	0xbddfe6df	-0.10932707
175	0xbd4150e6	-0.04719629
176	0x3e055d84	0.13023955
177	0xbc586b53	-0.013209182
178	0xbafe5d1f	-0.0019406414
179	0x3d15d636	0.03658124
180	0x3d330b42	0.04371191
181	0xbdc41764	-0.09574774
182	0x3c994d5c	0.018713646
183	0xbcd8d3ea	-0.026468236
184	0xbc21d429	-0.009877243
185	0xbc8fbea1	-0.017546954
186	0xbd93b1cc	-0.072116464
187	0x3d6dc60f	0.05805021
188	0xbce3d8f9	-0.027813422
189	0xbd58add0	-0.052900136
190	0x3b09f4d0	0.002105046
191	0xbe14917a	-0.1450862
192	0x3c5997d8	0.013280831
193	0xbea2f704	-0.31829083
194	0xbc384c49	-0.011248657
195	0x3d8e6281	0.06952382
196	0x3c8b9169	0.01703711
197	0x3db34edf	0.08755278
198	0x3cbcb0d8	0.023033544
199	0xbca07682	-0.019587759
200	0x3ce53f8a	0.0279844
201	0x3b5051e4	0.0031787092
202	0x3cd7fc62	0.026365463
203	0xbd95a745	-0.07307295
204	0x3da96f8a	0.082732275
205	0x3d02f229	0.031969223
206	0x3d131e4c	0.035917565
207	0x3bf29586	0.0074030785
208	0x3d22dfbc	0.03976415
209	0xbd481da8	-0.048856407
210	0xbc2ab8a6	-0.01042
211	0xbe0a3e8b	-0.13500421
212	0xbd5b66a9	-0.0535647
213	0x3d8cbf80	0.06872463
214	0x3da00c3a	0.07814832
215	0xbc9e84b4	-0.019350387
216	0x3bae3b73	0.0053171455
217	0x3b8bef96	0.004270504
218	0xbd45d09f	-0.04829466
219	0x3d77cd49	0.06049851
220	0x3d6fe3cb	0.05856685
221	0xbd287b83	-0.041133415
222	0x3d9ba014	0.07598892
223	0xbe8798bd	-0.26483718
224	0xbd055916	-0.032555662
225	0xbc61f2aa	-0.013790766
226	0xbd2b7615	-0.04186066
227	0x3d343b8c	0.0440021
228	0xbe85301b	-0.26013264
229	0xbcd61586	-0.02613331
230	0x3d6915a2	0.056905396
231	0xbdb64b3b	-0.08901068
232	0x3c791acb	0.015204142
233	0x3d8bf8fa	0.06834598
234	0x3c943d45	0.018095622
235	0xbe375af2	-0.17905787
236	0x3c444862	0.011980148
237	0xbd1ddc05	-0.038539905
238	0x3d9039d1	0.070422776
239	0xbd969df7	-0.07354348
240	0x3c731ccb	0.014838408
241	0x3cebd480	0.028787851
242	0xbbc7b002	-0.00609398
243	0xbd451863	-0.04811896
244	0xbd12b12c	-0.035813496
245	0x3c845724	0.016154833
246	0x3d22fd22	0.039792188
247	0xbc973b5d	-0.018460924
248	0x3d112b06	0.03544142
249	0xbe75d7ec	-0.24008149
250	0xbc7c530b	-0.015400658
251	0xbc4fb895	-0.012678285
252	0x3bec161f	0.0072047855
253	0x3d486c5c	0.048931465
254	0x3db3e7da	0.087844566
255	0x3d762f9d	0.060104

fc.bias f4 [12]
0	0xbebb7fca	-0.36620933
1	0xbec562e8	-0.38552022
2	0xbee015d8	-0.43766665
3	0xbef9ff48	-0.48827577
4	0xbeae448f	-0.3403668
5	0x3e743ac1	0.23850538
6	0x3e51aadc	0.20475334
7	0x3e0d2dc1	0.13786985
8	0x3e5a45d9	0.21315707
9	0x3ebcb03b	0.36853203
10	0x3ea7a9f3	0.32746848
11	0xbf2d7a4c	-0.67764735
