src/main/python/saved_models/csharp_1_55_CNNClassifier1_64embs_183id_64hd_0hl_Falsebid5kernel0.3dropout_1.pt (torch, 848715 bytes, 9 tensors)

emb.weight f4 [183, 64]
0	0xbfc145d9	-1.5099441
1	0xbf5a5c3f	-0.85297006
2	0x3e2719b9	0.16318406
3	0x3f2c0c6d	0.6720646
4	0x3f40eb30	0.7535887
5	0xbf5a7ff4	-0.8535149
6	0x4017c65f	2.3714826
7	0x3fb7c4af	1.4356898
8	0x3e4ed6e3	0.2019916
9	0xc0296fb0	-2.6474419
10	0xbf61ee29	-0.8825403
11	0x3fb39fff	1.4033202
12	0xbeff62df	-0.4988012
13	0xbea16bb6	-0.3152749
14	0xc00c0d35	-2.188306
15	0xbfaeecfc	-1.3666072
16	0x3ef6e5bc	0.48222148
17	0xbea52bbf	-0.32259938
18	0xbef3d9fb	-0.47627243
19	0x3ef1d2cc	0.47231138
20	0xbe86e3bd	-0.26345626
21	0xbe00d433	-0.12580948
22	0x3ffb34a8	1.9625444
23	0x3e147072	0.1449602
24	0xbf95332c	-1.1656241
25	0xbfada303	-1.3565372
26	0x3fb46433	1.4093078
27	0xbff95466	-1.9478881
28	0x3fc375ca	1.5270321
29	0xbef79e26	-0.48362845
30	0x3f9a614d	1.2060944
31	0xbf71ff8f	-0.94530576
32	0x3e18d7b8	0.1492604
33	0x3f3a0165	0.7265838
34	0xbf60000d	-0.8750008
35	0x3f672eee	0.90305984
36	0x3d5aa088	0.05337575
37	0xbf222c11	-0.6334849
38	0xbf1faadc	-0.62370086
39	0xbe806fbd	-0.2508525
40	0x3ec4a0bf	0.3840389
41	0xbf959366	-1.1685607
42	0x3feff66b	1.8747076
43	0xbed37d9b	-0.41306767
44	0xc0164a4d	-2.348285
45	0x3fef91a0	1.8716316
46	0xbebc424a	-0.36769325
47	0x3ee64967	0.44977877
48	0x3f7bb8c7	0.9832882
49	0xbf557f04	-0.83396935
50	0x400715bf	2.1107023
51	0xbfc1bd41	-1.5135881
52	0xc020123b	-2.5011127
53	0x3f6198ea	0.88123953
54	0x3fc734a9	1.5562946
55	0x4033fb8f	2.812229
56	0xc013be28	-2.3084812
57	0x3e6def81	0.23235895
58	0xbf8a01b5	-1.0781771
59	0x3fc67f77	1.5507649
60	0x3eeb1b97	0.45919487
61	0xbfc9a58c	-1.5753646
62	0xbf998229	-1.1992847
63	0xbdb51304	-0.088415176
64	0x3d0558f5	0.03255554
65	0x3ee23386	0.44179934
66	0x3e6eb351	0.23310591
67	0x3f145e89	0.5795675
68	0x3f4075a2	0.75179493
69	0xbed63ad1	-0.41841748
70	0x3f4d4e23	0.8019735
71	0x3e5934a3	0.21211486
72	0x3f20d952	0.62831604
73	0xbfd69e84	-1.6767125
74	0x3f20ec9a	0.62861025
75	0xc0003775	-2.0033848
76	0x3f5d64ed	0.86482126
77	0xbfa5e24b	-1.2959684
78	0x3ed9c695	0.4253432
79	0xbdaa351a	-0.083109096
80	0x3f25ddde	0.6479167
81	0x3f8dab0c	1.1067824
82	0x3ee1ace2	0.44077212
83	0xbf0ed866	-0.5579895
84	0xbe168e51	-0.14702727
85	0xbfc964a3	-1.5733837
86	0x3f065429	0.5247217
87	0xbd7a238e	-0.061069064
88	0xbe3bff50	-0.18359113
89	0xbef7a999	-0.4837158
90	0x3f437096	0.7634367
91	0x3f74517e	0.9543685
92	0xbf112bc6	-0.5670742
93	0xbf2592ff	-0.64677423
94	0x404990a3	3.149453
95	0x3e6790e5	0.22613867
96	0x3fe519aa	1.7898457
97	0xbf8e139a	-1.1099732
98	0x3fe7eaa7	1.8118485
99	0x3e6c929d	0.23102804
100	0x3f32875d	0.697378
101	0x3f9f0b63	1.242535
102	0xbf9d1f3b	-1.2275156
103	0x3ebd4b87	0.36971685
104	0xbedacfea	-0.4273675
105	0x3f8c5559	1.0963546
106	0xbe4d9774	-0.20077306
107	0xbf2aa68d	-0.66660386
108	0x3f5e1992	0.8675777
109	0x3f81a89c	1.012958
110	0xbeb45960	-0.35224438
111	0xbf99f899	-1.2028991
112	0x3a981312	0.0011602363
113	0xbe5f2320	-0.21790743
114	0x3e3755f8	0.17903888
115	0xbe8fba38	-0.2807176
116	0x3eacc70b	0.33745608
117	0xbddf8583	-0.10914137
118	0xbf62c38a	-0.8857962
119	0x3faba076	1.3408344
120	0xbead9488	-0.33902383
121	0x401cc993	2.449803
122	0xbe68b4dd	-0.22725244
123	0x3e504feb	0.20342986
124	0x3f882fda	1.0639603
125	0xbea5c266	-0.32374877
126	0x401f56fe	2.4896846
127	0xbf6413da	-0.8909279
128	0xbfe867e7	-1.8156708
129	0xbf192617	-0.59823745
130	0xbf3dd521	-0.74153334
131	0xbed40ad0	-0.414145
132	0x3eff6850	0.49884272
133	0x3fa41746	1.2819602
134	0x3e5f08fa	0.21780768
135	0x3d25017f	0.04028463
136	0xbf363e80	-0.7118912
137	0xbf899735	-1.074927
138	0xc0060bbf	-2.094467
139	0xbf24ad79	-0.643272
140	0x3e6bcdab	0.23027675
141	0xbf5b4923	-0.8565847
142	0x3f39702b	0.7243678
143	0x3ec614f5	0.38687864
144	0x3d3b5f3b	0.045745116
145	0x3e3bc86d	0.18338175
146	0x3f95a37d	1.1690518
147	0xbe42bef7	-0.1901816
148	0xbfa7de0e	-1.3114641
149	0x3f21bffe	0.6318358
150	0x400f2775	2.2367833
151	0x3ef7e403	0.48416147
152	0x3f170f61	0.5900784
153	0x3f351e56	0.70749414
154	0x3f8344d0	1.0255375
155	0xbeabc8d9	-0.33551672
156	0xbe9f2167	-0.3108017
157	0x3fea7570	1.8317089
158	0x40010137	2.0156991
159	0x3f83068f	1.0236377
160	0x3f0ef458	0.5584159
161	0xbeaf3fbe	-0.3422832
162	0xbebe4906	-0.37165087
163	0x3f015023	0.50512904
164	0x3fb72ade	1.4309957
165	0x3f246648	0.6421857
166	0xbe332bf6	-0.17497239
167	0xbf0a0f47	-0.5392956
168	0x3fea5ed1	1.8310186
169	0xbe3601ba	-0.17774096
170	0xbee1eaaa	-0.44124347
171	0x3fdbbfca	1.7167904
172	0x3fc8e90c	1.569612
173	0x3f56fc4c	0.83978724
174	0x3f17c82e	0.59289825
175	0xbfae026a	-1.3594487
176	0x3ec96038	0.39331222
177	0xbe41500e	-0.18878195
178	0xbf0e6a8d	-0.55631334
179	0xbfd70990	-1.6799793
180	0x3f19c506	0.6006626
181	0xbf281d28	-0.6566949
182	0x3e11218e	0.14172956
183	0xbeb7c81b	-0.35894856
184	0x3eaad22f	0.33363482
185	0xbe0b2fef	-0.13592504
186	0xbf6db7a3	-0.9285833
187	0x3fb5aa13	1.4192528
188	0x3e445e65	0.19176634
189	0xbf6db87f	-0.92859644
190	0x3d15d3a5	0.036578793
191	0x3dc44d17	0.09585016
192	0x3db5cd6b	0.08877071
193	0xbfaceb58	-1.3509321
194	0xbf722b92	-0.94597733
195	0x3f33080f	0.6993417
196	0xbeedaa16	-0.46418828
197	0xbd3c68dc	-0.04599844
198	0x3f507935	0.8143495
199	0xbf20c741	-0.6280404
200	0x40019f24	2.0253382
201	0x3f1a8d21	0.60371596
202	0xbdbad1e8	-0.09122068
203	0xbf92a644	-1.145699
204	0xbeed70a1	-0.46374992
205	0xbfcd2486	-1.6026771
206	0xc00ddbf5	-2.21655
207	0xbd274153	-0.040833782
208	0xbf20b4b6	-0.62775743
209	0x3f1f7a57	0.6229605
210	0x3f8055e8	1.0026217
211	0xbf52a190	-0.82277775
212	0x3ed9ffa5	0.42577854
213	0x3efe1657	0.4962642
214	0x3f71520f	0.94265836
215	0xbf3c4108	-0.7353673
216	0x403e530b	2.9738185
217	0xbf06a828	-0.52600336
218	0x3eaf390c	0.3422321
219	0x3fa1f3cb	1.2652525
220	0x401a639a	2.4123292
221	0x3e4cd3ef	0.20002721
222	0x3f00c870	0.50305843
223	0x3e36f4eb	0.17866866
224	0x3f9dd671	1.2331067
225	0xbe3b7ad2	-0.18308571
226	0xbf963074	-1.1733537
227	0xbfa5f5bf	-1.2965621
228	0x3f8edf2c	1.1161857
229	0xbf585681	-0.84506994
230	0x3f041823	0.5159933
231	0xbf894e86	-1.0727088
232	0xbf52d32a	-0.8235346
233	0xc0086048	-2.1308765
234	0x3e4fcb6f	0.20292448
235	0xbecd32ba	-0.40077764
236	0xbd5667cb	-0.05234508
237	0x3f5355f9	0.8255306
238	0x3eef4012	0.4672857
239	0x3ff3bf7c	1.9042811
240	0xbe98edc2	-0.29868895
241	0x3f1d1ffe	0.6137694
242	0xbdf8d1f4	-0.121494204
243	0x3e65d185	0.22443207
244	0x3e6e1736	0.23251042
245	0xbe109aff	-0.14121626
246	0x3fe4a9cf	1.7864321
247	0xbfb9a299	-1.4502746
248	0xbec97c22	-0.39352518
249	0xbe987bed	-0.29782048
250	0xbea763e3	-0.32693395
251	0xbf82df69	-1.0224429
252	0xc00c6fdc	-2.1943274
253	0xbf6a7f2d	-0.91600305
254	0xbf273b78	-0.6532512
255	0xbea8a776	-0.32940263

conv1.weight f4 [64, 64, 5]
0	0x3e959617	0.29216072
1	0xbd31a0b0	-0.043366134
2	0x3ce26b50	0.027639061
3	0xbee42e5c	-0.4456662
4	0xbde556a6	-0.111981675
5	0x3e9050b4	0.28186572
6	0x3d8c46af	0.06849419
7	0x3db007e5	0.08595256
8	0xbde84c50	-0.113426805
9	0xbe25b18b	-0.16181009
10	0x3c9f51be	0.019448157
11	0xbe4c0b3e	-0.19926164
12	0x3b9b7219	0.004743826
13	0xbef28dd6	-0.47373837
14	0xbdf1e61b	-0.11811467
15	0xbcd44653	-0.02591244
16	0xbe3ac8e0	-0.1824069
17	0xbe3b5796	-0.1829513
18	0xbd3d6e18	-0.04624757
19	0x3e0899fa	0.13339987
20	0x3de36c49	0.11104638
21	0xbcee92b5	-0.02912269
22	0x3aebd19d	0.0017991547
23	0xbd7f5959	-0.062341068
24	0x3e8fade7	0.28062364
25	0xbea702b1	-0.3261924
26	0xbe2879c4	-0.164527
27	0xbd84d636	-0.0648617
28	0xbd330bcd	-0.043712426
29	0xbd9a2782	-0.07527067
30	0xbd701d35	-0.058621604
31	0x3d1015d8	0.03517708
32	0xbdadedb8	-0.08492607
33	0x3dd0c541	0.10193873
34	0x3e3dfc9c	0.18553394
35	0xbde48ce2	-0.11159684
36	0x3e6283b0	0.22120547
37	0xbdbd7d17	-0.092523746
38	0xbe3baa12	-0.18326595
39	0xbcc80a58	-0.024418995
40	0x3e1f644c	0.15565604
41	0x3d7d16a6	0.061789177
42	0xbd21698b	-0.039407294
43	0xbca1a73a	-0.01973306
44	0xbda37d2c	-0.07982859
45	0xbe8f3e17	-0.27977058
46	0xbeb30b1f	-0.34969422
47	0xbd071f2a	-0.032988705
48	0xbddbed21	-0.10738588
49	0x3e8594e9	0.26090172
50	0x3e0cf60e	0.13765737
51	0xbe329581	-0.17439844
52	0xbdbafd22	-0.091303125
53	0x3e3dcd7c	0.18535417
54	0x3e227b95	0.15867455
55	0xbe256854	-0.1615308
56	0xbd38fcd0	-0.045162976
57	0x3d3b427b	0.045717698
58	0xbdbb7951	-0.09153999
59	0x3d1a9ec8	0.03774908
60	0xbd803f94	-0.062621266
61	0xbbb1e29b	-0.005428625
62	0xbd0378b3	-0.03209753
63	0xbdc366a9	-0.09541065
64	0x3cfdc14c	0.03097596
65	0xbd8b0690	-0.06788361
66	0xbd5aea81	-0.053446297
67	0xbe558400	-0.20851135
68	0x3de8f600	0.11375046
69	0x3d745935	0.059655387
70	0xbe2409c1	-0.16019346
71	0xbe174ec7	-0.14776145
72	0xbd2f5e0b	-0.042814296
73	0xbc58b0f4	-0.013225783
74	0x3d41b6e0	0.047293544
75	0x3d022b10	0.03177935
76	0x3ac80aa5	0.0015261961
77	0x3befb04c	0.0073147174
78	0xbe940796	-0.28912038
79	0x3c883f75	0.016631821
80	0x3e1b7af8	0.15183628
81	0x3ddc7331	0.107641585
82	0x3e2511a8	0.16120017
83	0x3ddb2c53	0.107018135
84	0x3e71576a	0.23568502
85	0x3d5e48a6	0.0542685
86	0x3e20bcc8	0.15697014
87	0xbd9adb70	-0.07561386
88	0x3db321e8	0.087467015
89	0x3db8e181	0.090273865
90	0xbe503e3f	-0.20336245
91	0xbe2ed560	-0.17073584
92	0x3d99b434	0.07505074
93	0x3da79d28	0.08184272
94	0xbe08b486	-0.13350114
95	0x3e519b13	0.20469312
96	0x3de36ed0	0.1110512
97	0xbe7c38ed	-0.2463109
98	0xbd91f546	-0.0712686
99	0xbe927894	-0.2860762
100	0xbd759e34	-0.059965327
101	0xbc6f00d9	-0.014587604
102	0x3c3df7f4	0.011594761
103	0x3df050ce	0.11734162
104	0xbe1510b7	-0.14557157
105	0xbe038593	-0.12843923
106	0x3d8d6650	0.0690428
107	0x3dad083a	0.08448835
108	0x3e167a4a	0.14695087
109	0x3da99efc	0.08282277
110	0xbe37c67b	-0.17946808
111	0x3c67e534	0.014153767
112	0xbdbcaa15	-0.09212128
113	0xbe453fbd	-0.19262595
114	0x3dc7f40f	0.09763347
115	0x3c8b6c4a	0.01701941
116	0xbdb5cadf	-0.08876585
117	0x3cb5c74f	0.022189764
118	0xbc4c846c	-0.012482744
119	0xbb3c0fad	-0.0028695867
120	0xbdac9e15	-0.08428589
121	0xbcd81cd4	-0.026380934
122	0x3d65dd18	0.056119055
123	0xbc08905f	-0.008335202
124	0xbeaf2682	-0.34209067
125	0x3d9b7bd8	0.07591981
126	0xbdcdddcb	-0.10052069
127	0x3df18cc3	0.11794426
128	0xbe88a051	-0.26684812
129	0xbd9ab4de	-0.07554029
130	0x3defc6da	0.1170785
131	0x3dd02a36	0.10164301
132	0xbde8b45a	-0.11362524
133	0x3d0c826a	0.03430406
134	0xbde9a3d1	-0.114081986
135	0x3de9d0df	0.11416792
136	0x3e2f8865	0.17141874
137	0xbe93e90f	-0.28888747
138	0xbe4005af	-0.18752168
139	0x3e48efeb	0.19622771
140	0xbec5ea33	-0.38655242
141	0xbe11cb34	-0.14237672
142	0xbe893f61	-0.26806167
143	0xbe7dfaf2	-0.2480276
144	0x3e0b4e25	0.13604029
145	0xbd304500	-0.043034554
146	0x3de58438	0.11206859
147	0xbd9d8ef4	-0.07693282
148	0x3de6154a	0.11234529
149	0xbcdfabed	-0.02730366
150	0x3896a1f8	7.1827264e-05
151	0xbde774f2	-0.113016024
152	0xbc2976c0	-0.010343254
153	0x3d83f595	0.064433254
154	0x3be7ba76	0.0070717884
155	0xbe8d9e7a	-0.2765997
156	0x3e77fdcc	0.2421791
157	0xbddb0192	-0.10693659
158	0x3ddd7ddd	0.10815022
159	0xbdb7e6f4	-0.08979598
160	0xbdbb7c0c	-0.091545194
161	0x3d246c43	0.04014231
162	0x3e2f96bc	0.17147344
163	0x3e8e46e0	0.27788448
164	0xbdc50809	-0.09620673
165	0x3c8bd177	0.017067654
166	0x3de6c050	0.112671494
167	0xbbd58ac5	-0.0065167868
168	0x3d84f354	0.06491724
169	0x3e6e3cb0	0.23265338
170	0x3bf2d760	0.0074109286
171	0x3dc3aed6	0.09554832
172	0x3d4cf74e	0.050040536
173	0x3c970ec3	0.018439656
174	0x3d16584d	0.036705304
175	0xbda6e9c8	-0.08150059
176	0xbe6902e0	-0.22755003
177	0x3d3367dc	0.04380022
178	0x3dc0a9e8	0.09407407
179	0xbe06989d	-0.13144155
180	0xbe0f651f	-0.14003418
181	0x3e0ffa6e	0.14060375
182	0x3e941864	0.2892486
183	0xbd70b4c7	-0.058766153
184	0x3bac89b1	0.0052654375
185	0xbcb5e5cc	-0.022204302
186	0x3ddc99e2	0.10771538
187	0xbe51761b	-0.2045521
188	0xbcf36258	-0.02970998
189	0x3ce7796d	0.028256143
190	0xbc7d45b9	-0.015458518
191	0xbda5c98e	-0.08095084
192	0xbd34d321	-0.04414666
193	0x3c213a28	0.009840526
194	0x3d08aed3	0.03336985
195	0x3d82ab90	0.06380379
196	0xbcb734e8	-0.022364095
197	0x3d82f843	0.063950084
198	0xbd31f4c8	-0.043446332
199	0x3c9016d1	0.017589005
200	0x3dd0bae7	0.10191899
201	0x3d8910b9	0.06692643
202	0x3d1aa277	0.037752595
203	0xbd18c467	-0.03729668
204	0xbdd55466	-0.10416488
205	0xbdffeb90	-0.12496102
206	0xbd4decca	-0.050274648
207	0x3df7ff44	0.12109235
208	0x3e89d330	0.26918936
209	0x3d81dc2b	0.06340822
210	0xbdcad1e3	-0.09903314
211	0xbe83d724	-0.25750077
212	0x3d3a325d	0.045458186
213	0xbd87f780	-0.06639004
214	0x3d32847a	0.04358337
215	0xbe5607c9	-0.20901407
216	0x3df4678e	0.11933814
217	0xbe705c3e	-0.23472688
218	0xbe47c9cc	-0.19510573
219	0xbe080f30	-0.13287044
220	0xbe22caec	-0.15897721
221	0xbe31caf5	-0.17362578
222	0xbe0d478a	-0.13796821
223	0x3e1b57c8	0.15170205
224	0xbe080b16	-0.13285479
225	0x3d8f20da	0.06988688
226	0xbc1e1c34	-0.009650279
227	0xbd9ad70a	-0.07560547
228	0xbe9bdd6f	-0.30442378
229	0x3d8275cf	0.063701265
230	0xbd81803d	-0.06323288
231	0x3de08aae	0.10963951
232	0x3e04a56c	0.12953728
233	0x3e0791ea	0.13239256
234	0xbe1efd94	-0.1552642
235	0xbc56d017	-0.013111136
236	0xbd49a083	-0.04922534
237	0xbe864eee	-0.26232094
238	0x3bc63682	0.0060489783
239	0x3deef836	0.11668436
240	0x3c0d7478	0.008633725
241	0x3cb07805	0.021541605
242	0xbe076863	-0.13223414
243	0xbcade972	-0.02122948
244	0xbe112998	-0.14176023
245	0xbda005bd	-0.078135945
246	0x3da811ef	0.082065456
247	0x3e47d4ea	0.19514814
248	0x3eb0f53a	0.34562093
249	0xbd254d75	-0.040357072
250	0xbe5f3463	-0.21797328
251	0xbe78cf9e	-0.2429795
252	0xbcc6271c	-0.02418857
253	0x3e991bae	0.2990393
254	0x3de223a7	0.110419564
255	0xbdd4ae1f	-0.103847735

conv1.bias f4 [64]
0	0xbe50db72	-0.20396212
1	0xbe404b37	-0.18778692
2	0xbe669db3	-0.22521095
3	0xbe76461d	-0.24050184
4	0xbe1a7999	-0.15085448
5	0xbe630814	-0.2217105
6	0xbe504d93	-0.20342092
7	0xbe7a5901	-0.24448015
8	0xbe323794	-0.17404014
9	0xbe4b2ae4	-0.1984058
10	0xbe29091b	-0.1650738
11	0xbe351d9e	-0.1768708
12	0xbe1be0aa	-0.15222421
13	0xbe18ffe1	-0.1494136
14	0xbe6bcba1	-0.23026897
15	0xbe97a079	-0.29614618
16	0xbe863470	-0.26211882
17	0xbe3bc6b7	-0.18337522
18	0xbe5bc375	-0.2146128
19	0xbe5ea3f6	-0.21742234
20	0xbe3102b2	-0.17286184
21	0xbe410148	-0.18848145
22	0xbe670134	-0.22559053
23	0xbe68bf73	-0.22729282
24	0xbe295d8e	-0.16539595
25	0xbd8a8044	-0.06762746
26	0xbe5c7fe9	-0.21533169
27	0xbe2907d2	-0.1650689
28	0xbe8951a3	-0.26820096
29	0xbdd5a484	-0.104317695
30	0xbe8a53f6	-0.27017182
31	0xbe17b90f	-0.14816688
32	0xbe519aff	-0.20469283
33	0xbe1ffe5a	-0.15624371
34	0xbdf42144	-0.119204074
35	0xbe639909	-0.22226347
36	0xbdf7df3c	-0.121031255
37	0xbdcf00ac	-0.1010755
38	0xbe2f7992	-0.17136219
39	0xbe4b88c0	-0.19876385
40	0xbeae6a3e	-0.3406543
41	0xbe4fc57c	-0.20290178
42	0xbe985bd5	-0.29757562
43	0xbe85947d	-0.2608985
44	0xbe54e3f7	-0.20790087
45	0xbe590db4	-0.21196634
46	0xbe68d6c1	-0.22738172
47	0xbe920246	-0.2851736
48	0xbe67ec6d	-0.22648783
49	0xbe5e376b	-0.21700828
50	0xbe8ed757	-0.27898666
51	0xbe644d9c	-0.2229523
52	0xbe43204a	-0.19055286
53	0xbe3a41fc	-0.18189234
54	0xbe56b934	-0.20969087
55	0xbe4a6235	-0.19764026
56	0xbe3e2675	-0.18569358
57	0xbe143068	-0.1447159
58	0xbe1802b9	-0.14844789
59	0xbe368f71	-0.17828156
60	0xbe777305	-0.2416497
61	0xbe04ad7c	-0.12956804
62	0xbde8b76d	-0.11363111
63	0xbe7f0ed3	-0.24907999

conv2.weight f4 [64, 64, 3]
0	0x3ce74336	0.02823029
1	0x3dacbb02	0.084341064
2	0x3d32fdd5	0.043699104
3	0x3e90a224	0.28248703
4	0xbd422ac5	-0.04740407
5	0x3d9f5797	0.07780378
6	0xbd680553	-0.056645703
7	0x3d697178	0.056992978
8	0x3bbd7e0a	0.0057828473
9	0x3d451d6f	0.048123773
10	0xbb3c8c0d	-0.002877
11	0xbdfdc718	-0.1239149
12	0xbd71b643	-0.05901171
13	0x3df9d31d	0.1219847
14	0x3da53b15	0.0806791
15	0x3d40796c	0.046990797
16	0xbdb3a7a2	-0.08772208
17	0xbe018ddb	-0.1265177
18	0xbdd1c041	-0.10241748
19	0x3d4c9938	0.04995081
20	0x3d59fadf	0.053217765
21	0xbdb597b1	-0.088668235
22	0xbe2b122a	-0.16706148
23	0x3d9f0582	0.077647224
24	0x3d0d8d0d	0.034558345
25	0xbd614bad	-0.05500381
26	0xbe2060e6	-0.15661964
27	0x3da34c0c	0.07973489
28	0x3aebf819	0.0018003016
29	0xbd9d0d1a	-0.076685145
30	0xbe2763ce	-0.16346666
31	0xbaf0365f	-0.0018326751
32	0x3c880c2b	0.016607365
33	0x3d580105	0.052735347
34	0x3d995caa	0.074883774
35	0x3c752488	0.014962323
36	0xbe8556f4	-0.26042902
37	0x3c2929c4	0.010324899
38	0x3d3f4827	0.04669967
39	0x3c417057	0.011806569
40	0xbdaea75a	-0.085280135
41	0x3b787478	0.0037911218
42	0x3d2f6afb	0.042826634
43	0xbce622e0	-0.028092802
44	0xbdbbbeb7	-0.09167235
45	0xbda25486	-0.07926278
46	0x3cfb0f34	0.030646898
47	0x3e0b0b04	0.13578421
48	0xbe13c076	-0.14428887
49	0x3d955a67	0.072926335
50	0x3e33bb95	0.17552026
51	0xbc2c0807	-0.010499961
52	0xbde92cf2	-0.11385526
53	0x3dae435a	0.0850894
54	0xbd18414c	-0.037171647
55	0xbdbe32ab	-0.09287008
56	0xbe2f042b	-0.17091434
57	0xbe1aa9fe	-0.1510391
58	0xbdddf036	-0.10836832
59	0xbd800e4d	-0.06252728
60	0xbe411404	-0.18855292
61	0xbc85512a	-0.016274054
62	0xbd8f8b7d	-0.07009027
63	0xbe027707	-0.12740718
64	0x3d86e00e	0.06585704
65	0x3d321a4e	0.043482117
66	0x3c447af7	0.011992208
67	0x3e20cb85	0.15702637
68	0x3dcd8491	0.10035051
69	0x3e5565e3	0.20839648
70	0xbdf7e1f4	-0.12103644
71	0xbe94854f	-0.29007956
72	0x3d10616d	0.035249162
73	0xbe8fbc8e	-0.28073543
74	0xbdfb38bb	-0.1226668
75	0x3edace5a	0.4273556
76	0xbdb3ecf7	-0.08785432
77	0xbd92ac9f	-0.07161831
78	0x3dd5b32a	0.104345635
79	0xbc977fd0	-0.018493563
80	0xbd4181e9	-0.047243033
81	0xbdba1d90	-0.0908767
82	0x3c2db37e	0.010601876
83	0x3c944eec	0.01810404
84	0xbd130ee5	-0.035902876
85	0x3da998c2	0.08281089
86	0x3d0ed6ce	0.034872822
87	0x3da953b6	0.0826792
88	0xbd4b1c57	-0.049587574
89	0x3e3b9b35	0.18320926
90	0xbd41f100	-0.047348976
91	0x3deffe91	0.117184766
92	0xbdee8164	-0.11645773
93	0x3e257320	0.16157198
94	0xbe5751ad	-0.2102725
95	0x3d94432a	0.07239373
96	0x3bedca6a	0.0072567957
97	0x3dc111be	0.09427212
98	0x3dc252be	0.09488438
99	0xbcf449bf	-0.029820321
100	0x3c6cd1ed	0.014454347
101	0x3e2a1a8f	0.16611694
102	0x3d401c93	0.04690225
103	0x3dc88521	0.09791017
104	0x3d9c44db	0.07630321
105	0x3db8453b	0.0899758
106	0x3df3a18c	0.11896047
107	0x3ba48b60	0.0050214976
108	0x3e04eecf	0.12981723
109	0x3ddedecf	0.10882341
110	0x3e041134	0.12897187
111	0x3e066dc2	0.13127807
112	0xbd5f2ecd	-0.054487992
113	0x3d85436f	0.065070026
114	0x3d433ac1	0.047663454
115	0xbd5e87fb	-0.0543289
116	0xbc08c48d	-0.008347643
117	0xbba7a9c7	-0.0051166746
118	0xbe7f230e	-0.24915716
119	0xbdb271e4	-0.08713129
120	0x3d3b97ed	0.045799185
121	0x3e716fca	0.235778
122	0x3dba2db5	0.09090749
123	0xbe86dd1c	-0.26340568
124	0x3da19bfe	0.07891081
125	0x3db0be3c	0.08630034
126	0x3d3abe84	0.045591846
127	0x3a76b85a	0.0009411626
128	0xbe34a324	-0.17640358
129	0xbe70a48f	-0.23500274
130	0xbdeaf8b1	-0.11473215
131	0x3d7ead00	0.062176704
132	0x3d0e0db2	0.03468103
133	0xbbd36f56	-0.0064524813
134	0xbe6b8a01	-0.23001863
135	0xbe4f777c	-0.20260423
136	0xbde2c1d4	-0.11072126
137	0x3c8dadeb	0.017294845
138	0xbda04f91	-0.07827676
139	0xbdf67806	-0.120346114
140	0xbdd92603	-0.10602953
141	0xbe2e3f5d	-0.17016359
142	0x3c9fccd0	0.019506842
143	0x3d8f2856	0.06990115
144	0x3bbdbeb2	0.005790555
145	0xbc151b88	-0.009100802
146	0xbe340d3a	-0.1758317
147	0x3d826adf	0.0636804
148	0x3dddfeb6	0.10839598
149	0x3cc9e9be	0.02464759
150	0x3d5f8cb8	0.05457756
151	0x3d85b559	0.0652873
152	0xbde23454	-0.11045137
153	0xbce715b1	-0.028208585
154	0xbe205fc6	-0.15661535
155	0xbca36abe	-0.01994836
156	0x3d3e5607	0.04646876
157	0xbad79edf	-0.0016450546
158	0x3c993541	0.018702151
159	0xbd0d0fac	-0.034438774
160	0xbb6b67c1	-0.0035919996
161	0xbddaed15	-0.10689751
162	0x3dfb837b	0.12280937
163	0x3e52814b	0.20557134
164	0xbcbf0fbc	-0.023322932
165	0xbe04aa99	-0.12955703
166	0xbe44e914	-0.19229537
167	0x3e803f0e	0.25048107
168	0xbd4b4936	-0.049630366
169	0xbcf62492	-0.030046735
170	0xbe29afb8	-0.16570938
171	0xbd210c8f	-0.039318617
172	0x3d436de9	0.04771224
173	0x3dda1637	0.106487684
174	0xbde21ef9	-0.11041064
175	0x3d456462	0.048191436
176	0x3c9f2366	0.019426059
177	0x3e1c0787	0.15237246
178	0x3e435fe2	0.19079545
179	0xbb8d3103	-0.004308821
180	0x3e831ba3	0.25607023
181	0xbdd515ca	-0.104045466
182	0xbd460ed7	-0.048353996
183	0x3e86736a	0.2625993
184	0x3d6c2213	0.057649683
185	0x3da7ff4b	0.0820299
186	0x3eca2da3	0.39487943
187	0x3d646552	0.05576069
188	0xbe897205	-0.26844802
189	0x3dd0f632	0.10203208
190	0xbe102c40	-0.1407938
191	0xbd855865	-0.065110005
192	0xbd516d5a	-0.051129676
193	0xbd8d03e1	-0.068855055
194	0xbc485af4	-0.012228716
195	0x3e156db6	0.14592633
196	0x3e115895	0.14193948
197	0x3c894fed	0.016761744
198	0xbd26fd0c	-0.040768668
199	0x3e5d58e7	0.21615945
200	0xbda1faf4	-0.07909194
201	0xbd88fb47	-0.06688552
202	0x3e8e533c	0.27797878
203	0x3da742c1	0.08167029
204	0x3e4395a5	0.19100054
205	0x3e5c7d79	0.21532239
206	0x3c9cc006	0.019134533
207	0xbdfbb823	-0.12290981
208	0xbd902ccd	-0.07039795
209	0x3da929b7	0.082599096
210	0xbd5c5e3a	-0.0538008
211	0xbd49ddb8	-0.049283713
212	0xbdc216d4	-0.0947701
213	0xbdbb4897	-0.09144705
214	0xbe16cd5e	-0.14726779
215	0x3de244a4	0.110482484
216	0xbb40110b	-0.0029307033
217	0x3ea2a9ba	0.31770116
218	0x3e05e9c6	0.13077459
219	0xbe510808	-0.2041322
220	0xbe2f5fad	-0.17126341
221	0xbb75472f	-0.0037426462
222	0x3e376364	0.17909008
223	0xbc6024ed	-0.013680679
224	0xbd837b65	-0.0642002
225	0x3db9e49f	0.09076809
226	0xbdbd32ed	-0.09238229
227	0x3e1d12eb	0.15339248
228	0xbc062832	-0.008188294
229	0xbd559820	-0.05214703
230	0xbd2564c4	-0.0403793
231	0xbdb6e2e4	-0.08929995
232	0xbe484f64	-0.19561535
233	0xbe2acdd8	-0.16680086
234	0x3d27241e	0.04080593
235	0x3c4373b8	0.011929445
236	0x3e166e2e	0.14690468
237	0x3d73adde	0.059491985
238	0xbda3e5ce	-0.08002816
239	0xbe548bf9	-0.2075652
240	0x3e88692c	0.2664274
241	0xbd752ad2	-0.05985529
242	0xbdbd66c1	-0.092481144
243	0x3d1f31f8	0.038866013
244	0x3de2e012	0.11077894
245	0x3e150a3d	0.14554687
246	0xbd8a3d4e	-0.06749974
247	0xbd40e132	-0.047089763
248	0xbe212cdc	-0.15739769
249	0xbe32998e	-0.17441389
250	0xbcc8704d	-0.024467612
251	0xbd5a8263	-0.053347003
252	0xbdeaad0d	-0.11458788
253	0xbd8b7e31	-0.068111785
254	0xbdf7b7ed	-0.12095628
255	0x3d317009	0.043319736

conv2.bias f4 [64]
0	0xbe88306c	-0.26599443
1	0xbeb95d39	-0.36203936
2	0xbea6c3d0	-0.32571268
3	0xbeb28f2d	-0.3487486
4	0xbe80375a	-0.2504223
5	0xbd2a6d47	-0.04160812
6	0xbdb465d2	-0.08808483
7	0xbeb8b0a8	-0.36072278
8	0xbd77b4ba	-0.06047509
9	0xbe614dd9	-0.22002353
10	0xbe09ec82	-0.13469127
11	0xbc8a4a82	-0.016881231
12	0xbe26662a	-0.1624991
13	0xbe9f341f	-0.31094453
14	0xbe8cb531	-0.27481988
15	0xbe5d72b9	-0.21625794
16	0xbe14e3e9	-0.14540066
17	0xbe45bdba	-0.19310656
18	0xbe433f22	-0.19067052
19	0xbece2240	-0.40260506
20	0xbe93fe77	-0.2890508
21	0xbe6f5f57	-0.23376213
22	0xbdfb55dc	-0.12272236
23	0xbe8eb594	-0.27872908
24	0xbea71b68	-0.32638097
25	0xbd87ce8f	-0.06631195
26	0xbe9c5fa9	-0.30541733
27	0xbe94d41e	-0.29068083
28	0xbe0218f1	-0.12704827
29	0xbdb177b8	-0.08665413
30	0xbed40c30	-0.41415548
31	0xbe848d84	-0.25889218
32	0xbd8689da	-0.06569262
33	0xbeb65423	-0.35611066
34	0xbddc5856	-0.10759036
35	0xbdf6a26f	-0.120427005
36	0xbe652c7b	-0.22380249
37	0xbd80906a	-0.06277545
38	0x3bcc869f	0.006241634
39	0xbec82a63	-0.39094839
40	0xbec90da0	-0.39268208
41	0xbe8db33a	-0.27675802
42	0xbd3ab3e6	-0.04558172
43	0xbe29e000	-0.16589355
44	0xbe01b28e	-0.1266577
45	0xbea5333c	-0.3226565
46	0xbe252d4c	-0.1613056
47	0xbe35fd8a	-0.17772499
48	0xbe636427	-0.22206174
49	0xbed220bd	-0.41040602
50	0xbe9702b8	-0.29494262
51	0xbe4505d4	-0.19240505
52	0xbe9c6ec3	-0.30553254
53	0xbe141770	-0.14462066
54	0xbeb01774	-0.34392893
55	0xbe8a5a22	-0.2702189
56	0xbd979a8a	-0.07402523
57	0xbe2d963d	-0.16951843
58	0xbe5cfd94	-0.21581107
59	0xbe0ef0ce	-0.13959047
60	0xbd84e9b6	-0.06489889
61	0xbe899f41	-0.26879314
62	0xbe7d8051	-0.2475598
63	0xbe4a6c57	-0.19767891

conv3.weight f4 [256, 128, 5]
0	0x3e2d6941	0.16934682
1	0x3df62ed7	0.12020653
2	0xbdc6ea8f	-0.09712707
3	0x3d5fd472	0.054645963
4	0xbb9c7073	-0.004774147
5	0xbd6c4f1a	-0.057692625
6	0xbd953f2c	-0.0728744
7	0xbcb52fd1	-0.022117527
8	0xbd310327	-0.043215897
9	0xbc745744	-0.014913384
10	0xbd4888e4	-0.048958674
11	0xbdc7902a	-0.09744294
12	0xbda3acaf	-0.07991921
13	0xbd46181b	-0.048362833
14	0xbcc60a52	-0.024174843
15	0xbd10767d	-0.03526925
16	0xbdb8e4a3	-0.09027984
17	0xbc9cbf21	-0.019134106
18	0xbc7a7311	-0.015286223
19	0xbd1ebda6	-0.03875508
20	0xbd428442	-0.047489412
21	0xbe5f5b16	-0.2181209
22	0xbcdae3a8	-0.026719883
23	0x3d393ea0	0.04522574
24	0x3e0746a7	0.13210545
25	0xbe8dde39	-0.27708605
26	0xbd65c961	-0.056100253
27	0xbce3755a	-0.027765919
28	0x3d89c009	0.06726081
29	0x3e097c95	0.1342643
30	0x3da942a0	0.08264661
31	0xbcb29ec3	-0.02180422
32	0x3d656030	0.055999935
33	0xbe456626	-0.19277248
34	0xbc3f51c6	-0.011677211
35	0x3c3bae32	0.011455106
36	0xbd88fa0e	-0.06688319
37	0x3d89c160	0.067263365
38	0x3cb8d54f	0.022562651
39	0x3d2473d4	0.040149525
40	0x3ddc1023	0.10745265
41	0xbdb217e8	-0.08695966
42	0xbd993fe0	-0.07482886
43	0xbd8a77bb	-0.06761118
44	0x3ca4269b	0.02003794
45	0xbd96c8ba	-0.07362504
46	0x3dc0e4e0	0.094186544
47	0xbce3b89b	-0.027797988
48	0xbd936360	-0.07196689
49	0xbdeb3371	-0.11484421
50	0x3e492539	0.19643106
51	0x3e2002c9	0.15626062
52	0xbd8433c2	-0.064551845
53	0xbd1b8203	-0.037965786
54	0x3d03320e	0.032030158
55	0xbcffd6f5	-0.03123043
56	0xbde4e19b	-0.11175843
57	0xbe46c91e	-0.19412658
58	0xbdc90f10	-0.09817326
59	0x3da0e671	0.07856453
60	0xbd2fdfbb	-0.042937975
61	0x3e00779b	0.12545626
62	0xbdce9710	-0.10087407
63	0xbdc6efed	-0.09713731
64	0xbd829099	-0.06375236
65	0x3d819522	0.06327273
66	0xbd9d20c5	-0.07672266
67	0xbd59ff2e	-0.053221874
68	0xbd524cf6	-0.051342927
69	0xbd532c56	-0.051555954
70	0x3dbaa438	0.091133535
71	0x3d83e9f1	0.06441105
72	0x3d1cc2c5	0.038271684
73	0x3cb1d98e	0.021710183
74	0x3b926fdd	0.0044689015
75	0x3dfaf2bb	0.122533284
76	0x3bfd3ea8	0.0077284165
77	0xbe00e0bb	-0.12585728
78	0x3da257a6	0.07926874
79	0x3cece3d8	0.028917238
80	0x3b892483	0.0041852607
81	0x3dadc8c7	0.08485561
82	0xbe88b432	-0.26699978
83	0xbe45c6c0	-0.19314098
84	0xbdb3574e	-0.087568864
85	0xbcce5f5a	-0.025191952
86	0x3df50e7b	0.119656526
87	0xbd026428	-0.031833798
88	0xbd61edf1	-0.05515856
89	0x3c996e49	0.018729346
90	0xbcd753b6	-0.026285034
91	0xbe2678bd	-0.16256995
92	0xbe3157d9	-0.17318667
93	0xbb452a95	-0.0030085195
94	0xbdc9a45e	-0.09845804
95	0x3d4a1774	0.049338773
96	0x3d33ee38	0.043928355
97	0xbd2c8569	-0.042119417
98	0xbc81a579	-0.015825974
99	0xbd91101c	-0.07083151
100	0xbca6d11a	-0.02036338
101	0x3e12c740	0.1433382
102	0x3c5a4bc5	0.013323729
103	0x3d1b0b1b	0.037852388
104	0xbd22d48a	-0.039753474
105	0x3c37c574	0.01121651
106	0x3c46f4f5	0.012143363
107	0xbe7bc3dc	-0.24586433
108	0x3e02af13	0.12762098
109	0x3c95ae82	0.018271688
110	0xbc5eee94	-0.013606686
111	0x3d49b55e	0.04924523
112	0xbe500afd	-0.20316692
113	0xbd096bb0	-0.033549964
114	0xbdb66280	-0.08905506
115	0x3d625853	0.055260014
116	0x3c2656c9	0.010152527
117	0xbd570aef	-0.05250066
118	0x3dc2852e	0.09498058
119	0xbde7b936	-0.11314623
120	0xbd536ecf	-0.051619347
121	0xbc8f8aee	-0.017522302
122	0x3c68ae00	0.014201641
123	0x3cec87ac	0.028873287
124	0xbe1a2c93	-0.15056066
125	0xbd86baa7	-0.0657857
126	0xbd1f545f	-0.038898822
127	0x3df33f62	0.11877324
128	0xbd487fa0	-0.048949838
129	0xbdee24af	-0.116280906
130	0xbd271fff	-0.040802
131	0xbd7acd9c	-0.06123124
132	0xbc1dcf3b	-0.009631927
133	0xbe066253	-0.13123445
134	0xbd53a4fb	-0.05167101
135	0xbda1866e	-0.078869686
136	0x3c945718	0.018107936
137	0xbc0a84e3	-0.008454534
138	0x3cbd8d95	0.0231388
139	0x3d9ed34d	0.07755146
140	0x3daf19f8	0.08549875
141	0x3d9ff4dd	0.07810376
142	0x3dfee7d8	0.124465644
143	0xbd23850a	-0.039921798
144	0x3d56dc00	0.052455902
145	0xbe297ba9	-0.16551079
146	0x3d486ebd	0.048933733
147	0xbcd5acd0	-0.02608338
148	0x3c2d8f00	0.010593176
149	0xbdb9cee4	-0.090726644
150	0x3de395e3	0.11112573
151	0x3d67b638	0.05657026
152	0x3d05b2ed	0.03264134
153	0xbdabe8b5	-0.08393995
154	0x3e0eb7c0	0.13937283
155	0x3e13b073	0.14422779
156	0xbd5ed9ca	-0.05440692
157	0xbdb2ec8d	-0.08736525
158	0xbde87198	-0.11349791
159	0xbdb69f7e	-0.089171395
160	0x3d67f0f1	0.056626264
161	0xbd903142	-0.07040645
162	0x3c52a83b	0.012857492
163	0x3d9211b2	0.07132281
164	0x3d88c104	0.0667744
165	0x3e052855	0.13003667
166	0x3d028260	0.031862617
167	0xbbea5249	-0.0071509224
168	0x3d7b5750	0.061362565
169	0x3c05d6ae	0.008168859
170	0x3d00d523	0.031453263
171	0xbd3cd609	-0.046102557
172	0xbdee1bcb	-0.11626395
173	0xbe1486aa	-0.14504495
174	0x3d12e1da	0.03585992
175	0x3d44614f	0.047944363
176	0x3e4074ca	0.18794551
177	0x3d98a8a4	0.07454041
178	0x3bb9811e	0.005661144
179	0x3c8bf4aa	0.017084438
180	0x3dadcd92	0.08486475
181	0xbdc26068	-0.09491044
182	0xbde53ede	-0.111936316
183	0x3d63f26b	0.05565111
184	0xbd69a732	-0.057044216
185	0x3e30d0c3	0.17267136
186	0x3d8318b6	0.064011976
187	0xbd7bacbc	-0.06144403
188	0xbe498fa2	-0.19683698
189	0x3db87599	0.09006805
190	0xbdc64d82	-0.09682752
191	0x3bcd222d	0.0062601776
192	0xbd94707b	-0.072480164
193	0xbd638224	-0.055544034
194	0xbdf0dc58	-0.11760777
195	0x3d5e7e06	0.054319404
196	0xbe2d1c5f	-0.16905354
197	0xbd8ad14b	-0.06778201
198	0x3d36eac6	0.04465749
199	0xbe01533a	-0.12629405
200	0x3e0fa54b	0.14027898
201	0xbadc574e	-0.0016810687
202	0x3d9e3985	0.07725815
203	0xbdd3af46	-0.10336165
204	0x3d208ecf	0.039198693
205	0xbd4c4910	-0.049874365
206	0xbd018f24	-0.03163065
207	0x3e023ae7	0.12717782
208	0xbd131ee3	-0.035918128
209	0xbda486ab	-0.080334984
210	0xbad686bf	-0.0016367062
211	0x3e18e8af	0.14932512
212	0x3cde0a98	0.02710466
213	0xbcffeeb9	-0.031241762
214	0xbe3b9b50	-0.18320966
215	0xbd2d68c1	-0.04233623
216	0x3c81323a	0.01577102
217	0xbd465a7f	-0.048426148
218	0x3d57c814	0.052681044
219	0xbdde85d5	-0.1086537
220	0xbc9e8284	-0.019349344
221	0xbc254311	-0.010086791
222	0xbd6d3f02	-0.057921417
223	0xbcfa50a0	-0.030556023
224	0xbc871538	-0.01648961
225	0x3d82f7ff	0.06394958
226	0x3dc430e6	0.09579639
227	0xbdabb9b8	-0.083850324
228	0x3da701a4	0.0815461
229	0x3b4c9c72	0.0031221178
230	0xbd152ab7	-0.03641769
231	0xbe0b7c7e	-0.13621709
232	0xbdafc50c	-0.085825056
233	0x3d41a9b6	0.04728099
234	0xbe03e002	-0.12878421
235	0xbd6851f8	-0.056718796
236	0xbe0594a4	-0.13044983
237	0xbd219171	-0.039445344
238	0xbd83ae26	-0.064297006
239	0xbe19d928	-0.15024245
240	0x3d88386b	0.06651386
241	0xbda09970	-0.07841766
242	0x3d9785c8	0.073985636
243	0x3bb4baef	0.0055154483
244	0xbc93a559	-0.01802318
245	0xbe32a236	-0.17444691
246	0xbdd0f77d	-0.10203455
247	0x3ce1f8fd	0.027584547
248	0xbd698642	-0.057012804
249	0xbd3a844e	-0.04553633
250	0x3dc215da	0.09476824
251	0x3db8e48f	0.09027969
252	0x3d26bc1e	0.040706746
253	0x3d4d308e	0.050095133
254	0xbdc2693d	-0.09492729
255	0xbdb7c056	-0.08972232

conv3.bias f4 [256]
0	0x3dbe1c3b	0.09282728
1	0xbdbfbcf4	-0.09362212
2	0x3b430d87	0.0029762702
3	0xbe77f9c6	-0.24216375
4	0x3d9a60fe	0.07538031
5	0xbd54aa5f	-0.05192029
6	0xbe25d428	-0.16194212
7	0x39658218	0.00021887606
8	0xbdd6cfc2	-0.104888454
9	0xbe72d06a	-0.23712316
10	0x3c542ff4	0.012950886
11	0xbd640402	-0.055667885
12	0xbd0c39e2	-0.03423489
13	0x3c9d1987	0.019177211
14	0xbd0f3b64	-0.03496875
15	0xbe21c960	-0.15799475
16	0xbe144813	-0.14480619
17	0xbc9f2cda	-0.019430567
18	0xbd97495b	-0.07387038
19	0xbe8cac64	-0.27475274
20	0x3eea3f0c	0.45751226
21	0xbdf60c9a	-0.12014122
22	0x3defcf1e	0.11709426
23	0xbdce9505	-0.10087017
24	0xbe15b911	-0.14621378
25	0xbe3d0f06	-0.18462762
26	0xbda24337	-0.079229765
27	0xbe09d9fd	-0.13462062
28	0x3d4d15da	0.050069667
29	0xbe18c77a	-0.14919844
30	0xbe194ac4	-0.14969927
31	0xbbe9649d	-0.0071225897
32	0xbe0edf3a	-0.13952342
33	0xbc87e184	-0.016587026
34	0x3d186d60	0.037213683
35	0x3e20e8cf	0.1571381
36	0xbd0faff6	-0.03507992
37	0xbe45cce7	-0.19316445
38	0xbc37bfc1	-0.011215151
39	0xbe62da7c	-0.22153658
40	0x3d91d701	0.07121087
41	0xbd98f5bc	-0.07468745
42	0xbe76c93a	-0.241002
43	0xbdab0306	-0.08350186
44	0x3dfd5e80	0.1237154
45	0xbe18e3d6	-0.14930663
46	0xbdae1a8e	-0.08501159
47	0xbcdc4f7b	-0.026893368
48	0xbe1fb284	-0.15595442
49	0xbe4526fa	-0.1925315
50	0xbe45ab23	-0.19303565
51	0xbe017b26	-0.12644634
52	0xbe131531	-0.14363553
53	0xbe2c9f54	-0.16857654
54	0xbe2ab30a	-0.1666986
55	0xbe14798a	-0.14499488
56	0xbe006ba6	-0.12541065
57	0xbe6ba8f1	-0.23013665
58	0xbe25e9e2	-0.162025
59	0x3d010e36	0.031507693
60	0xbe4cae98	-0.19988477
61	0x3e30694e	0.1722767
62	0x3c29b5d1	0.01035829
63	0xbde35ff1	-0.11102284
64	0xbe16e5f0	-0.14736152
65	0xbe4a71d6	-0.19769987
66	0xbe69e0f5	-0.2283972
67	0x3bce7f91	0.006301828
68	0x3e087a59	0.13327922
69	0xbd330cda	-0.043713428
70	0xbdb923a1	-0.09039999
71	0xbca2d79b	-0.0198782
72	0xbe4e9797	-0.20175014
73	0xbc6824dc	-0.014168944
74	0xbdfd7ad4	-0.12376943
75	0x3e0cdbcc	0.13755721
76	0xbea3c155	-0.31983438
77	0xbd50495f	-0.050851222
78	0xbe47f71c	-0.19527858
79	0xbe340424	-0.17579705
80	0xbdd0e86c	-0.10200581
81	0xbd93f0c2	-0.07223655
82	0xbd4d2b26	-0.050089978
83	0xbe640185	-0.22266205
84	0xbe6723ab	-0.225722
85	0xbdc1ae9d	-0.09457133
86	0xbcfb1e9c	-0.030654244
87	0xbd7803bc	-0.060550436
88	0xbe054051	-0.13012816
89	0x3d5a4651	0.053289715
90	0x3e0176d6	0.12642989
91	0xbd9d3350	-0.07675803
92	0x3e04fe83	0.12987714
93	0x3e4ebfdb	0.20190375
94	0x3a9fbd3c	0.0012187134
95	0x3d3d30ab	0.04618899
96	0x3baf9f17	0.005359541
97	0xbd9fdd4d	-0.07805882
98	0xbdfda59e	-0.123851046
99	0x3db4670f	0.08808719
100	0xbdc58869	-0.09645159
101	0xbe2e402a	-0.17016664
102	0x3e814c4b	0.2525352
103	0xbdfbc0e4	-0.1229265
104	0xbe4ec468	-0.2019211
105	0xbd139eab	-0.03603999
106	0xbd8c6dcc	-0.068568796
107	0x3e6ac930	0.2292831
108	0xbc385675	-0.011251082
109	0xbd60df5d	-0.054900516
110	0xbe6e3ad0	-0.23264623
111	0xbe46828d	-0.19385739
112	0xbcdf0b67	-0.027227117
113	0x3db79b15	0.089651264
114	0xbd39e5e8	-0.04538527
115	0x3e061262	0.1309295
116	0xbed2f97c	-0.41205966
117	0xbc9dee49	-0.019278662
118	0xbe426e13	-0.18987302
119	0x3d37342d	0.044727493
120	0xbe501600	-0.20320892
121	0xbe078ea2	-0.13238004
122	0x375f4c9e	1.3309675e-05
123	0xbc28cd0a	-0.010302791
124	0xbe0c20c3	-0.13684373
125	0xbd81599b	-0.06315919
126	0x3e5a6fb6	0.21331677
127	0xbde636c3	-0.11240914
128	0xbd203487	-0.039112594
129	0xbe16d878	-0.14731014
130	0xbed1c850	-0.4097314
131	0xbe6e86a8	-0.23293555
132	0xbd1e94ef	-0.038716253
133	0x3ccf1adc	0.025281362
134	0xbd3ee07b	-0.0466008
135	0xbd9eba07	-0.07750326
136	0x3dd89af2	0.105764285
137	0xbe3ab263	-0.18232112
138	0xbb48de72	-0.0030650166
139	0x3cf34737	0.029697044
140	0xbdffb6e8	-0.124860585
141	0xbdff4b73	-0.12465563
142	0xbd99364b	-0.07481059
143	0xbdb150ae	-0.086579666
144	0x3e432010	0.190552
145	0xbe7dfff2	-0.24804667
146	0x3da5c3f5	0.080940165
147	0x3ce85afd	0.0283637
148	0xbd8dd778	-0.06925863
149	0xbd910fde	-0.070831046
150	0x3e3141b8	0.17310226
151	0xbdaaafb3	-0.08334293
152	0xbe8de4b3	-0.27713546
153	0xbcd77ccf	-0.02630463
154	0xbd31e54c	-0.043431565
155	0xbe5d775f	-0.21627568
156	0x3e07249c	0.13197559
157	0xbe29382f	-0.16525339
158	0xbd8c1026	-0.068390176
159	0xbe2b8c8b	-0.16752832
160	0xbe2f8874	-0.17141896
161	0x3c8befa3	0.017082041
162	0xbe0a10b0	-0.13482928
163	0xbdde8a8d	-0.1086627
164	0xbe2efed6	-0.170894
165	0xbe1cad77	-0.15300547
166	0xbdec40a0	-0.11535764
167	0xbd2d33bd	-0.04228567
168	0xbe0d0357	-0.13770805
169	0xbd0b8f18	-0.03407201
170	0x3e7986f2	0.24367884
171	0xbdcb7521	-0.0993445
172	0xbe6e9ba2	-0.23301557
173	0xbe00afbf	-0.12567042
174	0xbdb1e618	-0.08686465
175	0xbd47b461	-0.048756007
176	0xbdb50584	-0.08838943
177	0xbd8fb2bc	-0.07016513
178	0xbd7dc1e0	-0.06195247
179	0xbdf6aebb	-0.12045046
180	0xbe66c8c8	-0.2253753
181	0xbdcb47da	-0.09925814
182	0x3e4364c5	0.1908141
183	0xbc15cd57	-0.009143195
184	0xbe178276	-0.1479586
185	0xbdd02c7e	-0.10164736
186	0xbd882691	-0.06647981
187	0xbddd5d46	-0.10808806
188	0xbe57d904	-0.21078879
189	0xbe0f2d22	-0.1398206
190	0x3bb0639e	0.005382969
191	0xbd022339	-0.031771872
192	0x3dc01e5c	0.093807906
193	0x3baff719	0.0053700325
194	0x3d803846	0.06260733
195	0xbe3b9529	-0.18318619
196	0xbe69dab1	-0.2283733
197	0xbe17ba55	-0.14817174
198	0xbe1b775e	-0.15182254
199	0xbb4dab47	-0.0031382607
200	0x3d16ef2b	0.036849182
201	0x3cd3e786	0.025867235
202	0x3dcbb075	0.09945766
203	0xbc9e0747	-0.01929058
204	0x3e03e96a	0.12882009
205	0xbdca2bc4	-0.09871629
206	0x3d0d0f59	0.034438465
207	0xbc2bfe21	-0.010497601
208	0x3d9b5ff9	0.07586665
209	0xbdb8c345	-0.0902162
210	0xbdee491f	-0.116350405
211	0xbdea3f7f	-0.11437892
212	0x3ee95694	0.45573866
213	0xbdb67252	-0.089085236
214	0x3e9aa56f	0.3020434
215	0x3d5ff58d	0.054677535
216	0x3dfa8251	0.12231887
217	0xbdc5910f	-0.09646808
218	0xbd91bc05	-0.0711594
219	0x3d3e7587	0.0464988
220	0xbe3d97e4	-0.18514973
221	0xbd96fd20	-0.073724985
222	0x3d25aa93	0.040445875
223	0x3d9dc52b	0.077036224
224	0x3e1b0259	0.15137614
225	0xbdbd0e88	-0.09231287
226	0xbc7ca923	-0.015421185
227	0xbe018986	-0.12650117
228	0xbd0e6841	-0.034767393
229	0xbe27b105	-0.16376121
230	0x3ecd9182	0.40150076
231	0xbc41196d	-0.011785847
232	0xbd017b20	-0.03161156
233	0x3ec7412a	0.38916904
234	0xbc23502c	-0.009967845
235	0xbc28e7e7	-0.010309196
236	0xbbbfa13e	-0.005848079
237	0x3d66b6ea	0.056326784
238	0xbdc66ac0	-0.0968833
239	0xbe356abc	-0.17716497
240	0xbe67a641	-0.22622015
241	0xbdbf90dd	-0.09353802
242	0x3d51a420	0.051181912
243	0x3e2b0c6b	0.16703956
244	0x3de5187e	0.11186312
245	0xbe103e81	-0.14086343
246	0xbdbb8246	-0.09155707
247	0xbe517696	-0.20455393
248	0x3d2f2ab7	0.042765345
249	0x3e8498d8	0.2589786
250	0x3e707e91	0.23485781
251	0x3e57169c	0.21004719
252	0xbe102aac	-0.14078778
253	0xbe3d7bda	-0.18504277
254	0xbe2d4e3b	-0.16924374
255	0xbce4e0de	-0.027939256

fc.weight f4 [11, 256]
0	0xbe135be2	-0.1439052
1	0xbcd9b035	-0.02657328
2	0xbe1ab1df	-0.15106915
3	0x3b93284b	0.0044908873
4	0x3cffb572	0.03121445
5	0xbd976d71	-0.07393921
6	0x3d0610d2	0.032730885
7	0x3c146dc8	0.009059377
8	0x3da61bd6	0.08110778
9	0x3d03e96b	0.032205027
10	0x3ca5d126	0.020241331
11	0x3d1a8313	0.03772266
12	0xbcd6a42d	-0.026201332
13	0xbcc47d0b	-0.023985406
14	0x3d31282b	0.043251198
15	0xbc932c25	-0.017965386
16	0xbe06d2e2	-0.13166383
17	0x3d0cdcb7	0.034390178
18	0xbb980dec	-0.0046403315
19	0xbdd075a1	-0.10178686
20	0xbee69116	-0.45032567
21	0xbd4b7a20	-0.049677014
22	0xbc2d1ff0	-0.0105666965
23	0xbc94841d	-0.018129403
24	0xbc421f4f	-0.011848285
25	0x3c5366c1	0.012902916
26	0x3dbecb9b	0.093161784
27	0xbe2adc5c	-0.16685623
28	0xbd8db33a	-0.069189504
29	0xbc30b94a	-0.010786364
30	0xbcf3d9e3	-0.029766982
31	0x3d5c8ace	0.053843312
32	0xbc5714f1	-0.013127551
33	0xbcaa3f89	-0.020782249
34	0x3d663773	0.056205224
35	0x3d3a62be	0.045504324
36	0xbd38aaf5	-0.045084912
37	0xbbbdfa5b	-0.005797667
38	0xbd9de9d8	-0.07710618
39	0xbdf9b638	-0.121929586
40	0x3d81808e	0.06323348
41	0xbcf040b9	-0.029327737
42	0xbced2d27	-0.028952194
43	0xbddfe47b	-0.10932251
44	0x3e28cd88	0.16484654
45	0xbd9324d2	-0.07184757
46	0xbce25745	-0.027629504
47	0x3cb97663	0.022639459
48	0xbbd82d54	-0.0065972004
49	0x3dee7219	0.11642856
50	0x3bcc2887	0.006230417
51	0xbcc9bdc6	-0.024626624
52	0x3c421975	0.01184689
53	0xbdbfac74	-0.09359065
54	0x3da55a31	0.08073843
55	0xbd63004c	-0.055420205
56	0xbd50b24a	-0.05095128
57	0x3cd4c261	0.025971593
58	0xbcfe15eb	-0.03101631
59	0xbec0631f	-0.37575623
60	0xbdaa3bb4	-0.08312169
61	0x3cff7a4c	0.031186245
62	0x3ddb60b1	0.10711802
63	0xbb7569c5	-0.0037447077
64	0x3ca878e1	0.020565452
65	0xbce72719	-0.028216885
66	0xbd75df76	-0.060027562
67	0x3d89178a	0.06693943
68	0x3ce6c184	0.028168447
69	0xbd8c00e1	-0.06836105
70	0xbd994e18	-0.07485598
71	0xbc01ee4c	-0.00793035
72	0x3db7b0d8	0.08969277
73	0x3e13ab4c	0.14420813
74	0xbdb1e4ef	-0.08686244
75	0xbdc775f3	-0.09739294
76	0x3d3014c7	0.042988565
77	0xbd90df27	-0.07073813
78	0xbcaeda36	-0.021344285
79	0x3de50e47	0.11184364
80	0xbd882ee7	-0.06649571
81	0xbd937cad	-0.072015144
82	0x3d482050	0.04885894
83	0xbd4a253b	-0.049351912
84	0xbdd777d5	-0.10520903
85	0x3db30cc6	0.08742671
86	0xbe1a3ac0	-0.15061474
87	0xbd01802e	-0.031616382
88	0x3cfc2fde	0.030784544
89	0x3de465a4	0.11152199
90	0xbe39b8ec	-0.18136948
91	0xbddec172	-0.108767405
92	0x3d2b1fe5	0.041778464
93	0xbe74c40d	-0.23902912
94	0xbdf1d9e8	-0.118091404
95	0x3dc3cc08	0.095604
96	0xbd68f6fd	-0.05687617
97	0xbc827a7b	-0.015927544
98	0x3c0ffae4	0.008787844
99	0x3cda6244	0.026658185
100	0x3ce0af52	0.02742735
101	0xbc4e7dfb	-0.012603278
102	0xbd951466	-0.07279281
103	0xbcea284f	-0.028583674
104	0x3d6da1da	0.05801568
105	0x3d1c3437	0.038135733
106	0xbb4bccf4	-0.0031097503
107	0xbbf2a4d3	-0.0074049025
108	0x3d2f6520	0.04282105
109	0xbd9c77f5	-0.076400675
110	0x3c8e39b2	0.017361496
111	0x3d16be4c	0.036802575
112	0xbb49a947	-0.0030771063
113	0x3d1d9997	0.038476553
114	0xbd5b01cb	-0.053468507
115	0xbd8dee7e	-0.069302544
116	0xbdb3b231	-0.08774222
117	0xbd6255ee	-0.05525773
118	0x3c8bd98d	0.01707151
119	0xbd8f0b19	-0.069845386
120	0x3d37716b	0.0447859
121	0x3a4089e6	0.0007344767
122	0xbcec8873	-0.028873658
123	0x3d27c6d4	0.0409611
124	0x3db52ded	0.0884665
125	0x3d4913f3	0.04909129
126	0xbbd56a4a	-0.006512915
127	0xbe3163fd	-0.17323299
128	0xbceec5af	-0.029146997
129	0xbdef0dd2	-0.11672558
130	0xbd88e038	-0.06683391
131	0xbcd1b539	-0.025599109
132	0xbd77e7f5	-0.060523946
133	0x3bf1169d	0.007357432
134	0x3c9f9c4e	0.019483712
135	0xbc9fe722	-0.019519392
136	0x39404ca0	0.00018339092
137	0x3d5ee9a2	0.05442203
138	0x3d02fc85	0.031979103
139	0x3c557a8b	0.013029705
140	0x3d1c47e1	0.038154487
141	0x3d059fae	0.032622986
142	0x3c0279e4	0.007963631
143	0x3d5574c6	0.052113317
144	0xb769e280	-1.3940618e-05
145	0x3c5c1a54	0.0134340115
146	0x3d8a36d8	0.06748742
147	0xbd86a33f	-0.065741055
148	0xbdb11fc2	-0.086486354
149	0xbbf06739	-0.007336524
150	0x3d4615e4	0.04836072
151	0x3cfde3a8	0.030992344
152	0xbce822f9	-0.028336989
153	0x3d4ebcbb	0.050472956
154	0x3e18acf2	0.14909723
155	0x3cc971a8	0.024590328
156	0xbd02afe7	-0.031906035
157	0x3d42f22d	0.047594238
158	0x3cd49075	0.025947789
159	0xbc97ee95	-0.018546382
160	0xbd48e51e	-0.04904663
161	0xbd5822e2	-0.05276764
162	0xbc81485e	-0.015781578
163	0x3d110cdb	0.03541265
164	0xbdf2a499	-0.11847801
165	0x3c93b930	0.01803264
166	0xbb7bcf39	-0.0038423075
167	0x3dae2b70	0.08504379
168	0x3c7d80c7	0.015472597
169	0xbd0274c2	-0.03184963
170	0x3d09363a	0.03349898
171	0xbdde2c0b	-0.10848244
172	0xbbcf1481	-0.006319583
173	0xbd3cbca0	-0.046078324
174	0x3c719b7f	0.014746546
175	0x3d5a800f	0.053344782
176	0x3d20d508	0.039265662
177	0xbd91ce6a	-0.071194485
178	0xbd60530a	-0.054766692
179	0x3b8dd548	0.0043284036
180	0xbbeda619	-0.0072524664
181	0x3c08d127	0.008350647
182	0x3d30c34c	0.043155
183	0x3d03408d	0.032043982
184	0xbe1f2fad	-0.1554553
185	0x3c878b53	0.016545927
186	0x3ced694b	0.028980872
187	0xbd4f47a9	-0.05060545
188	0x3c3c7816	0.01150324
189	0x3d42df0f	0.047576007
190	0xbe027121	-0.12738468
191	0xbe3d538f	-0.18488906
192	0x3c6b3dde	0.014358012
193	0xbe1022b5	-0.1407574
194	0x3d296e4a	0.041364945
195	0x3d19823d	0.03747772
196	0x3ccd0ffd	0.025032038
197	0x3ca1c359	0.01974647
198	0x3d6bb01f	0.05754101
199	0xbdd854ee	-0.10563074
200	0xbdd0a4ce	-0.10187684
201	0xbe34ed75	-0.17668708
202	0x3ef46f85	0.47741333
203	0x3d3a22a9	0.04544321
204	0x3ca7db1f	0.020490227
205	0x3c9e6e4f	0.019339709
206	0xbb50f2ea	-0.003188307
207	0x3d58f200	0.052965164
208	0xbb3af052	-0.002852459
209	0x3d4d9a54	0.050196007
210	0x3b2e52ed	0.002659972
211	0xbdcdab9d	-0.10042498
212	0x3d76c6b9	0.06024811
213	0xbc11ebdd	-0.008906332
214	0xbdf9d365	-0.121985234
215	0x3b6b318a	0.0035887682
216	0xbca31312	-0.019906554
217	0x3db147d4	0.08656278
218	0xbe6e684a	-0.2328197
219	0x3d121518	0.035664648
220	0xbdd899d1	-0.10576213
221	0x3ce10add	0.027471
222	0xbc8fd200	-0.01755619
223	0x3d960f0d	0.073270895
224	0x3c3c9dbc	0.011512216
225	0xbd12998c	-0.035790965
226	0x3c557c6f	0.013030156
227	0xbbb05e0b	-0.0053823045
228	0x3d952571	0.07282532
229	0x3c8599d8	0.01630871
230	0x3ae51185	0.0017476535
231	0x3e206918	0.1566509
232	0xbd2c8fa0	-0.04212916
233	0x3ce9cc33	0.028539753
234	0x3d30f5bf	0.04320311
235	0xbd08520e	-0.03328138
236	0xbc9064b0	-0.017626137
237	0x3d188b08	0.037241966
238	0x3cef7c9e	0.029234227
239	0xbd2307ed	-0.03980248
240	0xbcec8ee5	-0.028876731
241	0xbd398cd4	-0.04530032
242	0xbd1aaa65	-0.037760157
243	0x3d3e59f7	0.046472516
244	0x3d32f56b	0.04369108
245	0x3d21e949	0.03952912
246	0xbb16cd87	-0.0023010687
247	0xbd289723	-0.04115976
248	0xbd0b2855	-0.03397401
249	0x3d4e2519	0.050328348
250	0xbdf82208	-0.12115866
251	0xbea53343	-0.32265672
252	0x3b874418	0.0041279905
253	0xbd8abe8c	-0.06774625
254	0xbc9683a7	-0.018373324
255	0x3d532894	0.05155237

fc.bias f4 [11]
0	0xbed61231	-0.41810754
1	0xbe82d282	-0.2555123
2	0xbefde83a	-0.49591237
3	0xbee0cac6	-0.43904704
4	0xbe468acf	-0.19388889
5	0x3e584c3d	0.21122833
6	0x3e96084b	0.29303202
7	0x3dc488a0	0.09596372
8	0x3e74727f	0.23871802
9	0x3ec22c40	0.37924385
10	0x3ebb3d6f	0.36570308
