src/main/python/saved_models/csharp_1_66_CNNClassifier1_64embs_183id_64hd_0hl_Falsebid5kernel0.3dropout_2.pt (torch, 849739 bytes, 9 tensors)

emb.weight f4 [183, 64]
000000 96 5c f9 bd 32 19 16 3f fb 56 3f 3e 47 bc 32 be
       -0.121758625 0.58632195 0.18685524 -0.17454635
000010 8a 51 3f 3f a7 23 96 3f 80 58 7d 3f 72 00 5a 3f
       0.74733794 1.172963 0.98963165 0.8515693
000020 fa cd 8d bf 19 0c a7 bf 8f 87 02 bf 6f a9 af 3f
       -1.1078484 -1.3050567 -0.50988096 1.3723582
000030 04 ea d9 bf 4f 7e e1 bf ed b5 6e 3e 8c 51 0b 40
       -1.7024541 -1.7616671 0.23311587 2.1768522
000040 e3 4e 3b bf 70 7f 9b 3e eb 29 b2 be 2f 92 87 3f
       -0.73167247 0.30370665 -0.34797606 1.0591487
000050 58 30 0e be fe 17 32 3e 8e 7c 28 bf 69 05 c3 3f
       -0.13885629 0.17391965 -0.65815055 1.5236026
000060 b7 b2 ce bf 5e 6e ab 3e 6d 18 ac bf a8 eb ba 3e
       -1.614829 0.3348264 -1.3444954 0.36507916
000070 7d 40 25 bd 16 3d 25 40 50 c5 71 be 43 62 35 3f
       -0.040344704 2.5818534 -0.23610425 0.7085306
000080 34 69 a5 3e 94 b5 86 bd 5b e0 c9 3d db c1 f3 3f
       0.32306826 -0.06577602 0.098572455 1.9043535
000090 aa 25 41 bf 00 19 67 3e 42 eb cc 3e ad f8 e2 3e
       -0.75448096 0.2256813 0.40023237 0.4433035
0000a0 57 b5 ca 3d 20 8c 6b 3f 67 1f e1 bf 87 25 31 bf
       0.09897869 0.9201069 -1.7587708 -0.6919789
0000b0 3c f3 88 3e cc 41 12 3e 5d 9a de be 2a fb d7 bf
       0.26748073 0.14282912 -0.43477145 -1.6873524
0000c0 da 91 68 3f 0f 50 31 bf 34 f2 fb 3e a9 23 63 bf
       0.9084755 -0.69262785 0.49208224 -0.8872629
0000d0 38 06 80 bf 9c 2e b0 3f 2d 95 57 3f 9d 30 b6 bf
       -1.0001898 1.3764224 0.84212 -1.4233586
0000e0 19 d0 e8 3d 48 1f 22 3f e6 2a 98 bf 81 9a 98 bf
       0.113678165 0.6332898 -1.1888092 -1.1922151
0000f0 56 1c 0d c0 b9 db c7 bd 5d c6 b7 bf 3f b8 16 3f
       -2.2048545 -0.09758706 -1.4357411 0.5887489
000100 ec cf 1a 3f 5c 6b 9a 3f e8 09 05 bf ad e2 fa 3e
       0.60473514 1.2064013 -0.5196824 0.49001065
000110 fb 72 59 3f 38 f8 c1 be e1 21 b1 bf 48 a2 4a 3f
       0.8494107 -0.37884688 -1.3838464 0.7915387
000120 56 85 29 3c e0 65 8d be 47 6d 17 3f 4d 29 e3 bf
       0.010346731 -0.27616787 0.5915112 -1.7746979
000130 0b d4 e1 3c 9c 6f cc bd e6 96 f3 3e 7f ed 0c 3f
       0.02756693 -0.09982225 0.47576064 0.5504989
000140 16 3d 9c bf f8 74 95 bd 45 3b 08 3f dd 44 d9 3f
       -1.2206142 -0.07297701 0.5321544 1.697414
000150 db d6 5e be 0a c3 48 3f b3 91 48 3d 76 f1 78 3f
       -0.21761648 0.78422606 0.048967075 0.9724344
000160 51 73 c8 bf d5 b6 d0 bf ad c4 a5 be d2 c7 9e 3f
       -1.5660192 -1.6305796 -0.32376614 1.240473
000170 44 d6 83 be 82 50 0f bf d3 4f 70 be 5f 15 9c be
       -0.2574941 -0.5598222 -0.2346795 -0.30485055
000180 fb 1c 75 3f 18 8b b6 be 23 62 34 3f 33 be 94 3e
       0.95747346 -0.35652995 0.70462245 0.2905136
000190 6b ac 87 3f 01 96 7c 3f a3 db 53 3f c0 b9 df 3f
       1.0599493 0.9866639 0.82757014 1.7478561
0001a0 10 8b 27 3e 99 4e 82 3f 17 d4 c9 3e cb 0f 92 3e
       0.16361642 1.0180236 0.39419624 0.28527674
0001b0 4b 7f 3a bc 93 41 2d 3d da 94 6f bf bb e4 89 bf
       -0.011382888 0.042298865 -0.93586504 -1.0772928
0001c0 4b eb 8c be 60 fe f1 bd e2 cd 15 c0 3e 8d a1 bf
       -0.27523264 -0.11816096 -2.340691 -1.2621229
0001d0 e2 0a 5c 3f 7b bb b0 be 0f f7 10 be 6d d2 54 3e
       0.85954106 -0.34518036 -0.14156745 0.20783396
0001e0 8a 15 8f be e9 6d 0b c0 75 83 88 be dc b7 be bf
       -0.2794612 -2.1785834 -0.26662794 -1.489986
0001f0 e9 3e c6 3f 80 92 39 be c1 ca f6 bf 6f 0e 0c bf
       1.5487949 -0.18122292 -1.9280626 -0.54709524
000200 84 fb ff 3e e4 e5 53 bf 5a fc 45 bf 43 f4 4a 3f
       0.4999658 -0.8277266 -0.7733818 0.79278964
000210 9a d6 2c be 84 44 90 be 65 f0 8f bd 1d 77 68 be
       -0.16878739 -0.28177273 -0.070282735 -0.22701688
000220 56 b4 74 3f 95 fb 4e 3f 6f 8f 1e 40 91 6b 6b 3f
       0.9558767 0.80852634 2.4775045 0.9196101
000230 d8 47 91 bf 89 16 9a bf 9a 29 df be 9d 61 a3 be
       -1.135005 -1.2038127 -0.43586427 -0.3191041
000240 ca 5a d9 3f 97 45 41 bf 67 e7 d2 be cf b4 95 3f
       1.6980832 -0.7549681 -0.4119217 1.1695803
000250 cc 62 4b be ea 33 01 c0 bb 32 bf be 31 4e 9a be
       -0.19861907 -2.0187936 -0.37343392 -0.3013778
000260 3e ab c2 3d 5c 11 a4 bf fe b3 3c 3f 4c 2f 0a c0
       0.09505318 -1.2817798 0.73712146 -2.1591368
000270 7a 9b ea be 06 36 6f 3f f9 5d 41 3f 4c bc 5f 3e
       -0.45821744 0.9344181 0.75534016 0.21849173
000280 5c e3 70 bf 0c bd 3f 3f b0 2c 0d 3e d2 64 3a 3d
       -0.9409692 0.7489784 0.13786578 0.045506306
000290 d0 56 6c 3f c1 b3 1e be 67 2b dc bf 40 d1 e7 bd
       0.92319965 -0.15498258 -1.7200745 -0.11319208
0002a0 47 26 72 3f 75 98 be bd 83 44 5d 3f b5 db 62 3e
       0.94589657 -0.093064226 0.86432666 0.22154124
0002b0 50 7d 07 40 11 d6 10 3f bf ac 2b bf db cd 11 bf
       2.1170235 0.5657664 -0.67060465 -0.56954736
0002c0 93 65 7e 3f e4 a9 6c bf 73 5a 42 3d 32 93 e1 3d
       0.9937374 -0.9244673 0.04744954 0.110144034
0002d0 ff 29 e4 3e b4 96 d8 3e 2e 9d 59 bf 7c 16 ba 3f
       0.4456329 0.42302477 -0.8500546 1.4538112
0002e0 37 06 0f bf 26 26 75 bf ef c9 9f be c9 22 9f 3f
       -0.5586886 -0.95761335 -0.3120875 1.243249
0002f0 d5 5a 84 bd 3a 8d 21 3e 2b cd fc bf 20 2e 0b bf
       -0.06462637 0.1577653 -1.9750112 -0.54367256
000300 11 0f 9a bf 0a 06 5b bf 6c 33 8e 3f ba df fa be
       -1.2035848 -0.8555609 1.1109443 -0.48998815
000310 38 30 b3 3f 0b ee 49 be 78 ed b6 be 46 06 1b c0
       1.399909 -0.19719712 -0.3572805 -2.422258
000320 ef 0f 1a 40 5e 80 b2 be 1e 65 88 bf fd bf cf bf
       2.4072225 -0.3486356 -1.0655859 -1.6230465
000330 23 8d 5f 3d 3d 9a 8e bf 23 1d b2 bf 50 36 c7 bf
       0.054577958 -1.114082 -1.3915142 -1.556345
000340 7a 16 22 bf 5a d4 c0 bf 1a 12 3c be c4 79 e7 bf
       -0.63315547 -1.5064805 -0.1836628 -1.8084035
000350 36 b5 51 3f fa 9f a3 3f f9 e8 33 bf 78 87 41 bf
       0.8191713 1.2783196 -0.70277363 -0.75597334
000360 ec 2a 69 bf 37 c8 b1 3d 47 7c b8 be db 15 11 c0
       -0.9108112 0.08680766 -0.36032316 -2.266959
000370 99 32 3d 3f 2e a4 4a 3f d7 86 0e bf d2 02 c0 be
       0.7390533 0.7915677 -0.556745 -0.37502152
000380 8b 86 e7 bf 69 0f b9 3e dc e9 d2 3f e8 3f a6 3e
       -1.8087934 0.3614457 1.6477618 0.32470632
000390 f9 12 90 3f 3f 55 58 3f f2 14 da 3f 41 fa bb bd
       1.125579 0.84505075 1.7037642 -0.091785915
0003a0 bf 31 df 3f 97 e9 98 bf 77 5d e9 bd a6 29 ca bf
       1.7437056 -1.1946286 -0.1139478 -1.579396
0003b0 29 b3 a2 be ad 2e 61 be c2 90 be bf 57 b5 07 3f
       -0.31777313 -0.21990462 -1.4887927 0.5301108
0003c0 2f 34 e1 be c2 6b ae 3e b7 c1 0d 3f 6e cd d4 bf
       -0.43985125 0.34066588 0.5537371 -1.6625192
0003d0 52 6c bd 3e d5 37 59 bf ff ff 4c bd 6f 5a f9 3e
       0.36996704 -0.8485082 -0.050048824 0.48701808
0003e0 1e 94 76 be 43 21 58 3f 5c 38 0a 3f 36 7a 31 3f
       -0.2407994 0.84425753 0.5399225 0.69327104
0003f0 c1 ac 04 3d 99 1b 9b 3e 0a 5d 84 bf 89 5e 7a bf
       0.032391313 0.30294493 -1.0340893 -0.978005

conv1.weight f4 [64, 64, 5]
000000 4f 89 59 be 17 a0 f0 bc ba b0 2d 3e 66 19 e7 bb
       -0.21243785 -0.029373212 0.16961947 -0.0070525883
000010 5d 61 4b be 88 39 db bd e6 38 3a bd 81 a3 83 be
       -0.1986136 -0.107043326 -0.04546442 -0.2571068
000020 85 a2 7e be b4 5e 8d 3d 3b 45 5f bc c9 86 d6 bd
       -0.24866684 0.06902829 -0.013627346 -0.10474927
000030 f5 8a fc 3d 4d db c2 3c ae 93 58 3d 7c 2a 7e be
       0.123311915 0.023786211 0.052875213 -0.24820894
000040 c1 80 76 bd 42 02 fd 3d 1e 04 2f 3c 80 c4 18 be
       -0.060181383 0.12353946 0.010682134 -0.14918709
000050 22 a4 d9 3d 50 3a 43 3e ce 60 d4 3c 5a 19 85 bd
       0.10627009 0.19065213 0.025925066 -0.06498976
000060 19 34 d6 3d e9 75 1d bd 63 ba 5b be 49 f7 1f be
       0.104591556 -0.038442526 -0.2145782 -0.15621676
000070 e8 86 19 be 7c 7c 42 3e d0 00 3c bd 53 f4 ce 3d
       -0.14992869 0.189928 -0.045899212 0.10105195
000080 d2 02 cc 3d 2b a5 f1 3d 5d f5 13 bd 4c b1 dc bc
       0.099614754 0.117990814 -0.03612267 -0.02694001
000090 73 16 5c 3e dc 94 af 3d 78 db eb bc 15 01 c8 bb
       0.21492939 0.085733145 -0.028791174 -0.0061036446
0000a0 55 ff 01 bd 9b 5c 2f bd 70 d9 27 be 81 45 88 bd
       -0.031737644 -0.042812925 -0.1639154 -0.06653882
0000b0 7d a1 26 3e 86 48 92 bd 96 25 0a 3c 19 e8 0b 3e
       0.1627254 -0.07142739 0.008431813 0.13662757
0000c0 f0 ed 0b 3d 16 d8 1c 3e fa d2 4f bd ba fe 69 3e
       0.03416246 0.15316805 -0.050738312 0.22851077
0000d0 b0 0b 0b 3e ab fd d0 bc b2 17 9b 3e 75 76 46 be
       0.13578677 -0.025511583 0.30291516 -0.19381125
0000e0 ea 7d d1 3d a6 0e 86 3d e8 e2 00 3d c3 25 8c 3d
       0.10229094 0.06545763 0.031466395 0.0684314
0000f0 7b a5 31 3d 39 b4 92 bd 43 3e 6f bd 5a 73 5d 3e
       0.043370705 -0.07163281 -0.058408987 0.21626034
000100 74 77 8b bd 58 69 eb bd cb 12 c8 3c 21 6b 95 3d
       -0.06809893 -0.11494702 0.024423024 0.07295824
000110 23 c0 c6 bd 5c 37 72 3e 1b 6b 9d be d9 7e ae bd
       -0.09704616 0.2365393 -0.30745777 -0.08520288
000120 95 93 8c 3a 08 c4 94 3d d8 3a bf bd 8a 61 02 be
       0.0010725135 0.072639525 -0.093373954 -0.1273252
000130 94 c0 42 be 38 b2 b4 3d 76 e2 0f 3e bc 34 1a 3d
       -0.19018775 0.08823055 0.14051232 0.037647948
000140 1e 0f 77 bd 2f 63 aa 3d 85 e8 99 bd 3a 69 21 3e
       -0.06031715 0.08319699 -0.07515053 0.15762797
000150 53 57 9a 3d b9 0b ab be f1 28 06 3e 84 0e 08 be
       0.07536187 -0.3340738 0.13101555 -0.13286787
000160 45 bb 4c be 30 96 60 3e 9e 9c b9 bd fe 73 3d 3c
       -0.19993313 0.21932292 -0.090630755 0.011563299
000170 d2 ec dd 3d ce ea 55 bd 68 83 b3 3d 10 da 19 bd
       0.108361855 -0.05222588 0.08765298 -0.037561476
000180 bb 5b b7 3c f3 f6 a4 bd a4 ff b3 3d 9a e8 8f 3e
       0.022382608 -0.08054914 0.08788994 0.28107148
000190 b0 b5 ae 3d 39 d3 10 be 76 63 f3 bd fa fa 49 bd
       0.08530748 -0.14143075 -0.11884205 -0.049311616
0001a0 c7 1d 9f be 42 f6 fa 3d e3 04 08 3e af 78 52 bc
       -0.31077406 0.12254001 0.13283114 -0.012846156
0001b0 5e b9 26 be 1b 89 49 3d 35 58 e9 3d 01 b8 ad 3e
       -0.1628165 0.04920302 0.11393777 0.33929446
0001c0 42 29 6c bd 15 57 03 3d 87 78 79 3c cd 24 17 3e
       -0.057656534 0.03206547 0.01522649 0.14760132
0001d0 76 62 17 3e b4 bb c7 ba d7 ff e9 3c ba e8 07 bc
       0.14783654 -0.0015238435 0.028564377 -0.008295232
0001e0 61 39 e7 bc 9b 76 35 be 23 1b 14 3e 7e 86 cc bc
       -0.028225603 -0.17721026 0.14463477 -0.024966475
0001f0 36 a5 61 3e 92 c9 29 3e ad d7 22 3e 5d 43 99 bd
       0.22035679 0.16580799 0.15902586 -0.07483552
000200 79 68 d6 3d be 8f 81 bb 00 d8 89 3e 02 ff b0 bc
       0.10469145 -0.003953903 0.26922607 -0.021605972
000210 77 5a 04 be 7b a4 c0 3d 8c f5 27 3d 2e a0 f8 bc
       -0.12925135 0.09406372 0.041005656 -0.030349817
000220 b0 fa df bc b5 b5 b9 bd a8 b7 04 be 62 d9 5b 3c
       -0.027341217 -0.09067861 -0.12960684 0.013418527
000230 f5 96 16 3e ea b0 84 3d 3f 1d 5c bd 77 de 20 3e
       0.14706023 0.06479056 -0.05373883 0.15709864
000240 04 17 b8 bd 66 ea 2c 3e 65 ea 7a 3e 7d ce 11 be
       -0.08988765 0.16886291 0.24503477 -0.14238925
000250 3d a5 80 3d fe 6f 1a bc e0 60 2b be 21 61 cd bb
       0.06281517 -0.009426115 -0.16736174 -0.006267682
000260 13 f6 f7 3d 70 dd 6c bd 88 71 d4 bd b9 56 07 3e
       0.12107482 -0.057828367 -0.10373217 0.13216676
000270 9e b5 95 bc 0a f4 9e bd 67 2f a9 3d a8 3a 91 bd
       -0.018275078 -0.077613905 0.082609944 -0.07091266
000280 4f c7 b8 be d4 70 1f be 2b 8c 82 3d 60 6d 21 3d
       -0.3608956 -0.15570384 0.06374391 0.03941095
000290 bb b4 5d 3e d9 a2 89 bd f4 cb 33 be 31 03 de bd
       0.21650974 -0.06720514 -0.1755827 -0.108404525
0002a0 b1 c6 9e bd f6 cc 47 be bc 00 62 3d a1 1c ce bb
       -0.07752741 -0.1951178 0.05517648 -0.006290034
0002b0 bb 31 c5 bd 89 b6 5f bd 23 82 95 3c 86 db 82 bc
       -0.09628626 -0.05461744 0.01825053 -0.015973818
0002c0 f0 c6 2c 3e 1a 93 02 3e d6 bf 3d 3c a0 9b 35 be
       0.16872764 0.12751427 0.011581382 -0.17735147
0002d0 fd 57 93 3c b6 0a 12 3e 47 7d b6 3c 70 0c dc 3c
       0.017986292 0.14261898 0.022276534 0.0268614
0002e0 85 5e 73 3e 76 4e 43 be df e3 cf 3d 10 6e a2 3d
       0.23766525 -0.19072899 0.10150885 0.07931149
0002f0 f6 5a 27 3e 5d dd b5 bb 01 df d0 3d d1 58 a6 be
       0.16343293 -0.00555007 0.101987846 -0.32489637
000300 00 1c 35 be dc 47 77 3d 49 91 a6 bd 0a a9 58 be
       -0.17686462 0.060371265 -0.0813318 -0.21158233
000310 b4 77 f2 bd 89 3a df 3d 55 2c 11 3c c9 f3 5f 3e
       -0.11839238 0.108998366 0.008860667 0.2187034
000320 18 89 e2 3c f3 64 34 3e b9 3a 02 bd fb 65 7f 3d
       0.027653262 0.17616634 -0.031794284 0.062353116
000330 22 33 e5 3b 53 af 4d be e1 f3 33 be 92 47 f0 3d
       0.006994621 -0.20086412 -0.17573501 0.11732401
000340 8a 59 aa 3e e0 34 62 3d 47 f2 9b bd 0f 06 20 3e
       0.33271438 0.055226207 -0.0761457 0.15627311
000350 9a 2c 17 be 24 8d 4c be e9 ff 21 3e be 49 36 be
       -0.14763108 -0.19975716 0.15820278 -0.17801568
000360 ad 64 78 bd 62 64 46 3c a8 2f 9e bd 4a 43 fc bc
       -0.060642887 0.012108894 -0.077239335 -0.030793805
000370 4c 11 67 3c 53 d0 99 3e 21 88 09 be ed da 91 3d
       0.014103245 0.3004175 -0.13430835 0.07121835
000380 57 8c 0b 3e ee 95 6d bd 52 d1 df 3c e5 b2 e6 3c
       0.13627754 -0.058004312 0.027321491 0.028161475
000390 61 59 79 3c 59 8a 56 bd 2b 81 50 be 85 59 15 3d
       0.0152190635 -0.052378032 -0.20361774 0.036462326
0003a0 a8 3e 74 bc 4e 42 38 bd ca d7 2f 3e ee e8 e6 bb
       -0.014907517 -0.044985108 0.1717216 -0.0070468104
0003b0 fd f7 8b be a1 a2 4a bc 9e 25 65 be dc d6 1f bd
       -0.27337638 -0.012367875 -0.22377631 -0.039023265
0003c0 f6 3b 1a 3d 8c 50 2c be cc 66 25 3d 27 87 86 3d
       0.03765484 -0.16827601 0.040381238 0.06568747
0003d0 bd a6 6c be 88 33 82 be 01 2f 69 3e 7a d0 43 be
       -0.2311048 -0.2542994 0.22771837 -0.19122496
0003e0 a4 26 cf 3c fc b3 a5 3d 15 e4 92 3e 85 fc 5c bd
       0.02528698 0.0809097 0.28689638 -0.05395176
0003f0 21 fb 6e bd b6 89 88 3d cd f1 70 bd 78 5d 95 be
       -0.058344964 0.06666891 -0.05882435 -0.29172873

conv1.bias f4 [64]
000000 fd 85 52 be 82 c2 95 be c6 26 4b be 7a f6 85 be
       -0.20558925 -0.2924996 -0.1983901 -0.2616461
000010 7a 1f 6b be 2d a4 60 be c7 6e ae be 73 83 41 be
       -0.22961226 -0.21937628 -0.3406889 -0.188978
000020 aa 89 b3 be 80 21 26 be b6 7c 02 be 2e 7d 63 be
       -0.35065967 -0.16223717 -0.12742886 -0.22215721
000030 df aa 79 be 23 22 87 be c8 c2 4f be 3b bc 5e be
       -0.24381588 -0.26393232 -0.20289147 -0.21751492
000040 7a 80 93 be 1b f8 54 be 7d b8 ba bd 97 c3 4e be
       -0.28808957 -0.2079777 -0.091172196 -0.20191799
000050 ca 31 af be 30 25 ab bd c0 b2 67 be 76 c2 74 bd
       -0.34217674 -0.08356702 -0.22626781 -0.059755765
000060 b3 58 38 be 0f 07 18 be 2d e4 71 be aa 14 a1 bd
       -0.18002586 -0.14846443 -0.23622198 -0.078652695
000070 84 17 84 be dd 31 a5 be 05 6f 92 be ec ed 83 be
       -0.2579919 -0.32264605 -0.28600326 -0.25767457
000080 42 6b 59 be 8e f7 ca be cd f4 5e be ad 78 aa bd
       -0.21232322 -0.39641994 -0.21773072 -0.08323798
000090 03 f0 97 be 94 dd 64 be 36 62 b8 be 02 be 81 be
       -0.29675302 -0.2235015 -0.3601243 -0.25340277
0000a0 67 c6 8e be e2 f6 96 be 7f c2 65 bc 3e 85 9b be
       -0.27885744 -0.29485232 -0.014023422 -0.30375093
0000b0 c7 eb 9d be 14 ed 49 be 05 f2 16 be 0d 99 25 be
       -0.30843946 -0.19719344 -0.1474076 -0.16171665
0000c0 ba 6d 95 be b8 ab 85 be c3 0e 65 be a6 1e 9d be
       -0.29185277 -0.26107574 -0.22368912 -0.30687445
0000d0 2d 4b 68 be 8e d7 3c be db 8a 69 be af 4c 62 be
       -0.22684927 -0.18441603 -0.22806875 -0.22099565
0000e0 d0 a9 ef bd 96 a6 10 be 68 d5 47 be 3c 58 92 be
       -0.11702311 -0.14126047 -0.19515002 -0.28582942
0000f0 59 a7 ed bd b3 b1 8d bd fa 4e 57 be ef ae 65 be
       -0.11604185 -0.06918659 -0.21026221 -0.22430013

conv2.weight f4 [64, 64, 3]
000000 e7 51 13 be f7 1a ea bd 2f 2a ef bc 4f 86 5c 3e
       -0.14386712 -0.114309244 -0.02919492 0.2153561
000010 b0 96 f0 3d 1e 75 85 bd 92 66 0d bd db f8 92 bd
       0.11747491 -0.06516479 -0.034521647 -0.07176372
000020 3d 95 db 3d ce 72 6d be b3 07 75 be 0f dc ff 3d
       0.10721824 -0.23188326 -0.23928718 0.12493145
000030 41 9b 49 3e 16 70 c3 bd 80 c5 02 3e 77 ec 82 3d
       0.19688131 -0.09542863 0.12770653 0.06392758
000040 ac 8f ba 3d 76 21 1c bc 86 3c df bd 11 8b 69 bb
       0.091094345 -0.009529462 -0.10900216 -0.0035635869
000050 2b 92 ed 3d ef 75 85 bd 64 5e dd bd 89 24 2d 3d
       0.11600145 -0.06516635 -0.10809019 0.04227117
000060 94 59 e0 3d a9 4f bf 3d ca 37 bd 3d 4c 17 27 be
       0.10954586 0.09341366 0.092391565 -0.16317481
000070 34 3b 9c bd 89 db 69 3c 07 ce 9f bd 61 1f 00 bd
       -0.076284796 0.014273533 -0.078029685 -0.031279925
000080 f4 7a 19 3d 44 ac 8e be b4 d6 49 3d 32 2d 19 be
       0.037470773 -0.27865803 0.049277022 -0.14958647
000090 0d 3e da 3d e1 a1 d7 bd cc 1b 06 be 85 63 7d bd
       0.106563665 -0.10528923 -0.13096541 -0.061862487
0000a0 5e b1 35 bd 14 05 40 bd df 69 39 3d e8 1d a5 bc
       -0.044358604 -0.046879843 0.045266982 -0.020155862
0000b0 18 30 a6 bd 84 aa eb bd c3 57 68 3e 95 e8 01 bc
       -0.08114642 -0.11507133 0.22689728 -0.007928987
0000c0 f5 24 9d 3d 07 e2 7a bc 74 14 82 bd c0 cd 4d be
       0.076730646 -0.015312678 -0.063515574 -0.20098019
0000d0 f8 ef da 3d 41 06 76 be 97 05 3e 3c 08 03 cb bd
       0.10690302 -0.24025823 0.011598012 -0.099126875
0000e0 31 3a 09 bd 2a e2 f8 3c a1 eb a1 3e ab ea 81 3d
       -0.03350276 0.03038128 0.31625083 0.063435875
0000f0 ce 23 11 be 13 a8 8c be 2c fd 24 3e 28 a7 54 3d
       -0.14173815 -0.2747198 0.16112202 0.051917225
000100 af da 82 bd 50 3c 5c 3d 28 32 4c 3e 00 74 13 bd
       -0.06389367 0.053768456 0.19941008 -0.035999298
000110 0b 54 92 3c 9d 73 92 3d d7 16 61 3b db c3 47 3c
       0.01786234 0.07150958 0.003434589 0.012192692
000120 c5 11 a5 bd 1c c0 ec 3c 3c 2f e5 bd fb e3 1b 3e
       -0.0806003 0.028900199 -0.1119065 0.15223686
000130 33 65 0e 3e 3a cd 59 bd a9 fb 01 3e 9a 7d 9a 3d
       0.13905792 -0.053174235 0.12693657 0.07543488
000140 1b 39 19 bd 80 2a 26 3c f0 1b 24 bd 68 f5 e5 bd
       -0.037407976 0.010141969 -0.040065706 -0.11228448
000150 7f 1b 9d 3d 93 71 00 3e 65 b3 0a bc 4f 04 8e 3d
       0.0767126 0.12543325 -0.008465623 0.069344155
000160 82 f3 37 bd 4a f4 dc 3d 66 27 52 be 15 e1 57 be
       -0.04490996 0.10788782 -0.20522842 -0.21081956
000170 c0 1d ec bd 06 b2 32 3e 82 b2 cc 3d 90 29 ee bd
       -0.11529112 0.17450723 0.09994985 -0.11629021
000180 76 e6 d8 bd d2 b4 17 bd f3 32 fd 3b 64 92 13 3e
       -0.10590832 -0.037037678 0.007727021 0.14411312
000190 e4 38 15 3e 18 28 0d 3d 2d cb 11 3d 42 08 0e 3d
       0.14572483 0.034462065 0.035594154 0.034675844
0001a0 62 3f 82 3d 15 65 78 3d d3 15 af bd 18 01 ed ba
       0.063597456 0.060643274 -0.085490845 -0.0018081991
0001b0 72 f2 1a 3e b5 de 2c bd f1 f4 9c bd bc fc 58 bd
       0.15131548 -0.042204577 -0.07663906 -0.0529754
0001c0 90 0d ca 3d b6 88 ae bc 94 d1 06 3e 7c cd 75 3d
       0.09865868 -0.021305423 0.13165885 0.06001042
0001d0 b5 99 b8 bb 4b 43 97 bd 15 9c 0e be b6 d6 b3 3d
       -0.0056335577 -0.07385882 -0.13926728 0.08781187
0001e0 5f 3b 55 3c 31 38 c7 bd b3 ae d1 3d 72 18 fb bd
       0.013014643 -0.097275145 0.10238399 -0.12260522
0001f0 1f 9d e3 3d ea e4 eb 3d 54 4f 4c 3e 71 47 1d 3d
       0.11113953 0.11518271 0.19952136 0.03839821
000200 9b c7 dd bd 80 92 96 3d ab d8 c7 38 21 65 0a bd
       -0.10829087 0.073521614 9.529417e-05 -0.03378785
000210 f9 f7 3c bd 89 88 16 3d cd 71 ff bd 7c 14 02 3d
       -0.046134923 0.036751304 -0.12472878 0.031757817
000220 cd ed a6 bd 21 2e ae bc a0 61 78 bd 8f 84 e1 3b
       -0.08150826 -0.02126223 -0.060639977 0.0068822573
000230 4e d3 18 be 10 a7 06 be eb a1 90 bd 20 a2 cf bd
       -0.14924356 -0.13149667 -0.070621334 -0.10138345
000240 55 40 6d 3e ff 98 c8 3d da 65 74 bc c1 f1 6d be
       0.23169072 0.09794807 -0.014916861 -0.23236753
000250 b4 4f 10 be e4 14 c4 bd 99 9d 24 3e f0 63 74 3e
       -0.14092904 -0.09574297 0.16075744 0.23866248
000260 6a ac 09 bb 56 9a 52 3c 48 70 39 bd 01 ef 28 3d
       -0.0021007308 0.012854179 -0.045273095 0.041243557
000270 0d 92 1c be ce 4d a5 3c 63 fd 03 bd a9 c0 86 3e
       -0.15290089 0.020178702 -0.03222407 0.26318863
000280 27 a9 82 3d 69 b4 b5 3d 8d 86 ec 3d 44 c4 20 3e
       0.063799195 0.08872301 0.11549101 0.1569987
000290 63 f7 f1 3c fd b6 e0 3c 56 80 ee 3a 15 8f 10 bd
       0.029536908 0.027431006 0.0018196206 -0.035292704
0002a0 49 af a3 bd c5 fd 25 3e 49 c9 41 be 32 1a 1b 3e
       -0.07992417 0.16210087 -0.1892444 0.15146711
0002b0 ac dd 6a 3e 9e 72 3b bc f5 a5 48 bd f3 5d a6 bd
       0.22936124 -0.011440901 -0.048986394 -0.08123388
0002c0 bf 3c c2 bd 99 72 05 be 73 79 ff bd eb 8e a0 bd
       -0.09484243 -0.13031997 -0.124743365 -0.078397594
0002d0 8e d0 3e 3e 15 1b 0e 3d ec 96 1a bd 86 98 c2 bd
       0.18634245 0.034693796 -0.037741587 -0.09501748
0002e0 c4 5a e5 bd 43 3e 17 3a fd 91 90 bd 28 ea 1b 3e
       -0.11198953 0.00057694706 -0.07059095 0.15226042
0002f0 65 7e 68 bb 49 b2 e4 bb 8b e1 8c bd 5c 87 c4 bd
       -0.0035475728 -0.006979261 -0.068789564 -0.0959613
000300 fb f3 91 3d fe 3a 39 3d ab 9a a4 bd 6a d0 14 be
       0.07126614 0.045222275 -0.08037313 -0.14532629
000310 9b ef 0f be 26 f7 a5 bd 2f 78 8b 3e 93 cd 1a 3b
       -0.14056246 -0.081037804 0.2724013 0.0023621067
000320 22 4d c6 bd 52 f2 80 3d b1 d3 47 be 1a 09 75 3d
       -0.09682681 0.06296219 -0.19514348 0.059823133
000330 e0 a3 41 3e ff c1 e9 3d 0d 3e 00 be 2e 5a 91 bd
       0.1891017 0.11413955 -0.1252367 -0.070972785
000340 45 2c 78 be c3 9f 03 be c1 24 e5 bb 8f c6 c9 bd
       -0.24235637 -0.12853913 -0.006992907 -0.09852325
000350 40 9a 20 be e3 7d 57 bd 67 81 45 be a3 9c 4e 3e
       -0.15683842 -0.05261029 -0.19287644 0.2017694
000360 d8 e0 9c bc fa a9 d2 bc d6 eb c5 3d 3a 2f cf 3c
       -0.019150183 -0.025715817 0.09664123 0.025291074
000370 df e9 34 bd ed 07 46 3e 62 47 b9 ba a4 b5 52 be
       -0.04416835 0.19338961 -0.0014135654 -0.20577103
000380 42 ac 8d bd 17 53 22 be 9b 17 53 be 50 56 f2 bd
       -0.06917621 -0.15852009 -0.20614474 -0.11832869
000390 f4 09 86 3d d7 59 1b 3d 59 f8 22 be 68 f9 30 3d
       0.06544867 0.037927475 -0.1591505 0.043206602
0003a0 50 92 e4 3c af 95 3d bd d8 92 11 bc 0f be da bd
       0.027901798 -0.046285328 -0.008885108 -0.10680782
0003b0 fa 64 cb bc 81 c9 bd bc 12 71 9d 3d 2a ce e8 bd
       -0.024828423 -0.023167374 0.07687582 -0.11367448
0003c0 ee af 9e 3d cb 55 01 be 03 80 a9 3d a1 33 61 be
       0.077484 -0.12630384 0.082763694 -0.21992351
0003d0 d8 f7 83 be 33 c2 67 3e dd 67 85 bc 91 86 b8 bb
       -0.25775027 0.22632675 -0.016284877 -0.005631276
0003e0 ac d1 a4 bd 04 0f e0 3d f8 02 22 bd 3d 39 c4 3d
       -0.08047804 0.10940364 -0.039553612 0.0958123
0003f0 8a 53 5b 3e ee 56 98 bd 0f 71 42 be 15 58 08 3d
       0.21418586 -0.074384555 -0.18988441 0.033287127

conv2.bias f4 [64]
000000 63 10 9e be 7c 3d 73 be 2d 7e 3f be 96 86 fa bd
       -0.30871877 -0.23753923 -0.18700476 -0.122327015
000010 2d fe 7a bd e4 83 9b be d1 1e 9f be f3 ca 87 be
       -0.061277557 -0.30374062 -0.310782 -0.26522025
000020 b4 82 55 be d4 8d 50 be 19 0b 24 be 82 13 88 be
       -0.2085064 -0.20366603 -0.16019858 -0.26577383
000030 ae 3d 7c be 65 08 ef bd 3b 0f c1 be 38 48 98 be
       -0.24632904 -0.11671523 -0.37706932 -0.297426
000040 0d 95 e4 bd f4 ce 31 be ab f5 77 be 08 a8 68 be
       -0.11161242 -0.17364103 -0.24214809 -0.22720349
000050 77 59 48 be 70 94 bf bc f4 e7 97 be 78 4e 75 bd
       -0.19565378 -0.02338621 -0.29669154 -0.059889287
000060 e5 62 3b be 65 49 e5 bd 80 4d 4e be 67 06 77 bc
       -0.18299444 -0.111956395 -0.20146751 -0.01507721
000070 e5 02 49 be a1 ab 5a be 2a f3 b7 be ba df 99 be
       -0.1963001 -0.21354534 -0.35927707 -0.30053502
000080 a3 fd 9b be 86 aa a9 be 57 35 67 bd 40 8b 37 be
       -0.30466947 -0.33137912 -0.056447353 -0.17924213
000090 9e 10 5d bd 8e d4 b5 be 4c 09 8e be 2e 62 9e be
       -0.053970926 -0.3551373 -0.27741468 -0.3093428
0000a0 b1 79 0d be 1b 64 9f be 0e 40 e3 3c ef 37 3f be
       -0.13815953 -0.31131062 0.027740505 -0.1867368
0000b0 b2 31 8e be 71 98 83 be 6c 02 22 3c 95 38 1d be
       -0.2777229 -0.2570224 0.009888273 -0.15353616
0000c0 9d 75 a7 be 92 de 60 be eb 65 4a be 68 77 a8 be
       -0.3270692 -0.21959904 -0.19765441 -0.329036
0000d0 e7 7b c0 bd 08 91 53 bd 84 32 9c be e0 13 ac be
       -0.093986325 -0.051651984 -0.3050729 -0.33608913
0000e0 63 67 72 be 73 f9 a3 be 7f 8c 97 be 5b ef 3f 3c
       -0.23672251 -0.32026252 -0.29599378 0.011714782
0000f0 f1 dd c2 bc 1c 18 d3 be a8 0b fa bd c7 a1 a5 be
       -0.02378747 -0.41229331 -0.122092545 -0.3234999

conv3.weight f4 [256, 128, 5]
000000 12 6b 87 bd e2 53 e6 bd f4 d2 d5 bc 63 38 41 be
       -0.06612219 -0.11246468 -0.026101567 -0.18869166
000010 07 48 7a 3d 1e bf df bc 19 f5 18 3d 1b 9b 01 bd
       0.061103847 -0.027312811 0.03734312 -0.03164206
000020 03 d9 a7 bd 0c 96 89 bd 25 58 11 be 1f 2c 13 bd
       -0.081956886 -0.06718072 -0.1419378 -0.03593075
000030 66 33 e6 3d 3a 55 02 bd 2e d3 b9 3c 8d 67 bb bc
       0.11240272 -0.03181956 0.022683706 -0.022876525
000040 c9 db 53 bd 4c 3d c3 bb 2c eb 1d 3e 1d 64 82 bd
       -0.051723275 -0.005958235 0.15421742 -0.06366751
000050 3b e1 2d 3e 73 61 83 bd a8 d0 b7 bd c5 30 d7 3d
       0.1698045 -0.06415071 -0.08975345 0.10507349
000060 f2 57 aa bd b2 e1 c7 bd d3 3f 81 3d e0 9e ea 3d
       -0.083175555 -0.09759845 0.06311002 0.11456084
000070 13 e0 91 bc 76 0c ea 3d 58 be 06 be fe 55 d6 bd
       -0.017807042 0.11428158 -0.13158548 -0.104656205
000080 5d 9c 59 3d 1c 93 bf 3c ab 25 e6 3c 31 a1 99 bd
       0.053127635 0.023385577 0.028094133 -0.07501448
000090 ad 77 36 3d 4c 3e 46 3e 8b 0b 03 3e ac 16 a2 3d
       0.044547725 0.19359702 0.12797372 0.079144806
0000a0 e3 d0 55 3d a0 b9 94 bd 58 bb f7 bc d8 dc 98 3d
       0.052201163 -0.07261968 -0.0302407 0.074639976
0000b0 1e b7 90 ba de 9f 48 3c 6a b7 00 be ca 26 39 bd
       -0.0011040901 0.012245147 -0.12569967 -0.045203008
0000c0 c1 48 23 be 2d 3e 31 be 00 66 c6 bd 13 67 4e be
       -0.15945722 -0.17308874 -0.09687424 -0.20156507
0000d0 5b f9 30 be c0 a0 51 bd ef 1e f1 bb 32 28 96 3b
       -0.17282622 -0.051178694 -0.007358424 0.0045824284
0000e0 1f 0c b8 bd ff ae 9e 3d b2 4d a3 bd 85 dd b8 3d
       -0.08986687 0.077482216 -0.079738036 0.090266265
0000f0 d9 df 29 be 47 d8 69 bc e0 4b a6 bd 74 b3 26 3d
       -0.16589297 -0.014272756 -0.08119941 0.040698484
000100 bb 68 01 3e 10 a1 80 3c 69 31 86 ba 38 f8 b2 3d
       0.12637608 0.0157018 -0.0010238114 0.0873875
000110 2e a5 2c be 07 ad 1e be 75 64 75 bd 28 12 8d bd
       -0.16859886 -0.15495692 -0.059910256 -0.06888229
000120 2a 0e a3 bd 6d 1d d4 3d c1 40 f7 3d 20 cf ec bd
       -0.07961686 0.10357175 0.12072898 -0.115629435
000130 e4 8c 4d bd a9 55 43 bd c5 61 8c 3d 36 30 92 bd
       -0.050183192 -0.047689114 0.068545856 -0.07138102
000140 07 72 e5 3d cd 72 c1 bb 52 ac 6f 3c 9d 10 14 be
       0.112033896 -0.005903578 0.014628487 -0.14459462
000150 47 71 21 3e 9c 7b af bd a6 8c d5 bc ce 25 b7 bc
       0.15765868 -0.085684985 -0.026068043 -0.022356894
000160 d0 3e 54 3d 7a 06 a2 3d 6b 53 dc bc 72 96 1c bc
       0.051817715 0.079113916 -0.026895246 -0.009557353
000170 19 ea bd be db 2d 2e 3d be 90 8d 3d cf f8 15 be
       -0.37092665 0.0425242 0.06912373 -0.14645694
000180 33 49 4f be 1f c6 9b be 63 3f ea 3c 3a 5d 08 3e
       -0.20242767 -0.30424592 0.028594678 0.13316813
000190 bb c9 cc 3c 1c 1c ec bd 0b 1e 65 3d e9 1c a1 bd
       0.024998536 -0.11528799 0.055936854 -0.07866842
0001a0 0b f1 b6 bd ea f7 6a 3d 25 8c 72 bc 04 af 88 3d
       -0.08932694 0.057365336 -0.014803921 0.066740066
0001b0 08 bd 4d be c9 3c 8f 3c 59 6a a1 3d 98 91 3b bd
       -0.20091641 0.01748504 0.07881612 -0.045793146
0001c0 3b 2f 30 be 60 ff 3f 3d cb 35 b5 bb 65 48 b8 3c
       -0.17205517 0.046874404 -0.0055300943 0.022495458
0001d0 49 8a 11 3d 16 a1 f2 bc b3 11 6e bc 48 0a dd 3c
       0.03553227 -0.029617827 -0.014530587 0.026982442
0001e0 09 e4 35 3d ab ef d4 bd 7c 83 10 be 8d ed 80 3d
       0.044406924 -0.103972755 -0.14112657 0.06295309
0001f0 45 8a 8d bd 0c 87 21 3e 96 58 cd bd 28 a0 20 3d
       -0.069111384 0.15774173 -0.10026662 0.039215237
000200 41 32 5d 3c 58 7d a7 bc e4 2b ff bd 63 9a 95 3d
       0.013500751 -0.02044551 -0.12459543 0.073048376
000210 0d ee 07 3d 42 4e 47 bd 4b cb c2 bd d6 ab 0e be
       0.033186007 -0.048658617 -0.09511431 -0.13932738
000220 d4 ec 80 bd 1b e2 5c be b9 a4 68 3d 4b 2d 89 be
       -0.062951714 -0.21570627 0.056797717 -0.26792368
000230 d3 1b 01 3d ee c6 95 be 2c 4d bf bd b4 0c ab 3d
       0.031520676 -0.29253334 -0.09340891 0.08352032
000240 e9 72 87 bb 78 04 2a bd 41 d6 24 be 3c 46 7d 3d
       -0.0041335714 -0.041508168 -0.16097356 0.06183456
000250 0b 12 d5 3c 76 66 2a be 14 42 8b 3c 89 6f 6e 3c
       0.02600958 -0.16640648 0.016999282 0.014552959
000260 10 7d 2d be 15 a4 03 3e 20 eb a2 3d 60 24 41 be
       -0.16942239 0.12855561 0.07955003 -0.18861532
000270 25 05 f7 bc b0 13 ad bd 13 a2 4f 3b 58 04 20 be
       -0.03015382 -0.08451021 0.0031682297 -0.15626657
000280 68 9c 4d 3d 58 f0 1f 3e fb 5d 5b bd 14 97 5e bd
       0.05019799 0.15619028 -0.053556424 -0.054343298
000290 cf dd 0a be 5d 67 88 bc bc fc 2d bd ab 28 8a 3d
       -0.13561176 -0.01665085 -0.042477354 0.06746038
0002a0 fc 85 b4 bd 09 65 8d 3d d1 50 ee 3d 81 c6 05 bd
       -0.08814618 0.069040366 0.11636508 -0.03266001
0002b0 98 1c 06 3c a6 a1 71 bc 1a 98 48 bd 75 9d 32 3d
       0.008185528 -0.014748013 -0.04897318 0.043607194
0002c0 99 41 41 be b2 7b ea bd 21 80 0d 3d a9 35 3d bc
       -0.1887268 -0.11449374 0.03454602 -0.011548438
0002d0 79 4a 8c 3d 8a bc ac bd ef 44 2e bb a2 98 68 3b
       0.06850142 -0.084343985 -0.002659138 0.0035491367
0002e0 14 21 11 3e 74 6a bb bd fe 9b 22 be c7 cd 08 be
       0.14172775 -0.09151164 -0.15879819 -0.13359748
0002f0 34 af 06 be 1e 89 8f bd 8d b2 f5 bd 10 31 90 3d
       -0.13152772 -0.07008575 -0.119969465 0.07040608
000300 ef 3d 9d 3c d7 4b d9 3c 49 14 ad bd 60 f1 18 be
       0.019194571 0.026525421 -0.08451135 -0.14935827
000310 34 ab 62 3e b0 cb a9 3d e2 5c 29 3e 71 59 9e 3c
       0.22135621 0.082908034 0.16539338 0.019329758
000320 41 eb df bd f8 66 97 bd 7c cb 47 be b6 a9 47 be
       -0.10933543 -0.073926866 -0.19511217 -0.19498333
000330 e0 bf f6 bd 5d 93 b1 bd 3c d0 82 3d 64 f3 97 bd
       -0.12048316 -0.086706854 0.06387374 -0.0741947
000340 4a 70 29 bd 50 9f 9d 3e eb 7d 17 3d 31 82 d8 bc
       -0.041366853 0.30785608 0.03698532 -0.026429268
000350 61 6b 9e bd e1 7e 1a 3e 49 6e ac bd e9 4f 20 bd
       -0.07735325 0.15087463 -0.08419473 -0.03913871
000360 ee d2 b5 bd 05 53 64 be d7 66 bc 3d 51 1f 97 ba
       -0.08878122 -0.22297294 0.09199303 -0.0011529719
000370 c9 f1 1a 3e 0c 00 2a 3b 2e a9 63 3d 87 61 18 bd
       0.15131296 0.002593997 0.055581264 -0.037202384
000380 f7 0c 46 be 3e ce 5b 3d 3b 50 06 be 1c f5 42 3e
       -0.19340883 0.053663485 -0.13116543 0.19038814
000390 f7 46 74 be 61 77 9e bd 78 47 5a 3d 31 d6 6f bd
       -0.23855196 -0.077376135 0.053290814 -0.05855388
0003a0 4c 96 dd bc 03 0c 1f 3c e6 de 7a bd b2 d6 1d be
       -0.027049206 0.009707454 -0.06124773 -0.15413931
0003b0 46 9e 2d be d8 88 c5 3c 45 52 48 be fa b8 f8 bc
       -0.16954908 0.024113104 -0.19562633 -0.030361641
0003c0 d4 6b 36 bd 48 0b 25 bd 54 e6 49 be 2d 38 85 bd
       -0.044536427 -0.04029396 -0.1971677 -0.06504855
0003d0 f2 0a a6 bd e2 ed 64 3d 37 e7 34 be cc 5e 4e bb
       -0.081075564 0.055890925 -0.17666326 -0.0031489609
0003e0 d0 79 af bd 07 42 bb 3d a1 0f e2 bd 7a d5 b2 bd
       -0.08568156 0.09143453 -0.11038137 -0.08732124
0003f0 e2 8d 6a bb 5e 42 d8 3b 14 e1 f3 bd ec 77 1c 3d
       -0.0035790135 0.0065997085 -0.119081646 0.038200304

conv3.bias f4 [256]
000000 15 b6 f0 bd 95 bd 8d 3c ad 58 00 3e 88 41 bd 3d
       -0.117534794 0.017302314 0.12533827 0.09241015
000010 fd bf bf bd 9f 60 69 be 62 77 db bd 82 2d 8a bd
       -0.09362791 -0.22790764 -0.1071613 -0.06746961
000020 74 b2 d8 bd 4f 1c dc bd 41 b6 ce bd 07 4e 49 bd
       -0.10580912 -0.10747587 -0.10093356 -0.04914668
000030 cd f8 3a 3e e2 f7 4e bc 38 db 68 bd 6e 4a 86 bd
       0.18258972 -0.012632342 -0.05684969 -0.06557165
000040 30 f5 19 be e1 18 b6 bd 7f 53 82 be fe fd 77 be
       -0.15034938 -0.08891464 -0.25454327 -0.24217984
000050 d7 35 de 3d 24 89 5d be c2 70 38 bc f5 75 b1 bd
       0.10850113 -0.21634346 -0.011257352 -0.08665077
000060 73 0f e0 bd 18 58 d5 bb 04 e3 23 3d 5c 88 4e 3d
       -0.10940447 -0.0065107457 0.04001142 0.05042301
000070 5a a3 8d bd 58 f2 33 be 2a 0a 84 3d 5b 9a 17 be
       -0.069159225 -0.17572916 0.06447251 -0.14804976
000080 ce a7 b9 3c 53 a0 e8 bd 8e 6a 97 be 04 b0 2d bd
       0.022663023 -0.113587044 -0.29573482 -0.04240419
000090 e8 65 00 be 6f 62 84 3d bb 86 e6 3c bb ef 25 bd
       -0.12538874 0.06464087 0.028140416 -0.040511828
0000a0 6a 5a 62 3d 9d f1 68 bd 31 5d ec bd ae e9 d0 bc
       0.055262007 -0.056871045 -0.11541212 -0.025502052
0000b0 66 9e 52 3e de 6c 66 3c 9b 2b ab be b9 09 34 3e
       0.20568237 0.014064042 -0.33431706 0.17581834
0000c0 f3 7d 6c bd 7a b6 11 bd d9 9c 49 bd d1 80 2c 3e
       -0.057737302 -0.035574414 -0.049221847 0.16846015
0000d0 66 6a 89 bd 2d 6e e1 3d 63 c4 51 be fc d7 be 3c
       -0.06709747 0.110073425 -0.20485072 0.023296349
0000e0 8f 5d 4a be 57 f5 43 3e 02 90 1e be 67 82 9e bd
       -0.19762252 0.19136558 -0.15484622 -0.07739716
0000f0 ee 6f d0 bc 0f 56 01 be 04 11 95 ba 4c 38 6c bd
       -0.025443997 -0.12630485 -0.0011372869 -0.057670876
000100 85 8a 93 bd 5b fd 59 3d f1 da b6 3d ad d6 99 bd
       -0.07204155 0.053220134 0.089284785 -0.07511649
000110 c7 58 b2 bd dc 9d fe bd 82 e8 fd bb 34 66 26 be
       -0.08708339 -0.12432453 -0.0077486644 -0.16249925
000120 dc 38 12 3e 91 79 94 3e c9 f3 2a 3d d4 83 fc 3c
       0.14279503 0.28998998 0.041736398 0.03082458
000130 79 97 48 bc 01 d4 a1 bc 5f b1 ea 3e 3c b2 d5 3d
       -0.012243145 -0.019754412 0.45838448 0.10434386
000140 e4 fd d6 3c 4f 1d a4 3d 05 13 b3 3e 15 49 61 3d
       0.026244111 0.08013403 0.34975448 0.055001337
000150 47 ab 29 3d 76 26 01 3e 2d 8b 4f be 22 18 6b 3d
       0.04142311 0.12612328 -0.20267935 0.05739606
000160 7c 40 39 bd 20 59 b7 bd 0e 3c 93 bd a0 a3 3c be
       -0.045227513 -0.08952546 -0.07189189 -0.18421793
000170 e0 38 a8 bd b0 89 cd 3d a3 a6 5e 3e 3c 94 fb bd
       -0.08213973 0.100360274 0.21743254 -0.12284133
000180 0c 51 25 bc a5 eb a2 3d a8 b6 ad 3d e9 9d 3a be
       -0.010090124 0.07955102 0.084821045 -0.182243
000190 9c c6 b2 39 24 40 61 be 3a c8 97 3e 36 a2 14 be
       0.0003409878 -0.21997124 0.29644948 -0.14515004
0001a0 8a 69 f5 bd a0 a8 4b 3d 57 62 13 3e 2f 74 9f bd
       -0.119830206 0.04972136 0.14392982 -0.07785832
0001b0 35 f0 29 3e 4d 0b 04 3e e9 5a 8e bd 12 60 22 be
       0.16595538 0.12894936 -0.069509335 -0.1585696
0001c0 51 56 ea bd 27 08 bf 3e 1d 93 1c be 33 df 0b be
       -0.11442245 0.37310907 -0.15290494 -0.13659362
0001d0 39 09 a9 3d 9c 4e ef bd 36 58 94 bd ff 66 53 3e
       0.08253712 -0.116849154 -0.072433874 0.20644759
0001e0 7a 94 3c be c3 46 1f be ab 3d b5 bc 63 e1 8e 3e
       -0.18416014 -0.15554337 -0.022124132 0.2790633
0001f0 b1 e7 27 be 90 ff 08 3e 53 41 90 bd a7 f0 0f be
       -0.16396977 0.1337874 -0.070437096 -0.14056645
000200 68 4e a7 3c b6 e5 75 3e 8d 8d 20 be 09 25 92 3d
       0.02042313 0.24013409 -0.15678997 0.0713597
000210 de a0 92 be 53 7e 52 be f1 2c 96 be 43 c4 15 be
       -0.28638357 -0.20556001 -0.29331163 -0.14625649
000220 8e 2b 03 be 99 36 f8 bd a1 4f d4 bd 1c 95 a5 be
       -0.12809584 -0.12119789 -0.103667505 -0.32340324
000230 f1 a2 2a be 03 12 54 bd 83 84 cf bd d3 aa 15 3d
       -0.1666372 -0.05177499 -0.101326965 0.036539864
000240 b4 8b 99 bd 24 b2 bb 3c 55 06 35 be a8 31 67 3e
       -0.074973494 0.022912093 -0.17678197 0.22577536
000250 2d e8 5f 3e d0 0e 9b bd f5 09 67 3e d8 b5 39 be
       0.21865912 -0.07571185 0.22562392 -0.18135774
000260 8a d5 9f bd d5 42 28 be 10 ae 2a be f9 bc 54 3e
       -0.07804401 -0.16431744 -0.16667962 0.20775212
000270 43 b4 90 bd de 88 02 bb 4d dd e5 bd 43 67 16 be
       -0.07065632 -0.0019918005 -0.112238504 -0.14687829
000280 33 2d be bc f9 6f b4 bd c6 90 66 ba d4 22 cd bd
       -0.023214912 -0.088104196 -0.00087953766 -0.100164086
000290 f3 40 85 be ee 7a dd 3d 36 e3 4c be 38 73 5a bd
       -0.26026115 0.108144626 -0.20008549 -0.053332537
0002a0 d0 c1 99 3d d6 93 77 3e e3 3a ef bd af 34 34 bd
       0.0750767 0.24177489 -0.116811536 -0.043995555
0002b0 db 4d d8 3d c2 e4 41 3e 58 fb 11 be c2 5c 1d be
       0.10561725 0.1893492 -0.14256036 -0.15367416
0002c0 e9 ba 3c bd fe 88 1a be e9 c0 fe 3d c8 f2 d5 3e
       -0.04607669 -0.15091321 0.124391384 0.4178679
0002d0 38 d4 87 3e 73 a3 04 be 6e d8 e0 3e 9e f9 3f bd
       0.26529098 -0.12952976 0.43915123 -0.046868913
0002e0 73 6e 55 be 39 34 92 3c 32 62 28 be 0f d2 91 bd
       -0.20842914 0.017847167 -0.16443709 -0.071201436
0002f0 3f cc 86 be 1b 53 6b be 72 97 d7 bd 4e ed 2c be
       -0.26327702 -0.22980921 -0.10526933 -0.168874
000300 3b b0 f9 bc 06 18 96 3d bf 86 ae bc 8c a9 17 bd
       -0.030479541 0.07328801 -0.021304486 -0.037026927
000310 83 10 f7 bd e2 a8 bc bc 8e 14 a5 3c 8a 69 35 bd
       -0.12063696 -0.023029748 0.020151403 -0.044290103
000320 f1 18 99 3c 13 39 8a be e1 aa f4 bd b3 be 55 be
       0.01868865 -0.2699667 -0.11946655 -0.20873527
000330 d2 52 0d bb 8f 7a db 3e 73 db 80 be 53 4d d4 bd
       -0.0021564257 0.42866942 -0.25167426 -0.10366311
000340 17 3b a0 3e df ed 35 be 1a 30 86 ba 00 d2 18 3c
       0.31295082 -0.17766522 -0.0010237724 0.009327412
000350 74 54 23 3e ae de 9f 3d b2 e0 ba bd 92 e6 ca bb
       0.15950185 0.07806145 -0.091248885 -0.006192037
000360 c4 1e f9 bd 28 74 86 bd c6 7d 4e be 11 01 03 be
       -0.12164071 -0.06565124 -0.20165166 -0.12793376
000370 a1 eb 58 3e f1 83 99 bc 43 45 7c be 02 f0 1c be
       0.21183635 -0.018739672 -0.24635796 -0.1532593
000380 fb 02 b1 3e 3c d9 32 be d7 d3 00 3d 01 3e 08 bc
       0.34572586 -0.17465681 0.031452026 -0.008315564
000390 f3 5f 8f bd 51 bc 17 be db 36 d5 bd 7f 1f 8c be
       -0.07000723 -0.14817931 -0.104108535 -0.2736778
0003a0 76 85 21 bc fc 15 e1 bd ae a0 83 3e 7d 7d d6 bc
       -0.00985848 -0.10990521 0.25708526 -0.026182884
0003b0 fc df 31 3d 9b ed d8 3d 50 65 17 be b8 ff ad bd
       0.0434265 0.10592195 -0.14784741 -0.0849604
0003c0 e1 5b 57 be ee 60 7d be 3f 36 7c be b7 7f 8f bd
       -0.21031143 -0.24744007 -0.24630068 -0.070067815
0003d0 09 b5 1e 3d 71 fd fb bd 08 dd be bd 00 bc ad 3c
       0.038746867 -0.123041995 -0.09319502 0.02120781
0003e0 16 07 b3 bc c5 85 ea bd bc c6 6c be 2f 09 0e 3e
       -0.021853965 -0.11451296 -0.23122686 0.13870691
0003f0 5e 7c 22 3d a5 55 98 3b 4f 2c 45 be 25 86 7e bc
       0.039669387 0.0046488815 -0.19255184 -0.015534912

fc.weight f4 [12, 256]
000000 5e 13 6b be 04 a0 92 3d a1 b3 a2 3d c5 bc 13 3d
       -0.22956607 0.07159427 0.07944418 0.036068697
000010 b9 66 b3 bd f7 9d 30 bd b5 91 8d 3d 3f db 4e bd
       -0.08759827 -0.043119397 0.06912557 -0.050502058
000020 35 b1 11 bc 59 9d a4 bd a6 d3 b3 bd d6 e1 1e bd
       -0.008892347 -0.08037824 -0.08780603 -0.038789593
000030 22 5b 66 3d 6f 69 74 bd 24 67 d7 3d d1 a6 17 bd
       0.056239255 -0.05967086 0.105177194 -0.037024323
000040 8f 7e 52 bc f6 29 50 bc 21 0d 43 bd 07 d8 b3 bb
       -0.012847557 -0.012705317 -0.047619943 -0.005488399
000050 c2 63 34 3d d6 c4 a8 3c 76 2b 17 3d 6f a8 1b 3d
       0.04404045 0.020601671 0.036906682 0.038002428
000060 f4 1f 93 bd 63 55 8b bd 31 ee 1d 3d c4 a6 b9 bd
       -0.07183829 -0.068033956 0.038557235 -0.09065011
000070 9b 1d 48 bd 1a b2 ad bd 1d 6e 35 3d 26 a8 16 bd
       -0.04885636 -0.08481236 0.044294465 -0.036781453
000080 57 36 20 3d 2c 19 0b bc ab 47 bd bd 47 48 08 be
       0.039114323 -0.008489888 -0.09242185 -0.13308822
000090 f1 c8 a1 3c 4d a7 df bd f0 c4 37 bb de db 07 39
       0.019749137 -0.10920582 -0.0028040968 0.0001295651
0000a0 93 0f 1d bc 36 43 56 3c d9 49 e6 3c 1f b5 24 3d
       -0.009586233 0.013077548 0.028111385 0.040211793
0000b0 69 f5 a0 be 45 94 36 3d 84 c3 03 3d 1e d3 2f 3b
       -0.31437233 0.044574995 0.03216888 0.0026828717
0000c0 a2 4f 8f bd 89 10 9c bd 3b 8a a1 bb 2e 89 8a be
       -0.06997611 -0.07620341 -0.0049298084 -0.27057785
0000d0 48 08 cc bc 64 7a 15 3d fd 2d c9 bc eb ab 01 3c
       -0.024906293 0.036493674 -0.024558062 0.007914524
0000e0 0e 3f 81 3c 3d 64 94 ba 6c 82 67 bd 7e 7b 13 3d
       0.015777137 -0.0011321377 -0.056520864 0.036006443
0000f0 e1 31 d5 3c 3a 80 32 3b 67 03 1e bd 58 6b 32 bd
       0.02602476 0.0027237074 -0.038577463 -0.043559402
000100 d9 3c 2b bd 75 53 72 3d a0 70 4a be 91 74 45 3d
       -0.041806076 0.059161622 -0.19769526 0.04820687
000110 f2 6a 15 3e 4d 92 dc 3c 56 e5 8b 3e 86 26 f0 bd
       0.14591578 0.02692523 0.27323407 -0.11726098
000120 1d 6d a2 bd b6 05 93 3d b8 ea 10 be bd 7b e9 bb
       -0.07930968 0.07178824 -0.14152038 -0.0071253465
000130 55 d5 19 3d 17 c5 14 bd 6f cb 30 3d 46 15 28 3d
       0.037556965 -0.036320772 0.04316276 0.041035913
000140 36 d5 d2 3c 53 7e 03 ba c1 9c 52 3b b6 a0 61 3d
       0.025736433 -0.0005016077 0.003213689 0.055084907
000150 c8 27 4e be ff 41 3c bd f3 53 ab bd 03 62 f9 3b
       -0.20132363 -0.045961376 -0.083656214 0.007610561
000160 18 6a 21 be e7 1d 0d be 6b 66 e1 bd fe 05 d2 bc
       -0.15763128 -0.13780938 -0.11005863 -0.025637623
000170 b5 6d 34 3c 27 c5 e2 3c f3 b3 a1 bc 9e 04 33 bd
       0.011012484 0.0276819 -0.019739127 -0.043705575
000180 06 62 22 be 70 cb cf bc 80 9f fa 3d 21 bb e5 bd
       -0.15857705 -0.025365561 0.122374535 -0.11217333
000190 6e 5c bd 3c e3 90 9f bd 81 27 6c 3d a8 be 09 3d
       0.023115363 -0.07791307 0.05765486 0.03362909
0001a0 2e 1b 02 3c 75 2c cc 3c 01 0a b4 bd 50 d8 8b 3d
       0.00794105 0.024923543 -0.087909706 0.06828368
0001b0 2f e7 8c 3c a5 df cb 3c 37 6c e2 3d ac e1 66 3d
       0.01720008 0.024886915 0.110557966 0.05636756
0001c0 21 59 41 3e 8c bc 41 3d c9 8c 4a bd 6c a5 c5 3c
       0.18881656 0.047298953 -0.04945067 0.02412673
0001d0 92 eb 10 3d 23 e4 d7 3c a8 ed c7 bd a9 f2 06 be
       0.035380907 0.026353901 -0.09762126 -0.13178505
0001e0 8d 73 43 bd 6f fe f9 39 e8 3f 38 3d 88 2b ec 3c
       -0.04771762 0.0004768255 0.04498282 0.028829351
0001f0 af 40 5e bc a3 78 98 3c c0 9d fb bc e3 4d 73 bd
       -0.013565226 0.018612212 -0.03071487 -0.05940045
000200 4b 22 02 be 01 f4 15 3d ff 46 4f bd 99 6a 74 3d
       -0.12708394 0.036609653 -0.050604817 0.059671972
000210 6f ae 6f bd da fc ec 3c 2f 91 05 3b 78 fd ee 3c
       -0.058515962 0.028929163 0.0020380726 0.029173598
000220 34 c1 6e 3d ae 4b 67 3c e2 75 0f bd e8 72 39 bc
       0.05828972 0.014117165 -0.03502453 -0.0113189
000230 e7 ba 47 bd a8 b4 33 3d cd 12 bb bc 63 92 13 3d
       -0.04876223 0.04387346 -0.022836113 0.036028277
000240 15 60 a3 bd 4e a1 53 bd ca c0 13 3d d2 54 b9 3c
       -0.079773106 -0.051667504 0.03607253 0.022623453
000250 39 a1 f6 be 73 86 f5 bc 81 27 1c 3d 32 0d 94 ba
       -0.48169878 -0.029971337 0.03812361 -0.0011295436
000260 ba d4 87 bd 17 61 91 bd dd c5 26 3d 69 96 21 bc
       -0.06632371 -0.070985965 0.04071604 -0.009862521
000270 79 73 15 be 31 3d b3 3c d7 36 e6 3c b3 30 db bd
       -0.1459483 0.021879764 0.028102322 -0.10702648
000280 76 57 56 3d fb 67 df bb d1 c6 3a 3c da f7 59 3d
       0.052329503 -0.0068178154 0.011399941 0.053214885
000290 df 14 ed 3c b9 a0 d1 3c dc b3 a1 ba ae d5 9f 3d
       0.028940616 0.025589334 -0.0012336927 0.07804428
0002a0 78 4e c4 bc 82 9a c0 bd fd 29 87 bd b4 36 b2 bd
       -0.023963198 -0.0940447 -0.065998055 -0.0870184
0002b0 74 ce d9 3d e0 5c bc 3d ae 99 1a 3d 1a af b3 3c
       0.10635081 0.09197402 0.037744217 0.02193408
0002c0 f9 d5 d9 bc 21 01 a4 bd de ed 34 be c9 59 62 3d
       -0.026591288 -0.08008028 -0.17668864 0.055261407
0002d0 ac 23 c6 3c 37 22 5d bd 35 1f 6a 3b 55 7e 48 bc
       0.024186932 -0.053987708 0.0035724167 -0.012237151
0002e0 8b 29 c4 3c 5c ff 2f 3d ff 95 2d bc 65 19 3d be
       0.02394559 0.04296814 -0.010594844 -0.18466718
0002f0 9a 17 f9 bc 08 4c 85 3d eb a2 28 3d 01 24 c5 3c
       -0.030406762 0.065086424 0.041170996 0.02406502
000300 cb 69 bb 3c c2 4a 6b 3c e9 eb a3 3d df 7c 56 bd
       0.022877594 0.014361085 0.08003981 -0.05236518
000310 77 84 28 3d 89 ce 12 bd 73 f3 44 3d 60 39 90 3c
       0.041141953 -0.0358415 0.048083734 0.017605484
000320 f2 b0 0b bc ac 4f cf bc 15 27 6b bd 73 f2 f7 3c
       -0.008526074 -0.025306545 -0.05741032 0.030266976
000330 2d 87 0d be 31 a5 80 3d cb 11 29 3d 2b 2e 85 bc
       -0.13821097 0.06281508 0.041276734 -0.016257366
000340 cd 07 01 bd d0 81 55 3d 3e 65 bc 3b 84 90 bd 3b
       -0.03150158 0.052125752 0.0057493737 0.00578505
000350 27 a1 81 bd 55 19 89 bd 11 e7 00 bd da 37 de 3c
       -0.063295655 -0.06694285 -0.031470362 0.027126241
000360 5c fa c8 bc cd 43 8d 3d d7 93 ef bd cb fc 34 be
       -0.024533443 0.068976976 -0.1169812 -0.17674558
000370 26 4f a6 bd 81 a4 25 3e 7d 88 62 bd 55 50 c7 3c
       -0.08120565 0.16176035 -0.055305947 0.024330297
000380 54 e3 19 be 3d 6e 65 3d 90 4f 29 3d 15 2c 50 3d
       -0.15028125 0.056013335 0.041335642 0.05082329
000390 8b c9 91 3b 30 d0 bf 3c ec 33 6f 3d 4c a2 41 bc
       0.0044490746 0.023414701 0.058399126 -0.01181848
0003a0 09 8a ac 3c d5 07 fd 3c 05 5b 1e bc c6 65 3e 3d
       0.021061914 0.030887524 -0.009665255 0.046483777
0003b0 da db a9 bc bb 1f 4d bc 53 16 46 bc a2 05 cd bd
       -0.020734716 -0.012519772 -0.012090283 -0.1001084
0003c0 70 2b f9 bd 65 90 1d bc 60 9c 5d bc ab 92 1b bb
       -0.12166488 -0.009616946 -0.013526052 -0.0023738544
0003d0 51 93 38 3d 62 b0 e1 bc 6a 05 51 bd a7 5b 48 3d
       0.045062367 -0.027549926 -0.051030554 0.04891553
0003e0 74 5c 85 b9 36 0d f8 bc 95 01 ff bc d2 1d 66 bb
       -0.0002543662 -0.030279737 -0.031128684 -0.003511299
0003f0 46 0a 99 bd 79 ff 64 3d 4d e6 55 bd be 62 0d b9
       -0.07472663 0.0559077 -0.052221585 -0.00013483592

fc.bias f4 [12]
000000 75 39 ce be 41 42 b8 be ee 86 ee be 27 ab a5 be
       -0.4027821 -0.35988048 -0.46587318 -0.3235714
000010 66 5b c1 be 9a 82 3a 3e 53 07 66 3e f9 fc 29 3e
       -0.37765044 0.18213883 0.22463731 0.16600408
000020 07 0d 84 3e aa 3d b4 3e 03 ae ae 3e 8c 16 08 bf
       0.2579119 0.35203296 0.34117135 -0.53159404
