src/main/python/saved_models/csharp_1_55_RNNClassifier1_128embs_183id_16hd_1hl_Truebid_2.pt (torch, 115871 bytes, 11 tensors)

word_embeddings.weight f4 [183, 128]
-0.26334184 -0.1695556 -0.13490662 1.2956034 -0.7547692 1.6788064 -0.362425 0.8220556
-1.515878 -0.56579304 -2.0483222 0.37675333 -0.86544526 -2.072886 -1.873895 -0.3271166
-1.3970877 -0.015580093 0.2872781 -0.27653652 1.7183642 -0.2978321 0.463591 -1.8226308
-0.97531474 -0.75636846 1.1408762 1.653209 -1.2353112 -0.4861232 -0.6269078 0.24060132
0.35149583 0.19660129 0.45379758 -0.5120064 1.9567175 -1.1661862 -0.5143178 0.012374449
-0.04497596 -2.394008 -0.55174 -1.216885 -0.7002243 2.1600575 0.6438742 -0.43319443
0.76927245 -1.7710257 -0.43645486 0.60911626 1.067052 -0.11303553 -0.4678147 0.9160876
0.18410364 2.2014875 -1.4908594 -0.7433735 -0.8313151 -0.8948402 -1.5589424 -1.966589
-0.16517441 -0.66903824 0.006924209 -1.2305173 0.17062451 -0.61728096 -1.1341848 0.16414642
0.8118977 -0.13099442 -1.3213528 1.220609 -0.46933284 1.0810449 -0.91436076 0.030864628
-0.20865268 -0.06009378 -1.7069243 -1.4882452 -1.6151241 0.5391337 0.24346782 0.23649068
0.74566424 -0.9531543 -0.26164824 -1.044277 0.67409176 -0.13473691 3.3974533 0.15096322
0.992067 -3.0725346 -0.33698773 1.0142341 0.055186283 0.8215951 0.90589035 -0.5977052
0.34479398 -0.27380535 0.5542826 -0.6381604 0.64671654 -1.7923579 -1.223723 -1.1860498
1.2267897 0.22226097 0.72880423 -0.5894931 0.300752 0.5533384 -0.9470532 -0.59978557
1.2962289 -1.3387895 -1.8769735 1.2212543 0.76222354 -0.46538675 0.57265127 0.8783081
0.9912692 -1.0000204 -0.053931627 -0.71315366 0.8711547 -0.4389213 -0.80779684 0.98356175
-0.7924537 -0.07731408 1.0147221 0.82758504 -1.2130123 0.35422826 -0.54963726 0.16043457
0.6604225 0.83589023 -0.08063706 -0.5650191 0.11558101 1.177457 -0.67828417 -0.03163715
-1.1068103 -0.12999785 0.60797393 -0.05127223 0.8655487 -0.78939146 2.0643768 -0.4997323
0.27633306 -0.37078592 -0.20408775 2.4534957 1.3805492 0.9290925 -1.4632217 -1.0646069
1.2603791 -0.22819528 1.9192771 -1.6480623 -1.2230096 -1.5146778 -3.2740471 0.4277829
-0.5917808 0.7259194 -0.12817824 0.22575702 -0.1963158 -0.4184942 -0.6645022 -0.7693637
-0.80161214 -0.5431756 0.46057197 -0.26615027 0.13074276 0.14166026 0.08678663 1.0177255
0.20050488 0.3079569 -1.0757105 0.043138213 1.1279138 -1.6346087 0.03249182 -1.6479741
0.6253935 -0.86143804 -2.0212562 -0.59887797 -0.113760196 -0.60145223 -0.18336059 -1.1675117
-0.35661736 2.5913448 0.8328204 0.968793 -0.4881259 -0.2733934 0.10259314 -2.068377
-0.99006253 1.0002655 -1.5049397 0.20935443 1.05344 -1.015928 1.5494401 0.32445467
1.1863469 -0.051216286 1.0352364 -0.24233592 0.22031379 0.37269253 -0.38038766 2.22322
0.83179516 -0.09416369 0.055491526 1.0391991 1.6294034 0.35633206 -1.6088117 -0.25973567
-0.99521816 -0.75354224 0.44532603 -1.5298396 -0.06929424 -0.10043513 1.5772873 0.32688677
-2.3025591 -1.5434463 0.2176751 -0.8565425 -0.90861714 -0.45233396 -1.6068501 1.3524333
00000000: bed4 86be fc9f 2dbe f624 0abe 55d6 a53f
00000010: 8e38 41bf 21e3 d63f c58f b9be 3c72 523f
00000020: 4a08 c2bf d0d7 10bf b617 03c0 d0e5 c03e
00000030: d28d 5dbf 2aaa 04c0 cbdb efbf d47b a7be
00000040: c5d3 b2bf a543 7fbc 1d16 933e 3296 8dbe
00000050: 5cf3 db3f 737d 98be cd5b ed3e f74b e9bf
00000060: 3aae 79bf 5da1 41bf 3b08 923f 5a9c d33f
00000070: ad1e 9ebf 24e5 f8be 087d 20bf 3160 763e
00000080: 43f7 b33e d951 493e 2858 e83e da12 03bf
00000090: b875 fa3f 9745 95bf 55aa 03bf 33be 4a3c
000000a0: b638 38bd 6d37 19c0 d53e 0dbf e3c2 9bbf
000000b0: e641 33bf 623e 0a40 f1d4 243f a9cb ddbe
000000c0: 0aef 443f f8b0 e2bf 0377 dfbe 0bef 1b3f
000000d0: 2995 883f 2c7f e7bd 6985 efbe b884 6a3f
000000e0: aa85 3c3e 2ce5 0c40 7bd4 bebf ba4d 3ebf
000000f0: 11d1 54bf 3f14 65bf 6d8b c7bf 30b9 fbbf
00000100: 7b23 29be 1746 2bbf 7ae4 e23b 9781 9dbf
00000110: 31b8 2e3e 2006 1ebf f82c 91bf 0016 283e
00000120: 87d8 4f3f 6723 06be 1722 a9bf ea3c 9c3f
00000130: 654c f0be ae5f 8a3f 8c13 6abf d1d7 fc3c
00000140: 0ca9 55be e524 76bd 7f7c dabf d27e bebf
00000150: 63bc cebf ab04 0a3f a14f 793e 9d2a 723e
00000160: dae3 3e3f ec01 74bf c2f6 85be deaa 85bf
00000170: 4791 2c3f 79f8 09be e06f 5940 1a96 1a3e
00000180: 1af8 7d3f 68a4 44c0 a889 acbe 6cd2 813f
00000190: 030b 623d 0e54 523f 6ee8 673f 3503 19bf
000001a0: d688 b03e 3730 8cbe 77e5 0d3f 7b5e 23bf
000001b0: 378f 253f fc6b e5bf f5a2 9cbf 7bd0 97bf
000001c0: 7207 9d3f 6198 633e ea92 3a3f 05e9 16bf
000001d0: 2bfc 993e 96a7 0d3f 1472 72bf 8c8b 19bf
000001e0: d4ea a53f 745d abbf ab40 f0bf 1052 9c3f
000001f0: 1521 433f 2c47 eebe 4699 123f cdd8 603f
00000200: d1c3 7d3f ab00 80bf 69e7 5cbd 3d91 36bf
00000210: ff03 5f3f 4bba e0be c6cb 4ebf b4ca 7b3f
00000220: 3fde 4abf d856 9ebd 6ae2 813f 9ddc 533f
00000230: fd43 9bbf 685d b53e 07b5 0cbf f648 243e
00000240: 7311 293f e7fc 553f 0b25 a5bd 17a5 10bf
00000250: bdb5 ec3d e9b6 963f 08a4 2dbf f595 01bd
00000260: f6ab 8dbf 281e 05be 2ea4 1b3f d402 52bd
00000270: 9994 5d3f 8f15 4abf c01e 0440 e9dc ffbe
00000280: 877b 8d3e a7d7 bdbe 61fc 50be 1306 1d40
00000290: d6b5 b03f 02d9 6d3f d94a bbbf 0a45 88bf
000002a0: 1a54 a13f 06ac 69be dfaa f53f b5f3 d2bf
000002b0: 948b 9cbf f6e0 c1bf fd89 51c0 5c06 db3e
000002c0: f27e 17bf dbd5 393f 2841 03be d92c 673e
000002d0: 0207 49be df44 d6be d11c 2abf 05f5 44bf
000002e0: 7436 4dbf 8e0d 0bbf 17d0 eb3e d944 88be
000002f0: 6ee1 053e 630f 113e 30bd b13d d444 823f
00000300: 2751 4d3e 87ac 9d3e e2b0 89bf b2b1 303d
00000310: 7b5f 903f dc3a d1bf 2516 053d d1f0 d2bf
00000320: ca19 203f 3487 5cbf 435c 01c0 1150 19bf
00000330: 1bfb e8bd c6f8 19bf e1c2 3bbe 0671 95bf
00000340: 8d96 b6be 98d8 2540 b833 553f d102 783f
00000350: a3eb f9be 38fa 8bbe 5a1c d23d 4a60 04c0
00000360: bd74 7dbf b308 803f dda1 c0bf 0261 563e
00000370: 1fd7 863f ee09 82bf 0e54 c63f ec1e a63e
00000380: 37da 973f 2bc8 51bd a082 843f e826 78be
00000390: f099 613e 8ed1 be3e 2cc2 c2be 3d49 0e40
000003a0: 87f0 543f e5d8 c0bd 154b 633d 7a04 853f
000003b0: 4a90 d03f 2871 b63e 8bed cdbf 13fc 84be
000003c0: 9ec6 7ebf 25e8 40bf c601 e43e c9d1 c3bf
000003d0: 23ea 8dbd efb0 cdbd 8de4 c93f b45d a73e
000003e0: 215d 13c0 a68f c5bf 39e6 5e3e 5f46 5bbf
000003f0: 229b 68bf 5198 e7be 44ad cdbf 891c ad3f

rnn.weight_ih_l0 f4 [16, 128]
-0.016271336 0.43542933 -0.28236195 0.02795201 -0.17767467 0.006507436 0.15947467 0.21084464
0.15758906 -0.14196366 0.39679617 0.57269984 0.0086886585 0.09848639 -0.29056334 -0.22698595
0.19739383 -0.056926105 0.16966242 -0.1191243 0.097858205 0.3496893 -0.28050557 -0.058111526
0.3213463 0.13490981 0.18048188 -0.24350505 -0.39284363 -0.29996833 0.039662972 0.2521808
-0.23407461 -0.21438871 -0.25107592 -0.18820126 0.04234415 0.002312444 -0.15327887 -0.109724216
-0.1260512 -0.15300226 -0.04810873 0.61454487 -0.024999186 -0.12857272 -0.46478236 -0.27716476
-0.018518107 -0.10035979 0.014127322 -0.20633641 -0.5214489 0.08194975 -0.42264056 0.32900128
0.21941297 -0.39331868 0.07463677 -0.13831982 -0.007270237 -0.057325512 0.15959482 0.109044604
-0.0293788 -0.17854546 -0.11304267 0.039515804 0.041868526 -0.13716567 0.16346465 -0.4400203
-0.027203344 -0.07484361 0.23568517 0.040698733 -0.251141 -0.42743388 -0.12254824 -0.4526345
-0.13173138 0.17062251 0.40848526 0.16531652 -0.16070835 -0.10623993 0.27175188 -0.15194578
-0.039850466 -0.10573451 0.10965673 -0.25192797 0.04733074 -0.13207713 0.10156964 -0.137337
-0.23717934 -0.05709684 -0.26879352 -0.010191836 0.14921376 0.23818415 0.02822713 0.32502386
0.24562475 -0.013014615 -0.07527255 -0.118283175 -0.11814824 0.059323307 0.3509204 0.07789008
0.21171564 0.27762014 -0.08860831 0.48953244 -0.21136734 0.19758682 -0.26440012 -0.032714896
-0.038875252 0.38704938 0.14728573 0.10427283 0.1250473 -0.19257435 -0.21100798 -0.34987065
-0.32002103 -0.09171058 -0.20837978 -0.17971098 -0.3722858 -0.26777133 0.38046467 -0.20443043
-0.28275907 0.23261827 -0.058793597 0.2190187 0.29243618 0.16187671 -0.2184191 -0.1664883
-0.049374986 0.1842257 -0.066609144 -0.1239429 0.25358808 0.41144538 -0.12402473 0.010834266
0.38191468 -0.016246352 0.27370772 -0.19305633 -0.17484845 -0.19703203 -0.032637298 -0.4134706
0.09141621 -0.012516165 0.09410254 -0.10026353 0.090595976 -0.30060318 0.19384338 0.06298362
0.1488055 -0.17479132 -0.25583887 -0.051977597 0.13762133 0.24844916 0.056096733 0.12779762
-0.30668554 -0.17973348 0.19709662 -0.08458307 -0.054076787 -0.12052114 -0.2892052 0.012261521
-0.12223406 0.25145796 -0.09565051 -0.020527046 0.1190153 0.04570922 -0.02974942 -0.16308366
0.08894058 0.06063622 0.32007232 0.16747153 -0.13582335 -0.07436687 0.1138633 0.025120106
-0.3311599 0.06963615 0.30387366 -0.30613413 0.11422806 -0.06622268 -0.06407839 -0.1261431
-0.22937354 0.046862233 -0.1919504 -0.1914222 -0.13372652 0.1427482 0.22801727 0.024332043
0.18524013 0.03498442 0.16780373 -0.1143853 0.22027402 -0.13525748 0.08562383 0.19925393
0.05425092 -0.26528844 -0.07329982 -0.005575753 -0.014969266 0.055908803 0.095094055 -0.31880984
-0.028771747 -0.029517667 0.2810035 0.18144503 0.16641355 -0.14265583 0.21479891 0.2729582
-0.21937121 0.4128451 0.19557808 -0.09137476 0.28805515 0.2574706 -0.118975826 -0.2447171
0.052042414 -0.17931412 -0.18896252 0.12171407 -0.09200521 0.041978177 -0.14322776 0.04572242
00000000: 774b 85bc 98f0 de3e bf91 90be 9dfb e43c
00000010: 59f0 35be 543c d53b 544d 233e a8e7 573e
00000020: 075f 213e ec5e 11be de28 cb3e 759c 123f
00000030: e05a 0e3c 3cb3 c93d b8c4 94be 016f 68be
00000040: 9c21 4a3e 592b 69bd fcbb 2d3e 71f7 f3bd
00000050: e269 c83d 7a0a b33e 6d9e 8fbe 5a06 6ebd
00000060: 8187 a43e cc25 0a3e 3ed0 383e 6359 79be
00000070: cd22 c9be 7395 99be a475 223d d81d 813e
00000080: 41b1 6fbe b788 5bbe 068d 80be d5b7 40be
00000090: 0f71 2d3d 5f8c 173b 23f5 1cbe 17b7 e0bd
000000a0: 9113 01be a0ac 1cbe a90d 45bd d052 1d3f
000000b0: 18cb ccbc 91a8 03be f4f7 edbe 8ae8 8dbe
000000c0: 49b3 97bc 6f89 cdbd 4876 673c da49 53be
000000d0: ad7d 05bf 45d5 a73d 5864 d8be db72 a83e
000000e0: cbad 603e 1161 c9be 2adb 983d b6a3 0dbe
000000f0: 2b3b eebb 28ce 6abd d36c 233e c752 df3d
00000100: cfab f0bc 9fd4 36be ea82 e7bd 53db 213d
00000110: 557e 2b3d 2875 0cbe 4763 273e 574a e1be
00000120: 8cd9 debc 9b47 99bd 7457 713e b7b3 263d
00000130: 8e95 80be 9dd8 dabe 92fa fabd b6bf e7be
00000140: 97e4 06be abb7 2e3e fb24 d13e bc48 293e
00000150: bb90 24be 5294 d9bd 1023 8b3e ad97 1bbe
00000160: 3e3a 23bd 568b d8bd b593 e03d b4fc 80be
00000170: e1dd 413d 3a3f 07be be03 d03d 12a2 0cbe
00000180: 24df 72be 60de 69bd 4e9f 89be a9fb 26bc
00000190: 7ecb 183e 8ce6 733e 953c e73c 8769 a63e
000001a0: 0e85 7b3e 403b 55bc 7f28 9abd 733e f2bd
000001b0: b4f7 f1bd fffc 723d d7ab b33e d684 9f3d
000001c0: fccb 583e 3a24 8e3e 4678 b5bd ffa3 fa3e
000001d0: ae70 58be 3354 4a3e 745f 87be 0e00 06bd
000001e0: a83b 1fbd 562b c63e 12d2 163e fe8c d53d
000001f0: 660c 003e 3632 45be 7a12 58be 3f22 b3be
00000200: ccd9 a3be c2d2 bbbd 8261 55be 2806 38be
00000210: 3f9c bebe 5319 89be 44cc c23e 3656 51be
00000220: ccc5 90be 7c33 6e3e 8ed1 70bd 7046 603e
00000230: 32ba 953e 02c3 253e 42a9 5fbe e97b 2abe
00000240: 6d3d 4abd a9a5 3c3e 606a 88bd c6d5 fdbd
00000250: 4cd6 813e f8a8 d23e ad00 febd 3582 313c
00000260: 528a c33e 1217 85bc 6b23 8c3e 8fb0 45be
00000270: 790b 33be c4c2 49be b0ae 05bd 6bb2 d3be
00000280: 6c38 bb3d 9a10 4dbc d5b8 c03d f756 cdbd
00000290: 628a b93d a9e8 99be e17e 463e 8efd 803d
000002a0: 7860 183e 7ffc 32be 50fd 82be 76e6 54bd
000002b0: 9bec 0c3e 7569 7e3e b0c5 653d 61dd 023e
000002c0: e305 9dbe 0e0c 38be b2d3 493e e339 adbd
000002d0: 9f7f 5dbd cad3 f6bd b412 94be 8ce4 483c
000002e0: da55 fabd 19bf 803e 6ae4 c3bd 5628 a8bc
000002f0: 4bbe f33d 9739 3b3d 0eb5 f3bc 67ff 26be
00000300: 7b26 b63d af5d 783d 85e0 a33e a87d 2b3e
00000310: 4715 0bbe a84d 98bd 2931 e93d aec8 cd3c
00000320: ca8d a9be 669d 8e3d 5495 9b3e 9dbd 9cbe
00000330: 67f0 e93d c29f 87bd 883b 83bd a82b 01be
00000340: e6e0 6abe 9df2 3f3d a58e 44be 2e04 44be
00000350: 9bef 08be 962c 123e 5c7d 693e fe53 c73c
00000360: 97af 3d3e d34b 0f3d bed4 2b3e d742 eabd
00000370: 838f 613e f080 0abe 8c5b af3d 3909 4c3e
00000380: 3636 5e3d e3d3 87be 371e 96bd ceb4 b6bb
00000390: a741 75bc a100 653d acc0 c23d 0b3b a3be
000003a0: bab2 ebbc 09cf f1bc b1df 8f3e bacc 393e
000003b0: 5068 2a3e 5f14 12be 3ff4 5b3e 2dc1 8b3e
000003c0: d9a2 60be 6f60 d33e 9f45 483e b122 bbbd
000003d0: f77b 933e 30d3 833e 99a9 f3bd 1f97 7abe
000003e0: 6d2a 553d 1f9e 37be 647f 41be 3a45 f93d
000003f0: 3a6d bcbd 4ff1 2b3d 4caa 12be 6f47 3b3d

rnn.weight_hh_l0 f4 [16, 16]
0.0818957 0.060936082 -0.008368541 -0.23610316 -0.03134404 -0.22152132 0.53433985 0.5222677
0.21212128 0.097529285 0.28922826 -0.28348944 -0.22980449 0.22455569 0.044708014 -0.05631345
0.3550684 1.3808551 0.071736105 -0.048813086 -0.1369363 -0.78728414 -1.5624642 -0.23119096
0.066308476 0.037596516 -0.37799975 -0.3344915 0.31376904 -0.3662042 0.2982449 -0.40768054
0.033147767 -0.19108833 1.0932304 0.055848613 -0.37095857 -0.41602498 -2.3512096 -0.14179151
0.3257353 0.38149887 -0.5028647 -0.238181 -0.31742036 0.3160477 -0.18734963 -1.2156819
0.21556766 0.05409936 -0.22380333 0.2394162 -0.5260768 -0.2417799 -0.12359737 -0.1600184
0.027497534 -0.13665622 -0.4083647 -0.17120594 -0.13286497 -0.12819557 0.15964282 -0.31406006
0.19190505 0.3968105 0.582711 0.54430914 -0.120457605 -0.24625438 0.16449429 0.636795
0.36267266 0.4342162 -0.26565135 -0.050677307 0.4791567 -0.4207864 0.038311332 -0.31660563
-0.63918114 -0.5121173 -1.0489464 -0.22191037 0.0846037 0.9586727 1.6950166 0.3190724
0.21063147 -0.61400294 -0.18175907 -0.12358312 -0.22519626 -0.21161993 -0.3838281 0.14569545
-0.49247196 -0.71787417 -0.06473812 -0.17950852 -0.600512 1.524395 1.1751285 0.48084658
0.20243968 0.09213871 -0.10368308 0.41785917 0.2973165 -0.2501414 0.12142303 -0.48375732
-0.40050834 -0.82727295 -0.30542904 -0.38841805 0.005960082 0.3375026 -0.49391407 0.73198164
0.0018529026 0.34335586 0.02359042 0.29920962 0.4829011 0.03700131 0.044119228 -0.012102574
0.053385798 -0.02966655 0.06998895 -0.14403065 0.12584592 -0.009953825 0.2902407 0.2020136
0.31548318 0.11628363 0.09970221 -0.037619974 -0.33254588 0.0698677 0.23326302 -0.1274222
0.5213742 -0.11122204 0.34633932 -0.5420156 0.1733097 -0.38952354 -0.10503409 0.37846977
-0.04656935 0.27896017 0.114433154 -0.13802652 -0.3746572 0.052756052 0.1967314 0.10958809
0.020581586 -0.5241921 1.9167622 0.10921764 0.22427033 -0.19297819 -0.38004223 -0.11080201
-0.2843273 0.03333232 0.5076294 0.19773173 -0.59305805 0.23136447 -0.3643364 0.94736224
1.1386608 0.6520755 0.022165477 0.0025139102 0.034968775 -0.22268255 -0.20377417 -0.1071416
0.21424794 -0.14115922 0.032246027 -0.6738942 -0.4700682 0.27314118 0.1703538 0.829102
-0.71336997 0.055290934 -0.28274563 -0.04670156 0.15302059 -0.29398066 -0.44130018 0.18114085
-0.12558651 -0.27821085 -0.14142504 0.50818586 0.10850956 -0.34439102 0.10645806 -0.3634066
0.15156218 -0.6860818 1.6741668 -0.14932312 0.34222192 0.3905073 -0.40429485 -0.013669449
0.034219865 0.31223223 0.3156162 -0.22431129 0.10760029 0.15902406 -0.36452058 1.1620226
0.17955501 -0.18142176 0.64454633 -0.0065286313 0.48530665 -1.1495041 -0.65237194 -0.24127083
0.20349531 -0.13854453 0.48383015 -1.0177083 -0.27503833 -0.12837642 0.05460089 1.607024
0.6275974 0.8707567 -0.45991912 0.30230778 0.10604696 -0.14182761 -0.8735457 0.8787403
0.90210205 1.5660632 0.09844789 0.038594894 0.34045106 0.19371593 -0.11986251 -0.5734336
00000000: efb8 a73d 1d98 793d 341c 09bc 07c5 71be
00000010: 9c62 00bd 7cd6 62be 7fca 083f 56b3 053f
00000020: 5236 593e 6fbd c73d ba15 943e 8725 91be
00000030: de51 6bbe edf1 653e c01f 373d efa8 66bd
00000040: 86cb b53e dcbf b03f 61ea 923d 3bf0 47bd
00000050: 0839 0cbe 748b 49bf d4fe c7bf 53bd 6cbe
00000060: bdcc 873d cefe 193d 2f89 c1be 7842 abbe
00000070: 56a6 a03e 1e7f bbbe 8eb3 983e 81bb d0be
00000080: f4c5 073d a9ac 43be f9ee 8b3f 84c1 643d
00000090: 48ee bdbe 3a01 d5be 387a 16c0 cb31 11be
000000a0: c7c6 a63e d253 c33e bebb 00bf b8e5 73be
000000b0: ec84 a2be 01d1 a13e 95d8 3fbe 779b 9bbf
000000c0: c5bd 5c3e 4a97 5d3d b32c 65be 8529 753e
000000d0: f8ac 06bf 2695 77be 9e20 fdbd dddb 23be
000000e0: 8242 e13c 9cef 0bbe 2e15 d1be 9c50 2fbe
000000f0: c10d 08be b345 03be 6879 233e 7bcc a0be
00000100: c282 443e bf2a cb3e 8c2c 153f d857 0b3f
00000110: 7ab2 f6bd 1c2a 7cbe 3171 283e ff04 233f
00000120: 3bb0 b93e 9651 de3e 7403 88be 0293 4fbd
00000130: 0754 f53e 5171 d7be 58ec 1c3d 221a a2be
00000140: 60a1 23bf 1f1a 03bf e043 86bf 793c 63be
00000150: b444 ad3d 936b 753f 4ef6 d83f 755d a33e
00000160: c7af 573e 4c2f 1dbf 0d1f 3abe 2619 fdbd
00000170: d999 66be e5b2 58be 1e85 c4be 3031 153e
00000180: 4925 fcbe 9ac6 37bf 6b95 84bd 15d1 37be
00000190: 28bb 19bf 601f c33f 9c6a 963f 8631 f63e
000001a0: 594c 4f3e 38b3 bc3d cb57 d4bd a3f1 d53e
000001b0: de39 983e 8912 80be a3ac f83d 0aaf f7be
000001c0: 6e0f cdbe 29c8 53bf 3261 9cbe bbde c6be
000001d0: cb4c c33b 24cd ac3e 4ee2 fcbe 2663 3b3f
000001e0: 18dd f23a 57cc af3e b240 c13c 0132 993e
000001f0: d03e f73e b08e 173d 5db6 343d e049 46bc
00000200: 11ab 5a3d 4407 f3bc 5e56 8f3d c57c 13be
00000210: c1dd 003e 5e15 23bc 6e9a 943e a7dc 4e3e
00000220: 0387 a13e 1d26 ee3d ac30 cc3d 6717 1abd
00000230: 7443 aabe cc16 8f3d 80dc 6e3e f77a 02be
00000240: c878 053f 62c8 e3bd 6353 b13e 89c1 0abf
00000250: 1978 313e a16f c7be 1d1c d7bd cac6 c13e
00000260: 81bf 3ebd ded3 8e3e ee5b ea3d d356 0dbe
00000270: 12d3 bfbe bb16 583d f573 493e b86f e03d
00000280: b79a a83c 7431 06bf 7758 f53f 7fad df3d
00000290: 1fa7 653e 139c 45be e594 c2be 2aec e2bd
000002a0: 5993 91be 7987 083d 00f4 013f 307a 4a3e
000002b0: a7d2 17bf cfea 6c3e 4d8a babe 5586 723f
000002c0: a3bf 913f 6cee 263f 6094 b53c 6ac0 243b
000002d0: 6b3b 0f3d e506 64be 2daa 50be 0e6d dbbd
000002e0: d063 5b3e 0b8c 10be 6914 043d 5584 2cbf
000002f0: c7ac f0be 29d9 8b3e 3a71 2e3e 0740 543f
00000300: 6a9f 36bf bf78 623d 09c4 90be 234a 3fbd
00000310: 6eb1 1c3e a284 96be 19f2 e1be fd7c 393e
00000320: c099 00be a771 8ebe bad1 10be 7818 023f
00000330: 433a de3d 0554 b0be af06 da3d 6e10 babe
00000340: 1e33 1b3e 0fa3 2fbf 194b d63f 29e8 18be
00000350: b637 af3e 93f0 c73e bcff cebe d3f5 5fbc
00000360: 212a 0c3d e7dc 9f3e 7298 a13e dcb1 65be
00000370: 8a5d dc3d 34d7 223e 71a2 babe 28bd 943f
00000380: 45dd 373e a0c6 39be fd00 253f 21ee d5bb
00000390: 1d7a f83e f322 93bf d901 27bf b30f 77be
000003a0: 1361 503e 9ede 0dbe 96b8 f73e 4444 82bf
000003b0: d3d1 8cbe 1c75 03be 2fa5 5f3d f6b2 cd3f
000003c0: 39aa 203f e9e9 5e3f 857a ebbe 16c8 9a3e
000003d0: 262f d93d 423b 11be b1a0 5fbf 20f5 603f
000003e0: 29f0 663f c274 c83f 0c9f c93d ae15 1e3d
000003f0: 9a4f ae3e 785d 463e 7a7a f5bd 8bcc 12bf

rnn.bias_ih_l0 f4 [16]
-0.1540943 -0.03557167 0.10006274 0.20445508 0.13701274 -0.14867206 0.23920012 -0.2266278
-0.29902017 -0.46482238 -0.087336905 0.3228008 0.012936704 0.075330265 -0.3191764 -0.14953455
00000000: e5ca 1dbe 99b3 11bd b2ed cc3d ac5c 513e
00000010: 114d 0c3e 7d3d 18be e0f0 743e 1e11 68be
00000020: 2c19 99be 33fd edbe b1dd b2bd 2546 a53e
00000030: 78f4 533c c146 9a3d 176b a3be 961f 19be

rnn.bias_hh_l0 f4 [16]
-0.41314697 -0.11872198 0.15233 -0.04714499 0.013859125 -0.106195636 -0.061671916 -0.08061979
-0.19833986 -0.042278334 -0.20073357 0.46293306 -0.13813679 -0.2715928 -0.2775642 -0.18120982
00000000: 0088 d3be 8224 f3bd 65fc 1b3e 1b1b 41bd
00000010: 6211 633c 197d d9bd b19b 7cbd fd1b a5bd
00000020: 9b19 4bbe 0c2c 2dbd 1a8d 4dbe 9005 ed3e
00000030: bb73 0dbe 360e 8bbe e51c 8ebe 118f 39be

rnn.weight_ih_l0_reverse f4 [16, 128]
-0.15565452 0.16932665 -0.2011625 -0.25492755 -0.045112543 -0.15077308 0.13950783 -0.2381886
-0.020831982 -0.10508505 0.35357377 0.36233684 0.0458823 -0.11284568 0.101441935 -0.027425515
0.4684358 0.21277145 -0.05012094 0.2040216 0.19481403 0.23855814 0.01585859 -0.20832044
0.059875708 0.24757677 -0.19995342 -0.067199044 0.11282484 -0.06711336 -0.24052173 -0.1038059
0.056942552 -0.15691406 0.49924454 -0.11318712 0.21202849 -0.06196417 -0.03875142 0.085852556
0.012500751 -0.21184656 -0.046873875 0.22305769 0.16661476 -0.30747133 -0.21205616 -0.16125052
-0.13840118 -0.20634915 0.04762029 0.18295795 -0.34426188 -0.021531304 -0.1552429 0.016429706
-0.02353801 0.12559095 0.09947299 -0.1210018 0.020171354 -0.10977419 0.1195619 -0.1276453
0.0956811 0.35248065 -0.07501992 0.114768945 0.19492769 -0.153823 0.33450788 -0.08737047
-0.284364 -0.022329256 0.26439118 -0.026852049 0.049913436 -0.023895122 0.079310104 -0.23548761
-0.27390575 0.28324428 0.021034384 -0.0031533632 -0.17095582 0.24956648 0.18844385 0.17993678
-0.049906075 0.17743087 0.029544536 0.15610002 0.10316165 0.14941908 -0.18354557 0.10332029
0.22470905 -0.003526244 -0.19391544 -0.20112513 0.19458653 0.10874252 0.06996284 0.1178824
0.06645813 0.0065994994 -0.22323814 0.25440317 -0.15402742 0.22085804 0.20799378 -0.14389363
0.0309954 -0.00056299684 -0.023002302 -0.077877626 0.12765726 -0.19390087 -0.20983322 0.15480894
0.2314929 -0.007989593 0.26916447 0.14084475 0.14265493 -0.2556986 -0.1900159 -0.004029
-0.17183106 0.10578814 -0.111978434 -0.044818435 0.090051346 -0.21138318 -0.15817805 -0.1924019
-0.12107715 -0.1864073 -0.05581141 0.12564053 0.1261649 0.33306682 0.38203326 -0.0063602515
-0.25961345 0.1392328 0.1975143 -0.35645327 0.013109842 0.121141516 0.09738459 -0.09850497
0.3930334 -0.19985637 -0.1616385 -0.101804346 -0.0097989645 -0.22074148 -0.13099228 -0.037262227
-0.12999499 -0.13043888 0.38687629 -0.2829232 -0.27901804 0.11829181 -0.14942965 -0.22241047
0.00090097805 -0.39318988 -0.13318339 -0.08371671 0.021043267 -0.04927345 0.103868656 -0.23850884
0.09780906 -0.12413956 0.05718747 0.106298216 0.21746656 0.008558369 0.09762613 0.092339195
-0.15311874 0.018987454 0.046172276 0.038531136 -0.23121265 0.14859007 -0.021023 0.09820989
-0.10311628 -0.0061888825 -0.09598566 -0.14187805 -0.15168568 0.26238084 0.015949711 -0.27732697
-0.31678408 -0.05724179 0.15817966 -0.14432262 0.18855834 0.13817228 -0.072010264 0.07336775
-0.50718254 -0.21125594 0.109868675 -0.020382268 0.2649471 0.12629567 0.08262525 0.29320252
-0.23382635 0.059122156 0.2679241 -0.076107144 -0.28153807 0.1500894 -0.24368876 0.25125718
-0.016136672 -0.019161215 0.22126271 -0.024998238 0.13744341 0.2591907 -0.13284579 -0.2218035
-0.14184575 -0.179962 -0.12625118 0.08873359 -0.19500904 -0.081665955 0.079587385 -0.1591383
0.070815586 -0.14558722 0.2917979 0.010760794 0.11398957 -0.33538494 0.084751055 -0.0852086
0.30565152 -0.114229694 0.13647372 -0.13289456 0.15747787 0.17270029 0.23494388 -0.088962264
00000000: e663 1fbe f763 2d3e 8bfd 4dbe dd85 82be
00000010: eec7 38bd 4264 1abe 24db 0e3e b6e7 73be
00000020: d5a7 aabc d536 d7bd 9f07 b53e 3784 b93e
00000030: 14ef 3b3d a31b e7bd cac0 cf3d 79ab e0bc
00000040: d1d6 ef3e c2e0 593e 9d4b 4dbd 0aeb 503e
00000050: 547d 473e 9648 743e e0e9 813c f451 55be
00000060: 3b40 753d c484 7d3e 97c0 4cbe a79f 89bd
00000070: b610 e73d bb72 89bd 544b 76be 3098 d4bd
00000080: 983c 693d 14ae 20be fb9c ff3e a6ce e7bd
00000090: ff1d 593e 24ce 7dbd cfb9 1ebd 77d3 af3d
000000a0: f3cf 4c3c 4eee 58be d2fe 3fbd 3c69 643e
000000b0: 0f9d 2a3e e26c 9dbe 4025 59be db1e 25be
000000c0: 0ab9 0dbe 314d 53be 7e0d 433d 5459 3b3e
000000d0: 1843 b0be 6b62 b0bc fff7 1ebe 9797 863c
000000e0: c9d2 c0bc ea9a 003e 7fb8 cb3d cbcf f7bd
000000f0: 653e a53c 4ad1 e0bd dfdc f43d 73b5 02be
00000100: 74f4 c33d 5878 b43e 0ba4 99bd fb0b eb3d
00000110: 209b 473e c783 1dbe 9e44 ab3e 4aef b2bd
00000120: 2998 91be d8eb b6bc 485e 873e d4f8 dbbc
00000130: 0872 4c3d b4bf c3bc 566d a23d aa23 71be
00000140: 603d 8cbe 6505 913e 4d50 ac3c a8a8 4ebb
00000150: 0b0f 2fbe 5b8e 7f3e 6df7 403e 5941 383e
00000160: 506a 4cbd 70b0 353e 6207 f23c afd8 1f3e
00000170: 6a46 d33d 5101 193e 5ff3 3bbe 9799 d33d
00000180: 211a 663e 8f18 67bb c591 46be bff3 4dbe
00000190: b141 473e 66b4 de3d ad48 8f3d 546c f13d
000001a0: 331b 883d 9d40 d83b 8a98 64be 2241 823e
000001b0: 5db9 1dbe 9c28 623e 52fc 543e da58 13be
000001c0: 11ea fd3c 1496 13ba 536f bcbc 4e7e 9fbd
000001d0: 96b8 023e f38d 46be 85de 56be 3c86 1e3e
000001e0: 7a0c 6d3e c8e6 02bc edcf 893e 9b39 103e
000001f0: 2214 123e edea 82be 8793 42be b405 84bb
00000200: 7bf4 2fbe 74a7 d83d f354 e5bd 8993 37bd
00000210: d76c b83d d574 58be 6df9 21be 0105 45be
00000220: 4cf7 f7bd 8ee1 3ebe 819a 64bd e9a7 003e
00000230: 5f31 013e bc87 aa3e dd99 c33e a869 d0bb
00000240: 0eec 84be 0b93 0e3e 3041 4a3e 0b81 b6be
00000250: aaca 563c 0b19 f83d 9271 c73d f9bc c9bd
00000260: ac3b c93e 26a7 4cbe 9084 25be cc7e d0bd
00000270: d68b 20bc 0e0a 62be d722 06be 47a0 18bd
00000280: 681d 05be c591 05be a614 c63e 4fdb 90be
00000290: 74db 8ebe fa42 f23d 1604 19be 92bf 63be
000002a0: 9d2f 6c3a 2f50 c9be 3a61 08be ab73 abbd
000002b0: ee62 ac3c f5d2 49bd 17b9 d43d a93b 74be
000002c0: 1e50 c83d e23c febd 693d 6a3d e1b2 d93d
000002d0: 8eaf 5e3e 6738 0c3c 35f0 c73d 551c bd3d
000002e0: 29cb 1cbe 948b 9b3c 241f 3d3d d3d2 1d3d
000002f0: 02c3 6cbe ff27 183e 6d38 acbc 4422 c93d
00000300: a12e d3bd 1ccc cabb 2194 c4bd 7b48 11be
00000310: 7e53 1bbe c856 863e f8a8 823c cdfd 8dbe
00000320: 8631 a2be 5e76 6abd d9f9 213e 4fc9 13be
00000330: 7015 413e 097d 0d3e 1e7a 93bd d541 963d
00000340: b7d6 01bf 7a53 58be d402 e13d b7f8 a6bc
00000350: 25a7 873e a753 013e 6d37 a93d a41e 963e
00000360: 2d70 6fbe 132a 723d 592d 893e 10de 9bbd
00000370: c225 90be 09b1 193e 8c89 79be c8a4 803e
00000380: 0e31 84bc fbf7 9cbc b192 623e 1bc9 ccbc
00000390: f7bd 0c3e a5b4 843e ba08 08be 7520 63be
000003a0: 0340 11be f547 38be fd47 01be f5b9 b53d
000003b0: 73b0 47be 7b40 a7bd b6fe a23d 27f5 22be
000003c0: c307 913d d114 15be 8966 953e 0b4e 303c
000003d0: 5d73 e93d 93b7 abbe f691 ad3d d981 aebd
000003e0: 5b7e 9c3e 42f1 e9bd c4bf 0b3e 8315 08be
000003f0: e141 213e 58d8 303e 2195 703e d931 b6bd

rnn.weight_hh_l0_reverse f4 [16, 16]
0.32762167 1.1411698 -0.79065675 0.10167143 0.16946785 1.0322353 0.21500234 -0.2946281
0.5709018 0.1855036 0.24562998 0.8321197 0.22515373 1.1244812 -0.111186035 0.0484472
0.48221767 0.5138242 -2.0804088 -0.46106258 0.49748892 -0.39177158 -0.6241232 -0.65341735
0.25951266 -0.37034103 -0.1590137 -0.6703975 -0.37483826 0.105740376 0.112182744 -0.22666232
0.17035007 -1.460814 0.21439584 0.56266904 -0.46932706 1.0673479 -0.546176 -0.17251793
-0.29732683 0.15446569 0.32147545 0.062139913 -0.5456772 0.21075341 0.35699737 1.0577489
-0.5195429 0.45165735 0.8725681 -0.27505815 0.6622543 0.82082534 0.5785887 -0.28662938
0.44554687 0.36284074 -0.6665466 -0.5338032 0.22715278 0.98121905 0.1312744 0.20394981
0.14158963 -0.08529934 0.30256417 -0.67255557 0.26669165 0.5336984 -0.042808924 0.16944228
-0.46670088 0.35797554 -0.12970603 0.007581555 0.43221846 0.838867 0.40065867 -0.025975896
0.02193357 -0.18953003 -0.981543 0.94988996 -0.68695325 0.7609835 -0.5833357 -0.00047112742
-0.5417604 0.012212004 -0.11472679 -0.3393912 -0.9076519 -0.62242866 0.032647356 0.08444316
0.027231982 -0.3860468 0.23143114 0.60176677 0.21706022 -1.3056507 -0.2564727 -0.76568604
-0.16147734 -0.06696527 0.26859644 -1.2063944 0.18757594 -0.9289914 -0.4295743 0.18130554
0.047689255 -0.7441673 -0.48216733 -0.07160138 -0.80310875 0.40151826 -0.6583499 1.1832066
-0.54707986 -0.1772985 0.52184516 0.71505916 -0.29343927 0.13394083 -0.12580802 0.40734076
0.55589616 -0.8487083 -0.012215375 -0.4305797 -0.51721936 0.77671945 -0.41597003 1.0865166
-0.33243912 0.32826257 0.08101034 0.06137509 0.09727446 0.5430753 -0.11710804 0.35314155
0.33082998 -0.07797393 0.39448765 -0.2216397 0.22959448 0.9516485 -0.018949172 0.0013850497
-0.57532674 0.11245008 -0.11724864 -0.5737536 0.0071654203 0.899887 0.19162227 -0.16174853
0.43892825 -0.07627188 0.2582647 -0.044134043 -0.6119529 -0.06227024 -0.07352568 -0.50122356
0.22843643 -0.16873749 1.1023319 0.7085777 -0.18125111 1.1749891 -0.17970538 0.24666788
-0.15198055 0.92341435 1.1509315 -0.19438575 0.4436254 0.61426574 -0.38227713 0.08342626
0.14678362 0.33379453 -0.23312196 -0.6953444 0.16295877 0.9204339 -0.012394687 0.29552132
-0.329347 0.36851847 -0.16430673 -0.18432137 -0.16306953 0.6155696 0.26664886 -0.022647826
-0.34820056 -0.09408048 -0.00550683 -0.4681427 0.10491416 0.91286194 -0.24546209 0.11026948
0.5372586 0.26119807 -0.8722723 0.6267149 -0.315032 -0.61648077 -0.48386833 -0.71197915
-0.6186375 -0.22816321 0.59643245 -0.2402381 -0.48432225 -1.1964732 -0.34900618 -0.112686545
0.27275807 -0.025459412 -0.38102004 -0.061113607 -0.34486732 0.11247912 0.06737157 -0.334089
0.17997034 -0.0994165 0.46085274 0.2167679 -0.1554718 0.0206175 -0.11101521 -0.13712358
-0.578622 0.6550646 0.90662766 0.269498 0.34998977 -0.74673015 0.4430192 -0.42597106
0.09492553 -0.1885316 -0.025903642 -0.1299172 -0.28231776 -0.82966113 0.028787807 -0.45052376
00000000: 07be a73e da11 923f 7b68 4abf 1c39 d03d
00000010: fb88 2d3e 4920 843f 9329 5c3e 7fd9 96be
00000020: 9f26 123f a8f4 3d3e 6d86 7b3e cc05 553f
00000030: b38e 663e 00ef 8f3f 81b5 e3bd 9270 463d
00000040: 3ce5 f63e fc89 033f 6b25 05c0 6510 ecbe
00000050: deb6 fe3e 4996 c8be 8ac6 1fbf 5c46 27bf
00000060: d8de 843e 579d bdbe 7dd4 22be 2c9f 2bbf
00000070: cdea bfbe 698e d83d 11c0 e53d 2b1a 68be
00000080: 4070 2e3e f4fb babf 958a 5b3e 140b 103f
00000090: a34b f0be db9e 883f 31d2 0bbf 8aa8 30be
000000a0: 393b 98be 412c 1e3e 6e98 a43e 6c86 7e3d
000000b0: 80b1 0bbf becf 573e 5cc8 b63e 5164 873f
000000c0: c300 05bf a23f e73e 9f60 5f3f 6cd4 8cbe
000000d0: 7f89 293f 9c21 523f 641e 143f 16c1 92be
000000e0: b81e e43e 43c6 b93e cca2 2abf 54a7 08bf
000000f0: bd9a 683e 2c31 7b3f cc6c 063e 38d8 503e
00000100: dffc 103e 6cb1 aebd b1e9 9a3e 9a2c 2cbf
00000110: cf8b 883e 75a0 083f 6958 2fbd 4782 2d3e
00000120: 6bf3 eebe 9248 b73e a8d1 04be b16e f83b
00000130: bd4b dd3e fdbf 563f 2223 cd3e 67cb d4bc
00000140: 08ae b33c 2914 42be 6746 7bbf fd2b 733f
00000150: 2bdc 2fbf d1cf 423f 7d55 15bf a701 f7b9
00000160: cfb0 0abf db14 483c e1f5 eabd afc4 adbe
00000170: e05b 68bf 7c57 1fbf 3cb9 053d 89f0 ac3d
00000180: 9b15 df3c eda7 c5be 49fc 6c3e 630d 1a3f
00000190: 0945 5e3e 901f a7bf 6450 83be 0004 44bf
000001a0: 515a 25be 1625 89bd 7985 893e 226b 9abf
000001b0: e813 403e 61d2 6dbf 2af1 dbbe 29a8 393e
000001c0: cf55 433d c081 3ebf a3de f6be bfa3 92bd
000001d0: 8998 4dbf cd93 cd3e 9e89 28bf 5073 973f
000001e0: 6d0d 0cbf bd8d 35be a597 053f 1e0e 373f
000001f0: ac3d 96be c927 093e d1d3 00be f88e d03e
00000200: 364f 0e3f f244 59bf ff22 48bc f174 dcbe
00000210: 7d68 04bf 16d7 463f 06fa d4be fa12 8b3f
00000220: 7635 aabe 0812 a83e c0e8 a53d 7264 7b3d
00000230: d537 c73d fc06 0b3f 57d6 efbd f8ce b43e
00000240: 8c62 a93e ccb0 9fbd 49fa c93e 84f5 62be
00000250: d11a 6b3e 3c9f 733f 4b3b 9bbc 8e8a b53a
00000260: 9d48 13bf 3a4c e63d 0e20 f0bd 84e1 12bf
00000270: e7cb ea3b ff5e 663f a138 443e 68a1 25be
00000280: 34bb e03e 6e34 9cbd 453b 843e e6c5 34bd
00000290: f2a8 1cbf 140f 7fbd a294 96bd 3050 00bf
000002a0: 3deb 693e 85c9 2cbe 3619 8d3f 5965 353f
000002b0: e499 39be 0b66 963f b004 38be 8196 7c3e
000002c0: caa0 1bbe e264 6c3f b951 933f 0f0d 47be
000002d0: de22 e33e 8540 1d3f d4b9 c3be 63db aa3d
000002e0: 724e 163e 1ee7 aa3e 86b7 6ebe 1702 32bf
000002f0: aade 263e 8ea1 6b3f 1613 4bbc 924e 973e
00000300: 2ca0 a8be 74ae bc3e 0640 28be bebe 3cbe
00000310: b3fb 26be f895 1d3f 3386 883e ef87 b9bc
00000320: 5847 b2be 44ad c0bd a372 b4bb 66b0 efbe
00000330: 3cdd d63d 52b1 693f 6a5a 7bbe f7d4 e13d
00000340: c889 093f c1bb 853e 3d4d 5fbf 6370 203f
00000350: e04b a1be afd1 1dbf 97bd f7be 4444 36bf
00000360: 075f 1ebf 9ea3 69be ccaf 183f fa00 76be
00000370: 16f9 f7be 0926 99bf f0b0 b2be 34c8 e6bd
00000380: f2a6 8b3e 4290 d0bc 0f15 c3be 4352 7abd
00000390: 7392 b0be 745b e63d 1bfa 893d b70d abbe
000003a0: 254a 383e e19a cbbd e4f4 eb3e 68f8 5d3e
000003b0: 0034 1fbe 08e6 a83c f15b e3bd 206a 0cbe
000003c0: 9220 14bf 50b2 273f c018 683f a4fb 893e
000003d0: dc31 b33e b529 3fbf 6ad3 e23e e118 dabe
000003e0: 5168 c23d 6e0e 41be e033 d4bc 0409 05be
000003f0: f48b 90be ac64 54bf 68d4 eb3c 0dab e6be

rnn.bias_ih_l0_reverse f4 [16]
0.08215655 -0.24533148 -0.3498492 -0.119814806 -0.34510255 0.19895062 -0.39366707 0.20969951
-0.021281 -0.3527502 -0.13696997 -0.19469056 -0.001253746 -0.08759101 -0.06509605 -0.4269431
00000000: b141 a83d 2d38 7bbe 6f1f b3be 7761 f5bd
00000010: 48b1 b0be b6b9 4b3e bb8e c9be 78bb 563e
00000020: 7e55 aebc ad9b b4be db41 0cbe f65c 47be
00000030: bc54 a4ba ea62 b3bd 1451 85bd 4998 dabe

rnn.bias_hh_l0_reverse f4 [16]
-0.34183487 0.012556375 -0.30492046 0.22079402 -0.069974296 -0.03794158 -0.23239635 0.23053172
-0.13772365 -0.38422996 -0.39971137 -0.11015147 0.086732775 0.03857655 0.088368215 -0.2710363
00000000: fb04 afbe 41b9 4d3c 891e 9cbe d417 623e
00000010: af4e 8fbd a168 1bbd 4ff9 6dbe 8210 6c3e
00000020: 6e07 0dbe cab9 c4be f8a6 ccbe 1897 e1bd
00000030: f4a0 b13d 7202 1e3d 65fa b43d 45c5 8abe

fc1.weight f4 [11, 32]
-0.6704069 -0.25182492 -0.45981073 0.5923473 -0.45571443 0.15983935 0.2493827 -0.51314145
-0.6134458 -0.3834315 -0.520419 0.5750879 -0.41938448 -0.56260186 -0.53023607 0.10847502
-0.46849218 -0.34502068 0.009875864 0.7412854 -0.5367354 0.19475348 -0.51644063 0.044307154
-0.05905339 -0.3878309 -0.16515209 0.35842428 -0.7536481 -0.08491243 -0.49664655 -0.21479034
0.53691727 0.8194145 0.503325 -0.5597157 1.5204383 0.12033021 -0.057482377 -0.5650963
1.3821932 0.5983203 0.35444415 -1.4101439 1.2968802 -0.2349338 -0.5580533 -0.7705112
0.27326056 0.7451179 -0.52513695 -1.1156033 -1.1437385 0.83366364 -0.26601994 0.57772076
-0.8634684 -0.6503935 -0.94509387 -0.8655344 0.70179486 -0.31368208 1.305228 0.99669236
0.23451778 -1.1638025 -0.6048997 -1.5034493 -0.17153238 -0.6608388 -0.30615652 1.1802402
2.0397048 2.51185 0.52121526 -0.80795366 -0.6378203 -0.08045099 0.020956824 -0.5328305
-0.044791445 -0.6301739 -0.7691695 -0.9072706 1.2705553 -0.613411 0.39389497 -0.2281521
0.5947434 1.5834999 1.2984678 -1.3689426 0.85813725 -0.74057996 -0.84021777 0.26455557
-0.5146305 0.22414456 0.80787635 -0.5760854 -1.1080483 -0.23903628 0.18635808 0.15163194
1.9983206 -0.30284977 -0.19991913 -0.88946146 0.52024716 1.546391 1.041171 -0.7259475
1.0895892 0.53712785 -0.12843351 -0.4444359 0.9138005 0.523557 -0.04380169 -1.1132219
0.0971115 2.1954186 -0.2545913 -0.48231724 -0.12716039 1.5172054 1.2320417 -1.7527277
-0.2760087 -0.67214286 1.467729 -0.38579494 1.5551075 -0.3058681 0.16704023 1.2428397
-0.4631861 -0.025309442 -0.086562194 -0.52777237 0.9531202 0.53746295 0.22666755 0.6842122
0.19631879 -0.5802243 -1.050961 -0.12022741 1.0316762 0.10070528 0.23944424 -1.3408055
0.8614423 1.3975939 1.5407114 -0.63249403 -1.0121613 0.95920914 0.4975988 1.2837385
0.82968897 0.90015584 2.3159966 -0.05389685 -0.11018258 -2.198209 -1.1969532 0.14327139
-0.107519686 -0.066846915 1.3813039 0.09146766 0.04621665 1.4214292 1.2489879 0.38031733
0.7142408 -0.63296163 0.25597456 -0.9620437 0.72734237 -0.35046765 0.9621548 0.34291032
0.6515163 0.21619813 0.34318477 0.41453257 0.8356231 0.28796372 -0.01246707 0.4049435
0.14844406 0.92330295 1.4250288 -0.1463952 0.14893717 0.008663431 0.16926025 0.5618952
0.1817896 0.4533108 -0.3952718 -0.19504961 0.114193514 -0.19229852 -1.4124063 0.24842353
0.39325303 0.3691945 0.15126956 1.2286044 0.10004851 -0.29783005 0.9666613 -1.3255616
-0.9959944 0.43438002 0.40105003 0.55920875 0.42386428 0.3255495 0.3972771 0.9871884
0.2633659 1.332839 2.223919 -0.19876827 0.049304336 0.06673633 -0.5997202 0.44103733
0.38917714 0.3449673 -0.38732845 -0.19896013 0.13759972 -0.57828504 -0.3059048 0.37113595
1.9906964 1.2962941 0.20270517 0.41053277 0.33883902 -0.17364901 -1.2541425 0.20653449
0.4679882 0.41663682 0.5939076 0.34803215 0.34786117 -0.093649566 0.46778607 -0.31391418
00000000: c99f 2bbf 32ef 80be 506c ebbe 13a4 173f
00000010: 6753 e9be edac 233e 2e5e 7f3e 3d5d 03bf
00000020: c90a 1dbf 2251 c4be 2e3a 05bf f638 133f
00000030: 90b9 d6be ad06 10bf 8dbd 07bf 2728 de3d
00000040: 35de efbe 8da6 b0be 60ce 213c e1c4 3d3f
00000050: 7e67 09bf 756d 473e 7435 04bf 6b7b 353d
00000060: f8e1 71bd c691 c6be a11d 29be 6383 b73e
00000070: 15ef 40bf 91e6 adbd 7548 febe 00f2 5bbe
00000080: 6973 093f 26c5 513f e8d9 003f 8749 0fbf
00000090: b99d c23f af6f f63d a472 6bbd 27aa 10bf
000000a0: b5eb b03f 852b 193f b479 b53e 987f b4bf
000000b0: 2c00 a63f 7c92 70be 95dc 0ebf 3940 45bf
000000c0: cfe8 8b3e 0cc0 3e3f 606f 06bf 17cc 8ebf
000000d0: 0666 92bf fb6a 553f c433 88be 82e5 133f
000000e0: 440c 5dbf 3080 26bf acf1 71bf aa93 5dbf
000000f0: d4a8 333f f09a a0be b611 a73f 3b27 7f3f
00000100: 6e25 703e 7bf7 94bf b5da 1abf 0771 c0bf
00000110: 2fa6 2fbe bb2c 29bf 8cc0 9cbe 1c12 973f
00000120: 868a 0240 27c2 2040 5d6e 053f 0dd6 4ebf
00000130: 3148 23bf 7dc3 a4bd a5ad ab3c 9467 08bf
00000140: 3c77 37bd 1453 21bf 4be8 44bf e342 68bf
00000150: 8ea1 a23f 8108 1dbf 9aac c93e b4a0 69be
00000160: 1a41 183f 20b0 ca3f 3134 a63f 8339 afbf
00000170: e2ae 5b3f a696 3dbf 8318 57bf d473 873e
00000180: d3be 03bf 2786 653e fcd0 4e3f 557a 13bf
00000190: 87d4 8dbf edc5 74be a7d4 3e3e 6745 1b3e
000001a0: f8c8 ff3f 200f 9bbe 9ab7 4cbe bfb3 63bf
000001b0: eb2e 053f 24f0 c53f 1745 853f b2d7 39bf
000001c0: a977 8b3f 3681 093f 1384 03be 1a8d e3be
000001d0: d4ee 693f d507 063f 6769 33bd 0e7e 8ebf
000001e0: 65e2 c63d bd81 0c40 ca59 82be 49f2 f6be
000001f0: 5536 02be c933 c23f 8bb3 9d3f 6259 e0bf
00000200: 0351 8dbe 8e11 2cbf 8bde bb3f ea86 c5be
00000210: c30d c73f be9a 9cbe 980c 2b3e 5f15 9f3f
00000220: ba26 edbe bf55 cfbc 8547 b1bd 171c 07bf
00000230: afff 733f 2c97 093f 8a1b 683e 8828 2f3f
00000240: cb07 493e 9489 14bf e485 86bf ca39 f6bd
00000250: f70d 843f 923e ce3d df30 753e 849f abbf
00000260: 7c87 5c3f 5be4 b23f 0836 c53f 21eb 21bf
00000270: 808e 81bf bb8e 753f 45c5 fe3e 8b51 a43f
00000280: 7f66 543f 9d70 663f 4a39 1440 f2c2 5cbd
00000290: 68a7 e1bd 75af 0cc0 c335 99bf bcb5 123e
000002a0: 4833 dcbd 09e7 88bd 91ce b03f 6653 bb3d
000002b0: ac4d 3d3d 64f1 b53f d6de 9f3f f4b8 c23e
000002c0: 7cd8 363f c609 22bf 190f 833e 7f48 76bf
000002d0: 1c33 3a3f 7f70 b3be c74f 763f f191 af3e
000002e0: c6c9 263f 0b63 5d3e eab5 af3e 9d3d d43e
000002f0: 65eb 553f fb6f 933e ae42 4cbc c154 cf3e
00000300: b801 183e 955d 6c3f 5867 b63f a0e8 15be
00000310: fc82 183e 10f1 0d3c 8f52 2d3e 5dd8 0f3f
00000320: 0e27 3a3e 5a18 e83e 1161 cabe 16bb 47be
00000330: 4ade e93d e7e9 44be bbc9 b4bf bd62 7e3e
00000340: 7658 c93e 1007 bd3e 68e6 1a3e e942 9d3f
00000350: 3ce6 cc3d 2e7d 98be 1d77 773f 01ac a9bf
00000360: 7df9 7ebf 0f67 de3e 6e56 cd3e 4e28 0f3f
00000370: bd04 d93e 6dae a63e e767 cb3e 61b8 7c3f
00000380: e5d7 863e 789a aa3f b054 0e40 e989 4bbe
00000390: 58f3 493d 0fad 883d 4387 19bf a5cf e13e
000003a0: 3a42 c73e 8e9f b03e ea4f c6be 34bc 4bbe
000003b0: f1e6 0c3e 7d0a 14bf 8e9f 9cbe 8805 be3e
000003c0: 24cf fe3f f7ec a53f f291 4f3e 5a31 d23e
000003d0: 4f7c ad3e 0cd1 31be be87 a0bf c77d 533e
000003e0: 269c ef3e 6c51 d53e 540a 183f 4531 b23e
000003f0: dc1a b23e 58cb bfbd a881 ef3e 5cb9 a0be

fc1.bias f4 [11]
0.377621 0.118569784 -0.7439136 -0.29827988 -0.34424785 -0.23100024 -0.5043487 -0.68047094
-0.017403973 -0.42133996 -0.37620327
00000000: 8a57 c13e b7d4 f23d 1f71 3ebf 24b8 98be
00000010: 4141 b0be 548b 6cbe ff1c 01bf 5833 2ebf
00000020: c792 8ebc dfb9 d7be b79d c0be
