src/main/python/saved_models/csharp_1_66_RNNClassifier1_128embs_183id_16hd_1hl_Truebid_0.pt (torch, 115999 bytes, 11 tensors)

word_embeddings.weight f4 [183, 128]
0	0xbfd7b8b7	-1.6853245
1	0xbf0bd964	-0.54628587
2	0xbf6e6819	-0.9312759
3	0xbfbff8a2	-1.4997752
4	0xbe88227f	-0.26588818
5	0xbe930b3e	-0.28719515
6	0xbf9836c5	-1.1891714
7	0xbfc7b0e5	-1.5600859
8	0xbeef9149	-0.4679053
9	0x3e52b4ce	0.20576784
10	0xbf0acd18	-0.542192
11	0xbe571dee	-0.21007511
12	0xbf00c53b	-0.5030095
13	0x3fcf5503	1.6197819
14	0x3efdeb01	0.49593356
15	0x3f018458	0.50592566
16	0xbf36ae9a	-0.7136017
17	0xbf961bd5	-1.1727244
18	0x3f153b30	0.5829344
19	0x3ebf1128	0.37317777
20	0x3f91798b	1.1365217
21	0xbbaf84ac	-0.005356392
22	0xbf264f49	-0.6496473
23	0x3f19409c	0.5986421
24	0x3f7ea08f	0.9946374
25	0xbc9bd367	-0.019021703
26	0xc001ce6b	-2.0282238
27	0xbfa2b5e1	-1.2711755
28	0x3c893e2e	0.016753282
29	0xbf46e9b8	-0.77700377
30	0xbf128da9	-0.57247406
31	0xbeb06e19	-0.34458998
32	0x3ff48fb8	1.910636
33	0x3deec8dc	0.11659405
34	0x3ec25a32	0.3795944
35	0xbf506e08	-0.81417894
36	0x3f02f25c	0.5115106
37	0xbe097b75	-0.13426001
38	0x3c668ea8	0.014072098
39	0xbe970c9b	-0.29501805
40	0xbe271f2a	-0.16320482
41	0x3eae297b	0.34016022
42	0x3cc48668	0.023989871
43	0xbd9eb31d	-0.07749007
44	0x40061e83	2.0956123
45	0xbfa831bd	-1.3140179
46	0x3fead0d7	1.8344983
47	0xbf4a82d5	-0.79105884
48	0xbf551f13	-0.8325054
49	0x3f3c5756	0.73570764
50	0xbaec5d62	-0.0018033201
51	0xbd84c464	-0.06482771
52	0x3f7f3b48	0.9969983
53	0x3e522337	0.20521246
54	0x3f653397	0.89531845
55	0x4013a46c	2.3069105
56	0x3e427c97	0.1899284
57	0x3f93373b	1.150123
58	0xbf020542	-0.5078927
59	0xbeb24ff0	-0.34826612
60	0x3fa7d96c	1.3113227
61	0xbf1bc450	-0.60846424
62	0xc0495ceb	-3.1462963
63	0xbf10c58a	-0.5655142
64	0x3d884e12	0.06655516
65	0xbf52db33	-0.8236572
66	0xbf47f286	-0.78104436
67	0xbf460cfd	-0.7736357
68	0xbe3d131d	-0.18464322
69	0xbea465ef	-0.3210902
70	0x3fe24126	1.7676132
71	0x3db9bacc	0.09068832
72	0xbf52d4ce	-0.82355964
73	0xbe10b4b0	-0.14131427
74	0xbf57a90f	-0.8424234
75	0xbf8732e4	-1.0562406
76	0xbefc277d	-0.49248877
77	0xbeed45a7	-0.46342203
78	0x3f228dbe	0.6349753
79	0xbf3be8f0	-0.7340231
80	0xbe9e1387	-0.30874273
81	0x3ebce8a1	0.36896232
82	0xbf06256f	-0.5240087
83	0x3f432bc4	0.76238656
84	0xbf9f63db	-1.2452348
85	0xbe92f25b	-0.28700528
86	0x3f0f26e2	0.55918705
87	0x3e1a3350	0.15058637
88	0x3eefd364	0.46840966
89	0xbf40ecf8	-0.75361586
90	0xbfe68bb0	-1.8011379
91	0x3f599f0c	0.8500831
92	0xbf5b31e3	-0.85622996
93	0xbf0c290f	-0.5475015
94	0x3ef73a70	0.48286772
95	0x3fdfa27e	1.7471464
96	0x3f491ab6	0.7855638
97	0x3fb04bc3	1.3773121
98	0x3f4e38ae	0.80555236
99	0xbf2dddd6	-0.6791662
100	0x3fce561b	1.6120027
101	0xbf8202dc	-1.0157123
102	0xbf26eab9	-0.6520191
103	0x3fa7705d	1.3081166
104	0x3fa5b3c4	1.2945485
105	0x3d8f71ee	0.07004152
106	0x3d4fa78f	0.050696906
107	0xbd86c9bb	-0.06581446
108	0xc013f37f	-2.3117368
109	0xbf551c2a	-0.832461
110	0xbf930417	-1.1485623
111	0xbf56e4ea	-0.83943045
112	0x3f128d3a	0.57246745
113	0xbf2a0634	-0.66415715
114	0x3fbd9988	1.4812479
115	0x3f25fa98	0.648355
116	0x3d7caabf	0.061686274
117	0x3f135470	0.57550716
118	0x3f1deaa0	0.61686134
119	0xbe55c9a4	-0.20877701
120	0x400f2b5e	2.237022
121	0xbe0d3432	-0.13789442
122	0x3e5edae3	0.21763186
123	0x3ffb3488	1.9625406
124	0xc00b2c3e	-2.1745753
125	0x4003e5ee	2.0609088
126	0x3e165f9e	0.14684913
127	0x3f275cf7	0.6537623
128	0x3f365d86	0.71236455
129	0xbfe36497	-1.7765073
130	0x3eb52dbd	0.35386458
131	0x3f998ced	1.1996132
132	0xbe9b227a	-0.3029974
133	0xbfe18407	-1.7618417
134	0x3f22852d	0.6348446
135	0xbf4dea7a	-0.8043591
136	0xbfce38e9	-1.6111118
137	0xbfef9103	-1.8716129
138	0x3f0b0787	0.5430836
139	0x3f29223c	0.6606786
140	0x4012e4bf	2.2952116
141	0x3f2cc6a3	0.67490596
142	0x3fdb4e1f	1.7133216
143	0xbfe5aac0	-1.7942734
144	0xbfae7f8a	-1.3632672
145	0xbf7bb448	-0.9832196
146	0x3fc17130	1.5112667
147	0x3f2451a4	0.64187074
148	0x3ef22850	0.4729638
149	0xbedb7029	-0.4285901
150	0x3f0d26a2	0.55137074
151	0xbfc61040	-1.5473709
152	0x3f04a2ff	0.5181121
153	0x3dda2f35	0.10653535
154	0x3e89d9ed	0.26924077
155	0x3fa991ff	1.324768
156	0x3fdf7d8e	1.7460191
157	0x3fed6fa0	1.854969
158	0xbf34d49b	-0.7063691
159	0x4023a74d	2.5570862
160	0x3ed5c70e	0.4175343
161	0xbe59d2e8	-0.2127186
162	0xbf57077d	-0.839958
163	0xbed70c95	-0.42001787
164	0xbf1fc0d8	-0.6240363
165	0xbf7a3014	-0.9772961
166	0x3f5ff5b3	0.8748428
167	0x3f7cbe79	0.9872814
168	0x3e9e80ca	0.30957633
169	0x3fc2a5f8	1.52069
170	0x3f9a451b	1.2052339
171	0xbfe86549	-1.815591
172	0xbece9283	-0.40346155
173	0xbf758a8a	-0.9591452
174	0xbbaaa563	-0.005207704
175	0xbda182ff	-0.07886314
176	0x3f57f9ba	0.8436543
177	0x3f9535b3	1.1657013
178	0x3f06e507	0.5269322
179	0x3fcf43b1	1.6192533
180	0xbf76c726	-0.96397626
181	0x3e10eab8	0.14152038
182	0xbe2796bd	-0.16366096
183	0xbeb768f3	-0.35822257
184	0x3fdc73a6	1.7222793
185	0xbe9b6e43	-0.3035756
186	0x3e749b70	0.2388742
187	0x3fac083b	1.3440012
188	0x3dd367fe	0.10322569
189	0x3f8cd868	1.1003542
190	0xbeaef0b5	-0.3416802
191	0x3f7284cd	0.9473389
192	0xbf118a43	-0.56851596
193	0x3f566cb4	0.8375962
194	0x3fe44efe	1.7836607
195	0xbe481d67	-0.19542466
196	0x3f03d18b	0.5149161
197	0xbfec7a25	-1.8474776
198	0xc03aabe9	-2.9167426
199	0xbf113c88	-0.5673299
200	0xbf0a9157	-0.5412802
201	0x3f652a20	0.895174
202	0xbf61ebfb	-0.882507
203	0x3f0824c8	0.53181124
204	0xbfc5dc07	-1.5457772
205	0xbe317582	-0.17329982
206	0x3f3a6e5a	0.72824633
207	0x3d69b8d1	0.05706102
208	0x3f67cffa	0.9055172
209	0x3f85ecfd	1.0462948
210	0xbf0545d8	-0.520597
211	0x3fad698e	1.3547838
212	0x3e70d678	0.23519313
213	0x3ff505ed	1.9142433
214	0x3feb0f85	1.8364111
215	0x3fa98a47	1.3245324
216	0xbf7810fc	-0.96900916
217	0x3fa0359f	1.2516364
218	0x3f9aebe7	1.2103242
219	0xbf0725ce	-0.5279206
220	0x3e5fcfce	0.21856615
221	0xbf1305cd	-0.57430726
222	0x3fba8313	1.4571251
223	0x3fe2aead	1.7709557
224	0x3fd33060	1.6499138
225	0xbedd2fb4	-0.43200457
226	0xbe8ac40a	-0.2710269
227	0xbfb8367b	-1.4391626
228	0x3f9f9f05	1.2470404
229	0x3fa30d8e	1.2738512
230	0x3ec82a80	0.39094925
231	0x3ec64074	0.3872105
232	0xbda37d3d	-0.07982872
233	0x3eaef67d	0.3417243
234	0x3f72e659	0.9488273
235	0xbfb124d0	-1.3839359
236	0x3fdcaedc	1.7240863
237	0xc0175850	-2.3647652
238	0xbf6df31e	-0.9294909
239	0x3e96560e	0.2936253
240	0x3e5c4b92	0.21513203
241	0x3f703f28	0.9384637
242	0x3fbb9c4f	1.4657077
243	0xbf0e751b	-0.5564744
244	0xbf3eade3	-0.7448408
245	0xbe4f024d	-0.20215721
246	0xbe6b2e10	-0.2296679
247	0x3aae803e	0.0013313366
248	0x3ec0242a	0.3752759
249	0xbf14c0de	-0.5810679
250	0xbf1282d5	-0.57230884
251	0x3f813e6c	1.0097175
252	0xbdd85eb5	-0.10564939
253	0xbf970047	-1.179696
254	0xbdb9eaa7	-0.090779595
255	0x3f102843	0.56311435

rnn.weight_ih_l0 f4 [16, 128]
0	0xbddad634	-0.10685387
1	0xbdd91f5e	-0.10601686
2	0x3e0ec626	0.13942775
3	0xbdfef4a5	-0.12449006
4	0xbe5f6242	-0.21814826
5	0xbe0ca5c2	-0.13735107
6	0xbe025f96	-0.12731776
7	0x3cdf557d	0.027262444
8	0x3e310eed	0.1729085
9	0xbd808188	-0.06274706
10	0xbe1a5dc2	-0.15074828
11	0x395a05c6	0.00020792251
12	0xbe2aab7c	-0.16666979
13	0xbe3d9756	-0.18514761
14	0xbdd5c49b	-0.1043789
15	0xbce83250	-0.028344303
16	0x3cdd7f64	0.027038284
17	0xbe6c332f	-0.230664
18	0x3df15758	0.117842376
19	0x3e496ec9	0.19671167
20	0x3de148f1	0.110002406
21	0x3d75193e	0.059838526
22	0xbcb197ee	-0.021678891
23	0xbd89a637	-0.06721156
24	0x3d86ebb4	0.065879256
25	0x3d1644ed	0.036686826
26	0xbd626223	-0.05526937
27	0xbcaac896	-0.0208476
28	0x3d4c2643	0.049841177
29	0xbdfe134b	-0.124060236
30	0x3e5928fb	0.21207039
31	0x3ddad4e1	0.10685135
32	0xbe552bf0	-0.20817542
33	0x3b051526	0.0020306795
34	0xbe9ad382	-0.30239493
35	0xbdee18e7	-0.116258435
36	0xbe38801a	-0.18017617
37	0xbe32ca26	-0.17459926
38	0xbf2b8d56	-0.67012537
39	0xbbb72eb5	-0.0055902847
40	0xbee080b3	-0.4384819
41	0x3e15c9f8	0.14627826
42	0x3e4d6b40	0.20060444
43	0xbe0db0fc	-0.13837045
44	0xbe3c0a92	-0.18363407
45	0x3f18ac2a	0.596377
46	0xbd9e7a26	-0.07738142
47	0xbe443d66	-0.19164047
48	0x3e0a72a0	0.13520288
49	0xbe203c47	-0.15647994
50	0x3e6b808a	0.22998253
51	0x3e04b93c	0.12961286
52	0x3d33f1cb	0.043931764
53	0x3d5ad1f6	0.05342289
54	0xbd083701	-0.03325558
55	0x3de405ad	0.11133895
56	0xbd724cca	-0.059155263
57	0xbe4b9100	-0.19879532
58	0x3e360584	0.17775542
59	0xbd2ff979	-0.042962525
60	0x3e016b8c	0.12638682
61	0xbea2f055	-0.31823984
62	0xbcae5bdf	-0.021284042
63	0x3e67b035	0.22625811
64	0x3e98fde6	0.2988121
65	0x3e284713	0.16433363
66	0xbcb5dca9	-0.022199946
67	0x3e089df1	0.133415
68	0xbd83bc59	-0.06432409
69	0xbe8d007d	-0.27539435
70	0xbe17e69e	-0.14834067
71	0x3e8aa036	0.27075356
72	0xbc81d5b3	-0.01584897
73	0x3e66e811	0.22549464
74	0xbdd3758b	-0.10325154
75	0xbecc1238	-0.3985765
76	0x3e9039df	0.28169152
77	0xbd4c4e87	-0.049879577
78	0xbd827abe	-0.063710675
79	0xbe249f5c	-0.16076416
80	0xbe74a704	-0.23891836
81	0xbe0fdf09	-0.14049925
82	0xbd82c6b7	-0.06385558
83	0xbc885ee6	-0.016646814
84	0xbc495608	-0.012288578
85	0x3b6da28f	0.0036260223
86	0xbe8e8132	-0.27832943
87	0xbe121a4f	-0.14267848
88	0x3de4e55e	0.11176561
89	0x3e5551c0	0.20831966
90	0xbea1b2fa	-0.3158186
91	0xbe8b11f1	-0.27162126
92	0xbe2b9e72	-0.16759661
93	0x3e09906b	0.13433997
94	0xbd61e047	-0.05514553
95	0x3ca1d902	0.019756798
96	0xbd903f0c	-0.07043275
97	0x3e1de893	0.15420751
98	0x3e66e9a5	0.22550066
99	0xbd35a437	-0.04434606
100	0xbdb9f696	-0.09080236
101	0x3e80ffc5	0.25195137
102	0xbd00cf59	-0.031447742
103	0xbe9ddcba	-0.30832464
104	0xbdbb68ee	-0.09150873
105	0xbe4e96b8	-0.20174682
106	0xbdf27f56	-0.11840694
107	0xbb196640	-0.0023406893
108	0xbd451e9d	-0.0481249
109	0xbdef963e	-0.11698578
110	0xbc7a2e23	-0.015269789
111	0x3e5912c4	0.21198565
112	0x3d90917f	0.07059001
113	0x3d999bdb	0.0750043
114	0x3db2e805	0.087356605
115	0xbdbb8205	-0.09155659
116	0x3df1b518	0.11802119
117	0xbc652462	-0.013985725
118	0xbd9fbec3	-0.07800057
119	0x3da57c1b	0.08080312
120	0xbd15db02	-0.036585815
121	0xbdfef2e3	-0.12448671
122	0x3da2deaa	0.07952626
123	0x3e97b300	0.29628754
124	0xbd389182	-0.045060642
125	0xbe0772d9	-0.13227405
126	0x3ea07223	0.3133708
127	0x3ea13087	0.31482336
128	0x3c64064a	0.013917515
129	0x3e7beca0	0.24601984
130	0xbd8f1f1a	-0.06988354
131	0xbcf9aeeb	-0.030478915
132	0xbe61287d	-0.21988101
133	0x3c859afb	0.016309252
134	0xbe834432	-0.25637966
135	0xbe14acf4	-0.14519101
136	0xbd179af8	-0.037013024
137	0xbdefb535	-0.117044844
138	0x3bc043bb	0.005867449
139	0x3e9de2e9	0.3083718
140	0xbf12651b	-0.57185525
141	0xbc936159	-0.017990755
142	0x3ea3357d	0.31876746
143	0x3e4408d1	0.19143988
144	0xbe0870fe	-0.13324353
145	0x3e0b96db	0.13631766
146	0xbe8bf144	-0.2733251
147	0x3eb926b6	0.36162347
148	0xbdd3771b	-0.10325452
149	0xbe02d136	-0.1277512
150	0xbd288103	-0.04113866
151	0x3cc1ba0f	0.02364829
152	0xbe102f90	-0.14080644
153	0x3cdf3cad	0.027250612
154	0x3aeae4d9	0.0017920985
155	0x3d952eb3	0.07284298
156	0xbddb24c6	-0.10700373
157	0xbcc274df	-0.02373737
158	0x3df497ff	0.119430535
159	0xbdceb5f0	-0.100932956
160	0xbce60c76	-0.028082114
161	0x3ebfcae7	0.3745949
162	0x3d5e45c7	0.054265764
163	0x3dd244aa	0.10267003
164	0x3c914341	0.017732264
165	0x3e436fc1	0.190856
166	0xbe89f59c	-0.26945198
167	0x3e7c51b5	0.24640544
168	0xbe4af4e5	-0.19819982
169	0xbc24428a	-0.01002563
170	0x3e97e38b	0.2966579
171	0xbe7d0a7d	-0.24711032
172	0xbe85f47f	-0.26163098
173	0xbe4c707e	-0.19964787
174	0x3e89661f	0.26835725
175	0x3e25e0b4	0.16198999
176	0x3e0de3a4	0.1385637
177	0x3e9dcbbc	0.308195
178	0xbea607d1	-0.32427838
179	0xbe504e55	-0.20342381
180	0x3eaf8dbe	0.34287828
181	0xbdb60308	-0.08887297
182	0x3de009af	0.10939347
183	0x3d7ada4e	0.061243348
184	0x3d3178f9	0.04332826
185	0xbe35958a	-0.17732826
186	0xbb97e0c1	-0.004634947
187	0xbe771a69	-0.24131168
188	0x3e0875aa	0.13326135
189	0xbe419eb5	-0.18908198
190	0x3dee7e40	0.11645174
191	0xbc3ea862	-0.011636825
192	0x3dcd9276	0.10037701
193	0x3e72b32d	0.23701163
194	0x3db5cde5	0.08877162
195	0x3e2717a8	0.16317618
196	0xbdd8af47	-0.105803065
197	0xbe4dc7c8	-0.20095742
198	0x3cf287f7	0.029605849
199	0xbbac0cd8	-0.0052505545
200	0x3da18a97	0.07887762
201	0x3e7a277a	0.24429122
202	0xbe630cb5	-0.22172816
203	0xbe0a12d6	-0.13483748
204	0xbda30572	-0.07960023
205	0xbe2a740c	-0.16645831
206	0x3e47e1b4	0.19519693
207	0x3e1d6241	0.15369512
208	0xbcf512ac	-0.02991613
209	0xbd9a2c61	-0.07527996
210	0x3e7e84ce	0.24855348
211	0xbe0be1f9	-0.1366042
212	0xbc109b13	-0.008826035
213	0xbc2bb67a	-0.0104805175
214	0xbd302cdc	-0.04301153
215	0x3e26bb8d	0.16282482
216	0xbeab094b	-0.33405527
217	0xbea5f6ed	-0.32414952
218	0xbd892dfb	-0.06698223
219	0x3e42aa0e	0.19010183
220	0x3f20529e	0.62626064
221	0x3cda4a3b	0.026646724
222	0x3d10bfb6	0.03533908
223	0xbdf78876	-0.12086575
224	0x3e401a8b	0.18760125
225	0x3dbe71ad	0.09299026
226	0x3e9a5489	0.3014262
227	0x3e8d4d31	0.27597955
228	0xbb495698	-0.003072178
229	0xbd6358d7	-0.055504646
230	0x3de1e893	0.11030688
231	0xbe99eb3d	-0.30062285
232	0xbae42f15	-0.0017409051
233	0xbeaabcf8	-0.33347297
234	0xbccfcc41	-0.02536595
235	0xbc668629	-0.014070072
236	0xbc76a7ab	-0.015054624
237	0xbd6b946b	-0.05751459
238	0xbdb41f0a	-0.08794983
239	0x3e1ea086	0.15490922
240	0x3e20f706	0.15719232
241	0xbddd7a74	-0.10814372
242	0x3e7f20bc	0.24914831
243	0x3dc262ca	0.09491499
244	0xbe3be237	-0.18348013
245	0x39aef46e	0.0003336998
246	0x3b4d2834	0.003130448
247	0x3ea57e55	0.32322946
248	0x3de4119e	0.11136173
249	0x3e5a6dfe	0.21331021
250	0xbddf3450	-0.1089865
251	0x3e6edf8b	0.23327462
252	0xbc6d8487	-0.014496929
253	0x3d531abb	0.051539164
254	0xbdf253ed	-0.11832414
255	0x3dfc47b0	0.12318361

rnn.weight_hh_l0 f4 [16, 16]
0	0xbe55e13c	-0.20886701
1	0xbeddaf4e	-0.4329781
2	0xbf8f2d1d	-1.1185642
3	0xbf111c6c	-0.56683993
4	0xbf363f88	-0.7119069
5	0xbccac70e	-0.02475312
6	0x3f1f77ab	0.62291974
7	0xbe5d0c6c	-0.2158677
8	0x3d7cd2dc	0.06172453
9	0x3fce0289	1.6094524
10	0xbf13f80e	-0.57800376
11	0xbe935b96	-0.28780812
12	0xbde9cca5	-0.11415986
13	0x3f2a9a9b	0.6664216
14	0x3e3ec6c6	0.18630514
15	0xbe8326e1	-0.256156
16	0xbfb155db	-1.3854326
17	0xbebcfd84	-0.36912167
18	0x3e5fba78	0.21848476
19	0x3e6dc365	0.23219068
20	0x3e1cf5e3	0.15328173
21	0xbe0a50f3	-0.13507442
22	0x3e1fe245	0.15613659
23	0xbd936285	-0.071965255
24	0x3f664a49	0.899571
25	0x3e51914a	0.2046558
26	0xbf4c0960	-0.79701805
27	0x3ec3b343	0.38222703
28	0xbe291923	-0.16513495
29	0x3e553f0a	0.20824829
30	0xbe0f6806	-0.14004526
31	0xbeb9ed79	-0.3631399
32	0xbe546476	-0.20741448
33	0xbe4fc8f5	-0.20291503
34	0x3e844515	0.25833955
35	0x3e9a4746	0.30132502
36	0x3dd4b03a	0.10385175
37	0xbbb8fbd2	-0.0056452537
38	0xbf344650	-0.7041979
39	0xbee0f016	-0.4393317
40	0x3c88dd1b	0.016706994
41	0xbebe2fee	-0.37145942
42	0x3e36c19c	0.17847294
43	0x3e8ee53e	0.27909273
44	0xbb156157	-0.0022793615
45	0x3d99e315	0.075140156
46	0xbfa2182d	-1.2663628
47	0x3e815adc	0.25264633
48	0xbf46c03c	-0.77637076
49	0x3d7cb608	0.061697036
50	0x3ed3c4ef	0.41361186
51	0xbef3395b	-0.47504696
52	0xbcdb5fda	-0.026779104
53	0xbec2d259	-0.38051108
54	0x3cdd7029	0.027031021
55	0xbcdd1b14	-0.02699045
56	0x3f9a0422	1.2032511
57	0xbc97cd89	-0.018530624
58	0xbfab7e5a	-1.3397934
59	0xbfaa1459	-1.328746
60	0xbf811225	-1.0083662
61	0xbe399a8b	-0.1812536
62	0x3d2c3cd1	0.042050187
63	0xbc84293b	-0.016132941
64	0xbdb0a24c	-0.08624706
65	0xbea06654	-0.3132807
66	0x3d3c064d	0.045904446
67	0x3db7431f	0.08948349
68	0x3ea9c3cd	0.33157197
69	0x3de6cdc0	0.112697124
70	0x3d82117f	0.06350993
71	0x3dbf12f1	0.09329785
72	0x3f3a52fa	0.7278286
73	0x3cd7f805	0.026363382
74	0xbf57389e	-0.84070766
75	0x3ef79c96	0.48361653
76	0x3e852125	0.2600185
77	0xbe6cc8a7	-0.23123418
78	0x3e081033	0.1328743
79	0xbd8b7975	-0.068102755
80	0x3e2775fd	0.16353603
81	0xbf777d0b	-0.96675175
82	0x3abd03dc	0.0014420706
83	0x3e4ba0f5	0.19885619
84	0xbe0b90ff	-0.1362953
85	0xbf100f08	-0.56272936
86	0xbf873826	-1.056401
87	0xbee5ab89	-0.44857433
88	0x3e9b7e81	0.30369952
89	0x3f453b42	0.77043545
90	0xbe374c14	-0.17900115
91	0x3d0ed984	0.034875408
92	0x3ecd0d04	0.40048993
93	0x3f7fe1cb	0.9995391
94	0xbe82bd46	-0.2553503
95	0xbf023bef	-0.508727
96	0xbd3ee2e0	-0.046603084
97	0x3e257b14	0.16160232
98	0x3e6564c9	0.22401728
99	0xbed61871	-0.41815522
100	0x3e7747f0	0.24148536
101	0x3f276793	0.65392417
102	0x3f742fcc	0.9538543
103	0xbdb54589	-0.088511534
104	0xbef87872	-0.48529392
105	0xbe0b57b0	-0.13607669
106	0xbf2d141d	-0.67608815
107	0xbd8c7a3d	-0.068592526
108	0xbe0a81ed	-0.13526125
109	0xbf148068	-0.5800843
110	0x3d7a1c91	0.0610624
111	0x3f5b63c3	0.856991
112	0xbfeb8b88	-1.8401957
113	0x3d0d8438	0.03454992
114	0x3eae0e73	0.339954
115	0x3d6c04d4	0.057621792
116	0xbd157ee6	-0.036497973
117	0x3f5c9b1b	0.8617417
118	0x3e889bf6	0.2668149
119	0xbe43af34	-0.19109803
120	0x3f2a28fb	0.6646878
121	0xbeae73c6	-0.34072703
122	0xbf1ccd0d	-0.6125038
123	0x3d9b1f9b	0.07574388
124	0x3ea0f081	0.3143349
125	0x3d36df92	0.044646807
126	0xbf30bcdf	-0.69038194
127	0xbe165c1c	-0.14683574
128	0xbf372e75	-0.7155526
129	0xbb7fb55c	-0.003901801
130	0x3f5470c7	0.82984585
131	0x3f1e2dc6	0.61788595
132	0x3f30c903	0.6905672
133	0xbeabd61a	-0.33561784
134	0x3dc89ae6	0.097951695
135	0x3f100547	0.5625805
136	0x3e83bfce	0.25732273
137	0xbf25d883	-0.64783496
138	0x3eabbc2b	0.33541998
139	0x3f8f9e4f	1.1220187
140	0x3cf7cfc0	0.03025043
141	0x3da89a30	0.08232534
142	0xbe980a51	-0.2969537
143	0x3d362666	0.044470213
144	0x3f3ea9fd	0.7447813
145	0xbcbbec8c	-0.022939943
146	0xbe8e758f	-0.27824065
147	0xbc964495	-0.01834325
148	0xbde3232e	-0.11090694
149	0x3fa4f7ae	1.2888086
150	0xbdfcaf57	-0.12338131
151	0xbe15ddea	-0.14635435
152	0xbf5c013b	-0.8593938
153	0x3bbc3b25	0.0057443553
154	0x3f1f4ec1	0.62229544
155	0xbed4ae4c	-0.41539228
156	0x3f6ac1eb	0.91702145
157	0x3de86847	0.11348014
158	0xbccfe4b8	-0.025377616
159	0xbe90203c	-0.28149593
160	0x3f647ab6	0.8924974
161	0xbe46a197	-0.19397579
162	0xbf21b604	-0.6316836
163	0xbf2a77cf	-0.66589063
164	0xbedfe875	-0.43732038
165	0x3f47779f	0.779169
166	0x3cdd3d70	0.027006835
167	0xbdf5aa7b	-0.11995407
168	0xbba4431a	-0.005012882
169	0x3f9622e6	1.17294
170	0xbedfbee0	-0.43700314
171	0xbf8f6730	-1.1203365
172	0xbd9d2dfc	-0.076747864
173	0xbd881d8d	-0.06646261
174	0x3e897574	0.26847422
175	0x3e5ad8ff	0.2137184
176	0x3e514c36	0.20439228
177	0x3f801895	1.0007502
178	0x3e0e15f3	0.1387556
179	0x3e123d7c	0.14281267
180	0x3ebf7465	0.3739349
181	0x3e234595	0.15944512
182	0xbf4aa0b0	-0.7915144
183	0x3e16d384	0.14729124
184	0x3d3c9561	0.046040896
185	0xbed5999e	-0.41718763
186	0xbf3d3008	-0.73901415
187	0x3e8e395a	0.2777813
188	0xbdf1800a	-0.11792
189	0xbf41105a	-0.75415576
190	0x3da70e81	0.08157063
191	0x3fad6aa0	1.3548164
192	0x3f4267ad	0.75939447
193	0xbea72401	-0.32644656
194	0xbe7e59ca	-0.2483894
195	0xbe67037c	-0.22559923
196	0xbf159bb9	-0.5844074
197	0x3f5f6728	0.8726678
198	0xbeb909d4	-0.3614031
199	0xbe94ddcf	-0.29075477
200	0xbf37c582	-0.7178575
201	0x3ef18611	0.47172597
202	0x3ecac5f7	0.3960416
203	0x3ea1751c	0.3153466
204	0x3fce4f23	1.6117901
205	0x3ef64454	0.48099005
206	0x3e05b09a	0.1305565
207	0xbf4304e1	-0.7617932
208	0x3df8d6f7	0.12150376
209	0x3e76c79e	0.24099585
210	0xbeb4cb77	-0.3531148
211	0xbe155414	-0.14582855
212	0xbe152d11	-0.14567973
213	0x3ff02442	1.8761065
214	0xbeaa8b20	-0.3330927
215	0x3d5e3daf	0.054258045
216	0x3edb3b59	0.42818716
217	0x3eb8c234	0.36085665
218	0xbecee4e7	-0.40409014
219	0xbf004ef9	-0.501205
220	0x3f5911f0	0.84792995
221	0xbe560c1b	-0.20903055
222	0x3e40be38	0.18822563
223	0x3ef86887	0.48517248
224	0xbdfb86cf	-0.12281572
225	0x3f2baa89	0.6705709
226	0x3e8eca12	0.27888542
227	0x3e66bebf	0.22533701
228	0xbdc35806	-0.095382735
229	0x3e856a7b	0.260578
230	0x3eafc621	0.34330848
231	0x3f8c6397	1.0967892
232	0x3cce69c2	0.025196914
233	0x3db806f5	0.08985702
234	0xbcce4ff4	-0.025184609
235	0x3e013877	0.12619196
236	0xbc5b0bb9	-0.013369494
237	0x3d3bb156	0.045823418
238	0x3f90e963	1.1321224
239	0xbe036766	-0.12832412
240	0xbe24cf9e	-0.16094825
241	0xbcde719b	-0.02715378
242	0x3e9f7709	0.31145504
243	0x3ecdb473	0.40176734
244	0x3de75f73	0.11297502
245	0xbfe0e643	-1.757027
246	0x3e949289	0.29018047
247	0xbeac431d	-0.33644953
248	0xbe322871	-0.1739824
249	0xbe9b33a7	-0.30312845
250	0x3ed0326b	0.40663466
251	0x3f9fe588	1.2491922
252	0xbe2aa986	-0.1666623
253	0x3e48ae97	0.1959785
254	0xbe81cfe0	-0.2535391
255	0xbedeccdc	-0.4351567

rnn.bias_ih_l0 f4 [16]
0	0xbe1d1bec	-0.15342683
1	0xbe5b6069	-0.21423496
2	0x3eee1dee	0.4650721
3	0x3df0fbb6	0.1176676
4	0x3e637186	0.22211275
5	0xbc6978cb	-0.014249991
6	0xbeb1baa6	-0.34712714
7	0x3eb01da3	0.3439761
8	0x3e9c4cc1	0.3052731
9	0xbea29a0e	-0.3175816
10	0xbde2a699	-0.11066932
11	0xbdffe0d5	-0.12494055
12	0xbcc001d3	-0.02343837
13	0xbc6d64e3	-0.014489385
14	0x3e77845c	0.24171585
15	0x3e12ff83	0.14355282

rnn.bias_hh_l0 f4 [16]
0	0xbeaf8d60	-0.34287548
1	0x3e35eb95	0.17765649
2	0x3eabb508	0.33536553
3	0x3e9be678	0.3044927
4	0x3eb55a9e	0.35420698
5	0xbe80b7f4	-0.25140345
6	0xbea4fbe5	-0.3222343
7	0x3d0c94df	0.034321662
8	0x3daee976	0.08540623
9	0xbe75eb32	-0.24015501
10	0xbe49e466	-0.19716033
11	0x3d183d16	0.03716763
12	0xbbbca175	-0.005756552
13	0xbd956ee4	-0.07296541
14	0xbda058b6	-0.0782942
15	0xbd4d3117	-0.050095644

rnn.weight_ih_l0_reverse f4 [16, 128]
0	0xbdf78748	-0.1208635
1	0x3d1228cc	0.03568344
2	0xbd81f3bb	-0.06345316
3	0x3e846e7d	0.25865546
4	0xbeda1dfe	-0.42601007
5	0xbd0c6b55	-0.034282047
6	0xbe0a9d19	-0.1353649
7	0xbe256b31	-0.16154172
8	0x3e6d5624	0.23177391
9	0x3e6d9a2e	0.23203346
10	0xbe0419bc	-0.12900442
11	0xbca41b14	-0.020032443
12	0xbed74ec9	-0.42052296
13	0xbb4362f7	-0.0029813626
14	0xbc086f45	-0.00832731
15	0xbe398781	-0.18118097
16	0x3e315d76	0.17320809
17	0x3e0d58f8	0.1380347
18	0x3ba6bb62	0.0050882557
19	0x3d1bd156	0.038041435
20	0xbe85638b	-0.26052508
21	0xbd9bd0b5	-0.07608167
22	0x3e8f8208	0.28028893
23	0xbe215a25	-0.15757044
24	0x3c86150d	0.01636746
25	0xbd26600f	-0.040618952
26	0x3e9dcf57	0.3082225
27	0x3ccf3665	0.025294492
28	0x3e0583af	0.13038515
29	0xbe8edf85	-0.27904907
30	0x3d1351a4	0.03596653
31	0xbe89cb87	-0.26913092
32	0xbc9bc575	-0.019015053
33	0xbe89f36a	-0.26943523
34	0x3e5411ce	0.20709917
35	0xbde8df39	-0.11370701
36	0x3d600cf5	0.054699857
37	0xbe634607	-0.22194682
38	0xbe8a5565	-0.27018276
39	0x3a836535	0.0010024669
40	0xbd6d6a33	-0.057962608
41	0x3d5f8c33	0.054577064
42	0xbe2acc07	-0.16679393
43	0xbd9b91c9	-0.07596166
44	0xbe78da0f	-0.24301933
45	0xbe9c0bdf	-0.30477807
46	0x3dfa12bb	0.12210604
47	0xbe2d1ac9	-0.16904749
48	0x3d376012	0.044769354
49	0xbe86c251	-0.26320127
50	0xbde5cbd2	-0.11220516
51	0x3d948f6f	0.0725392
52	0xbdfbb739	-0.12290806
53	0xbe820c31	-0.25399926
54	0x3d9c6717	0.0763685
55	0xbe3edf9c	-0.18639988
56	0x3e8d0fc6	0.27551097
57	0x3e16e90c	0.14737338
58	0xbea00a72	-0.3125797
59	0x3de8735e	0.113501295
60	0xbcb8dc51	-0.022565993
61	0x3e7c5921	0.24643375
62	0xbd148862	-0.036262877
63	0xbe4fec39	-0.20304956
64	0x3e428b8f	0.1899855
65	0xbe621b97	-0.22080837
66	0xbd5d834a	-0.054080285
67	0xbe2d96de	-0.16952083
68	0x3ddcb51f	0.107767336
69	0xbe14ef3a	-0.14544383
70	0xbe1cb65c	-0.1530394
71	0x3ea92bf4	0.33041346
72	0x3d177e22	0.036985524
73	0xbd1f978a	-0.03896288
74	0x3e137236	0.14399037
75	0xbdb512cd	-0.088414766
76	0xbe89a943	-0.2688695
77	0xbc4814ea	-0.012212018
78	0x3e8b449a	0.27200776
79	0x3e141662	0.14461663
80	0x3cdcecc0	0.02696836
81	0x3e200d74	0.15630132
82	0x3adcb5da	0.0016838864
83	0x3e6b3504	0.22969443
84	0xbdb188a4	-0.0866864
85	0x3e318535	0.1733597
86	0xbd064915	-0.03278454
87	0x3ec256f4	0.37956965
88	0x3d4f31f4	0.05058475
89	0xbd970d2c	-0.07375559
90	0xbd152d60	-0.036420226
91	0x3d25061c	0.04028903
92	0xbeb17f1f	-0.34667298
93	0xbdd61b2f	-0.104544036
94	0xbe4e05c2	-0.20119384
95	0x3dee82de	0.11646055
96	0x3e8a0a96	0.269612
97	0xbdd27987	-0.10277086
98	0x3e0065ca	0.1253883
99	0x3cf92969	0.030415254
100	0x3e3b7e8b	0.18309991
101	0xbb865a74	-0.0041001383
102	0x3e8a206c	0.2697786
103	0x3e4326ce	0.19057772
104	0x3e5fa3bf	0.21839808
105	0x3d5d83a3	0.054080617
106	0x3de107f0	0.10987842
107	0xbcbcc1a3	-0.023041552
108	0xbf12ebac	-0.57390857
109	0x3e4b5fb3	0.19860725
110	0x3efda263	0.49537954
111	0x3e6221f1	0.2208326
112	0x3e8d4906	0.27594775
113	0xbd857dc2	-0.06518127
114	0x3d0b9763	0.03407992
115	0xbdbc9864	-0.09208754
116	0xbef20442	-0.47268873
117	0x3e693bab	0.22776668
118	0x3ea44594	0.32084334
119	0x3ed8a3ac	0.42312372
120	0xbe883ac5	-0.26607338
121	0x3eb03f64	0.34423363
122	0xbe805d70	-0.25071287
123	0x3e270cad	0.16313429
124	0x3d9b7dac	0.075923294
125	0x3e8b0260	0.2715025
126	0xbdfae7e2	-0.122512594
127	0x3ddf79b5	0.10911886
128	0xbe835cfb	-0.25656876
129	0x3e0f166c	0.13973397
130	0x3e7b4b50	0.24540448
131	0x3d08cbaf	0.033397373
132	0x3f0cb531	0.54963976
133	0x3db30c3e	0.087425694
134	0x3d507252	0.050890274
135	0xbd3224e6	-0.04349222
136	0xbda67a87	-0.08128839
137	0x3e6bf62a	0.23043123
138	0xbe67f286	-0.22651109
139	0x3eb6ba8b	0.35689196
140	0xbc09677f	-0.008386492
141	0x3e795620	0.2434926
142	0x3da6a1d4	0.08136335
143	0x3e8b2240	0.27174568
144	0x3e3b6b49	0.18302645
145	0x3def1c77	0.11675351
146	0x3ea1dd05	0.31613937
147	0xbe41a473	-0.18910389
148	0xbdcf930c	-0.10135469
149	0x3dcfe6d8	0.10151452
150	0x3e46338c	0.19355601
151	0x3e93caef	0.28865764
152	0xbed015af	-0.40641543
153	0x3e70cc16	0.23515353
154	0xbec54396	-0.38528126
155	0x3ce68d58	0.02814357
156	0x3e548bc7	0.20756446
157	0xbd609b0f	-0.054835375
158	0xbe0e88c4	-0.1391936
159	0xbe111f94	-0.14172202
160	0x3eb8f66e	0.3612551
161	0xbd9c5ca4	-0.07634857
162	0xbe1088c8	-0.14114678
163	0x3e892a9d	0.26790324
164	0x3e133240	0.14374638
165	0xbd76d425	-0.06026091
166	0xbe916f4e	-0.2840523
167	0x3e328225	0.17432459
168	0x3e2071e6	0.15668449
169	0x3d7451f0	0.059648454
170	0xbe5caa07	-0.21549235
171	0xbe0357d6	-0.12826476
172	0x3e1814b9	0.14851655
173	0x3eb8f162	0.3612166
174	0xbdcf3475	-0.10117427
175	0xbe48a0be	-0.19592568
176	0x3ef7616a	0.4831651
177	0x3eac9c42	0.33712965
178	0xbccc3754	-0.024928726
179	0xbd67b400	-0.056568146
180	0xbe11165b	-0.14168684
181	0x3e17f484	0.14839369
182	0x3e5ae51d	0.21376462
183	0xbea9881a	-0.3311165
184	0xbe2fab5a	-0.17155209
185	0x3e527793	0.20553426
186	0x3d989e7b	0.07452103
187	0xbe3c452a	-0.18385759
188	0x3d9b9eb3	0.07598629
189	0x3df43b54	0.119253784
190	0x3ea191ad	0.31556454
191	0x3e3ee13f	0.18640612
192	0xbe59f6cd	-0.21285553
193	0xbda9298b	-0.08259877
194	0xbbf50082	-0.007476867
195	0x3dc00570	0.09376037
196	0x3e2fb9ac	0.17160672
197	0x3d24e0b9	0.040253375
198	0xbebad230	-0.36488485
199	0x3e26a25d	0.16272874
200	0x3e1557fd	0.14584346
201	0xbf05bf01	-0.52244574
202	0xbea59779	-0.32342127
203	0x3ddd4981	0.108050354
204	0xbcc3c115	-0.02389578
205	0x3e2cec74	0.16887075
206	0x3e01173e	0.12606522
207	0xbe861d21	-0.261941
208	0xbe93c3c8	-0.28860307
209	0xbe91f8d0	-0.2851014
210	0xbe70476b	-0.23464744
211	0x3d8b79ac	0.068103164
212	0xbdc71a97	-0.097218685
213	0xbd3501b8	-0.044191092
214	0xbe6585f0	-0.22414374
215	0xbe531784	-0.20614439
216	0x3e6f3ecf	0.23363803
217	0x3dbc6e33	0.09200706
218	0x3e37f56a	0.17964712
219	0x3d94f8d3	0.07274022
220	0x3ebd5947	0.36982176
221	0x3e79b088	0.24383748
222	0x3e028125	0.12744577
223	0x3a83d22a	0.0010057141
224	0xbddedf6d	-0.10882459
225	0xbea95e0d	-0.33079568
226	0x3e8a808c	0.27051198
227	0xbd3a77d0	-0.04552442
228	0xbebb01c4	-0.36524785
229	0x3cd6d078	0.026222453
230	0xbd3f633f	-0.046725508
231	0xbda01880	-0.07817173
232	0xbe6ab120	-0.2291913
233	0x3d224d60	0.03962457
234	0x3e17bf54	0.1481908
235	0xbde35dc5	-0.111018695
236	0xbdfa0d02	-0.12209512
237	0xbe9e534c	-0.30922925
238	0xbcd2cee7	-0.025733424
239	0xbdf8b8fa	-0.121446565
240	0x3e8113a5	0.252103
241	0xbe72fd5a	-0.23729458
242	0xbedf8317	-0.436547
243	0x3e09a14a	0.13440433
244	0x3dd9d5a6	0.10636453
245	0xbe9635fd	-0.29338065
246	0xbe10a11b	-0.14123957
247	0xbee40bdb	-0.44540295
248	0xbdf72b8b	-0.12068852
249	0xbe92f4cb	-0.28702387
250	0xbdb93c40	-0.09044695
251	0x3db39c90	0.08770096
252	0x3cb0aeca	0.02156772
253	0xbdcdf7ed	-0.10057054
254	0xbde65fc0	-0.112487316
255	0xbd250c61	-0.04029501

rnn.weight_hh_l0_reverse f4 [16, 16]
0	0x3e6191ab	0.22028224
1	0x3f2d19f8	0.6761775
2	0x3d9e00c9	0.077149935
3	0x3e504952	0.2034047
4	0x3ed0ca26	0.40779227
5	0x3d9170f0	0.07101619
6	0xbd229870	-0.039696157
7	0x3f94823d	1.1602246
8	0xbd9a107a	-0.07522674
9	0xbec3aeaf	-0.3821921
10	0xbd574f39	-0.052565787
11	0xbf9359d7	-1.1511792
12	0xbb36b53f	-0.0027879027
13	0xbf7c3101	-0.98512274
14	0xbd307cd8	-0.04308781
15	0xbd04def9	-0.032439206
16	0x3e219068	0.15777743
17	0x3dfa4dfd	0.12221906
18	0xbe09b7ec	-0.13449067
19	0xbedd9d31	-0.4328399
20	0xbe43937c	-0.1909923
21	0x3df44953	0.11928048
22	0xbe8f0543	-0.27933702
23	0xbe373007	-0.17889415
24	0x3d452175	0.04812761
25	0xbee512bd	-0.4474086
26	0xbe5e7e10	-0.21727777
27	0x3e4a0040	0.19726658
28	0xbe8f4926	-0.27985495
29	0xbcb5988d	-0.022167468
30	0xbe067aa1	-0.13132717
31	0xbe5496ad	-0.20760603
32	0x3d81c0ba	0.06335588
33	0xbdbaaa53	-0.09114518
34	0xbd9e2078	-0.07721037
35	0x3e147dce	0.14501116
36	0xbe46404e	-0.19360468
37	0x3e1991eb	0.1499707
38	0xbe21b9a2	-0.1579347
39	0xbe91ac6d	-0.28451863
40	0x3f188a33	0.59585875
41	0x3e2cbe2b	0.16869418
42	0xbe3d15f4	-0.18465406
43	0x3d2f9ea8	0.042875916
44	0x3e3d9396	0.18513331
45	0xbdcbf17f	-0.09958171
46	0x3e89c9be	0.2691173
47	0xbd62dac0	-0.055384398
48	0x3e93a5cf	0.2883744
49	0x3e8d2527	0.27567407
50	0x3de9bb12	0.11412634
51	0xbee77a25	-0.45210376
52	0x3e994757	0.2993724
53	0x3e1c9fc9	0.15295328
54	0xbf06b65f	-0.52622026
55	0xbf41cf15	-0.7570661
56	0xbf3b2833	-0.73108214
57	0xbfa435dd	-1.2828938
58	0xbee4de99	-0.4470108
59	0xbec29f3a	-0.38012105
60	0xbf8b5a03	-1.0886844
61	0x3eb805a7	0.35941812
62	0x3e876b69	0.26449135
63	0xbe158c94	-0.14604408
64	0xbfd0c568	-1.6310244
65	0x3eb5a0a6	0.35474128
66	0xbec8b483	-0.3920022
67	0x3ee80d4a	0.4532264
68	0x3e186b2c	0.14884633
69	0xbea18870	-0.31549406
70	0xbf353ccc	-0.70795894
71	0x3eb867bb	0.3601664
72	0xbfb8236d	-1.4385811
73	0xbe9f1a19	-0.31074598
74	0xbea03e9c	-0.31297767
75	0xbf3d6c22	-0.7399312
76	0x3e217105	0.1576577
77	0x3c566e69	0.013087847
78	0x3e7baab8	0.24576843
79	0xbd6d137a	-0.057879902
80	0xbeacc4fa	-0.3374403
81	0x3e996ae6	0.2996437
82	0x3da185d3	0.07886853
83	0x3d0fa129	0.035065804
84	0xbe5ddc91	-0.2166617
85	0xbe61a9e7	-0.22037469
86	0xbe8fa150	-0.2805276
87	0xbdc60e69	-0.09670717
88	0xbeac92b1	-0.33705667
89	0xbd89e902	-0.06733896
90	0x3e2a8ed3	0.16656046
91	0xbdc0ae3c	-0.094082326
92	0x3e705db5	0.23473246
93	0x3eb9af24	0.36266434
94	0xbe228edc	-0.15874809
95	0x3e342883	0.17593579
96	0x3f80b3b4	1.0054841
97	0x3dad839e	0.084723696
98	0x3e4f97a7	0.20272695
99	0x3e97d017	0.29650947
100	0x3f360898	0.71106863
101	0xbe5dd6fc	-0.21664041
102	0xbe9b1c49	-0.30295017
103	0x3fb24507	1.3927315
104	0x3f7574ec	0.95881534
105	0x3f6a50e4	0.9152968
106	0xbea90fae	-0.33019775
107	0xbee2d852	-0.44305664
108	0x3e8f1632	0.2794662
109	0x3f23c12f	0.6396665
110	0xbea56ac3	-0.32308015
111	0xbeaa4160	-0.33253002
112	0xbd34767f	-0.04405832
113	0x3f6d8e29	0.92795044
114	0xbf32c742	-0.69835293
115	0xbf6d8d30	-0.9279356
116	0x3d75bbab	0.059993427
117	0xbd3601ea	-0.04443542
118	0x3f202d2b	0.6256892
119	0x3eb1fc67	0.3476288
120	0xbed7f5ca	-0.4217971
121	0xbec216e5	-0.37908092
122	0x3e32757a	0.17427626
123	0xbf55f364	-0.8357451
124	0x3d8b20d6	0.06793372
125	0xbf173c9b	-0.5907685
126	0xbe58dba3	-0.21177535
127	0xbfb6b269	-1.4273196
128	0x3e27db04	0.16392142
129	0x3e0e839d	0.13917394
130	0x3c9edcdc	0.019392423
131	0x3f1da122	0.61573994
132	0x3f8adee4	1.0849271
133	0xbe75e364	-0.24012524
134	0xbf6a9034	-0.91626287
135	0x3f462f23	0.77415675
136	0x3e83c99d	0.25739756
137	0xbd84fdb3	-0.06493702
138	0xbe8ecb4f	-0.27889487
139	0xbf7c1678	-0.98471785
140	0xbf034b86	-0.51287115
141	0xbed498b7	-0.41522762
142	0xbeeb3135	-0.4593598
143	0x3f59421d	0.84866506
144	0xbf9af953	-1.2107338
145	0xbe4e7421	-0.20161487
146	0x3ec2bdf2	0.38035542
147	0xbe3ca92b	-0.18423907
148	0xbf3d2746	-0.7388805
149	0x3e06847e	0.1313648
150	0x3fa4ed63	1.2884945
151	0xbf22c428	-0.6358056
152	0xbf48bce3	-0.7841322
153	0xbe22d329	-0.15900864
154	0x3eec7e34	0.46190035
155	0x3f025564	0.50911546
156	0xbe07a997	-0.13248287
157	0xbf0983b0	-0.53716564
158	0x3e688bdb	0.227096
159	0xbecd8b50	-0.4014535
160	0x3b8ab53c	0.0042330306
161	0x3ebacd01	0.3648453
162	0xbec2419c	-0.3794068
163	0xbc4bf3b8	-0.012448244
164	0xbea964d5	-0.3308474
165	0x3e0ddbd4	0.13853389
166	0x3f624c00	0.88397217
167	0xbf121d13	-0.57075614
168	0x3eddf5e5	0.43351665
169	0x3ec964e6	0.39334792
170	0xbcdc3101	-0.026878836
171	0x3ec61f38	0.38695693
172	0x3f0ca6cf	0.5494203
173	0x3eb0c122	0.3452235
174	0xbd3b58ee	-0.045739107
175	0xbd9d67e6	-0.07685833
176	0x3e933f6c	0.28759325
177	0xbf60ec55	-0.87860614
178	0x3f092d66	0.535849
179	0x3e0ad741	0.13558675
180	0x3d87f89f	0.066392176
181	0xbd96b598	-0.07358855
182	0x3eb8ff70	0.36132383
183	0x3f28401e	0.65722835
184	0x3e288423	0.16456656
185	0x3efbc4d9	0.4917362
186	0x3f058671	0.52158266
187	0x3e1bf65d	0.15230699
188	0x3e1052c5	0.14094074
189	0xbf56fd0d	-0.83979875
190	0x3e30566c	0.17220467
191	0x3ea9de99	0.3317764
192	0x3ec59fec	0.38598573
193	0x3ec2acd4	0.38022482
194	0xbe79e0cf	-0.24402164
195	0xbd9daa4e	-0.07698499
196	0x3e9dfb61	0.3085585
197	0xbebd6194	-0.3698851
198	0xbee68f83	-0.45031366
199	0xbe9df634	-0.308519
200	0x3eb44a65	0.3521301
201	0x3f34047d	0.7031935
202	0xbe2e8256	-0.17041907
203	0xbdf9089b	-0.121598445
204	0x3c8246c8	0.015902892
205	0x3f2224e2	0.6333753
206	0xbd021fb9	-0.031768534
207	0xbf809069	-1.004407
208	0x3e699478	0.22810543
209	0xbe9e4087	-0.30908605
210	0x3e785171	0.24249817
211	0x3ebff0be	0.3748836
212	0x3f2a72b3	0.6658127
213	0x3e878c35	0.26474157
214	0xbf68662d	-0.9078091
215	0xbe775a38	-0.2415551
216	0x3ea15924	0.3151332
217	0xbf0ad34f	-0.5422868
218	0xbf46dc38	-0.7767978
219	0xbf849676	-1.0358417
220	0xbec5320f	-0.38514754
221	0xbf04068a	-0.5157248
222	0x3e75be3e	0.23998353
223	0x3f049f14	0.51805234
224	0x3de4c61d	0.111705996
225	0x3da11ac8	0.07866436
226	0xbebafbee	-0.36520332
227	0xbe711467	-0.23542939
228	0xbe404d71	-0.18779542
229	0x3e9d8092	0.30762154
230	0xbf088f3c	-0.5334356
231	0x3d2b26bd	0.04178499
232	0xbf0e910f	-0.5569009
233	0xbed8606c	-0.42261064
234	0xbe36b15c	-0.17841095
235	0xbdd19a8b	-0.10234555
236	0x3ea300b2	0.31836468
237	0x3ea0daac	0.31416833
238	0xbcc3fa13	-0.023922956
239	0x3ee03a37	0.43794414
240	0xbe43d5fa	-0.19124594
241	0x3d01c2c4	0.031679884
242	0xbe2122b6	-0.15735897
243	0xbe8f8d15	-0.28037325
244	0x3c99a4da	0.018755365
245	0x3e396de7	0.1810833
246	0xbee9501b	-0.45568928
247	0xbfbf0ca2	-1.492573
248	0xbf4b1566	-0.79329526
249	0xbf80185e	-1.0007436
250	0xbe18ed39	-0.14934243
251	0xbf147dd6	-0.5800451
252	0xbf132e37	-0.57492393
253	0xbed82833	-0.4221817
254	0x3e43a082	0.19104198
255	0x3e51b85a	0.20480481

rnn.bias_ih_l0_reverse f4 [16]
0	0x3d815a3c	0.06316039
1	0xbe7cd0ec	-0.24689072
2	0x3e28a5b7	0.16469465
3	0x3e47eb35	0.19523318
4	0xbdfa1eb9	-0.12212891
5	0x3e5f1034	0.21783525
6	0xbe671172	-0.22565249
7	0xbdc8e2c2	-0.098088756
8	0xbe8d55aa	-0.2760442
9	0x3e39d3a4	0.1814714
10	0x3db3e2b7	0.08783477
11	0x3df094ef	0.11747157
12	0x3e74e164	0.23914105
13	0x3c6613f5	0.014042844
14	0x3da262b9	0.07928986
15	0xbcd00177	-0.025391323

rnn.bias_hh_l0_reverse f4 [16]
0	0x3e447b24	0.191876
1	0xbe87c755	-0.26519266
2	0x3df8ad5c	0.12142441
3	0x3e44b716	0.19210467
4	0xbdad703e	-0.08468674
5	0xbe393250	-0.18085599
6	0x3dff90ae	0.12478767
7	0x3c910d2c	0.017706476
8	0xbd92dadb	-0.071706496
9	0x3c727d42	0.014800372
10	0xbd6a1d8f	-0.057157096
11	0x3d9416c8	0.07230908
12	0xbe03a043	-0.12854104
13	0xbe2dbd8c	-0.16966838
14	0x3c149431	0.009068535
15	0x3c3b98e1	0.011450023

fc1.weight f4 [12, 32]
0	0xbe8b6c90	-0.27231264
1	0x3eae964b	0.3409904
2	0x3f1e99de	0.6195353
3	0x3ea73501	0.32657626
4	0x3f098635	0.5372041
5	0xbddc4aca	-0.107564524
6	0xbef9747f	-0.48721692
7	0x3eb703d7	0.35745117
8	0xbd3effc9	-0.046630654
9	0xbeeec55d	-0.4663495
10	0xbe454bfe	-0.1926727
11	0x3ea8089d	0.3281907
12	0xbed530b6	-0.41638726
13	0xbecda4c9	-0.40164784
14	0x3ef6fa69	0.48237923
15	0x3f05930a	0.5217749
16	0x3f0a3737	0.539905
17	0xbf113dfc	-0.56735206
18	0x3f1a7c68	0.6034608
19	0x3f3188d6	0.6934942
20	0xbdd039b0	-0.10167253
21	0x3f2a8aa5	0.66617805
22	0x3eb66640	0.35624886
23	0x3d139058	0.03602633
24	0xbe7d918a	-0.2476255
25	0x3ea1146b	0.3146089
26	0x3efe73fe	0.4969787
27	0x3f0175f6	0.5057062
28	0x3eb9d42c	0.36294687
29	0xbea4a215	-0.3215491
30	0x3edcca52	0.43123108
31	0x3f4008c8	0.750134
32	0xbe9edb85	-0.31026855
33	0xbec3a3d0	-0.38210917
34	0xbfaa7b95	-1.3318964
35	0xbd957283	-0.07297232
36	0xbd5b71e9	-0.05357543
37	0xbe821ee6	-0.254142
38	0xbf4d170d	-0.801133
39	0x3eaee893	0.34161815
40	0x3e9d97b7	0.30779812
41	0x3de13425	0.10996274
42	0xbee52389	-0.44753674
43	0x3d42f799	0.04759941
44	0xbecea385	-0.4035913
45	0x3ef809bf	0.48444936
46	0x3f72dbfd	0.94866925
47	0xbf0c6f59	-0.54857403
48	0xbf75f7a9	-0.96081024
49	0xbe6f089e	-0.23343131
50	0xbf9d890f	-1.2307452
51	0xbf997ecf	-1.1991824
52	0xbedf4aa3	-0.4361163
53	0xbf87480d	-1.0568863
54	0xbf35ca67	-0.71011966
55	0xbf6ce021	-0.92529494
56	0x3ef3a98f	0.475903
57	0x3f13f4e7	0.57795566
58	0xbf276346	-0.65385854
59	0x3f2af498	0.6677947
60	0xbf5fc53e	-0.8741034
61	0x3f64e4de	0.89411724
62	0xbfa79b2d	-1.3094231
63	0xbf65bbd1	-0.8973971
64	0x3ecb762c	0.39738595
65	0x3ec22d89	0.37925366
66	0x3efbaaab	0.49153647
67	0x3e039525	0.12849863
68	0xc027eeb9	-2.6239455
69	0x3f097e57	0.53708404
70	0x3fc7c2cb	1.5606321
71	0xbfeb817c	-1.839889
72	0x3ef1995b	0.47187313
73	0x3e7c26ae	0.2462413
74	0xbe8769fd	-0.2644805
75	0xbf8597c8	-1.0436945
76	0x3e34123a	0.17585078
77	0x3d5f32c5	0.054491777
78	0xbfb09064	-1.3794065
79	0x3e867c05	0.26266494
80	0x3e8e39f5	0.27778593
81	0xbf170506	-0.5899204
82	0xbf04c154	-0.51857495
83	0x3fad96e2	1.3561671
84	0x3eada35e	0.33913702
85	0xbfb8eb6e	-1.4446847
86	0xbf4d454e	-0.80183876
87	0x3ee828e6	0.45343703
88	0xbe5048f4	-0.2034033
89	0x3ecca0b6	0.39966363
90	0xbf1d82bb	-0.61527604
91	0x3f4d221b	0.80130166
92	0xbfa48704	-1.2853703
93	0x3d10845a	0.03528247
94	0xbfed4181	-1.8535615
95	0x3e39b3b6	0.1813496
96	0x3f575961	0.84120756
97	0x3f24af1b	0.6432969
98	0xbda074ec	-0.07834801
99	0x3efcbe53	0.49363956
100	0xbe19dbe9	-0.15025295
101	0x3fc72d4b	1.5560697
102	0x40046863	2.0688713
103	0xbe4aa45d	-0.19789262
104	0x3e551e97	0.2081245
105	0x3f2b5bd6	0.66937006
106	0x3f007f3f	0.5019416
107	0x3f11d1d9	0.5696083
108	0x3fb513b1	1.4146634
109	0x3fa6edc0	1.3041306
110	0xc02195ca	-2.5247674
111	0x3f84277e	1.0324552
112	0xbfc6b222	-1.5523112
113	0x3ff674d1	1.92544
114	0x3ed35647	0.41276762
115	0xbfa7fa90	-1.3123341
116	0x3fb588c2	1.418236
117	0xbf90b5ed	-1.1305519
118	0xbf61619b	-0.8803956
119	0x3f214c6c	0.63007236
120	0xbda20825	-0.0791171
121	0xbf871c86	-1.055558
122	0xbf274c72	-0.6535102
123	0x3f978d93	1.184008
124	0xbf3a0fd3	-0.72680396
125	0x3fa63d92	1.298754
126	0xbfe33f4e	-1.7753694
127	0x3f9a0bc3	1.2034839
128	0x3e5fbc5d	0.21849199
129	0xbe889775	-0.26678053
130	0xc00316b0	-2.0482597
131	0xbf92a8bb	-1.1457742
132	0xbe919b4c	-0.28438795
133	0x3f2437a0	0.64147377
134	0x3fe71d6b	1.8055853
135	0xbdc5e8b8	-0.09663528
136	0x3e9532db	0.29140362
137	0xbe86ed45	-0.26352897
138	0x401ea2ae	2.4786792
139	0xbfd7d0ef	-1.6860636
140	0xbe8b440d	-0.27200356
141	0x3e22d935	0.1590317
142	0xbeecc52c	-0.4624418
143	0x3ecf364c	0.40471113
144	0xbf8406ab	-1.0314535
145	0xbf2ee611	-0.68319803
146	0x3e8ec63d	0.2788562
147	0xbf9a9b6a	-1.2078679
148	0x3d8ec994	0.06972042
149	0xbed480f1	-0.41504624
150	0x3de1e6d9	0.11030359
151	0x3eb0d4b5	0.34537283
152	0x3edad0e9	0.4273751
153	0xbff7273a	-1.9308846
154	0xbfea802a	-1.8320363
155	0xbcefbdb0	-0.029265255
156	0xbf46c01f	-0.77636904
157	0xbf69b1fe	-0.9128722
158	0x3f98b177	1.1929158
159	0xbf86d868	-1.0534792
160	0xbc7a4d7d	-0.015277264
161	0xbf1803bb	-0.5938069
162	0xbd92b17e	-0.0716276
163	0xbfd1b39c	-1.6382937
164	0xbe45506e	-0.19268963
165	0x3c025e4a	0.007957051
166	0xbe7af215	-0.2450641
167	0xbe65e446	-0.2245036
168	0xbeecc303	-0.46242532
169	0x40032b2b	2.0495098
170	0xbb9cb09d	-0.004781796
171	0x3e34d00f	0.17657493
172	0x4031d932	2.7788815
173	0x3fec00ab	1.8437704
174	0xbee9852c	-0.45609415
175	0xbf908c17	-1.1292752
176	0x3ec567f4	0.38555872
177	0x3ed00f76	0.40636796
178	0xbecfb97b	-0.40571198
179	0xbd5602f2	-0.052248903
180	0xbedf6b2d	-0.43636456
181	0x3e32a36b	0.17445152
182	0xbea92a17	-0.33039925
183	0x3e14d477	0.14534174
184	0xbed60398	-0.41799617
185	0xbe52931e	-0.20563933
186	0x3e98f412	0.2987371
187	0xbf1ff664	-0.6248534
188	0x3e893077	0.26794788
189	0xbf1db442	-0.61603177
190	0x3db3daeb	0.0878199
191	0xbf10aebb	-0.5651662
192	0x3e8c69b8	0.27424407
193	0x3f973f39	1.1816169
194	0xbf1d150d	-0.61360246
195	0x3e044d14	0.12920028
196	0xbee96b6e	-0.45589775
197	0x3dd55dea	0.10418303
198	0x3e5f4c23	0.21806388
199	0x3fdb19fa	1.7117302
200	0x3e36673f	0.17812823
201	0xbd4bae8f	-0.04972702
202	0xbf09f2f7	-0.5388636
203	0xbef11dbc	-0.47092998
204	0xbc2ca929	-0.010538378
205	0x3f3de808	0.74182177
206	0xbecc5b61	-0.39913467
207	0xbf4fea31	-0.8121672
208	0xbe259625	-0.16170557
209	0x3eccb056	0.39978284
210	0xbeafd321	-0.34340766
211	0x3f1ea68d	0.61972886
212	0x3f843aaa	1.0330403
213	0xbec43219	-0.3831947
214	0x3e354bd2	0.17704704
215	0xbf0df3ee	-0.5545033
216	0x3f4df363	0.80449504
217	0xbf83aafb	-1.0286554
218	0xbf430975	-0.76186305
219	0xbe313f39	-0.17309274
220	0x3e1a7725	0.15084513
221	0x3f8de1bd	1.1084515
222	0xbe30fc50	-0.1728375
223	0x3f2f55ee	0.68490493
224	0x3e8cc01c	0.27490318
225	0x3f61fff6	0.8828119
226	0xbee2363f	-0.4418201
227	0x3e576a31	0.21036603
228	0xbec69d1b	-0.38791737
229	0x3e7eab55	0.24870045
230	0x3ed83453	0.4222742
231	0x3fd55283	1.6665806
232	0xbbc01206	-0.0058615236
233	0x3d1f99f4	0.03896518
234	0x3ece3b97	0.40279838
235	0xbf045f5e	-0.5170802
236	0x3d45d7d3	0.04830153
237	0x3fdfa041	1.7470781
238	0xbe9c0ad1	-0.30477002
239	0xbfb45ff4	-1.4091783
240	0xbe076da3	-0.13225417
241	0x3e822af4	0.25423396
242	0xbe6823a0	-0.2266984
243	0xbfd27819	-1.6442901
244	0x4003a24a	2.0567803
245	0xbe8ab383	-0.27090082
246	0xbf87c79b	-1.060779
247	0xbe1d2fdc	-0.15350288
248	0xbe075f32	-0.13219908
249	0x3f9e5866	1.2370727
250	0x3e092cdc	0.13396019
251	0xbe08ac6c	-0.13347024
252	0xbca4e14d	-0.020126963
253	0xbe02754f	-0.12740062
254	0xbd616977	-0.05503222
255	0xbf18a516	-0.596269

fc1.bias f4 [12]
0	0x3ea56bc8	0.32308793
1	0x3d100353	0.03515942
2	0xbf3ab2b2	-0.7292892
3	0xbf166025	-0.58740455
4	0xbf4bbbca	-0.7958342
5	0xbd26d766	-0.040732764
6	0xbef02706	-0.46904773
7	0xbee1411b	-0.43994984
8	0xbdf75474	-0.12076655
9	0xbeb6339b	-0.35586247
10	0xbe822316	-0.25417393
11	0xbfe554cb	-1.7916502
