src/main/python/saved_models/csharp_1_28_RNNClassifier1_128embs_183id_16hd_1hl_Falsebid_1.pt (torch, 105311 bytes, 7 tensors)

word_embeddings.weight f4 [183, 128]
0.4912204 0.78755456 1.0332024 -1.1666099 -0.16964969 -0.37733915 -1.2667584 0.9081205
-0.43232843 -1.0441806 -1.1213461 -0.94505197 0.2613244 -1.0645635 0.29764217 -1.0147098
0.6977598 -0.733303 0.24825896 0.53580016 1.5168141 -0.3188999 0.29205695 1.4508139
-0.35304904 1.2919434 -0.034553487 -0.49078724 -0.6359811 0.17884131 0.15714641 -0.24436371
1.1370815 0.34007704 1.3651819 0.35811746 -2.4107203 0.33149645 0.5632442 1.147453
-0.6581256 -1.5128517 -0.3707334 0.5109391 -0.29436934 -0.8009455 -0.1214822 0.9040935
-0.9604628 0.3730238 -1.5523081 0.2736257 -1.2339002 1.4527209 -1.0626564 -0.8390569
-0.28052098 1.7775979 -0.5727892 -0.18792601 -0.08340775 -0.71689343 -1.9822855 -0.16345103
1.3963605 -0.8883328 0.3509095 1.4445753 -1.2284825 -0.8038862 0.03626202 -0.863322
0.87202835 0.35528907 0.12643568 0.92381674 -0.61259246 -2.02004 0.113825 -0.99289477
-0.7531109 1.2605892 -0.27363923 -0.23955049 0.7976542 0.40032414 0.08161717 -0.17464443
1.0294081 0.046749026 -0.93190664 2.2611804 0.5429942 -1.5564384 -0.021912897 -0.9145027
1.0872375 -0.54348224 0.06702105 -0.00054027146 1.0964416 0.87937546 0.3378822 0.19896442
-0.7476294 0.84306127 0.5678789 -1.327918 -1.2581419 0.03864023 -0.14104563 0.53493243
-0.9128559 -1.4378563 -0.12696461 0.7606033 0.6915966 0.9112648 -0.37290078 0.14082715
-0.35969758 1.1433709 1.2492242 -1.5593919 0.07561118 -0.14160945 0.64987284 1.6480578
0.21226937 -0.6050741 1.9951054 2.6171632 -1.2205774 -1.4478154 0.215088 -0.74421096
-0.20581351 -0.05272189 0.51237816 -0.56379324 0.007830744 -0.62835765 -1.6119962 1.4895266
0.28910008 -0.5671288 -0.33213702 -0.778948 1.1066209 1.2676064 1.2333465 1.0680201
0.6461599 -0.12615551 0.99353254 -1.3724005 -0.048527118 1.0758476 0.18243326 0.7930324
-0.64841115 -0.06788394 1.2554606 -0.13076147 0.9901761 0.32595915 -1.7961279 -1.3812798
-0.6320092 -0.5985077 -0.3317589 1.2245141 -0.43216696 -0.70587575 1.5847819 -0.017314514
-0.5009985 -1.5843064 3.0055366 1.4315987 0.062192693 0.5332865 -0.4240004 -0.36589694
0.18656656 -0.81134725 -0.11903759 0.3810382 0.16500388 0.44831154 1.8489873 0.7267056
-0.8873166 0.30292434 0.66593474 -1.3703933 -1.3371941 0.74931085 1.1840733 -0.84000105
-0.556374 0.64756906 0.19845805 0.82049686 -0.8956755 -2.312149 -1.2070144 0.5023431
-0.011137549 0.5402074 -0.16281958 -0.20751338 -1.3425878 0.28168342 2.0802472 1.1226578
-0.033584595 -1.0795852 -0.09292196 -0.581591 1.2607902 -0.24485922 -0.08536518 1.0381373
-1.5407788 0.267264 0.75679654 -0.28445935 0.14535083 -0.27889803 0.02868335 -0.3421273
-1.2205973 -0.015282273 -0.005350918 -0.7506186 -0.36317652 -1.4237454 -0.7905512 -0.10382913
0.008640932 -0.7808711 0.79566014 0.23461826 -0.96815586 0.94218457 -1.1150922 -0.3165219
-0.81211144 -0.8288775 0.37183595 1.938735 0.08778854 -1.5984926 -1.8805873 0.8328534
00000000: 3e81 fb3e 2d9d 493f fa3f 843f 7953 95bf
00000010: a6b8 2dbe 9932 c1be 2425 a2bf 967a 683f
00000020: 275a ddbe b6a7 85bf 4588 8fbf edee 71bf
00000030: 50cc 853e 9e43 88bf 8e64 983e 03e2 81bf
00000040: 63a0 323f bfb9 3bbf 9937 7e3e 332a 093f
00000050: f726 c23f d946 a3be 7d88 953e 45b4 b93f
00000060: d8c2 b4be 675e a53f f587 0dbd 7748 fbbe
00000070: a8cf 22bf 2d22 373e fdea 203e 7b3a 7abe
00000080: e38b 913f 941e ae3e 48be ae3f 2c5b b73e
00000090: 3e49 1ac0 e7b9 a93e c630 103f bddf 923f
000000a0: eb7a 28bf 20a5 c1bf c5d0 bdbe e8cc 023f
000000b0: 94b7 96be c40a 4dbf a9cb f8bd ac72 673f
000000c0: e4e0 75bf fafc be3e 08b2 c6bf ab18 8c3e
000000d0: 71f0 9dbf c2f2 b93f 2005 88bf 6fcc 56bf
000000e0: 72a0 8fbe 5488 e33f 50a2 12bf ad6f 40be
000000f0: afd1 aabd 5486 37bf 88bb fdbf b55f 27be
00000100: f1bb b23f c769 63bf 69aa b33e d8e7 b83f
00000110: ea3e 9dbf 7ccb 4dbf 7c87 143d ac02 5dbf
00000120: 403d 5f3f 73e8 b53e 5b78 013e 417f 6c3f
00000130: dcd2 1cbf 5648 01c0 151d e93d 5a2e 7ebf
00000140: e0cb 40bf fd5a a13f 711a 8cbe b94c 75be
00000150: 1133 4c3f 49f7 cc3e e726 a73d fdd5 32be
00000160: a5c3 833f e87b 3f3d 6f91 6ebf 2eb7 1040
00000170: ab01 0b3f 6039 c7bf ad82 b3bc d91c 6abf
00000180: 992a 8b3f a721 0bbf 5542 893d 01a1 0dba
00000190: 3358 8c3f c01e 613f e5fe ac3e 54bd 4b3e
000001a0: a464 3fbf ddd2 573f 8360 113f 38f9 a9bf
000001b0: cb0a a1bf 3845 1e3d 446e 10be 55f1 083f
000001c0: edb0 69bf ad0b b8bf 0303 02be e6b6 423f
000001d0: 7a0c 313f a648 693f daec bebe fe34 103e
000001e0: 482a b8be fa59 923f 94e6 9f3f 279a c7bf
000001f0: 09da 9a3d 1102 11be 115e 263f 8ff3 d23f
00000200: 245d 593e 23e6 1abf 9d5f ff3f 9a7f 2740
00000210: e13b 9cbf 0452 b9bf 0740 5c3e 9c84 3ebf
00000220: c7c0 52be e9f2 57bd 372b 033f c154 10bf
00000230: 854c 003c 0cdc 20bf e455 cebf cfa8 be3f
00000240: ed04 943e 5a2f 11bf dd0d aabe 2369 47bf
00000250: c1a5 8d3f ed40 a23f 4cde 9d3f e2b4 883f
00000260: bc6a 253f e92e 01be 2658 7e3f d2aa afbf
00000270: 5fc4 46bd 60b5 893f c9cf 3a3e 2c04 4b3f
00000280: 46fe 25bf bc06 8bbd efb2 a03f 56e6 05be
00000290: 2e7c 7d3f 1ee4 a63e 85e7 e5bf c7cd b0bf
000002a0: 5bcb 21bf cd37 19bf 4ddc a9be e1bc 9c3f
000002b0: fd44 ddbe 46b4 34bf 22da ca3f 2bd7 8dbc
000002c0: 7041 00bf 8dca cabf b65a 4040 a03e b73f
000002d0: c4bd 7e3d 7785 083f 9516 d9be d856 bbbe
000002e0: 4e0b 3f3e 74b4 4fbf fbc9 f3bd 7017 c33e
000002f0: c7f6 283e 1789 e53e 9eab ec3f 6109 3a3f
00000300: 2e27 63bf e618 9b3e b37a 2a3f 0c69 afbf
00000310: 2d29 abbf d6d2 3f3f b78f 973f 4f0a 57bf
00000320: 876e 0ebf 16c7 253f 9638 4b3e 150c 523f
00000330: fd4a 65bf 40fa 13c0 737f 9abf 8f99 003f
00000340: 447a 36bc 084b 0a3f 2dba 26be 637e 54be
00000350: ebd9 abbf cf38 903e c522 0540 40b3 8f3f
00000360: 0090 09bd d92f 8abf de4d bebd 26e3 14bf
00000370: 9361 a13f 60bc 7abe f1d3 aebd afe1 843f
00000380: 3d38 c5bf d4d6 883e 6bbd 413f a8a4 91be
00000390: d9d6 143e b9cb 8ebe 58f9 ea3c 4f2b afbe
000003a0: 883c 9cbf 8062 7abc c156 afbb 8a28 40bf
000003b0: 46f2 b9be 4a3d b6bf 9061 4abf 5ea4 d4bd
000003c0: b292 0d3c 2be7 47bf 62b0 4b3f c53f 703e
000003d0: 10d9 77bf 0233 713f 57bb 8ebf 290f a2be
000003e0: 89e6 4fbf 5131 54bf 4861 be3e 7828 f83f
000003f0: 7aca b33d 689b ccbf 16b7 f0bf e135 553f

rnn.weight_ih_l0 f4 [16, 128]
0.09942576 -0.049218044 0.20098773 0.030154988 0.23025624 0.10072953 -0.04393345 0.24705595
-0.06924758 -0.037001885 0.22638126 0.03859747 -0.044771835 -0.27798283 -0.26629913 -0.089469455
-0.3622182 -0.056426786 -0.114449844 -0.065321505 -0.04520656 0.19757344 0.026937399 0.028729256
-0.072147615 -0.024342863 0.08731607 -0.18510798 -0.38572416 0.31321996 -0.16477394 -0.60647637
-0.2554969 0.062442992 -0.10346062 0.022720745 -0.020257115 0.14226201 -0.4315856 -0.55210793
-0.08732343 -0.41001156 -0.07528145 0.012054825 0.15961128 0.06912891 0.064468 -0.3689809
-0.08684173 0.27842784 0.017880654 -0.10013612 -0.061791282 -0.08825354 -0.1737306 0.13057286
0.12462916 -0.11733198 -0.18412603 0.023429248 0.030566696 -0.37093574 0.21837614 -0.062532134
-0.070525765 0.2883076 0.37496647 -0.08658259 0.21938583 0.1751668 0.124908976 0.17738378
-0.085943446 -0.07625868 -0.31149527 0.2037667 -0.044043005 -0.0795232 0.50385106 0.20797877
0.03239551 -0.042336397 0.026152596 -0.21361384 -0.17576188 -0.19734712 -0.23788525 -0.03303767
0.043610737 -0.17919269 -0.052938294 0.27659938 0.25502056 0.06020296 0.0065436955 -0.2862951
-0.048590794 -0.0053819236 -0.20651613 0.03972881 0.12713021 0.31894642 0.018656766 0.0746643
-0.09386428 -0.37401617 0.14594688 -0.20610608 0.35243633 -0.15122983 -0.48549128 0.020091398
-0.023307296 -0.35304788 0.13679993 0.25016135 -0.24959184 -0.29256573 0.00481581 -0.18024749
0.31020033 -0.05257006 -0.08578917 -0.23350643 -0.075846784 -0.36945838 0.08051297 0.15194303
-0.07450654 -0.2261197 0.111827195 -0.113429695 0.11494661 0.18813193 0.0879509 0.1286615
0.059064683 0.016898826 -0.039207615 -0.18329361 0.20920695 -0.05810513 0.100492254 0.016298447
-0.1059568 0.20354801 0.026757285 -0.017547935 0.14175054 0.26851165 -0.104557164 -0.16560496
-0.10038172 0.3726317 -0.18591338 0.08605172 -0.32708386 0.04032126 0.16721465 0.14345457
-0.42678848 0.13454586 0.051583048 -0.15672676 0.26322076 0.023585536 0.22037384 -0.40055832
0.1580918 -0.009440956 0.018085176 0.082984656 0.097935714 -0.19298288 -0.12838595 -0.15641214
0.19121623 -0.014640817 0.1336581 -0.15732424 0.3478964 -0.0177961 -0.013777389 0.033475775
-0.19315016 0.03916813 -0.13128445 0.1397372 0.05479312 0.10407775 0.18548264 -0.2109656
0.12736136 0.27444828 -0.13025595 0.15516976 -0.08483801 0.2561983 0.099956386 -0.0026780546
0.0041792607 0.10928994 0.21011147 -0.41772193 0.16002348 -0.20193851 0.34552452 0.24021453
-0.26016802 -0.03941884 0.3857803 -0.02744146 0.040017895 -0.2608484 -0.44938534 0.040895134
-0.050365716 -0.18450458 0.1517354 -0.028145852 0.009162923 0.2523609 -0.0210496 -0.24061857
-0.08905864 0.18098782 0.15431511 0.014778854 -0.2640145 -0.124092385 0.3337352 -0.053667907
-0.000686426 0.08336006 0.13401935 0.14009146 0.13661726 0.09271514 0.12851472 -0.03959103
-0.05449436 0.31458265 0.16667558 0.115032494 -0.056495674 0.26441365 -0.10433129 -0.065278195
-0.022622539 -0.20924051 -0.32658556 0.2758301 -0.11842406 0.14427397 -0.15189359 0.18249175
00000000: bc9f cb3d dc98 49bd bacf 4d3e 9807 f73c
00000010: 4bc8 6b3e 494b ce3d 90f3 33bd 3cfc 7c3e
00000020: add1 8dbd 4a8f 17bd 7dd0 673e 6118 1e3d
00000030: ac62 37bd c453 8ebe 5c58 88be c33b b7bd
00000040: aa74 b9be c61f 67bd ae64 eabd 48c7 85bd
00000050: 842a 39bd b150 4a3e d2ab dc3c 9e59 eb3c
00000060: 21c2 93bd af6a c7bc c5d2 b23d f28c 3dbe
00000070: a37d c5be 5e5e a03e 80ba 28be 0942 1bbf
00000080: 7dd0 82be 39c4 7f3d 29e3 d3bd db20 ba3c
00000090: 40f2 a5bc 22ad 113e caf8 dcbe f256 0dbf
000000a0: a0d6 b2bd 09ed d1be 292d 9abd 9a81 453c
000000b0: 2471 233e 7593 8d3d cc07 843d 11eb bcbe
000000c0: 14da b1bd 188e 8e3e 737a 923c 2b14 cdbd
000000d0: db18 7dbd 46be b4bd 6fe6 31be e4b4 053e
000000e0: 933d ff3d c04b f0bd 898b 3cbe b2ee bf3c
000000f0: 0267 fa3c 4aeb bdbe ff9d 5f3e d910 80bd
00000100: d06f 90bd 0e9d 933e 9bfb bf3e 3752 b1bd
00000110: aea6 603e ed5e 333e 47d0 ff3d 18a4 353e
00000120: 1e03 b0bd 832d 9cbd 4f7c 9fbe 38a8 503e
00000130: 7066 34bd 0fdd a2bd 62fc 003f 63f8 543e
00000140: 27b1 043d ee68 2dbd f83d d63c 96bd 5abe
00000150: ecfa 33be 5d15 4abe 3198 73be 8252 07bd
00000160: 2ca1 323d 4a7e 37be d3d5 58bd 6f9e 8d3e
00000170: 0e92 823e 6197 763d 7f6c d63b 4595 92be
00000180: 2407 47bd d95a b0bb f778 53be adba 223d
00000190: 6c2e 023e f24c a33e 13d6 983c 99e9 983d
000001a0: ea3b c0bd 0c7f bfbe 1973 153e 790d 53be
000001b0: 8972 b43e fedb 1abe 5092 f8be b796 a43c
000001c0: f1ee bebc b1c2 b4be 4815 0c3e 2615 803e
000001d0: 0195 7fbe 2dcb 95be f1cd 9d3b cc92 38be
000001e0: 94d2 9e3e b453 57bd 3bb2 afbd 4f1c 6fbe
000001f0: 8f55 9bbd a629 bdbe fce3 a43d f496 1b3e
00000200: e396 98bd ec8b 67be a805 e53d d44d e8bd
00000210: 2169 eb3d a8a5 403e 9a1f b43d d7bf 033e
00000220: cfed 713d 686f 8a3c 2a98 20bd 52b1 3bbe
00000230: 593a 563e a5ff 6dbd e2ce cd3d 5284 853c
00000240: e1ff d8bd e46e 503e 1832 db3c b0c0 8fbc
00000250: 0e27 113e 5c7a 893e 1122 d6bd 5994 29be
00000260: ee94 cdbd 95c9 be3e 1460 3ebe e23b b03d
00000270: 8977 a7be e827 253d 513a 2b3e c1e5 123e
00000280: 0584 dabe 64c6 093e bf48 533d fb7c 20be
00000290: dfc4 863e 7436 c13c aea9 613e fb15 cdbe
000002a0: d1e2 213e 3dae 1abc 5d27 943c dcf3 a93d
000002b0: 8592 c83d 4e9d 45be 9b77 03be 812a 20be
000002c0: 30ce 433e 0ae0 6fbc abdd 083e 9b19 21be
000002d0: 7a1f b23e 20c9 91bc 8fba 61bc e51d 093d
000002e0: 28c9 45be c36e 203d 6e6f 06be 4517 0f3e
000002f0: c06e 603d b726 d53d 29ef 3d3e 5e07 58be
00000300: 046b 023e 7c84 8c3e d161 05be d2e4 1e3e
00000310: 8dbf adbd 6c2c 833e efb5 cc3d 4d82 2fbb
00000320: 2ef2 883b 67d3 df3d 7627 573e a6df d5be
00000330: 32dd 233e f8c8 4ebe 97e8 b03e ccfa 753e
00000340: be34 85be a675 21bd ff84 c53e eacc e0bc
00000350: cee9 233d ec8d 85be d615 e6be a881 273d
00000360: 484c 4ebd c5ee 3cbe 8660 1b3e 2192 e6bc
00000370: 1620 163c 7335 813e 3670 acbc b764 76be
00000380: 6064 b6bd df54 393e c804 1e3e 0223 723c
00000390: e92c 87be 2624 febd 57df aa3e e1d2 5bbd
000003a0: 45f1 33ba aeb8 aa3d 5e3c 093e 2374 0f3e
000003b0: 65e5 0b3e 6fe1 bd3d 5d99 033e 342a 22bd
000003c0: 7a35 5fbd fa10 a13e 01ad 2a3e 2896 eb3d
000003d0: 0268 67bd 3a61 873e a5ab d5bd 93b0 85bd
000003e0: e752 b9bc 2543 56be 3936 a7be 9a39 8d3e
000003f0: 5088 f2bd 8ebc 133e fe89 1bbe 1edf 3a3e

rnn.weight_hh_l0 f4 [16, 16]
0.5161319 0.8119935 -0.051143084 -0.2489283 0.13923642 -0.3412581 -0.24989286 0.044191115
0.18805218 0.31341654 0.5043843 -0.0060415035 -0.3067575 -0.36572716 0.33953837 0.12789527
0.82003486 -0.1030703 -0.45439118 0.48484042 -0.038215805 -1.0612348 -0.39288536 -0.7115193
0.6352984 -0.42016965 0.69571906 -0.3675474 0.17291045 -0.6087697 0.57400846 0.38940758
-0.18054032 0.18941702 0.015515704 0.05792373 -0.09803585 -1.0075629 0.21301053 -0.053669285
0.2709642 0.46737427 0.37680432 -0.47699064 -0.013914954 -0.55342185 0.6138036 -0.17734224
0.33630782 0.54692626 -0.39830798 0.019209836 -0.11472155 0.042131152 -0.006597401 -0.075432
0.43214676 -0.0042046616 0.3641356 -0.17726865 -0.93459177 -0.4797479 1.2905726 -0.028471613
0.10288044 0.75453204 -0.047586527 0.060850784 0.04582764 -0.24699832 0.004615755 -0.15763839
0.38300183 -0.21330047 0.22888091 -0.13713348 1.1589166 -0.8389376 1.4204001 0.42842865
-0.6743561 -0.7679421 -0.18327478 -0.46602333 -0.2431694 0.60309595 0.4168813 0.13671836
-0.6947407 -0.37416077 -0.691779 0.6204817 0.23496683 0.8058672 -0.7871156 -0.24504028
0.6482424 0.031077482 -0.16244112 -0.3594896 0.26859283 0.36897087 -0.5254521 -0.21373315
0.18495919 0.285809 0.062123913 0.21022792 -0.7417399 1.2638466 -0.70207465 -0.5286067
-0.40254757 0.49049276 0.14670858 0.33116904 -0.34416887 -0.25690135 0.13504384 0.15722227
-0.42573398 0.45086566 -0.1328552 -0.021600345 -0.89271796 0.382061 0.1309049 -0.004121948
0.06480554 0.08711265 -0.022147486 0.08793994 -0.26975432 -0.75222635 -0.31034753 -0.0026378597
0.6091198 -0.2725506 -0.00888373 -0.08076893 1.2187402 -1.7260313 0.43255803 0.93771607
-0.11529865 -0.67896545 0.43252113 -0.33077034 0.010552889 -0.74291813 0.109979905 -0.032195754
-0.1982579 -0.12122813 -0.016500164 -0.17437212 1.8028064 -0.11533834 -0.12750301 0.2651347
-0.17828229 0.620215 0.21443298 0.27827916 -0.18304528 -0.7255943 0.25261027 0.073257506
-0.06874192 -0.11351633 -0.22207148 -0.12890776 0.7919232 -2.0700107 0.5120262 0.6718785
0.13320702 0.33465353 -0.027257422 -0.28311956 0.11321518 -0.29380348 0.012052948 -0.20112011
0.21632257 0.4747167 -0.10500712 0.23267537 1.3032074 -0.24114461 1.192813 0.0794173
0.23528916 0.35265818 0.24156526 0.5694637 0.6720731 -0.35161182 0.074748404 0.31528088
0.27807 0.13064064 0.5680903 -0.3592215 0.85041976 -1.019345 0.29082108 0.046361066
0.19923817 -0.23195617 -0.3927075 -0.3797499 0.18967101 0.66497153 -0.25389245 0.27296704
-0.5669547 -0.16554141 -0.38828743 0.5407763 -1.484614 0.7503408 -0.8252259 -0.2001339
0.7101689 0.2070938 -0.36431366 0.13325089 -0.05495784 -0.64391667 -0.45612088 -0.43036634
0.7248438 -0.0006344263 -0.14372954 -0.1398472 1.4857203 -0.124277905 0.6675689 0.07870819
0.39674693 0.045226917 -0.18494727 0.009913001 0.62156296 -0.31291944 0.08595934 0.17047986
0.55002993 0.253712 0.6242507 0.14682844 -0.40171978 -0.2849574 0.24912222 0.23602422
00000000: 3821 043f cede 4f3f 697b 51bd 0fe7 7ebe
00000010: fe93 0e3e 62b9 aebe eae3 7fbe be01 353d
00000020: c090 403e 2278 a03e 541f 013f cef7 c5bb
00000030: 520f 9dbe 9740 bbbe f9d7 ad3e faf6 023e
00000040: ceed 513f 8516 d3bd f6a5 e8be 013d f83e
00000050: 2d88 1cbd 8bd6 87bf 4528 c9be 2126 36bf
00000060: eaa2 223f 7a20 d7be a51a 323f 2c2f bcbe
00000070: 700f 313e 55d8 1bbf 38f2 123f 6e60 c73e
00000080: 90df 38be 89f6 413e 9435 7e3c 6f41 6d3d
00000090: 05c7 c8bd d2f7 80bf 6f1f 5a3e 53d4 5bbd
000000a0: d2bb 8a3e ae4b ef3e 7fec c03e 1e38 f4be
000000b0: 8cfb 63bc 0ead 0dbf 3c22 1d3f 3499 35be
000000c0: 8a30 ac3e 5c03 0c3f 06ef cbbe f25d 9d3c
000000d0: 22f3 eabd b791 2c3d 032f d8bb 187c 9abd
000000e0: 5742 dd3e 42c7 89bb fb6f ba3e ea85 35be
000000f0: 6841 6fbf 84a1 f5be 7c31 a53f 4d3d e9bc
00000100: fbb2 d23d 0329 413f 17ea 42bd ac3e 793d
00000110: c3b5 3b3d 21ed 7cbe c23f 973b f56b 21be
00000120: d118 c43e 706b 5abe c25f 6a3e b86c 0cbe
00000130: 6157 943f 9dc4 56bf accf b53f 005b db3e
00000140: 9aa2 2cbf da97 44bf 62ac 3bbe 9c9a eebe
00000150: 6601 79be 7f64 1a3f 7771 d53e e6ff 0b3e
00000160: 87da 31bf 0092 bfbe 6e18 31bf e4d7 1e3f
00000170: 259b 703e 504d 4e3f 6880 49bf d7eb 7abe
00000180: 37f3 253f 3496 fe3c f756 26be 050f b8be
00000190: 0085 893e c0e9 bc3e 0784 06bf dddc 5abe
000001a0: f165 3d3e 8f55 923e a575 7e3d fd45 573e
000001b0: abe2 3dbf bac5 a13f 2abb 33bf c552 07bf
000001c0: b71a cebe de21 fb3e c63a 163e fd8e a93e
000001d0: e736 b0be 9388 83be ef48 0a3e e0fe 203e
000001e0: cef9 d9be ddd7 e63e 320b 08be 35f3 b0bc
000001f0: 2a89 64bf 809d c33e ef0b 063e 6811 87bb
00000200: c4b8 843d 1e68 b23d a56e b5bc db19 b43d
00000210: 3d1d 8abe e891 40bf dfe5 9ebe f1df 2cbb
00000220: 46ef 1b3f c18b 8bbe 108d 11bc 2e6a a5bd
00000230: aeff 9b3f 98ee dcbf 3f78 dd3e 290e 703f
00000240: b321 ecbd aed0 2dbf 6973 dd3e bb5a a9be
00000250: 06e6 2c3c e22f 3ebf 253d e13d b2df 03bd
00000260: 1e04 4bbe 7446 f8bd 5a2b 87bc 9b8e 32be
00000270: 5cc2 e63f 8236 ecbd 2690 02be bcbf 873e
00000280: a28f 36be 69c6 1e3f 5294 5b3e 9b7a 8e3e
00000290: 3970 3bbe 8cc0 39bf 2256 813e 0808 963d
000002a0: 90c8 8cbd 407b e8bd b566 63be 6500 04be
000002b0: 7bbb 4a3f 0e7b 04c0 2614 033f 3b00 2c3f
000002c0: 6c67 083e b557 ab3e f54a dfbc 0cf5 90be
000002d0: 5cdd e73d 696d 96be ba79 453c 6ef2 4dbe
000002e0: aa83 5d3e 110e f33e f90d d7bd 7442 6e3e
000002f0: 80cf a63f 9dee 76be 19ae 983f 8aa5 a23d
00000300: a4ef 703e 9d8f b43e e25c 773e 5fc8 113f
00000310: fc0c 2c3f 7706 b4be b115 993d 7f6c a13e
00000320: 315f 8e3e a9c6 053e 5e6e 113f e1eb b7be
00000330: 1cb5 593f e679 82bf 80e6 943e 1ae5 3d3d
00000340: 1705 4c3e eb85 6dbe f510 c9be 946e c2be
00000350: 1e39 423e 933b 2a3f 31fe 81be 56c2 8b3e
00000360: f123 11bf b083 29be 9ccd c6be 5170 0a3f
00000370: d507 bebf 5616 403f 0142 53bf e7ef 4cbe
00000380: a1cd 353f 6610 543e 5287 babe ec72 083e
00000390: 791b 61bd b9d7 24bf ad88 e9be fa58 dcbe
000003a0: 5d8f 393f a14f 26ba d62d 13be 1b34 0fbe
000003b0: 152c be3f 6a85 febd cce5 2a3f c231 a13d
000003c0: 6a22 cb3e dc3f 393d d162 3dbe 246a 223c
000003d0: c01e 1f3f fa36 a0be 730b b03d 4692 2e3e
000003e0: c3ce 0c3f 8ae6 813e e5ce 1f3f 325a 163e
000003f0: 37ae cdbe f0e5 91be e519 7f3e 55b0 713e

rnn.bias_ih_l0 f4 [16]
-0.10530964 0.21575598 0.038317416 -0.1986576 -0.1472953 0.13248447 -0.01347677 -0.22230668
0.2465555 0.05698593 -0.0047165123 -0.14324069 0.0056126346 0.020587651 0.15207349 0.28654012
00000000: 95ac d7bd 23ef 5c3e b9f2 1c3d e66c 4bbe
00000010: 94d4 16be 02aa 073e accd 5cbc 5da4 63be
00000020: 0c79 7c3e 146a 693d f98c 9abb b0ad 12be
00000030: 31ea b73b 6fa7 a83c 27b9 1b3e 63b5 923e

rnn.bias_hh_l0 f4 [16]
-0.12202385 0.28104794 0.14625946 0.17740381 0.16319996 0.18361543 0.15786235 -0.25997674
0.14495464 0.10479747 -0.27619836 0.3112523 -0.16842803 0.072517015 0.33034545 0.3404737
00000000: a4e7 f9bd 84e5 8f3e 0ac5 153e 58a9 353e
00000010: e41d 273e af05 3c3e aba6 213e ac1b 85be
00000020: fd6e 143e 0ea0 d63d df69 8dbe 765c 9f3e
00000030: 6678 2cbe cd83 943d 0a23 a93e 9252 ae3e

fc1.weight f4 [8, 16]
0.37468255 -0.67188394 -0.9562744 -0.6814395 1.0275569 0.6284776 -0.5862626 -0.898363
0.45276734 1.3342296 0.9314095 0.57355005 -0.026339388 -0.843082 0.60271794 0.61521417
1.9582868 2.2143526 1.1691872 1.7569976 0.54995406 -1.8431263 1.4296446 -0.8327815
-1.5688984 -1.523741 -2.365089 0.3159312 -1.4578277 0.57667136 0.71559083 0.019460628
-0.48892322 -0.64855665 1.2508835 0.6703637 -1.1338682 -1.9504783 -1.4237851 2.0748756
0.45984074 -1.6726347 -1.3828263 -2.2675953 -0.7227238 -0.9145961 -0.3595557 -0.5895452
0.6295682 0.6168749 0.97607714 -1.2731584 -0.9848081 -1.2137052 1.3363063 2.5192015
-0.44040692 1.7127858 -1.4090915 -1.1921595 0.86024624 -0.5740662 -0.43128654 -3.018587
0.4210731 0.9255385 1.2866356 1.3498656 -2.0614011 2.1321812 1.4937654 2.0986996
-1.3547449 -1.1288216 1.2006232 -1.7029401 -0.448462 -0.5124267 -0.13828295 -0.634851
-1.0780438 -1.0143578 -0.07403493 -0.26223043 -0.92606574 0.005365358 0.90952826 0.024373528
-2.4346654 -0.5319578 -2.213191 -0.2463907 -0.5692711 0.31922856 0.10901508 -0.22741614
-0.94247717 -0.47482795 0.04956573 0.70438606 0.8912647 -0.6554931 -0.39912978 0.18714066
0.10380741 -0.93288344 0.53240514 -0.50850177 0.4396201 1.0785291 -0.62275505 -0.52746457
-0.6522921 -0.2919563 0.21171877 -0.43314764 -1.4091861 0.40963566 -0.021797335 0.11433926
0.48066995 -0.34899566 0.73463976 -0.49813807 0.6101789 0.7148129 -0.83730984 -0.33376753
00000000: 64d6 bf3e 9600 2cbf 66ce 74bf d272 2ebf
00000010: fc86 833f e8e3 203f 4e15 16bf 1efb 65bf
00000020: 1fd1 e73e 09c8 aa3f da70 6e3f 2dd4 123f
00000030: b3c5 d7bc 39d4 57bf b94b 1a3f ad7e 1d3f
00000040: 24a9 fa3f f4b7 0d40 eda7 953f 4ce5 e03f
00000050: cac9 0c3f 90eb ebbf 98fe b63f 2b31 55bf
00000060: aad1 c8bf f209 c3bf 9e5d 17c0 bcc1 a13e
00000070: 199a babf bca0 133f f630 373f e56b 9f3c
00000080: 2554 fabe cf07 26bf f31c a03f f59c 2b3f
00000090: 9822 91bf 46a9 f9bf 973e b6bf c3ca 0440
000000a0: 3f70 eb3e e518 d6bf 7400 b1bf 4820 11c0
000000b0: 6d04 39bf f822 6abf af17 b8be 6fec 16bf
000000c0: 622b 213f 83eb 1d3f 31e0 793f dbf6 a2bf
000000d0: 621c 7cbf b15a 9bbf 160c ab3f 993a 2140
000000e0: 047d e1be 913c db3f 1c5d b4bf af98 98bf
000000f0: 1939 5c3f 01f6 12bf 97d1 dcbe 8830 41c0
00000100: e596 d73e 17f0 6c3f 7ab0 a43f 65c8 ac3f
00000110: ffed 03c0 a875 0840 b433 bf3f 1851 0640
00000120: 4868 adbf 3a7d 90bf 05ae 993f f1f9 d9bf
00000130: d09c e5be 652e 03bf 0c9a 0dbe 9885 22bf
00000140: 57fd 89bf 7ad6 81bf a09f 97bd 1143 86be
00000150: a512 6dbf e3cf af3b d8d6 683f feaa c73c
00000160: 8fd1 1bc0 632e 08bf eca4 0dc0 d84d 7cbe
00000170: c0bb 11bf ed71 a33e 4c43 df3d c7df 68be
00000180: 2f46 71bf a61c f3be 6f05 4b3d a552 343f
00000190: ec29 643f 65ce 27bf bd5a ccbe cda1 3f3e
000001a0: fb98 d43d 73d1 6ebf b44b 083f 2c2d 02bf
000001b0: e315 e13e 3e0d 8a3f e06c 1fbf eb07 07bf
000001c0: 9dfc 26bf 4c7b 95be cecc 583e 87c5 ddbe
000001d0: 3660 b4bf c4bb d13e 5390 b2bc b42a ea3d
000001e0: 5f1a f63e 8faf b2be 5a11 3c3f f40b ffbe
000001f0: af34 1c3f fafd 363f f059 56bf 94e3 aabe

fc1.bias f4 [8]
0.7169404 0.038023848 -1.0109617 -0.98120373 -1.5172838 -0.30085686 -0.70343494 -0.5312912
00000000: 6889 373f e5be 1b3d 3167 81bf 2b30 7bbf
00000010: 5b36 c2bf e909 9abe 5014 34bf b302 08bf
