src/main/python/saved_models/csharp_1_37_CNNClassifier1_64embs_183id_64hd_0hl_Falsebid5kernel0.3dropout_0.pt (torch, 845643 bytes, 9 tensors)

emb.weight f4 [183, 64]
-1.8110012 -1.2986609 -1.0035553 -1.7385248 0.26680645 -1.1447346 -1.342274 -1.7158309
-0.5957737 0.83615327 -1.272171 -0.71120924 -0.57369375 1.4780722 -0.17567071 0.8850693
-0.30068865 -1.5017494 1.0567131 0.46528912 0.65978557 -0.1347743 -0.41389343 0.840501
1.3477435 -0.15205836 -2.4329686 -1.7555487 0.27485332 -0.23513107 -1.217938 -0.4242664
1.9987096 0.4488439 0.60264546 -1.0501034 0.6816344 -0.32333124 0.6301156 -0.39908373
-0.44999653 0.15131246 -0.53987974 -0.43101835 2.526431 -0.49731755 1.9595084 -0.24678718
-1.1501329 0.42069444 -0.45431075 -0.37534365 1.2159723 0.9543903 0.57439363 2.1508684
0.23245527 0.627104 -0.6061566 -0.46787578 1.6990048 -0.3018247 -2.7979407 -0.86265165
-0.025502462 -1.0233306 -0.59618515 -1.0055307 -0.2106063 -0.0075475276 1.6734272 0.010342831
-0.70395666 -0.1852658 -0.9962351 -0.83125526 -0.46102202 -0.56008244 0.39557618 -0.9822771
-0.5064866 0.099775404 -0.6539734 0.7316937 -1.4343859 -0.50081307 0.17163314 -0.15999313
0.2546335 -0.5019573 -1.0412 0.7322672 -1.0483401 -0.4708772 0.29113635 1.9907043
0.6614453 1.1899205 0.8165339 -0.9135236 1.3851457 -0.81384623 -0.92757654 1.1119633
1.3352057 0.6042736 -0.10344208 -0.15121692 -2.102083 -0.62002194 -1.478231 -1.1334175
0.8737963 -0.5602594 1.2857845 0.81682384 0.2053041 0.30510718 0.535687 -0.431185
2.5581384 -0.23336388 -0.01347213 1.8606348 -1.9804063 1.7985829 0.10181159 0.340006
0.71236455 -1.7765073 0.35386458 1.1996132 -0.3029974 -1.7618417 0.6348446 -0.8043591
-1.6111118 -1.8716129 0.5430836 0.6606786 2.2952116 0.67490596 1.7133216 -1.7942734
-1.3632672 -0.9832196 1.5112667 0.64187074 0.4729638 -0.4285901 0.55137074 -1.5473709
0.5181121 0.10653535 0.26924077 1.324768 1.7460191 1.854969 -0.7063691 2.5570862
0.4175343 -0.2127186 -0.839958 -0.42001787 -0.6240363 -0.9772961 0.8748428 0.9872814
0.30957633 1.52069 1.2052339 -1.815591 -0.40346155 -0.9591452 -0.005207704 -0.07886314
0.8436543 1.1657013 0.5269322 1.6192533 -0.96397626 0.14152038 -0.16366096 -0.35822257
1.7222793 -0.3035756 0.2388742 1.3440012 0.10322569 1.1003542 -0.3416802 0.9473389
-0.954378 0.82009685 1.9064035 -0.7484931 0.8581044 -1.9674108 -2.4262629 -0.42259827
-0.3072709 1.3916231 -1.2696269 0.82636625 -1.7364417 -0.45134327 0.27354637 -0.27801841
1.208392 1.0730553 -0.7733984 1.58406 0.71982753 1.7767464 2.0249212 1.6569331
-1.2244325 1.5125272 1.0092409 -0.9029849 -0.13096051 -0.9666698 1.1333407 1.5925274
1.6347026 -0.6827684 -0.52479666 -1.060116 1.465713 0.8421016 0.20363311 0.9046648
-0.5171004 -0.26740775 0.8717934 -0.8649479 1.5030143 -1.7851923 -0.6151125 0.60049504
0.007460409 1.1779151 1.5362858 0.03289376 -1.1521239 -0.2787857 0.19598241 0.18890089
0.770104 -0.802828 -0.7185029 1.0011647 0.019635418 -1.510395 0.6754759 0.050253313
00000000: e3ce e7bf 853a a6bf 8074 80bf fb87 debf
00000010: db9a 883e aa86 92bf a2cf abbf 59a0 dbbf
00000020: a084 18bf 240e 563f 80d6 a2bf cf11 36bf
00000030: 98dd 12bf 7831 bd3f 06e3 33be e793 623f
00000040: ddf3 99be 5339 c0bf 6042 873f 603a ee3e
00000050: b5e7 283f 4602 0abe d7e9 d3be 132b 573f
00000060: dc82 ac3f 30b5 1bbe c2b5 1bc0 d2b5 e0bf
00000070: 93b9 8c3e 33c6 70be 64e5 9bbf 7239 d9be
00000080: b7d5 ff3f dece e53e f946 1a3f ca69 86bf
00000090: 987f 2e3f ac8b a5be 424f 213f b454 ccbe
000000a0: f265 e6be a7f1 1a3e 8f35 0abf 70ae dcbe
000000b0: 0cb1 2140 68a0 febe 2cd1 fa3f c7b5 7cbe
000000c0: 8e37 93bf 4365 d73e 6b9b e8be 0b2d c0be
000000d0: fba4 9b3f ec52 743f 760b 133f d4a7 0940
000000e0: c108 6e3e e389 203f 142d 1bbf 6a8d efbe
000000f0: fd78 d93f c488 9abe 7611 33c0 bdd6 5cbf
00000100: 8aea d0bc 7ffc 82bf 979f 18bf 3bb5 80bf
00000110: 2ea9 57be 4051 f7bb dd32 d63f fa74 293c
00000120: 8136 34bf 51b6 3dbe 4309 7fbf 25cd 54bf
00000130: 140b ecbe 9061 0fbf f688 ca3e 8376 7bbf
00000140: 1ba9 01bf 0c57 cc3d cd6a 27bf 4750 3b3f
00000150: f599 b7bf 4935 00bf 99c0 2f3e 3dd5 23be
00000160: 525f 823e 4680 00bf 0b46 85bf dd75 3b3f
00000170: 0230 86bf d116 f1be d30f 953e 66cf fe3f
00000180: 7b54 293f 514f 983f 5e08 513f afdc 69bf
00000190: 744c b13f 3a58 50bf a875 6dbf d054 8e3f
000001a0: 05e8 aa3f adb1 1a3f 71d9 d3bd 9cd8 1abe
000001b0: 8788 06c0 c2b9 1ebf ac36 bdbf d313 91bf
000001c0: 1db1 5f3f 296d 0fbf 9694 a43f 5e1b 513f
000001d0: 3d3b 523e 0237 9c3e c922 093f 48c4 dcbe
000001e0: 8ab8 2340 f1f6 6ebe 35ba 5cbc 4829 ee3f
000001f0: f47d fdbf f737 e63f 9882 d03d 4415 ae3e
00000200: 865d 363f 9764 e3bf bd2d b53e ed8c 993f
00000210: 7a22 9bbe 0784 e1bf 2d85 223f 7aea 4dbf
00000220: e938 cebf 0391 efbf 8707 0b3f 3c22 293f
00000230: bfe4 1240 a3c6 2c3f 1f4e db3f c0aa e5bf
00000240: 8a7f aebf 48b4 7bbf 3071 c13f a451 243f
00000250: 5028 f23e 2970 dbbe a226 0d3f 4010 c6bf
00000260: ffa2 043f 352f da3d edd9 893e ff91 a93f
00000270: 8e7d df3f a06f ed3f 9bd4 34bf 4da7 2340
00000280: 0ec7 d53e e8d2 59be 7d07 57bf 950c d7be
00000290: d8c0 1fbf 1430 7abf b3f5 5f3f 79be 7c3f
000002a0: ca80 9e3e f8a5 c23f 1b45 9a3f 4965 e8bf
000002b0: 8392 cebe 8a8a 75bf 63a5 aabb ff82 a1bd
000002c0: baf9 573f b335 953f 07e5 063f b143 cf3f
000002d0: 26c7 76bf b8ea 103e bd96 27be f368 b7be
000002e0: a673 dc3f 436e 9bbe 709b 743e 3b08 ac3f
000002f0: fe67 d33d 68d8 8c3f b5f0 aebe cd84 723f
00000300: 1e52 74bf def1 513f 0805 f43f 3e9d 3fbf
00000310: bbac 5b3f 1ed4 fbbf e447 1bc0 cd5e d8be
00000320: 9d52 9dbe b520 b23f 2283 a2bf bd8c 533f
00000330: b943 debf 7716 e7be 450e 8c3e 6e58 8ebe
00000340: 97ac 9a3f e059 893f 70fd 45bf 7ac2 ca3f
00000350: 9e46 383f 6d6c e33f 4f98 0140 6216 d43f
00000360: 34ba 9cbf 7e9a c13f ce2e 813f 052a 67bf
00000370: 831a 06be ac77 77bf 4f11 913f f0d7 cb3f
00000380: ef3d d13f e9c9 2ebf 1359 06bf e2b1 87bf
00000390: 7c9c bb3f f893 573f 3385 503e 1d98 673f
000003a0: b160 04bf abe9 88be da2d 5f3f 3a6d 5dbf
000003b0: c662 c03f 2e81 e4bf 0378 1dbf 0bba 193f
000003c0: 7276 f43b ecc5 963f 03a5 c43f 9bbb 063d
000003d0: cc78 93bf 00bd 8ebe 9daf 483e 3c6f 413e
000003e0: 8925 453f 2386 4dbf ceef 37bf 2a26 803f
000003f0: 75da a03c a054 c1bf fdeb 2c3f 6bd6 4d3d

conv1.weight f4 [64, 64, 5]
-0.1200436 -0.23432535 0.1280955 -0.047214363 0.18538208 -0.13365479 -0.37200034 -0.122469716
0.01283603 -0.11878713 0.038549162 0.088353686 -0.046623144 0.051830076 -0.15436901 0.14022891
0.1287975 0.09775664 -0.081953116 0.12862934 0.017411618 -0.13488016 -0.04906033 -0.15753509
0.13163233 0.038325895 0.11785544 0.089212686 -0.04936022 -0.075020276 -0.13280357 0.20547533
-0.030053403 0.0059881858 -0.091487266 -0.051098906 0.13174511 -0.06158856 0.046298508 0.18644263
-0.051837575 -0.13342679 0.046414867 0.1493987 -0.006872488 -0.069328256 -0.02979898 -0.12264838
-0.045498293 -0.03333898 -0.19073232 0.009115633 0.18618245 -0.2299463 0.07724476 0.112742625
0.10708898 0.07328265 0.09684814 -0.07935178 -0.06377226 -0.008778262 0.0835121 0.087708995
-0.4346333 -0.17583646 0.23399219 0.13792168 -0.017940873 -0.33146417 0.33192557 0.39234668
0.034171924 0.07317993 -0.016555397 0.16878718 -0.19706607 -0.03418041 0.10544685 -0.05000306
0.138466 0.12782013 -0.06790319 0.13452727 0.13927163 0.124189675 0.29674762 0.12163002
-0.2095175 -0.09423265 0.07827675 -0.22856838 -0.09319533 -0.045919444 -0.0739558 0.10928961
-0.044841703 -0.14540702 -0.077157 -0.06975161 0.11677163 0.09996564 0.114971414 0.135365
0.13538224 -0.07080755 -0.11923425 -0.059199817 0.10251868 0.059492856 0.065620534 0.15320963
0.20221275 0.13687675 -0.039688613 0.3299142 -0.11113396 0.058362126 0.032056674 0.20475057
-0.16818744 0.08134843 -0.15342374 0.027095156 0.058727603 0.1598695 -0.32398337 0.0010866574
0.05703741 0.010075642 -0.021201136 -0.15667859 -0.10767724 0.20067526 -0.11344325 0.17778407
0.13296585 0.11975387 0.14069189 0.22968031 0.16268052 0.017850576 -0.035503447 -0.0047741607
0.05296931 -0.095139235 0.022955617 0.042261034 -0.030716747 0.089046255 0.0034905102 0.07809436
0.07466666 0.07091194 -0.27756217 -0.08961492 -0.011236431 -0.07826701 0.032224502 -0.09636787
-0.013577824 -0.036432236 0.030050773 0.4327291 -0.02714711 0.008580741 -0.02498724 0.02009206
0.11833441 0.13175654 -0.15657537 -0.26918915 -0.08398605 -0.20645489 -0.14238983 -0.024317967
0.017237742 0.06000712 -0.06441973 0.066338 0.099193804 0.028419876 -0.13274486 0.023115974
0.020274589 0.021027472 0.10198927 0.20215613 0.09895291 0.080014005 0.28554344 -0.12408582
-0.16899985 0.16307902 0.040859677 -0.1153941 -0.20508915 -0.16583574 0.016548375 -0.14848487
-0.017729715 -0.16837266 0.30839822 0.06585238 0.23359734 0.11251459 -0.17888741 -0.18109192
-0.13635229 -0.023192737 -0.017210165 0.04937837 0.11083424 -0.087002024 -0.047507275 -0.21194631
-0.4158256 0.013215273 -0.16423368 0.20656417 0.24426718 -0.072131395 -0.13464718 -0.05414834
-0.12428316 0.0014352894 -0.13869618 -0.18884447 0.07502569 -0.050029945 -0.0423775 -0.05346912
-0.017254466 -0.014427206 0.040488485 -0.055699073 0.0035546494 -0.16833334 0.08900898 -0.08531718
0.13453679 0.47268918 0.060529135 -0.13291818 0.17364624 0.26087895 0.05905357 0.1986029
-0.059184894 0.058069825 -0.069765404 0.08416219 0.05152777 -0.016522702 0.050172023 0.19578236
00000000: 6bd9 f5bd fcf2 6fbe 772b 033e d963 41bd
00000010: cdd4 3d3e cddc 08be d476 bebe 67d1 fabd
00000020: 364e 523c ab46 f3bd bae5 1d3d c7f2 b43d
00000030: e9f7 3ebd c64b 543d e912 1ebe 2b98 0f3e
00000040: 7ee3 033e a234 c83d 09d7 a7bd 69b7 033e
00000050: cfa2 8e3c 061e 0abe 7cf3 48bd e150 21be
00000060: a0ca 063e 9dfb 1c3d 315e f13d 24b5 b63d
00000070: f12d 4abd 3ba4 99bd a9fd 07be 2068 523e
00000080: 8e32 f6bc 8b38 c43b ad5d bbbd 164d 51bd
00000090: 31e8 063e 4944 7cbd 81a3 3d3d d1ea 3e3e
000000a0: a353 54bd 08a1 08be 841d 3e3d f9fb 183e
000000b0: 9c32 e1bb f9fb 8dbd fe1c f4bc 132f fbbd
000000c0: 6b5c 3abd 748e 08bd 554f 43be bc59 153c
000000d0: 9da6 3e3e 0b77 6bbe 8032 9e3d 9be5 e63d
000000e0: 7851 db3d 3715 963d 5158 c63d 3083 a2bd
000000f0: 089b 82bd b3d2 0fbc 6408 ab3d c6a0 b33d
00000100: 4288 debe 790e 34be a69b 6f3e 573b 0d3e
00000110: bdf8 92bc acb5 a9be 26f2 a93e aae1 c83e
00000120: dcf7 0b3d 5cdf 953d 2f9f 87bc 8cd6 2c3e
00000130: b0cb 49be c200 0cbd 85f4 d73d 02d0 4cbd
00000140: 08ca 0d3e 48e3 023e d410 8bbd 84c1 093e
00000150: 399d 0e3e 2857 fe3d 4eef 973e 2919 f93d
00000160: c18b 56be 0cfd c0bd 904f a03d d40d 6abe
00000170: 31dd bebd 0716 3cbd 2376 97bd 3bd3 df3d
00000180: efab 37bd 94e5 14be 7d04 9ebd efd9 8ebd
00000190: f725 ef3d c9ba cc3d 2276 eb3d 1f9d 0a3e
000001a0: a4a1 0a3e 8c03 91bd 1631 f4bd 827b 72bd
000001b0: 50f5 d13d c8ae 733d 0f64 863d fce2 1c3e
000001c0: dc10 4f3e 6b29 0c3e 8790 22bd 84ea a83e
000001d0: 349a e3bd 200d 6f3d dc4d 033d 22aa 513e
000001e0: 5439 2cbe 019a a63d 1d1b 1dbe a9f6 dd3c
000001f0: 5b8c 703d d5b4 233e 26e1 a5be 2c6e 8e3a
00000200: 0fa0 693d 4e14 253c 01ae adbc 5a70 20be
00000210: e385 dcbd d17d 4d3e ef54 e8bd 070d 363e
00000220: 3328 083e 8441 f53d 8911 103e 5131 6b3e
00000230: b995 263e 5f3b 923c 106c 11bd 9070 9cbb
00000240: 59f6 583d 5cd8 c2bd 6b0d bc3c e819 2d3d
00000250: b0a1 fbbc e25d b63d 0bc1 643b f0ef 9f3d
00000260: d5ea 983d 473a 913d a11c 8ebe 0788 b7bd
00000270: 0219 38bc 744a a0bd d7fd 033d 855c c5bd
00000280: 8675 5ebc f839 15bd 0a2d f63c ab8e dd3e
00000290: 9e63 debc 3c96 0c3c 0ab2 ccbc 1b98 a43c
000002a0: 5059 f23d 30eb 063e 4b55 20be 29d3 89be
000002b0: e100 acbd e968 53be a4ce 11be 7936 c7bc
000002c0: 2a36 8d3c 07ca 753d 7eee 83bd 38dc 873d
000002d0: 1f26 cb3d cdd0 e83c 45ee 07be b65d bd3c
000002e0: e516 a63c ce41 ac3c c0df d03d 0402 4f3e
000002f0: d3a7 ca3d 62de a33d c032 923e b520 febd
00000300: 4c0e 2dbe 30fe 263e 7a5c 273d be53 ecbd
00000310: e402 52be d8d0 29be 7590 873c 6b0c 18be
00000320: e83d 91bc e269 2cbe 5fe6 9d3e 9ddd 863d
00000330: 2434 6f3e 0d6e e63d 432e 37be 2970 39be
00000340: ef9f 0bbe b2fe bdbc 55fc 8cbc f940 4a3d
00000350: 10fd e23d 1e2e b2bd fd96 42bd 7408 59be
00000360: 18e7 d4be df84 583c e02c 28be 8f85 533e
00000370: 2d21 7a3e a0b9 93bd f3e0 09be a6ca 5dbd
00000380: 2b88 febd 5220 bc3a 5f06 0ebe 7260 41be
00000390: 12a7 993d 33ec 4cbd 0894 2dbd 7002 5bbd
000003a0: 3d59 8dbc 1660 6cbc 41d7 253d b624 64bd
000003b0: 1ff5 683b 935f 2cbe 574a b63d c6ba aebd
000003c0: 03c4 093e 5104 f23e 66ed 773d b41b 08be
000003d0: 52d0 313e ed91 853e 28e2 713d 8f5e 4b3e
000003e0: dc6b 72bd a0da 6d3d 2ae1 8ebd 3a5d ac3d
000003f0: c80e 533d 9e5a 87bc 2e81 4d3d 2c7b 483e

conv1.bias f4 [64]
-0.13265401 -0.057073325 -0.3559224 -0.005637268 -0.27844685 -0.2519187 -0.17979285 -0.14924589
-0.26092815 -0.36727393 -0.18807267 -0.14316161 -0.14269532 -0.33068722 0.038989514 -0.22852816
-0.3087487 -0.173671 -0.11460837 -0.17197037 -0.17888628 -0.27363342 -0.22636442 -0.09294967
-0.18110427 -0.14725177 -0.3674518 -0.2711346 -0.14780045 -0.015494142 -0.022621423 -0.3056231
-0.10240233 -0.21810159 -0.251051 -0.24302569 -0.18404047 -0.2047057 -0.2920178 -0.30910182
-0.18310289 -0.2705097 -0.23268083 -0.121786274 -0.20990553 -0.24231198 -0.059239816 -0.20554024
-0.31295246 -0.12131752 -0.22379655 -0.2889263 -0.26871324 -0.17123395 -0.20934927 -0.17005397
-0.10699573 -0.1101043 -0.24047643 -0.18509465 -0.27498934 -0.16176109 -0.20087008 -0.26978967
00000000: 74d6 07be b8c5 69bd 763b b6be d5b8 b8bb
00000010: 9690 8ebe 7dfb 80be 9e1b 38be ead3 18be
00000020: 6098 85be 540b bcbe 1f96 40be f598 12be
00000030: b91e 12be d64f a9be 78b3 1f3d 4903 6abe
00000040: 4f14 9ebe d0d6 31be cbb7 eabd 0019 30be
00000050: f72d 37be ae19 8cbe 13cc 67be 665c bebd
00000060: 6673 39be 2bc9 16be a422 bcbe 27d2 8abe
00000070: 0059 17be 24db 7dbc 9050 b9bc a27a 9cbe
00000080: 50b8 d1bd 0656 5fbe c289 80be badb 78be
00000090: 1b75 3cbe 5f9e 51be 5b83 95be 9842 9ebe
000000a0: 537f 3bbe 3f80 8abe e243 6ebe 156b f9bd
000000b0: 7af1 56be a220 78be 73a5 72bd 2479 52be
000000c0: 4e3b a0be 5275 f8bd ec2a 65be 26ee 93be
000000d0: c894 89be f457 2fbe a85f 56be a122 2ebe
000000e0: 9420 dbbd 5d7e e1bd 743f 76be 7489 3dbe
000000f0: 67cb 8cbe b3a4 25be e3b0 4dbe df21 8abe

conv2.weight f4 [64, 64, 3]
-0.008909263 0.06713833 -0.23243769 -0.10553574 -0.24949634 -0.107492216 0.01300395 0.018988602
-0.16182978 0.028675884 0.11875754 0.073321894 0.094862595 0.06716767 0.0732965 0.024415452
0.18560764 -0.14677587 -0.1397683 -0.039125808 -0.18418017 -0.039642572 -0.03789922 -0.09781884
-0.18084334 -0.09052324 0.051745303 -0.059043348 -0.25829548 -0.07144785 0.08227395 0.036438357
-0.060070805 -0.0054450743 -0.02265457 -0.03063861 -0.17505169 -0.096998 -0.14996263 0.013694439
-0.110300116 -0.03679871 0.017720247 0.27067664 0.0262447 0.049982052 0.13285802 -0.06160107
0.103675924 -0.08499396 0.06747214 0.025935655 -0.1558515 0.14963645 -0.17794198 -0.21522088
-0.12638208 -0.21980533 -0.10033473 -0.019981576 -0.17327714 0.41722447 0.06201839 -0.072170906
-0.09806373 -0.10035135 -0.0059402497 0.046087764 0.35174572 0.019068409 -0.051661387 -0.13832043
0.15994245 -0.28151092 -0.08274773 0.08590481 -0.038977947 -0.14108275 -0.016189856 0.1351976
-0.070350446 0.19535424 0.010639347 -0.0687317 0.02203051 -0.024951147 0.02000129 -0.05626493
-0.17000468 -2.499965e-05 -0.028088918 0.1113002 0.16009635 0.069964506 0.18474668 0.29052094
-0.06598943 0.3913471 0.045591988 -0.09681741 -0.16253778 -0.07405453 0.019549591 -0.016392414
-0.09502078 0.031090086 0.21601658 0.038435612 -0.053830378 -0.08535863 0.26593167 0.03308248
0.37477082 0.079010636 0.08684562 0.11982584 -0.12764259 -0.08860889 0.0333994 -0.035947897
0.097954005 0.3482365 0.22781827 -0.050414585 0.051547606 -0.05627686 -0.14805937 -0.064805225
0.011374275 0.24571213 0.032137625 -0.05454367 0.08756115 0.07862202 0.011287344 -0.03637246
0.06779888 -0.04342615 -0.076403424 -0.120104514 -0.019347493 -0.0427858 -0.02351201 0.1006715
-0.04334585 -0.31673443 -0.14649351 0.03969433 0.00044159603 0.08921215 -0.08015143 0.1364353
0.20028347 0.0324616 -0.3561386 -0.34760946 -0.08249406 0.26665005 0.00074409053 -0.04466157
0.06299555 -0.023958607 -0.03104816 0.12685555 0.09266242 -0.059473425 -0.057849407 -0.03459966
-0.050991803 -0.3181894 0.107914805 -0.090858206 -0.21608475 -0.014783797 0.038827196 0.08037775
0.2744687 0.13233055 -0.08443785 -0.10156613 -0.1657242 -0.2707064 0.07317103 0.04978837
-0.10245411 -0.02817751 -0.0757603 -0.25210956 -0.042642362 0.17211303 -0.057886735 -0.013962703
0.029052604 -0.060517907 -0.114621006 0.16349715 0.18250304 0.13256994 -0.0024264134 0.06753072
-0.016321125 0.09765132 -0.049630553 -0.07848501 -0.019435534 -0.12747927 -0.04217667 -0.030237809
0.17760663 -0.1233288 -0.045262545 -0.11403634 0.026523804 0.17445512 -0.16689414 0.08083149
0.03119536 -0.010298023 -0.23930983 -0.03772573 0.03539944 -0.24219672 -0.14865038 -0.002082202
0.2050706 -0.08606381 0.02403786 0.2747056 0.06393213 0.03132139 0.23377143 -0.046640337
-0.07386623 -0.15367113 0.086466566 -0.1450663 0.2058989 -0.025686996 -0.025751572 -0.072916836
-0.08074231 -0.009974924 -0.022840945 -0.046560235 -0.05203268 0.06846498 0.0068626287 0.088725515
-0.33132198 -0.014044043 0.03333485 -0.03708454 0.024967806 0.08552149 0.03651629 0.06504828
00000000: 28f8 11bc d27f 893d 2504 6ebe 1f23 d8bd
00000010: f87b 7fbe e124 dcbd 850e 553c fc8d 9b3c
00000020: b5b6 25be b0e9 ea3c 2737 f33d ca29 963d
00000030: 5247 c23d 348f 893d 7a1c 963d ea02 c83c
00000040: ee0f 3e3e 6a4c 16be 6c1f 0fbe 6242 20bd
00000050: ba99 3cbe 4060 22bd 363c 1bbd 3e55 c8bd
00000060: ff2e 39be 4064 b9bd e2f2 533d 70d7 71bd
00000070: 4e3f 84be 4053 92bd 3f7f a83d 6340 153d
00000080: ce0c 76bd 986c b2bb 1496 b9bc d2fd fabc
00000090: c040 33be e3a6 c6bd ce8f 19be a45e 603c
000000a0: 07e5 e1bd 3eba 16bd 0d2a 913c 2196 8a3e
000000b0: 20ff d63c fbb9 4c3d ef0b 083e 6751 7cbd
000000c0: 0b54 d43d 5011 aebd d52e 8a3d 0377 d43c
000000d0: 8997 1fbe 4c3a 193e 6c36 36be dd62 5cbe
000000e0: 4e6a 01be a614 61be 4c7c cdbd 67b0 a3bc
000000f0: 906f 31be 729e d53e ff06 7e3d 57ce 93bd
00000100: a3d5 c8bd 0285 cdbd 6da6 c2bb 86c6 3c3d
00000110: 0418 b43e 5a35 9c3c e49a 53bd dfa3 0dbe
00000120: f4c7 233e 3322 90be a477 a9bd dcee af3d
00000130: 57a7 1fbd ff77 10be 97a0 84bc 3d71 0a3e
00000140: e513 90bd f10a 483e a850 2e3c 35c3 8cbd
00000150: 5479 b43c 5966 ccbc bfd9 a33c 0e76 66bd
00000160: b515 2ebe 57b6 d1b7 bb1a e6bc 5cf1 e33d
00000170: 4cf0 233e 8d49 8f3d 3c2e 3d3e 29bf 943e
00000180: 7725 87bd a65e c83e aabe 3a3d 3548 c6bd
00000190: 4e70 26be e7a9 97bd 7726 a03c 6249 86bc
000001a0: 419a c2bd a3b0 fe3c 7333 5d3e a96e 1d3d
000001b0: 3e7d 5cbd 81d0 aebd 3228 883e 7f81 073d
000001c0: f6e1 bf3e 54d0 a13d 1edc b13d 4067 f53d
000001d0: bdb4 02be 9478 b5bd cfcd 083d 1a3e 13bd
000001e0: 1c9c c83d 0e4c b23e 3149 693e 867f 4ebd
000001f0: 9523 533d 9182 66bd e09c 17be 9ab8 84bd
00000200: 2b5b 3a3c f69b 7b3e bea2 033d 2f69 5fbd
00000210: 4353 b33d 9504 a13d 8dee 383c 4afb 14bd
00000220: 24da 8a3d 9edf 31bd 6679 9cbd 5bf9 f5bd
00000230: a27e 9ebc 2a40 2fbd 429c c0bc dc2c ce3d
00000240: 6b8b 31bd 042b a2be 6502 16be 8696 223d
00000250: 0486 e739 dcb4 b63d 6f26 a4bd b2b5 0b3e
00000260: 1c17 4d3e 74f6 043d cc57 b6be def9 b1be
00000270: a5f2 a8bd 5b86 883e 120f 433a 0def 36bd
00000280: d003 813d d744 c4bc b658 febc 6ce6 013e
00000290: cbc5 bd3d 689a 73bd 80f3 6cbd 60b8 0dbd
000002a0: c8dc 50bd b9e9 a2be 7002 dd3d de13 babd
000002b0: 5245 5dbe bd37 72bc 4409 1f3d 179d a43d
000002c0: 2987 8c3e a981 073e c0ed acbd e701 d0bd
000002d0: 9bb3 29be 079a 8abe b1da 953d e4ee 4b3d
000002e0: 76d3 d1bd 85d4 e6bc 3728 9bbd 8114 81be
000002f0: c2a9 2ebd 663e 303e a41a 6dbd d2c3 64bc
00000300: baff ed3c a0e1 77bd 6bbe eabd cc6b 273e
00000310: 14e2 3a3e 6ac0 073e 7604 1fbb 8c4d 8a3d
00000320: e1b3 85bc 6afd c73d 6849 4bbd c0bc a0bd
00000330: 4537 9fbc ed89 02be 72c1 2cbd 48b5 f7bc
00000340: 83de 353e cf93 fcbd 3865 39bd e28b e9bd
00000350: 7348 d93c 5da4 323e 4ce6 2abe fb8a a53d
00000360: 698d ff3c 0ab9 28bc a30d 75be 4c86 1abd
00000370: 01ff 103d 6b02 78be ce37 18be 8d75 08bb
00000380: 07fe 513e 3942 b0bd 0ceb c43c 36a6 8c3e
00000390: d9ee 823d dc4a 003d c761 6f3e f009 3fbd
000003a0: 2e47 97bd f75b 1dbe 6215 b13d 438c 14be
000003b0: 29d7 523e 896d d2bc f6f4 d2bc 6c55 95bd
000003c0: 395c a5bd dd6d 23bc ef1c bbbc f2b5 3ebd
000003d0: 3820 55bd 5e37 8c3d e7df e03b b9b5 b53d
000003e0: 09a3 a9be fc18 66bc 208a 083d f5e5 17bd
000003f0: 4989 cc3c e425 af3d 1b92 153d 0838 853d

conv2.bias f4 [64]
-0.094605304 -0.15065311 -0.10187017 -0.21974336 -0.36887494 -0.20948336 -0.18625781 -0.25759238
-0.22804065 -0.21720602 -0.22516327 -0.2143574 -0.28194064 -0.24060465 -0.1424707 -0.08579668
-0.19977656 -0.06012131 -0.13858572 -0.25036848 -0.30966446 0.045299858 -0.1284993 -0.28761607
-0.28438514 -0.2905269 -0.33139244 -0.33717033 -0.096172914 -0.1792929 -0.16707186 -0.25919268
-0.5001047 -0.23511289 -0.3280202 -0.09298344 0.08550663 -0.35851747 -0.18132992 -0.18047138
-0.24673033 -0.3623791 -0.33085436 -0.13131304 -0.22149925 -0.19173917 -0.22584458 0.014472211
-0.39410698 -0.3947858 -0.25336906 -0.22074865 -0.08384328 -0.15910214 -0.26625633 -0.35174173
-0.04960447 -0.31081855 -0.11685873 -0.10300803 -0.34255928 -0.18555394 -0.11547617 -0.2618535
00000000: 6dc0 c1bd cf44 1abe 4fa1 d0bd 6704 61be
00000010: 2ddd bcbe ce82 56be 5eba 3ebe 26e3 83be
00000020: 7d83 69be 416b 5ebe 3391 66be 8280 5bbe
00000030: 865a 90be 1161 76be d7e3 11be 2bb6 afbd
00000040: 3a92 4cbe c341 76bd 6ae9 0dbe 4c30 80be
00000050: 578c 9ebe 588c 393d 5295 03be 6a42 93be
00000060: ee9a 91be f1bf 94be 45ac a9be 97a1 acbe
00000070: 4ef6 c4bd 8f98 37be e314 2bbe e7b4 84be
00000080: dd06 00bf 6fc1 70be 43f2 a7be 1a6e bebd
00000090: 1a1e af3d 9a8f b7be 8dae 39be 7dcd 38be
000000a0: e0a6 7cbe c189 b9be be65 a9be ed76 06be
000000b0: b3d0 62be 4657 44be cd43 67be da1c 6d3c
000000c0: 64c8 c9be 5d21 cabe 97b9 81be ef0b 62be
000000d0: 07b6 abbd aceb 22be c052 88be 7e17 b4be
000000e0: 0f2e 4bbd 9c23 9fbe a153 efbd e0f5 d2bd
000000f0: ee63 afbe da01 3ebe c57e ecbd a911 86be

conv3.weight f4 [256, 128, 5]
0.23116836 0.018590951 -0.07289311 -0.15460302 -0.011989433 -0.18921176 0.14437549 -0.15989536
-0.097324036 -0.19448598 -0.18676269 -0.11400405 0.07274631 -0.02034992 -0.004145153 -0.117633946
0.04001506 0.055130213 -0.119159564 0.116246946 -0.33334792 0.03982919 -0.20098321 0.024522332
-0.46848747 -0.2379372 -0.0676138 0.09048655 -0.09693594 0.10307225 -0.09895615 0.06156385
0.12395096 -0.12776317 0.057777792 -0.23169686 -0.07185537 -0.03298526 0.09141929 -0.05375679
-0.009129154 -0.14048769 0.10887508 -0.12780797 0.015849495 0.16073696 0.0043673385 -0.0033573192
-0.3007195 0.265268 -0.029060991 -0.11726667 -0.30201223 -0.0697904 0.034445763 -0.05983458
0.032610606 -0.27189994 -0.20914443 -0.18764111 0.16787995 0.12159702 -0.054647654 -0.12805599
-0.14123821 -0.12756014 -0.24410939 0.18305738 -0.09330546 0.024258383 -0.06245441 -0.097221136
0.021406284 -0.123259075 0.028612552 -0.21568643 0.035553113 -0.057706162 -0.27589732 -0.092487626
-0.0959233 0.017691402 0.104535855 -0.13409904 -0.05212019 0.1490101 -0.07368553 0.07177641
-0.24815857 -0.08042081 0.1418945 -0.06640378 -0.060612634 -0.05278201 -0.061919384 -0.035012312
-0.04469129 0.063296825 0.034980927 0.114379436 -0.40882307 -0.05691225 -0.17611776 -0.022162126
0.07904418 -0.08026139 0.11878215 0.1283109 -0.09332184 0.07532661 -0.15541586 -0.020193793
-0.010292579 -0.07797598 -0.15940692 -0.049776204 -0.07231951 -0.0920331 -0.26245967 -0.041583333
0.13383323 -0.07523237 0.021439852 -0.10949566 -0.13318938 -0.04670818 0.03622205 -0.119420335
-0.09287309 -0.07644104 0.23541048 -0.045417055 0.09451923 -0.15331547 0.39907983 0.11565504
0.023951136 -0.23444082 -0.01294413 -0.17562486 0.027407212 -0.13727297 -0.07203887 -0.12551826
-0.28920332 0.0108825285 -0.020158788 -0.054192368 -0.07271153 0.07995427 -0.18119933 -0.14019985
0.05000066 -0.0056300275 0.08276501 -0.050105207 0.019797947 -0.07017807 -0.18764892 0.24697809
-0.0042601656 -0.24195613 -0.052535817 0.02448132 0.030031774 -0.23424086 0.15954545 -0.12685719
-0.2988841 -0.111237474 0.3754274 -0.1072823 0.088143066 -0.24227072 0.1080761 -0.025546934
-0.27570778 0.051691204 -0.23097137 -0.087289125 -0.030804664 -0.16769706 -0.27007166 0.022464698
0.59367293 -0.027886044 -0.15832604 -0.13839903 -0.04974498 -0.12610197 -0.036406666 -0.032660943
0.0008971373 -0.10872907 -0.2938254 0.113058284 -0.3624475 -0.31391987 0.012546371 -0.1728549
-0.19822004 -0.13298489 0.1468519 -0.2792983 0.013892926 0.035814315 -0.22366212 0.18261684
-0.25028196 -0.032671914 -0.12926993 0.0077458187 0.01718397 -0.1142917 -0.15783185 -0.041683123
0.08810569 -0.06500457 -0.08301483 -0.2461371 0.030290227 0.0506997 -0.012080956 -0.27368665
0.009742428 0.11086633 -0.19056073 0.097980484 -0.30636612 0.07962594 0.05259396 -0.17649597
0.025960509 0.015854664 -0.051202543 -0.16440071 -0.109461315 0.14691895 -0.15778252 -0.05764263
-0.13513769 0.14205445 0.0042932774 -0.15707916 -0.059120473 -0.13033532 -0.16240908 0.03542243
-0.27175894 0.08751381 -0.34335038 -0.09949825 -0.27135706 0.2675296 -0.22354288 -0.30150613
00000000: 66b7 6c3e 0d4c 983c fc48 95bd 4150 1ebe
00000010: 546f 44bc bac0 41be 2bd7 133e 9cbb 23be
00000020: d351 c7bd 5527 47be b83e 3fbe f57a e9bd
00000030: 04fc 943d e0b4 a6bc 10d4 87bb 11ea f0bd
00000040: d5e6 233d 38d0 613d ee09 f4bd e112 ee3d
00000050: 94ac aabe ef23 233d 8bce 4dbe 0fe3 c83c
00000060: 97dd efbe cfa5 73be 1b79 8abd 0351 b93d
00000070: 5a86 c6bd 8b17 d33d 86a9 cabd 602a 7c3d
00000080: 00da fd3d 59d4 02be 68a8 6c3d f141 6dbe
00000090: e928 93bd 8d1b 07bd 093a bb3d 1430 5cbd
000000a0: 7292 15bc 01dc 0fbe e6f9 de3d 18e0 02be
000000b0: cdd6 813c 3b98 243e e41b 8f3b 7806 5cbb
000000c0: e8f7 99be 35d1 873e 5111 eebc 8229 f0bd
000000d0: 59a1 9abe 45ee 8ebd 0017 0d3d 1b15 75bd
000000e0: b392 053d 7836 8bbe f529 56be fe24 40be
000000f0: b9e8 2b3e dc07 f93d 38d6 5fbd 1c21 03be
00000100: c0a0 10be 209f 02be d0f7 79be 6573 3b3e
00000110: ef16 bfbd 84b9 c63c 32d0 7fbd e01b c7bd
00000120: 3b5c af3c 416f fcbd df64 ea3c e7dc 5cbe
00000130: 24a0 113d 4c5d 6cbd 6a42 8dbe 276a bdbd
00000140: 6f73 c4bd 8fed 903c e516 d63d 4251 09be
00000150: fb7b 55bd 1b96 183e 70e8 96bd 83ff 923d
00000160: 481d 7ebe aab3 a4bd cb4c 113e b4fe 87bd
00000170: f444 78bd f331 58bd 2e9f 7dbd 1269 0fbd
00000180: 370e 37bd c4a1 813d 2948 0f3d c43f ea3d
00000190: 4251 d1be d21c 69bd 3758 34be 598d b5bc
000001a0: eae1 a13d 1560 a4bd 0e44 f33d ef63 033e
000001b0: 851f bfbd d644 9a3d 5625 1fbe 746d a5bc
000001c0: 35a2 28bc dfb1 9fbd 913b 23be 22e2 4bbd
000001d0: 401c 94bd da7b bcbd 1d61 86be 4953 2abd
000001e0: 940b 093e 6e13 9abd a1a2 af3c 433f e0bd
000001f0: cc62 08be 1451 3fbd 935d 143d a692 f4bd
00000200: 3f34 bebd 1f8d 9cbd 720f 713e 3c07 3abd
00000210: 4c93 c13d bbfe 1cbe 3154 cc3e 8ddc ec3d
00000220: 2c35 c43c 4111 70be 9e13 54bc 01d7 33be
00000230: 1785 e03c 4991 0cbe 1d89 93bd dc87 00be
00000240: 7512 94be a24c 323c 0b24 a5bc d1f8 5dbd
00000250: c8e9 94bd 10bf a33d 518c 39be 8d90 0fbe
00000260: 7ecd 4c3d 187c b8bb b480 a93d 1e3b 4dbd
00000270: 4e2f a23c 85b9 8fbd 0a27 40be d3e7 7c3e
00000280: dc98 8bbb 59c3 77be cc2f 57bd 0d8d c83c
00000290: 3205 f63c d6dc 6fbe e25f 233e dae6 01be
000002a0: 5607 99be 79d0 e3bd 0538 c03e d3b6 dbbd
000002b0: 5a84 b43d d115 78be 0157 dd3d ce47 d1bc
000002c0: 9229 8dbe 28ba 533d c283 6cbe a4c4 b2bd
000002d0: 105a fcbc c7b8 2bbe d546 8abe e307 b83c
000002e0: f3fa 173f 4671 e4bc 3920 22be 7ab8 0dbe
000002f0: 64c1 4bbd e020 01be 281f 15bd 7bc7 05bd
00000300: dd2d 6b3a 59ad debd 4870 96be 1a8b e73d
00000310: b892 b9be 1bba a0be 4b8f 4d3c e000 31be
00000320: 32fa 4abe 312d 08be 5860 163e 3000 8fbe
00000330: 289f 633c 08b2 123d af07 65be e9ff 3a3e
00000340: f524 80be fcd2 05bd 565f 04be a3d0 fd3b
00000350: 66c5 8c3c c411 eabd ac9e 21be ecbb 2abd
00000360: c270 b43d 1e21 85bd ae03 aabd 5d0b 7cbe
00000370: 3623 f83c 7daa 4f3d 34ef 45bc a820 8cbe
00000380: b49e 1f3c e30d e33d 5a22 43be fea9 c83d
00000390: 05dc 9cbe ed12 a33d c46c 573d 5cbb 34be
000003a0: 22ab d43c a4e1 813c c2b9 51bd a958 28be
000003b0: 412d e0bd ec71 163e be91 21be ae1a 6cbd
000003c0: 8961 0abe b976 113e 9fae 8c3b 5cd9 20be
000003d0: 4f28 72bd 9f76 05be 914e 26be 1c17 113d
000003e0: fd23 8bbe 713a b33d 9fcb afbe bdc5 cbbd
000003f0: 50ef 8abe a4f9 883e 6de8 64be 035f 9abe

conv3.bias f4 [256]
-0.1853195 -0.02758904 0.1343369 -0.094393 0.109630704 -0.11408079 -0.05231284 -0.06109238
-0.29515478 -0.08969269 0.0382606 -0.14671472 -0.11054015 -0.01645269 0.0035519316 -0.12054761
-0.15153585 -0.009616767 -0.32706505 0.047742452 -0.12532552 -0.1474692 -0.16507794 0.12955832
-0.08924939 0.12923977 -0.08960257 -0.14868458 -0.15923773 -0.22935599 -0.03910385 0.19074002
-0.00015913989 -0.15599054 0.047583297 -0.19235146 0.034119662 -0.12778912 0.1168509 -0.024107281
-0.16454522 -0.05804551 -0.1611187 -0.16480201 -0.049582157 -0.033508647 -0.105440356 -0.07961421
-0.055102214 -0.0971211 -0.026047865 -0.07543212 -0.20359047 -0.14653559 -0.074521296 -0.13815676
-0.09149201 0.032557096 -0.057944663 -0.0025289129 -0.024231283 -0.14623098 -0.09414092 0.14167811
-0.09757733 0.13815376 -0.058045346 0.040342107 0.03932889 0.28183123 0.08705984 -0.017304944
-0.008910973 -0.0071614 -0.13016681 -0.0740194 0.23112915 0.15545735 0.036766317 -0.18620266
-0.032050002 -0.33756137 -0.0632696 0.5148805 0.009703053 -0.16166282 0.12550682 -0.11607554
0.16500717 0.110107444 0.20952545 -0.060756862 -0.05600977 -0.08635198 -0.021537729 -0.09578418
-0.08043686 0.07584667 -0.14721191 0.08236395 0.04318154 0.005570783 -0.2359401 -0.15613651
0.2143616 -0.23701064 0.0106813265 -0.08694025 -0.04071172 -0.21459669 0.3030246 -0.15877244
-0.05503431 -0.21075326 -0.14579812 -0.35762298 -0.10643806 -0.032429487 -0.001153658 -0.055796616
-0.0682303 0.2232112 -0.046891734 -0.28311458 -0.12995327 -0.20537165 -0.114572644 -0.37356794
0.04892004 -0.12059203 -0.123850405 -0.05116953 -0.10688812 0.19951381 0.17503582 -0.1384149
-0.30365527 -0.014082013 -0.02377897 -0.018236611 -0.08964122 -0.052696623 -0.086056806 -0.0016101563
-0.1051679 -0.17550272 0.006735186 -0.058243055 -0.050448656 -0.04511993 0.02163751 -0.07238396
0.12155643 -0.03722131 0.228236 0.18416856 -0.042486124 -0.013014011 -0.059203636 -0.045592967
0.113975264 -0.055986002 -0.082600325 -0.10471073 -0.08992608 0.09951927 -0.22621696 -0.061922025
-0.26306394 -0.045609925 0.00391491 -0.0047232164 -0.18526472 -0.17898294 -0.02309544 0.025218539
-0.111498594 0.30114833 0.042165644 -0.068041466 -0.11168721 0.010238982 -0.046115045 -0.17799813
-0.059718408 0.12798071 -0.040757045 -0.07512738 0.0596613 -0.10588172 -0.10863719 -0.15117294
0.05535259 0.37620255 0.046087388 -0.18910486 0.14694072 0.2157673 0.06564021 -0.27715227
0.10407213 -0.050012913 -0.042935155 -0.017229456 0.07554459 -0.18290299 -0.09209485 0.028183261
0.0549809 0.032384183 -0.020577729 -0.17062573 -0.04240378 -0.034508497 0.12109646 -0.10785414
-0.06286343 -0.09867102 0.17272876 -0.04919245 -0.15474468 -0.16313137 -0.06277674 -0.13775742
0.04481543 0.45617262 0.043594155 -0.17976467 -0.3333742 -0.16027223 -0.10216825 -0.21844448
-0.16855204 -0.062292855 -0.2304085 -0.11134493 -0.0913996 -0.055835743 0.47074196 -0.0039106514
-0.12864916 0.03375126 -0.08783709 -0.08663286 -0.18688947 -0.16453736 -0.092905656 -0.11356087
-0.17399117 -0.07588164 -0.12923568 -0.054310564 -0.08771229 0.1490981 -0.021359894 -0.062197357
00000000: 65c4 3dbe 6902 e2bc 9d8f 093e 1e51 c1bd
00000010: 1086 e03d 30a3 e9bd fd45 56bd 013c 7abd
00000020: 871e 97be cdb0 b7bd 26b7 1c3d 623c 16be
00000030: e062 e2bd cbc7 86bc 86c7 683b aae1 f6bd
00000040: 372c 1bbe a58f 1dbc 1275 a7be 978d 433d
00000050: 5555 00be 2a02 17be 310a 29be f0aa 043e
00000060: 62c8 b6bd 6e57 043e 8d81 b7bd c540 18be
00000070: 370f 23be 4cdc 6abe 5c2b 20bd 5a51 433e
00000080: cade 26b9 fcbb 1fbe b4e6 423d c8f7 44be
00000090: 0fc1 0b3d 27db 02be 864f ef3d a27c c5bc
000000a0: 8b7e 28be 21c1 6dbd 4dfc 24be dcc1 28be
000000b0: a916 4bbd 5d40 09bd 1df1 d7bd c60c a3bd
000000c0: dcb2 61bd 6de7 c6bd 5562 d5bc 287c 9abd
000000d0: 057a 50be 6d0d 16be 9f9e 98bd f778 0dbe
000000e0: 2a60 bbbd 975a 053d 6257 6dbd 1ebc 25bb
000000f0: af80 c6bc 93bd 15be f4cc c0bd 1114 113e
00000100: a0d6 c7bd 2e78 0d3e f5c0 6dbd c43d 253d
00000110: 5517 213d 2f4c 903e 6e4c b23d 19c3 8dbc
00000120: 54ff 11bc 2daa eabb 734a 05be 7c97 97bd
00000130: 1fad 6c3e 3630 1f3e 4798 163d e9ab 3ebe
00000140: dd46 03bd d8d4 acbe 7e93 81bd 35cf 033f
00000150: 8ef9 1e3c f08a 25be dc84 003e 03b9 edbd
00000160: a4f7 283e 0380 e13d d78d 563e 30dc 78bd
00000170: 806a 65bd 4fd9 b0bd e46f b0bc 7f2a c4bd
00000180: 15bc a4bd 8055 9b3d b8be 16be 6eae a83d
00000190: 20df 303d 1d8b b63b 489a 71be 40e2 1fbe
000001a0: 9b81 5b3e ebb2 72be bb00 2f3c bb0d b2bd
000001b0: 55c1 26bd 3cbf 5bbe 0a26 9b3e 3e95 22be
000001c0: a86b 61bd b4cf 57be 1a4c 15be 5c1a b7be
000001d0: 33fc d9bd c8d4 04bd 5736 97ba fe8a 64bd
000001e0: 54bc 8bbd 7a91 643e 8c11 40bd 65f4 90be
000001f0: 7812 05be f24c 52be 10a5 eabd 4c44 bfbe
00000200: 6160 483d f4f8 f6bd 48a5 fdbd 2497 51bd
00000210: 29e8 dabd 594d 4c3e 973c 333e a3bc 0dbe
00000220: b478 9bbe 3eb8 66bc 1dcc c2bc f264 95bc
00000230: d195 b7bd 6ad8 57bd 8d3e b0bd e10b d3ba
00000240: 4562 d7bd fcb6 33be d6b2 dc3b 4590 6ebd
00000250: 40a3 4ebd adcf 38bd 2641 b13c 0b3e 94bd
00000260: 94f2 f83d 5f75 18bd b3b6 693e af96 3c3e
00000270: ee05 2ebd b838 55bc 837f 72bd b1bf 3abd
00000280: dd6b e93d 9451 65bd 5c2a a9bd 9472 d6bd
00000290: 2a2b b8bd c2d0 cb3d 6ba5 67be f3a1 7dbd
000002a0: 51b0 86be 79d1 3abd a548 803b 36c5 9abb
000002b0: 09b6 3dbe 4e47 37be a632 bdbc 1c97 ce3c
000002c0: 6059 e4bd 1d30 9a3e e2b5 2c3d 5359 8bbd
000002d0: 44bc e4bd 67c1 273c 21e3 3cbd 2445 36be
000002e0: 4a9b 74bd 600d 033e dcf0 26bd 62dc 99bd
000002f0: 685f 743d 84d8 d8bd 2d7d debd 14cd 1abe
00000300: 66b9 623d 9f9d c03e 21c6 3c3d b4a4 41be
00000310: a177 163e 1af2 5c3e 606e 863d e7e6 8dbe
00000320: c523 d53d 57da 4cbd c6dc 2fbd ca24 8dbc
00000330: 1fb7 9a3d ec4a 3bbe 3a9c bcbd 95e0 e63c
00000340: a733 613d 47a5 043d a092 a8bc 83b8 2ebe
00000350: 96af 2dbd c858 0dbd 6c01 f83d a2e2 dcbd
00000360: 8bbe 80bd 0814 cabd cfdf 303e 067e 49bd
00000370: 6475 1ebe e90b 27be 1791 80bd 4810 0dbe
00000380: 6290 373d 758f e93e c98f 323d 3b14 38be
00000390: 06b0 aabe 671e 24be 963d d1bd e9af 5fbe
000003a0: e898 2cbe cb26 7fbd 35f0 6bbe d008 e4bd
000003b0: b72f bbbd 05b4 64bd 1705 f13e ec24 80bb
000003c0: 9bbc 03be c33e 0a3d efe3 b3bd 926c b1bd
000003d0: f45f 3fbe 7b7c 28be 5245 bebd 9a92 e8bd
000003e0: be2a 32be d567 9bbd 5c56 04be c174 5ebd
000003f0: 80a2 b3bd 2cad 183e f2fa aebc a8c2 7ebd

fc.weight f4 [8, 256]
-0.15442288 0.124329776 0.00125451 -0.047427714 -0.098131515 -0.08820235 -0.042777408 -0.09893567
-0.051434007 -0.03608244 0.09103011 0.050915986 0.004491935 -0.099238485 -0.084738664 -0.09468193
-0.10721518 -0.0069208406 -0.08634169 -0.038319454 0.033130597 0.03220046 -0.03442095 0.011549184
0.019348789 0.024330238 -0.18778545 0.08244548 0.011129204 0.062106054 0.02822943 -0.14877458
-0.06530199 -0.024765242 -0.053557567 -0.057754558 0.10249832 -0.049008373 0.012403407 0.019532233
0.08521048 0.0027337396 -0.08010465 0.06136806 0.0038844335 -0.017634252 0.07080124 0.0379381
0.08043921 -0.032680657 -0.021383502 0.0044873157 0.015545328 -0.008939222 0.060731314 -0.029194502
-0.052321102 0.05554573 0.07192355 0.014482766 0.06624839 -0.0005651904 0.022335675 0.05507453
-0.0053575356 0.060917065 -0.22332735 0.018649943 0.043844793 0.033440143 -0.0008985332 -0.048243403
-0.15144798 -0.015118256 0.0023697983 0.016411353 0.06287249 -0.08291786 0.0756632 0.023555025
-0.030451128 -0.022665452 0.13130221 0.043627236 0.006228408 0.03280237 0.05921706 -0.04973441
-0.0726216 0.04729584 0.10646525 0.019117987 0.07911987 -0.016246906 -0.017229492 0.060859546
-0.08654548 0.073199056 -0.0039278315 0.03379095 0.061360117 -0.014931381 -0.09248953 0.015108108
0.097418055 -0.11916048 0.019053888 0.059845388 0.05323008 0.06397721 -0.032660373 -0.026038075
0.04037293 -0.011477315 0.08479938 0.003507948 -0.060439304 0.06708481 0.021227015 -0.04291719
0.018962871 0.052185137 0.0025350712 -0.04201552 -0.12752114 0.014549582 0.02857437 -0.07850287
-0.0058698016 0.033430833 -0.022616474 -0.0017602012 0.07847463 0.029080413 0.06576305 -0.10019983
0.078494236 0.047464285 0.021197058 -0.017512046 -0.05956974 -0.09582008 0.013011878 -0.1120069
0.04885103 -0.04903952 -0.019960992 0.02650711 0.0070180423 -3.559688e-05 0.03280346 -0.040874016
0.028496925 -0.047735296 0.039821316 0.059328973 0.0026502884 0.036840875 -0.0062872707 0.06412518
0.135392 -0.12079437 -0.05087991 0.031216554 0.09257845 -0.07256147 -0.2509726 -0.04913444
0.020886607 -0.20323913 0.03854827 -0.011813961 0.044795383 -0.016384847 -0.03321021 0.1470096
0.04622631 0.044041224 0.0011031835 -0.0047528474 -0.031329066 0.031191891 0.12667845 0.06599215
-0.0064598247 -0.021078853 -0.08201998 -0.02643445 0.029333929 0.0040126927 0.107496805 -0.018663896
0.06714102 0.027743537 0.07101664 0.0032768012 0.08915438 0.023098249 0.06059549 -0.083882
-0.04110135 0.09015853 0.12648796 0.11552998 0.00062356226 -0.12881769 -0.11944188 0.00716027
0.028051108 -0.021897279 -0.019499993 0.2190157 -0.02521756 0.015224046 0.05968572 0.051344536
-0.01588491 -0.014944223 0.008584314 -0.006616279 0.0035495267 -0.13266881 0.045520324 -0.09237784
0.028739473 0.014745887 -0.07435832 0.004079702 0.036945023 0.007574946 0.004557646 -0.12853561
-0.17966354 0.018100193 -0.022211706 -0.16175707 -0.056315318 0.008381391 0.058516625 -0.040129438
-0.05276576 0.062193565 -0.13400659 -0.024697088 0.039609514 0.009911197 -0.053949982 0.047626257
0.030808827 -0.003073271 0.02215706 -0.020357281 0.036866415 0.0026188628 -0.040628396 0.011410462
00000000: 0821 1ebe 9ca0 fe3d 5f6e a43a 9043 42bd
00000010: 2df9 c8bd 6fa3 b4bd 5d37 2fbd c99e cabd
00000020: 77ac 52bd 2ecb 13bd ff6d ba3d 488d 503d
00000030: 1531 933b 8c3d cbbd 778b adbd 9ae8 c1bd
00000040: a293 dbbd 38c8 e2bb e9d3 b0bd dcf4 1cbd
00000050: f3b3 073d a1e4 033d fbfc 0cbd ca38 3d3c
00000060: 5a81 9e3c 3550 c73c d44a 40be 2dd9 a83d
00000070: 4457 363c eb62 7e3d 6841 e73c 5d58 18be
00000080: 0dbd 85bd 7ae0 cabc 2e5f 5bbd 0b90 6cbd
00000090: a4ea d13d 01bd 48bd a937 4b3c 1002 a03c
000000a0: d582 ae3d 8a28 333b e80d a4bd 135d 7b3d
000000b0: fb91 7e3b b575 90bc 3e00 913d fb64 1b3d
000000c0: 50bd a43d 27dc 05bd 742c afbc 550a 933b
000000d0: d5b1 7e3c d175 12bc 66c1 783d 4f29 efbc
000000e0: a74e 56bd eb83 633d a74c 933d 2049 6d3c
000000f0: 3cad 873d 4929 14ba 4ef9 b63c d595 613d
00000100: 448e afbb 2c84 793d edaf 64be c4c7 983c
00000110: 9996 333d 88f8 083d 8b8b 6bba e09a 45bd
00000120: 2e15 1bbe 90b2 77bc 9e4e 1b3b 1a71 863c
00000130: 4bc3 803d d7d0 a9bd 4ff5 9a3d 78f6 c03c
00000140: a574 f9bc e6ac b9bc 1674 063e 79b2 323d
00000150: ac17 cc3b c75b 063d 978d 723d 4fb6 4bbd
00000160: a2ba 94bd 48b9 413d 740a da3d 539d 9c3c
00000170: 9909 a23d 3b18 85bc dd24 8dbc dc47 793d
00000180: c23e b1bd 63e9 953d 0ab5 80bb 6168 0a3d
00000190: bf54 7b3d c0a2 74bc 276b bdbd ff87 773c
000001a0: 1e83 c73d 690a f4bd e616 9c3c 7020 753d
000001b0: c907 5a3d 7c06 833d e2c6 05bd cd4d d5bc
000001c0: 165e 253d 590b 3cbc 4cab ad3d 9ae5 653b
000001d0: 348f 77bd c363 893d 47e4 ad3c efc9 2fbd
000001e0: 0658 9b3c 15c0 553d 7023 263b 7718 2cbd
000001f0: e794 02be 5f61 6e3c cc14 ea3c 1dc6 a0bd
00000200: 7757 c0bb c5ee 083d 2f46 b9bc 8db6 e6ba
00000210: 4fb7 a03d 0c3a ee3c c7ae 863d 9235 cdbd
00000220: 96c1 a03d e969 423d 74a5 ad3c 6c75 8fbc
00000230: 66ff 73bd 513d c4bd c62f 553c e063 e5bd
00000240: 0518 483d aadd 48bd 3c85 a3bc 7025 d93c
00000250: 9bf7 e53b dc4d 15b8 ec5c 063d 836b 27bd
00000260: 6272 e93c 1686 43bd ad1b 233d f002 733d
00000270: 76b0 2d3b 75e6 163d 7305 cebb 1054 833d
00000280: 33a4 0a3e 0a63 f7bd 7467 50bd dcb9 ff3c
00000290: c599 bd3d 1c9b 94bd 7b7f 80be 3241 49bd
000002a0: 641a ab3c eb1d 50be cae4 1d3d 588f 41bc
000002b0: 5d7b 373d 8439 86bc 6e07 08bd af89 163e
000002c0: cd57 3d3d 9264 343d b298 903a c6bd 9bbb
000002d0: e852 00bd 2386 ff3c ffb7 013e e426 873d
000002e0: f0ac d3bb 8fad acbc 17fa a7bd 0f8d d8bc
000002f0: b54d f03c e87c 833b 4927 dc3d 07e5 98bc
00000300: 3b81 893d 6a46 e33c 2c71 913d 9abf 563b
00000310: 9296 b63d 8a38 bd3c fa32 783d 53ca abbd
00000320: e459 28bd 09a5 b83d 0f86 013e fb9a ec3d
00000330: 8e76 233a c9e8 03be f29d f4bd b3a0 ea3b
00000340: 70cb e53c ec61 b3bc 73be 9fbc a745 603e
00000350: 0e95 cebc 476e 793c 0379 743d a64e 523d
00000360: 1221 82bc 9dd8 74bc 39a5 0c3c 5fcd d8bb
00000370: 2d9f 683b 55da 07be 8573 3a3d 9830 bdbd
00000380: 0b6f eb3c bc98 713c 2d49 98bd 05af 853b
00000390: aa53 173d 4137 f83b 4e58 953b d79e 03be
000003a0: b8f9 37be db46 943c 53f5 b5bc a5a3 25be
000003b0: e4aa 66bd 1a52 093c 21af 6f3d c45e 24bd
000003c0: e920 58bd aebe 7e3d 0639 09be 8c51 cabc
000003d0: 963d 223d 9362 223c a8fa 5cbd c013 433d
000003e0: cb62 fc3c ee68 49bb b982 b53c 50c4 a6bc
000003f0: 3d01 173d 3aa1 2b3b f669 26bd f2f2 3a3c

fc.bias f4 [8]
-0.31573108 -0.28873852 -0.4304598 -0.5575255 -0.34244296 0.21928893 0.44641417 0.3490643
00000000: 81a7 a1be 89d5 93be 3a65 dcbe feb9 0ebf
00000010: af54 afbe 478d 603e 6690 e43e 8eb8 b23e
