src/main/python/saved_models/java_1_55_CNNClassifier1_64embs_109id_64hd_0hl_Falsebid5kernel0.3dropout_0.pt (torch, 829771 bytes, 9 tensors)

emb.weight f4 [109, 64]
0	0xbfa433ae	-1.2828271
1	0xbf50644f	-0.8140306
2	0xbf79714a	-0.9743849
3	0xbfcbd96d	-1.5925728
4	0xbe6ded6d	-0.23235102
5	0xbeede06f	-0.46460292
6	0xbf6a5189	-0.9153066
7	0xbfc36920	-1.5266457
8	0xbf817650	-1.0114231
9	0x3ef4f8fe	0.47846216
10	0xbf3b2d2f	-0.7311582
11	0xbecce23f	-0.40016362
12	0xbeb0201a	-0.34399492
13	0x3fd51fe7	1.6650361
14	0x3e11208c	0.14172572
15	0x3f6bf06f	0.9216375
16	0xbf3c631d	-0.73588735
17	0xbf9a75fc	-1.2067256
18	0x3f45f196	0.77321756
19	0x3e3e7f65	0.18603285
20	0x3f7d4f78	0.98949385
21	0x3caf53b3	0.021402216
22	0xbf89f59c	-1.0778079
23	0x3f0145b2	0.5049697
24	0x3f914c0d	1.1351334
25	0xbee9c745	-0.45659843
26	0xc0068c87	-2.102327
27	0xbfe958c0	-1.8230209
28	0x3dc3e2cf	0.09564745
29	0xbf70c247	-0.94046444
30	0xbf862589	-1.0480205
31	0xbb4a7932	-0.0030894992
32	0x3fc700fe	1.5547178
33	0xbdfc4c2c	-0.12319216
34	0x3e098a78	0.13431728
35	0xbf8be433	-1.0929016
36	0x3e24f472	0.16108873
37	0xbd4e1542	-0.05031324
38	0x3e7b5fe5	0.245483
39	0xbee05aeb	-0.43819365
40	0xbe5ac0d7	-0.21362625
41	0x3ef2516e	0.4732775
42	0x3e45b23d	0.19306274
43	0xbe4cadc3	-0.1998816
44	0x401f9ace	2.4938235
45	0xbfb147e3	-1.3850063
46	0x3fd557df	1.6667441
47	0xbf165c73	-0.58734816
48	0xbf8e46b5	-1.1115328
49	0x3ee858b5	0.45380178
50	0x3ebdfd69	0.371074
51	0xbede24a6	-0.43387336
52	0x3f55e065	0.83545524
53	0x3f174c03	0.5910036
54	0x3f9435e0	1.1578941
55	0x400d13e1	2.2043383
56	0x3d0ef8a7	0.034905102
57	0x3f108533	0.56453246
58	0x3e7ac451	0.24488951
59	0xbf534bfb	-0.8253781
60	0x3fc91c4c	1.571176
61	0xbf8d9e89	-1.1064006
62	0xc053a371	-3.3068507
63	0xbf64f8a9	-0.89441925
64	0xbcd0ea8a	-0.025502462
65	0xbf82fc7f	-1.0233306
66	0xbf189f97	-0.59618515
67	0xbf80b53b	-1.0055307
68	0xbe57a92e	-0.2106063
69	0xbbf75140	-0.0075475276
70	0x3fd632dd	1.6734272
71	0x3c2974fa	0.010342831
72	0xbf343681	-0.70395666
73	0xbe3db651	-0.1852658
74	0xbf7f0943	-0.9962351
75	0xbf54cd25	-0.83125526
76	0xbeec0b14	-0.46102202
77	0xbf0f6190	-0.56008244
78	0x3eca88f6	0.39557618
79	0xbf7b7683	-0.9822771
80	0xbf01a91b	-0.5064866
81	0x3dcc570c	0.099775404
82	0xbf276acd	-0.6539734
83	0x3f3b5047	0.7316937
84	0xbfb799f5	-1.4343859
85	0xbf003549	-0.50081307
86	0x3e2fc099	0.17163314
87	0xbe23d53d	-0.15999313
88	0x3e825f52	0.2546335
89	0xbf008046	-0.5019573
90	0xbf85460b	-1.0412
91	0x3f3b75dd	0.7322672
92	0xbf863002	-1.0483401
93	0xbef116d1	-0.4708772
94	0x3e950fd3	0.29113635
95	0x3ffecf66	1.9907043
96	0x3f29547b	0.6614453
97	0x3f984f51	1.1899205
98	0x3f51085e	0.8165339
99	0xbf69dcaf	-0.9135236
100	0x3fb14c74	1.3851457
101	0xbf50583a	-0.81384623
102	0xbf6d75a8	-0.92757654
103	0x3f8e54d0	1.1119633
104	0x3faae805	1.3352057
105	0x3f1ab1ad	0.6042736
106	0xbdd3d971	-0.10344208
107	0xbe1ad89c	-0.15121692
108	0xc0068887	-2.102083
109	0xbf1eb9c2	-0.62002194
110	0xbfbd36ac	-1.478231
111	0xbf9113d3	-1.1334175
112	0x3f5fb11d	0.8737963
113	0xbf0f6d29	-0.5602594
114	0x3fa49496	1.2857845
115	0x3f511b5e	0.81682384
116	0x3e523b3d	0.2053041
117	0x3e9c3702	0.30510718
118	0x3f0922c9	0.535687
119	0xbedcc448	-0.431185
120	0x4023b88a	2.5581384
121	0xbe6ef6f1	-0.23336388
122	0xbc5cba35	-0.01347213
123	0x3fee2948	1.8606348
124	0xbffd7df4	-1.9804063
125	0x3fe637f7	1.7985829
126	0x3dd08298	0.10181159
127	0x3eae1544	0.340006
128	0x3f811369	1.0084049
129	0xbfdf77b0	-1.7458401
130	0x3e5603c8	0.2089988
131	0x3fc5445b	1.5411485
132	0xbf15b4e7	-0.5847916
133	0xc0054579	-2.0823653
134	0x3f5e6a00	0.86880493
135	0xbf45e4e6	-0.77302396
136	0xbfd8eb07	-1.6946725
137	0xbfbff9b8	-1.4998083
138	0x3e925759	0.28582266
139	0x3f7cb75f	0.987173
140	0x4024d336	2.5753913
141	0x3f0f446a	0.55963767
142	0x3fc82689	1.563676
143	0xc007674d	-2.11568
144	0xbfc18ce0	-1.5121117
145	0xbf8e5702	-1.1120303
146	0x3f85b933	1.0447143
147	0x3f49769a	0.78696597
148	0xbd8c9e5b	-0.068661414
149	0xbe78da76	-0.24302086
150	0x3f11c1f2	0.5693656
151	0xbf948736	-1.1603763
152	0x3e81ae83	0.25328454
153	0x3ece9d4d	0.40354386
154	0x3f108880	0.5645828
155	0x3fa84813	1.3146995
156	0x3fb21dc1	1.391533
157	0x3ffffe14	1.9999413
158	0xbe8fa960	-0.2805891
159	0x400e34f0	2.221981
160	0x3f150d63	0.5822355
161	0xbe890e45	-0.267687
162	0xbf4262c8	-0.7593198
163	0xbe798f66	-0.24371108
164	0xbe801874	-0.25018656
165	0xbfa8f906	-1.3200996
166	0x3eca2de3	0.39488134
167	0x3f9bea97	1.2180966
168	0x3ee6a475	0.45047346
169	0x3f9e5d47	1.2372216
170	0x3f321016	0.69555795
171	0xbfc995b6	-1.5748813
172	0xbf381cb7	-0.71918815
173	0xbedaab0e	-0.4270863
174	0x3eaa2cdd	0.33237353
175	0xbcccd273	-0.025002694
176	0x3f7d5f72	0.98973763
177	0x3f4a93c0	0.791317
178	0x3e6d2920	0.23160219
179	0x3fba02f1	1.4532148
180	0xbfac951f	-1.3483008
181	0xbe4e6dac	-0.20159024
182	0xbe3c1558	-0.18367517
183	0xbe76984c	-0.24081534
184	0x3fe7513e	1.8071668
185	0xbeaddb67	-0.33956453
186	0x3e7a8aae	0.24466965
187	0x3ff5ceae	1.9203699
188	0x3ea8f8d9	0.33002356
189	0x3fa103b5	1.2579256
190	0xbf13d589	-0.57747704
191	0x3f6365cd	0.8882721
192	0xbf3bf59d	-0.7342165
193	0x3f716da9	0.94307953
194	0x3fd2a841	1.6457597
195	0x3dc5c8d2	0.09657444
196	0x3f23c67c	0.6397474
197	0xc0006591	-2.0061991
198	0xc0295b45	-2.6461957
199	0xbf3f1e84	-0.7465594
200	0xbec9c4a9	-0.39407852
201	0x3f1e2e09	0.61788994
202	0xbf81ba57	-1.0134991
203	0x3f60e927	0.8785576
204	0xbfc51cbe	-1.5399396
205	0x3c8f5a6a	0.017499167
206	0x3f6b3a7b	0.9188611
207	0xbd485b90	-0.048915446
208	0x3f7c94ca	0.98664534
209	0x3f4ae5aa	0.7925669
210	0xbf46bd07	-0.7763218
211	0x3f96fa69	1.1795169
212	0xbe2ae11e	-0.16687438
213	0x3ff0aa5c	1.880199
214	0x3fdb1477	1.711562
215	0x3fb84cf3	1.4398483
216	0xbf79f3df	-0.9763774
217	0x3fabe9a2	1.3430674
218	0x3f7a73c5	0.978329
219	0xbec76448	-0.38943696
220	0x3e060643	0.13088326
221	0xbef6fe77	-0.48241016
222	0x3fce8a8d	1.6136032
223	0x3fc883e3	1.5665249
224	0x3ff6ee76	1.9291523
225	0xbf0254d4	-0.5091069
226	0xbdfc7ae9	-0.12328131
227	0xbfb857ab	-1.4401754
228	0x3fc605c0	1.5470505
229	0x3f8936d0	1.0719852
230	0x3e220a7a	0.15824309
231	0x3e8887eb	0.26666197
232	0x3db051ea	0.08609374
233	0x3e1c656c	0.15273064
234	0x3f174ab2	0.5909835
235	0xbfab7715	-1.3395716
236	0x3fed3ad7	1.8533581
237	0xbff82484	-1.9386144
238	0xbf5ffd03	-0.8749544
239	0x3ec77f4d	0.3896431
240	0x3de0d5f4	0.10978308
241	0x3f51a8db	0.8189828
242	0x3fa34028	1.2753954
243	0xbf407ec4	-0.7519343
244	0xbf8e32f0	-1.1109295
245	0xbec36ab6	-0.3816735
246	0xbd53022f	-0.051515754
247	0xbe26e279	-0.1629733
248	0x3efb7cac	0.49118555
249	0xbed5537d	-0.4166526
250	0xbf3e2b93	-0.7428524
251	0x3f971991	1.1804677
252	0xbe1e54dc	-0.15462059
253	0xbf6f23bb	-0.93413895
254	0xbeb6b0de	-0.35681814
255	0x3f5849c7	0.84487575

conv1.weight f4 [64, 64, 5]
0	0xbdfd91ca	-0.12381323
1	0xbd21849c	-0.039433107
2	0x3ca1b978	0.019741759
3	0xbdcc428c	-0.0997363
4	0xbdd29412	-0.102821484
5	0xbe1e5c64	-0.15464932
6	0x3dd8d093	0.105866574
7	0xbe18c4e8	-0.14918864
8	0xbe61969d	-0.2203011
9	0xbe298df4	-0.16558057
10	0x3d75b23d	0.059984434
11	0xbe1f62c8	-0.15565026
12	0x3d092f8e	0.033492617
13	0xbe5b02e2	-0.21387818
14	0xbde9dbdc	-0.11418888
15	0x3cd5a380	0.02607894
16	0xbda320b8	-0.07965225
17	0xbe2070c0	-0.1566801
18	0xbe6738c2	-0.22580245
19	0x3e2b8cae	0.16752884
20	0x3e118c01	0.14213564
21	0xbeb22a58	-0.3479793
22	0xbdbe8a5f	-0.09303736
23	0xbea1b108	-0.31580377
24	0x3da4b318	0.08041972
25	0x3d147a0a	0.036249198
26	0x3da83811	0.08213819
27	0x3e1b5bd2	0.15171745
28	0xbdf59dd3	-0.11992993
29	0xbdbd3056	-0.09237735
30	0x3c5c6d4c	0.013453793
31	0x3d958164	0.0730007
32	0xbdc24477	-0.09485715
33	0xbc480663	-0.012208554
34	0x3e1198bf	0.14218424
35	0xbd3abcdb	-0.045590263
36	0x3e18067b	0.14846222
37	0xbe00b034	-0.12567216
38	0xbd473287	-0.04863217
39	0x3d3a073b	0.04541705
40	0x3ca3dc38	0.02000247
41	0x3e506718	0.20351827
42	0xbd756d0b	-0.059918445
43	0xbda0f756	-0.078596756
44	0xbde607e7	-0.11231976
45	0xbd06e021	-0.03292859
46	0x3e2497c5	0.1607352
47	0x3c9a22e9	0.018815475
48	0xbc43b9aa	-0.011946121
49	0x3e9c0706	0.30474108
50	0xbd262ca6	-0.040569924
51	0x3e65596c	0.22397393
52	0x3d041549	0.03224686
53	0xbd9d9042	-0.076935306
54	0x3d1325e2	0.0359248
55	0x3da25623	0.079265855
56	0xbdaa1e6c	-0.08306584
57	0xbcacee62	-0.021109764
58	0x3e81a2e4	0.25319588
59	0x3d6a610b	0.057221454
60	0xbd8f8e1c	-0.07009527
61	0xbe232564	-0.15932232
62	0xbceedfe2	-0.02915949
63	0x3b4e2020	0.0031452253
64	0xbe7ad24f	-0.24494289
65	0x3d964da3	0.07339027
66	0xbd185348	-0.0371888
67	0x3daaf7ad	0.08348022
68	0x3e441c6c	0.19151467
69	0xbdb6e558	-0.089304626
70	0x3beaeef3	0.0071695982
71	0x3e460f33	0.19341736
72	0xbdd666bc	-0.10468814
73	0x3de2623f	0.11053895
74	0x3e0b737f	0.13618277
75	0x3d3c844d	0.04602461
76	0xbdc75d93	-0.09734645
77	0x3defe736	0.11714022
78	0x3cbc4cce	0.022985842
79	0x3cfb5981	0.030682327
80	0xbd2bb32b	-0.041918915
81	0x3c07a4f4	0.008279074
82	0xbc716134	-0.014732648
83	0x3e09098c	0.13382548
84	0xbdacfffa	-0.08447261
85	0xbdfdfe2d	-0.12401996
86	0xbc3f7c4f	-0.011687352
87	0x3c8a334c	0.016870163
88	0xbd3f3cfd	-0.046689022
89	0x3c2ed33e	0.010670481
90	0x3ddeda00	0.10881424
91	0xbde73ed4	-0.112912804
92	0xbcc3bef6	-0.023894768
93	0x3b6d8b37	0.0036246309
94	0x3c9a0867	0.018802835
95	0xbe3fa20b	-0.18714158
96	0xbda8241d	-0.08210013
97	0x3e8356cb	0.25652155
98	0x3db7dccc	0.089776605
99	0x3ea298e7	0.3175728
100	0x3e049189	0.12946142
101	0x3d9a01f9	0.075199075
102	0x3e2d3b81	0.1691723
103	0xbe39cb88	-0.18144047
104	0xbde3b9b8	-0.111194074
105	0x3e6a6943	0.22891717
106	0xbbc6ca2f	-0.0060665826
107	0xbeb3ad79	-0.35093287
108	0x3e6f4b1f	0.233685
109	0xbd877c60	-0.066155195
110	0x3d07e8c4	0.033180967
111	0x3c710aca	0.014712045
112	0x3e7edc20	0.24888659
113	0xbe3df569	-0.18550648
114	0x3c27d6a7	0.010244048
115	0xbd2c509c	-0.042069063
116	0xbe17b403	-0.14814763
117	0x3d0c1067	0.03419533
118	0x3d8864d2	0.06659855
119	0x3e2e9ec1	0.17052747
120	0xbd0148e7	-0.031563666
121	0xbe08e094	-0.1336692
122	0xbbf59130	-0.0074941143
123	0x3e3bcfee	0.18341038
124	0xbb3e4e85	-0.00290385
125	0xbdd3a872	-0.10334863
126	0x3e2a246d	0.16615458
127	0xbd54b789	-0.051932845
128	0xbdb377ba	-0.087630704
129	0x3c5eb788	0.013593562
130	0xbd2713fe	-0.04079055
131	0x3d60fae9	0.054926787
132	0xbe270f0e	-0.16314337
133	0xbe0621b0	-0.13098788
134	0x3e14c3d2	0.14527825
135	0xbd97d4e4	-0.074136525
136	0xbec2175a	-0.3790844
137	0xbe32e5fe	-0.17470548
138	0xbdc72c2a	-0.097252205
139	0xbe0861fd	-0.1331863
140	0x3d8d2eab	0.06893667
141	0x3e25e9f4	0.16202527
142	0x3d1d2466	0.03836479
143	0xbd55843c	-0.05212806
144	0xbddc8eb2	-0.107694045
145	0x3d99fdb3	0.075190924
146	0xbe69a369	-0.22816242
147	0xbe5503e1	-0.20802261
148	0xbe05d2eb	-0.1306874
149	0xbe81a436	-0.25320596
150	0xbd65ac80	-0.056072712
151	0xbdd97104	-0.10617259
152	0xbe4a4343	-0.19752221
153	0xbe1cf2cf	-0.15326999
154	0xbda49830	-0.0803684
155	0xbdc58eb9	-0.09646363
156	0x3e2565e5	0.16152151
157	0xbdcb18d6	-0.099168465
158	0xbe8a8fc5	-0.27062812
159	0xbdc4b65a	-0.09605093
160	0xbd23efb4	-0.04002352
161	0xbe1e2986	-0.15445527
162	0x3db5afbf	0.088714115
163	0x3e82ba08	0.25532556
164	0x3b21b3c6	0.0024673804
165	0xbe0a89f0	-0.13529181
166	0xbdea3b56	-0.11437099
167	0xbe67f88b	-0.22653405
168	0x3da468bd	0.0802779
169	0xbdf9c39a	-0.12195511
170	0x3d5f74fe	0.05455493
171	0xbd20ce89	-0.039259467
172	0x3d6fe96d	0.05857222
173	0x3e0a4ce5	0.13505895
174	0x3e886909	0.26642635
175	0x3da2e30b	0.07953461
176	0xbdd198fc	-0.102342576
177	0xbdd2fdf0	-0.10302341
178	0x3e819d0e	0.25315136
179	0xbd8468df	-0.06465315
180	0x3c045835	0.008077671
181	0x3e2806a8	0.16408789
182	0xbd51a7f6	-0.05118557
183	0x3d954f4f	0.072905175
184	0x3e54d4c8	0.20784295
185	0x3e2726bb	0.16323368
186	0x3d723928	0.05913654
187	0x3da5c89e	0.08094905
188	0xbd670907	-0.056405094
189	0xbe806259	-0.25075033
190	0x3d923ce4	0.0714052
191	0x3d8c39d8	0.0684697
192	0x3e61e426	0.22059688
193	0x3e088d56	0.13335165
194	0xbca055bc	-0.019572131
195	0xbe110300	-0.141613
196	0x3e3fd56c	0.18733758
197	0xbdb466a2	-0.08808638
198	0xbda5daad	-0.0809835
199	0x3e973eab	0.2954
200	0x3db2a1b4	0.08722249
201	0xbe2903d2	-0.16505364
202	0x3e140747	0.14455901
203	0x3d8b3b28	0.067983925
204	0x3d3e5add	0.046473373
205	0xbdd7469c	-0.105115145
206	0x3dbdd607	0.09269338
207	0x3df58cee	0.11989771
208	0xbe9b7b9d	-0.30367747
209	0xbdd64bed	-0.104637004
210	0xbd115920	-0.035485387
211	0xbe168b57	-0.14701591
212	0xbda640c2	-0.0811782
213	0xbc026379	-0.007958286
214	0xbe542099	-0.2071556
215	0xbd65e272	-0.05612416
216	0x3e58d17e	0.21173665
217	0xbe473640	-0.19454288
218	0xbc39e5a6	-0.011346256
219	0x3d0837db	0.033256393
220	0xbca98f1a	-0.020698119
221	0x3e4dba5a	0.20090619
222	0x3d8608c9	0.065446444
223	0x3e0adb44	0.13560206
224	0x3d39e787	0.045386817
225	0x3a9e2329	0.0012064922
226	0xbd513aef	-0.051081594
227	0xbe4d0fd1	-0.20025565
228	0xbe1e5914	-0.15463668
229	0x3d06a1a0	0.03286898
230	0x3db82818	0.08992022
231	0x3e3c30a2	0.18377927
232	0x3ce91f82	0.028457407
233	0xbdd46913	-0.10371604
234	0x3e9bc6c0	0.30425072
235	0xbe15f780	-0.14645195
236	0xbd4cc0c0	-0.04998851
237	0xbc2ca201	-0.010536672
238	0x3e02e363	0.12782054
239	0x3c0b3302	0.008496048
240	0xbcd4846b	-0.025942048
241	0xbcba805d	-0.022766287
242	0x3c2c0c1c	0.010500934
243	0xbe053483	-0.13008313
244	0xbc4b3a7f	-0.012404083
245	0x3e800297	0.25001976
246	0xbc6d155e	-0.014470426
247	0x3dd2baaf	0.10289513
248	0xbe2b74b2	-0.16743734
249	0xbddd46c7	-0.10804515
250	0x3cbd359a	0.023096848
251	0x3d2183f8	0.039432496
252	0x3dbcf77b	0.09226891
253	0x3d8cee7b	0.06881424
254	0xbe403085	-0.18768509
255	0x3d5cf933	0.053948592

conv1.bias f4 [64]
0	0xbdd017a8	-0.10160762
1	0xbdb0b7a6	-0.08628778
2	0xbdad2b23	-0.08455493
3	0xbb8b010b	-0.0042420677
4	0xbe368420	-0.17823839
5	0xbe5ea81a	-0.21743813
6	0xbde9cf0f	-0.114164464
7	0xbddb90dd	-0.1072099
8	0xbd27d5a8	-0.040975243
9	0xbe270170	-0.16309142
10	0xbe6ca868	-0.23111117
11	0xbe090d86	-0.13384065
12	0xbc9819ef	-0.018567054
13	0x3bdeb262	0.006796167
14	0xbdd7b76f	-0.10533034
15	0xbe3bf443	-0.18354897
16	0xbe11fb95	-0.14256127
17	0xbe4f3407	-0.2023469
18	0xbe7006e3	-0.23440127
19	0xbe449c2b	-0.19200198
20	0xbe5b70ec	-0.21429795
21	0xbe9a0a91	-0.30086187
22	0xbe033615	-0.128136
23	0xbe1df4d2	-0.15425423
24	0x3dc4e964	0.09614828
25	0xbe200f78	-0.15630901
26	0x3c219d12	0.009864109
27	0xbe3495db	-0.1763529
28	0xbe69ae45	-0.22820385
29	0xbe2fcaef	-0.17167257
30	0xbe30ad9b	-0.17253725
31	0xbe278d27	-0.16362439
32	0xbcdf733c	-0.027276628
33	0xbd5a760a	-0.053335227
34	0xbe10d1bf	-0.14142512
35	0xbdcda821	-0.10041834
36	0xbe4b3874	-0.19845754
37	0xbe3f3aa0	-0.18674707
38	0x3cab5f0b	0.020919343
39	0xbe1f2c84	-0.15544325
40	0xbe1c1fc1	-0.15246488
41	0xbdc885ed	-0.09791169
42	0xbe204069	-0.1564957
43	0xbe737b08	-0.23777401
44	0xbddb8cd4	-0.1072022
45	0xbe0fc0dc	-0.14038414
46	0xbde3de1f	-0.111263506
47	0xbe440acb	-0.19144742
48	0xbe13ce2f	-0.14434122
49	0xbdf9093b	-0.12159964
50	0xbdb68d68	-0.0891369
51	0xbe5562f3	-0.20838527
52	0xbe2e5a2c	-0.17026585
53	0xbdc089c8	-0.0940128
54	0xbe81b7c2	-0.2533551
55	0x3e272bdb	0.16325323
56	0xbe753bba	-0.23948565
57	0x3d991d1f	0.074762575
58	0xbde1d2bf	-0.11026525
59	0xbe674ce9	-0.22587933
60	0xbddd5f3c	-0.1080918
61	0xbeb13e2a	-0.3461774
62	0xbe7c1ac3	-0.24619584
63	0x3d47b64b	0.048757832

conv2.weight f4 [64, 64, 3]
0	0x3e2908d9	0.16507281
1	0xbe679f3d	-0.22619338
2	0x3da2cc77	0.07949155
3	0xbdf1c7ec	-0.1180571
4	0x3e1700ad	0.14746352
5	0x3d2a6fb3	0.04161043
6	0x3d7a3f5b	0.061095577
7	0x3e5218cc	0.20517272
8	0xbd5dfa0e	-0.05419355
9	0x3b4e265c	0.003145597
10	0x3e32bcab	0.17454784
11	0x3cc41a36	0.02393828
12	0x3e10cd55	0.14140828
13	0x3de297f3	0.11064138
14	0x3caa61a6	0.020798516
15	0x3d23baad	0.03997295
16	0xbe4cb553	-0.19991045
17	0x3c901913	0.017590081
18	0x3daa339f	0.08310627
19	0x3e296f36	0.1654633
20	0x3d5bc32c	0.053652927
21	0xbd2f6c09	-0.04282764
22	0x3e35ba45	0.17746837
23	0x3e18ba0c	0.14914721
24	0x3cd45477	0.025919182
25	0xbe8b385e	-0.27191442
26	0x3ce46892	0.027881894
27	0xbe37493e	-0.17899033
28	0xbda7abac	-0.08187041
29	0x3d9c0a30	0.076191306
30	0xbcd0f0a5	-0.025505373
31	0x3da1627a	0.07880111
32	0xbd6e2187	-0.058137443
33	0x3d53f2d9	0.05174527
34	0x3d606da4	0.05479206
35	0xbcb6d0d1	-0.022316368
36	0xbdd53efc	-0.10412404
37	0xbd3118ba	-0.04323647
38	0xbdac9fd8	-0.08428925
39	0xbd2f7029	-0.042831574
40	0xbe0dc078	-0.13842952
41	0xbe092d9b	-0.13396303
42	0x3c62e7fc	0.013849255
43	0xbd7bf66e	-0.06151431
44	0xbc36011d	-0.011108664
45	0xbcb2455f	-0.021761594
46	0xbcb1b106	-0.021690857
47	0x3da1d0ae	0.079011306
48	0xbd24990e	-0.040185027
49	0x3d09407b	0.03350876
50	0xbe07227c	-0.13196748
51	0xbe74727f	-0.23871802
52	0x3c605c8d	0.013693941
53	0xbd827b51	-0.06371177
54	0xbd852d43	-0.065027736
55	0xbe5492fb	-0.20759194
56	0x3e00abb4	0.125655
57	0xbd86187b	-0.06547638
58	0xbc1cadd2	-0.009562926
59	0x3d0e6ccc	0.034771726
60	0xbdc9d679	-0.098553605
61	0xbe232472	-0.15931872
62	0x3e127f60	0.14306402
63	0x3cad7c8e	0.021177556
64	0xbd008d6e	-0.031384878
65	0xbc7a6190	-0.01528205
66	0xbe3ca5ad	-0.18422575
67	0x3d5387ad	0.051643062
68	0xbdcb5bf0	-0.09929645
69	0xbcb0235e	-0.02150124
70	0xbe5f67d3	-0.2181695
71	0xbbeac8cb	-0.0071650497
72	0x3da47cb1	0.080315955
73	0x3d747f66	0.05969181
74	0x3da0effd	0.07858274
75	0xbd4a88bb	-0.049446803
76	0x3e68ea64	0.22745663
77	0x3dbe94ff	0.093057625
78	0x3e141f67	0.14465104
79	0x3da26c0e	0.07930766
80	0x3d9dd063	0.07705762
81	0x3de1409a	0.1099865
82	0x3be57aa2	0.0070031444
83	0xbde85b66	-0.11345558
84	0x3d04a8d1	0.03238756
85	0xbe4542b8	-0.19263732
86	0xbe144644	-0.14479929
87	0x3e1ad202	0.15119174
88	0x3e02be9e	0.12768027
89	0xbe103877	-0.1408404
90	0xbcb4dc6d	-0.022077763
91	0x3dc735f2	0.09727086
92	0xbdb01e96	-0.08599584
93	0x3d4d67e5	0.05014791
94	0xbdba968b	-0.09110745
95	0x3d27d116	0.040970884
96	0xbd5deced	-0.05418103
97	0x3ca05f35	0.019576648
98	0x3dd8737e	0.105689034
99	0x3dcec1d0	0.100955606
100	0x3dfaad6b	0.12240108
101	0x3c8a1338	0.016854867
102	0x3d8dbccc	0.06920776
103	0x3df4bc1d	0.11949942
104	0xbd5ac590	-0.053411067
105	0xbd5b0432	-0.053470798
106	0x3d4c3f6c	0.04986517
107	0x3d858721	0.065199144
108	0x3dcf6747	0.101271205
109	0x3e818017	0.25293037
110	0x3bc01ac0	0.005862564
111	0xbd97bb2c	-0.07408747
112	0x3e33eb68	0.17570269
113	0xbde2fea3	-0.11083724
114	0xbdc0a9da	-0.094073966
115	0xbc3545a3	-0.011063966
116	0x3e233585	0.15938385
117	0x3ccdf561	0.02514142
118	0x3e1a1607	0.15047465
119	0x3d6e7a4f	0.05822211
120	0x3d8ee9a0	0.06978154
121	0x3d8afc37	0.067863874
122	0xbd8a59d9	-0.06755418
123	0x3cb2b691	0.02181557
124	0x3d19b55a	0.037526466
125	0x3dee8375	0.11646167
126	0x3d210db5	0.039319713
127	0xbe1ebb54	-0.15501148
128	0xbc77568c	-0.015096318
129	0xbd8c778a	-0.06858738
130	0x3d22cd19	0.039746378
131	0xbe1d8a9a	-0.15384904
132	0xbe24823a	-0.16065302
133	0xbe505c57	-0.20347725
134	0x3d8a681a	0.06758137
135	0x3c308f3a	0.010776335
136	0xbd74314c	-0.059617326
137	0xbe113630	-0.14180827
138	0x3dac3da9	0.08410198
139	0xbe41ce0f	-0.18926261
140	0xbbfc56a0	-0.007700756
141	0xbdb990da	-0.09060831
142	0xbc4cb66c	-0.012494665
143	0x3daf5a08	0.08562094
144	0x3d917f76	0.07104389
145	0xbe97d4bf	-0.296545
146	0x3e1f0c71	0.1553209
147	0xbdbd5201	-0.09244157
148	0xbe6a56f7	-0.22884737
149	0xbcaaea97	-0.020863814
150	0xbd769163	-0.060197245
151	0x3dbe540d	0.09293375
152	0xbc27d706	-0.010244137
153	0xbd1a7858	-0.037712425
154	0xbd685453	-0.056721043
155	0xbc36dfb4	-0.011161733
156	0x3c838d27	0.016058518
157	0xbd0715de	-0.03297984
158	0x3e252af8	0.16129673
159	0xbe144f2a	-0.14483324
160	0x3e4101e3	0.18848376
161	0xbe21c778	-0.15798748
162	0xbe480db3	-0.19536476
163	0x3ec0d3c1	0.37661555
164	0xbe453c03	-0.19261174
165	0x3dd39192	0.103305
166	0xbe13f913	-0.14450483
167	0x3e9186d7	0.28423187
168	0xbd3ae8b0	-0.045632064
169	0x3e69f24c	0.22846335
170	0xbc46b683	-0.012128475
171	0xbd904d36	-0.07045977
172	0xbdfda769	-0.123854466
173	0xbded8605	-0.11597828
174	0x3da710d7	0.08157509
175	0x3e344397	0.17603908
176	0x3d54163a	0.05177901
177	0x3d2edefb	0.04269312
178	0x3da24792	0.07923807
179	0xbd970bd8	-0.07375306
180	0xbd8abc6d	-0.067742206
181	0x3cb0eadb	0.021596363
182	0xbd4fb0b0	-0.05070561
183	0xbd55c5fd	-0.05219077
184	0x3dcd4dde	0.100246176
185	0xbe0853bb	-0.1331319
186	0xbcb2b7d1	-0.021816166
187	0xbe5bcacc	-0.2146408
188	0x3db46be2	0.088096395
189	0xbd96512d	-0.07339702
190	0x3e5f2883	0.21792798
191	0xbd95c78a	-0.0731345
192	0x3e0d5375	0.13801368
193	0xbdaa0e61	-0.08303524
194	0x3d60c7ca	0.054878034
195	0xbd90687d	-0.070511796
196	0xbd676e7d	-0.056501854
197	0xbe5e390a	-0.21701446
198	0x3d1b4a6f	0.037912782
199	0xbd971c93	-0.07378497
200	0x3e3cd19b	0.18439333
201	0x3f02da02	0.51113904
202	0xbcbcca66	-0.02304573
203	0xbb87f3ed	-0.0041489513
204	0xbe9a7489	-0.30167034
205	0x3e01ddec	0.12682313
206	0xbde68cf2	-0.11257352
207	0xbe79417f	-0.24341391
208	0x3d0e019e	0.03466951
209	0x3d8d962d	0.069134094
210	0x3dcb6ddf	0.099330656
211	0x3e05147e	0.12996098
212	0xbc422089	-0.011848577
213	0xbe8c58d0	-0.2741151
214	0xbd96c1fb	-0.073612176
215	0xbe92cb27	-0.28670618
216	0xbe84b0a5	-0.2591602
217	0x3db08d62	0.08620717
218	0x3d3baee6	0.045821093
219	0x3d3c9bc4	0.046046987
220	0xbe5e799c	-0.21726078
221	0x3d8ef325	0.0697997
222	0xbe5320c5	-0.2061797
223	0x3d87fe9c	0.0664036
224	0x3d2821b8	0.04104778
225	0x3f4a1429	0.7893701
226	0xbd42e92a	-0.047585644
227	0x3db5bd6c	0.0887402
228	0x3c8755fe	0.016520496
229	0xbe82f6a5	-0.255788
230	0xbe733b15	-0.23753007
231	0xbe2226a2	-0.1583505
232	0x3cf58551	0.029970797
233	0xbe99c092	-0.30029732
234	0xbd8ec46c	-0.06971058
235	0x3c460fbc	0.012088712
236	0x3e7ef621	0.24898578
237	0xbe1591b4	-0.14606363
238	0x3e3f3042	0.18670753
239	0x3dd88b5e	0.10573457
240	0x3c37a928	0.011209764
241	0x3e2c915f	0.1685233
242	0x3e42cf3d	0.19024368
243	0xbe5c0d1c	-0.21489376
244	0x3d0bc4ab	0.034123104
245	0xbe79a333	-0.24378662
246	0xbec7516a	-0.38929302
247	0xbd68558f	-0.05672222
248	0x3db5b868	0.08873063
249	0x3e67b9e5	0.22629507
250	0x3dfc0930	0.1230644
251	0x3e662bd3	0.22477655
252	0xbd9206f6	-0.07130234
253	0x3dba5cd0	0.09099734
254	0x3d6cd277	0.057817902
255	0x3e3380ef	0.17529653

conv2.bias f4 [64]
0	0xbe11ea06	-0.14249429
1	0xbe2d1a67	-0.16904603
2	0xbe1dcecc	-0.15410918
3	0xbb519b2b	-0.0031983356
4	0xbe846524	-0.25858414
5	0xbd5b8cba	-0.053601004
6	0xbe937ace	-0.2880463
7	0xbe3b16f8	-0.1827048
8	0xbdd12fbe	-0.10214184
9	0xbcd01ff1	-0.025405856
10	0x3d77c0bf	0.06048655
11	0xbd92300f	-0.07138073
12	0xbe96a9e4	-0.2942649
13	0xbe20a495	-0.15687783
14	0xbe292f2e	-0.16521904
15	0x3d83e6d0	0.06440508
16	0xbe448736	-0.19192204
17	0xbe1e4f32	-0.15459898
18	0xbe7db951	-0.24777724
19	0xbe85d191	-0.2613645
20	0xbe419dda	-0.18907872
21	0xbe32e168	-0.17468798
22	0xbe1d7aab	-0.15378825
23	0xbe9d410f	-0.30713698
24	0xbcc1c89b	-0.023655226
25	0xbd2ae286	-0.041719936
26	0x3c508f6c	0.012729507
27	0xbe66575c	-0.22494262
28	0xbe05de40	-0.13073063
29	0xbde5a9d7	-0.11214035
30	0xbe2b33d2	-0.16718987
31	0xbe3fa472	-0.18715075
32	0x3e0fecf5	0.14055236
33	0x3d1b0e8b	0.037855666
34	0xbe025417	-0.1272739
35	0xbdb44bf5	-0.0880355
36	0xbd5beb5a	-0.053691246
37	0x3dcc4cea	0.09975608
38	0xbe191670	-0.14949965
39	0xbde402e7	-0.11133366
40	0xbdb7d287	-0.08975702
41	0x3d1ba5bd	0.037999857
42	0xbc48509f	-0.012226253
43	0xbe8047ea	-0.25054866
44	0xbd3504d3	-0.044194054
45	0xbe620f4a	-0.22076145
46	0x3d40fbe1	0.04711521
47	0xbd85cb16	-0.06532876
48	0x3cbbfc9d	0.022947604
49	0xbeb08be3	-0.34481725
50	0xbdecec3b	-0.11568495
51	0xbe928c47	-0.28622648
52	0xbea3b176	-0.3197133
53	0xbe772643	-0.2413569
54	0xbe0ff224	-0.14057213
55	0xbea5f8ed	-0.32416478
56	0xbd61cb41	-0.05512548
57	0x3d312e40	0.043256998
58	0xbe4d2168	-0.20032275
59	0x3c09710d	0.00838877
60	0xbe1b5501	-0.15169145
61	0xbe3b7840	-0.1830759
62	0xbe1220d9	-0.14270343
63	0xbe411a00	-0.18857574

conv3.weight f4 [256, 128, 5]
0	0x3d2dec3e	0.042461626
1	0xbd924fe7	-0.071441464
2	0xbe33f503	-0.17573933
3	0xbe25869a	-0.16164628
4	0x3de6aeb3	0.1126379
5	0xbdd42d95	-0.103602566
6	0xbd934d25	-0.071924485
7	0xbcb5ed02	-0.02220774
8	0xbe055eaf	-0.130244
9	0xbdac8ca6	-0.08425264
10	0xbda0b1a1	-0.0784638
11	0xbd9d0e67	-0.07668763
12	0xbe194797	-0.14968716
13	0x3dac9e1f	0.08428597
14	0xbc546d76	-0.012965551
15	0x3c6ef875	0.014585604
16	0xbc4e1cc5	-0.012580101
17	0xbdfa8e20	-0.122341394
18	0xbe1b6582	-0.15175441
19	0xbd3bd68b	-0.0458589
20	0x3d2c72db	0.042101722
21	0xbcf9aa6e	-0.030476775
22	0xbddc8223	-0.10767009
23	0xbc1f01bd	-0.009705004
24	0x3d07b89b	0.033135038
25	0xbb12b0e7	-0.0022383274
26	0xbe2b64ea	-0.16737714
27	0xbc944476	-0.018099051
28	0xbde56a31	-0.11201895
29	0xbe827921	-0.2548304
30	0x3c18a833	0.009317446
31	0xbc908b35	-0.017644504
32	0x3e08b1ad	0.13349028
33	0x3cb62bff	0.022237776
34	0xbe114ca4	-0.14189392
35	0xbe3d6701	-0.18496324
36	0xbce58b81	-0.028020622
37	0x3d1d9555	0.038472492
38	0xbd508219	-0.05090532
39	0xbd896c26	-0.06710081
40	0xbd19d85e	-0.03755986
41	0xbdf260b4	-0.11834851
42	0xbd8fab9b	-0.07015153
43	0xbd1bc89d	-0.038033117
44	0xbd355c96	-0.04427775
45	0x3ce935aa	0.028467972
46	0xbd2a6dbe	-0.041608565
47	0x3d47a785	0.048743743
48	0xbd92f29b	-0.071751796
49	0x3e49675f	0.19668339
50	0xbe096816	-0.13418612
51	0x3af74af8	0.0018866947
52	0x3d3d8940	0.04627347
53	0x3d54b2e3	0.051928412
54	0xbdc68ad3	-0.09694447
55	0x3dc5d289	0.09659297
56	0x3d41a1c6	0.04727342
57	0xbd96c5fe	-0.07361983
58	0xbe1f9f32	-0.15588072
59	0xbe3e8053	-0.1860364
60	0xbdb79f81	-0.0896597
61	0xbce76517	-0.028246446
62	0xbd94f0a5	-0.07272462
63	0xbdd51a11	-0.104053624
64	0x3da42bf5	0.08016197
65	0xbe1470ff	-0.1449623
66	0xbc3c0939	-0.011476808
67	0xbd4c37b7	-0.04985782
68	0xbd8c652f	-0.06855237
69	0xbe1b4bb0	-0.15165591
70	0x3cd2ef4a	0.025748868
71	0x3d1c5b9c	0.038173303
72	0x3e349790	0.17635942
73	0xbd2b1fb8	-0.041778296
74	0xbc0f80d6	-0.008758744
75	0xbdabb07e	-0.083832726
76	0x3db479ad	0.0881227
77	0xbd4e041e	-0.050296895
78	0xbdb0d306	-0.086339995
79	0xbdce2438	-0.10065502
80	0x3de1f4a3	0.11032989
81	0xbd752e43	-0.05985857
82	0xbe0e5e24	-0.139031
83	0xbdebeb30	-0.11519468
84	0x3e13f062	0.14447168
85	0xbc8bc0fe	-0.0170598
86	0x3dce33e0	0.10068488
87	0xbd2b6e6c	-0.041853353
88	0x3d60c26e	0.054872923
89	0xbdfc1348	-0.12308365
90	0xbd3e2b90	-0.046428263
91	0xbcabbff9	-0.020965563
92	0xbdaeda77	-0.085377626
93	0xbd32a902	-0.04361821
94	0xbc3a5661	-0.011373133
95	0xbd3a5932	-0.04549522
96	0x3e2fa7f9	0.1715392
97	0xbd371e3c	-0.044706568
98	0xbda8db8f	-0.082450025
99	0xbe3648be	-0.17801186
100	0x3d257e56	0.040403686
101	0xbd3035db	-0.04302011
102	0x3dfd68a5	0.12373475
103	0x3d26526a	0.04060594
104	0x3e0c47bb	0.13699238
105	0x3db681ee	0.08911501
106	0x3db4a466	0.08820419
107	0xbd44ae25	-0.04801764
108	0x3de2a2f2	0.110662356
109	0x3e345388	0.1760999
110	0x3dd6f1f7	0.1049537
111	0xbc9e3dd0	-0.019316584
112	0xbd4b20f2	-0.049591966
113	0xbe7a1ce4	-0.24425083
114	0xbe859b25	-0.26094928
115	0xbc90af61	-0.017661752
116	0x3d8fcf91	0.07022012
117	0x3bcc1020	0.006227508
118	0x3d02a28f	0.03189331
119	0xbe457edc	-0.19286674
120	0xbd21cdc4	-0.039502874
121	0xbe123df2	-0.14281443
122	0xbc48bc3d	-0.012251911
123	0xbda1bdcd	-0.0789753
124	0xbe17166a	-0.14754644
125	0x3d214348	0.039370805
126	0x3c8774fe	0.016535278
127	0xbde38c3e	-0.111107334
128	0xbcce10e5	-0.02515454
129	0x3d5d27bc	0.05399297
130	0xbd19054d	-0.03735857
131	0xbe15fef0	-0.14648032
132	0x3dd5dfb4	0.104430586
133	0xbda89a22	-0.082325235
134	0xbdea6e9c	-0.11446878
135	0xbd74138d	-0.059588958
136	0xbe1dd83c	-0.15414518
137	0xbdba2c32	-0.09090461
138	0xbe4f4f85	-0.20245178
139	0x3db3443e	0.087532505
140	0x3e384b90	0.17997575
141	0xbdbc1e90	-0.09185517
142	0x3ca008f6	0.019535523
143	0xbd8b4eeb	-0.06802162
144	0x3d83bf0b	0.06432923
145	0x3cb10a41	0.021611335
146	0xbd40ac79	-0.047039483
147	0xbe0c5c5c	-0.13707107
148	0x3d8e0b94	0.06935802
149	0xbd071c87	-0.03298619
150	0xbcbcebba	-0.023061622
151	0x3d3b89cb	0.045785706
152	0xbe090616	-0.13381228
153	0xbe0e6b43	-0.13908105
154	0xbde2e629	-0.11079056
155	0x3d0663f0	0.03281015
156	0x3dcffac9	0.10155255
157	0x3bdd935e	0.0067619523
158	0xbde1a245	-0.110172786
159	0xbd8f773f	-0.07005166
160	0xbe2666e0	-0.16250181
161	0x3d2252d1	0.03962976
162	0x3dc7a9b7	0.097491674
163	0xbdeafcd7	-0.114740066
164	0xbd6a3df8	-0.057188004
165	0xbd57aea6	-0.052656792
166	0xbd5de6a3	-0.05417503
167	0xbde6ed5a	-0.1127574
168	0xbe5f304f	-0.21795772
169	0xbe374066	-0.1789566
170	0x3d381110	0.044938147
171	0xbe178ce3	-0.14799838
172	0xbb9790c0	-0.00462541
173	0x3cf0c4f1	0.029390784
174	0xbdd94703	-0.106092475
175	0x3d98afda	0.07455416
176	0xbdf30843	-0.1186681
177	0xbce70d72	-0.028204653
178	0xbdabb232	-0.083835974
179	0xbe667ad5	-0.22507794
180	0x3e0b750a	0.13618866
181	0x3d11d143	0.03559996
182	0xbe1856c8	-0.14876854
183	0xbe6446ef	-0.22292684
184	0xbd0d7a11	-0.03454024
185	0xbcd7e604	-0.026354797
186	0xbde20e93	-0.11037936
187	0xbc009665	-0.007848357
188	0x3ded5002	0.11587526
189	0xbe171b2b	-0.14756458
190	0xbdd70e6b	-0.10500797
191	0xbd58af8b	-0.052901786
192	0xbd860fdb	-0.06545993
193	0xbda63264	-0.0811508
194	0xbc696b80	-0.014246821
195	0xbd85b8fc	-0.065294236
196	0xbcbb6221	-0.02287394
197	0xbdc1de55	-0.094662346
198	0x3d6ecdfc	0.05830191
199	0x3c8e3356	0.017358463
200	0x3d654633	0.05597515
201	0x3dbf4ff6	0.09341423
202	0xbd205f6e	-0.03915351
203	0x3a1eee35	0.00060627173
204	0xbd6c387c	-0.057671055
205	0x3d66c558	0.056340545
206	0x3e4c3f2b	0.19945972
207	0x3df78284	0.12085441
208	0xbe1507d6	-0.1455377
209	0x3de87355	0.11350123
210	0xbd9d73b3	-0.076880835
211	0xbd6ff248	-0.058580667
212	0xbe68cf92	-0.22735432
213	0xbd99b120	-0.07504487
214	0xbd8545da	-0.06507464
215	0x3c5a417e	0.013321279
216	0xbb504ddb	-0.0031784687
217	0xbdc67729	-0.09690697
218	0x3e112bb3	0.14176826
219	0xbe3d5af4	-0.18491727
220	0x3dca548e	0.09879409
221	0x3dac474a	0.08412035
222	0x3e2ccceb	0.16875045
223	0x3d93a390	0.072089314
224	0xbd996686	-0.07490258
225	0x3dae80c1	0.085206516
226	0xbdea3249	-0.114353724
227	0x3c8b183b	0.016979327
228	0xbd442ba7	-0.047893193
229	0x3e2bbb6b	0.16770713
230	0x3e0da107	0.13830958
231	0xbd52258a	-0.05130533
232	0xbdb9f01e	-0.09079002
233	0xbd5f0eb5	-0.054457385
234	0xbc92d9d8	-0.017926142
235	0x3d889188	0.06668383
236	0xbd4abefd	-0.049498547
237	0xbd9ae1f6	-0.0756263
238	0xbd95901a	-0.07302876
239	0xbe08d6e7	-0.13363229
240	0x3e09e8f3	0.1346777
241	0xbc87d4cf	-0.016580967
242	0x3cf36e4c	0.02971568
243	0xbdbca534	-0.092111975
244	0x3dfd959f	0.123820536
245	0x3d0604d0	0.032719433
246	0xbe31b8d0	-0.17355657
247	0xbcc4b9a3	-0.0240143
248	0xbda1950a	-0.07889755
249	0x3db52bbf	0.088462345
250	0xbc28285d	-0.01026353
251	0xbe4817a2	-0.19540265
252	0xbe1fd31f	-0.1560788
253	0x3d97cca9	0.07412083
254	0x3b29c4f6	0.0025904751
255	0x3e7ef4a3	0.24898009

conv3.bias f4 [256]
0	0xbdabe841	-0.08393908
1	0xbd90428d	-0.070439436
2	0x3da2e9f5	0.0795478
3	0xbd4655b5	-0.04842158
4	0xbe5608b4	-0.20901757
5	0xbec37307	-0.38173696
6	0xbe0d0c08	-0.13774121
7	0xbe1e4e85	-0.1545964
8	0xbe54605f	-0.20739888
9	0xbe2439a2	-0.1603761
10	0x3d42c4c2	0.047550924
11	0x3dc0ae10	0.094082
12	0x3d4b9af6	0.04970833
13	0x3eacbfec	0.33740175
14	0xbea576d7	-0.3231723
15	0xbe0d4497	-0.13795696
16	0x3d9b12e9	0.07571966
17	0x3e824456	0.2544276
18	0xbdfa7b42	-0.12230541
19	0x3e284a4c	0.16434592
20	0xbe4c710b	-0.19964997
21	0xbe9ee915	-0.31037202
22	0xbc07f2e1	-0.008297653
23	0xbe4fe488	-0.20302022
24	0xbd734964	-0.059396163
25	0xbe3319e1	-0.17490341
26	0xbe806ba4	-0.25082123
27	0xbdebb444	-0.11508992
28	0xbe1d5217	-0.15363346
29	0xbe443ed8	-0.19164598
30	0xbe55b0a5	-0.20868166
31	0x3d23304a	0.039840974
32	0xbda369a2	-0.07979132
33	0xbd94de54	-0.07268968
34	0xbe12b993	-0.14328603
35	0xbcb88446	-0.02252401
36	0xbcc3f0a4	-0.023918457
37	0xbe3b7306	-0.18305597
38	0xbe1c1c2d	-0.15245123
39	0x3d23d2de	0.03999602
40	0xbd752fd9	-0.059860084
41	0x3e8c30a0	0.27380848
42	0xbdceb06d	-0.10092244
43	0xbccf2084	-0.02528406
44	0xbcbe7880	-0.023250818
45	0x3bca3c85	0.0061717653
46	0xbe08eb8d	-0.13371105
47	0x3d99f4f2	0.07517423
48	0xbd0fa884	-0.03507282
49	0x3e2b2f0d	0.16717167
50	0xbe88fb9d	-0.26754466
51	0xbeab3c5f	-0.33444497
52	0xbd052cbc	-0.032513365
53	0xbc36af5c	-0.011150207
54	0x3d4bd741	0.04976583
55	0xbb6359ee	-0.0034691053
56	0x3dac9bd4	0.08428159
57	0x3d7614dd	0.06007849
58	0xbea27ea3	-0.3173724
59	0xbcd4bd46	-0.025969159
60	0xbd2f8421	-0.042850617
61	0xbde8fb0c	-0.113760084
62	0xbe025402	-0.12727359
63	0x3da41bdb	0.080131255
64	0xbe262e11	-0.1622851
65	0x3de0ce51	0.10976852
66	0xbd0192e2	-0.03163422
67	0xbe3225b1	-0.1739719
68	0x3ec8c4c3	0.39212617
69	0xbe1a1a6a	-0.15049139
70	0xbe33cbfb	-0.17558281
71	0xbe43c68c	-0.19118708
72	0xbcdcf55c	-0.026972465
73	0xbe39cc23	-0.18144278
74	0xbe66cccd	-0.22539063
75	0xbdbd7a84	-0.092518836
76	0xbd452825	-0.048133988
77	0xbe810005	-0.25195327
78	0xbd701a37	-0.05861875
79	0xbe2d994f	-0.16953014
80	0xbe13f72e	-0.1444976
81	0xbde17a6b	-0.110096775
82	0xbe4a0072	-0.19726732
83	0xbe1e8d05	-0.15483482
84	0x3ceb8334	0.028749086
85	0xbe24dd64	-0.16100079
86	0xbe7214dd	-0.23640771
87	0x3df28bd1	0.11843074
88	0x3d6269a9	0.055276547
89	0x3e1338ea	0.1437718
90	0x3d4ec2bd	0.050478686
91	0xbe877f4a	-0.264643
92	0x3c1dcefb	0.0096318675
93	0xbe1627f5	-0.1466368
94	0xbdab6eb8	-0.08370727
95	0xbe32264c	-0.17397422
96	0x3c225b59	0.009909474
97	0xbdcbe595	-0.09955899
98	0xbe8e04d6	-0.27738065
99	0xbe9c2c12	-0.30502373
100	0xbcc67837	-0.024227245
101	0xbdc8fe0e	-0.09814082
102	0x3e99105a	0.29895288
103	0xbe31080c	-0.17288226
104	0x3d93a808	0.07209784
105	0xbe035ad2	-0.12827614
106	0x3d4e18fb	0.050316792
107	0xbe1da726	-0.15395793
108	0xbe5a02e0	-0.21290159
109	0xbdacc8b8	-0.084367216
110	0x3d28f1eb	0.041246336
111	0x3e1e5bba	0.15464678
112	0x3cfa44db	0.030550411
113	0xbdcdd4ed	-0.10050378
114	0xbe48892a	-0.19583574
115	0x3ec3c2a8	0.38234448
116	0x3e15fe9c	0.14647907
117	0x3c56eb0f	0.013117566
118	0xbd983a11	-0.0743295
119	0x3b0c0598	0.0021365639
120	0xbda5c7b7	-0.08094733
121	0xbdd42519	-0.10358638
122	0xbc91b6b0	-0.017787308
123	0xbd85ed92	-0.065394536
124	0x3e09dc0c	0.13462847
125	0xbe87d9e7	-0.26533434
126	0xbe0b3158	-0.13593042
127	0xbdf5883c	-0.11988875
128	0xbe817921	-0.25287727
129	0xbd33c457	-0.043888416
130	0xbdf7172c	-0.120649666
131	0x3e977e78	0.29588675
132	0x3dc163cb	0.09442862
133	0xbe25e0a6	-0.16198978
134	0xbe341849	-0.17587389
135	0xbdf7492e	-0.12074505
136	0xbe3e0f8a	-0.18560615
137	0x3e1a1326	0.15046367
138	0x3d8c8677	0.06861585
139	0xbdd424a4	-0.10358551
140	0xbe9fa993	-0.31184062
141	0x3cdd792c	0.027035318
142	0x3aeaff6a	0.0017928903
143	0xbdba99b9	-0.091113515
144	0xbd45c9e3	-0.048288237
145	0xbc42ebca	-0.011897037
146	0xbe07ed7b	-0.13274185
147	0xbd95a12f	-0.07306134
148	0xbd608c31	-0.054821197
149	0xbe04f2d5	-0.12983258
150	0xbe3e396c	-0.18576592
151	0xbdaa0c05	-0.08303074
152	0xbe2d2da9	-0.16911949
153	0xbe368321	-0.17823459
154	0xbe6b7f7c	-0.2299785
155	0x3e4bfcb5	0.19920619
156	0x3e199832	0.14999464
157	0xbe18eec8	-0.14934838
158	0xbd061141	-0.0327313
159	0xbe291b38	-0.1651429
160	0x3e0b3e2f	0.1359794
161	0xbcb0f4e2	-0.021601144
162	0xbe2b0488	-0.16700947
163	0xbde3ed64	-0.11129263
164	0xbdf5055b	-0.11963912
165	0x3d469f69	0.04849187
166	0xbe8e6eb6	-0.2781884
167	0xbdb6bd5f	-0.089228384
168	0xbe7006cf	-0.23440097
169	0xbe1b23d5	-0.15150388
170	0xbe198fbf	-0.14996241
171	0x3e1dd942	0.15414909
172	0xbe374126	-0.17895946
173	0xbe0d9f49	-0.13830294
174	0xbe428e7f	-0.1899967
175	0xbe5c556f	-0.21516965
176	0xbe0fde5c	-0.14049667
177	0xbdca3c43	-0.09874775
178	0xbccc2c44	-0.024923451
179	0x3da30ded	0.079616405
180	0xbe590784	-0.21194273
181	0x3ce519a3	0.027966326
182	0xbd0f740c	-0.03502278
183	0x3efa72cd	0.4891571
184	0x3d04651d	0.03232299
185	0xbdb4b9da	-0.08824511
186	0xbd6e1aef	-0.058131155
187	0xbd565114	-0.052323416
188	0x3e0859be	0.13315484
189	0xbe514efe	-0.2044029
190	0xbd1bd5dd	-0.038045753
191	0xbc36c383	-0.011155012
192	0x3e0d19bd	0.1377935
193	0xbd6a0073	-0.057129335
194	0xbdd3cac0	-0.10341406
195	0xbe8e35cd	-0.27775422
196	0xbd90c4a4	-0.07068756
197	0x3e7e3b07	0.24827205
198	0xbe991ca4	-0.29904664
199	0xbe4db6f4	-0.20089322
200	0x3dfd8efb	0.12380787
201	0x3eaf86de	0.34282583
202	0xbdc78602	-0.09742357
203	0xbe486267	-0.19568788
204	0xbca487d8	-0.020084307
205	0xbcededd5	-0.029044071
206	0xbceb128d	-0.02869537
207	0x3d394616	0.045232855
208	0xbdd35c75	-0.10320369
209	0xbe6b6272	-0.22986773
210	0xbe994bfb	-0.2994078
211	0xbd9e5884	-0.07731727
212	0xbc0c33c6	-0.008557266
213	0xbe0fb61c	-0.14034313
214	0x3daf295c	0.085528105
215	0xbd9bcc0a	-0.07607277
216	0xbd8c1845	-0.068405665
217	0xbe1f687f	-0.15567206
218	0xbe28410d	-0.16431065
219	0xbb3414cf	-0.0027478223
220	0xbe11b312	-0.14228466
221	0x3da0950e	0.0784093
222	0xbe5ee942	-0.21768668
223	0x3cf62287	0.03004576
224	0xbe47b19e	-0.1950135
225	0xbe147578	-0.14497936
226	0x3da59c9b	0.08086511
227	0x3dd4998f	0.103808515
228	0x3c7d8cb1	0.015475438
229	0xbd1f6511	-0.038914744
230	0xbe4c7f69	-0.19970478
231	0xbd6a937d	-0.057269562
232	0x3d255d23	0.040372025
233	0xbe845d92	-0.25852638
234	0xbdf030c9	-0.11728055
235	0xbe245419	-0.16047706
236	0xbdf34ee8	-0.118802845
237	0xbda5802a	-0.08081086
238	0x39c1b29a	0.00036944897
239	0xbe298a50	-0.16556668
240	0xbd8a8367	-0.06763344
241	0xbd8a77d4	-0.06761137
242	0xbda0c0ca	-0.078492716
243	0x3cfd1028	0.030891493
244	0x3e243082	0.1603413
245	0xbe5feb2d	-0.21867056
246	0xbd57d6d4	-0.05269511
247	0xbd8d6ead	-0.06905875
248	0xbdc4dc81	-0.0961237
249	0xbe2c7969	-0.1684319
250	0xbd6bd562	-0.057576545
251	0xbdf99909	-0.12187392
252	0xbd470150	-0.048585236
253	0xbde0114d	-0.109408
254	0xbe0c7ba1	-0.13719036
255	0x3d199c12	0.037502356

fc.weight f4 [11, 256]
0	0x3ce991bc	0.028511874
1	0xbb850420	-0.0040593296
2	0xbd5f0278	-0.054445714
3	0xbd5cc152	-0.053895302
4	0xbd27ada3	-0.040937077
5	0xbdca0e75	-0.09866039
6	0xbe026a66	-0.127359
7	0x3d30d16d	0.043168474
8	0xbc9c0ebc	-0.019049995
9	0xbd0424f4	-0.032261804
10	0x3ddaaf33	0.10677948
11	0xbb7f6b03	-0.0038973696
12	0xbdd206e4	-0.102552205
13	0x3daf5b89	0.08562381
14	0xbdb2f72b	-0.0873855
15	0x3cce31b1	0.02517018
16	0xbe61da7b	-0.22056
17	0xbcadd612	-0.02122024
18	0x3bc5753d	0.006025939
19	0x3e1237d9	0.14279117
20	0xbda7c0aa	-0.08191045
21	0xbd96e87f	-0.07368564
22	0x3d7c0e3b	0.06153701
23	0xbdc2d491	-0.095132
24	0x3c505224	0.012714896
25	0xba8eab35	-0.0010884764
26	0xbe3016ce	-0.171962
27	0x3cd4928b	0.025948783
28	0xbe11ca95	-0.14237435
29	0xbd11119f	-0.035417195
30	0xbcbbf889	-0.02294566
31	0xbdfc76e6	-0.123273656
32	0xbca2c017	-0.019866986
33	0xbbdd4d1c	-0.006753577
34	0xbd046052	-0.03231842
35	0x3e89295a	0.2678936
36	0xbe25fc9d	-0.16209646
37	0xbda69713	-0.08134284
38	0x3ced1fb6	0.028945785
39	0xbd9de4f3	-0.07709684
40	0xbc180174	-0.00927769
41	0xbd304a8c	-0.043039843
42	0xbc50e86e	-0.012750728
43	0xbc823c32	-0.015897844
44	0x3d3cf80f	0.046135005
45	0xbe0bb358	-0.13642633
46	0x3ca14fe1	0.01969141
47	0xbd81276a	-0.06306346
48	0x3dd6d485	0.10489754
49	0x3b8903d4	0.0041813646
50	0xbca51854	-0.020153202
51	0xbb576d59	-0.0032871573
52	0x3d12b877	0.03582045
53	0x3d8da5a3	0.06916358
54	0xbcc092b0	-0.023507446
55	0x3beeed44	0.007291468
56	0x3cd3f978	0.025875792
57	0xbce94e3a	-0.028479684
58	0xbe6ac190	-0.229254
59	0xbd15c5b9	-0.036565516
60	0xbc2712c3	-0.010197344
61	0x3ce9e7d5	0.028552929
62	0x3c652224	0.013985191
63	0x3d76bd1d	0.060238946
64	0xbdbc57f4	-0.09196463
65	0x3d18ea4a	0.03733281
66	0xbbc4b68f	-0.006003208
67	0x3db06fef	0.086151
68	0x3beeb1b7	0.007284369
69	0xb943214c	-0.00018609053
70	0xbab376a1	-0.001369197
71	0xbeaa8184	-0.33301938
72	0xbd9d2900	-0.07673836
73	0x3c83c71e	0.016086157
74	0xbddaa136	-0.1067528
75	0xbd646413	-0.0557595
76	0x3d9586f5	0.07301132
77	0xbd2a60dc	-0.04159628
78	0xbc9f7272	-0.019463751
79	0xbd449727	-0.047995713
80	0x3d16a7c6	0.036781095
81	0xbc75f4e7	-0.015012003
82	0xbd2977ce	-0.04137402
83	0x3d9958c6	0.07487635
84	0x3dafcc55	0.08583895
85	0xbd4fa58b	-0.050694983
86	0xbdb47c8d	-0.08812819
87	0x3dd40f47	0.103544764
88	0x3d7ff793	0.062491965
89	0x3c72b48d	0.0148135545
90	0x3e4ada06	0.19809732
91	0xbc8dc531	-0.017305942
92	0x3be67169	0.0070325625
93	0x3d466191	0.04843289
94	0xbe17ca42	-0.14823249
95	0x3d89afbb	0.06722971
96	0xbd1c6514	-0.038182333
97	0xbcb872ac	-0.022515617
98	0xbd8e54c9	-0.06949765
99	0xbe4e2914	-0.20132858
100	0xbd98d37b	-0.07462212
101	0x3d5f3ff7	0.05450436
102	0x3cdd21ea	0.02699371
103	0x3d3dbe0e	0.04632383
104	0xbd74acfa	-0.059735276
105	0x3c52d713	0.0128686605
106	0x3d95ced2	0.073148385
107	0xbd856ab1	-0.065144904
108	0xbd739c07	-0.05947497
109	0xbca63333	-0.020288086
110	0xbc1679fa	-0.009184355
111	0x3db261f0	0.08710086
112	0x3df9ad98	0.121913135
113	0x3da23fdf	0.07922339
114	0x3cf763ef	0.03019902
115	0x3d0332b1	0.032030765
116	0xbc87c867	-0.016575051
117	0x3ca18eec	0.01972147
118	0x3ca8e957	0.020619078
119	0xbccbce1b	-0.024878552
120	0xbd3b91b9	-0.04579327
121	0x3d15f040	0.036606073
122	0x3d3c0a99	0.045908544
123	0xbbc4d69b	-0.0060070283
124	0xbc73e068	-0.014885046
125	0xbdffc827	-0.12489348
126	0xbd9a8424	-0.07544735
127	0xbdbe248d	-0.09284315
128	0xbd455990	-0.048181117
129	0xbd19afad	-0.037521053
130	0xbd6901bb	-0.056886416
131	0x3c07442d	0.0082560005
132	0xbd7b6697	-0.061377134
133	0x3dd84947	0.105608515
134	0xbe59420d	-0.21216603
135	0xbdfdf00f	-0.12399303
136	0x3c4087a7	0.011751092
137	0x3d7d7b48	0.06188515
138	0x3d4ced4f	0.050031003
139	0xbc2ccd94	-0.0105470605
140	0x3c9b68ae	0.018970814
141	0xbb5c9d8a	-0.0033663237
142	0xbcab1644	-0.02088464
143	0x3d1fafc6	0.03898599
144	0x3c2e5c19	0.010642075
145	0x3d4b5b15	0.04964741
146	0xbce925bf	-0.028460382
147	0xbd73363f	-0.059377905
148	0x3d87be71	0.06628121
149	0xbdf6e68e	-0.120556936
150	0xbba89e39	-0.0051458147
151	0xbc603e3b	-0.013686712
152	0xbe058938	-0.13040626
153	0x3c93b73f	0.018031714
154	0x3bccd9fc	0.0062515717
155	0x3de6c3fe	0.11267851
156	0xbc622843	-0.013803544
157	0x3cd6b9bf	0.026211618
158	0x3d5a728a	0.05333189
159	0xbc623e75	-0.013808836
160	0x3e8c8651	0.27446225
161	0xbe6daa42	-0.2320948
162	0xbd0eaa42	-0.03483034
163	0xbca596ae	-0.020213451
164	0xbda0fa95	-0.07860295
165	0xbe121343	-0.1426516
166	0x3c97e862	0.018543426
167	0x3db03123	0.08603122
168	0xbd2bd955	-0.04195531
169	0xbe00405f	-0.12524556
170	0xbd901823	-0.07035854
171	0x3d490b7f	0.04908323
172	0x3b16a4f7	0.002298651
173	0x3d00d702	0.031455047
174	0x3cf2306c	0.029564105
175	0x3d0f28da	0.03495107
176	0xbd7ec393	-0.062198233
177	0x3c787ca9	0.01516644
178	0xbd1261fd	-0.03573798
179	0xbcaaa6ac	-0.020831428
180	0xbe68f9d8	-0.22751558
181	0x3d91ed73	0.07125368
182	0xbe58c01d	-0.21167035
183	0x3c8b95d1	0.017039211
184	0x3c7affb2	0.015319752
185	0xbcff9639	-0.031199561
186	0x3d06f91a	0.032952406
187	0x3a7b902f	0.0009596375
188	0x3d9d9ecb	0.07696303
189	0xbe093002	-0.1339722
190	0xbdeeef98	-0.11666793
191	0x3d2e8a99	0.042612646
192	0x3c9e03c3	0.019288903
193	0xbd0231de	-0.03178584
194	0x3d848c53	0.06472077
195	0x3ced1d1b	0.028944543
196	0xbe21cbc2	-0.15800384
197	0x3d80fe36	0.06298487
198	0xbd57344f	-0.05254012
199	0xbe0f4a19	-0.1399311
200	0x3d79e79c	0.061011896
201	0x3c81987c	0.01581978
202	0x3e0df6db	0.13863699
203	0xbce45cb7	-0.027876241
204	0x3a0a7bb6	0.00052827166
205	0x3ba188ba	0.004929629
206	0xbc41f776	-0.011838784
207	0xbc7fa855	-0.015604098
208	0x3cfc7a9d	0.030820185
209	0xbd29b7ac	-0.04143493
210	0xbb8b8a60	-0.004258439
211	0x3ce781c0	0.028260112
212	0xbd123143	-0.03569151
213	0xbd2da38d	-0.042392302
214	0xbd101aef	-0.035181936
215	0xbd85ed2a	-0.06539376
216	0xbda151cd	-0.078769304
217	0xbde7e0ef	-0.113221996
218	0xbb9e143d	-0.00482419
219	0x3ce67d64	0.028135963
220	0xbea82afb	-0.32845291
221	0xbcd9da69	-0.026593404
222	0x3c1400dc	0.009033408
223	0xb9af6d8c	-0.0003346022
224	0x3d26664d	0.040624905
225	0xbc41da5d	-0.011831847
226	0x3d7dbd01	0.061947826
227	0xbd083f3e	-0.033263437
228	0xbd0e4108	-0.034729987
229	0xbd0d0923	-0.03443254
230	0xbd4b25b1	-0.049596492
231	0xbd35cd31	-0.04438514
232	0xbe47594b	-0.19467656
233	0xbd18ff3d	-0.03735279
234	0xbceffad5	-0.02929441
235	0xbd0cf0d1	-0.034409348
236	0x3d0567e3	0.032569777
237	0xbcbe16a3	-0.023204153
238	0xbcbc24ca	-0.022966761
239	0x3d6e53eb	0.0581855
240	0xbd72694b	-0.059182446
241	0x3d9d4afc	0.07680318
242	0xbd23a456	-0.039951645
243	0xbd565bd8	-0.052333683
244	0x3d295a37	0.0413458
245	0xbb80e76a	-0.0039338367
246	0xbd27f5ed	-0.041006017
247	0xbb6fe3e3	-0.0036604337
248	0xbc85d73a	-0.01633798
249	0x3d7fd5dc	0.06245981
250	0xbbab3bad	-0.0052256198
251	0x3b7c7454	0.0038521485
252	0x3ce43534	0.0278574
253	0x3c0e4ced	0.008685333
254	0xbdaf6ebc	-0.08566043
255	0x3d6bd5c2	0.057576902

fc.bias f4 [11]
0	0x3d0eb9da	0.03484521
1	0xbecf498d	-0.40485802
2	0xbe9fec8d	-0.3123516
3	0xbea64e72	-0.32481724
4	0xbe708c77	-0.23491083
5	0x3e85d9d1	0.26142743
6	0xbd61464c	-0.05499868
7	0xbe1f3594	-0.15547782
8	0xbe81a80f	-0.2532353
9	0xbd826eb0	-0.06368768
10	0xbe2ebece	-0.17064974
