src/main/python/saved_models/javascript_1_37_CNNClassifier1_32embs_130id_32hd_0hl_Falsebid5kernel0.3dropout_2.pt (torch, 389195 bytes, 9 tensors)

emb.weight f4 [130, 32]
00000000: 9e1d 6fbf 8e02 4fbf 9070 b3bd ea95 823f
00000010: 0d3e fabd 523e 913f e436 7dbf 2eb4 c13f
00000020: 32b1 aabf 48ad 0dbf 7156 f9bd 736e 4ebf
00000030: d6fe 9fbe 262e b63e 739c e8bd 192e 9bbf
00000040: 1376 b6bf c6d0 473f 83b6 033e e534 f53f
00000050: 2fa3 cdbf 3655 80bf 255b 973f 29bf b7bf
00000060: 157c 39bf df6a 973f bacd 30bf 7e96 f83f
00000070: 7124 a3bf e7ee d0be 16cb 8f3f d13c b53e
00000080: bdca 8a3f f150 ccbe 11f8 a83e 9ff6 33bf
00000090: d09c 13be c442 47bf 84f4 123f 0063 bfbf
000000a0: 086f 3f3f 92f4 78bf a30e cf3e e61c ba3e
000000b0: 2174 40bf 1b6d 26bf 34ee e03f 3c8f 55bf
000000c0: 1826 983f 4ae8 da3e d009 d73d fc50 5d3f
000000d0: 29ce 4abf 3f85 6d3e d2f6 9d3f d9d6 cabf
000000e0: ae35 2abd 9dee 2fbe 7e2e d9be 4aaa 4bbe
000000f0: dcff 8a3f 7df3 363f efe1 f9be c284 d4bf
00000100: a30d 3b3f 59a3 2ec0 6caf e5bd ea7f c13f
00000110: 5932 f43f e2b7 6d3f 50b2 1fc0 7fb5 3f3e
00000120: bf41 81be d844 083e 972c febd 71d5 b0be
00000130: 84db 1840 35e0 debd c4e5 e8bf 4ca7 c43c
00000140: b741 893f faa1 463f d17f 853f 9be8 dbbe
00000150: cb67 6ebf f1c1 d63e 8e13 af3f 2f7f 163e
00000160: e016 5dbf 9a49 6d3f f16b 2abf 61b9 4f3f
00000170: e8d9 a33e bd18 adbd 4f9f 893d 9117 ef3e
00000180: a2c8 273f 116f 4b3f 0652 16bf 6c35 0a3f
00000190: c51d babf a0ce 0bc0 b7b6 04be 4703 55be
000001a0: c47a 08bf 2ce8 123f c74d e23f e00c a33f
000001b0: 16d2 8cbf fcc9 a4bf 524c 263f af96 113f
000001c0: 70f7 193f 0a9b 613f 36c0 f23f 5580 f1bf
000001d0: 9b6a 913f 660d 7a3f 1285 19c0 db06 cebf
000001e0: e34d 903f bc33 9ebe 40f4 acbf c6b0 023f
000001f0: 9525 20c0 d002 febf c30b 93bf 5cea c1be
00000200: 6be1 0f3f badc de3f 5b15 dbbf 4cd7 973e
00000210: 7bf7 84bf cf22 06bf da82 0fbe 9bdb 4c3f
00000220: 7ec9 77bf d57d 95bf 7358 953f 4edb 05bf
00000230: 3e89 79bf f65c 82bf ce19 043f 4597 cc3e
00000240: 08f2 703f 4715 8f3f f4fa 513f 4991 9cbf
00000250: 50df a33f 2e45 0c40 55e1 a4bf 3cfa efbf
00000260: 3433 d83f ebc5 01be 3674 f0bf 6a02 28bf
00000270: 3778 01c0 82a9 8ebf a4c2 f5be 19bb 93bf
00000280: 7f3b 2b3f 8348 9c3e 07d2 ebbe 7027 8a3f
00000290: c020 1a3f 2b4e bc3e 25e7 043b 03e3 bebe
000002a0: 9000 e2be 0f85 603f 5728 03bf 2bd5 c2be
000002b0: aba9 b53d 3db7 2840 9c40 25be 1549 2e3f
000002c0: 4f91 c23f 538b 893f c121 d13f f4c4 0b40
000002d0: e59a 813f 2cdf 983f 0bd1 18c0 e287 36bf
000002e0: dba5 8abf 57d5 513f 3aca 7bbe dcef da3e
000002f0: 8cd0 61bd 9b83 503d cf2e a7be 3d26 293f
00000300: 8c5b d13d f01e afbf 6fd9 d7be 437d d43c
00000310: 577d 0d3f 3b4a ae3e f758 9a3d f14a 6b3f
00000320: 655c 0fc0 caa7 823d d420 8c3e 1079 943e
00000330: 9a78 b33e d62f 99be 99fe b9be 234c e7bf
00000340: 75e4 a53d 70de bdbe 6bc8 0bbf a00c f43e
00000350: 3718 8dbf 5705 863f 4deb 96bf bfba b43f
00000360: 2c66 b5be 125a 623f 8650 08bf bce2 86be
00000370: 1edc b13e 4ba8 05bf 1a25 06bf d6d8 863f
00000380: 7647 23be 53bc 14bf 93bd 2e3f ad37 39bf
00000390: 976e 0e40 3cc2 863f 2baf bc3e 02f8 9ebf
000003a0: 4226 293d 90f2 81bf 1215 d2be ac2e 9a3e
000003b0: 4591 86bf 6a85 373e 4f3d 23bf 3cf0 90bf
000003c0: 3e0b 223f b675 5c3f f18d 943f e056 9d3f
000003d0: ab55 6a3f a1cf 073f 3031 51bf a649 233e
000003e0: ce85 41bf ed23 8d3e b217 cbbe 118a 50bf
000003f0: 7835 f53d fa1d 413f 0948 90bf f6d9 503d
-0.9340457 -0.80863273 -0.08761704 1.0202 -0.122188665 1.1347144 -0.9891188 1.5133111
-1.3335326 -0.5534253 -0.121746905 -0.8063728 -0.31249112 0.35582083 -0.11357965 -1.2123443
-1.4254783 0.7805294 0.12862591 1.9156767 -1.6065425 -1.0026004 1.182469 -1.4355212
-0.7245496 1.182949 -0.69063914 1.9420927 -1.2745496 -0.40807268 1.1233852 0.35397962
1.0843121 -0.39905503 0.3300176 -0.7029819 -0.14415288 -0.7783625 0.5740435 -1.4952087
0.74778795 -0.97248185 0.40440854 0.36350173 -0.751772 -0.6501023 1.7572694 -0.83421683
1.1886625 0.42755347 0.104999185 0.864517 -0.79220825 0.2319536 1.2340949 -1.5846816
-0.0415551 -0.17180867 -0.42418283 -0.19889179 1.0859332 0.71465284 -0.48805186 -1.6603014
0.73067683 -2.72872 -0.112151 1.5117161 1.9077865 0.9285871 -2.4952583 0.18721579
-0.25245473 0.13307512 -0.124108486 -0.34537843 2.3883982 -0.10882608 -1.8195119 0.024005555
1.072318 0.77590907 1.0429631 -0.429509 -0.93127126 0.4194484 1.3677843 0.14696954
-0.8636303 0.9269043 -0.66570956 0.8114224 0.32002187 -0.08451984 0.06719839 0.46697667
0.65540516 0.7946635 -0.5871891 0.53987765 -1.4540335 -2.1844864 -0.12960325 -0.20802031
-0.53312325 0.57385516 1.7679986 1.2738304 -1.1001613 -1.2874141 0.64960206 0.5687055
0.60143185 0.88127196 1.8964908 -1.8867289 1.1360658 0.97676694 -2.398747 -1.6095842
1.1273769 -0.30898845 -1.3512039 0.51050985 -2.5022938 -1.9844608 -1.1487964 -0.37874115
0.56203336 1.741111 -1.7115892 0.29656446 -1.0388025 -0.52396864 -0.1401476 0.8002259
-0.9679183 -1.1679026 1.1667618 -0.5228776 -0.9747504 -1.018462 0.51601875 0.3995916
0.9411931 1.1178368 0.8202355 -1.2231838 1.2802525 2.1917224 -1.2881266 -1.874824
1.6890626 -0.12673156 -1.8785465 -0.65628684 -2.0229623 -1.114548 -0.48000062 -1.1541473
0.6688766 0.30524072 -0.46058676 1.0793285 0.6020622 0.36778387 0.0020279374 -0.3728257
-0.44141054 0.8770303 -0.5123343 -0.3805326 0.08870252 2.636184 -0.16137928 0.68080264
1.5200595 1.0745643 1.6338426 2.183896 1.0125395 1.1943107 -2.387759 -0.7130109
-1.0831865 0.81966156 -0.24588862 0.42761123 -0.055130526 0.05090676 -0.326529 0.6607397
0.10222539 -1.3681316 -0.42158076 0.025938636 0.5526938 0.34041008 0.075365 0.91911227
-2.2400143 0.063796595 0.27368796 0.28998613 0.3505295 -0.29919308 -0.36327055 -1.807011
0.08100215 -0.3708377 -0.5460269 0.47665882 -1.1023015 1.047038 -1.1790558 1.411949
-0.35429513 0.88418686 -0.5324787 -0.2634486 0.3473825 -0.5220992 -0.5240036 1.0534923
-0.15945229 -0.5809986 0.6825802 -0.7235058 2.2254999 1.0528026 0.36852393 -1.2419436
0.04129625 -1.0152149 -0.410317 0.30113733 -1.0513083 0.17921987 -0.63765424 -1.1323314
0.63298404 0.8611711 1.1605817 1.2292137 0.9153697 0.5305119 -0.8171568 0.15946063
-0.75594795 0.27566472 -0.39666516 -0.8146067 0.11973089 0.75436366 -1.1271983 0.050989114

conv1.weight f4 [32, 32, 5]
00000000: 4e24 813e 013b 7f3e bc3b 4b3e d03c b13e
00000010: e30f 9cbd 1eaf bcbd d730 ab3d 959d 21bd
00000020: 6b64 3a3d 1a39 0c3c 121d b1bd 70ba 353e
00000030: 1ed3 85bc bffd 013e dcbf ca3a 1744 8b3b
00000040: d43d 7cbd 7790 babe 4676 0abe e0cc fdbc
00000050: 76c1 11be 7952 cdbd 2cb5 6bbe 5e1d 21bd
00000060: 459e 7dbe 0601 173d 4438 fa3d 13e1 803d
00000070: 2cd3 dcbc cb02 2abe e6ef a7bd cc7a b6bc
00000080: 9a6c 27be f9a1 80be d6b9 80bd 4bff 83be
00000090: edbb b43d ab7f e1bd cb4d 8c3d 0199 e9bd
000000a0: 7c2b 11be df69 f03c e146 d03d be17 33bd
000000b0: 7c40 8b3d 012c 6638 0fa2 9dbd 0b91 afbd
000000c0: 8a8b f0bd 2c64 c53b fd22 483e 5447 813e
000000d0: dcc0 063d 9f21 333e bdeb 02be eec5 ef3c
000000e0: 536d 953d fba5 e6bc a2c9 d7bc 20bd 4a3e
000000f0: 0874 0cbe 1e03 a9bc 00b6 13be fbcf 2bbe
00000100: 63b4 2abb d651 853d b271 803d f332 58bd
00000110: 4acd 84bc 2eea 01bd b457 9e3d 3a12 8d3e
00000120: e4d2 d9bd 0c48 02be 8256 09be 8fd8 a33d
00000130: e089 babc 7f2e 3abe f2de 313d 865a f63d
00000140: 3c13 bcbd 5b50 0ebe bce7 1bbd ba8d 89bc
00000150: c0c6 013e 15f8 7fbd 6ec5 90bd fa39 42be
00000160: 91cd 8abd ff44 c6bd d166 c7bc ce93 bc3c
00000170: c9d2 b43e c9d4 d73c b4a1 bd3c 52c6 06be
00000180: 4bf3 623d d958 cebc 3362 5b3e 7b45 2c3e
00000190: 7e78 f03c 6a99 1a3e 69a2 7d3d b622 ecbb
000001a0: 1fd8 0e3e f82d 44bd a03e 12be e8ca 96bd
000001b0: 3dc6 89be 7b79 fb3d a569 b9bd 1063 e03d
000001c0: ea9f ba3d 4d40 ad3d 777c ca3c 7389 35bb
000001d0: d00b f83d ca3e 58be c04d 45be a6b7 283e
000001e0: 608c fd3d f852 72bd f9c9 d4bd b645 223d
000001f0: 33df 44bd 6ea5 aa3d ea13 71be b970 253e
00000200: 3fe4 f6bc d6ab be3c 4a68 3c3d 2743 17bc
00000210: d1b2 da3d 57d8 1e3c 3a73 1cbe 894f 1d3d
00000220: 0125 903e a52e 503e df7c 823e cfb0 bc3e
00000230: 615a 22be c9b5 25be 051c 05be 9bac 133d
00000240: c662 0cbe e72f f13c 5c7d 9bbc 32f6 083e
00000250: dedc 40bd 6602 64bd e9fb cebd ef75 113d
00000260: da5d 5abb d769 593e 0249 cf3d 09ca 2dbc
00000270: ee00 63bd 6171 01bc 43f5 22be 68a1 a93d
00000280: ca75 b3bc 9d35 2a3d 83cb 453e 5aa9 533d
00000290: 0a9e 8cbc 0c35 05bd fa5d f73c b785 173d
000002a0: eb00 eb3d e63a 06be c8c8 b1bc 1807 82be
000002b0: 702e 083e 2ddd f13d 7bdb bb3d 9980 913d
000002c0: 4fad 693d 31be 85be 00e7 47bd e9f2 483d
000002d0: c5c5 4b3c ebd1 0cbd 1c3e 703d 1b5a 9dba
000002e0: 707c 223e 034c 41bb 04f0 35be 1517 bebc
000002f0: 10e6 583d e658 bd3c e066 333e d6b1 423d
00000300: c4e3 08be c4ed 25be 2740 ea3d cf78 c1bd
00000310: fae9 33bd 8252 873d 8317 583e 8f71 e83d
00000320: db4b 403e babd a23c 334e 4d3e 6535 523e
00000330: 39b8 b6bd 8228 adbd 451b 0fbe a536 63bd
00000340: 762f 65bc 9e65 8c3c ed06 a0be 3944 24be
00000350: a2a2 2d3e 6498 bd3d c7f4 f3bc 5ec0 543a
00000360: 2aad 7cbc c455 413d ea3c b1bc cc53 cfbc
00000370: 5721 453e 0fd9 e4bd 4934 2abd ffe7 1bbd
00000380: 86b7 a3bd f533 85bd 6116 4ebe 8b0a b7bd
00000390: 022a a2bd 7a7b 593d a1e5 08bd 5dd6 eabc
000003a0: e1fc fabc 9e99 2e3e 0e73 c2bd 4665 6dbd
000003b0: 7dbd 3a3d 78ab 7a3d b683 dfbd 7a54 be3c
000003c0: a3af 7fbe 09e1 ae3c d5fb f53c bda4 753d
000003d0: 9fd5 10be b8b2 813d bb2c 70be c8a3 8bbc
000003e0: 7871 cabd 80db 09ba 75ff 923e f96c 643e
000003f0: e95f b63c 6233 18bd 9406 bb3d c966 9f3e
0.2522301 0.24924852 0.19847006 0.3461671 -0.07620218 -0.092130885 0.08358925 -0.039456923
0.045505922 0.008558536 -0.08648123 0.17746902 -0.01633602 0.12694453 0.0015468556 0.0042500603
-0.0615824 -0.36438343 -0.1352168 -0.030981481 -0.14233956 -0.10025496 -0.2301833 -0.039334647
-0.24767406 0.03686621 0.12217763 0.062929295 -0.026956163 -0.16602628 -0.08200054 -0.022275351
-0.16350022 -0.25123575 -0.062854454 -0.2578071 0.088249065 -0.11010679 0.06850775 -0.11406136
-0.14176744 0.029347358 0.10169769 -0.043723814 0.06799409 5.4877255e-05 -0.07696926 -0.085725866
-0.11745365 0.0060239043 0.19544597 0.25249732 0.03289877 0.17493294 -0.1278524 0.029269185
0.072962426 -0.028155318 -0.026341263 0.19798708 -0.13716137 -0.02063137 -0.14424896 -0.16778557
-0.002604746 0.065097496 0.06271686 -0.052782964 -0.01621117 -0.03171747 0.07731572 0.27552968
-0.10635927 -0.12722796 -0.13411906 0.0800029 -0.022770822 -0.181818 0.043425508 0.12028985
-0.09183356 -0.1389784 -0.038062796 -0.016791213 0.12673473 -0.06249245 -0.07068907 -0.18967429
-0.0677749 -0.09681129 -0.024341019 0.023019698 0.35317066 0.026346581 0.023148395 -0.1316159
0.055407804 -0.02518885 0.21424179 0.1682338 0.02935433 0.15097585 0.061922465 -0.0072062863
0.13949631 -0.0478954 -0.14281702 -0.0736292 -0.26909056 0.1227903 -0.09053353 0.10956395
0.091125324 0.0845953 0.024717553 -0.0027700334 0.12111628 -0.21117702 -0.1926794 0.16476306
0.1238029 -0.059161156 -0.10390086 0.039617263 -0.04806442 0.083323345 -0.23542753 0.16156282
-0.030138133 0.023275297 0.045997895 -0.009232319 0.10678638 0.009695134 -0.1527833 0.03840593
0.28153232 0.20330293 0.25485894 0.36853644 -0.1585479 -0.16182627 -0.1299897 0.03605328
-0.13709554 0.029441787 -0.018980674 0.13375166 -0.047085635 -0.05566635 -0.10106642 0.03551286
-0.00333201 0.21231781 0.10121347 -0.010607251 -0.05542081 -0.007900567 -0.15913872 0.08282739
-0.021906752 0.041555036 0.19315915 0.051675178 -0.017165203 -0.032521293 0.030196179 0.036992755
0.114747845 -0.13108405 -0.021702185 -0.25396037 0.13298965 0.11809764 0.09172722 0.07104606
0.057050046 -0.26121667 -0.048804283 0.049059782 0.012437289 -0.03437988 0.058652982 -0.0012005003
0.15867782 -0.002949477 -0.1776734 -0.023204366 0.05295378 0.02311368 0.17519712 0.04753288
-0.13368136 -0.16203982 0.11438017 -0.094468705 -0.04392431 0.06607534 0.21102719 0.113497846
0.18778937 0.01986586 0.20049362 0.20528181 -0.089218564 -0.08454992 -0.13975246 -0.055472035
-0.013988366 0.017138299 -0.31255284 -0.1604165 0.1695657 0.09257582 -0.029779805 0.0008115823
-0.015422145 0.047200933 -0.021635491 -0.025308512 0.19251 -0.11174213 -0.04155377 -0.038063046
-0.07993989 -0.06504051 -0.20125724 -0.08937558 -0.079181686 0.053096272 -0.033422116 -0.02866667
-0.03063816 0.17050788 -0.09494601 -0.05795791 0.045590866 0.06119868 -0.10913794 0.023233641
-0.24969344 0.02134754 0.03002731 0.05997156 -0.1414399 0.06332916 -0.23454563 -0.01704587
-0.09884924 -0.00052588433 0.28710523 0.22307195 0.02226253 -0.037158377 0.09132114 0.31133106

conv1.bias f4 [32]
00000000: af5c 66be 2886 00be ddec a6be 265a 7abe
00000010: 16aa 71be 62d6 78be b6d1 76be 1527 27be
00000020: b0e6 21be 488f aabe d6ff a9be 423d 9abe
00000030: 41c7 84be 13ff 91be fdbe 1ebe 884e 84be
00000040: 57f4 74be 73bd acbe 8bde 82be 2bf2 11bc
00000050: c61e d7bd 6574 c2be 2837 bdbd 8958 76be
00000060: a44e 8abe eacf 82be ecc0 1cbe bd56 3abe
00000070: 4ccc 46be 31c8 07be 3af5 d5bd fd2d 08be
-0.22496293 -0.12551177 -0.32602587 -0.24448451 -0.23600039 -0.2430053 -0.24103436 -0.16323502
-0.15810657 -0.3331244 -0.33203 -0.3012486 -0.2593327 -0.2851492 -0.15502544 -0.25841165
-0.23921333 -0.33738288 -0.25560412 -0.008907835 -0.105039164 -0.37979427 -0.09239036 -0.24057211
-0.27013123 -0.2554925 -0.15307969 -0.1819715 -0.1941387 -0.1325996 -0.10447164 -0.13298793

conv2.weight f4 [32, 32, 3]
00000000: 35ae b0bd 072a 9f3e 9a2a c13d 883f 6ebd
00000010: a271 93bd 07f4 90bc 81a4 b53d d09d 943d
00000020: 82ea 1a3e 3914 fabd 927c 05bd 7aff f2bc
00000030: abc3 6d3d 94b1 febc 8ae9 cfbd 0138 5abd
00000040: 9e63 af3d 7207 56be 401c 523e 4107 2cbe
00000050: b40a d7bd 0cc1 783d e524 883c 24c7 3dbe
00000060: dc46 7e3e 3d62 173e e290 803b a25d d5bc
00000070: aee4 74bd 28cd e33d 95d4 28bd fb72 813e
00000080: ac4e 683e ff0d 9f3d 4ae7 b8bd 485e 543d
00000090: 204d 48be 66d1 c23d 38e7 efba 32e5 65bd
000000a0: 24cf 0e3e d64f e4bd ab20 6d3c fc66 1a3e
000000b0: 14c0 563e ee63 073e 63f2 e43d 9f29 f63d
000000c0: 44d7 513d 1394 8b3d 992c 8d3e 319e ccbd
000000d0: 728e 85be a572 4fbd 1ee5 93bd 5f81 ad3e
000000e0: 5c25 713e 693a c8bd eb6e f63d bce4 853e
000000f0: bdc0 373e 8ce7 af3d c893 023d 27c6 a73d
00000100: 98f2 e5bd e24b 5bbe 51b7 573d 769f 303e
00000110: a187 0d3e f105 15be f4f0 4a3e ac26 833e
00000120: 4cd8 ee3c f500 273d c5e6 2f3e 5f50 873e
00000130: 3269 09be 07ff bfbd 3741 2cbe 626c fe3c
00000140: 80c9 16be 512d 2b3e 8473 5d3d b8a5 5e3d
00000150: 02ce 063e 691a 86bd e82c 6e3e a288 253c
00000160: 9577 97bd 0433 c33c f400 e13c ec1d 49bd
00000170: e294 34bd a423 2ebe 4f69 4ebe 50b4 25be
00000180: 4134 8f3e ef4c 5ebd 8a9f fa3c b2f5 953c
00000190: 36e2 c4bc 24a2 adbd 4e90 b1bd 1e8f d1bd
000001a0: de4f 9d3d 3023 683c 88a3 193d bf66 24bc
000001b0: 609b 30be 0f31 893d 9c30 88bc 9055 553d
000001c0: 4702 55be 3e0d 81bd 467c 033e dc63 cabd
000001d0: acae 9a3e f724 6fbe ab2d c93d 399b 02be
000001e0: a91c 283e fb1d 15bd 949b 8d3d 0ace 8fbe
000001f0: 2493 e23c 0085 09bd 96bb 683e 9de0 463c
00000200: 1933 cbbd e1a1 92be b06e 96bc 183c 27be
00000210: 3a5a 343e cdec f9bd ceb2 2f3e ea14 c73d
00000220: ad1c a6bc 87b1 57be 0a2e a33d 4eb0 703d
00000230: dd44 6c3d b7bf bcbc 6ca1 5cbd ab16 a93d
00000240: 64c2 f8bd 6f37 3bbd 31b6 35be fd76 9fbd
00000250: fb30 f73d d6dc 093d b3d2 fa3d 3911 b33d
00000260: 7222 8e3e 029e 50bd 0d6e acbd bc33 b9bd
00000270: c260 d13e e97a 05be 99db 99bd e5ba 0fbe
00000280: 315e 723e 27b3 88bd 90e8 b63c e08f 88be
00000290: 820e d0bd 2e1d 523d 4e76 3abd beff 783e
000002a0: 788b 163d 4475 ae3e afaa 853e 6927 ebbd
000002b0: 8544 09bd 2569 cbbc 634f 1cbe f7d8 46be
000002c0: 8091 973d 1ab5 9bbc 8773 b23e 2bc9 9c3b
000002d0: 3be4 93be 7302 883b 358b d1bd f43c 98be
000002e0: 94e8 27be aba4 b83d 44ea 013e f48c 59be
000002f0: ebb4 12bd 1ce4 91be 8032 80bc b7e2 8bbd
00000300: fa90 fbbd 894d d13d bc85 593c 69c1 bc3d
00000310: 50c7 3abd 339d 16bc ce4f 68bb bb70 bdbc
00000320: 7414 6ebd d86b 5d3d d793 b33d 1e6e 03bd
00000330: 2399 85bc d524 cdbc 6d15 ffbd 7343 433e
00000340: e5ae fdbd e5bf 48be 8077 54bd 54a0 723d
00000350: 5253 dfbc 9c37 183e 6fb2 943b 280b 96bb
00000360: 5a0b 653d 2877 51bc a06b bcbe 9350 893d
00000370: fbb0 e73d da46 793d c1a3 bdbb 95a3 afbc
00000380: 1763 8ebd b609 333d b509 3fbe c340 5abc
00000390: 9900 773d df4f 9dbd 6cd7 9fbe cc0f 2ebe
000003a0: 968d 593d 3b4f 7b3e 71dd 3dbc ba96 3b3c
000003b0: 194b 93bd 3a62 603d fc4d 693d fc7a 1d3d
000003c0: fb5c e8bd 1f6c 4c3c fa75 ef3d fc1d 9c3d
000003d0: 1102 e0bd 81e8 163e 6636 4ebd 0013 9bbc
000003e0: 2900 ac3d 2bfa 65bc ba22 d43d 9d3c 8f3c
000003f0: 816f 6e3d 701e a5bd bf47 f7bd a7da 6c3d
-0.08626977 0.31086752 0.09431954 -0.058166057 -0.07199408 -0.017694486 0.08869267 0.07256663
0.1512852 -0.122108884 -0.032589503 -0.029662836 0.05804793 -0.031090535 -0.10151966 -0.053276066
0.08563922 -0.20901278 0.20518589 -0.16799642 -0.10500088 0.06073098 0.016619155 -0.18532997
0.24831718 0.14783569 0.0039235214 -0.026045624 -0.0597884 0.11123115 -0.04121836 0.25283036
0.22686261 0.077663414 -0.0902849 0.051847726 -0.19560671 0.09512596 -0.0018303161 -0.05612678
0.13946205 -0.1114804 0.014473121 0.15078348 0.2097171 0.13221714 0.11179044 0.12019657
0.051230684 0.06815352 0.27573088 -0.0999111 -0.2608524 -0.050646443 -0.07221435 0.33887765
0.23549408 -0.09776766 0.12032875 0.26151073 0.17944618 0.08589086 0.031879216 0.081920914
-0.11227912 -0.21415666 0.05266506 0.1724833 0.1382127 -0.14553048 0.19818479 0.25615442
0.029155873 0.040772397 0.17177875 0.26428506 -0.13419035 -0.093748145 -0.16821752 0.03105754
-0.14725304 0.16716506 0.054065242 0.05435726 0.13164523 -0.06548006 0.23259318 0.010103377
-0.07395855 0.023828037 0.027466275 -0.0491008 -0.0440873 -0.17005783 -0.2015736 -0.16182065
0.27969554 -0.05427259 0.030593652 0.018305633 -0.024033647 -0.084781915 -0.08670102 -0.102323756
0.07681249 0.014168546 0.03750947 -0.010034262 -0.17246771 0.0669881 -0.016624741 0.052083552
-0.2080165 -0.06301354 0.12840375 -0.09882328 0.3021139 -0.23353945 0.098231636 -0.12754525
0.16417183 -0.036405545 0.0691444 -0.28086883 0.027658053 -0.033574104 0.22727808 0.012138513
-0.099218555 -0.2863913 -0.018363327 -0.16331518 0.17612544 -0.12203369 0.17158052 0.09720786
-0.020277346 -0.21063815 0.07967766 0.058761887 0.05768286 -0.023040636 -0.05386488 0.08256277
-0.12146452 -0.045707162 -0.17745282 -0.07786367 0.12069889 0.03365787 0.12247219 0.08743519
0.27760655 -0.050931938 -0.08419428 -0.09043071 0.40894133 -0.13035168 -0.07512588 -0.14036138
0.23668744 -0.066747956 0.022327691 -0.26672268 -0.10159017 0.05129736 -0.04552298 0.24316308
0.0367541 0.34073842 0.26106784 -0.11482126 -0.03351261 -0.02483041 -0.15264659 -0.19418703
0.07400799 -0.019007254 0.34853765 0.0047847233 -0.28885064 0.0041506826 -0.1023163 -0.29734004
-0.16397315 0.09015783 0.12687021 -0.21245176 -0.035817068 -0.28494346 -0.01564908 -0.06830352
-0.122835115 0.10219867 0.013276514 0.092165776 -0.045600235 -0.009192753 -0.0035447958 -0.023125043
-0.058124974 0.054057926 0.087684326 -0.032087438 -0.016308373 -0.025041977 -0.124552585 0.19068699
-0.12386874 -0.19604452 -0.051871777 0.059234932 -0.02726141 0.14864963 0.0045378725 -0.0045789666
0.05591903 -0.012784757 -0.3680086 0.067048214 0.11313053 0.060858585 -0.0057873433 -0.021440307
-0.06952494 0.043710433 -0.18656047 -0.013321104 0.060303304 -0.0768125 -0.3121904 -0.16998214
0.053113542 0.24541943 -0.01158844 0.01144951 -0.07192058 0.054781176 0.056959137 0.038447365
-0.113458596 0.01247695 0.11692424 0.076229066 -0.10937894 0.1473713 -0.050344847 -0.018929958
0.08398468 -0.0140366955 0.10358186 0.017484957 0.058211807 -0.08062446 -0.12074231 0.05782571

conv2.bias f4 [32]
00000000: 53c9 2bbe 7c8c 36be 1c56 38be 881f c7be
00000010: 3a44 13bd 09c1 d2bd 8ffc d9bd 99b6 82be
00000020: ea79 acbe d523 143e b58f 8fbd de59 06be
00000030: 2943 90be df05 08bc a8d5 adbe 3ad5 ebbd
00000040: 692e 9cbd 0202 47be 8ec3 adbe 46cd fbbd
00000050: 91d2 ccbe 1978 83be a46a 88be 1295 91be
00000060: 8fda 1ebe 004e 2cbe 8332 76be cbe1 0abe
00000070: 7a97 84be 2e28 70be 2d5e 8bbe d2a6 c1bd
-0.16776018 -0.17827028 -0.18001598 -0.38891244 -0.035953738 -0.10290725 -0.10643875 -0.25529936
-0.33686763 0.14466794 -0.07009832 -0.13120219 -0.2817624 -0.008302181 -0.3395207 -0.11515279
-0.076260395 -0.1943436 -0.3393826 -0.12295012 -0.400044 -0.25677565 -0.2664386 -0.28434044
-0.15513061 -0.1682663 -0.24042706 -0.13562696 -0.25896817 -0.23452827 -0.27220288 -0.094556466

conv3.weight f4 [256, 64, 5]
00000000: 67c3 a6be 9abf 3ebe 9dbe a5be 4ba7 2ebd
00000010: 05dd 943c da7f 3dbe 9d2d c2be e170 f1bd
00000020: 10eb 85be f97d 36be 5f19 c43d 4f0d 4abe
00000030: efb9 60be 5350 563d 30ee b43c c104 85be
00000040: 0a76 3abe 81d3 293d 9b5f 9bbc add1 d4bd
00000050: beef a63d 0df8 62bd 09c7 0bbe 3646 36be
00000060: 5fe2 a8bd de80 143e 99e2 92be 71c8 013d
00000070: dce0 8a3d 1183 853e d5e1 17be 66eb aabe
00000080: efa4 94be 4f44 04bd 2e6a 9fbe b3b6 28be
00000090: f5db 8b39 fc55 58be 0fda b6bd 1a81 2b3d
000000a0: 3e27 90bd fdfe 36bc 35e3 8f3e c2eb 07be
000000b0: 6e57 ad3d 4f22 0f3e e0e7 72be a792 003d
000000c0: 5e12 47be b277 97bd d417 7e3e a857 9f3b
000000d0: 592f 3ebc 8c30 29be c2da 133e 8728 60bc
000000e0: ab7d cfbd cdfe 9bbd 07cf 3f3d 5e1d 8d3d
000000f0: 8ba0 25be 5010 21be 8f14 973d 9079 9bbe
00000100: 4536 433d 341a 54bd ad61 5e3e e13d 9abd
00000110: 8991 5a3d 549a 023d 0dc2 7ebd 1480 0c3e
00000120: 8cce 53bd 0e46 09be e3ba 44be 74d9 55bd
00000130: e0a4 023e 9793 6cbd c621 8abc 3f8a 91bd
00000140: 6e59 a03d cc88 df3d ff0d fd3d e599 893d
00000150: 3a41 43bc e4c2 1d3e 0daf 55bd 84ed 91be
00000160: c5b1 7bbe d205 4b3d f23b 80bd 9427 febd
00000170: 2528 c53d f5d3 7b3c 8d55 c03d 8e93 f93d
00000180: 548d 16bc 4da3 e73d 7453 163e 91f9 9a3c
00000190: 3067 18bc 8b35 1dbe f648 9fbe d593 823d
000001a0: 9723 443c 0fd1 cc3c 496d b23d d5dd 71bd
000001b0: f303 9c3d 2ad3 9d3d 9534 3bbc 7708 2bbe
000001c0: 9500 44be 3009 bfbc 353b 45bd b8a2 9e3d
000001d0: b29c 27be 381c 203e 2ada f53d b505 0e3d
000001e0: 844d 093e 3b9b 8f3d f1d1 2dbe 2651 0c3e
000001f0: d1b7 9a3a 4dc2 89bd 7705 a93d 940f e63d
00000200: fe36 a93b 58f3 5bbd 9b91 0dbe df65 b93e
00000210: 68ef 193d a434 e1bd 5c54 8c3d 0c85 70bc
00000220: 2f21 043e 6950 dfbc 1799 403e f5e3 acbc
00000230: 425d 8dbd 8f39 8f3d 06a6 13be cf9d ea3d
00000240: b11d 72bd bcac 913d 9a9b 17bd 3ee9 5d3d
00000250: 3862 35bc 4d4e 263e a112 e23d 494a dc3d
00000260: a385 d9bd f819 123e 46dc 653d 55c3 bbbd
00000270: 2bcb a3bc 82c1 ac3c f99c 48bd 442d aebd
00000280: 2b31 58be 3a44 d8bd 2ec5 83bd 159b 003e
00000290: 2b0c b23d 7287 b1b9 33e2 1dbe 9dda afbc
000002a0: 170e 233d 1d50 46bd bd51 b63e 82ef 093e
000002b0: 1ab4 77bd d571 b9bc 4c8c a63c 1d65 22be
000002c0: ae2e b0be db1e 343e aaef 82bd 58ff 86bb
000002d0: 10c6 aa3d 73c4 503e 2926 92bd 39e2 c93c
000002e0: bdb7 6f3e c75c 72be 931c 6ebe aaa2 5cbd
000002f0: d1e0 073c 00c3 ec3d be10 d73d 221b 32be
00000300: c66d 903d 7e8a 07bd ba43 09be 77eb 7fbd
00000310: d70b 573d f2aa 7cbe b049 5c3e a6d3 21bd
00000320: c22a 98be cce8 8b3e fd09 62bc 574e 5a3d
00000330: 7aac a8bd 8fe4 cabc ebbc 1dbd aa88 9fbe
00000340: fb17 b93d b47a 3fbe fe50 573e 2991 8bbe
00000350: c863 99bd 2259 143d aaa9 b5bc adf9 a1be
00000360: c8b7 983d 52a5 bbbe de37 5e3d 7673 203e
00000370: 063d 1fbd 7a0f e4be a029 3cbe a0e5 a63d
00000380: 8230 593d 9d08 89bd 2d7a 203d 7ca8 b1bd
00000390: 7953 6e3d 42c6 f43c 888b 62bc 517d a4bd
000003a0: 6179 fb3d 32f2 273e b482 ce3b 93ff adbd
000003b0: f9ca c5bd 7c31 7a3d 3506 0a3e 542b 2c3e
000003c0: 6a88 1ebd fd01 f93c e4d0 88be d35e eeba
000003d0: b688 4c3e 6705 3e3e 9035 09be 5562 51bd
000003e0: e9f6 29be 1b85 0a3d 31e2 22bd 25ad 8cbc
000003f0: f806 2c3d d91d 07be b61c d03c 82a4 15bb
-0.32570955 -0.18627778 -0.3237199 -0.04264001 0.018171797 -0.18505803 -0.37925425 -0.11789108
-0.261559 -0.17821492 0.09575152 -0.1973164 -0.21945928 0.052322697 0.022086233 -0.2598019
-0.18209091 0.04146147 -0.018966487 -0.10391555 0.08151196 -0.05541234 -0.13650145 -0.17800221
-0.08246302 0.14502284 -0.28688505 0.031685296 0.0678117 0.26076558 -0.14832242 -0.3338272
-0.29032084 -0.032291707 -0.31135696 -0.16475944 0.00026676027 -0.2112655 -0.0892831 0.041871168
-0.07038735 -0.011169192 0.28103033 -0.13273528 0.084639415 0.13977931 -0.23721266 0.03138986
-0.194406 -0.07395877 0.24813777 0.0048627444 -0.011607968 -0.16522425 0.14438918 -0.0136815375
-0.10131391 -0.07616959 0.046828296 0.06890367 -0.16174524 -0.15728879 0.07376968 -0.30366182
0.047659177 -0.0517828 0.21716948 -0.07531334 0.05336145 0.03188546 -0.06219678 0.13720733
-0.05171065 -0.1340563 -0.19211917 -0.052209333 0.12758207 -0.05775794 -0.016861808 -0.071064465
0.07829557 0.10914764 0.12356185 0.06718806 -0.011917407 0.15406376 -0.052168895 -0.28501523
-0.24579532 0.049566098 -0.06261434 -0.12409893 0.096267976 0.015370359 0.093913175 0.12186347
-0.009188969 0.11310444 0.14680272 0.01891783 -0.009301946 -0.15352456 -0.31110352 0.06375853
0.011971376 0.02500203 0.08712251 -0.059049446 0.07617941 0.07706292 -0.011426111 -0.16702448
-0.19140847 -0.02331981 -0.048152167 0.0774588 -0.16368368 0.15635765 0.12004502 0.03467341
0.13408476 0.0701203 -0.16974618 0.1370283 0.0011804049 -0.06726513 0.082529955 0.1123344
0.0051640263 -0.053698868 -0.13825075 0.36210534 0.03758183 -0.109963685 0.06852028 -0.014680158
0.12903284 -0.027260022 0.18808399 -0.021104792 -0.06902553 0.069934 -0.14418802 0.11455881
-0.059110347 0.071130246 -0.037013628 0.054177515 -0.01107078 0.16240807 0.110387094 0.10756356
-0.10621192 0.14267719 0.056118272 -0.09168116 -0.019994339 0.021088365 -0.048977826 -0.085047275
-0.21112506 -0.10559888 -0.064340934 0.12559159 0.08693727 -0.00033860985 -0.1541832 -0.021466548
0.03980836 -0.048416246 0.35609236 0.13470271 -0.060474493 -0.022637287 0.02033057 -0.15858884
-0.34410614 0.17589895 -0.063933685 -0.004119795 0.08338559 0.2038744 -0.07136185 0.024644004
0.23409934 -0.23668204 -0.23253088 -0.053866066 0.0082933465 0.11560631 0.1050124 -0.17393163
0.070521876 -0.03309106 -0.13404742 -0.062480416 0.052501526 -0.24674585 0.21512485 -0.039508484
-0.29720122 0.27326047 -0.013796327 0.053297367 -0.08236022 -0.024767188 -0.038510244 -0.31158954
0.09037777 -0.18699151 0.2102699 -0.27259186 -0.07489735 0.036217816 -0.022175629 -0.316358
0.074569285 -0.36649567 0.054252498 0.15669045 -0.038876556 -0.44543058 -0.18375254 0.08149266
0.053024776 -0.06691096 0.039179016 -0.08674714 0.058185074 0.029879693 -0.013827212 -0.08031715
0.122790106 0.16400984 0.006302202 -0.084960125 -0.096578546 0.06108235 0.1347893 0.16813403
-0.038704313 0.030396456 -0.2672187 -0.0018186219 0.19974026 0.18556748 -0.13399339 -0.051119167
-0.16598095 0.033818346 -0.039766494 -0.017172405 0.041998833 -0.1319498 0.025404315 -0.002283365

conv3.bias f4 [256]
00000000: 87f8 8b39 de39 debd 7e45 ed3d 48d1 e0bd
00000010: fbd4 14be 4cab b23d 7cb5 08bd 7cc5 013e
00000020: 7502 9f3c 3cec c5bd 249e e0bc ac67 693c
00000030: 8900 dbbc 51a6 a23d 418d efbd 4ede 5abd
00000040: 93b9 333e 6cd4 ecbd 5ff1 adbd bd65 65bd
00000050: 2da0 073e fd2b 393d cc41 413d e39b 9abc
00000060: 465d 17be ef2b ac3d 6d33 82bd 00cc 483c
00000070: 00e5 e7bd 5af6 02be d830 7ebb ecdd c3bd
00000080: 2aa4 8a3d 6ec6 abbc cda0 903e 4f11 a5bc
00000090: 79c5 43be 7ffc ea3c 397b 3ebd 1c67 9b3d
000000a0: a1b6 5dbd a7f5 f8bd 121b 85bd 1b4b 80bd
000000b0: 74d3 e5bd 1134 d6bd 336f a3bd e483 303e
000000c0: 104b b2bd 5407 84bd 23d8 27be 488d a2bd
000000d0: 01f8 74bc 2cdd 933e 59ff 0bbe 6aba 503d
000000e0: bd7a abbb b658 48bd 7b36 2fbe ced2 abbd
000000f0: fc43 583d 4fc2 96bc e453 8cbd 44d2 cf3d
00000100: 9887 81bc 8489 e43d af0a c43d d7f1 eebd
00000110: 786d 883d c3b4 e7bc a91d e4bb 4350 d13a
00000120: a1db 253e 8556 903e d08e 193e 1f52 48bd
00000130: 4b3f 09bd d05f aebd 0d77 19be 278f 9dbd
00000140: a8d3 cdbd b08f ba3d a486 8bbd 8d40 0fbe
00000150: f64c bbbd d269 bfbc 5f89 b3bc 0238 fb3d
00000160: c11a f33d 9636 d03b 6752 df3d 27b6 733b
00000170: 91b6 7abd cc77 2bbd 048b 12be 14bf 07be
00000180: c151 0bbd 5dbc 9ebc de08 aa3d 048e 023c
00000190: 664a e43c 1828 253e 0429 43bc b9f9 8bbd
000001a0: f62e ab3b 11cf 773d 0a93 1c3e 5362 3ebe
000001b0: aeef a9bd a653 6cbc 7459 1e3d 0380 b63d
000001c0: b403 1ebd d8ed 233e f2a8 fa3d 29f8 c8bd
000001d0: 49a7 9d3d 645a 94be 977d ebbb dbdb 45be
000001e0: 8258 5e3c dd91 33be 5f8c 83bd 4101 223e
000001f0: bd5d 0bbd 868d 67bc 34d6 c5bd ad01 7b3c
00000200: beef b3bd 57c1 b1bd 07c7 313e 624a df3c
00000210: 7162 f6bd ad52 2fbc 9af8 aebd 8623 dcbc
00000220: eb79 f53d 5a28 e93d f966 cabc 7a0a c43d
00000230: af1e 573d de86 ecbd 5d1e c6bd b5de adbd
00000240: 26ea 81bd 92fb f23d 4798 40bd 6804 4b3d
00000250: 67f4 84bd d1db 17bd fe6f 1f3d a337 433d
00000260: 3020 063d 40ed 1bbe 0385 25be 6df0 cbbd
00000270: 14f5 5cbd 4227 1ebd 7bb3 9fbd 4f25 89bd
00000280: 8534 9ebd 1a3c 8e3b 9f95 fcbd d713 2cbe
00000290: f53d 5ebd 5e43 84bd 376d e8bd 5bb9 683d
000002a0: 7715 b7bd e11d 9b3b 5db7 a33d 3468 203d
000002b0: ff4b 4bbe 0ef4 213e a5e8 87bd 0c1a 273e
000002c0: a53d febb 6843 1b3e cbae 8e3c 5224 a3bd
000002d0: a843 6bbd f47e d6bd 96cf b5bd be32 7e3d
000002e0: 7e5e 0bbe 3d0e 7bbd 11f3 84be edee 1bbd
000002f0: f0ed d7bd 106b 7a3d a1da a1bd 2574 b33d
00000300: 0651 6d3e ec9d acbd 2f35 193e 2d08 9fbd
00000310: 6ce7 1bbe 3d8d 0e3e 151c 57bd 3169 663c
00000320: 8fe6 aa3d 78ea 93bd 52d8 f4bb 6bda 3c3d
00000330: 1c46 bdbd b63d 39bd 9cc5 7ebd 65fc bbbc
00000340: aee4 0dbe 36c8 2dbe 42bf 993d ab3a 303d
00000350: e06c fc3d df7c 36bd ba2c bebd f05b 093e
00000360: b135 063c ad06 313e 79bd 4c3d e8dd d7bd
00000370: c8a4 863e 2e1a 633d 9779 373e a4af 02be
00000380: 15b4 733d 3fce 5abd 7034 c6bd f2f3 913e
00000390: 635b f4bc ed9e bbb9 30c1 333c aa48 a2bd
000003a0: 9d93 5cbd 3bd7 8e3d 3a04 45bc ac61 3bbd
000003b0: e640 7bbc f882 24be cbff 9cbd 1ced 32bd
000003c0: b53d 8fbd c7a7 53be 89ac b5bc 38b7 e4bd
000003d0: ff39 2bbd e060 12bd 340d e83b a07c 933d
000003e0: 81e3 02be 9c19 713c 4f2a 5bbe debf eebd
000003f0: 6c6c 1fbe 90e7 acbd a0a4 5e3d 478e a63d
0.00026697313 -0.10850881 0.1158552 -0.10977417 -0.1453437 0.087240785 -0.033376202 0.1267299
0.019410351 -0.09664199 -0.027419157 0.014245909 -0.026733654 0.079418786 -0.11696864 -0.053434663
0.1755126 -0.11563954 -0.084933035 -0.05600523 0.13244696 0.045207966 0.04718189 -0.01887316
-0.14781675 0.08406817 -0.06357465 0.012255669 -0.11322975 -0.12789288 -0.0038786437 -0.095638126
0.06769593 -0.020968642 0.2824768 -0.020149855 -0.19118299 0.028684853 -0.046504233 0.07588026
-0.054129247 -0.121562295 -0.06499304 -0.06264325 -0.11221972 -0.1045915 -0.07980194 0.17237812
-0.08705723 -0.0644671 -0.16391043 -0.079371035 -0.014951707 0.28879678 -0.13671626 0.05095903
-0.0052331374 -0.048912726 -0.17110626 -0.08389817 0.05279921 -0.0184032 -0.06851938 0.10147527
-0.015811726 0.111590415 0.0957235 -0.11667221 0.066615045 -0.028284436 -0.0069615436 0.0015969354
0.16197063 0.2819101 0.14995885 -0.04890644 -0.033507627 -0.085143685 -0.1498682 -0.0769332
-0.10050136 0.091094375 -0.0681279 -0.13989468 -0.091455385 -0.023365889 -0.02191609 0.12266542
0.11870337 0.0063541634 0.10904389 0.0037187429 -0.061209265 -0.041862294 -0.14310843 -0.13256484
-0.034013513 -0.019376928 0.083024725 0.0079684295 0.027867507 0.16128576 -0.011911634 -0.0683474
0.005224104 0.06050021 0.15290466 -0.18592195 -0.082976684 -0.01442424 0.038659528 0.08911135
-0.03857775 0.16008699 0.12239255 -0.09812958 0.07697923 -0.28975213 -0.0071866023 -0.1932215
0.013570907 -0.17536111 -0.06423258 0.15820791 -0.034024943 -0.014132863 -0.09659997 0.015320224
-0.087859616 -0.08679455 0.17361079 0.027257148 -0.12030495 -0.010700864 -0.08543511 -0.026872408
0.11986145 0.113846496 -0.024707304 0.09572311 0.052519497 -0.115491614 -0.0967376 -0.084897436
-0.063434884 0.118643895 -0.047020223 0.04956475 -0.064919285 -0.037074868 0.038925163 0.04766048
0.03274554 -0.15227222 -0.16164021 -0.09957967 -0.053944662 -0.038611658 -0.07797905 -0.06696569
-0.07724861 0.0043406608 -0.123332255 -0.16804443 -0.054258306 -0.06458162 -0.11348956 0.056817394
-0.08939641 0.0047337865 0.07993958 0.039161876 -0.19853209 0.15815756 -0.0663617 0.1631853
-0.0077588134 0.15162432 0.017417332 -0.07965912 -0.05743757 -0.10473433 -0.088774845 0.06206011
-0.13610265 -0.061292876 -0.25966695 -0.038069654 -0.1054343 0.06113726 -0.07903028 0.08762387
0.23175439 -0.08428559 0.14961694 -0.07765231 -0.15224999 0.13921066 -0.052517015 0.0140631655
0.08344757 -0.07222456 -0.0074720765 0.046106737 -0.09241888 -0.045224868 -0.062200174 -0.0229475
-0.13856766 -0.16970906 0.07507183 0.0430247 0.12325454 -0.04455268 -0.09285875 0.13413978
0.008191512 0.17287703 0.049985383 -0.10540372 0.26297593 0.05544489 0.17917477 -0.12762314
0.05949791 -0.053419348 -0.096779704 0.28506428 -0.029828733 -0.00035785828 0.010971352 -0.07924016
-0.053851712 0.06974646 -0.0120249335 -0.045747444 -0.015335297 -0.16065586 -0.07665976 -0.043683156
-0.069941916 -0.2066947 -0.022176998 -0.11167759 -0.041803356 -0.03573692 0.007081652 0.07201505
-0.12782098 0.014715578 -0.21402858 -0.116576895 -0.15568703 -0.084426045 0.054356217 0.08132606

fc.weight f4 [8, 256]
00000000: 8f6b 35be ea3d 133d 2657 24be 1149 f2bc
00000010: 16d1 173c 77a2 bd3d 7d2a 2d3d 8522 713c
00000020: 9b9f 403d 8be6 013c 034b 5d3d 5708 7abd
00000030: e4d3 8bbd d7a8 5e3d 91e9 8cbe 4fe4 43be
00000040: 2ef9 323d 34fe 6cbc 8fe0 25bd 1f98 d63b
00000050: 2fcb bfbc 1581 653d a720 a13c 2a34 473c
00000060: 940b 16bd ae77 3abe 3c5e 853c f0ee 7cbe
00000070: 6964 7dbc 2724 07bd dbc8 65bd 1f93 61bd
00000080: 015e 06be 65da 533d 230e d23d 79e9 69bc
00000090: 8ff5 7fbc 464a 8fbd 926c 3ebd 9840 49be
000000a0: cbd4 0d3d 2f4d 4bbd 5e5c 62bd b213 df3d
000000b0: 300c de3c 8d81 04be 3e33 d4bd 9798 bebb
000000c0: 6565 203d f766 d93b 9511 0dbe adf8 3bbd
000000d0: e6ab 1dbe 0088 bbbd 5313 133d f361 d43d
000000e0: ceeb 543d ca0c 31bd 7d1d dcbd e2fd 08bc
000000f0: 5ebe 5b3e 2ecf fdbc 0ec3 903d d703 f9bd
00000100: 032e a5bc a610 2cbe 761c 15bc 8739 15be
00000110: 7718 eebd 6f80 7dbd 7a74 f7bd ee55 7abe
00000120: 141c 403d f20d 3c3d 8029 823d b605 333e
00000130: 012e 49bd c2cf 233d f692 c4bc c6ed 69be
00000140: 68c3 7bbc 04e8 643c b5cc cb3c 499e a7bd
00000150: 13ec d73d 9d96 743d 4d61 953d 4b03 10be
00000160: 49cd c4be a7be 27bd e5da ea3c 04f8 07bd
00000170: f893 f43d 1157 97bd d57e 643d e773 c33d
00000180: be70 21be 2b4f 193d 714c 003c 5d7e 89bd
00000190: 6498 c83d a515 273d 408a 09bd 67b6 3abc
000001a0: bf0a cbbb 499e 55bd c9ca cc3c 9af7 4dbe
000001b0: 63b8 dc3d dbee 16be b1e0 98bd c35e 70bd
000001c0: dd39 afbe e757 dd3b 331a 8b3d 7ffc 60bd
000001d0: 7c4d 6a3b a0b0 803d 0932 3cbd 15af 033d
000001e0: 3ddc e53c e5fc 9d3c a951 83bd ae6c e93b
000001f0: 4455 63bc b3ef 2ebd 09a6 fd3d ab44 28bd
00000200: c801 a7bd 2db5 1f3e bec8 003d a158 763d
00000210: 6321 19bd 18ae afbc 636b 813d abec 8cbe
00000220: 67b9 203d 456f 82bc 4538 88bd 2588 dabc
00000230: 6878 4d3d c1f2 653d 7786 ce3d 651c 08be
00000240: f92d 2cbd e550 8d3d c594 a5bd a5e5 653d
00000250: fb03 4cbd ad46 47bd bc03 083d 8f3e 4b3e
00000260: 9c98 4cbe 0813 c1bd 4e72 be3c 0308 1ebd
00000270: e4a0 39bd 2f86 84bc 7589 01bd 27f2 d9bc
00000280: fbdc 3fbc e220 10bd d089 c13b 0616 d6bd
00000290: 06e3 2cbc 823d 073b 9f4c 3fbc de76 dbbc
000002a0: 679d 8ebd c79c e7bb d1c6 fabb c2cb 9ebe
000002b0: d9c8 13bd d433 97be 2d10 84bd 015f 603d
000002c0: eb5e 273d c214 e13b 7ca3 6dbc 6cc9 86bc
000002d0: fd97 113e 2b84 f23d 659f 1fbd 78d8 893d
000002e0: d4a4 b7bc 5564 08bc 9bac 0cbe d14e 953d
000002f0: cfaf e5bc 276a 4e3e ee6b 5cbd af68 0abe
00000300: 5cc0 9cbc 30da 20bc 17b6 7b3d 987c 6dbb
00000310: ad9d ea3b b466 3bbd 55e5 acbb fe30 af3c
00000320: 6c6d 973d 5ba6 19be c1c4 afbe 3d95 32bd
00000330: 5f11 f9bb 7300 f63c adb1 debe 8a7c 9fbd
00000340: 78da 8bbd 75f7 bd3c 3f46 113d 4191 d93c
00000350: 8802 783d ffd0 40bc b56a ccbd 81fd 17be
00000360: 039f 45be 7c0f e5be 9944 143c 18b1 873c
00000370: 5240 333d b7fd 8cbe b3cc 22be fe56 adbd
00000380: 63c9 b93d f5cd 053c 5409 64bd 7495 613d
00000390: b7dd 743d 593d 56bd 8dbf 433d cf58 9dbc
000003a0: f9a8 61bd 75ad 913c 3673 97bd eaa6 183d
000003b0: 97e2 193e 8950 aa3d 272d 59be df83 ef3d
000003c0: 450d 1d3d 0d8a 40bd e732 10bd 7751 90bd
000003d0: 0ad0 b7ba 9b55 7ebd 2ac9 febc e0a3 c83a
000003e0: 4b64 923d a34e c1bd 72a2 afbd 6573 c33d
000003f0: aa90 babc 49a7 1cbd 99d0 e63c 74f7 b03d
-0.17716812 0.035947718 -0.1604887 -0.029575856 0.009266159 0.09259503 0.042276848 0.014717703
0.04702721 0.007928501 0.054026615 -0.06104311 -0.06827524 0.054360237 -0.27521947 -0.19130062
0.043694668 -0.014464904 -0.04049736 0.006548896 -0.023412315 0.056031305 0.01966889 0.012158433
-0.036632136 -0.18209717 0.016280286 -0.24700522 -0.015465834 -0.032993462 -0.056099754 -0.055071946
-0.13121797 0.05172195 0.102566026 -0.014276856 -0.015622511 -0.069965884 -0.04649026 -0.19653547
0.034626763 -0.049634155 -0.05526387 0.108924285 0.02710542 -0.12940045 -0.10361336 -0.00581653
0.039159197 0.006634589 -0.13776238 -0.045891453 -0.15397605 -0.09156799 0.0359071 0.10370245
0.051982693 -0.043225087 -0.10747812 -0.008361312 0.21459338 -0.03098258 0.07068454 -0.121589355
-0.020163542 -0.16803226 -0.009101024 -0.14572726 -0.1162576 -0.061890062 -0.12082763 -0.24446842
0.046901777 0.045911737 0.06355572 0.17482647 -0.04911614 0.039993055 -0.023995858 -0.2284461
-0.015366413 0.013971332 0.024877885 -0.081844874 0.105430745 0.05971395 0.07293949 -0.14063756
-0.3843787 -0.040953305 0.02866883 -0.03319551 0.11942285 -0.073896535 0.05578502 0.09543591
-0.15765664 0.037429016 0.007830725 -0.06713555 0.09794691 0.040792126 -0.03357911 -0.011396027
-0.0061963494 -0.052152906 0.02499904 -0.20113984 0.107773565 -0.14739554 -0.074647315 -0.05868412
-0.34223834 0.0067548635 0.067921065 -0.0549283 0.003575175 0.062836885 -0.045946155 0.032149393
0.02805912 0.019285629 -0.0641206 0.0071235513 -0.013875309 -0.042709064 0.12385184 -0.041081112
-0.081546366 0.15596457 0.031441443 0.060143117 -0.037385356 -0.021445319 0.063193105 -0.27524313
0.039239313 -0.015922198 -0.066513576 -0.026676247 0.050163656 0.05613971 0.10084241 -0.13292082
-0.04203603 0.06900195 -0.08085016 0.05612721 -0.049808484 -0.048651386 0.033206686 0.19848083
-0.19980091 -0.09427458 0.023247864 -0.03858186 -0.045319453 -0.016177265 -0.03162523 -0.026604725
-0.011710401 -0.03518761 0.005906321 -0.104534194 -0.0105521735 0.0020636027 -0.011675983 -0.026790079
-0.06963616 -0.00706825 -0.0076530953 -0.3101483 -0.036080215 -0.2953173 -0.06448398 0.054778103
0.040862005 0.0068689296 -0.01450431 -0.016453467 0.14218135 0.11841615 -0.03897037 0.06730741
-0.022417463 -0.008324702 -0.13737719 0.07290424 -0.028037934 0.20157681 -0.053813867 -0.13516496
-0.019134693 -0.009817645 0.06145295 -0.0036237594 0.0071599097 -0.045752242 -0.005276362 0.021385666
0.073939174 -0.15004866 -0.343298 -0.043599356 -0.0076009477 0.030029511 -0.4349493 -0.07787426
-0.06828779 0.023189286 0.035467383 0.02655852 0.06054929 -0.011768579 -0.0998129 -0.14842798
-0.1929894 -0.44738376 0.009049558 0.016563937 0.043762513 -0.2753732 -0.15898399 -0.08463858
0.090716146 0.00816678 -0.05567296 0.05507417 0.059781756 -0.0523046 0.0477901 -0.019207386
-0.055092786 0.017782906 -0.073950216 0.037268557 0.15027843 0.08316142 -0.2120863 0.11695074
0.038342733 -0.047006655 -0.035204794 -0.07046788 -0.0014023792 -0.06209336 -0.031101782 0.0015307628
0.071480356 -0.09438827 -0.08575906 0.09543494 -0.02277406 -0.038245473 0.028175639 0.08640948

fc.bias f4 [8]
00000000: f326 c9bd 67ca 83be 73ca 8cbe 65b8 973d
00000010: 54f2 bebe 1b0b d2be 844b 983e 0c89 593d
-0.09821882 -0.25740358 -0.27498206 0.07408217 -0.37294257 -0.41024098 0.29745114 0.053109214
