src/main/python/saved_models/javascript_1_37_RNNClassifier1_128embs_130id_16hd_1hl_Falsebid_2.pt (torch, 78175 bytes, 7 tensors)

word_embeddings.weight f4 [130, 128]
-0.43625033 -0.07073926 -1.3454982 -0.9991983 0.058379296 0.9581885 -0.39012316 -1.3809062
-0.7449763 1.6189328 -0.50522935 0.89027727 -0.34245974 -0.09611885 -1.897302 -0.840831
0.15820979 1.1962492 0.83632743 0.83793503 3.1762102 -1.1445533 0.6051272 -0.6914066
-0.82801634 2.6460514 -0.43922704 -0.80850434 -1.803419 0.42227238 0.72179145 -2.3310814
2.4824889 -2.5983384 0.65580374 0.73823214 -0.7043389 1.3726501 0.55869067 0.44312602
1.4295318 0.118149966 0.03941294 1.1570067 -2.1092381 -0.8428143 0.38580108 -0.043292183
-0.017167196 -0.5285895 0.3427647 0.7965957 -0.16269463 0.22748907 -0.3262981 -0.26387542
-0.33742255 0.6887355 0.11856799 -0.33218127 0.63116795 0.54633534 1.5309246 0.43183059
0.26470503 0.03653451 -0.51982665 -0.60155296 0.68684214 0.5550085 -0.18995225 0.011771871
-0.8855394 -1.0812906 1.1043764 0.007204668 0.59148675 0.46362185 -0.4583368 0.9053309
-0.13894612 1.7313817 -0.6902482 -1.3282821 -1.2281165 0.18074185 1.2632991 -1.1438245
-0.1697005 0.6799551 1.233136 0.38074362 -0.08486091 1.2518859 -1.1377475 -0.011904578
-0.5172079 1.5970608 1.3662299 -1.9016945 -0.37124777 1.5685067 -1.3168485 -0.39556786
2.0128903 -0.4533718 -0.5029761 -0.27044678 -0.75797236 0.6601478 0.28378356 0.8981673
0.17449445 0.7192722 -1.0873637 0.7170483 -1.3334392 0.14861926 0.70723087 2.5464857
-1.4385523 0.65799296 0.73498046 1.647732 -1.3907584 -0.4189496 -0.044520278 -0.48909384
-0.060074177 -0.8677768 0.81686413 0.10756496 0.5815036 0.81132936 -0.8052546 0.355385
-0.4635846 -0.0063193548 -0.61535466 0.82185423 1.0150504 -0.5637663 -0.028547144 0.5674183
-0.6617525 -0.8747343 0.4625933 0.94526917 0.39124018 -0.68350744 -0.07170018 -0.1824598
-1.8464565 0.22920224 -0.64617896 -1.4509549 -1.6520162 -1.3107656 0.08487376 -1.148878
0.027306536 -0.63494694 -1.0024991 -0.52691996 -0.35185763 0.24591807 1.7514563 1.8102331
-0.5040842 0.61717844 0.10032596 -2.1821463 -0.63128424 0.34553435 0.31434488 0.008825558
-0.8506963 1.9685429 1.1031649 -0.82641876 -0.888351 -1.384664 0.43835697 0.119724676
0.9778211 0.42305177 -0.58447164 -0.6063742 -0.5002594 0.15589644 -0.11487417 1.5508425
-0.7794788 0.84712905 -0.10263848 -0.12793219 1.6800627 0.22906193 0.81268865 1.2617152
-1.2942303 -0.8772053 -1.0701945 -1.4398669 -0.21663676 0.4623181 -0.6710754 0.385409
-1.4402606 0.108605675 -0.45189497 -1.0960096 1.0531774 0.38443497 -0.16126736 0.52360094
-0.65386117 0.2795117 0.7409904 -0.4991119 0.68237877 0.9978901 -0.7727902 0.11597088
1.1409123 -0.086673215 -0.81943125 0.7822575 -0.7561478 0.34845138 0.9294175 -0.44425708
-0.25631353 -0.02589951 0.16682644 -0.33018535 0.097645536 -0.083682634 1.7826633 0.55270505
-0.33333147 -1.0567092 0.42471015 0.04615417 -1.7848469 0.061202765 0.60444903 -0.9440836
0.3531773 -0.02611184 -1.1063768 -0.7581362 0.989301 0.33398563 0.60582334 0.56064016
00000000: 345c dfbe bfdf 90bd 4939 acbf 76cb 7fbf
00000010: 211f 6f3d d74b 753f 39be c7be 89c1 b0bf
00000020: c4b6 3ebf 3139 cf3f b656 01bf 36e9 633f
00000030: e256 afbe f6d9 c4bd cbda f2bf b340 57bf
00000040: bf01 223e b21e 993f 8e19 563f e982 563f
00000050: 0747 4b40 b980 92bf 9ee9 1a3f 0600 31bf
00000060: e1f8 53bf e858 2940 5ee2 e0be 24fa 4ebf
00000070: 6fd6 e6bf 1634 d83e 53c7 383f 7030 15c0
00000080: 19e1 1e40 2d4b 26c0 c1e2 273f c8fc 3c3f
00000090: 8e4f 34bf 00b3 af3f 5a06 0f3f 6ae1 e23e
000000a0: e6fa b63f 9cf8 f13d 776f 213d cc18 943f
000000b0: c2fd 06c0 aec2 57bf b887 c53e 2553 31bd
000000c0: 38a2 8cbc a451 07bf db7e af3e b2ed 4b3f
000000d0: 6c99 26be e5f2 683e 8b10 a7be ae1a 87be
000000e0: a6c2 acbe f850 303f c6d3 f23d aa13 aabe
000000f0: 3994 213f a2dc 0b3f 56f5 c33f e618 dd3e
00000100: 6b87 873e 36a5 153d 5c13 05bf 60ff 19bf
00000110: e3d4 2f3f 0915 0e3f d882 42be cede 403c
00000120: b6b2 62bf bb67 8abf 355c 8d3f 2315 ec3b
00000130: ad6b 173f d85f ed3e 1fab eabe c4c3 673f
00000140: e447 0ebe ea9d dd3f 1bb4 30bf 2605 aabf
00000150: ec32 9dbf 6414 393e c9b3 a13f d768 92bf
00000160: f8c5 2dbe 8a11 2e3f 67d7 9d3f d4f0 c23e
00000170: 8fcb adbd cc3d a03f b6a1 91bf 6b0b 43bc
00000180: bd67 04bf 7d6c cc3f 9fe0 ae3f ba6a f3bf
00000190: 3014 bebe d4c4 c83f 7e8e a8bf df87 cabe
000001a0: 32d3 0040 5920 e8be 0bc3 00bf 0078 8abe
000001b0: 7a0a 42bf 72ff 283f 144c 913e 4bee 653f
000001c0: acae 323e 3922 383f bc2e 8bbf 7a90 373f
000001d0: 23ae aabf a62f 183e 150d 353f 9ff9 2240
000001e0: 7b22 b8bf 3a72 283f ae27 3c3f e2e8 d23f
000001f0: 5f04 b2bf 9080 d6be e55a 36bd 826a fabe
00000200: 5710 76bd 9f26 5ebf 021e 513f 054b dc3d
00000210: 6cdd 143f 48b3 4f3f 2a25 4ebf 06f5 b53e
00000220: f65a edbe 9712 cfbb e287 1dbf 0a65 523f
00000230: 2ced 813f fd52 10bf b3db e9bc 5342 113f
00000240: 9d68 29bf 96ee 5fbf 07d9 ec3e 29fd 713f
00000250: a250 c83e 58fa 2ebf 8bd7 92bd bed6 3abe
00000260: b058 ecbf feb3 6a3e fc6b 25bf e4b8 b9bf
00000270: 4475 d3bf 2bc7 a7bf 4bd2 ad3d 6f0e 93bf
00000280: f5b1 df3c e28b 22bf e451 80bf 3ae4 06bf
00000290: af26 b4be f2d1 7b3e b82f e03f b8b5 e73f
000002a0: aa0b 01bf 68ff 1d3f b277 cd3d 49a8 0bc0
000002b0: d89b 21bf e1e9 b03e d0f1 a03e 1399 103c
000002c0: 3cc7 59bf 37f9 fb3f 8234 8d3f 2e90 53bf
000002d0: f96a 63bf ac3c b1bf 5370 e03e 3632 f53d
000002e0: 7c52 7a3f 3e9a d83e ef9f 15bf 573b 1bbf
000002f0: 0011 00bf 51a3 1f3e 2643 ebbd 0282 c63f
00000300: ec8b 47bf 73dd 583f 2034 d2bd a800 03be
00000310: 4b0c d73f 368f 6a3e 5d0c 503f e27f a13f
00000320: 57a9 a5bf 8790 60bf 22fc 88bf 8f4d b8bf
00000330: 07d6 5dbe f5b4 ec3e 99cb 2bbf 5454 c53e
00000340: 765a b8bf a76c de3d c75e e7be 0b4a 8cbf
00000350: 84ce 863f a9d4 c43e 4523 25be b60a 063f
00000360: 7263 27bf 281c 8f3e 8cb1 3d3f 988b ffbe
00000370: 60b0 2e3f ba75 7f3f 94d5 45bf 2482 ed3d
00000380: 6a09 923f ba81 b1bd 3fc6 51bf 0742 483f
00000390: e792 41bf 3868 b23e 4eee 6d3f aa75 e3be
000003a0: 873b 83be 362b d4bc 8dd4 2a3e 0e0e a9be
000003b0: 62fa c73d cd61 abbd 502e e43f 147e 0d3f
000003c0: 6caa aabe 3f42 87bf 9c73 d93e 280c 3d3d
000003d0: dd75 e4bf c0af 7a3d 2cbd 1a3f 76af 71bf
000003e0: a8d3 b43e 7fe8 d5bc c19d 8dbf 3715 42bf
000003f0: d542 7d3f 2a00 ab3e 3d17 1b3f 1d86 0f3f

rnn.weight_ih_l0 f4 [16, 128]
0.13048616 0.3565827 -0.19916137 -0.036330946 0.2349068 -0.049731113 0.13108143 -0.03809416
0.031392798 0.2570916 0.09221545 0.056018267 0.119970426 0.040955506 -0.05707437 -0.29814306
-0.23627083 -0.13819005 0.1145865 -0.016834233 -0.2896063 -0.3573749 -0.29556093 0.11089673
0.2333507 0.29198968 0.039083194 0.08182057 0.16882114 -0.2084634 -0.35982218 -0.23649558
0.08549374 0.1323709 -0.21960811 -0.025614662 -0.18382479 0.0747153 0.047748797 -0.20354408
0.054007914 -0.060234915 -0.1638271 -0.19784142 -0.2829258 -0.12949722 -0.03770728 -0.17167693
0.15564416 -0.109211385 0.04185175 0.098164774 0.13164169 0.28121325 -0.053920537 0.16873096
0.19218256 0.53622174 -0.11542156 -0.26488447 -0.19971769 -0.08393096 0.055284243 -0.13269286
-0.13898276 0.05159128 -0.032450534 -0.27985135 0.3113215 0.08753217 -0.04303064 -0.4640946
-0.13908347 0.031520378 0.17033741 0.4607447 -0.011645702 0.17648536 -0.11396805 0.09154202
-0.27501923 -0.3737133 0.09772463 -0.24959588 -0.2735477 0.12187345 0.15319353 0.12325321
-0.050624546 -0.17854162 0.110450216 -0.120210744 -0.029392054 -0.18764451 -0.097586565 -0.06902962
0.035807982 -0.07568437 -0.08454697 0.06536844 -0.08477457 0.08883328 0.52994823 -0.10127026
0.018039644 -0.03576566 0.09581413 -0.030537738 0.012423004 0.48242298 0.33898506 0.15597652
0.04275572 -0.35079715 -0.20968206 0.23055236 -0.053355347 -0.24995224 -0.3790561 0.14567956
-0.09608728 -0.0793678 0.046024848 0.097881414 -0.18430667 0.008393382 -0.021039309 -0.09354418
-0.09116455 -0.1427831 -0.03633092 0.018429287 0.066032685 -0.24276443 -0.008225551 0.08465066
-0.11851621 -0.09908801 0.0730883 -0.5529825 -0.4109647 0.46162468 -0.013412891 0.10208715
-0.014797755 -0.024637382 0.022979643 -0.051371593 -0.1355015 0.14295766 0.17162895 0.046041477
0.30917308 0.049341578 -0.17642258 0.25206804 0.38609302 -0.111016355 -0.09397689 0.016653026
0.28335866 -0.31031063 0.29629388 0.17128688 -0.20203325 0.19664608 -0.28782806 0.08588894
-0.3768098 0.18728717 -0.06824366 0.2571799 0.099098675 -0.08625818 -0.07472751 0.1549192
0.1466206 -0.052873686 0.016511511 0.06532919 -0.27662486 -0.12778617 -0.06558358 0.1260359
0.10832059 -0.11881908 0.059535626 -0.10725596 0.0231255 -0.09835069 -0.08416984 0.35490865
-0.47312978 -0.05609071 0.40835539 0.05337024 0.06753005 -0.12492154 0.084549114 0.07275144
0.11046932 0.23647161 -0.20914425 -0.2607507 -0.20266427 -0.061111823 -0.18108574 -0.2824092
-0.061282128 0.1467828 -0.2254981 -0.028892767 0.03100349 -0.2118296 0.26049936 -0.012382501
0.06548046 0.29181212 -0.08094798 0.0131257195 0.012483527 -0.22482581 0.23419337 0.2584552
-0.038042992 -0.20171727 -0.33627084 -0.14173351 0.29188937 -0.065957695 -0.37061274 0.20988394
-0.12298427 0.18968739 0.0011960644 0.2133429 -0.036661632 -0.08393064 -0.07074286 0.17816521
-0.27793717 0.2558218 -0.14169252 -0.20851749 0.18431318 -0.19719419 0.22284664 -0.3229271
0.1843843 -0.24655133 0.12613995 -0.2664506 -0.0340963 -0.030603439 -0.07015054 0.12541561
00000000: 2a9e 053e 0292 b63e f5f0 4bbe c2cf 14bd
00000010: 688b 703e dab2 4bbd 363a 063e 9f08 1cbd
00000020: bc95 003d 83a1 833e 74db bc3d 6973 653d
00000030: 0eb3 f53d f6c0 273d d1c6 69bd 35a6 98be
00000040: fbf0 71be b181 0dbe 54ac ea3d f2e7 89bc
00000050: 4747 94be d8f9 b6be c353 97be d31d e33d
00000060: 7cf3 6e3e ac7f 953e b315 203d 8b91 a73d
00000070: 73df 2c3e 6e77 55be 9d3a b8be e62b 72be
00000080: 5817 af3d 3d8c 073e f3e0 60be d7d5 d1bc
00000090: 913c 3cbe 5604 993d 3e94 433d dc6d 50be
000000a0: 6737 5d3d e3b8 76bd 4bc2 27be f196 4abe
000000b0: a7db 90be eb9a 04be f372 1abd 14cc 2fbe
000000c0: 2f61 1f3e 38aa dfbd be6c 2b3d 9d0a c93d
000000d0: 14cd 063e 2ffb 8f3e c8db 5cbd cfc7 2c3e
000000e0: 81cb 443e d445 093f 2462 ecbd f09e 87be
000000f0: cb82 4cbe ffe3 abbd bb71 623d a3e0 07be
00000100: 7f51 0ebe 6151 533d daea 04bd ad48 8fbe
00000110: 8865 9f3e 1144 b33d e540 30bd cf9d edbe
00000120: e66b 0ebe 831b 013d ee6c 2e3e bbe6 eb3e
00000130: 9dcd 3ebc 94b8 343e 1568 e9bd 627a bb3d
00000140: 52cf 8cbe 5a57 bfbe da23 c83d 1096 7fbe
00000150: 720e 8cbe ca98 f93d c4de 1c3e 2e6c fc3d
00000160: af5b 4fbd 9dd3 36be b933 e23d 0d31 f6bd
00000170: 9bc7 f0bc e225 40be 77db c7bd 675f 8dbd
00000180: 64ab 123d 6800 9bbd f626 adbd e3df 853d
00000190: 4a9e adbd 39ee b53d b0aa 073f c866 cfbd
000001a0: e0c7 933c 037f 12bd 333a c43d 472a fabc
000001b0: db89 4b3c 2500 f73e 738f ad3e 4fb8 1f3e
000001c0: 9f20 2f3d af9b b3be e5b6 56be eb15 6c3e
000001d0: 238b 5abd 7bf3 7fbe a413 c2be 062d 153e
000001e0: 68c9 c4bd 968b a2bd 8d84 3c3d 0d76 c83d
000001f0: e3ba 3cbe 6584 093c a15a acbc 1794 bfbd
00000200: 7bb4 babd bc35 12be bbcf 14bd 04f9 963c
00000210: 253c 873d 3d97 78be 76c4 06bc 535d ad3d
00000220: a0b8 f2bd a8ee cabd 52af 953d 4390 0dbf
00000230: f769 d2be 125a ec3e bec1 5bbc 1113 d13d
00000240: 4872 72bc 56d4 c9bc ce3f bc3c 056b 52bd
00000250: e8c0 0abe 7e63 123e 80bf 2f3e fd95 3c3d
00000260: ef4b 9e3e 651a 4a3d 1fa8 34be 100f 813e
00000270: fcad c53e 8b5c e3bd f576 c0bd ed6b 883c
00000280: 6314 913e 09e1 9ebe d5b3 973e d465 2f3e
00000290: cee1 4ebe 975d 493e 335e 93be 8ae6 af3d
000002a0: 37ed c0be 35c8 3f3e 55c3 8bbd 15ad 833e
000002b0: 3ff4 ca3d 21a8 b0bd bd0a 99bd 24a3 1e3e
000002c0: b623 163e 1492 58bd 2643 873c 4fcb 853d
000002d0: c6a1 8dbe 61da 02be af50 86bd 8e0f 013e
000002e0: 2fd7 dd3d 6b57 f3bd a1db 733d 03a9 dbbd
000002f0: b071 bd3c 166c c9bd 3d61 acbd 96b6 b53e
00000300: 113e f2be 5fbf 65bd f513 d13e c19a 5a3d
00000310: 324d 8a3d ddd6 ffbd 1628 ad3d b5fe 943d
00000320: bd3d e23d 9d25 723e e929 56be 1e81 85be
00000330: 3987 4fbe 6450 7abd 8a6e 39be f097 90be
00000340: f802 7bbd 3b4e 163e f9e8 66be 86b0 ecbc
00000350: 08fb fd3c dce9 58be 2c60 853e f9df 4abc
00000360: 9f1a 863d 6668 953e 0ec8 a5bd 420d 573c
00000370: b587 4c3c bd38 66be 63d0 6f3e 3d54 843e
00000380: f8d2 1bbd f98e 4ebe b12b acbe 9722 11be
00000390: 8672 953e d414 87bd f4c0 bdbe d1eb 563e
000003a0: 2ddf fbbd 693d 423e 43c5 9c3a 9076 5a3e
000003b0: 822a 16bd d4e3 abbd a2e1 90bd f170 363e
000003c0: c84d 8ebe 13fb 823e d817 11be 9c85 55be
000003d0: 98bc 3c3e 46ed 49be e931 643e b356 a5be
000003e0: 3dcf 3c3e f477 7cbe d52a 013e 376c 88be
000003f0: 90a8 0bbd 10b4 fabc 16ab 8fbd f36c 003e

rnn.weight_hh_l0 f4 [16, 16]
0.27295625 -0.7737495 -0.04901517 0.37063837 -0.47232518 0.4061404 0.37068292 0.3836841
0.7669932 0.5265956 -0.21471564 -0.36647463 0.5997575 -0.14399666 0.1583723 0.03184327
0.009465261 -0.15412864 0.32948083 0.2080847 0.49057883 0.1046905 0.03879618 -0.3787215
-0.5116796 -0.1774576 1.3270127 0.061998334 -0.22248963 0.5023926 0.18274611 0.044541746
-0.10772108 0.18943025 0.09777596 -0.24076591 1.2422516 -0.2691521 -0.5551566 0.005161184
0.8841372 -0.02304876 0.15511604 -0.19917138 -0.8839689 0.42406723 0.46616313 0.8097544
0.26698166 0.1771241 0.49087456 -0.028151073 0.18164434 -0.11123724 0.15395325 0.44652984
-0.20298831 -0.51837766 -0.57294744 -0.40895417 0.070939496 0.4444212 -0.7439478 -0.2711432
0.16394438 0.3349013 0.9067344 -0.46174943 0.55836093 0.59516937 -0.41652212 0.08318243
0.8161465 -0.49559617 -0.35577562 0.127489 0.93400437 -0.081966735 -0.014055371 0.1228348
0.19874582 0.2882166 0.98028636 -0.16037256 -0.13918877 -0.15757342 -0.06442106 -0.31638095
-0.12516335 -0.9013936 -1.0467163 -0.25594953 1.2880306 0.03117029 -0.11468217 0.20455934
0.03765665 0.23439541 -0.5077 0.06783581 -0.2968085 -0.54877883 0.16734895 0.45998237
-0.2668928 0.76733714 -1.5125691 0.059088286 -0.4720675 0.35567555 0.45707956 0.020398593
0.1742624 0.024935132 -0.444608 -0.013297921 -0.51737285 -0.20675103 0.36877805 0.30251238
0.24970281 0.363231 -0.71570176 -0.28628698 -0.37862095 -0.7110372 -0.49334493 0.2241702
0.22083585 -0.24453694 -1.3902094 -0.14053471 -0.8739297 -0.09264418 0.08011303 -0.12924929
0.3042197 0.5335413 -0.18514572 -0.0069859545 0.0659049 -1.4975199 0.9221098 -0.0126650985
0.06143139 -0.40191585 1.2282155 -0.058337364 -0.37342772 -1.0192099 0.05953661 -0.11204061
-0.25425813 -0.35092512 -0.21002509 0.031490657 1.0041375 -0.46170318 -1.0382214 0.314411
0.04000679 0.7787467 -0.22926296 0.049337506 -0.4969468 0.10678639 -0.20654635 -0.7557472
0.54701287 0.53475755 0.43109778 0.023536194 0.6106327 0.39376834 0.04747896 0.4927338
-0.21661675 0.34683183 1.0959483 0.036618285 0.0017345251 -0.23713772 -0.046973675 0.09194982
-0.2215509 -0.7546723 -0.14863816 -0.20569362 -0.55963624 0.19695333 -0.45120883 0.16982673
-0.2333714 0.43001893 1.3238976 -0.0463961 -0.08666018 -0.9278086 -0.20322269 0.13496488
0.36166722 -0.61221725 -1.103527 -0.1310279 -0.41523626 0.056219686 -0.6472637 0.18923123
0.016555503 -0.006802076 0.73130506 -0.37004146 0.77098435 -0.18304414 -0.49943143 0.6463828
0.5994767 -0.012367354 -0.28495002 -0.4762028 0.73780715 0.7143802 -0.50285 0.5308385
0.01092172 -0.35607177 0.46090925 -0.29175368 0.093705915 -0.47903883 -0.42694712 -0.5972629
0.92904407 0.2186686 0.9551273 -0.48898605 1.3500583 0.3125872 -0.26130074 0.31510216
-0.22553408 -0.25813282 -1.3338709 -0.15129107 -0.7098507 0.14298022 0.30443594 0.1101715
-0.38097042 1.0689934 -0.097251005 -0.04535563 0.31831527 -0.070715964 0.5850166 0.07494071
00000000: ecc0 8b3e 7214 46bf 22c4 48bd 50c4 bd3e
00000010: 9bd4 f1be a2f1 cf3e 27ca bd3e 3e72 c43e
00000020: ab59 443f f8ce 063f 6bde 5bbe 90a2 bbbe
00000030: b589 193f dc73 13be 592c 223e 176e 023d
00000040: 2f14 1b3c e6d3 1dbe b6b1 a83e 2814 553e
00000050: 262d fb3e f967 d63d bee8 1e3d c9e7 c1be
00000060: 6ffd 02bf 72b7 35be 8ddb a93f f7f1 7d3d
00000070: 52d4 63be cd9c 003f cc21 3b3e 6871 363d
00000080: df9c dcbd 01fa 413e c33e c83d 578b 76be
00000090: 1a02 9f3f 4ece 89be be1e 0ebf 261f a93b
000000a0: d156 623f c1d0 bcbc bdd6 1e3e 95f3 4bbe
000000b0: c94b 62bf 571f d93e efac ee3e 104c 4f3f
000000c0: d2b1 883e 0560 353e e953 fb3e 149d e6bc
000000d0: f900 3a3e 5ad0 e3bd eca5 1d3e 8f9f e43e
000000e0: 2bdc 4fbe 66b4 04bf afac 12bf 7162 d1be
000000f0: ba48 913d 2d8b e33e 5d73 3ebf 48d3 8abe
00000100: 09e1 273e 2f78 ab3e bf1f 683f 6c6a ecbe
00000110: bef0 0e3f 055d 183f 6342 d5be 8d5b aa3d
00000120: faee 503f c8be fdbe 3928 b6be 7a8c 023e
00000130: e91a 6f3f 2dde a7bd 8048 66bc d090 fb3d
00000140: 0684 4b3e 2091 933e 0cf4 7a3f b438 24be
00000150: 8087 0ebe ed5a 21be 30ef 83bd affc a1be
00000160: d22a 00be bbc1 66bf cdfa 85bf d10b 83be
00000170: 30de a43f d658 ff3c 7cde eabd 0178 513e
00000180: dc3d 1a3d 5a05 703e a1f8 01bf 80ed 8a3d
00000190: 49f7 97be c57c 0cbf 865d 2b3e cf82 eb3e
000001a0: 2ca6 88be 3570 443f dd9b c1bf 8f06 723d
000001b0: d5b2 f1be 1b1b b63e 5506 ea3e f31a a73c
000001c0: d871 323e c344 cc3c a9a3 e3be 86df 59bc
000001d0: 8c72 04bf 8bb6 53be 7ad0 bc3e e7e2 9a3e
000001e0: 18b2 7f3e 6af9 b93e 3b38 37bf 3594 92be
000001f0: 9bda c1be 8906 36bf b597 fcbe df8c 653e
00000200: cb22 623e e467 7abe 62f2 b1bf 55e8 0fbe
00000210: dbb9 5fbf 3bbc bdbd 4d12 a43d ed59 04be
00000220: afc2 9b3e 2a96 083f d796 3dbe 6fea e4bb
00000230: 26f9 863d bbae bfbf 630f 6c3f 4681 4fbc
00000240: 7b9f 7b3d eac7 cdbe 2a36 9d3f 29f3 6ebd
00000250: eb31 bfbe 7875 82bf a9dc 733d 8c75 e5bd
00000260: 1f2e 82be 75ac b3be d110 57be 59fc 003d
00000270: 9487 803f 5c64 ecbe 70e4 84bf 7bfa a03e
00000280: 29de 233d f25b 473f e9c3 6abe 2016 4a3d
00000290: d06f febe d3b2 da3d e380 53be a678 41bf
000002a0: 0909 0c3f dfe5 083f d9b8 dc3e face c03c
000002b0: 6d52 1c3f 019c c93e 4c79 423d 9b47 fc3e
000002c0: c8d0 5dbe f193 b13e 0948 8c3f 0efd 153d
000002d0: 0159 e33a 3bd4 72be 7867 40bd 3050 bc3d
000002e0: 3dde 62be 3432 41bf 9a34 18be 59a1 52be
000002f0: 5244 0fbf 22ae 493e d804 e7be 0fe7 2d3e
00000300: eaf8 6ebe 712b dc3e 7a75 a93f d609 3ebd
00000310: e47a b1bd dd84 6dbf 9c19 50be 3c34 0a3e
00000320: 722c b93e 45ba 1cbf 5f40 8dbf 2e2c 06be
00000330: d999 d4be 9d46 663d 13b3 25bf d5c5 413e
00000340: 689f 873c f3e3 debb cf36 3b3f 1376 bdbe
00000350: 3b5f 453f ec6f 3bbe 7ab5 ffbe 5879 253f
00000360: 4e77 193f 71a0 4abc f8e4 91be dad0 f3be
00000370: eee0 3c3f 9fe1 363f c7ba 00bf 08e5 073f
00000380: 04f1 323c 0a4f b6be 4cfc eb3e bd60 95be
00000390: e3e8 bf3d 9444 f5be d098 dabe 39e6 18bf
000003a0: d5d5 6d3f a9ea 5f3e 3983 743f 615c fabe
000003b0: b6ce ac3f 6e0b a03e 36c9 85be 1255 a13e
000003c0: 68f2 66be fc29 84be 48bc aabf 0cec 1abe
000003d0: c7b8 35bf 6869 123e 07df 9b3e 98a1 e13d
000003e0: 8e0e c3be c7d4 883f 892b c7bd d3c6 39bd
000003f0: 38fa a23e 88d3 90bd a6c3 153f 847a 993d

rnn.bias_ih_l0 f4 [16]
0.09608203 -0.08759992 0.24712245 0.37864995 0.12417947 0.050248142 0.30177155 -0.039450843
-0.22536749 -0.08806631 -0.23335303 0.29751405 -0.042158324 -0.3290168 0.38399142 -0.250737
00000000: a8c6 c43d 9667 b3bd ab0d 7d3e 68de c13e
00000010: ce51 fe3d ffd0 4d3d cd81 9a3e 3597 21bd
00000020: bcc6 66be 1c5c b4bd 19f4 6ebe c353 983e
00000030: 35ae 2cbd e474 a8be 869a c43e 9a60 80be

rnn.bias_hh_l0 f4 [16]
0.4597626 -0.09526845 0.32858557 0.19422571 0.012788098 0.1322734 0.048487484 0.31829172
-0.24427958 -0.12802105 -0.38966486 -0.0007323906 0.08986355 -0.08070223 0.24403362 -0.19202983
00000000: 0166 eb3e 1b1c c3bd 5e3c a83e 1be3 463e
00000010: 2c85 513c ae72 073e d09a 463d 22f7 a23e
00000020: 6d24 7abe f317 03be 2782 c7be e7fd 3fba
00000030: 620a b83d 3647 a5bd f3e3 793e 78a3 44be

fc1.weight f4 [8, 16]
0.7204319 -0.8554339 0.66907734 1.1861036 -0.7596455 0.86528414 0.94079113 0.33702102
-0.45499325 -0.40689063 -0.21010384 1.1266772 0.6048887 -0.36529106 0.3100967 -0.66865337
0.6060835 0.47314736 -0.058870584 1.1781743 0.1704885 1.4190168 -1.5005257 -1.9996676
-0.86379 1.4653437 -0.7910955 -1.7964635 -0.19592358 1.6822987 -1.2437618 1.8766532
-1.9310201 0.76245797 0.44524115 -1.2578479 0.3917707 0.45713663 -0.77311045 -0.5670074
-0.008886841 1.6155372 0.17497097 1.5172919 -0.7833417 2.0015852 -1.0368972 -0.0777878
-0.57465005 0.8330083 -0.017511293 0.5072015 0.92227477 -0.6743368 0.017518222 0.077998914
0.1954095 1.1112702 0.93373436 -1.2848524 0.7419747 -0.012535693 -0.18098913 -0.31072292
-2.8870964 0.6571157 1.5425897 1.3472822 1.3803444 0.30072784 -1.9360918 -3.399728
1.293247 0.2550251 1.3193718 0.62044424 0.57122 3.1978528 1.912502 2.1627393
-1.3176117 1.447026 0.72193915 -0.5083978 0.26292303 -0.979846 -1.8872128 -0.785441
-2.2486567 -0.28292644 0.7905754 1.4467138 -1.9224966 -0.21751718 -0.1634576 -0.7796096
0.25727355 0.35915354 -0.11647983 -1.1786088 -0.35309935 -0.19972172 -0.99924356 0.15406565
0.67490697 -0.5481596 -0.13992539 -0.12517025 0.08000763 0.039918497 0.69409096 -0.11445298
0.20040666 -0.14240782 -0.73555154 -0.9562411 -0.27665836 -0.84178764 1.1844251 0.21617156
0.522397 -0.3810058 0.17074871 -1.131269 -0.6572742 -0.12604861 0.15847513 1.3748912
00000000: 3a6e 383f b7fd 5abf a748 2b3f 3ed2 973f
00000010: 2178 42bf 4383 5d3f b0d7 703f 058e ac3e
00000020: e0f4 e8be f853 d0be 7625 57be f536 903f
00000030: fcd9 1a3f 6e07 bbbe ffc4 9e3e de2c 2bbf
00000040: 4a28 1b3f 5f40 f23e 4822 71bd 6ace 963f
00000050: 8a94 2e3e 58a2 b53f 3a11 c0bf 1cf5 ffbf
00000060: 5721 5dbf 6290 bb3f 3c85 4abf 84f2 e5bf
00000070: 31a0 48be 9055 d73f 9633 9fbf 2c36 f03f
00000080: ab2b f7bf 7230 433f a6f6 e33e 2901 a1bf
00000090: 2b96 c83e d00d ea3e 91ea 45bf 6627 11bf
000000a0: 1d9a 11bc ecc9 ce3f 972b 333e 9f36 c23f
000000b0: 1589 48bf f919 0040 0cb9 84bf 364f 9fbd
000000c0: 441c 13bf 0840 553f d873 8fbc f5d7 013f
000000d0: 331a 6c3f 56a1 2cbf 6082 8f3c e5bd 9f3d
000000e0: 6e19 483e 1a3e 8e3f 3709 6f3f 0b76 a4bf
000000f0: 0ef2 3d3f 8262 4dbc 3755 39be 1317 9fbe
00000100: 30c6 38c0 bc38 283f 9473 c53f be73 ac3f
00000110: 20af b03f 00f9 993e dbd1 f7bf 2595 59c0
00000120: 1e89 a53f a692 823e 2de1 a83f 6fd5 1e3f
00000130: 793b 123f 9fa9 4c40 decc f43f 526a 0a40
00000140: 80a7 a8bf 2638 b93f 01d1 383f 5c26 02bf
00000150: d99d 863e 30d7 7abf 3090 f1bf a912 49bf
00000160: fee9 0fc0 bcdb 90be 2663 4a3f eb2d b93f
00000170: 5e14 f6bf d3bc 5ebe 6e61 27be 7f94 47bf
00000180: 5cb9 833e f9e2 b73e fa8c eebd a7dc 96bf
00000190: 70c9 b4be da83 4cbe 6dce 7fbf 63c3 1d3e
000001a0: b4c6 2c3f 3054 0cbf 9a48 0fbe a12c 00be
000001b0: 0adb a33d 9481 233d f2af 313f 5366 eabd
000001c0: 6737 4d3e 5bd3 11be 1b4d 3cbf 37cc 74bf
000001d0: 2aa6 8dbe 657f 57bf 3e9b 973f 145c 5d3e
000001e0: cfbb 053f 3113 c3be c0d8 2e3e 6ccd 90bf
000001f0: 1f43 28bf e312 01be 4e47 223e 6ffc af3f

fc1.bias f4 [8]
0.42782417 -0.9351733 -0.8938478 -0.48364645 -2.09561 -0.62696224 -0.18265754 0.36810046
00000000: c50b db3e 8467 6fbf 36d3 64bf 82a0 f7be
00000010: 791e 06c0 9980 20bf 940a 3bbe aa77 bc3e
