src/main/python/saved_models/java_1_66_CNNClassifier1_64embs_109id_64hd_0hl_Falsebid5kernel0.3dropout_2.pt (torch, 830795 bytes, 9 tensors)

emb.weight f4 [109, 64]
000000 69 71 05 40 79 0b a2 bf e4 22 f5 3f 4c 2f 0c c0
       2.085047 -1.2659751 1.9151273 -2.1903868
000010 c3 45 87 bf 58 b2 8d 3f a9 08 bc bc 2e fb cb be
       -1.0568165 1.1070051 -0.022953348 -0.39840072
000020 dc 41 c4 bf 00 40 d0 3f 7b d5 c0 3f 72 89 7d be
       -1.5332599 1.6269531 1.5065149 -0.24759462
000030 09 a3 3b 3f 37 42 f0 3e 11 dc 02 bc af f0 d6 bd
       0.73295647 0.46925518 -0.007987038 -0.104951255
000040 e0 52 48 bc 65 a8 d2 3f 9f e7 67 bf 38 62 a3 3f
       -0.01222679 1.645764 -0.905878 1.2764349
000050 4d 63 af bf f9 f4 fa 3f b0 42 f8 bd 94 c2 14 bd
       -1.3702179 1.960601 -0.12122095 -0.036318377
000060 c7 c4 02 bf f1 0c 89 3f e6 e6 26 bf e8 5c 98 be
       -0.5108151 1.0707074 -0.65196073 -0.29758382
000070 a9 29 50 bf c0 96 4d bf 98 0e 39 bf 85 ce 2b bf
       -0.8131357 -0.8030815 -0.72287893 -0.67112
000080 7e 76 d5 3f 1d 4f 36 c0 95 e9 f3 3c b3 b5 80 bf
       1.6676786 -2.8485787 0.029774467 -1.005545
000090 21 e4 82 3f 9e f2 dd 3f 69 c2 d6 3d 9d e3 9e 3f
       1.022587 1.7339666 0.104862995 1.2413212
0000a0 87 74 59 3f 5b 7d 4b be 91 32 49 bf bb dd 25 3f
       0.8494343 -0.19872038 -0.78592783 0.6479146
0000b0 20 47 7a 3f 5c 0f 59 bf f4 55 4d bf 3c 60 0d bf
       0.9776478 -0.8478906 -0.8020928 -0.55224967
0000c0 8c 52 7b bf f9 db 5c 3f 3d 1d 92 3f e9 b7 21 bf
       -0.9817283 0.8627315 1.1415173 -0.6317125
0000d0 79 57 46 3f 8f 0d 37 3e 62 f5 f3 bd e9 c8 8d 3f
       0.7747722 0.17876266 -0.119120374 1.1076938
0000e0 55 3e c5 3f 5a 9d aa bf 2b a2 82 bf 53 57 10 3f
       1.5409647 -1.332927 -1.020574 0.56383246
0000f0 78 a0 3b bf 3a 6a 8c 3e 31 00 36 bf a0 55 ef be
       -0.7329173 0.27424794 -0.7109404 -0.46745014
000100 23 7b e3 3c 05 6b 9e 3f 41 95 dc 3e 7f bd 95 bf
       0.027768677 1.237641 0.43082622 -1.1698455
000110 e4 57 2f 3e a8 d0 59 3f 9a 68 77 3f 55 f1 8e bf
       0.17123371 0.8508401 0.96643984 -1.1167399
000120 03 dc b5 bf 31 da d6 3f 83 ad bc 3e 6e 9c 5c be
       -1.4207767 1.6785337 0.3685113 -0.21544048
000130 33 3b d8 be 25 64 50 bf 21 fd 70 bf 80 03 27 be
       -0.42232665 -0.8140281 -0.94136244 -0.16309929
000140 f8 3b fc bf c0 3f 3a 3f 44 ea 25 40 a3 5e 13 3f
       -1.9705801 0.72753525 2.5924234 0.5756628
000150 6d f5 12 3f f1 5a 15 3f 68 3f 5b 3f a6 0b e4 3e
       0.5740574 0.5834189 0.85643625 0.44540137
000160 21 e0 26 bf c6 69 de 3e 2a 7d c4 3f 42 44 66 bf
       -0.65185744 0.43440074 1.5350697 -0.89947903
000170 d1 a8 63 bf d9 c4 0e c0 4b 5b 2a be 49 69 9e 3d
       -0.8892947 -2.2307646 -0.16636388 0.07734925
000180 28 8f e5 3d c8 90 2e 3f 1d a0 90 3f 17 cc b3 3e
       0.112089455 0.6818967 1.1298863 0.35116646
000190 2f 20 0c 3f db fc 80 3c 7b cf 53 bf b7 af 34 3e
       0.5473661 0.01574557 -0.82738465 0.17645155
0001a0 6c 18 f7 bc 52 7e ab 3f 18 05 26 3f 55 23 b3 3f
       -0.030163012 1.3397925 0.6485152 1.3995157
0001b0 ad bd 22 bf cd 19 a7 3f 90 c3 dd bf 13 b1 98 3f
       -0.6357067 1.3054749 -1.7325306 1.1929039
0001c0 45 0a 60 bf e1 94 be bf ed 43 7e 3d af 91 45 3f
       -0.8751567 -1.4889184 0.062076498 0.7717542
0001d0 e6 8b 9a 3f 50 96 a3 3f 54 d2 46 bf e1 ad 4d 3f
       1.2073944 1.2780247 -0.77664685 0.80343443
0001e0 b8 50 02 bf be 6a 08 3f b7 ed b0 bf 91 5e a6 3f
       -0.5090442 0.53287876 -1.3822545 1.2997609
0001f0 58 22 06 3f cc 8e e7 be 95 2d 8f 3e 6e 7e 82 3f
       0.52396154 -0.45226133 0.27964464 1.0194833
000200 dc f3 bf bf 32 ec 29 3f f4 6c 5f bf 07 3b 36 be
       -1.4996295 0.6637603 -0.87275624 -0.17795955
000210 33 34 ad 3e cc 21 18 bd c5 2b b9 bd 3e 22 8d 3e
       0.33828887 -0.037141606 -0.090415515 0.27565187
000220 aa ce e7 3e f3 fa 48 3f 17 51 26 be c0 57 3e 3f
       0.4527486 0.7850792 -0.16241871 0.74352646
000230 f0 4d ee 3e 51 9f 95 3f c2 68 fc be 2a 26 ae 3d
       0.46543837 1.1689245 -0.49298674 0.08503373
000240 f1 61 a7 bf 4d cf fc bf f0 6b a1 3f e4 ff 9f bf
       -1.3076764 -1.9750763 1.2611065 -1.2499967
000250 1c b9 8b 3f 64 cd da be be 96 67 be e3 ae 8d 3f
       1.0915866 -0.42734826 -0.22616097 1.1068996
000260 49 0b 07 bf d8 88 63 bf e5 4a b6 be b4 0d b2 3f
       -0.52751595 -0.8888068 -0.35604015 1.3910432
000270 62 24 91 bd b4 96 1a bd ed 50 e4 3f 3d 00 ec 3d
       -0.070870176 -0.037741378 1.7837197 0.11523483
000280 1c 40 51 3f a9 db af 3f 41 b3 86 3f 0b 9c 0d c0
       0.8173845 1.373891 1.0523454 -2.212649
000290 75 fb bb bf 2c 80 ea 3e cb 15 b7 bf ac b8 74 be
       -1.4686114 0.45800912 -1.4303526 -0.23898572
0002a0 77 8d 7a 3f 55 ed 5f bf e8 c0 66 3f b3 b4 f6 bf
       0.9787211 -0.87471515 0.901381 -1.9273895
0002b0 69 13 75 bf 70 d6 2b 3f 24 ec 23 bf 76 d5 05 be
       -0.9573274 0.6712408 -0.64032197 -0.1306971
0002c0 76 31 3e be 0d 43 4e 3f 1d 3b a8 3f 78 bf 4c bf
       -0.18573555 0.8057106 1.314304 -0.7997966
0002d0 4e ef 8e bd 27 63 9f 3f f7 f1 97 bf 57 4a 83 3f
       -0.069792375 1.2452134 -1.1870717 1.0257062
0002e0 94 2e c9 3e a0 54 b1 bf 42 bb 9a 3f 27 ab b0 bd
       0.3929335 -1.385395 1.2088397 -0.08626395
0002f0 f8 43 d2 bf 35 c4 d9 3e c8 b7 39 bf 18 f4 7b 3f
       -1.6426992 0.42532507 -0.7254605 0.9841933
000300 79 ca 0d bf f5 c8 ee bf b1 b5 44 bd 8b 4a 0b 3f
       -0.55387074 -1.8655077 -0.048024837 0.5441062
000310 b4 e5 a0 bd 62 d8 be 3e f6 47 8c be d0 19 82 3e
       -0.078563124 0.37274462 -0.27398652 0.25410318
000320 30 c0 60 bf aa dd 24 bf 2d 79 d7 bd b0 a8 85 3c
       -0.87793255 -0.6440073 -0.10521159 0.016315788
000330 95 a0 33 3f 5f 38 c6 bf 0d e4 0d bf 7c 15 19 3e
       0.70166904 -1.5485953 -0.554261 0.14949602
000340 c7 53 47 bf b6 64 99 bf bb e8 fa 3f fd 06 c6 3f
       -0.7786221 -1.198386 1.9602274 1.5470883
000350 6f f2 c7 3f f3 a7 c8 3d cf 0a b5 bf b6 57 23 40
       1.562086 0.09797659 -1.4143924 2.5522285
000360 3d 46 4e 3d 91 af 70 3f 5f cf ae be 83 2e 59 3c
       0.050359953 0.94017893 -0.34142587 0.013255718
000370 e7 8e 2d 3f dc 55 e1 3f 6d f5 e8 3f 86 0f 4a be
       0.67796177 1.7604327 1.8199898 -0.19732484
000380 ab 1e e5 bd fb d8 c7 3f 42 ff a6 be 46 38 91 bc
       -0.1118749 1.5613092 -0.3261662 -0.017727029
000390 bb 17 9e 3e 26 9b ae 3f 92 72 df bf a7 8c 89 bf
       0.3087748 1.3641098 -1.7456839 -1.0746049
0003a0 35 84 f5 3e ad c2 d1 be ba a8 87 3f bf 4f da 3d
       0.47952428 -0.40968838 1.0598366 0.106597416
0003b0 ce ba 51 bf b9 50 f6 3f 43 7d 2e 3e be 40 c0 be
       -0.81925666 1.9243385 0.17039971 -0.37549394
0003c0 c7 8a 23 bf 99 ce 26 bf 2e f8 08 3f aa 11 b1 3f
       -0.6388363 -0.65158993 0.5350369 1.3833516
0003d0 a6 ae 69 3f 4e a6 aa be 2b b8 7e 3f b7 6c 73 3f
       0.9128212 -0.33330005 0.9949977 0.9508776
0003e0 b6 e1 d5 be 4a 4a 6f bf 2d fe 35 be 31 41 66 be
       -0.41773766 -0.9347273 -0.17772742 -0.22485806
0003f0 02 a4 54 bf cb e5 85 bf 25 7f 2b bf 5e 0a 6c 3f
       -0.83062756 -1.0460752 -0.6699088 0.9220332

conv1.weight f4 [64, 64, 5]
000000 61 f6 09 be fb 76 8c be 3e a3 e5 3d 6d bf 2f be
       -0.13472892 -0.27434525 0.112127766 -0.17162867
000010 86 4c fc 3d 22 18 35 3d f5 d5 5a 3d 01 08 c6 bd
       0.12319283 0.044212468 0.0534267 -0.096694954
000020 72 bb 43 3e 3b ae 64 3e 9f d3 91 bd d0 86 55 bd
       0.19114473 0.22332089 -0.07120442 -0.05213052
000030 97 c4 0c be 11 f6 1f bd a8 96 bb bd 7a 8b 74 38
       -0.13746868 -0.039053027 -0.09159595 5.830403e-05
000040 b5 1c 66 bd c2 15 80 3e f5 46 3f bd 94 4b 11 3d
       -0.05617972 0.250166 -0.04669853 0.035472468
000050 4c d0 e0 3d 28 5e 90 3d 58 58 90 bc a1 23 1f bd
       0.109772295 0.07049209 -0.01762025 -0.038852338
000060 0a 69 de 3d ff f0 3a be c7 fe 63 3d f3 52 97 3c
       0.10859878 -0.18255995 0.055662896 0.01847217
000070 81 bc 0f be a1 07 9d be 2e 90 1b be dc 6d d7 bc
       -0.14036752 -0.30669883 -0.15191719 -0.026297502
000080 46 09 e1 bc ab d2 2f 3e ad 14 d8 3d d2 be e8 bd
       -0.027470242 0.17170207 0.105508186 -0.11364521
000090 19 ee 18 bd b1 c6 fb 3d 81 0b 5e bd 7f 94 18 be
       -0.037336443 0.12293757 -0.05421019 -0.14900397
0000a0 78 fc be bd a5 7b 65 bd 0f 19 78 be c7 3f 02 3d
       -0.09325498 -0.05602612 -0.24228309 0.031799104
0000b0 1e ec 06 3d 6a f3 8f bd 5f e7 3d bd 82 f7 ce 3d
       0.032940023 -0.070288494 -0.04636323 0.10105802
0000c0 aa ee 14 bd e6 44 6e be 2d 73 4c bc 36 7b 1a 3d
       -0.03636042 -0.2326847 -0.012478632 0.03771516
0000d0 1f be 8a bd ae 5b 51 3d 70 67 66 3d 04 c3 9a bd
       -0.06774544 0.051112823 0.05625099 -0.075567275
0000e0 94 f7 e0 bd bb f0 07 3e e3 44 89 3d 72 68 f6 bd
       -0.10984722 0.13275425 0.06702592 -0.1203164
0000f0 ae cc 4b 3d e2 1e 11 3e 20 f3 a8 39 fe d0 82 3d
       0.049755745 0.14171937 0.000322246 0.06387518
000100 e3 79 3f 3e 79 49 46 be 51 48 dd 39 a0 de 8c 3e
       0.1869884 -0.19363965 0.00042206285 0.275136
000110 25 d1 f0 3c 7d af a6 bc a0 fd 2e bd 90 c1 ff 3c
       0.029396603 -0.020347351 -0.042722344 0.031220227
000120 24 d1 50 3d 93 9a 40 be d9 7d 55 be 12 4d ee bd
       0.050980702 -0.18808965 -0.20848788 -0.11635794
000130 08 48 4f bd 54 84 8f 3e 4c dc f9 bb f6 d3 81 3d
       -0.050605804 0.28030646 -0.0076251384 0.063392565
000140 5f 1d 28 3e 25 64 d9 3c c6 70 1f be d7 31 58 bd
       0.16417454 0.02653701 -0.15570363 -0.052781906
000150 95 00 04 3d c7 6b c9 3d 6a c2 08 3e 00 0e 85 bd
       0.032227118 0.0983501 0.13355413 -0.06496811
000160 6b a8 e2 bd 10 6a f8 bc 03 fe 06 be 18 83 34 be
       -0.110672794 -0.030324012 -0.13182835 -0.17628133
000170 e1 3a af 3c 6d e7 40 3e 53 18 f1 3d ee 8d 29 3d
       0.02139038 0.18838282 0.117722176 0.04139512
000180 8c 8f a6 3d 6d 52 7b be 92 48 b8 3d 57 1b 91 bc
       0.08132848 -0.24543162 0.08998217 -0.017713232
000190 fe 3c 4e be 71 bf a1 3d f1 a8 1c be 2d 79 c0 3b
       -0.20140454 0.07897843 -0.15298821 0.0058738203
0001a0 b9 d5 20 be 7e 99 25 be 07 a4 c5 3d aa 32 66 3d
       -0.15706529 -0.16171834 0.09650426 0.05620066
0001b0 27 12 1a be 65 e5 31 be 22 19 88 3d 5e 83 2c bd
       -0.15045987 -0.17372663 0.06645419 -0.04211747
0001c0 52 dd 55 3d 4d 85 09 3d a2 cc 19 bd fa d5 e5 bd
       0.05221302 0.03357439 -0.03754867 -0.112224534
0001d0 c2 24 24 3e 25 b7 88 bd d2 74 09 3e 11 c1 47 3e
       0.16029647 -0.06675557 0.1342347 0.19507243
0001e0 ba ec 0f 3e 5b 90 ea 3c c9 8a ec 3c 1c 56 8e bd
       0.14055148 0.028633287 0.028874772 -0.06950018
0001f0 58 e6 8a bc 4e 98 b0 bd 28 d8 02 3e c0 6e 36 be
       -0.01695554 -0.086228 0.1277777 -0.17815685
000200 3e 11 0c be 71 bb 05 be 1e fb b6 bd 6c 71 5e bd
       -0.13678452 -0.13059784 -0.089346156 -0.054307386
000210 28 b5 03 3e 29 60 0d bc b3 9f e4 3d 02 3a 92 3e
       0.12862074 -0.008628883 0.11163273 0.2855988
000220 81 a7 09 3d fc 5c b4 3d cb 8f 0e 3e 8a 43 43 3e
       0.03360701 0.08806798 0.1392204 0.19068733
000230 bc 41 28 3e 6f b8 a7 3d 8d ff 38 be b5 80 2c bd
       0.16431326 0.08189475 -0.18066235 -0.042114932
000240 4a 84 60 3d 18 7e 0d be 7f f5 8d 3b 2b 33 c7 3d
       0.05481366 -0.13817632 0.004332244 0.097265564
000250 93 e1 d7 3b 6b e1 d4 3d ae 64 b6 3d aa 19 c1 bb
       0.00658817 0.103945576 0.08905922 -0.005892952
000260 c5 dc 8b bd 23 63 69 3d 40 8d 6d 3e 1f 3e 2a 3d
       -0.06829218 0.05697931 0.23198414 0.04156315
000270 95 ed 69 3d b0 4a 91 be 84 37 92 bd dd 82 47 bd
       0.05711134 -0.28377295 -0.07139495 -0.048708785
000280 06 4d a2 bd d4 d9 07 be a3 c3 06 3e 93 4b dc 3d
       -0.07924847 -0.13266689 0.13160567 0.10756602
000290 45 d3 e1 bd ec ff 88 bd 03 fa 86 bd 37 7c b1 3d
       -0.110266246 -0.06689438 -0.06590655 0.0866627
0002a0 e9 f2 37 3d b9 0f 69 bd e6 05 50 3e 5a 02 6c bc
       0.04490939 -0.05689976 0.2031475 -0.0144048575
0002b0 f8 da 7a be f1 d8 d2 bb 74 c6 cc 3d e5 00 25 be
       -0.24497592 -0.006434553 0.099987894 -0.16113622
0002c0 32 90 77 bd 91 bf e6 bb d9 86 c1 3d 76 e7 a8 3e
       -0.06044025 -0.0070418795 0.09449548 0.3298909
0002d0 35 1c b3 bd 12 89 42 3e 0c 7a db bd 3b 10 a6 bd
       -0.087456144 0.189976 -0.10716638 -0.081085645
0002e0 e4 ab ae bd cc c5 43 bd 7b 90 c5 bd 36 0f 26 3d
       -0.08528879 -0.047796056 -0.09646698 0.04054185
0002f0 84 43 cf 3d 22 b4 76 bc e5 a7 01 bb 10 9f a6 3c
       0.101202995 -0.015057595 -0.001978391 0.020339519
000300 3a 2a 1c 3e e2 0f f0 bd 3c bc b7 bd 0b e8 57 bd
       0.15250483 -0.117217794 -0.0897145 -0.052711528
000310 66 2f 1b 3e 4d 33 24 be 6f 88 0f 3e 95 a4 a5 3d
       0.151548 -0.16035195 0.14016889 0.08088032
000320 4c ff 5d be 7c e4 d8 bd 02 fd cf bd e0 6c fc bd
       -0.2167942 -0.10590455 -0.10155679 -0.12325454
000330 18 43 04 be f3 ff f3 bd 93 a1 6e bd 85 f2 c7 3a
       -0.12916219 -0.11914053 -0.058259558 0.0015254772
000340 87 dd 0e 3a 43 f4 d0 bc 49 6b 16 be 69 b2 c8 bc
       0.000544988 -0.025507098 -0.14689364 -0.024499135
000350 6c 05 60 3e c4 81 04 be da 12 fc bd 63 06 6c 3e
       0.21877068 -0.12940127 -0.12308283 0.23049311
000360 39 e1 fe 3d a5 ec 8d bc fc 74 de bd 7c af 61 3d
       0.124453016 -0.017324755 -0.10862157 0.055098996
000370 07 df 83 3c 31 df 08 3e 57 2e 8f 3c 55 40 b2 3d
       0.016097559 0.13366391 0.017478151 0.087036766
000380 ac 18 40 3e 3c 48 a3 bd dd 19 61 3d 7f 3a a1 bd
       0.18759412 -0.07972762 0.054956306 -0.07872485
000390 6f 3b dc 3b b9 fc 16 bc 5b 07 8e bd 87 fa 76 be
       0.006720952 -0.009215527 -0.06934997 -0.24119006
0003a0 ad 0c 74 be e7 93 18 bc 83 e2 89 3d 2d 50 d4 bd
       -0.2383296 -0.009312606 0.06732657 -0.10366855
0003b0 ac c8 6f be 13 f6 46 3e e2 c4 d9 3c f5 49 e2 3d
       -0.23416394 0.19429807 0.026583139 0.110492624
0003c0 c7 3e c6 bb a6 5b b3 3c 2e f8 00 be 4e 56 8c 3d
       -0.006049964 0.021894287 -0.12594673 0.06852399
0003d0 10 eb 07 3a db d4 f1 3c 54 62 c9 3b 13 46 18 bd
       0.00051848684 0.029520443 0.006145755 -0.037176203
0003e0 e5 d2 22 be ad 63 bb bd fc 7c 22 3c 6f 04 d4 bd
       -0.15900762 -0.09149871 0.009917494 -0.10352408
0003f0 91 22 dc 3c 24 ed 11 3e 4f a6 d0 3d ac b4 9b 3c
       0.026871951 0.14250618 0.10187971 0.01900705

conv1.bias f4 [64]
000000 fe e9 89 be 51 4b 53 be 3d 0d 0b be ce 83 f6 bd
       -0.26936334 -0.206342 -0.13579269 -0.120368585
000010 30 7f cd bd 88 99 03 be 71 b9 10 be 9b 64 45 bd
       -0.10034025 -0.12851536 -0.1413324 -0.048191648
000020 ef 20 0c be 9a af 52 be 83 3e b3 3d 9d 7c 1d be
       -0.13684438 -0.20574799 0.087521575 -0.15379567
000030 0c 58 a3 bd 60 6c aa bd a7 80 08 be 85 be d1 bd
       -0.07975778 -0.08321452 -0.13330327 -0.10241417
000040 00 6a fb bd 17 77 66 be d3 66 71 be 53 a0 12 be
       -0.12276077 -0.22506367 -0.2357438 -0.14318971
000050 9e 8a 22 be 14 cb 7a be 91 43 50 bd 22 35 8f bb
       -0.15873191 -0.2449153 -0.050845686 -0.0043703476
000060 1b d3 75 bd 99 57 9d bc ff f6 32 be 3a 42 cb 3c
       -0.06001578 -0.019206809 -0.17477034 0.024811853
000070 6e 4e 97 be 50 0b 6c bc d2 79 38 be b7 66 11 bc
       -0.29552025 -0.014406994 -0.18015221 -0.008874587
000080 cb 41 a0 bd 10 34 5d be c3 26 37 be e6 dc 6c be
       -0.07825049 -0.21601892 -0.1788588 -0.23131141
000090 d7 ff 87 be 5c 88 15 be 7c 5c 9d be d9 8e 1e bc
       -0.26562378 -0.14602798 -0.30734622 -0.009677612
0000a0 31 2d 17 bc 0c ee 15 3d 4f 29 43 be cf 30 45 be
       -0.009227083 0.036603972 -0.19058727 -0.192569
0000b0 2b 96 2b 3d f8 fa d3 bc 80 92 30 be 73 50 0b be
       0.04189126 -0.025876507 -0.17243385 -0.13604908
0000c0 0c ea fa bd cb df f4 bd 15 c6 b5 bd 25 49 36 bd
       -0.12251672 -0.119567476 -0.08875672 -0.04450335
0000d0 bd fb 5f bd fc 09 04 be b3 6a e7 bd 72 cf 6e be
       -0.054683436 -0.12894434 -0.11299648 -0.23321322
0000e0 bd 38 03 be e0 62 d6 bd 43 e2 ab bc 67 36 56 be
       -0.12814613 -0.10468078 -0.020981913 -0.2091919
0000f0 d4 c8 0c be e5 cc 3a be 32 5e 98 bd 25 aa 8b be
       -0.13748485 -0.18242224 -0.07439841 -0.27278247

conv2.weight f4 [64, 64, 3]
000000 ea 67 9b bc dd 79 f5 3d 9f 16 97 3d d6 55 b5 3b
       -0.018970449 0.11986134 0.073773615 0.005533914
000010 1c be b4 3c cb 35 89 3e 05 20 63 3d 88 4e c4 3c
       0.022063307 0.26798853 0.055450458 0.023963228
000020 2e ad d4 bd fc 01 3a 3d 0a cd 09 bd e9 94 1b 3e
       -0.10384594 0.04541205 -0.033642806 0.15193523
000030 ee b4 81 3a 81 dd 61 bc 96 78 ab bd f2 f3 fb bd
       0.000989584 -0.013785721 -0.08372609 -0.12302388
000040 96 64 8d be de 0b 60 be 5d d0 2d bc 25 b7 18 3e
       -0.27615803 -0.21879527 -0.01060876 0.14913614
000050 bd d7 f4 bd ed 5b 35 be 39 ad d9 bd 22 46 8f bd
       -0.11955211 -0.17710848 -0.10628743 -0.06995799
000060 9f 76 70 bb 66 31 51 be cb b8 96 3d 17 25 bc 3c
       -0.0036691797 -0.20429 0.07359465 0.022966905
000070 f6 68 04 3e 56 f0 c6 bc e4 b9 9b bd f9 0a b7 3d
       0.12930664 -0.024284523 -0.07603815 0.0893764
000080 4f 49 b2 3d 66 99 83 3d c6 53 5e be a5 a2 9c 3d
       0.08705389 0.06425743 -0.21711645 0.076482095
000090 4f 1b 2c bb 2d c8 4b 3e 72 15 04 be ea d9 c5 bb
       -0.0026261394 0.1990058 -0.12898806 -0.0060379403
0000a0 81 2a 78 3e 2e 30 cd 3d ad ff a2 bd a6 08 ae be
       0.24234964 0.10018955 -0.079589225 -0.33990973
0000b0 2f aa d6 3c 3c 74 96 bd 62 9a 95 3d 44 98 f6 3d
       0.026204197 -0.07346389 0.07304837 0.12040761
0000c0 85 fd 28 3d 39 31 24 be 24 9e a6 bd c5 f9 fc 3d
       0.0412574 -0.16034402 -0.08135632 0.12352327
0000d0 3a 0d 5f bd c5 80 8d 3d ed bc 20 bd 6c 78 83 be
       -0.054455973 0.069093265 -0.039242674 -0.25677812
0000e0 76 76 64 3d b6 70 9c 3d ff 0c 38 3e a6 48 9e bd
       0.055777036 0.076386854 0.17973708 -0.077287
0000f0 ff 5a 31 3a a8 4c b7 3b 7c 73 1a bc ec cf d3 3c
       0.00067655736 0.005593855 -0.009426948 0.02585598
000100 93 86 08 3e 07 8e 15 3e 5f 4f db bb 77 2e 9e bd
       0.13332586 0.1460496 -0.0066928114 -0.07723706
000110 7c 43 0c be 4a cb 19 bd 7a 1f 71 3e 3f c1 36 3d
       -0.13697618 -0.037547387 0.23547164 0.044617888
000120 b0 e8 20 3e 7c cf da 3d f2 21 9a bd 32 87 0c bd
       0.15713763 0.10684106 -0.07526006 -0.03430862
000130 f2 e4 1c be 8c 91 8f be bb fc 29 3e c5 d0 29 3e
       -0.1532171 -0.2804073 0.16600315 0.16583546
000140 ed bc 35 bd 4b 36 7f bd d7 1c 16 bd 47 cb 15 3e
       -0.044369627 -0.062307637 -0.036648598 0.14628325
000150 ad d9 8e 3d 6d 4a 66 be 30 17 f3 3a 4b c2 7c 3d
       0.06975112 -0.22489329 0.0018546339 0.06170873
000160 d5 15 f1 3d c3 c4 d7 3d c8 f9 d8 3d e7 4d 25 3e
       0.11771742 0.10535576 0.10594517 0.16142999
000170 88 23 8b 3d 1c 1b 99 bd 9f 4e 0e be fd 30 4c bd
       0.067938864 -0.07475874 -0.13897179 -0.049851406
000180 c6 18 bf bd 4b e2 43 3e 4b 57 3b be fc 8d e3 3d
       -0.09330897 0.19129293 -0.18295018 0.11111066
000190 50 cc 15 bd b0 cf 64 bd 34 d5 2b be 1f 97 22 be
       -0.0365718 -0.05586213 -0.1678055 -0.1587796
0001a0 cc 11 5a bd a9 68 39 3d 76 2a 4f be 57 e7 40 3e
       -0.05323963 0.045265827 -0.20231041 0.18838249
0001b0 50 ed 83 bd af de 4f 3d 1a 25 7a 3c a3 8c 0e bc
       -0.06441748 0.050749477 0.015267635 -0.008700523
0001c0 69 c4 2b 3d 4f d6 df bc 2e e1 d4 3d c8 f7 11 be
       0.04193536 -0.02732387 0.10394512 -0.14254677
0001d0 36 ae 0b bd 85 e5 ee 3d a6 13 ef 3c b6 cb 59 bc
       -0.034101687 0.11664871 0.029184174 -0.013293197
0001e0 d8 e3 2b bd e3 50 6d 3e 59 4c 13 be 78 9d e1 bd
       -0.041965336 0.23175387 -0.14384593 -0.11016363
0001f0 d7 09 15 3e 6d 01 db bd 05 9b 77 be 64 86 03 3e
       0.14554535 -0.10693631 -0.24180229 0.12844235
000200 a6 c5 7c bd 9d 13 30 be cc c1 af bb c0 99 c8 3c
       -0.06171193 -0.17194982 -0.0053636786 0.024487376
000210 82 5b b5 bd 6d 4c ae 3e c7 76 84 be 44 f5 a1 3d
       -0.08855344 0.34042683 -0.2587187 0.07908109
000220 5f 7d a8 3e 59 1f 7b 3d b7 56 8d bc 65 48 0b be
       0.3290815 0.061309192 -0.017253263 -0.13601835
000230 f6 f3 01 be 32 43 85 3d 19 23 0c be a4 d2 28 3c
       -0.1269072 0.06506957 -0.13685264 0.010304127
000240 2e ef 94 bd bc 87 2d be e0 33 c8 3c ba 6f 51 be
       -0.072721824 -0.1694631 0.024438798 -0.20452777
000250 2c a0 e9 bd ed 0a de bd 4b 4f c0 3c 79 d8 78 bd
       -0.114075035 -0.10841928 0.02347531 -0.06075332
000260 9a 02 08 3e 59 d2 eb bc aa 64 b8 bb 39 8e a2 bc
       0.13282242 -0.028786825 -0.0056272345 -0.019843208
000270 7c 4d cc bd 7c ac 46 3e 72 78 8b bd fb ab 94 bd
       -0.099757165 0.19401735 -0.068100825 -0.07259365
000280 e9 42 7e bb 80 19 52 be 38 b3 d0 3d 87 8d 50 3e
       -0.0038797206 -0.2051754 0.10190433 0.20366488
000290 c6 19 bf bd f0 e0 57 bc 01 e8 d2 3d bd 46 39 be
       -0.09331088 -0.013176188 0.102981575 -0.18093391
0002a0 18 d9 8a 3d 67 36 82 3d d6 13 fe 3b a7 c7 2d 3d
       0.067796886 0.06358033 0.0077538295 0.04242673
0002b0 40 8f 7b 3c 78 5d b6 3d 0f 85 48 3c 86 a9 18 bd
       0.015353978 0.089045465 0.012238755 -0.037271045
0002c0 0e 01 ac 3d 91 16 3e 3d 2e 4f f8 3d 42 c9 c5 3d
       0.08398639 0.04640824 0.12124477 0.096575275
0002d0 84 b8 26 bd 04 a5 e3 bd 0e 30 ef 3b e7 6b 8f bc
       -0.04070331 -0.111154586 0.0072994297 -0.017507507
0002e0 e5 14 69 3e 9f 58 e0 3b e1 6c f0 bb 32 25 9b bd
       0.22761877 0.006846502 -0.007337198 -0.07575454
0002f0 5c 03 da bc c8 69 4a 3e a4 49 1b bd 7a 1f 23 3e
       -0.02661293 0.19766915 -0.037912026 0.15929976
000300 33 e5 b7 be 58 e4 57 3d c5 02 2c 3e ef a4 8d bc
       -0.35917053 0.052708 0.16797931 -0.01729056
000310 ba bf 65 3d 01 ae 66 be 60 2c 47 be f5 20 03 3e
       0.056091048 -0.22527315 -0.19450521 0.12805541
000320 72 f5 6a 3e cb e2 15 3e e7 b9 7e be 4f fe 2e be
       0.22945192 0.14637296 -0.24875604 -0.17089199
000330 c7 a9 a7 bd 9b 05 2b 3d 78 75 4c bd ea 49 90 bd
       -0.08186679 0.041753393 -0.049916714 -0.07045348
000340 0c 49 09 3d ef bb 1a 3e 7b 0d a2 3d 7d 50 32 bd
       0.03351693 0.15110753 0.079127274 -0.04353379
000350 c6 78 66 bd 69 72 06 3e ea 88 87 bc 4b 40 70 bd
       -0.056267522 0.13129582 -0.016544778 -0.058655065
000360 78 4c 4b 3d 76 94 79 bd ba b9 bc bd ef b9 86 be
       0.049633473 -0.0609326 -0.09215112 -0.2631373
000370 64 a3 7e 3d ee 0b cb bb 81 93 92 bd bc a3 62 3d
       0.06216754 -0.0061964905 -0.071570404 0.05533193
000380 e4 72 f1 3d c7 1c d2 3c 92 fb 15 bd 7e 1a 51 bd
       0.11789492 0.025648488 -0.03661687 -0.051050656
000390 7a f2 38 3d 6f 55 81 3b 51 c3 11 3e 20 6c 1d 3b
       0.04515312 0.003946952 0.14234664 0.0024020746
0003a0 7c 9c 92 3d c0 47 5f be 6a 7e 92 bd 8b 97 9a bd
       0.07158753 -0.21804714 -0.07153018 -0.07548436
0003b0 43 ad 1b be b0 72 7e bc fa c9 09 3b f6 27 34 bc
       -0.15202813 -0.015530273 0.0021024928 -0.010995856
0003c0 d8 ab af 3d b4 8a 03 3d 82 fb 35 bd 5b f9 10 be
       0.085776985 0.0321147 -0.04442931 -0.14157622
0003d0 80 84 45 3d 71 da 38 3e 80 80 9a bc 07 6d 79 bc
       0.048222065 0.18052079 -0.018860102 -0.015223748
0003e0 d0 19 0f bd 90 33 f2 bd 60 b8 12 3d 6e fc 2a be
       -0.034936726 -0.11826241 0.035820365 -0.16697857
0003f0 ee aa 0b be 41 1a c9 bd 1d fc 89 be 25 78 08 3f
       -0.13639423 -0.09819461 -0.2695016 0.53308326

conv2.bias f4 [64]
000000 32 6c 6e be 65 23 f9 bd a2 14 fb 3d 2c f8 62 3b
       -0.2328346 -0.12164954 0.12259795 0.0034632785
000010 26 1e ab bb 8d f5 41 be 52 99 21 be 0f 6f 17 be
       -0.0052221 -0.18941326 -0.15781143 -0.14788459
000020 c5 4f 6d be c5 7a 9d bd 36 1b bb bd c6 ea fc bd
       -0.23174961 -0.07689432 -0.091360494 -0.12349467
000030 c6 2e 9e bd f0 64 34 be 90 e1 0b be 6e 7e 5e be
       -0.07723765 -0.1761663 -0.13660264 -0.21727917
000040 4a 59 2e be d3 18 a4 be bb 43 44 be 62 90 b4 3c
       -0.17026249 -0.3205019 -0.19166462 0.022041503
000050 a8 cc 1a be 50 a8 a6 be 9c 18 35 be ab 93 46 be
       -0.15117133 -0.32550287 -0.17685169 -0.19392268
000060 ad 26 6a 3b 42 20 54 be cf e0 61 3d 57 1d aa bc
       0.003572862 -0.2071543 0.055146035 -0.020765943
000070 a4 7a 2f be 00 50 95 bc 6e d6 0f be 86 f5 49 be
       -0.17136627 -0.018226624 -0.14046642 -0.19722566
000080 ea 58 67 be a1 b8 d7 3d 6b 17 8a be c8 44 8c 3c
       -0.22592512 0.10533262 -0.26970991 0.017122641
000090 01 eb 88 be 2c f2 2f be 7c 7e 1c be 5f 5a 82 bd
       -0.26741794 -0.17182225 -0.15282625 -0.06364893
0000a0 b3 b1 03 be 9e 89 5d be 5d 41 0c 3d 8f f6 da bc
       -0.12860756 -0.21634528 0.034242023 -0.026728896
0000b0 66 67 3e be 53 44 49 be 58 a5 3d bd 24 a1 35 be
       -0.18594131 -0.1965497 -0.046300262 -0.17737252
0000c0 19 95 45 be f7 98 53 be 5e 09 3e be 5e 2c 8c be
       -0.19295157 -0.2066382 -0.18558261 -0.273776
0000d0 25 54 41 3d 30 6e 81 be 27 d0 a1 bd ae e1 97 be
       0.047199387 -0.2527938 -0.0790103 -0.29664367
0000e0 72 6f 23 be 05 4d 54 be 01 66 b7 bd 10 86 f8 bd
       -0.15960482 -0.20732506 -0.089550026 -0.121349454
0000f0 4a 1d 52 be 81 52 08 bd 2f 4e 24 be 37 d0 fd bd
       -0.20518985 -0.033281807 -0.1604545 -0.123932295

conv3.weight f4 [256, 128, 5]
000000 ec 27 a3 bd 83 4f bf 3d 34 83 97 bd de 7b 33 be
       -0.07966599 0.093413375 -0.07398072 -0.1752772
000010 1d b1 ed bd 29 bb 3c bd 5e fd 47 be 43 70 25 be
       -0.11606047 -0.046076927 -0.19530246 -0.16156106
000020 22 11 44 bd cc 6a 89 be 5a 7a 04 be 7e 54 92 bd
       -0.0478679 -0.26839292 -0.12937298 -0.07145022
000030 0f 54 74 bd 2b 9c 9c 3d ab 20 7d 3b 9f 75 8d 3d
       -0.059650477 0.07646974 0.0038624208 0.069072
000040 20 25 24 3e df f9 3c 3d 24 a9 ba 3d 02 84 07 be
       0.16029787 0.046136733 0.09114292 -0.1323395
000050 9f 63 7a be 3f e3 a7 be 66 1f 88 bd 6b 7e 7b be
       -0.24452065 -0.32790563 -0.06646614 -0.24559943
000060 8c 33 90 3b 43 4e ba 3b 41 10 f7 bd dc ef 27 be
       0.004400676 0.005685599 -0.12063647 -0.16400093
000070 00 4f 14 bd 7f ae da 3c 80 29 ee 3c 39 2c 40 3d
       -0.036208153 0.026694534 0.029072523 0.046917174
000080 20 2b 33 3d e7 7e 7f be 56 a1 15 3e ff 8d c4 3a
       0.0437423 -0.24950753 0.14612326 0.0014995931
000090 7b 32 83 3c fd bf 07 be bf bc 55 3d 05 3d 08 be
       0.016015282 -0.13256831 0.052181955 -0.13304527
0000a0 21 c4 ca 3c 12 66 76 bd 79 56 1a bd 76 50 83 bd
       0.024751725 -0.060155936 -0.037680123 -0.06411831
0000b0 b1 b7 c4 3d e5 4a 86 3c 1f 44 14 be 96 ac aa bd
       0.09605349 0.016393134 -0.14479111 -0.083336994
0000c0 26 1e 34 3d 3f 13 09 be bc 68 80 bd ae df 11 be
       0.043974064 -0.13386248 -0.062699765 -0.14245483
0000d0 df 83 50 bd 28 d3 81 bd 2e f9 d0 3d 79 62 9c 3d
       -0.050907012 -0.06339103 0.10203777 0.0763597
0000e0 45 1a 90 bd b6 0e 69 3d af 46 17 be 0f 45 f5 3d
       -0.070362605 0.056898795 -0.14773057 0.119760625
0000f0 fa 21 e1 3c 44 a2 6d bd ac ed a8 3e a3 76 d4 bb
       0.027482022 -0.058016077 0.3299383 -0.006483869
000100 ba f9 83 3d 4f 58 3e be 27 22 ee bd 58 5b 8e 3c
       0.06444116 -0.18588375 -0.11627608 0.01737754
000110 f1 cc 24 3e 17 6f df 3d 9a b3 fc bd 37 db 2d be
       0.16093804 0.109098606 -0.12338944 -0.16978155
000120 72 32 2b 3e 3d ae c5 3d 22 21 97 3c ca cb 24 be
       0.16718462 0.09652374 0.018448416 -0.16093364
000130 80 12 10 be 07 f2 8a bd c6 7f 67 be 4c d0 4b bd
       -0.14069557 -0.06784444 -0.22607335 -0.049759194
000140 04 bf d2 bd bc 2a 9f 3b 6a f6 07 be 43 22 0f be
       -0.102903396 0.0048573893 -0.13277593 -0.13977914
000150 dd d3 58 bd e5 33 5b be de 97 a2 be b8 82 0b bd
       -0.052936424 -0.21406515 -0.3175649 -0.03406021
000160 4f 0c 09 3d 0f 43 93 bd de 40 ad bc ff 79 c6 bc
       0.033459004 -0.07190525 -0.021149095 -0.024228094
000170 c4 04 72 3c ba dd cf bd 2c 3e b6 3d 35 65 d3 bb
       0.014771644 -0.10149713 0.08898577 -0.006451274
000180 f2 c3 8e bd 62 43 88 bc 90 fa ea bc 49 a4 5a be
       -0.06970967 -0.016633693 -0.02868393 -0.21351732
000190 7e a0 56 3e 87 1e a7 bd 1e c4 8c 3c b6 2a 30 bd
       0.2095966 -0.081601195 0.01718336 -0.043009482
0001a0 5a d8 3f 3c 99 91 65 be be 9a ff bd 6b 00 42 be
       0.011709297 -0.22418822 -0.124806866 -0.18945472
0001b0 b0 13 1a be c2 33 42 bc a0 7f 38 be 0b ba 35 be
       -0.15046573 -0.01185316 -0.18017435 -0.17746751
0001c0 7d 5d 1f 3d 63 33 9c bd 7a 98 62 3d 15 8e bb bc
       0.038907517 -0.07626989 0.055321194 -0.022894898
0001d0 98 3a 0e be 12 72 14 bd c4 85 ab 3d ce be 0d bd
       -0.13889539 -0.0362416 0.08375123 -0.034605794
0001e0 3d 83 27 be d4 81 5b 3d 0f 1e 17 be 3c a3 d7 3c
       -0.16358657 0.05359061 -0.1475756 0.026322953
0001f0 2c 1c b0 bd 85 14 d0 bd 56 9a fa 3d 3c 9f a8 3c
       -0.08599123 -0.10160164 0.122364685 0.020583741
000200 ba bc 98 3d f8 00 0c bd 1d 7d 86 3e 77 ae 4a bd
       0.07457872 -0.03418061 0.2626733 -0.04948279
000210 db c0 b1 3c 8c 79 19 3d a8 05 82 bd ab 3e b0 bd
       0.021698406 0.03746943 -0.06348735 -0.08605703
000220 e0 9f 76 3c a4 1a 1c be 00 00 ac bd ec 11 ab bd
       0.015052766 -0.15244538 -0.083984375 -0.08353028
000230 41 64 cd 3d fb 74 28 bd cb be 19 3e ca 31 ad bd
       0.100288875 -0.041127186 0.15014188 -0.08456762
000240 83 26 62 3e 8f b5 99 bd 4d e9 90 3c 03 ec 9b bd
       0.22085004 -0.07505333 0.017689371 -0.07613375
000250 43 c9 32 bc 57 65 81 3d 2a d4 70 bd 22 65 8f 3e
       -0.010912242 0.06318157 -0.058796085 0.28006846
000260 65 d5 3a be dd 12 fb 3d af c2 19 bd f9 47 be bd
       -0.18245466 0.12259457 -0.03753918 -0.092910714
000270 5d 18 8e 3d c4 96 46 be bd bf 25 3e 62 f0 5c 3c
       0.06938241 -0.1939345 0.16186424 0.013485046
000280 34 a1 33 bd 3a bf f3 bb bf 34 cb 3c 9c eb 80 bd
       -0.043854907 -0.0074385675 0.024805425 -0.06294939
000290 52 8f 02 be ec c3 6e bc ee fd 02 3d fc 1d d1 3d
       -0.12749985 -0.014573079 0.031980447 0.10210797
0002a0 55 15 0c be c3 7c 53 3e c2 e0 2f be 74 25 0a be
       -0.13680013 0.20653062 -0.17175582 -0.1349085
0002b0 57 3d f6 3d 35 dc 1d be 20 5d 7c 3d fc fc 1d 3d
       0.120234184 -0.15416034 0.06161225 0.038571343
0002c0 21 04 3c be 89 e6 28 be 0e 45 29 3e 86 93 66 bd
       -0.1836095 -0.16494192 0.16530249 -0.056293033
0002d0 e8 02 7a bc d7 7c b5 bd f7 8a 9c bd 73 25 57 bd
       -0.015259482 -0.08861702 -0.07643693 -0.05252595
0002e0 ca cc 93 bd 68 29 4b bd f7 8f 35 be 99 96 26 3d
       -0.07216795 -0.049600035 -0.177307 0.040670965
0002f0 70 07 47 be 5d 75 08 3e f5 6c 06 be 41 ef 6e bd
       -0.19436431 0.1332602 -0.13127501 -0.05833364
000300 91 42 ed bd b9 c5 bc bc 61 80 39 be 7a f1 88 be
       -0.11584962 -0.0230435 -0.18115379 -0.26746732
000310 ef b1 5f be 72 2a ce bd 76 f8 d9 bd 46 e8 88 3d
       -0.2184522 -0.100666896 -0.10643093 0.06684928
000320 c7 49 1a bd f8 4c 0d be ba 54 dc bd a0 67 84 bd
       -0.037668016 -0.13798892 -0.10758348 -0.064650774
000330 52 73 1d be 64 20 2a bd 38 8d d9 bd f0 23 0d be
       -0.15376022 -0.041534796 -0.106226385 -0.1378324
000340 ce d5 d0 3c 40 9d ae bd 8e 62 55 bd 72 2b 5c bd
       0.025492575 -0.08526087 -0.052095942 -0.05375237
000350 74 38 e0 bc e8 c7 cd be 04 98 c8 3d 2d 21 93 bc
       -0.027370669 -0.4019158 0.0979462 -0.017960155
000360 8c 74 a3 3c 45 fa b5 bc da 2b 63 bd 7f b4 11 3c
       0.019953035 -0.022214064 -0.055461742 0.008893131
000370 82 a3 b6 3c 2b b7 98 bd 25 7f 4d bd 46 ef 4c be
       0.022294763 -0.074568115 -0.050170083 -0.2001315
000380 d4 fa 5c 3e e8 d6 26 3c 71 0c 81 3d 37 8c 5b be
       0.21580058 0.010183074 0.06301201 -0.21440206
000390 ab f1 20 3d 77 e7 28 3e 19 38 64 3d 21 b6 48 bd
       0.039292973 0.16494547 0.05571756 -0.049001817
0003a0 8d 84 8b bc ac 88 70 3d 87 df bc bd 5a c9 89 bd
       -0.017030979 0.05872409 -0.09222322 -0.06727858
0003b0 77 a1 e5 bd 0f 50 14 3e 42 12 c4 bc 53 3c 25 be
       -0.112124376 0.14483665 -0.023934487 -0.16136293
0003c0 47 0f e1 3a bc d4 05 bd 08 18 27 be 3e 0e 2d 3e
       0.0017170691 -0.032673582 -0.16317761 0.16899964
0003d0 20 a0 31 3d 5d 82 e4 bd 4e 74 e1 bd 3b 2f 07 be
       0.043365598 -0.11157677 -0.110085115 -0.1320161
0003e0 bb 9d 19 be b0 49 8a bd be dc af bc 2d f8 87 3d
       -0.15001576 -0.06752336 -0.021467563 0.06639133
0003f0 f7 60 34 3d e8 8f 02 be b5 cc 1d 3e 14 5e fd bc
       0.044037785 -0.12750208 0.15410121 -0.030928649

conv3.bias f4 [256]
000000 d6 e9 50 3d f3 9e 9c bd bb ce 02 be 23 ee 92 be
       0.051004253 -0.07647505 -0.12774174 -0.2869731
000010 f0 64 a9 3e fa f0 12 be e4 21 c3 3d 47 b0 37 3c
       0.33084822 -0.14349738 0.095279485 0.011211461
000020 0f 67 7b bd 05 df 28 bb 84 47 6c 3e bf b8 a4 bc
       -0.06137758 -0.0025767696 0.23074156 -0.020107625
000030 dc c5 ff bd c2 28 af bc c5 75 b5 bd be 86 f1 bd
       -0.124889106 -0.02138174 -0.088603534 -0.11793278
000040 30 8f 37 be 4c 80 30 be 6b 92 42 bd be 5e 7a bd
       -0.17925715 -0.17236441 -0.047502916 -0.06112551
000050 36 a4 b4 bc 13 8a db bd 27 58 d1 3d 0d f3 eb bd
       -0.022050958 -0.10719695 0.10221892 -0.11520968
000060 3f f6 d4 bc 5f cb 31 be 02 58 ed bd fe 20 10 be
       -0.025996326 -0.17362736 -0.11589052 -0.14075086
000070 a2 6d 37 be 7e 04 8a 3c b2 94 c6 bc d3 6b d3 bd
       -0.17912915 0.016847845 -0.024240825 -0.103233
000080 63 f7 9c bd 25 c4 e9 bd aa 6a 62 3a 2c 60 4b be
       -0.07664373 -0.11414365 0.000863711 -0.19860905
000090 99 81 5c be 3e 89 a6 bd 35 a9 26 be f5 5e d4 bd
       -0.21533813 -0.081316456 -0.16275485 -0.10369674
0000a0 52 12 41 be 83 80 4a be b2 17 47 3e 93 fc 2e bd
       -0.18854645 -0.19775586 0.19442633 -0.042721342
0000b0 11 ed d3 3c 30 07 d3 3e 1b 4a 1d be 59 1b 37 bd
       0.025869878 0.4121642 -0.153603 -0.044703815
0000c0 0d 99 7f bb c2 9f 45 3e 0f 33 12 be c1 f7 ef bd
       -0.0039001137 0.19299224 -0.1427729 -0.11717177
0000d0 ae 0e 07 be 4d 4c 41 3d c8 60 2c 3e 3b 1f 19 3e
       -0.13189194 0.047191907 0.16833794 0.1495332
0000e0 44 84 14 3e f0 bd 22 be 78 86 af 3c c4 ad 0a be
       0.1450358 -0.15892768 0.021426424 -0.13542849
0000f0 27 b8 28 3e 31 55 e0 bc e1 2b 62 bd 2f 49 88 be
       0.16476499 -0.027384372 -0.055217627 -0.26618335
000100 0e d4 13 bd c5 b8 82 bc 03 2c a2 bd de 58 01 3e
       -0.036090903 -0.015957246 -0.07918551 0.12631556
000110 9b 16 28 be fa 6f 26 be 16 cd 03 be 00 4d 49 be
       -0.16414873 -0.16253653 -0.12871203 -0.1965828
000120 96 4e 0b bd 0b ee 82 bc 95 f0 08 be 2b 67 9d be
       -0.034010492 -0.015982648 -0.13373025 -0.30742773
000130 af 38 4b be 44 8f e1 bd fc d8 70 3e af c7 5f be
       -0.19845842 -0.11013654 0.23520273 -0.21853517
000140 7b a9 3f be 34 28 da bc fa cc b8 bd 6e f7 4e be
       -0.18716995 -0.026630498 -0.09023471 -0.20211574
000150 3f cc 09 be fd 0d ca bd 9e b8 1b be 8d 64 d3 bd
       -0.1345682 -0.09865949 -0.15207145 -0.10321913
000160 fa 90 a0 bd 2c 4c 4d be da 16 3c 3e ba 2b 38 3d
       -0.07840152 -0.20048589 0.18368092 0.044963576
000170 43 9e 17 be 7a 8e 50 be a9 7c dc 3d 8f 7e bc be
       -0.14806466 -0.2036685 0.107659645 -0.36815307
000180 43 11 17 be fe 60 04 3d 35 47 94 bd 9a 89 f1 3d
       -0.14752679 0.03231906 -0.07240144 0.117938235
000190 55 4f 2d 3e 52 b2 29 3d 6d be 75 be b8 59 e0 3d
       0.16924794 0.041429825 -0.23998423 0.109546125
0001a0 e7 3e 94 bd 99 18 ae 3c e8 27 97 bd f2 e3 23 3c
       -0.0723856 0.021251963 -0.073806584 0.010003077
0001b0 9a 78 1c bd fe 6c 83 bd e8 03 55 be 7e 4e 6d be
       -0.038200952 -0.06417273 -0.20802271 -0.23174474
0001c0 2a ad aa bd be f7 cf 3e 25 2c 24 be d3 1e f1 3c
       -0.0833381 0.406187 -0.16032465 0.029433643
0001d0 19 fb 00 bd 5c 30 43 3e 77 cc 8b bc fb 4a 1d be
       -0.031489465 0.19061416 -0.01706527 -0.15360634
0001e0 ae 41 c3 bc 30 76 a2 3e c0 07 ae bd 6e 90 9f bc
       -0.02383503 0.31730795 -0.08497572 -0.01947805
0001f0 18 0c 91 3d 6e f8 5f be 65 dd 05 bd 69 5f 09 be
       0.07082385 -0.21872112 -0.03268184 -0.13415302
000200 9b d5 80 bd 2f 81 1e be f1 a4 b8 be c0 13 44 be
       -0.06290742 -0.15478967 -0.3606334 -0.19148159
000210 08 da 14 be 07 7a 3e be 68 52 a1 be 46 82 6e bd
       -0.14536297 -0.18601237 -0.31508183 -0.058229707
000220 59 49 c3 3c 0a 0b 05 3e e7 77 42 bc 8a bf 30 3e
       0.023838686 0.12992492 -0.011869407 0.17260566
000230 11 f6 dd 3c c4 9a 1d bd f2 fa 4e be 0b 89 6c be
       0.027094873 -0.038477674 -0.20212916 -0.23099153
000240 35 1c 5e be 48 77 4e be 31 17 12 be 40 81 41 be
       -0.21690448 -0.2016269 -0.1426666 -0.18896961
000250 1b 08 20 be 82 83 17 bb 4c 42 2e be 5f dc 9a be
       -0.15628092 -0.0023119156 -0.17017478 -0.30246255
000260 e2 40 a2 bd 4a 15 6e be 9c 2c 9f bc 89 91 9e 3d
       -0.07922532 -0.23250309 -0.019430451 0.077426024
000270 d6 5d 26 be b3 87 9d be 08 d4 9e bd 71 8a ce bd
       -0.16246733 -0.30767593 -0.077552855 -0.10084999
000280 63 02 91 be cb f2 fe bd 08 00 f4 bd 01 95 2e ba
       -0.28322133 -0.12448653 -0.119140685 -0.00066597766
000290 3e 2e 1d be 7c 09 14 be 9a 8b 96 bd f7 28 6f be
       -0.15349671 -0.14456743 -0.07350846 -0.2335547
0002a0 1d 61 8c be 25 2c 8e bd 4b 5d 83 3d 77 81 eb bc
       -0.27417842 -0.06942014 0.064142786 -0.028748257
0002b0 0c ba 3c 3d 0b 5b ba bd 6f 37 ec bd 24 8f 78 be
       0.046075866 -0.09099396 -0.115340106 -0.24273354
0002c0 34 63 be bd 77 37 ad be be 54 80 be 32 b8 89 3d
       -0.09296265 -0.3383138 -0.25064653 0.067245856
0002d0 c0 6a b4 bd dd cb 07 bd 17 6e 99 3d 24 47 dd 3e
       -0.088094234 -0.033153404 0.07491701 0.43218338
0002e0 d3 bb 25 be 3d ec b8 bd 18 b5 1e 3b 08 3b 93 bb
       -0.1618493 -0.09029434 0.0024216827 -0.004493121
0002f0 4a 07 9f bd ec a5 f2 3d 97 b6 7b bd 41 f7 a7 be
       -0.07765062 0.11848053 -0.061453428 -0.32805827
000300 bb 56 94 bd e2 ef fc bd 06 04 f1 bd cb 9f 7d be
       -0.07243105 -0.123504415 -0.117683455 -0.24767987
000310 8b f1 10 be 60 60 5f be 2b f5 0a bd 6c 8e 84 be
       -0.14154641 -0.21814108 -0.033925217 -0.2588991
000320 31 cb 48 bd 38 3c 88 bc 9b d6 19 3d c0 d8 d8 bd
       -0.049021903 -0.016630277 0.03755818 -0.10588217
000330 36 a3 ab 3d 57 67 1b 3d e6 d9 d3 be d9 7d 10 be
       0.083807394 0.03794035 -0.4137718 -0.14110507
000340 d9 92 4b be 6f e4 ce 3d e4 c1 bb bc a3 a0 3d 3e
       -0.19880237 0.10102164 -0.022919603 0.1851831
000350 2a 42 a7 bd 2c 03 68 bd 3c e1 0d be ec e8 84 be
       -0.08166917 -0.05664365 -0.13855451 -0.25958955
000360 cd d5 3f bc 87 71 66 be 79 44 49 bd f9 f7 1a bd
       -0.011708689 -0.22504245 -0.049137566 -0.03783414
000370 42 26 51 be 53 a4 91 3b 87 ac ba bd 9b d5 9f be
       -0.2042475 0.004444638 -0.09114938 -0.31217656
000380 b4 4d 98 bd 86 a7 e6 bd ea c3 a6 bc bc 25 2f be
       -0.07436696 -0.11262421 -0.020357091 -0.17104238
000390 7e b0 c3 bd 22 54 b7 bd 7d 49 9c 3d 8e 6b 6c bd
       -0.095551476 -0.08951594 0.07631204 -0.05771976
0003a0 d8 29 fa bc 72 2c e5 3d 65 cf 4b be 2d fd 37 bd
       -0.03053753 0.11190118 -0.19903333 -0.04491918
0003b0 d0 c5 31 be be 61 1b 3e 09 5c 57 be ab 11 b8 3d
       -0.17360616 0.15174004 -0.21031202 0.08987745
0003c0 b6 f5 d8 bb 6e b6 de bd d7 5f 0e bd f2 d3 00 3d
       -0.006621088 -0.108746395 -0.03475937 0.031452127
0003d0 fc b1 3d be c0 25 87 be cf c4 58 bd ea 4f 4e be
       -0.18524927 -0.26395988 -0.052922066 -0.20147672
0003e0 50 d4 52 bd ae 01 6d 3e f2 a7 de 3d 73 99 fa bc
       -0.05147201 0.23145172 0.10871877 -0.030590748
0003f0 6d 8c 6f bd 99 96 9f bd f5 06 bb 3e ce 59 12 be
       -0.05848353 -0.07792396 0.36528745 -0.1429207

fc.weight f4 [12, 256]
000000 4b a4 a4 3c fa 48 d9 3c df ca 03 3c 0e bb d1 bd
       0.020097872 0.026524056 0.008043974 -0.10240756
000010 cf c5 95 3c 44 2a 3e 3d 25 de 78 3b 36 c1 a4 3c
       0.018282799 0.046427026 0.0037974205 0.020111661
000020 2e ea 2c 3d 6b 42 df bd 5d 94 cb 3d 04 96 16 be
       0.04221552 -0.1090134 0.099404074 -0.14705664
000030 d8 83 95 bd 25 bd 3e 3d 39 e1 b2 3d 97 a0 3c 3c
       -0.07300538 0.0465671 0.08734364 0.011512897
000040 e2 7f 18 3e 71 17 ad bd 17 aa 12 3e 43 01 ac bc
       0.14892533 -0.08451737 0.14322697 -0.020996695
000050 fb 65 47 3d 29 f7 07 3d 5c 24 85 3d c8 8b fc bc
       0.04868124 0.033194695 0.065010756 -0.030828372
000060 77 51 f6 bd fa 88 3a be e5 f1 8f bb 12 c0 56 bd
       -0.12027257 -0.18216315 -0.0043928497 -0.052429266
000070 f5 57 2d 3d 32 5d ab 3c 4a 39 3a 3e 8a 9a 66 3d
       0.04232021 0.020918462 0.18185917 0.056299724
000080 9f 29 68 bd 27 98 cd 3d 23 9a 31 bd 19 4d 4f 3c
       -0.056680318 0.100387864 -0.043359887 0.012652659
000090 7d cd 65 bc 27 97 83 bc 3b 0a 3b bc 2c c4 c0 bb
       -0.014026043 -0.016063286 -0.011416013 -0.0058827605
0000a0 11 69 51 bd 22 fe 59 bb 3c 45 5c bd f1 bb 0a be
       -0.05112559 -0.0033263047 -0.053776965 -0.13548256
0000b0 00 83 ec bd 79 b0 20 bb 4f 9c 49 be aa 0e 9f bd
       -0.11548424 -0.0024519248 -0.19688533 -0.07766469
0000c0 3b 7b d4 3d 1a 6d 0d 3e cc dc 60 3c 55 11 1d 3c
       0.10375067 0.1381115 0.013724517 0.009586652
0000d0 8f 1f 97 bd 75 8e bd 3d 8d 84 b1 3d a6 05 cd bd
       -0.07379066 0.09255687 0.0866786 -0.10010843
0000e0 bc 55 cc 3c bc 6f 55 be e3 11 bf 3d be 82 88 bc
       0.024943225 -0.20843405 0.093295835 -0.016663905
0000f0 c8 be 1e 3d f4 b7 8f 3d de 0a d1 bd 4f 0d d4 3c
       0.038756162 0.07017508 -0.10207151 0.025885252
000100 73 72 5c bd bb f0 98 bc 58 7a 43 bd b7 15 6c 3d
       -0.053820085 -0.018669477 -0.047724098 0.057637896
000110 ac 1e a8 bc 32 d0 90 3d af 15 68 bd 86 a8 b8 3c
       -0.020522438 0.0707096 -0.056661304 0.022541296
000120 be 79 f8 bd f1 2b ae 3c da 4d 17 3d 2e f5 7a be
       -0.121325955 0.021261187 0.03693948 -0.24507591
000130 a1 73 6d bd 70 af 8f bd 63 01 e5 bb 14 df 93 bd
       -0.0579716 -0.07015884 -0.0069886907 -0.07220283
000140 38 46 b2 bd cd 7d 62 be 35 0d 29 bd f2 b4 c4 bd
       -0.087047994 -0.22118302 -0.04127236 -0.09604825
000150 b1 ca 0b bd b3 81 a6 3c 4a aa 15 bc b4 02 12 3d
       -0.03412885 0.020325517 -0.009134838 0.03564711
000160 d7 2e e4 3b 33 5e ca bd 89 18 09 3d 00 67 8d 3d
       0.0069635916 -0.09881248 0.033470664 0.06904411
000170 05 ff 12 be f4 9f b0 3c 61 ba c6 3c 77 4c 48 bd
       -0.14355095 0.021560647 0.024258794 -0.048901048
000180 f6 a3 11 bf bf 0c 1b 3d 7b 84 ac bd 7f 2e e8 bd
       -0.5689081 0.037853952 -0.08423706 -0.113369934
000190 23 65 07 3e 57 72 20 bd 7f be 97 bd 14 05 8c 3c
       0.13222174 -0.039171543 -0.07409381 0.017092265
0001a0 45 c8 ab bd 91 04 95 3d d3 d3 32 bd a4 74 a5 3d
       -0.08387808 0.072762616 -0.043659043 0.08078888
0001b0 1d a2 c6 3c 12 6e 22 be 2a d3 37 bd f4 83 3e 3d
       0.024247224 -0.15862301 -0.044879116 0.04651256
0001c0 08 3f 8a bd be c7 b0 3c 74 f6 25 3d 38 f4 a9 3c
       -0.067503035 0.02157962 0.04051824 0.020746335
0001d0 08 4e 7e bc d8 dd 97 bb a9 da 90 3d 43 f5 95 3d
       -0.015521534 -0.0046346 0.07072956 0.073221706
0001e0 b4 a9 f3 3c cc 26 44 bc 05 d4 2e bd c0 6a e1 bd
       0.029744007 -0.0119721405 -0.042682666 -0.11006689
0001f0 6e 46 86 3d 4b c8 8f bd 01 5d cf bd dc 5d 50 bd
       0.06556402 -0.07020625 -0.10125161 -0.05087076
000200 63 e2 14 3c 37 ff 13 bd 5e 0e 26 be 6b d1 be 3a
       0.009087178 -0.036132064 -0.16216418 0.0014558261
000210 2f 8d 4c be ce 2a 04 3e cc c8 0c bd 3c 3c 5c bd
       -0.19975732 0.12906954 -0.034371182 -0.05376838
000220 1d f9 7e 3d e8 4d 9d 3d ca 52 ee bc 60 51 e6 3d
       0.06224929 0.07680875 -0.029092211 0.1124599
000230 cd ae aa 3d ba 2b 19 bd b1 66 5b bb f7 a8 5a bd
       0.08334122 -0.037395217 -0.0033477957 -0.053383794
000240 96 20 45 bd 48 6d d6 bd 7d 72 16 bd 19 8b 74 bd
       -0.04812678 -0.104700625 -0.03673028 -0.059702966
000250 2a 6c 0d 3d 62 b7 d5 3d 4d b4 53 3d 3b 20 8e bd
       0.03452698 0.10435368 0.05168562 -0.06939741
000260 71 9c 40 bd 73 0e fe 3c 82 19 27 bd c7 b8 1d 3e
       -0.047024194 0.03101275 -0.04079581 0.15402518
000270 28 a2 81 bb ee 0d 7c bb 69 e4 33 bd 66 3d 37 3d
       -0.003956098 -0.0038460451 -0.043919 0.04473629
000280 34 85 48 be e7 c0 ef bc 0c 55 dc 3c f9 d0 6e be
       -0.19582063 -0.029266788 0.026896022 -0.23321904
000290 fd ba 9a 3c 49 9c 11 bc c7 7a 90 3c d5 e1 6a be
       0.018887991 -0.008887359 0.01763667 -0.2293771
0002a0 cd 1a 3a bd d1 c9 57 3d 41 35 cc 3c 01 52 73 bd
       -0.045435715 0.0526827 0.024927737 -0.059404377
0002b0 72 5e 83 bd 3c e8 17 be 8b 35 36 be 1a 4b df bb
       -0.064144984 -0.14834684 -0.17793863 -0.0068143727
0002c0 00 a5 23 bc af f1 b0 bd a6 e6 cb bc 29 6a 14 3d
       -0.0099880695 -0.086398475 -0.024890255 0.036234055
0002d0 98 11 13 3d a5 97 c3 3d 1e 1d ba 3c 55 49 27 3d
       0.03590545 0.09550408 0.022718962 0.04084142
0002e0 ed 36 3d 3d 9e 64 85 bc 7f d4 4b 3c 9b d1 0d bd
       0.04619496 -0.01628333 0.0124408 -0.034623723
0002f0 a4 55 3e 3c 1c 62 90 3c 11 9f 48 bd 0f e0 43 3a
       0.011617098 0.017624907 -0.048979823 0.0007472047
000300 45 84 aa be c8 ba 9f bd ef bc a1 3c f1 b5 73 bb
       -0.3330404 -0.077992976 0.01974341 -0.0037187303
000310 db 09 0c 3d 56 37 b7 3c 7e 6b 83 bd 2c 6c cc bd
       0.034189086 0.022365253 -0.06416987 -0.0998157
000320 b8 c6 7b bb cc 95 a0 bb db b5 cc bb 49 b5 d5 bc
       -0.0038418006 -0.0049006697 -0.006247265 -0.02608742
000330 b1 a9 50 3e 82 c9 af 3c fa 01 f5 bc 11 48 56 bd
       0.20377232 0.021458391 -0.029908169 -0.05231482
000340 46 f4 4a 3c 76 39 f4 bd ee 3b 48 3d be 8e 08 bd
       0.012387341 -0.11925022 0.04888528 -0.033339255
000350 63 31 e0 bb 8e 63 b8 bd f0 de 61 bd 5c d7 eb 3c
       -0.006841825 -0.090033635 -0.05514425 0.028789215
000360 65 76 24 bd 1f ae 15 bd 35 59 29 bd 02 fd c0 bc
       -0.040151972 -0.036543008 -0.04134484 -0.023558144
000370 68 6b 5c be eb 14 24 bd fe 92 83 bd 31 24 7b 3c
       -0.21525347 -0.04005901 -0.06424521 0.015328453
000380 88 f8 fb bc 54 cd 2d be 25 ad e1 3c 69 1f 92 bd
       -0.030758157 -0.16972858 0.027548382 -0.07134897
000390 af 2a e9 3a fb 5c 51 be fd 16 b1 3b d1 23 35 bd
       0.001778921 -0.20445625 0.0054043517 -0.04422361
0003a0 c4 3e 21 3d f9 11 13 3e 42 65 3b be 6f 02 99 3c
       0.0393665 0.14362325 -0.18300346 0.018677918
0003b0 cb 89 eb bb f0 65 ba ba 99 f3 d1 bb 94 56 d2 bc
       -0.007188057 -0.0014221054 -0.006407213 -0.02567605
0003c0 ca de 8b 3c ce 28 95 3d cf 37 25 bd 47 6a 68 3d
       0.017074008 0.072831735 -0.040336426 0.05674198
0003d0 4f 07 1a 3d 63 c0 8a bd 82 c9 09 bd 38 a6 24 3d
       0.037604626 -0.06774976 -0.03363944 0.04019758
0003e0 f6 e4 a9 3d dc 32 59 3c 30 ab 7c 3d c9 65 5d bd
       0.08295624 0.013256755 0.061686695 -0.054052148
0003f0 0e 46 4f bd 4f 4d 0e bd 52 a8 ac 3c 39 40 cc 3b
       -0.05060392 -0.034741696 0.021076355 0.006233242

fc.bias f4 [12]
000000 44 2e 89 3d 82 3a bd be e0 f6 47 be c5 8b ae be
       0.066982776 -0.369587 -0.19527769 -0.3409101
000010 e6 d0 6a be e3 05 7f 3e ca c0 ba bc 8f 03 de bd
       -0.22931251 0.2490459 -0.022797007 -0.108405225
000020 4c e4 88 be 7a 83 d7 bc da 80 86 be 34 77 1e be
       -0.26736677 -0.02630781 -0.2627018 -0.1547516
