src/main/python/saved_models/javascript_1_66_RNNClassifier1_128embs_130id_32hd_1hl_Falsebid_0.pt (torch, 90591 bytes, 7 tensors)

word_embeddings.weight f4 [130, 128]
-1.3768209 -1.0447474 -0.37961492 -1.8172683 -0.1710793 -0.25644633 -1.4619042 -1.2419751
-0.53542614 0.20578623 -0.95645887 -0.78126687 0.39420524 1.0010593 0.9499547 0.23884474
-0.8195204 -1.8573313 0.16868877 -0.17403682 1.9426835 -0.45581037 -0.5056343 0.65864646
0.8008943 -0.2753787 -1.7150812 -2.7467425 0.064262666 -1.3050003 -0.1674364 -0.06759459
2.0654566 -0.93399376 -0.14453293 -0.9241652 -0.36489108 -0.51671654 -0.24849662 -0.27794433
0.5564255 0.32672906 -0.10418419 0.18556285 2.226872 -0.9538237 1.6267867 -0.40446725
-0.5903718 0.7764855 0.5828736 -1.0344766 1.4517368 0.31059527 1.0884134 1.9522619
0.36713403 -0.042723056 -0.73164666 -0.9529663 1.1387867 -1.1434059 -2.946331 -0.5747574
-0.29057583 -0.6027018 -1.3966932 -0.5530777 -0.4809808 0.29876685 1.6372231 -0.7006141
-1.051758 -0.42523545 -1.3860753 0.07124577 -0.5146591 0.20549257 -0.011201203 -0.91291034
-0.7413185 -0.4441764 -0.9789033 -0.89572865 -1.7919705 -0.79834753 1.7245911 -0.39420143
0.3610328 -0.46569225 -1.6131387 0.44733107 -0.9419145 -0.7513022 0.8667213 2.0150735
0.13670947 1.7929949 1.1054205 -1.192626 2.6036255 -1.0988859 -1.3392256 2.0077066
1.9847631 1.3015866 0.1626212 0.09350398 -2.1702793 -1.1128298 -1.469373 -1.3835524
0.14179684 0.2667615 1.3891305 1.9937863 -0.035363045 -0.16719325 0.8405876 -2.2937825
2.0205512 -0.6656698 0.40896097 1.7488426 -2.383778 2.6461396 0.530673 1.2971897
0.71236455 -1.7765073 0.35386458 1.1996132 -0.3029974 -1.7618417 0.6348446 -0.8043591
-1.6111118 -1.8716129 0.5430836 0.6606786 2.2952116 0.67490596 1.7133216 -1.7942734
-1.3632672 -0.9832196 1.5112667 0.64187074 0.4729638 -0.4285901 0.55137074 -1.5473709
0.5181121 0.10653535 0.26924077 1.324768 1.7460191 1.854969 -0.7063691 2.5570862
0.4175343 -0.2127186 -0.839958 -0.42001787 -0.6240363 -0.9772961 0.8748428 0.9872814
0.30957633 1.52069 1.2052339 -1.815591 -0.40346155 -0.9591452 -0.005207704 -0.07886314
0.8436543 1.1657013 0.5269322 1.6192533 -0.96397626 0.14152038 -0.16366096 -0.35822257
1.7222793 -0.3035756 0.2388742 1.3440012 0.10322569 1.1003542 -0.3416802 0.9473389
-0.56851596 0.8375962 1.7836607 -0.19542466 0.5149161 -1.8474776 -2.9167426 -0.5673299
-0.5412802 0.895174 -0.882507 0.53181124 -1.5457772 -0.17329982 0.72824633 0.05706102
0.9055172 1.0462948 -0.520597 1.3547838 0.23519313 1.9142433 1.8364111 1.3245324
-0.96900916 1.2516364 1.2103242 -0.5279206 0.21856615 -0.57430726 1.4571251 1.7709557
1.6499138 -0.43200457 -0.2710269 -1.4391626 1.2470404 1.2738512 0.39094925 0.3872105
-0.07982872 0.3417243 0.9488273 -1.3839359 1.7240863 -2.3647652 -0.9294909 0.2936253
0.21513203 0.9384637 1.4657077 -0.5564744 -0.7448408 -0.20215721 -0.2296679 0.0013313366
0.3752759 -0.5810679 -0.57230884 1.0097175 -0.10564939 -1.179696 -0.090779595 0.56311435
00000000: ab3b b0bf 48ba 85bf e35c c2be 3f9c e8bf
00000010: 692f 2fbe ef4c 83be ad1f bbbf 0af9 9ebf
00000020: b011 09bf a0b9 523e 7dda 74bf 1b01 48bf
00000030: 45d5 c93e b622 803f 3b30 733f b793 743e
00000040: 17cc 51bf 08bd edbf c0bc 2c3e b536 32be
00000050: daa9 f83f fa5f e9be 4071 01bf 0e9d 283f
00000060: 6907 4d3f 70fe 8cbe c887 dbbf a1ca 2fc0
00000070: 259c 833d 400a a7bf 7374 2bbe 086f 8abd
00000080: 7130 0440 371a 6fbf 7100 14be 1796 6cbf
00000090: 01d3 babe 8947 04bf e675 7ebe b84e 8ebe
000000a0: e771 0e3f 0849 a73e 855e d5bd 3004 3e3e
000000b0: 1285 0e40 ca2d 74bf 8c3a d03f 5516 cfbe
000000c0: 9b22 17bf c1c7 463f 3437 153f bb69 84bf
000000d0: 83d2 b93f 5806 9f3e 2151 8b3f b8e3 f93f
000000e0: fef8 bb3e 5ffe 2ebd 324d 3bbf 99f5 73bf
000000f0: c3c3 913f 205b 92bf b090 3cc0 4d23 13bf
00000100: 5bc6 94be aa4a 1abf d8c6 b2bf 8096 0dbf
00000110: 1e43 f6be f8f7 983e 8790 d13f 725b 33bf
00000120: 02a0 86bf 76b8 d9be ea6a b1bf 4de9 913d
00000130: b3c0 03bf a56c 523e 4085 37bc 7eb4 69bf
00000140: 0dc7 3dbf 176b e3be 6899 7abf 794e 65bf
00000150: 4a5f e5bf 8160 4cbf 67bf dc3f c5d4 c9be
00000160: 4bd9 b83e 376f eebe 547b cebf 9408 e53e
00000170: 4f21 71bf 5755 40bf 72e1 5d3f f7f6 0040
00000180: 91fd 0b3e db80 e53f 6b7e 8d3f f8a7 98bf
00000190: cda1 2640 4ba8 8cbf bf6b abbf 447e 0040
000001a0: b80c fe3f 649a a63f 2c86 263e 047f bf3d
000001b0: dbe5 0ac0 3571 8ebf 6a14 bcbf 3f18 b1bf
000001c0: 3133 113e f794 883e 07cf b13f 6434 ff3f
000001d0: d7d8 10bd b534 2bbe c030 573f 55cd 12c0
000001e0: b650 0140 5669 2abf 5563 d13e 13da df3f
000001f0: d28f 18c0 5a5a 2940 30da 073f 500a a63f
00000200: 865d 363f 9764 e3bf bd2d b53e ed8c 993f
00000210: 7a22 9bbe 0784 e1bf 2d85 223f 7aea 4dbf
00000220: e938 cebf 0391 efbf 8707 0b3f 3c22 293f
00000230: bfe4 1240 a3c6 2c3f 1f4e db3f c0aa e5bf
00000240: 8a7f aebf 48b4 7bbf 3071 c13f a451 243f
00000250: 5028 f23e 2970 dbbe a226 0d3f 4010 c6bf
00000260: ffa2 043f 352f da3d edd9 893e ff91 a93f
00000270: 8e7d df3f a06f ed3f 9bd4 34bf 4da7 2340
00000280: 0ec7 d53e e8d2 59be 7d07 57bf 950c d7be
00000290: d8c0 1fbf 1430 7abf b3f5 5f3f 79be 7c3f
000002a0: ca80 9e3e f8a5 c23f 1b45 9a3f 4965 e8bf
000002b0: 8392 cebe 8a8a 75bf 63a5 aabb ff82 a1bd
000002c0: baf9 573f b335 953f 07e5 063f b143 cf3f
000002d0: 26c7 76bf b8ea 103e bd96 27be f368 b7be
000002e0: a673 dc3f 436e 9bbe 709b 743e 3b08 ac3f
000002f0: fe67 d33d 68d8 8c3f b5f0 aebe cd84 723f
00000300: 438a 11bf b46c 563f fe4e e43f 671d 48be
00000310: 8bd1 033f 257a ecbf e9ab 3ac0 883c 11bf
00000320: 5791 0abf 202a 653f fbeb 61bf c824 083f
00000330: 07dc c5bf 8275 31be 5a6e 3a3f d1b8 693d
00000340: facf 673f fdec 853f d845 05bf 8e69 ad3f
00000350: 78d6 703e ed05 f53f 850f eb3f 478a a93f
00000360: fc10 78bf 9f35 a03f e7eb 9a3f ce25 07bf
00000370: cecf 5f3e cd05 13bf 1383 ba3f adae e23f
00000380: 6030 d33f b42f ddbe 0ac4 8abe 7b36 b8bf
00000390: 059f 9f3f 8e0d a33f 802a c83e 7440 c63e
000003a0: 3d7d a3bd 7df6 ae3e 59e6 723f d024 b1bf
000003b0: dcae dc3f 5058 17c0 1ef3 6dbf 0e56 963e
000003c0: 924b 5c3e 283f 703f 4f9c bb3f 1b75 0ebf
000003d0: e3ad 3ebf 4d02 4fbe 102e 6bbe 3e80 ae3a
000003e0: 2a24 c03e dec0 14bf d582 12bf 6c3e 813f
000003f0: b55e d8bd 4700 97bf a7ea b9bd 4328 103f

rnn.weight_ih_l0 f4 [32, 128]
0.072900265 -0.09288569 -0.38291854 0.18801026 -0.20528345 -0.3431341 -0.15338556 0.24378839
-0.3775475 0.16613516 0.06291372 0.20377067 -0.19210096 0.00025221918 0.07738797 0.10463398
0.060663603 0.21191828 0.05170188 0.34103456 0.044469465 0.009860052 -0.012134507 0.1910392
0.0070786094 0.08104477 0.04623424 -0.03674686 0.0798013 0.13504592 -0.27533442 -0.20097883
-0.09552531 0.20511858 0.10756277 0.20987128 -0.048320465 0.20180514 -0.048905697 -0.07433435
-0.17508505 0.123184815 -0.119023256 -0.1579606 0.19923925 -0.19779918 0.031610075 -0.053285234
-0.07898715 -0.11292886 -0.3570284 0.023665765 0.035681907 0.51096046 0.0024581933 0.060854338
-0.22366029 0.16958912 0.05133027 0.06813141 0.046012234 0.02629408 0.12851779 -0.17756689
0.20138508 0.07906689 0.22250044 0.06752908 -0.12705033 -0.12655067 -0.31442502 0.3162344
0.14682265 -0.11815679 -0.17230463 -0.36385825 0.0046583023 -0.07021765 0.15314788 0.09578903
0.13119555 0.05699928 -0.11829078 0.2122127 0.26556057 -0.06696423 0.077364966 0.18628593
0.15376912 0.15010814 0.066415176 -0.07004852 0.15359336 0.23528203 -0.044860356 0.11559286
-0.03989647 -0.26861826 -0.13066015 0.064743295 0.05642397 0.258919 0.10502765 0.020412477
0.049524043 0.017643666 -0.029697068 -0.065441184 0.19264211 -0.056341577 0.03994021 -0.031520512
0.045248862 -0.03206031 -0.053695947 -0.036491193 0.1338984 0.15238865 -0.13601394 0.026883388
0.004677791 0.055056967 -0.07834199 -0.027364476 0.055975642 -0.23328386 -0.19853745 -0.07894764
-0.21769384 0.21448936 -0.03514308 -0.20520596 0.014270316 -0.17393951 0.11373533 -0.03510771
0.052033238 0.08420227 -0.053762488 0.25026554 0.037556175 -0.105934106 -0.30466 -0.01431178
0.076963924 -0.010646922 0.049673088 0.3946817 -0.03829679 0.11846641 -0.19602539 -0.025187442
0.24008003 0.13578437 -0.10031255 0.17245173 0.14600891 0.0009444644 -0.08283242 -0.06888166
-0.21812192 0.13054505 0.1715565 0.17280374 0.3091502 0.2157623 -0.11436271 -0.14860076
0.26684242 -0.24423179 0.03341436 0.057296187 0.09124942 0.032223873 -0.13181837 -0.14133199
-0.057371538 0.07308597 -0.059087504 0.19510596 -0.112593666 0.25355995 -0.15110141 0.32450056
-0.104495406 -0.03810306 0.08560648 -0.023288319 0.13059644 -0.009831456 0.27178994 -0.13178058
-0.10958732 0.33145735 -0.09267683 -0.008873677 -0.13058409 0.16521332 -0.08541441 0.24669468
-0.002675972 -0.11181724 -0.016674135 -0.04787549 -0.0030716518 -0.33706778 0.05128807 -0.2632418
0.026632136 0.31564602 0.4540319 -0.101761565 -0.06292107 0.0844677 -0.084502384 0.017310767
-0.045460146 -0.17694512 0.40850392 -0.47434172 -0.16435832 -0.08080266 0.042627256 -0.0032602153
0.12168749 -0.11970039 -0.08923476 -0.08472768 -0.10235479 0.3354978 0.106446005 0.07385371
-0.102580145 -0.2448169 0.18381919 0.22500145 0.05027576 0.27404106 0.23738731 -0.24167714
-0.1398677 0.1539922 0.1287652 -0.43870023 -0.05857013 -0.017591834 -0.10553425 0.23176344
0.25163555 -0.19769226 -0.14170627 0.090786666 -0.15504265 -0.23126233 0.09263704 -0.092142686
00000000: bc4c 953d da3a bebd e60d c4be c385 403e
00000010: d335 52be 46af afbe 1b11 1dbe aaa3 793e
00000020: e84d c1be 561f 2a3e e9d8 803d 42a9 503e
00000030: 1db6 44be 493c 8439 967d 9e3d 574a d63d
00000040: 667a 783d 1b01 593e 5ac5 533d 159c ae3e
00000050: 9d25 363d 0e8c 213c d0cf 46bc c89f 433e
00000060: aef3 e73b cdfa a53d 1d60 3d3d e083 16bd
00000070: dd6e a33d 7a49 0a3e a2f8 8cbe 65cd 4dbe
00000080: c6a2 c3bd 9b0a 523e df49 dc3d 7fe8 563e
00000090: aeeb 45bd 02a6 4e3e 5751 48bd 9c3c 98bd
000000a0: 7f49 33be 5248 fc3d 77c2 f3bd 6cc0 21be
000000b0: 6005 4c3e de8b 4abe 9179 013d 9e41 5abd
000000c0: 04c4 a1bd 3f47 e7bd 6dcc b6be b5de c13c
000000d0: 3127 123d 4ece 023f a419 213b 6642 793d
000000e0: 3407 65be c5a8 2d3e b03f 523d 7b88 8b3d
000000f0: 5377 3c3d af66 d73c 2b9a 033e 18d4 35be
00000100: e437 4e3e d2ed a13d 28d7 633e b04c 8a3d
00000110: 7b19 02be 8096 01be 51fc a0be 7ae9 a13e
00000120: ad58 163e 30fc f1bd a070 30be a14b babe
00000130: aca4 983b 45ce 8fbd ccd2 1c3e 0a2d c43d
00000140: 2058 063e 1478 693d 7042 f2bd 494e 593e
00000150: 8ef7 873e 8b24 89bd 8671 9e3d bdc1 3e3e
00000160: a775 1d3e f3b5 193e ae04 883d 9975 8fbd
00000170: 9447 1d3e c6ed 703e 7ebf 37bd f3bb ec3d
00000180: 7b6a 23bd 5588 89be c6cb 05be 2298 843d
00000190: d21c 673d 0891 843e bd18 d73d 1138 a73c
000001a0: b9d9 4a3d 7389 903c 4447 f3bc 0706 86bd
000001b0: f943 453e 6dc6 66bd 5898 233d a71b 01bd
000001c0: df56 393d ac51 03bd 48f0 5bbd ca77 15bd
000001d0: aa1c 093e c50b 1c3e 3d47 0bbe 8d3a dc3c
000001e0: 2848 993b 6a83 613d c471 a0bd 772b e0bc
000001f0: b746 653d f7e1 6ebe 674d 4bbe 4daf a1bd
00000200: 22eb 5ebe 19a3 5b3e 31f2 0fbd 8321 52be
00000210: 0bce 693c 331d 32be 12ee e83d 1acd 0fbd
00000220: ce20 553d 3d72 ac3d 0e36 5cbd ce22 803e
00000230: 81d4 193d fbf3 d8bd 65fc 9bbe f57b 6abc
00000240: 439f 9d3d 6d70 2ebc 0276 4b3d b813 ca3e
00000250: 18dd 1cbd 849e f23d e1ba 48be e555 cebc
00000260: 8ad7 753e 0f0b 0b3e ab70 cdbd 3097 303e
00000270: 5c83 153e ef95 773a 0ba4 a9bd d411 8dbd
00000280: 5a5b 5fbe 9aad 053e 82ac 2f3e 77f3 303e
00000290: ef48 9e3e cbf0 5c3e ff36 eabd cc2a 18be
000002a0: 929f 883e e617 7abe 7fdd 083d 68af 6a3d
000002b0: fae0 ba3d 2efd 033d 65fb 06be 55b9 10be
000002c0: 6bfe 6abd 19ae 953d bd05 72bd dbc9 473e
000002d0: 8297 e6bd 9cd2 813e 54ba 1abe f024 a63e
000002e0: b001 d6bd f411 1cbd 7352 af3d 25c7 bebc
000002f0: 13bb 053e 1d14 21bc 0d28 8b3e 7df1 06be
00000300: 516f e0bd c7b4 a93e 5acd bdbd e662 11bc
00000310: d6b7 05be ae2d 293e c0ed aebd 889d 7c3e
00000320: 5c5f 2fbb 7000 e5bd 3298 88bc 1719 44bd
00000330: c44d 49bb 2694 acbe 7013 523d a1c7 86be
00000340: a32b da3c 5b9c a13e df76 e83e 5e68 d0bd
00000350: c3dc 80bd 67fd ac3d 960f adbd 4fcf 8d3c
00000360: 6b34 3abd 1a31 35be 6d27 d13e ebdc f2be
00000370: 8c4d 28be dd7b a5bd eb99 2e3d 56a9 55bb
00000380: 4a37 f93d 7a25 f5bd b7c0 b6bd b585 adbd
00000390: 639f d1bd 5ec6 ab3e 5d00 da3d 9d40 973d
000003a0: 8a15 d2bd 48b1 7abe 193b 3c3e c866 663e
000003b0: f5ed 4d3d 1c4f 8c3e a915 733e 367a 77be
000003c0: 7a39 0fbe 22b0 1d3e 06db 033e 519d e0be
000003d0: 3ce7 6fbd c01c 90bc 5722 d8bd 6553 6d3e
000003e0: 60d6 803e d76f 4abe 731b 11be 5cee b93d
000003f0: 80c3 1ebe 08d0 6cbe 7db8 bd3d 4eb5 bcbd

rnn.weight_hh_l0 f4 [32, 32]
0.45570487 -0.19199194 -0.33286572 0.18400556 0.047163785 -0.09817927 -0.11706163 0.19693786
-0.1999608 0.19356748 -0.6245376 0.17999515 0.02504585 0.024035355 0.25165588 -0.06506864
0.093286194 -1.3563929 -0.54800886 0.21701744 -0.06489563 0.1674012 0.1426139 -1.115582
-0.15988828 0.4999374 0.34261155 0.027153468 0.42207506 0.3397961 0.44820207 -0.02959395
-0.10008859 0.06401207 0.37142792 0.017295152 0.044923995 -0.07010435 -0.11288976 -0.25812092
0.19175278 0.052544344 0.057453644 -0.34789363 0.018954014 0.172098 0.009871231 -0.06933255
-0.061937317 0.6910156 0.061809935 -0.20279834 0.42630482 0.042626623 0.019588215 0.3407716
-0.0035386384 -0.038791914 -0.37506846 -0.32160288 -0.30521783 -0.20828469 -0.60068524 0.046636187
-0.12594792 -0.4745156 0.15098563 0.6009787 0.32234764 0.30767065 0.71612704 0.18137561
0.08471128 -0.03365305 0.1380121 -0.04719358 -0.5374434 0.48724294 -0.4727638 -0.48682532
0.53039974 -0.17623925 0.054773256 0.5513518 0.43270504 0.02932464 -0.59369844 0.051593132
0.48437792 0.1785969 0.119460694 0.085838474 -0.78340465 -0.13613062 -0.25386286 -0.6005416
-0.18700387 -0.08785871 0.1221547 0.14615384 -0.32593396 0.0040972843 0.5116607 0.15806194
-0.121807836 0.22536892 0.17781252 0.20878232 -0.18617135 0.2807694 -1.02454 -0.2995958
-0.08577126 -0.42419228 -0.07525989 -0.10579443 -0.5806238 -0.14150675 -0.21111892 0.3862208
-0.21409705 -0.24466187 -0.014749967 0.13826874 0.14748678 -0.15830553 -0.5572956 -0.40062195
-0.008857393 -0.05792343 -0.04000633 0.09579457 -0.030600129 0.079391055 0.09415105 -0.86665255
0.3316303 -0.056081247 0.0041660164 0.027500471 0.21787338 -0.20121959 -0.0064006243 -0.4973093
0.0028215996 0.20505363 0.16424385 -0.0072321724 1.0727848 0.04110458 0.21955481 0.12280344
0.1208515 0.1324086 -0.6182283 -0.17159362 -0.28235993 -0.029861053 -0.49009347 -0.14188969
0.11799481 -0.18447474 -0.08464929 -0.24903989 -0.2698228 0.07033623 0.22743693 0.23848878
-0.19088742 0.00062095636 -0.02598735 0.32105935 -0.48338243 0.08264661 0.33152923 0.48533237
0.010267823 -0.688985 -0.73993903 0.06019214 -0.695065 0.18435246 -0.08016875 -0.83068675
-0.12316409 0.060170155 0.46907467 0.91980743 0.12790059 0.13112587 0.56752414 -0.28544044
-0.22009441 0.15064141 0.086801626 -0.0313147 0.08608646 0.04310881 0.58427274 -0.44127205
0.026617415 -0.19693775 -0.08211936 0.021864358 -0.034028206 0.074361734 -0.84567577 -0.07269966
-0.25327057 1.2427433 0.2679679 -0.285445 -0.25986642 -0.277635 -0.19025956 1.0924187
0.14179523 -0.4479376 0.09681072 0.44384277 -0.5148203 -0.073139064 -0.59137434 -0.24204898
0.22135882 0.07360774 -0.19791114 -0.28569937 0.49199954 -0.52629155 0.14940241 -0.43504035
0.100578874 0.13991626 -0.9037694 -0.90762126 -0.48448932 -0.16380744 0.52194536 -0.34316236
-0.08695888 0.23893704 0.037539043 0.377538 0.7584721 0.20903887 0.49639264 0.026742734
-0.3936526 0.83636487 -0.2021484 0.040120192 0.12692589 0.026263967 0.26103646 -0.0012089987
00000000: 2652 e93e 8999 44be 606d aabe f46b 3c3e
00000010: d02e 413d 3712 c9bd 02be efbd 14aa 493e
00000020: 86c2 4cbe 8e36 463e b2e1 1fbf a650 383e
00000030: f42c cd3c cbe5 c43c 0ad9 803e b542 85bd
00000040: d50c bf3d 489e adbf 4f4a 0cbf d239 5e3e
00000050: 00e8 84bd 386b 2b3e 6109 123e 64cb 8ebf
00000060: c1b9 23be cbf7 ff3e c86a af3e f370 de3c
00000070: 391a d83e c1f9 ad3e be7a e53e 036f f2bc
00000080: 3ffb ccbd c318 833d cd2b be3e 90ae 8d3c
00000090: 3902 383d df92 8fbd bf32 e7bd 6d28 84be
000000a0: d75a 443e bd38 573d 8354 6b3d 1d1f b2be
000000b0: 7345 9b3c 753a 303e f2ba 213c 39fe 8dbd
000000c0: fcb1 7dbd 66e6 303f 6a2c 7d3d 5eaa 4fbe
000000d0: a044 da3e 4199 2e3d 7777 a03c 9d79 ae3e
000000e0: 80e8 67bb 45e4 1ebd f908 c0be 22a9 a4be
000000f0: 8345 9cbe 9548 55be 82c6 19bf 9605 3f3d
00000100: 7ef8 00be b5f3 f2be fa9b 1a3e bdd9 193f
00000110: c00a a53e 0287 9d3e 1a54 373f 87ba 393e
00000120: 1c7d ad3d c8d7 09bd 0b53 0d3e 0e4e 41bd
00000130: e495 09bf e877 f93e 190e f2be 2b41 f9be
00000140: 47c8 073f 1078 34be ec59 603d 6425 0d3f
00000150: 848b dd3e 3a3a f03c 9ffc 17bf 5253 533d
00000160: 6200 f83e 1be2 363e cfa7 f43d 15cc af3d
00000170: 358d 48bf d365 0bbe 50fa 81be 18bd 19bf
00000180: f17d 3fbe 44ef b3bd 3e2c fa3d 5aa9 153e
00000190: d1e0 a6be 8342 863b 32fc 023f fdda 213e
000001a0: 6376 f9bd 1cc7 663e 7c14 363e 08cb 553e
000001b0: b4a3 3ebe 02c1 8f3e 2024 83bf 9f64 99be
000001c0: d8a8 afbd bb2f d9be db21 9abd c0aa d8bd
000001d0: c3a3 14bf 25e7 10be 8f2f 58be bcbe c53e
000001e0: 423c 5bbe a488 7abe d8a9 71bc 5296 0d3e
000001f0: c606 173e d81a 22be edaa 0ebf 521e cdbe
00000200: 991e 11bc 1e41 6dbd addd 23bd f22f c43d
00000210: 1fad fabc c797 a23d 44d2 c03d f1dc 5dbf
00000220: 72cb a93e 73b5 65bd 1483 883b ab48 e13c
00000230: 331a 5f3e 820c 4ebe 54bc d1bb 539f febe
00000240: 96ea 383b 94f9 513e 8a2f 283e dcfb ecbb
00000250: 0351 893f 475d 283d fad2 603e 5f80 fb3d
00000260: fe80 f73d 1f96 073e 3644 1ebf 3db6 2fbe
00000270: 7b91 90be 2b9f f4bc 88ed fabe 884b 11be
00000280: 43a7 f13d f2e6 3cbe 9b5c adbd 5004 7fbe
00000290: 3726 8abe 710c 903d 3ae5 683e 6736 743e
000002a0: fe77 43be adc7 223a 6ce3 d4bc e461 a43e
000002b0: e77d f7be a042 a93d 33be a93e 7c7d f83e
000002c0: 5f3a 283c 5261 30bf a56c 3dbf 098c 763d
000002d0: c8ef 31bf e4c6 3c3e 832f a4bd e3a7 54bf
000002e0: 743d fcbd fb74 763d 8e2a f03e 8078 6b3f
000002f0: 5ff8 023e dc45 063e 4349 113f 4025 92be
00000300: 6e60 61be be41 1a3e 0dc5 b13d d843 00bd
00000310: 194e b03d dd92 303d e692 153f 69ee e1be
00000320: c40c da3c 0daa 49be 322e a8bd e21c b33c
00000330: 2961 0bbd f74a 983d 357e 58bf 8fe3 94bd
00000340: aeac 81be 3612 9f3f 1733 893e d925 92be
00000350: 360d 85be 2d26 8ebe 67d3 42be 60d4 8b3f
00000360: c532 113e 1458 e5be b344 c63d 5c3f e33e
00000370: 43cb 03bf efc9 95bd 4f64 17bf b0db 77be
00000380: e3ab 623e a8bf 963d 38a9 4abe 3047 92be
00000390: 5de7 fb3e 0bbb 06bf f2fc 183e 9cbd debe
000003a0: 4cfc cd3d 3546 0f3e 6e5d 67bf de59 68bf
000003b0: fc0e f8be 23bd 27be 369e 053f fab2 afbe
000003c0: 7f17 b2bd e9ab 743e 8ac2 193d a94c c13e
000003d0: 3a2b 423f 490e 563e 2d27 fe3e 9413 db3c
000003e0: d58c c9be 021c 563f fdff 4ebe 1255 243d
000003f0: dcf8 013e 8827 d73c 92a6 853e 4477 9eba

rnn.bias_ih_l0 f4 [32]
0.112743095 -0.31061402 -5.693804e-07 -0.036804363 0.06850675 -0.0121126585 -0.043030918 -0.28266224
-0.28850046 -0.07093961 0.10237722 -0.00091662596 -0.100731984 -0.028822457 -0.24853763 0.14451464
-0.03678623 -0.06962917 0.11348586 0.09724324 0.17331742 0.007905091 -0.18539011 0.08570196
0.2293966 -0.13772227 -0.046529118 -0.23094131 -0.16105817 1.4895038e-05 -0.045561235 -0.007834451
00000000: dae5 e63d cd08 9fbe 86d7 18b5 2cc0 16bd
00000010: 444d 8c3d 2c74 46bc 3041 30bd 1bb9 90be
00000020: 55b6 93be c948 91bd 26ab d13d ba49 70ba
00000030: 924c cebd 131d ecbc a680 7ebe a5fb 133e
00000040: 28ad 16bd bd99 8ebd 466b e83d 7727 c73d
00000050: 1f7a 313e 5b84 013c e8d6 3dbe 8284 af3d
00000060: f1e6 6a3e 1107 0dbe 5195 3ebd e17b 6cbe
00000070: 6fec 24be b3e5 7937 6b9e 3abd 125c 00bc

rnn.bias_hh_l0 f4 [32]
-0.051662054 -0.25914028 0.11180938 0.056978732 0.14883986 -0.19383034 0.1736561 -0.22494495
-0.17088304 -0.22682889 0.03925007 -0.050854452 -0.07857078 0.05620276 -0.0671481 0.015943132
0.17134799 0.08546903 0.07799757 0.26258603 0.01943724 0.22043383 -0.21006401 -0.012326423
0.15127604 0.01774658 -0.051884655 -0.2207727 -0.105081305 0.13944854 -0.3110831 0.06919303
00000000: 979b 53bd 09ae 84be 51fc e43d 8862 693d
00000010: 7a69 183e 767b 46be e8d2 313e f857 66be
00000020: f7fb 2ebe d545 68be aec4 203d c24c 50bd
00000030: b8e9 a0bd de34 663d f184 89bd 2c9b 823c
00000040: d975 2f3e 630a af3d 31bd 9f3d ad71 863e
00000050: d93a 9f3c 68b9 613e 051b 57be c4f4 49bc
00000060: 1be8 1a3e 4761 913c 0185 54bd 3d12 62be
00000070: de34 d7bd 99cb 0e3e 4946 9fbe 13b5 8d3d

fc1.weight f4 [12, 32]
-0.6515613 -0.6157901 0.20322885 0.5032404 0.80373037 -0.63305706 0.20639296 0.0469635
-0.38804 -0.37591597 0.2550039 -0.095506504 -0.39391583 -0.8872733 -0.043838225 0.3960605
0.72610176 -0.14464957 0.14537318 0.28426245 -0.05020614 0.67153174 -0.29728377 -0.09049951
0.5480586 0.4642767 -0.3580165 -0.26169446 -0.13036583 -0.408608 0.01855674 -0.37192905
-1.1099385 1.7962905 0.25019708 -1.1257021 -1.3755455 -0.31897667 0.58152175 -0.21670291
-0.66728985 1.0611247 -0.75176835 1.0249102 0.47685787 -0.81765336 -0.087181725 0.57122594
-1.1467079 0.5108852 0.6151263 -0.53696173 -0.470472 -0.9956863 1.0380044 -0.49739525
-0.7159222 -0.67279595 0.055409726 -0.06945206 0.27696013 -0.8782848 -0.59121954 1.2920425
0.46849728 1.3499615 0.27595794 0.45517257 0.1862753 -0.7773519 -0.5230093 -0.21186109
0.497493 -0.08022351 -1.26304 -0.27817535 0.7997304 -0.3965656 -0.047360703 -0.1402001
-0.26881066 -0.8923473 -0.58502764 -0.22029589 -0.63023484 -0.75484806 0.5216449 0.5043998
0.29972464 -0.63399225 -0.14913717 0.88632596 -0.2890174 0.12635888 -0.41534832 0.98714185
-0.28413394 0.34678066 -0.7229947 -0.72342265 -0.007641591 -0.009439685 0.25873762 -0.44649494
0.631468 -0.123400085 -0.08145028 -0.24304573 0.58066714 0.5455046 -0.108201906 0.37284338
0.14619273 0.32163474 -0.15900467 -0.008082247 -0.26659292 -0.69207674 -0.29498267 0.21146737
-0.44639084 -0.4896598 0.68221104 0.66589504 0.45112085 0.5930805 -0.048636332 -0.1374623
-1.0736746 2.1973212 0.5779199 -1.1499898 0.6853698 2.112265 -0.37328896 0.030870987
1.4990095 1.2725297 0.33478984 0.73733944 -0.8468878 -1.2055293 0.7515386 -1.9970559
-1.0434941 -0.5566885 0.6555143 -0.43084446 -0.5064899 -1.3463423 -0.5046094 0.67771876
-0.2382856 1.0986102 -0.14060293 0.6680815 -0.22303955 0.35584977 0.45801362 1.113232
0.18017894 0.5849414 -0.22271745 -0.20791912 0.6075478 2.0214992 -0.3406293 0.023765221
-0.30324784 0.6180701 -0.18452367 -0.9005608 0.8633877 0.027224809 0.65830743 -0.09055336
-0.49745136 -1.4178915 -0.045304086 -0.5703879 0.48304242 -0.24490002 -0.078381605 -0.8190976
-0.26422656 -0.09273208 0.4608394 0.42138317 -0.016633244 -0.17381984 -0.058112063 1.7194829
-0.96122867 0.22012776 -0.10874049 0.26852247 -1.4286861 0.43368727 0.44773203 0.6988675
0.6547594 -0.026784385 -0.017454512 0.84892297 1.1315374 0.20388529 1.7221856 -0.5261876
-1.0138024 0.9664057 0.4781193 -0.081547834 0.5599239 -0.054360546 -0.053089827 2.0070999
-0.118822604 0.48031896 0.20340696 0.31436446 -0.1156187 -0.04723478 0.31312397 1.9460933
0.87406 0.10451296 -0.035369862 -0.4238738 0.53494525 -1.0090095 -0.62624574 0.6286128
-0.030293893 0.4800827 -0.071743436 0.08627323 0.8545134 0.023153981 0.9529095 -0.3147445
0.79712456 0.95888627 0.21897025 -0.40409508 0.102735706 -0.010768907 0.28774613 -1.1818892
-0.29548258 0.029790735 -0.09943151 -0.01284383 0.04488982 0.35440075 0.13841419 1.4887847
00000000: b9cc 26bf 6ca4 1dbf 391b 503e 5dd4 003f
00000010: 46c1 4d3f 0710 22bf ad58 533e cd5c 403d
00000020: 2ead c6be 0f78 c0be df8f 823e ea98 c3bd
00000030: 56af c9be 5824 63bf b68f 33bd 71c8 ca3e
00000040: cee1 393f 041f 14be b5dc 143e d98a 913e
00000050: f4a4 4dbd 81e9 2b3f 9435 98be cf57 b9bd
00000060: 924d 0c3f adb5 ed3e f04d b7be d1fc 85be
00000070: 9f7e 05be 1135 d1be 4e04 983c 7c6d bebe
00000080: 7712 8ebf d9ec e53f d519 803e 0217 90bf
00000090: e011 b0bf e950 a3be 9cde 143f 5ee7 5dbe
000000a0: 82d3 2abf efd2 873f e473 40bf 4230 833f
000000b0: b726 f43e bb51 51bf 558c b2bd dd3b 123f
000000c0: 53c7 92bf 5fc9 023f eb78 1d3f 5376 09bf
000000d0: b5e1 f0be 4ce5 7ebf 54dd 843f 97aa febe
000000e0: ad46 37bf 5b3c 2cbf 4ff5 623d e23c 8ebd
000000f0: b8cd 8d3e 46d7 60bf 2a5a 17bf a661 a53f
00000100: e0de ef3e 8acb ac3f 5c4a 8d3e 610c e93e
00000110: f4be 3e3e 8900 47bf f0e3 05bf 1df2 58be
00000120: 67b7 fe3e 394c a4bd 4bab a1bf 006d 8ebe
00000130: 22bb 4c3f a50a cbbe 4cfd 41bd 9d90 0fbe
00000140: 8da1 89be df70 64bf 5fc4 15bf 3f95 61be
00000150: 1257 21bf b93d 41bf 858a 053f 5820 013f
00000160: 8275 993e 514d 22bf 6ab7 18be 42e6 623f
00000170: 17fa 93be 3964 013e 89a8 d4be 54b5 7c3f
00000180: 017a 91be 3c8d b13e 2e16 39bf 3a32 39bf
00000190: 5066 fabb e9a8 1abc 4279 843e fc9a e4be
000001a0: e3a7 213f 2fb9 fcbd 68cf a6bd fbe0 78be
000001b0: 9aa6 143f 31a6 0b3f f698 ddbd 54e5 be3e
000001c0: 8cb3 153e 4fad a43e 1fd2 22be 676b 04bc
000001d0: de7e 88be f12b 31bf f807 97be e78a 583e
000001e0: 578d e4be b0b4 fabe 62a5 2e3f 1978 2a3f
000001f0: 50f9 e63e 20d4 173f e436 47bd ebc2 0cbe
00000200: 2b6e 89bf e9a0 0c40 8ff2 133f de32 93bf
00000210: 6574 2f3f 5a2f 0740 bb1f bfbe 27e5 fc3c
00000220: 8bdf bf3f 41e2 a23f 9369 ab3e 47c2 3c3f
00000230: a4cd 58bf c94e 9abf d564 403f 879f ffbf
00000240: 3791 85bf 2383 0ebf c9cf 273f a597 dcbe
00000250: 52a9 01bf f254 acbf 152e 01bf fa7e 2d3f
00000260: 2401 74be 429f 8c3f 37fa 0fbe 6407 2b3f
00000270: 7b64 64be f131 b63e c380 ea3e 637e 8e3f
00000280: d480 383e b8be 153f 0b10 64be c0e8 54be
00000290: 4188 1b3f 3e60 0140 f766 aebe 48af c23c
000002a0: 4d43 9bbe d839 1e3f c6f3 3cbe 278b 66bf
000002b0: fa06 5d3f 9006 df3c d686 283f 0a74 b9bd
000002c0: f2b1 febe 787d b5bf c790 39bd f104 12bf
000002d0: 5651 f73e 12c7 7abe 8986 a0bd 61b0 51bf
000002e0: b448 87be 51ea bdbd 24f3 eb3e 89bf d73e
000002f0: 7142 88bc d4fd 31be ea06 6ebd 0418 dc3f
00000300: 1513 76bf 2c69 613e 56b3 debd c77b 893e
00000310: 30df b6bf 420c de3e 223d e53e fbe8 323f
00000320: 509e 273f ed6a dbbc c4fc 8ebc 0453 593f
00000330: 38d6 903f 4ec7 503e 9470 dc3f 3bb4 06bf
00000340: 47c4 81bf 5d66 773f 0ecc f43e 8d02 a7bd
00000350: 2c57 0f3f 2aa9 5ebd b874 59bd 5374 0040
00000360: 4459 f3bd 5eec f53e ea49 503e 61f4 a03e
00000370: 7fc9 ecbd 4279 41bd c951 a03e 9619 f93f
00000380: 65c2 5f3f e40a d63d fddf 10bd fd05 d9be
00000390: 2cf2 083f 3927 81bf a451 20bf c5ec 203f
000003a0: e62a f8bc 66cd f53e 39ee 92bd 05b0 b03d
000003b0: 64c1 5a3f 6bad bd3c e1f1 733f 3126 a1be
000003c0: 5b10 4c3f 9279 753f bd39 603e 8de5 cebe
000003d0: 1967 d23d 1270 30bc 7653 933e 2548 97bf
000003e0: 7e49 97be b30b f43c bfa2 cbbd ed6e 52bc
000003f0: 63de 373d 0474 b53e 73bc 0d3e 7f90 be3f

fc1.bias f4 [12]
0.17247547 -0.31843865 -0.5480546 -0.20965102 -1.7516668 -0.7660818 -0.6261353 -0.35674527
-0.09691432 -0.10501273 0.11487994 -3.1569443
00000000: 699d 303e 640a a3be 4e4d 0cbf c2ae 56be
00000010: 9e36 e0bf f01d 44bf 674a 20bf 51a7 b6be
00000020: 047b c6bd ea10 d7bd 2d46 eb3d 600b 4ac0
