src/main/python/saved_models/java_1_55_CNNClassifier1_32embs_109id_32hd_0hl_Falsebid5kernel0.3dropout_2.pt (torch, 389579 bytes, 9 tensors)

emb.weight f4 [109, 32]
00000000: aa7a 023f c9ae a53e 98f8 96bf 5227 303e
00000010: 4481 5e3e e1eb 25bf 092b 16bf 4c64 833f
00000020: 2edc 233f 9e1a 14c0 e7cd f63f b730 b23f
00000030: 1f43 98bf 7af5 0b40 0e64 75bf c36c a3bf
00000040: e788 f9bf 7df0 dc3f bf22 a53f 6b86 32be
00000050: d2a5 dfbf faa1 913f 4b24 8a3f e5b2 c7bf
00000060: b286 8dbf 2be3 4a3e 7fd1 653e a9bb 88bf
00000070: 7e3f 2d3f 2669 d13f 8e0f 20bf b677 963f
00000080: a576 ec3e a7cb 08c0 34fb 48bd e59e a3bf
00000090: d724 433d 7649 353f e6ef 9a3f 7356 023d
000000a0: 2fdd 39bf 0c90 88bf e752 323f 02e0 503f
000000b0: 0fa9 01c0 a252 43bf 8442 f4bf ca57 5c3e
000000c0: e861 b4bf d2b0 ff3e 907b 2b3f 1db6 863f
000000d0: 63ef b4bf 4c22 b23f 180f 313d 5faa 643e
000000e0: 9f1e 29bf a032 39bf 3d42 cd3f a2bd 2dc0
000000f0: 75f2 de3f 188b c9bf 7328 593e 6d6d 2ebf
00000100: fcf8 983e e24d 3ebf a1ed 4a3c f5bd e1bf
00000110: a55d a6bf 1167 efbf 863f 8c3e 9fc4 6ebf
00000120: cff2 ea3c c8b8 273f a16c 02bf 70ce 08bf
00000130: 83bd 9a3e 3672 bdbe d4af 6b3f 0c04 2c3f
00000140: 58e6 0bc0 af9a 9d3f 70be f0be 8afc 8abe
00000150: 942c 033f cf13 c8bf 1158 813f 25d3 32bf
00000160: 27ef 753e 55e4 563f ee82 af3e 9b82 693f
00000170: 7d2f 3dbf e23d 8a3f 6425 1ebf b9a2 423f
00000180: df18 9fbe 0a34 873f b1f8 7c3a 4b69 9bbf
00000190: 9be1 913e 205d 8c3f 8605 d33e f8a2 7cbd
000001a0: 6caf 973e 63b1 8fbd eccf 85bf 4596 0e3f
000001b0: ee9d 7e3f 4f80 afbf 8c58 ed3e f6fd 1740
000001c0: 8b8b 7ebf 4c5a 023f 2d2e 4abe c900 713f
000001d0: b930 5bbf 3344 8f3e cb6d fc3e 6f80 fdbe
000001e0: f912 6fbf e342 a73f 5e82 483e 8b75 4b3f
000001f0: 4149 0f3f 2a9c e0bf 2aaa 183f ea42 e43e
00000200: b073 a8be 5558 4fbf fc6f b03d ec42 abbf
00000210: 78a9 9b3e 202a babe 1977 653f 3960 b73f
00000220: 3e00 8fbe 6714 ba3f 9833 9cbf 5377 9a3d
00000230: 2c9f 69bf 605f f0be 9a69 013f d049 94bf
00000240: ab88 1ebf d941 643f 473a 7c3f 6dab 41bf
00000250: 945f 8c3f 9274 fb3e 78f1 d23d dd49 e33e
00000260: da27 3abe afae 72bc 82a1 c33f f54c 543f
00000270: 0f10 83bf dced 0c3f b5e2 b23e 6f01 ba3f
00000280: 0b2d bc3d fbe4 a7bc 94a1 4cbf 5d0e 15c0
00000290: 7050 8c3d 97fc b23f 750d 073f 77f3 ae3f
000002a0: 471c 1ebf 4b82 f33d b198 31bf ba69 d5bc
000002b0: fb05 8dbf bd2f e9bf 0a7d b0bf 9733 b23f
000002c0: ae57 a0bf 887e a0bf d9b6 4dbf 8c15 2fbf
000002d0: 101f ae3f 997e 59bf 7a05 bf3d c6d5 94bf
000002e0: cd45 f23c 5b9e 613f 2906 f13f fe25 1fbf
000002f0: 428e 92bf bd7c 883f 2d31 083f da7d da3d
00000300: 50b2 a5bd da9a c4bf c006 7abe 432b 57be
00000310: 54cc 03bf 8a74 55bd 4306 1f3f 0e61 b33f
00000320: 55ea 02c0 1ada ea3e 08a8 3cbf 8714 80bf
00000330: 9563 d13d 0b43 32be 8691 3b3c 15b5 213f
00000340: e209 1ebf 71dd f13f 4a78 f9be ad2e a4be
00000350: 0cfd 753d 8b84 593f 5e87 97bf c4eb 8f3e
00000360: 34bd 99bf 530c bdbe e085 1940 b3c0 5d3f
00000370: 0ec1 7dbf 31f7 3d3d 6ed0 b63f a3df 403f
00000380: c077 e83e 2456 a23f 06a0 803e 5d83 b1bf
00000390: 957d af3e 80b1 cc3f c791 03bd 5a03 61bf
000003a0: 58dd 1b40 381f 073f ce29 dbbf 9f94 2bbe
000003b0: 4061 9dbf f1f4 3ebf c8d0 9ebd b98a 873f
000003c0: 113a f13e 8a09 913f 6a40 943f 49d5 1cbe
000003d0: d1e8 913f 1e99 403d 94a3 dcbe e78d 88bf
000003e0: e7bc 18bf aaae 683f 4bbc 8d3c 8a06 e63d
000003f0: 7066 cabe 1f80 363f f69b ce3f 3e46 02bf
0.5096842 0.32359913 -1.1794615 0.172025 0.21728998 -0.6481305 -0.58659416 1.0264983
0.6400784 -2.3141246 1.9281586 1.3921117 -1.1895484 2.1868577 -0.95855796 -1.2767566
-1.9494904 1.7260891 1.2901229 -0.17434089 -1.7472479 1.1377556 1.0792326 -1.5601469
-1.1056731 0.1981322 0.22443198 -1.0682269 0.67675006 1.6360214 -0.62523735 1.1755283
0.4618427 -2.13743 -0.04906769 -1.2782866 0.047642555 0.7081522 1.2104461 0.031820726
-0.72603124 -1.066896 0.6965775 0.8159181 -2.0259435 -0.7629796 -1.9082799 0.21517864
-1.4092379 0.4993959 0.66985416 1.0524327 -1.4135555 1.3916717 0.043227285 0.22330616
-0.6606235 -0.7234287 1.6035839 -2.7146993 1.7417742 -1.5745573 0.21206836 -0.6813572
0.2987746 -0.7433759 0.012385757 -1.7636095 -1.2997328 -1.8703328 0.27392215 -0.9326877
0.028680233 0.6551633 -0.50947005 -0.5344 0.3022271 -0.370012 0.9206517 0.67193675
-2.185934 1.2312831 -0.47020292 -0.27145797 0.51239896 -1.5631045 1.0105001 -0.6985343
0.2401701 0.8394216 0.3427958 0.91214913 -0.73900586 1.0800135 -0.61775804 0.76029545
-0.31073663 1.0562756 0.0009650095 -1.2141508 0.28492436 1.096592 0.41215152 -0.061678857
0.29626024 -0.07016256 -1.0454078 0.55698043 0.9945973 -1.3711032 0.46356618 2.3748755
-0.99431676 0.5091903 -0.19744177 0.94141823 -0.8562122 0.2798172 0.49302515 -0.4951205
-0.93388325 1.3067287 0.19580981 0.7947623 0.5597115 -1.7547657 0.5963465 0.445823
-0.32900763 -0.8099416 0.08615109 -1.3379798 0.30402732 -0.36360264 0.89634854 1.432624
-0.27929872 1.4537476 -1.2203245 0.075422905 -0.912585 -0.46947765 0.5055176 -1.1585026
-0.6192729 0.89162976 0.98526424 -0.756522 1.0966668 0.49112374 0.10299963 0.4439229
-0.18179265 -0.014812156 1.5283663 0.8292993 -1.0239276 0.55050445 0.3493859 1.4531687
0.09188279 -0.020494929 -0.7993405 -2.3290017 0.0685128 1.3983334 0.5275491 1.366805
-0.617619 0.11890086 -0.69373614 -0.02605139 -1.101745 -1.8217694 -1.3788159 1.3921994
-1.2526758 -1.2538614 -0.8035713 -0.6839225 1.360323 -0.849588 0.093272164 -1.1627738
0.0295743 0.88132256 1.8830005 -0.62167346 -1.1449664 1.0663067 0.53200036 0.106685355
-0.08090651 -1.5359757 -0.24416637 -0.21012597 -0.51483655 -0.052113093 0.6211893 1.4013994
-2.0455525 0.45869523 -0.73693895 -1.0006264 0.10224072 -0.17408387 0.01144827 0.63166934
-0.6173383 1.8895704 -0.48724586 -0.3206686 0.060055777 0.8496787 -1.1838186 0.28109562
-1.2010865 -0.36923465 2.398796 0.8662216 -0.99122703 0.04637832 1.4282358 0.7534124
0.45403862 1.2682538 0.25122088 -1.3868214 0.342755 1.5991669 -0.032121446 -0.8789574
2.4353848 0.5278201 -1.7122133 -0.16755913 -1.2295303 -0.745925 -0.077546656 1.058921
0.47114614 1.1331036 1.1582158 -0.15315737 1.1399175 0.047021024 -0.4309355 -1.0668305
-0.5966324 0.90891516 0.0173017 0.11231716 -0.3953128 0.7128925 1.6141346 -0.5088843

conv1.weight f4 [32, 32, 5]
00000000: 411f 443c 4b62 b23a f902 203e ebc0 3abe
00000010: 58ae e8bd 73a0 ccbc aebd 8d3d 094e 103e
00000020: 9b05 f4bd 2cc1 35be a615 cabc d78f 0dbd
00000030: bcfd 403e 469e 523e 49c3 9ebc 3e49 3c3e
00000040: 0e05 20bd e480 2e3e ddc3 b33d c029 6c3c
00000050: 1ea4 6bbd 3fb3 b3be 1251 73bd d03d a4bc
00000060: 9072 2a3e 7b82 d13d 476c 0ebd a2e8 92be
00000070: ccfa 853e 434c 833e 20a1 d8be d049 913d
00000080: 6549 0cbd f093 b4be 3a3d a6bd 95f4 a6bd
00000090: a27b 463c d6e5 313d 6c68 c2bd de10 08be
000000a0: 9c1a c8bd 869c 0dbe beb4 513c 3cd1 f63d
000000b0: 952e 0fbe 26db 13be b062 743e 0735 de3d
000000c0: 5be5 d43e 1c30 08be 29e5 0bbe 6f1c 3e3d
000000d0: 3fb3 1dbd f000 23be 27e7 b9bd 1621 4f3d
000000e0: 6e80 4b3e 9ccb 7ebd a0e9 903d c369 9abd
000000f0: 1a31 20be 23ab 3fbe 5b76 bdbb 4956 043e
00000100: ab04 cabd 707f 0e3e 69b9 5dbe b3c2 163e
00000110: a988 e53c e445 14bc b4ce 1d3e 385d a5bd
00000120: ec34 e1bc 82ab 11be 20c1 fe3d 3b91 ffbd
00000130: 36b3 1c3d eafc f5bd 8913 323e cd76 973d
00000140: 95dd 6abd 4def d0bd 8d7a 393e 4ee2 af3e
00000150: fbe3 5b3e fc01 fbbd a7d7 12bc f373 c1be
00000160: 9ee8 7ebd 704c 8f3d 0fdf 503d b73b 3ebc
00000170: f966 7cbe e14e ebbd c24e 5b3e 9a38 27bd
00000180: 0840 e73d e0da 113e 77be 023e fddc ef3c
00000190: bc00 a4bc 59fa a73e fe32 c03d fc88 bc3d
000001a0: 4776 983d d540 cabc a16b 9b3b f335 a13c
000001b0: 0470 c5bd b636 8c3d 917b 6abe 3323 e8bc
000001c0: 5408 923d c9a2 bcbe 1984 1d3c 3ad0 90be
000001d0: 7500 9d3d 1caf 083e 4a8c a13d 8976 25bd
000001e0: c5d2 2cbe 91e0 353e ca9c 02bd 37f9 9c3d
000001f0: 7422 48bd 5475 883e 2abe b7bd aeaa f7bd
00000200: 05e7 823e 8400 ecbd c86f ce3d 09f3 c03d
00000210: 61b5 c4bd e059 a53e 5f5f c03b af63 8c3c
00000220: e885 9c3a 5a63 96bd 2dd4 043e a834 85bb
00000230: 3a7a 1f3b 789e 1cbe b991 dbbc fe80 37bc
00000240: 4bc5 12be a950 b4be ec88 7c3d 37bc 4abb
00000250: 61c2 d33d fd12 03be 1af9 923c 4004 35be
00000260: 94bc 0eb9 fbc9 b7bc 4b4a 243e 8f64 86bb
00000270: 1d3d 0cbe ca79 593d e08d 6fbc 9775 3ebd
00000280: c1ae 143c 7146 02bc 978f 653e 8ed7 c73d
00000290: 64ce 4ebc 89d0 5f3d af16 4b3e 0009 c2bd
000002a0: 1ab6 893d fb2f 70be 9c07 48bd 1e8e ca3b
000002b0: 98ef 243e 1013 08be 9094 4e3e fb34 a0bd
000002c0: 717b 373e 8c9d 16be 3763 a9ba 151a ffbd
000002d0: e425 80bc 8783 8f3d 01ee 26be e7dd 333d
000002e0: 4856 c6bd da1a 2a3e 34a8 d23d c870 843e
000002f0: 9060 103e 4706 603e 2df7 92bd b2ae 38bd
00000300: f369 7fbe 1176 023e f2e0 98bd c68f 51bd
00000310: e811 75bd 231c 6cbe 4413 c1bd ee9f 8fbc
00000320: a091 16be b80c 6d3d cd4f b63d 956d 9cbd
00000330: cb6f 063d 89a3 773d 3890 f6bd 078e 26be
00000340: b9cd 8b3e 78c2 8ebd a564 07be 9e0e 2c3e
00000350: a112 8e3e 8cbf 083e 575d 61bd 01b1 8ebc
00000360: 6618 6fbd 484a 0ebe 55d8 4c3e 50cd bb3d
00000370: 5cdd e3bd 7974 52be b367 1e3e 92f4 ad3d
00000380: 73ae 1bbe e80a d3bb 1cfb 8ebd f66d f93d
00000390: 3e04 7abd 7c29 f63b 715c d53d 6851 1c3e
000003a0: 9a68 be3d 1540 8dbd c625 633d 0b44 4f3e
000003b0: 81ae dc3d 6e68 a23e d817 4cbd c9bb 5e3d
000003c0: 441a 9c3d 87cd 253e ad23 0d3d faa8 85bd
000003d0: 737b ddbd e17c de3d 8725 7dbd be82 52be
000003e0: 4e87 37bc 42d3 1a3e 238c b6bd ae3a c53d
000003f0: 11c9 bd3e 402b e63d f163 173e 7926 c6bd
0.011970342 0.0013609616 0.15626134 -0.18237655 -0.113613784 -0.024978852 0.06920944 0.14092268
-0.11915132 -0.1774947 -0.024668526 -0.034561004 0.18846792 0.20568189 -0.019380229 0.18387315
-0.03906732 0.17041355 0.08777592 0.014414251 -0.05752956 -0.3509769 -0.059403487 -0.020049006
0.16645265 0.10229965 -0.03477123 -0.2869311 0.26167905 0.2564412 -0.4231043 0.07094157
-0.034249682 -0.35269117 -0.08117147 -0.08152119 0.012114437 0.04343208 -0.09492573 -0.13287684
-0.097707 -0.1382924 0.01279944 0.12051627 -0.13982613 -0.14439067 0.23865771 0.10849958
0.41581234 -0.13299602 -0.13661636 0.046413835 -0.03850102 -0.15918326 -0.09077292 0.050568663
0.19873211 -0.062205896 0.070758104 -0.07539704 -0.15643731 -0.18717627 -0.0057819313 0.1292354
-0.098641716 0.13915801 -0.2165276 0.1472271 0.028019266 -0.009049866 0.15410882 -0.08074421
-0.027491055 -0.14225581 0.124391794 -0.124788724 0.038256846 -0.1201113 0.17390265 0.07395706
-0.057340223 -0.10201893 0.18113156 0.34352344 0.21473686 -0.12256238 -0.008962548 -0.37783775
-0.06223356 0.06997001 0.050993975 -0.011610917 -0.24648656 -0.11489654 0.21416762 -0.040825464
0.1129151 0.1424365 0.12767969 0.02928018 -0.020019881 0.32808188 0.09384726 0.09205815
0.074444346 -0.024689117 0.004743055 0.019679045 -0.09640506 0.06846373 -0.228987 -0.028337097
0.07130495 -0.36842945 0.009614014 -0.28283864 0.07666103 0.13348049 0.07888086 -0.040396247
-0.16877277 0.17761447 -0.031887807 0.076647215 -0.048860982 0.26652014 -0.08971818 -0.120931014
0.2556688 -0.11523536 0.10079914 0.09421355 -0.09604908 0.32295132 0.005870744 0.017137377
0.0011941763 -0.073431686 0.12971564 -0.004065115 0.0024334327 -0.15294826 -0.026802884 -0.011200188
-0.14333074 -0.3521779 0.061654016 -0.0030934939 0.10339809 -0.12800212 0.017941047 -0.17677402
-0.00013612426 -0.022435179 0.16043966 -0.004101343 -0.13695188 0.053094663 -0.014621228 -0.04649886
0.009074868 -0.007951365 0.22418056 0.09757911 -0.01262245 0.054642234 0.19832872 -0.09474373
0.06724186 -0.23455803 -0.048835382 0.0061814925 0.16107023 -0.13288522 0.2017386 -0.07822605
0.17918183 -0.14708537 -0.0012923245 -0.12456147 -0.015643068 0.07007509 -0.16301729 0.043912794
-0.096844256 0.16611806 0.102859885 0.25867295 0.14099336 0.21877395 -0.07176051 -0.045088477
-0.2494276 0.12740351 -0.0746478 -0.051162504 -0.05983153 -0.23057608 -0.09427503 -0.017532315
-0.14703989 0.057873458 0.089019395 -0.076380886 0.032821458 0.060458694 -0.12039226 -0.16265117
0.2730539 -0.06970686 -0.13221987 0.16802451 0.27748588 0.1335432 -0.055020656 -0.017418386
-0.058372878 -0.13895524 0.20004399 0.091700196 -0.11126205 -0.20552243 0.15469246 0.08493914
-0.15203266 -0.006440509 -0.06981489 0.121791765 -0.061039202 0.0075122695 0.104180224 0.15265429
0.09297295 -0.06896988 0.055455945 0.202408 0.107754715 0.317203 -0.049827427 0.054378305
0.07622197 0.16191684 0.03445785 -0.0652637 -0.10814562 0.108636625 -0.061803367 -0.20557687
-0.011201693 0.15119651 -0.08913448 0.09630333 0.37067464 0.11238718 0.14784218 -0.09675307

conv1.bias f4 [32]
00000000: 2b94 67be 4592 05bf cee9 2dbe 8e9f b9be
00000010: 5a14 97be 591c edbe 8c50 6ebe da7f 6abe
00000020: 3f5a 40be 4a10 97be 8eb9 49be 7cef 8ebe
00000030: 306f c03c 703c 23bd 822f e0bd c285 9ebe
00000040: 5af1 7abe 35d1 59be c18c c9bd 8157 32be
00000050: 07f3 97bd fc2b 03be 7680 80be 0ec4 3abe
00000060: aa78 00be 5aee 3dbe a564 8ebe e04c 04be
00000070: 1e8e 04be 9fcc c5bd 4d4b dabd 6457 45be
-0.22615115 -0.52176315 -0.1698372 -0.36254543 -0.29507715 -0.4631069 -0.23272914 -0.22900334
-0.18784426 -0.29504615 -0.1969969 -0.27917087 0.023490518 -0.03985256 -0.109465614 -0.30961424
-0.24506131 -0.21271212 -0.098413 -0.17416193 -0.07419401 -0.12809747 -0.25098008 -0.18238851
-0.1254603 -0.18547955 -0.2781116 -0.1291995 -0.12944838 -0.09658169 -0.10658894 -0.19271618

conv2.weight f4 [32, 32, 3]
00000000: 6291 e63d cd0d 2f3e 3508 2abe 742b eb3d
00000010: a61a 463d d64f e9bd f59f 7d3e bea6 173d
00000020: 7eaf c2bd b3a6 5cbe f89b 0bbe a550 13be
00000030: b85b c33c 5f62 8cbe 80f7 9b3d 89fe d43e
00000040: 5957 e5bd ee2f 31bd 48a2 5abb 0bb5 1c3e
00000050: 0b85 2cbe 243c 2abe 2d60 3c3e 08f0 943d
00000060: b73f 2f3e 54b4 e4bc 37c8 db3c 43e1 cabd
00000070: 84db 3ebe 60d1 2e3d 87ba 0f3e e4b6 15be
00000080: e2b2 29be 00bb aa3d 788f c4bd 2f70 2bbe
00000090: 4f21 6bbb 9b2e cfbd e72b 163d b77d 18be
000000a0: d7ba 8b3d 0765 bb3d 81a1 80bd 9ac1 e73d
000000b0: 9d6f 13be 2683 a53e f653 123d 14e5 89be
000000c0: 2aea 223c 9cc1 1abe 0982 323d e680 493e
000000d0: e276 45be 8a43 a43d 39cd d93e 722b 7d3e
000000e0: 6516 c7bd 2e01 dbbd a505 e1bc 0143 c83d
000000f0: ee84 6e3e d524 92bd 978f 9dbd 8ce6 cdbc
00000100: a60e 5cbc 1ffa c5bc 5013 19bd 241f 443e
00000110: e550 bfbd 1358 5d3d 9095 f23e d63c 0d3e
00000120: f410 4abd bf2d bb3d b30a d0bc d7dc e83d
00000130: ee84 54be f515 4ebe ae11 38be 09a2 f73d
00000140: c950 183e 2289 673e 0c35 253e 96a1 a3bd
00000150: 0b8d 903c 1f6d ceba 0894 1cbe 99ff 613e
00000160: 837b cb3d 7500 5f3e 4d27 01be 805b 6dbe
00000170: 211e 733d c8e2 23bc 7369 953e 47d4 d23d
00000180: 3d14 1d3d 366b 8ebe 59de 133d 1145 223e
00000190: fa87 9fbe 76f9 ef3c d067 4bbd 5926 aa3e
000001a0: 0f83 b03d d762 8a3c debf ebbe 2366 c6bd
000001b0: 1a2b 97bc 657a babe a958 763d 92ea 26bd
000001c0: 5111 1c3f 9735 b53c c717 de3c 9cbf 383d
000001d0: 5405 9cbc e5d5 e33d 49ee 973e 8db1 203d
000001e0: fb94 68bd 0f75 153d 9866 a43c cd53 c4bc
000001f0: f399 0c3e 3043 21bb 508e 95bd 298c 553e
00000200: cc12 b5bd 7ca5 8ebd 5297 0bbe d184 f13d
00000210: 6d5d 58bd df15 7bbe bcfc 993d 930d 4c3d
00000220: 5570 27be 89c8 c5bc 48b6 ad3d d6c3 183e
00000230: f1eb 29bd 9688 83bb 6dab 663e 8e4d 443d
00000240: 88ba 85be 9552 49be 3c59 84bd 7dc9 de3c
00000250: 0787 243e 61a2 dfbc b2fc f63c 86af 643e
00000260: 8f16 763d 9fa5 87bd ac7a 8dbe f5f6 743d
00000270: a958 853d 2528 0e3f dd58 06bd e619 483d
00000280: 186c 12bd 1c8f 3b3d adf0 683d 7a73 6b3e
00000290: a35b e3bd 5c3a 9ebd c0c1 95ba d61a 14bd
000002a0: fd77 28bc 520b b73d 0dc6 8c3d f982 5d3d
000002b0: ba47 753e e0e2 02bc 7c06 1d3d 13d0 053f
000002c0: 2820 acbd d60f b83c ba09 9e3e dad7 c53d
000002d0: e866 933c f086 acbd ba8e 293d 59e2 d8bd
000002e0: d697 a53e 6097 4c3c 06b8 8fbd 749c 15ba
000002f0: 5c6b 4bbd 8e3c c33c 0407 463e 3ccd 33bd
00000300: 47fd 493d 6f7d 8c3e 4615 93bb 3214 3f3d
00000310: 9d83 d2bd c7f1 003e 3cab dd3d 3d9a a83d
00000320: 395b 993d 72f9 243e c7aa 1dbe e641 afbd
00000330: 36d8 abbc 7094 02be 8781 93bc 77a1 32bd
00000340: f295 41be 549e a83d f6bb 09be da37 a1be
00000350: 79e5 03bf 35fa 3f3e c1e6 e93d a121 b03d
00000360: 8eef 493d 733e d03d 3879 01be ecd1 c7bc
00000370: 20ee 5bbe 4678 28be b22b 143d d6e0 363c
00000380: 1999 d33d b0ad f63c b597 48bd 63df ccbd
00000390: e445 8cbd a8d0 9b3d d5a0 213e 3591 f23c
000003a0: cefe 973d c6d0 db3d bc58 0b3d b195 32be
000003b0: db7d d3be ef04 22bd 199e 86bc c265 3c3e
000003c0: b3fd 063d 02d4 1dbe ff6e 0cbe a95f 123d
000003d0: ceed a33c 5781 463d 426f 833c 8b48 283e
000003e0: 12c6 e13e 2542 edba b353 133e 9753 953d
000003f0: e8ce 913d c292 72be f3e8 98be c0bb c7bb
0.11258198 0.17095108 -0.16604693 0.114828974 0.048365258 -0.113921806 0.2476805 0.037024252
-0.09506129 -0.21547966 -0.13633716 -0.14386232 0.023847446 -0.274188 0.07615566 0.41600445
-0.11198301 -0.0432586 -0.0033360887 0.15303437 -0.16847627 -0.16624504 0.18396063 0.07272345
0.17114149 -0.027918018 0.026828868 -0.099062465 -0.18638426 0.042680144 0.14035998 -0.14620548
-0.16572145 0.08336449 -0.09597677 -0.16742013 -0.0035878008 -0.10116311 0.036662962 -0.14891706
0.06822746 0.09150129 -0.062808044 0.113162234 -0.14398046 0.3232662 0.035724603 -0.26932585
0.009943524 -0.15112919 0.043581042 0.19678077 -0.19283631 0.080206946 0.42539385 0.24723604
-0.09721068 -0.106935844 -0.027468512 0.09778405 0.23292896 -0.071359314 -0.07693403 -0.025134347
-0.013431227 -0.024167119 -0.037371933 0.19152504 -0.09341601 0.054039072 0.47379732 0.13792738
-0.049332574 0.09139585 -0.025395727 0.11370247 -0.20753834 -0.20125563 -0.17975494 0.12091453
0.14874567 0.22610906 0.16133517 -0.079898044 0.01764538 -0.0015749073 -0.15290844 0.22070159
0.09935667 0.21777518 -0.12612648 -0.23179436 0.059354905 -0.010002799 0.29182014 0.10294395
0.03834938 -0.2781617 0.03610072 0.15846659 -0.3115843 0.029293757 -0.04965955 0.33232382
0.086187474 0.016892834 -0.4604482 -0.0968745 -0.01845317 -0.36421505 0.060143147 -0.040751047
0.6096392 0.02212028 0.027110947 0.045104608 -0.01904551 0.111247815 0.29673985 0.039231826
-0.056782704 0.03648859 0.020068452 -0.02396574 0.13730602 -0.0024606697 -0.073025346 0.20854248
-0.08841476 -0.069651574 -0.13631943 0.11792911 -0.052823473 -0.24520062 0.075189084 0.049817633
-0.16351445 -0.024143474 0.08482033 0.14918455 -0.041484777 -0.004014085 0.22526331 0.047925524
-0.26118875 -0.19660409 -0.064623326 0.027195686 0.16067134 -0.027299108 0.030149791 0.22332582
0.060080107 -0.066233866 -0.27632654 0.05980583 0.06511051 0.55530006 -0.03279959 0.048852824
-0.035747617 0.045790777 0.05687015 0.2299327 -0.11101463 -0.07725975 -0.001142554 -0.036158405
-0.010282514 0.08937706 0.06873713 0.054079983 0.23953143 -0.0079886615 0.038336262 0.5227062
-0.08404571 0.022468489 0.30866796 0.09660311 0.017993405 -0.08424175 0.04139588 -0.105900474
0.32342404 0.0124872625 -0.070175216 -0.0005707212 -0.049662933 0.023832586 0.19338614 -0.0438969
0.04931381 0.27439448 -0.00448862 0.04665012 -0.102790095 0.1259223 0.10823676 0.082325436
0.074881025 0.16110781 -0.15397178 -0.08557491 -0.02097712 -0.12751937 -0.0180061 -0.043611016
-0.18904856 0.08233324 -0.13450608 -0.31487924 -0.5152202 0.1874779 0.11420966 0.08600164
0.049300723 0.10168161 -0.12643898 -0.02439209 -0.21477556 -0.1645213 0.036174484 0.0111620035
0.103319354 0.030112118 -0.048972804 -0.10003545 -0.06849268 0.076081574 0.15784009 0.029610256
0.07421647 0.1073318 0.03402017 -0.17439915 -0.41306958 -0.039555486 -0.016432809 0.18398193
0.03295679 -0.15412906 -0.13714217 0.03573576 0.020010855 0.04846319 0.016044263 0.16433923
0.44096428 -0.0018101378 0.14387397 0.07291334 0.07119542 -0.23688796 -0.29865226 -0.0060953796

conv2.bias f4 [32]
00000000: 8e0c 04be 40ac 5ebe b504 9ebe 3f19 b3be
00000010: 1b93 4dbe 80cf a2be bb12 afbe 3acd 2abe
00000020: 1e07 d9be 1a66 17be 97a8 9abe c78f b23c
00000030: 58cb 40be 0bbf 6fbe 1cfe bdbe c649 9abe
00000040: f753 8abd dab2 29bd bfda 36be 581a 86be
00000050: 23ba bb3d 4cfa 9c3d cf19 b3bd 30c6 a1bd
00000060: 6f10 88be f423 e5be f029 a9be c1f6 79be
00000070: eef8 75be 585a 47be e151 a2bd af44 603d
-0.12895414 -0.21745396 -0.30862966 -0.349802 -0.20075648 -0.31798935 -0.34193978 -0.1667985
-0.42388242 -0.14785042 -0.3020675 0.021797074 -0.1882757 -0.23412721 -0.37107933 -0.3013441
-0.06754296 -0.04143033 -0.17856883 -0.26191974 0.09166362 0.07664928 -0.08745157 -0.078991294
-0.26575038 -0.44753993 -0.33039808 -0.24410535 -0.2402074 -0.19468057 -0.079257734 0.054753

conv3.weight f4 [256, 64, 5]
00000000: b80d fa3c a02b 27be f9f8 89bd 3114 3ebe
00000010: 44c1 0fbe 74c3 b53d be5c 47bd 1ef1 35be
00000020: 0109 0abe 09ed 8f3d f0a6 2cbe 073e 283e
00000030: d26a 433e 2c61 9dbd 732f 043e a792 33be
00000040: 79e6 19bd 2451 afbe 1fc2 f1bd c643 083e
00000050: 1e37 1cbd f2e9 0abf f778 4cbe 5d64 88be
00000060: 7009 3bbe 37e0 973d 6962 a4be d58f a0be
00000070: d065 f4be 83f5 66bd 74e0 0f3e 30f2 ccbd
00000080: be0f a8be a1df 54bd 0899 6a3d b10b 6ebe
00000090: ba4b 203d 11df a3be 3d59 6c3e 1b9f 35bd
000000a0: b3d4 afbe ea83 b3be c91a 5abd 5b04 4f3e
000000b0: 39b0 98bd 08f1 53bd c453 5e3d f3d4 863d
000000c0: e5d6 94be 77a7 b53c b38c a1be 3a73 acbd
000000d0: bb05 d3bd db43 7e3d 1130 42be c8b0 cdbc
000000e0: 054c d9bd 8e44 3d3b f2c1 183e 34fb a8be
000000f0: 52c9 f13d 1160 80bd 7dab 41be 25e5 74be
00000100: a556 65bd f2e5 bbbb b0b4 e73d cf48 a5be
00000110: 349b af3e 40cd 3dbd c264 1ebe 744a c13c
00000120: 4302 363d 1332 3c3e d1a7 23bc df77 b73b
00000130: cc27 79be e7d5 92be a108 4abe 9a29 dbbd
00000140: 18fa f5bd 37dd a8be 33f8 bfbe 8bd9 b6be
00000150: 431b 813d 7d29 cebd 5434 f4be a340 a4be
00000160: 98b8 9bbc cb2a 06be 6913 d2be cfad 02be
00000170: 0c7c 0e3d 310b df3d 7c59 953d 1c6b 2fbe
00000180: 0e65 65be 54a0 a13c 904e da3d 5d23 a0be
00000190: f45d 053e eed0 13be 7a0d 34be da10 02bc
000001a0: 886a 1a3d 4507 d2bd abcb 4c3e 8c0e 463c
000001b0: 42b6 a23d 6061 383e 1d06 8dbe 5825 34be
000001c0: c0d5 21be e01f 29be 3181 70be df62 14be
000001d0: 813d 4bbe 8933 55bd 03d1 933e 1e5e 103a
000001e0: 6668 c8be a943 4bbe b9c8 37be 25d2 42be
000001f0: 0b7d 64be 6b49 67bd e2b4 5abe 961e 36bd
00000200: a4b6 2f3d 112e ac3d 50f3 99be e750 92be
00000210: 23d8 fc3d 14a9 14be 7227 62be 0fc4 f73d
00000220: 4372 7a3e 1d7e ccbe b937 26be b1f3 f73d
00000230: 6229 2ebd 977d dabe 2160 7e3e cff1 3fbd
00000240: 5cef 26bd 127d cd3d 7a62 db3d 3bec 363d
00000250: d98d bdbc 9712 123d 645b b1be 7a3c 3ebd
00000260: 0d5c 26bd 99e9 bcbd eab7 efbd 87d7 0cbe
00000270: 84cf fb3c 12a5 67be e8cc 24bd 18a4 193d
00000280: 139d da3d 00ad 633e 3b96 7dbe bad2 8c3d
00000290: 4117 c8bd 0197 093e ab0f 2d3c 08ac a4bd
000002a0: 8faf 82be 3bed 693c b309 ddbc 33a7 a1bd
000002b0: bc3b c7be 9275 d23b a969 1bbd 0865 cfbd
000002c0: aeb6 683d 6b9c 80bc 93ef 8fbe 29b9 d5bd
000002d0: f078 4a3e a102 093e d8d5 f1be eb00 57be
000002e0: aab6 84be e274 9ebe e70b 77be 062e 2f3e
000002f0: 0146 49be dcbe 51bd bcdc 8d3d 8c9d e3be
00000300: 1cd4 8cbe 1cb3 3e3c 74a9 62be 4cc9 8a3e
00000310: 7723 aa3c 9a2c f23e 589f 42bd 948e afbe
00000320: fdb6 e53d 6e1a 483e e01a 56be dd66 cabe
00000330: 2eca cebe 3937 c6bc 97da e23d 09ba d43c
00000340: dd7e 563c 5c54 b03c d4aa 08be 3997 2bbc
00000350: c9e6 143e 1a9a 053e 5e59 073e 0b24 493e
00000360: d26c 3f3d d896 44be ff03 c73a 1994 b63d
00000370: 8855 5b3e 06ef 17bd 1054 a73d 8b6d a6be
00000380: c5bd 41be 60a2 52be ad7d 8cbe ce5e 6a3e
00000390: 1383 96bd 1794 18bd cc0e 3fbd f7c8 ae3c
000003a0: da64 42be c7ae 8c3d b4a5 dd3c b5c7 61be
000003b0: 9b65 23be 005c 2bbe 1eb9 0ebe 8728 4abd
000003c0: a13f 1abe 2815 313e 783c 86be 431d 03be
000003d0: ac1e 873d e988 b0be 761d 1fbe 6930 debe
000003e0: e8fd dfbc 960d cfbd ad33 823d 984d c1bd
000003f0: c846 4e3b 1136 a5bd 33da 663d c339 95be
0.03052412 -0.16325235 -0.06736941 -0.1856239 -0.14038569 0.0887517 -0.04867243 -0.1776776
-0.13479997 0.07027633 -0.16860557 0.16429912 0.19083717 -0.0768455 0.12908725 -0.17536412
-0.03757331 -0.34241593 -0.11804604 0.13307104 -0.0381385 -0.5426322 -0.1996802 -0.2663907
-0.18265319 0.074158125 -0.3210633 -0.31359735 -0.47733927 -0.056386482 0.14050466 -0.10007131
-0.3282451 -0.05197108 0.05727485 -0.23246647 0.03913472 -0.32006124 0.23080917 -0.044341188
-0.34341964 -0.3506158 -0.0532482 0.20216505 -0.07455487 -0.051743537 0.054279104 0.065835856
-0.29070202 0.02217458 -0.31552657 -0.08420415 -0.103038274 0.06207643 -0.18963648 -0.02510871
-0.10610203 0.0028879973 0.14917734 -0.33004153 0.11805977 -0.06268323 -0.18913074 -0.23915537
-0.055990834 -0.0057341987 0.1131376 -0.3228211 0.34298098 -0.04633832 -0.15468124 0.023595072
0.04443575 0.18378477 -0.009988741 0.0055990065 -0.24331588 -0.2867882 -0.19729854 -0.10701294
-0.12010592 -0.32981274 -0.37494048 -0.35712847 0.06304028 -0.10066507 -0.47696173 -0.32080564
-0.01900892 -0.13102262 -0.41030434 -0.12761615 0.03478627 0.108908065 0.072924584 -0.17130703
-0.2240183 0.01972977 0.10659516 -0.3127698 0.13024122 -0.14435169 -0.17583266 -0.007938588
0.037699252 -0.10255293 0.19999568 0.012088429 0.07944919 0.18005896 -0.27543727 -0.1759237
-0.15804195 -0.16516066 -0.23486783 -0.14490841 -0.1984768 -0.0520511 0.288704 0.00055071886
-0.3914215 -0.19850029 -0.17947663 -0.19025476 -0.22313325 -0.0564665 -0.21358064 -0.044462763
0.04289879 0.08407224 -0.30068445 -0.2857735 0.12345912 -0.14517623 -0.2208536 0.12097942
0.2445765 -0.39939967 -0.16232194 0.12107027 -0.042519934 -0.42673942 0.24841358 -0.046861466
-0.040755615 0.10033621 0.10712142 0.04465888 -0.023138927 0.03566226 -0.34640038 -0.046444394
-0.04061513 -0.09224243 -0.11705001 -0.13754092 0.0307386 -0.22621563 -0.040234476 0.037510008
0.10674491 0.22233963 -0.2476434 0.068761304 -0.0977006 0.1343651 0.010562818 -0.08040625
-0.25524566 0.014277752 -0.026982164 -0.07893219 -0.3891276 0.006422707 -0.037942562 -0.10126692
0.056814842 -0.015699586 -0.28112468 -0.10435707 0.19772696 0.13379909 -0.47233462 -0.20996444
-0.25920612 -0.3094855 -0.24125634 0.171074 -0.1965561 -0.05120741 0.06926867 -0.44456136
-0.27505577 0.011639383 -0.22134954 0.27106702 0.020768864 0.47299653 -0.047515243 -0.34288466
0.11216543 0.19541332 -0.2090869 -0.39531603 -0.40388626 -0.024196254 0.11076849 0.025967615
0.01309177 0.0215246 -0.13346416 -0.010473066 0.14541163 0.13047066 0.13217685 0.19642656
0.04673464 -0.19198167 0.0015183686 0.08914966 0.21419346 -0.037093185 0.081703305 -0.3250545
-0.18920048 -0.20569754 -0.27439633 0.22887728 -0.07349219 -0.037250604 -0.04664497 0.021336062
-0.18983784 0.06869274 0.027056552 -0.22048838 -0.15956728 -0.16734314 -0.13937804 -0.049355056
-0.15063335 0.17293227 -0.2621801 -0.12804131 0.06597647 -0.34479454 -0.15538582 -0.4339631
-0.027342752 -0.10110013 0.063575126 -0.09438628 0.0031475294 -0.08066953 0.056360435 -0.2914563

conv3.bias f4 [256]
00000000: 3b8d 273d d615 65bd 72b7 13be f8a8 1ebe
00000010: dfe6 dabc 1198 77bd 2cd4 2b3d 1d6d 3f3c
00000020: 39dd 23be 73cb 29be f0ec 0b3e 5ace 733d
00000030: 1011 89bd 48dc 0abd 5478 873d d8ec 28be
00000040: 4656 14bd e0cb ac3d 22e8 c5bd 77d0 77be
00000050: 48cd 7a3d a6a9 c5bd 8cec 30bc af78 093d
00000060: b607 dcbd fcad 9dbd 2e50 32bc b8e6 943e
00000070: 8623 cebd 9bad 1cbc 2ae3 733d 9ed5 493d
00000080: 75d2 493e a5e3 21be 2fab 87be c22c b4bd
00000090: f385 e2bc 0b3b 51be c608 acbd 7da7 8cbd
000000a0: 0b38 a7bd c71a 58bc 567f 85bd f10e acbd
000000b0: 43b2 afbd c615 7d3b 18d7 ed3d 0a2b 70be
000000c0: 08a3 e0bd 5235 75be 3855 3bbd 2fc5 d5bd
000000d0: 1225 0fbd dbb9 c9bb 405a 20be 6913 8e3c
000000e0: e3b2 8bbd dfb5 2abe b7e6 75bd bfad 1dbe
000000f0: ab8f 49be 2e66 c4bd 83eb 03be 296d 9dbc
00000100: aece 10be 81d2 8fbd 577a aebd da88 a5bd
00000110: 6904 1cbe 816e cc3d 5449 36be e8b0 51be
00000120: 45e3 75be befd e1bd 47e4 f5bd b694 c63e
00000130: f9eb aabd f342 61bd 0304 18be 5eaa 0dbe
00000140: 1cbb 54be 1a01 393d 8ece b73c 4c33 c1bd
00000150: 8de1 653c 47f3 27bd 372b 50bc 651a f6bc
00000160: d039 29be a59a f6bd 59ed 0c3e 91f4 e43c
00000170: 3a62 1abe 8e2e a5bd 6312 e3bd 1af0 9cbd
00000180: b9a3 dfbd 4592 77ba 4a04 2a3e c389 2cbd
00000190: f0c9 e7bd 8515 3bbe b447 373e 31e2 35be
000001a0: c1b0 34bc f786 42bd 5720 f7bc c48b 18be
000001b0: 29cc b8bd 8026 1cbe a3c3 943e c148 3fbe
000001c0: 6dff 4c3e 2a05 24be 9acd 5c3e 98a7 273e
000001d0: 0603 833d 0e86 36bd e172 e1bd 9725 45be
000001e0: f56a 14be b61a 68bd ef22 83be 1c6e 14be
000001f0: 618a 5dbc 4824 01be 4d73 3f3e aa5d 003d
00000200: ba70 53bd 3283 7ebe 250b 93bd 24f1 473d
00000210: 74e3 e03d 2038 583b 827b 2abe a9b7 c2bd
00000220: 943a 6bbd 43ae 23be 0da4 1cbe e2aa bcbc
00000230: c808 e0bd cc32 12bd a453 69bd 0ea9 00be
00000240: 1d82 0fbd 16df c2bb cb64 58be f8ef 803c
00000250: 3434 07bd 341c 04be dec8 70be f421 6d3c
00000260: e51e 79bb 1120 c9bd c847 e8bd 3c3f e63d
00000270: 0249 d2bd 59f0 40be cc7b dd3d 0163 10be
00000280: 22a9 393e b3cb c0bd a7d6 57bc 3489 f0bd
00000290: 37f9 12be b003 363e de91 9dbe b596 213c
000002a0: 6eb9 f4bd 4c9a 9b3c 3428 33bd 03c2 e53d
000002b0: db6b 1c3d c5f0 3dbe b62a 44be c731 47bd
000002c0: 975b 0b3d c3f1 b3bd fe1c 2bbe f8e0 4dbd
000002d0: d210 fdbd 7b23 0fbd 70ea 81be 23b5 8cbd
000002e0: db70 12bd 2ef6 cabd 2888 b7bd 0254 16be
000002f0: dd45 c83d d3a1 07be 46c7 03be 17b8 4cbe
00000300: 83bf afbe b5e8 06ba 7764 03be 9569 8b3b
00000310: 386c 07be d590 98bd efa0 19bc 58fe 25be
00000320: a3fb c13d 3bdc 06be 3746 0cbd 330d 50bd
00000330: 39ec b33d e300 04be 99ca b73d bc74 a4bd
00000340: eab8 77be b883 03be 1a81 44bd 1105 44be
00000350: da05 33be fdc1 2e3d ff7e 60bc fb8b 21be
00000360: 06c8 3fbd 393c f63a 98f4 963c b2aa 93be
00000370: fb42 09be eb88 7e3c a064 07be d509 43bd
00000380: aeee 12be df81 3dbe 69a5 02be 0ee0 ba3c
00000390: 6c20 c03d 646f 3b3e e694 6ebd 42d8 94bd
000003a0: 3e90 c6bd bba0 b3bc 970f 02bd 237b 5fbb
000003b0: e245 2bbe 46a5 88bd 111d 76bd 3754 bfbd
000003c0: 1178 cd3c 6b78 c7bd 1c16 893c 13ec ce3b
000003d0: 9862 fcbd 53f2 6ebc 60f5 d8bd 6b84 54be
000003e0: 6461 0bbc 0f3a 943d 99b8 68bd 59d1 8abe
000003f0: cea5 7fbd ab6e 31be ceca 313e 9488 dcbd
0.040906172 -0.055929027 -0.14425448 -0.15494144 -0.026721416 -0.060447756 0.04195039 0.0116837295
-0.16002358 -0.16581516 0.13664603 0.059522964 -0.066927075 -0.033901483 0.06614748 -0.16496599
-0.03621509 0.084373236 -0.096634164 -0.24200617 0.061230928 -0.096514985 -0.010798585 0.03356236
-0.10743658 -0.076992005 -0.010883374 0.29082274 -0.10065369 -0.009562875 0.059542812 0.049275987
0.19709189 -0.15809496 -0.2649779 -0.087975994 -0.027651763 -0.2043268 -0.08400111 -0.06867883
-0.08164986 -0.013189978 -0.06518428 -0.08401287 -0.085789226 0.0038617714 0.116132915 -0.23453918
-0.10968596 -0.23946121 -0.045735568 -0.104380004 -0.034947462 -0.006156189 -0.15659428 0.01734324
-0.06821229 -0.16670941 -0.06003448 -0.1539831 -0.19683711 -0.09589802 -0.1288281 -0.01921709
-0.14141342 -0.07022572 -0.08519428 -0.08082743 -0.15236057 0.099820144 -0.1780141 -0.2047764
-0.24012478 -0.110347256 -0.12006431 0.38785332 -0.083457895 -0.05499549 -0.1484528 -0.13834521
-0.20774502 0.045167066 0.02243736 -0.09433612 0.014030826 -0.04100349 -0.012705616 -0.030041883
-0.1652596 -0.12041215 0.13762416 0.02794865 -0.15076533 -0.0806552 -0.11087491 -0.07662983
-0.109198995 -0.0009444098 0.16603199 -0.042123567 -0.113178134 -0.18269928 0.17898446 -0.17762066
-0.01102847 -0.047491994 -0.030166788 -0.14897066 -0.090233155 -0.15249062 0.2905551 -0.18680097
0.20019312 -0.16017595 0.21562806 0.16372526 0.06397061 -0.04456144 -0.110082395 -0.1925262
-0.14493926 -0.0566661 -0.2561259 -0.14495128 -0.013521762 -0.12611496 0.18696328 0.031339325
-0.051621176 -0.24854735 -0.0717986 0.048813954 0.10980883 0.0032992437 -0.16648677 -0.09507687
-0.05742891 -0.15984444 -0.15296955 -0.023030702 -0.10939175 -0.035692975 -0.05696453 -0.12564489
-0.035036195 -0.005947004 -0.211322 0.015739426 -0.03300877 -0.12901384 -0.23514125 0.014473427
-0.00380128 -0.09820569 -0.11341816 0.1124253 -0.102678314 -0.18841685 0.10814628 -0.14100267
0.18130925 -0.094138525 -0.013173736 -0.117449194 -0.1435288 0.17774844 -0.3077535 0.0098625915
-0.119494304 0.018994473 -0.043739513 0.112186454 0.038188796 -0.18548878 -0.19156918 -0.048631456
0.034022894 -0.08786347 -0.16710278 -0.050263375 -0.12356724 -0.034945946 -0.25374174 -0.068704866
-0.03575216 -0.09910236 -0.089615166 -0.14680484 0.0977895 -0.13245325 -0.12868986 -0.199921
-0.343258 -0.00051463704 -0.12831293 0.0042545297 -0.13224876 -0.074494995 -0.009376748 -0.16210306
0.09471824 -0.13169949 -0.03424665 -0.050793838 0.0878529 -0.12890963 0.08974189 -0.08030078
-0.24191633 -0.12843215 -0.047974683 -0.19142558 -0.17482701 0.04266547 -0.013702153 -0.15776055
-0.046821617 0.0018786258 0.018427178 -0.28841168 -0.13404457 0.0155355735 -0.13221979 -0.0476168
-0.14348862 -0.18506573 -0.12758411 0.022811916 0.09381184 0.18304211 -0.05824747 -0.072678104
-0.09695481 -0.021927228 -0.03175315 -0.0034100495 -0.16725877 -0.066721484 -0.060086314 -0.093422346
0.025081666 -0.09739765 0.016734175 0.0063147633 -0.12323493 -0.014584142 -0.105936766 -0.20753638
-0.008507106 0.07237636 -0.05681667 -0.27112845 -0.062413983 -0.17327373 0.1736252 -0.10768238

fc.weight f4 [11, 256]
00000000: 3480 c7be 1e19 75bd 10f4 41be 2217 803d
00000010: 028e f2bc f2d5 96bc b284 203d d05e ae3d
00000020: 0331 1e3d 08eb 063c 8e9f f23d 7676 15bd
00000030: 7742 8dbd 32e2 09bd 042d a53d 0d68 4f3d
00000040: 93d9 d3bb af4a 143d 9f96 b63c a15b 86bd
00000050: 4bd7 99be 867d 87bd 93e7 72be d75a 803d
00000060: 05e8 043d 5273 9abe e4f5 1a3d 1a6d 843c
00000070: 9d65 a1bd 7412 83be e64a c739 0a50 5ebc
00000080: 65fb 863d e272 0f3d 2ee9 633d f69e 0ebc
00000090: 871c 7bbe 56c5 2cbd 4755 c9bb 11ed a1be
000000a0: 032c 0bbe 6a19 973c 4359 b93e 29b9 87bc
000000b0: 8cb7 89bb 655b 8f3d 824e a83d 8625 bebc
000000c0: fce1 ecbc 7922 2bbe 92f1 6bbd 3ad6 553d
000000d0: c16d 7ebd 1b35 763d 641c 3bbc 4ad0 453d
000000e0: a9b5 ccbc 4b0a fe3b f8ca cfbd 5698 a33c
000000f0: 7cf4 b9bc d209 7e3d 2657 473d e375 b3bb
00000100: e677 073d 8c3e be3d e5e0 49be a644 2dbd
00000110: aa00 e23b 5845 543c 9516 413d caa7 063c
00000120: 85be 013e c44c bfbd 9b7e a7bd 134a fb3c
00000130: 9e83 25bd daf8 2abd 898c 9a3c 3189 09be
00000140: 6833 a8bb 2cd6 533d eaf3 1abc d4dd 8a3d
00000150: fdb6 af3d 23f2 04bd 79df 8abe f9b2 03be
00000160: 1ed6 673d 0350 00be 34ee 32bd a147 973d
00000170: f194 12be 1535 993d 3b83 943c 4e13 52be
00000180: 8e59 21be c07b 003d d148 27be a53d 25bc
00000190: cf02 79bd ea77 2f3e a29e 5abe cf6c e93c
000001a0: c01f 81bc 611c 2e3e f986 8ebe 12b5 fcbc
000001b0: 686a 1a3e 3265 8fbe 544f 5d3d dcef f7bd
000001c0: 1766 c93d 54eb c6bd 726b 483d f878 f7bb
000001d0: 3ed0 18be f9ba c43d 4865 923d dfd3 93be
000001e0: 5bbe fe3d d565 093d 4eef 9abd 1e2e 083c
000001f0: 96fb b83e b118 2f3c fd19 3f3d d556 eabc
00000200: 24f9 6d3c 05bf 2ebc ef89 f2ba 2e6e b63d
00000210: 0c5b 34bc 28c3 363d c13f 14be d4c1 043e
00000220: 898f a43d 05ee a9bd 45b1 793d 6408 b53c
00000230: 3177 773d 211f b83d 4c5f 67bc 83be 7cbd
00000240: 1a69 e9bd e5b5 e2bd 1627 0e3d 546e dd3d
00000250: 4dfc a53c 25e0 60be e36e a9bd 3a96 abbc
00000260: c067 bd3d e13b d1bc 8508 ab3d 3436 32be
00000270: 9196 f23a 5040 99bd 0056 04bd 57b1 49be
00000280: 360c 493d 77a8 683d 5dd8 453d 8d1a aebd
00000290: a2d8 c63d 555d 083d e1f1 193c 05d1 993c
000002a0: 0e3b 453d 8039 933d bf83 29bc 1719 943d
000002b0: 5a7c 0fbc e400 c2bc b231 853d f995 43be
000002c0: 1769 a33d 92b5 c2bd 4f2e 8fbd dada 83bb
000002d0: 7330 a73d 7c6f dabc 6652 03bd 2da7 71be
000002e0: 821c 5a3d 09f0 353e 1b8f 1bbe bd5d 1d3e
000002f0: 4253 0fbc 6692 29be 2366 47be b02b 9ebd
00000300: f28a 91bd 333d 9cbe dee1 3ebc e789 913d
00000310: 840c 323d 7a75 2bbe ed96 9fbc 4997 10bd
00000320: f7e3 0a3d 9394 063d 8738 f03c 6079 be3c
00000330: 1e3d 8c3d 6c88 033e dbb5 43be 2e1b b0bc
00000340: 37c3 01bd d41a 253d 862b 49be deb1 f93d
00000350: d86c 063d 10f9 013e 7c00 f23b 64ec 2cbe
00000360: a56e eebc 5fb0 a33d be72 803d 0638 31bd
00000370: f576 8f3d af04 5bbc 6d9c 803d 5093 80bc
00000380: be36 a53d 5c74 e93c 8bdb 2b3d 8d46 72be
00000390: 8df2 163d ebb3 d63c 0a56 e83c a61d d13d
000003a0: 12bf 76bc 37e7 2c3d 7c6a b43c 1c84 12be
000003b0: 767d e2bc 9731 06be 99ba da3c 1eb8 2e3d
000003c0: 69dc c03c 64bb 49bd 2bb4 4dbd 14d2 86bd
000003d0: 1cc9 c03d cb0f 553c 0a37 4a3c 697e ec3c
000003e0: e771 1abe 5900 7cbe 6c61 5d3d 4233 8e3c
000003f0: 4855 8f3d d127 c23a d7a2 d43d 3862 143c
-0.38965 -0.059838407 -0.18940759 0.06254412 -0.02960873 -0.018412564 0.039189048 0.08514178
0.03862096 0.008234747 0.11846839 -0.036489926 -0.06897443 -0.033662982 0.08065227 0.05063634
-0.006465146 0.036204036 0.022288619 -0.065604456 -0.30047068 -0.066157386 -0.23721151 0.06267326
0.032447834 -0.30166107 0.037832156 0.016165305 -0.07880709 -0.25600016 0.00038012041 -0.0135688875
0.065909185 0.03502167 0.0556423 -0.008704891 -0.24522601 -0.04218038 -0.006144199 -0.3162618
-0.13591008 0.018444736 0.36200914 -0.016567783 -0.0042027887 0.06999854 0.08218099 -0.023211252
-0.028916351 -0.16712369 -0.057603426 0.052206255 -0.06211639 0.06010924 -0.011420343 0.048294343
-0.024988966 0.007752692 -0.10146135 0.0199701 -0.022699587 0.062021084 0.048667096 -0.0054766997
0.03307333 0.092892736 -0.19714697 -0.042301796 0.006897052 0.012955986 0.047140677 0.008218715
0.12670334 -0.09340814 -0.08178445 0.03067497 -0.040408723 -0.04174123 0.01886584 -0.1343124
-0.005133081 0.051717922 -0.009457568 0.067805916 0.08579824 -0.032457482 -0.2712362 -0.12861241
0.056600682 -0.12530522 -0.0436842 0.07386709 -0.14314629 0.07480828 0.018128982 -0.20515177
-0.15756819 0.031368017 -0.16336371 -0.010085498 -0.060793694 0.17135587 -0.21349576 0.028494267
-0.01576221 0.17003013 -0.2783735 -0.03084806 0.15079653 -0.28006893 0.05403073 -0.121062964
0.09833925 -0.09712854 0.048930593 -0.0075522624 -0.14923188 0.09605975 0.07148224 -0.28872582
0.12438651 0.03354438 -0.07565175 0.008311776 0.36129445 0.010687039 0.046655644 -0.028605858
0.014524732 -0.01066566 -0.0018504242 0.08907734 -0.011008035 0.04461971 -0.14477445 0.12964565
0.0803519 -0.08297352 0.060960073 0.022098728 0.060416404 0.08990312 -0.014121842 -0.061705124
-0.11397 -0.1106985 0.034705244 0.10812059 0.020261908 -0.21960504 -0.08273103 -0.020945657
0.09248304 -0.025541248 0.08351234 -0.1740349 0.0018508007 -0.0748297 -0.03230858 -0.19696556
0.04908391 0.056801286 0.048302043 -0.08501158 0.09709288 0.033292133 0.009396047 0.018776426
0.048152022 0.07188702 -0.010346352 0.07231348 -0.008757675 -0.023682065 0.06503619 -0.19100179
0.07979029 -0.09507288 -0.069912545 -0.004023892 0.08163538 -0.026664488 -0.032061003 -0.23598929
0.053249843 0.17767347 -0.15191309 0.1536779 -0.008747878 -0.16559753 -0.19472556 -0.077231765
-0.0710658 -0.3051544 -0.011650531 0.07106381 0.043468967 -0.16744033 -0.019481147 -0.035300527
0.03390881 0.032856535 0.02932383 0.023251235 0.06847595 0.1284501 -0.19112341 -0.021497335
-0.031680312 0.04030879 -0.19645509 0.121921286 0.032818645 0.12692666 0.0073853116 -0.16887051
-0.029105494 0.079926245 0.06271885 -0.04326632 0.07005111 -0.013367816 0.06279836 -0.015695244
0.08067082 0.028497867 0.04195742 -0.23659725 0.03685241 0.026208838 0.02836134 0.10210733
-0.015060203 0.04221269 0.022023432 -0.14308208 -0.027647715 -0.13104855 0.026700305 0.042656057
0.0235426 -0.049250975 -0.05022065 -0.06583038 0.094133586 0.013004254 0.012342224 0.02886887
-0.15082513 -0.24609508 0.054047987 0.017358426 0.06998688 0.0014812892 0.10382622 0.00905662

fc.bias f4 [11]
00000000: b8af d93d 2e22 80be 57b9 20be 141b 84be
00000010: a222 56be 6fb8 103e 3a6e 423d 7c03 e7bd
00000020: e6c2 89be 5257 a43d 5dd6 c2bd
0.10629219 -0.25026077 -0.15695702 -0.2580191 -0.20911649 0.14132856 0.0474684 -0.112799615
-0.26906508 0.080244675 -0.09513543
