src/main/python/saved_models/javascript_1_66_CNNClassifier1_64embs_130id_64hd_0hl_Falsebid5kernel0.3dropout_0.pt (torch, 836171 bytes, 9 tensors)

emb.weight f4 [130, 64]
000000 01 ca e8 bf de 95 7d bf 06 9c 26 bf 6f ef f8 bf
       -1.8186647 -0.99056804 -0.6508182 -1.9448069
000010 e6 96 8c be dc 59 81 be d9 66 7b bf ac a5 ed bf
       -0.27458876 -0.2526387 -0.9820381 -1.8566184
000020 73 06 62 bf ef 7b 44 3e 81 73 9c be 0d f3 e0 bd
       -0.8829109 0.19187902 -0.30556872 -0.10983858
000030 09 87 d3 be cc 39 97 3f 21 4b 5c 3d c5 0c 5e 3f
       -0.4131396 1.1814513 0.053782586 0.86738235
000040 07 d3 84 bd 08 b9 72 bf 34 e6 79 3f 0d 00 17 3e
       -0.06485563 -0.94813585 0.9761689 0.14746113
000050 8e 33 98 3e f9 17 a1 3e 14 75 5f bf 70 fc 1a 3f
       0.29726833 0.31463602 -0.8728802 0.6054144
000060 c7 d6 1b 3f ec e0 63 3e cc e5 1c c0 88 c5 b2 bf
       0.608746 0.2225377 -2.4515257 -1.3966532
000070 38 c0 0d 3f 27 60 47 bf 42 12 e7 be af cc 1e 3d
       0.5537143 -0.7788109 -0.45131117 0.03876942
000080 dd 34 f3 3f c7 b0 73 3e d9 c4 a3 3d 5e 42 3b bf
       1.9000508 0.23797904 0.0799653 -0.73148143
000090 1a e6 19 3f 89 c9 74 be 8d 8f bb be 0d 62 78 bd
       0.6011673 -0.23905005 -0.36632958 -0.060640384
0000a0 f0 b4 70 be 66 47 26 3e 5f 0a 1c bf 78 02 81 3e
       -0.23506522 0.16238174 -0.60953325 0.25197196
0000b0 33 da 0f 40 d9 48 a5 bf bd 09 f4 3f db 18 7f bf
       2.2476928 -1.2912856 1.9065472 -0.996473
0000c0 e4 cb 9f bf fd 51 56 3f f1 a5 c6 3e 06 16 40 bf
       -1.2484097 0.83718854 0.38798478 -0.75033605
0000d0 ac e6 de 3e 1b 17 5c 3f 54 ca ac 3f 35 9f cf 3f
       0.43535364 0.85972756 1.3499246 1.6220461
0000e0 c4 a0 c3 3e 5b 83 92 3f ac ac 8b be ef ed 52 bf
       0.38208592 1.1446337 -0.27280176 -0.8239431
0000f0 de 57 ed 3f 94 26 85 be aa cc 52 c0 94 73 f7 be
       1.854244 -0.26005995 -3.2937417 -0.48330367
000100 8a ea d0 bc 7f fc 82 bf 97 9f 18 bf 3b b5 80 bf
       -0.025502462 -1.0233306 -0.59618515 -1.0055307
000110 2e a9 57 be 40 51 f7 bb dd 32 d6 3f fa 74 29 3c
       -0.2106063 -0.0075475276 1.6734272 0.010342831
000120 81 36 34 bf 51 b6 3d be 43 09 7f bf 25 cd 54 bf
       -0.70395666 -0.1852658 -0.9962351 -0.83125526
000130 14 0b ec be 90 61 0f bf f6 88 ca 3e 83 76 7b bf
       -0.46102202 -0.56008244 0.39557618 -0.9822771
000140 1b a9 01 bf 0c 57 cc 3d cd 6a 27 bf 47 50 3b 3f
       -0.5064866 0.099775404 -0.6539734 0.7316937
000150 f5 99 b7 bf 49 35 00 bf 99 c0 2f 3e 3d d5 23 be
       -1.4343859 -0.50081307 0.17163314 -0.15999313
000160 52 5f 82 3e 46 80 00 bf 0b 46 85 bf dd 75 3b 3f
       0.2546335 -0.5019573 -1.0412 0.7322672
000170 02 30 86 bf d1 16 f1 be d3 0f 95 3e 66 cf fe 3f
       -1.0483401 -0.4708772 0.29113635 1.9907043
000180 7b 54 29 3f 51 4f 98 3f 5e 08 51 3f af dc 69 bf
       0.6614453 1.1899205 0.8165339 -0.9135236
000190 74 4c b1 3f 3a 58 50 bf a8 75 6d bf d0 54 8e 3f
       1.3851457 -0.81384623 -0.92757654 1.1119633
0001a0 05 e8 aa 3f ad b1 1a 3f 71 d9 d3 bd 9c d8 1a be
       1.3352057 0.6042736 -0.10344208 -0.15121692
0001b0 87 88 06 c0 c2 b9 1e bf ac 36 bd bf d3 13 91 bf
       -2.102083 -0.62002194 -1.478231 -1.1334175
0001c0 1d b1 5f 3f 29 6d 0f bf 96 94 a4 3f 5e 1b 51 3f
       0.8737963 -0.5602594 1.2857845 0.81682384
0001d0 3d 3b 52 3e 02 37 9c 3e c9 22 09 3f 48 c4 dc be
       0.2053041 0.30510718 0.535687 -0.431185
0001e0 8a b8 23 40 f1 f6 6e be 35 ba 5c bc 48 29 ee 3f
       2.5581384 -0.23336388 -0.01347213 1.8606348
0001f0 f4 7d fd bf f7 37 e6 3f 98 82 d0 3d 44 15 ae 3e
       -1.9804063 1.7985829 0.10181159 0.340006
000200 f1 ef 2b 3f 74 dc d4 bf 01 c2 7c 3e 66 cc 83 3f
       0.67162997 -1.6629777 0.24683382 1.0296752
000210 05 e9 f0 be 17 2d c6 bf af 4d 4e 3f 6d 8e 78 bf
       -0.4705278 -1.548251 0.80587286 -0.97092324
000220 93 0e e2 bf 79 33 de bf 42 62 34 3f 55 bd 4b 3f
       -1.7660698 -1.7359458 0.7046243 0.7958577
000230 69 7a 14 40 74 ba f0 3e f6 3d d8 3f a5 91 c8 bf
       2.3199713 0.47017252 1.6893909 -1.5669447
000240 d4 c7 a0 bf 0b 36 8e bf f1 cf d6 3f b1 b4 42 3f
       -1.2560983 -1.1110243 1.6782209 0.76056963
000250 86 1c 8d 3e 03 66 a9 be b8 8e b1 3e 36 e9 cc bf
       0.27560824 -0.3308564 0.34679198 -1.600867
000260 3b af b4 3e 6d 25 9d 3e 53 93 28 3e f3 fe c0 3f
       0.3528994 0.30692616 0.1646245 1.5077804
000270 18 55 f7 3f 57 58 e7 3f 62 3b 27 bf 8c 92 1b 40
       1.9322844 1.8073834 -0.65324986 2.4308195
000280 76 e6 e3 3e 23 1b 93 bc af 10 88 bf c0 92 fd be
       0.44511765 -0.017957276 -1.0630091 -0.49526024
000290 01 f1 e9 be 70 a9 8c bf 5e 8c 3e 3f 17 16 98 3f
       -0.45691684 -1.0989208 0.74432933 1.1881741
0002a0 f7 2e 2e 3e cf d2 aa 3f b1 48 81 3f 9b b1 ce bf
       0.17010103 1.3345584 1.0100309 -1.6147951
0002b0 8e a8 1a bf ea bc 8e bf 6e 2c 22 3e 3f a1 67 be
       -0.60413444 -1.1151402 0.15837261 -0.22620104
0002c0 fd 85 2b 3f 2c 0f a9 3f 82 12 27 3f a7 c3 b4 3f
       0.67001325 1.3207755 0.65262616 1.4122208
0002d0 6c 93 82 bf 81 0d 92 3e ef 46 85 bd b4 ab 04 bf
       -1.020124 0.28525928 -0.0650767 -0.518245
0002e0 c8 f5 c9 3f d5 d9 d2 bd 9e de 5f 3d b8 4d 94 3f
       1.5778131 -0.102954544 0.054655664 1.1586218
0002f0 8d ba 83 3e 46 a6 a6 3f 7f c2 c4 be e9 4a 53 3f
       0.25728264 1.3019493 -0.3842964 0.8253618
000300 54 48 86 bf 49 14 90 3f c8 fc 13 40 2a 5c ba 3e
       -1.0490823 1.125619 2.3123035 0.3639844
000310 08 18 71 3f 49 8c 04 c0 82 a1 4c c0 3f 64 10 bf
       0.94177294 -2.0710623 -3.1973577 -0.56402963
000320 df 42 49 be 62 40 8d 3f 64 90 ac bf c0 b5 f3 3e
       -0.19654416 1.1035273 -1.3481565 0.47599602
000330 ba d0 d4 bf 71 be bc 3e ca 95 13 3f 4e dc 1d bf
       -1.6626198 0.36864045 0.57650435 -0.61664283
000340 1e 13 01 3f 65 1c 7e 3f d6 40 84 bf fa a2 b3 3f
       0.50419796 0.99262077 -1.0332286 1.4034111
000350 82 f0 14 3f 07 db 06 40 ed a8 1c 40 4f 8a d5 3f
       0.58179486 2.1071184 2.4478104 1.6682833
000360 40 c1 1d bf 81 d2 52 3f 32 88 af 3f c4 ed 90 bf
       -0.61623 0.82352453 1.3713439 -1.132256
000370 11 78 f6 bd 57 a9 81 bd bf 45 c0 3f 8b 65 f4 3f
       -0.120346196 -0.06331127 1.5021285 1.9093488
000380 8d 57 f9 3f bf 07 4e bf 62 6b 59 3e 0f e9 cd bf
       1.9479843 -0.8048057 0.2123237 -1.6086749
000390 2a b5 68 3f f4 fd b9 3f f9 42 16 3f aa 15 33 bd
       0.90901434 1.4530625 0.5869594 -0.043721832
0003a0 01 ff d9 3e 8e eb ad 3e 5f 6f ba 3f 87 ca d1 bf
       0.42577365 0.33968776 1.4565238 -1.6389931
0003b0 ea ac 0c 40 9c 8f fc bf 4a a5 aa bf de 28 66 3f
       2.1980538 -1.9731326 -1.3331692 0.8990611
0003c0 d7 0b 45 3f 05 1b 45 3f 73 c9 b0 3f d0 75 d3 bc
       0.7697119 0.76994354 1.3811477 -0.025813013
0003d0 17 a7 3f bf c5 a4 c9 be 12 c3 8d be 6d 08 93 3e
       -0.74864334 -0.39383522 -0.2768789 0.28717366
0003e0 0d ee 9b 3e e5 19 47 bf c7 97 e4 be 78 95 c3 3f
       0.30455056 -0.77773887 -0.44647047 1.5279989
0003f0 fe c6 fd bc 76 29 d0 bf 00 34 bd be 6e 0e 2a 3e
       -0.030978676 -1.6262653 -0.36953735 0.16607067

conv1.weight f4 [64, 64, 5]
000000 c4 1f 34 be 37 f5 ae bd a0 67 be bd 50 dd 8a bd
       -0.17590243 -0.08542865 -0.09297109 -0.06780493
000010 1b df ef bd 20 f7 e5 bd f5 fe 1e bd e7 0e 01 be
       -0.11712476 -0.11228776 -0.038817365 -0.12603341
000020 ad 18 04 be a5 5f c7 bd d0 fc fc bc a2 e2 c1 bc
       -0.12900038 -0.097350396 -0.03088227 -0.023667637
000030 b1 c6 b8 3d 01 68 a0 3d 69 f3 2b 3e 7f 3a e1 bd
       0.090222724 0.07832337 0.16792072 -0.10997485
000040 eb 3d 58 be 78 40 3f be a7 84 90 3d 4a 30 34 be
       -0.2111737 -0.18676937 0.070565514 -0.17596546
000050 17 e7 3a bd db 60 0c be 88 a5 bc bd 38 ba bf 3d
       -0.04563054 -0.13708822 -0.0921126 0.0936169
000060 51 78 7b 3b 4d a7 bc 3c ea 28 cb 3d 4b ae 25 bd
       0.0038371275 0.023028994 0.09919913 -0.04044942
000070 ad 04 25 bc 56 31 71 ba ea 8b 7f bd 6e 3c 49 3c
       -0.010071916 -0.0009200772 -0.06238929 0.012282474
000080 dd b1 e4 bd 70 f9 84 bd b0 7f e5 bd 9a 2d 1b bd
       -0.11166737 -0.06492889 -0.11205995 -0.037885286
000090 b5 49 66 be 99 5a 7c 3d 9c fe 1b be b3 f1 76 3d
       -0.22489055 0.06160984 -0.15233845 0.060289096
0000a0 35 4b cc bd aa b4 0a 3e 73 b8 e5 ba f0 ab 82 bd
       -0.09975282 0.1354548 -0.0017526284 -0.06380451
0000b0 a4 04 e0 3d 09 db 87 3d d4 1b ee bc c4 79 b7 bd
       0.10938385 0.066335745 -0.029066004 -0.08958772
0000c0 9a 9b c7 bd c0 24 b6 bd 70 4e 92 3d 89 70 d2 bd
       -0.097464755 -0.08893728 0.07143867 -0.10275371
0000d0 3b 8c 7d bd eb 24 f8 bc fe 0e a2 bc 05 2e e7 3d
       -0.061901312 -0.030291041 -0.01978254 0.112880744
0000e0 bc 61 cb 3d a5 36 a9 3c cc be 41 bc 47 12 3b bd
       0.09930751 0.02065594 -0.011825275 -0.045671728
0000f0 95 90 78 bd ea 10 89 bd 3b f7 9e bd c3 49 83 be
       -0.06068476 -0.06692679 -0.07761999 -0.25642213
000100 65 c4 22 be 9e 51 d5 bd ec 5f 36 3e 19 49 0c be
       -0.15895231 -0.10415958 0.17810029 -0.1369976
000110 bc 78 06 3e 25 1f ca 3d de 9f 9c 3e e7 c3 65 bd
       0.13131994 0.098692216 0.3059072 -0.05609503
000120 74 44 08 bd 7d ad ff 3c 8d 41 e6 3c 8f 4b 76 bd
       -0.033268407 0.031210655 0.028107429 -0.060130652
000130 8b 2d 12 3d 45 a7 05 3e 07 ff ca 3d bb 98 81 3c
       0.035687964 0.1305209 0.09911924 0.015819898
000140 8f 9c 8e 3e d1 9f 35 3e 44 d4 3c be e9 4e 21 bd
       0.2785382 0.17736746 -0.18440348 -0.039381895
000150 d7 d4 18 bc 1e a7 b8 3c 54 21 88 3e 3e bd 44 be
       -0.009328089 0.022540625 0.26587927 -0.19212815
000160 22 22 38 3e 5d 5f ab 3c 04 06 a1 be 4b 67 df bc
       0.1798177 0.020919496 -0.31449902 -0.027270934
000170 55 b3 62 be a1 d6 47 bd 1f 08 3a be 4f 68 0e 3d
       -0.22138722 -0.04878867 -0.1816716 0.034767445
000180 3c 88 e4 bc 17 30 98 bd 30 7d 96 bd f5 74 1c 39
       -0.027896993 -0.074310474 -0.07348096 0.00014920889
000190 c6 04 5c be b6 56 88 bd 75 ac 99 bd ad f1 9a bd
       -0.21486196 -0.06657164 -0.07503597 -0.07565627
0001a0 33 3e 66 be 26 c6 9a bd 42 33 13 3e 64 00 19 3b
       -0.22484665 -0.07557325 0.14375022 0.002334618
0001b0 db 40 38 be 23 b6 74 3b ad 3a 67 bd 44 ec c8 3d
       -0.1799349 0.0037340007 -0.056452442 0.09810689
0001c0 56 b9 15 3e 2c 0d 95 3c 49 ef bf bd be ae 7d 3d
       0.14621481 0.018194757 -0.09371812 0.061934225
0001d0 28 f6 a8 bd 4e b3 9e bd d0 62 91 bd 41 1d 00 bd
       -0.082500756 -0.077490434 -0.07098925 -0.0312779
0001e0 67 a1 f3 3c 2e 1e 72 3d 12 92 a4 3e 0a 65 10 3e
       0.029740049 0.059110813 0.32142693 0.14101043
0001f0 2e 05 d6 bc ff c8 03 3e 9f f8 23 bc ef ae 3d 3d
       -0.026125517 0.12869643 -0.010008006 0.046309408
000200 6f c7 0d be fa fd c0 3d 89 a0 3b 3e b2 22 72 bd
       -0.13845609 0.09423442 0.18322958 -0.05911512
000210 8f e6 68 be 9a 2b ea bb f5 9b 97 3d f6 c1 84 bd
       -0.22744201 -0.007146311 0.07402793 -0.064823076
000220 3c c9 9f 3d c8 6d 21 be 1a 0a b4 bc 07 6a 88 bd
       0.07802054 -0.15764534 -0.021977473 -0.06660848
000230 28 71 5b 3d e9 9f 34 bd 26 a1 b2 be 44 84 92 3d
       0.05357471 -0.044097815 -0.34888572 0.07154134
000240 52 e9 e7 3d 43 03 45 bd ae c1 24 be c8 c2 fb bc
       0.11323799 -0.048098814 -0.16089508 -0.030732527
000250 e4 ad 66 bd 5e fd 7b 3d a8 97 4c be f3 ac 60 3e
       -0.05631818 0.061520927 -0.19979727 0.21940975
000260 b4 a9 b6 bd 53 6e 03 3e 28 6f db 3b d9 68 8b 3d
       -0.08919087 0.12835054 0.0066966005 0.068071075
000270 ec 66 83 3e 5e b2 62 be be a1 f4 3c 80 45 29 3d
       0.2566446 -0.22138354 0.029862281 0.041326046
000280 df e1 cc bd d7 8a e8 3d a6 16 ce 3d da b8 2e 3d
       -0.10004019 0.113546066 0.100629136 0.042656757
000290 d2 46 b6 ba 38 12 be 3d c5 60 c9 bd 12 66 85 3d
       -0.0013906604 0.09280819 -0.098329104 0.06513609
0002a0 2c 08 fe bd 40 2b 53 be a0 f2 88 3d e9 2f bb bb
       -0.124039024 -0.20621967 0.06686902 -0.0057124984
0002b0 e1 ef 26 3e 06 0a 20 bd 5d f6 5d 3e 4d 9b 06 be
       0.16302444 -0.03907206 0.21676011 -0.1314518
0002c0 85 71 27 bd 6d 08 e7 bb be 33 1f 3e 84 02 7d 3e
       -0.040879745 -0.007050565 0.15547082 0.24707991
0002d0 1b 95 c0 3d bd 15 30 3e 25 63 f6 3d e7 cb 16 be
       0.094034396 0.17195792 0.12030629 -0.1472622
0002e0 db a8 3c 3d f2 79 ce be a5 7b 90 bc fa 99 c6 bb
       0.04605947 -0.40327412 -0.017637083 -0.006060836
0002f0 e2 98 87 bd 69 0a 4d be af f0 52 be 20 46 bc bd
       -0.06620957 -0.20023502 -0.20599626 -0.09193063
000300 08 d5 47 3e e7 d7 4d 3d 64 ee 33 be 9f 5d 1d 3d
       0.19514859 0.05025473 -0.17571408 0.038419362
000310 76 2e 7e 3e 28 80 6d 3e 2a fc 15 3e 9f 3c fc 3d
       0.24822411 0.23193419 0.14646974 0.1231625
000320 71 2e 5c 3e 0e 85 42 3c 92 ac f4 3a 10 6f 8c 3d
       0.21502091 0.011872543 0.0018667153 0.06857121
000330 bb 2b 44 3e c3 8a d1 bd fa 00 ef 3d d2 0e 5b bd
       0.19157307 -0.10231545 0.11670108 -0.05348093
000340 93 c3 54 3c 4f 0c 10 be a2 b6 e0 bd 8b d6 20 be
       0.012986082 -0.14067195 -0.109723344 -0.15706842
000350 c4 bb 6e be 28 d4 bd 3c fe 82 39 be 3a 79 ce 3c
       -0.23313814 0.023172453 -0.18116376 0.02520429
000360 9e f7 53 3d d8 74 4a be 2c 3a 2f be 1a 5e 80 3c
       0.051749818 -0.19771135 -0.17112035 0.015669871
000370 08 bf da 3b 00 d6 d4 3c ff eb 1e 3c d9 e8 23 3e
       0.0066756047 0.02598095 0.009699821 0.16006793
000380 06 c4 2f 3e 29 95 08 3d 01 fd 4f bb b8 4f 16 3e
       0.17164621 0.033345375 -0.0031736495 0.14678848
000390 46 60 7e bd 01 96 4f 3d 2b d3 5d 3e 8a 83 79 3e
       -0.062103532 0.050680164 0.21662585 0.24366584
0003a0 ef 8a f4 bd cc 9c 7f bd 0d d1 25 be 16 1b 5b bd
       -0.11940562 -0.062405393 -0.16193028 -0.053492628
0003b0 b6 b7 1e be 7d 3a ce 3c 65 27 ff bd 6d ba 5d 3e
       -0.15499768 0.025174374 -0.12458686 0.21653147
0003c0 08 85 de ba 02 4f 60 bd 30 4b eb 3c 38 68 db bd
       -0.0016976902 -0.054762848 0.028722376 -0.107132375
0003d0 9b ef 08 3e c1 16 c6 bd ed 03 1b bd 34 4a 39 bd
       0.13372652 -0.09672309 -0.03784554 -0.04523678
0003e0 27 15 5c be d0 d6 dc bd 80 85 82 bd 09 80 c1 bd
       -0.21492444 -0.1078316 -0.06373119 -0.09448249
0003f0 97 a7 62 3e 18 11 9d bd fe f9 ad 3d e2 71 7a 3d
       0.22134243 -0.07669276 0.08494948 0.061143763

conv1.bias f4 [64]
000000 12 8b 6b be b0 3c 39 be 71 8c ee bb a3 46 db bd
       -0.2300227 -0.18089557 -0.0072799255 -0.10706832
000010 4b e4 99 be e8 9c 46 be 96 a6 88 be af c9 35 be
       -0.30056986 -0.19395792 -0.26689595 -0.17752717
000020 1f 18 35 be e8 3f 81 be 20 0c 70 be 20 c2 3a be
       -0.17684983 -0.2524407 -0.23442125 -0.18238115
000030 51 60 76 be f6 6e 8a be 25 79 43 be 68 9e 47 be
       -0.2406018 -0.2703778 -0.19089182 -0.19494021
000040 1f ac 52 be 96 a1 4a be 92 1b 6a be 87 dd 7b be
       -0.20573471 -0.19788203 -0.2286208 -0.24596225
000050 e7 d4 c1 bd 06 4f 7f be 12 cd 2c be f1 bb 38 bd
       -0.09464436 -0.24932489 -0.16875103 -0.04510111
000060 3c 9d 34 be aa d0 8e be 40 65 52 be 56 9d 9a bd
       -0.17638105 -0.27893573 -0.20546436 -0.07549541
000070 46 a8 92 bd 0d 64 8e be 8c c5 4f be 34 00 2c be
       -0.07161002 -0.27810708 -0.20290202 -0.16796952
000080 f4 48 3e bd 60 7c 62 be a5 2e 4f be 1e 92 43 be
       -0.046456292 -0.22117758 -0.20232637 -0.19098708
000090 f9 3e a0 be f3 ed 09 bd 38 ad c8 bd c3 1c 37 be
       -0.31298044 -0.03367419 -0.09798664 -0.17882065
0000a0 b3 80 53 be 10 00 26 be 91 58 18 be bb 1d f9 bd
       -0.20654564 -0.16210961 -0.14877535 -0.12163874
0000b0 c2 14 3e be 85 91 78 be 8e 9a 27 be d0 4f 89 be
       -0.18562606 -0.24274261 -0.16367552 -0.26818705
0000c0 8a ad 97 be ac 4a 8d be 30 d5 e2 bd 23 aa 57 be
       -0.29624587 -0.27596033 -0.110758185 -0.21060996
0000d0 b8 ec 05 be 5f ef 6c be f2 a5 d1 bd ca 71 80 be
       -0.13078582 -0.23138188 -0.1023673 -0.25086814
0000e0 c6 8e 85 be ba ff 79 be 84 b2 53 be f1 72 40 be
       -0.2608549 -0.24413958 -0.20673567 -0.18793847
0000f0 46 7f c7 be 96 35 ee bd e4 06 9e be 68 14 57 be
       -0.3896429 -0.116313145 -0.30864632 -0.21003878

conv2.weight f4 [64, 64, 3]
000000 94 f5 ff 3c eb 88 1f bd af aa 96 bb 7b 64 0e 3e
       0.03124503 -0.038948935 -0.004597984 0.13905518
000010 b3 3a 37 be 2c 49 4c be 00 58 b1 bd c7 63 8f 3d
       -0.17893486 -0.19949788 -0.08659363 0.07001453
000020 77 ae ae 3d bf 07 d9 3c 06 a4 df 3d 9e 2e 11 bd
       0.0852937 0.026492951 0.10919957 -0.03544485
000030 ea 42 74 be be 95 ad 3d b0 5f 26 bc ff a5 ce 3c
       -0.2385365 0.08475827 -0.01015465 0.025225637
000040 b9 1a 07 3e ea 87 e4 3d 31 2f 3f 3d f8 08 42 3c
       0.13193788 0.11158736 0.046675865 0.011842959
000050 ea 55 6f 3d d7 46 98 3c 2d a6 c5 3d 62 80 39 bd
       0.058431543 0.018588467 0.09650836 -0.04528845
000060 1d 52 4a 3d 7f df f8 3d 8f d5 c5 3d aa ec f8 bd
       0.049394716 0.121520035 0.09659874 -0.12154515
000070 ab ab 3a be 14 8d aa be 90 4d a0 bc d6 8c 11 be
       -0.18229549 -0.3331076 -0.019568235 -0.14213881
000080 16 be e6 bd 0e 97 58 3d a6 9e 90 bb 82 5b fc bc
       -0.11266725 0.052878432 -0.0044134436 -0.030805353
000090 98 01 e9 bd ff 48 fa bd 65 d6 8c 3d 43 cb f6 3d
       -0.11377257 -0.12220954 0.0687683 0.12050488
0000a0 59 b5 0c 3e 3f 39 bc 3c c2 c4 81 bd 94 1c 85 bd
       0.13741054 0.022976516 -0.06336357 -0.064995915
0000b0 e3 06 16 bd 01 a1 1d bd 81 5f 7e be 56 b1 71 bd
       -0.03662766 -0.038483623 -0.2484112 -0.05900701
0000c0 46 70 5b 3d 94 04 85 3c 67 ab 83 bd 55 86 ce 3a
       0.05357387 0.016237535 -0.06429177 0.0015756587
0000d0 43 b0 fc bc 2d f2 6d 3e b0 ae ce 3d 91 d8 38 be
       -0.030845767 0.23236914 0.10091913 -0.18051364
0000e0 ec 82 24 be d0 22 4e 3e 28 ce ce be 93 f4 18 bd
       -0.16065568 0.20130467 -0.4039166 -0.03734262
0000f0 f8 57 a0 bd 17 94 62 3d 1a a5 34 3d d6 7f 6d be
       -0.07829279 0.05531701 0.044102766 -0.23193297
000100 16 28 83 3d d5 49 98 bd 70 2e ae bd 99 36 3a bd
       0.0640413 -0.07435957 -0.08504951 -0.045462225
000110 a3 f4 27 be 80 33 84 bc 72 81 21 3e 8d 2f 5c be
       -0.16401915 -0.016137838 0.15772036 -0.21502514
000120 c2 ce 0f 3e dc f6 61 3a 0c 72 73 bc a8 1f f8 bc
       0.14043716 0.0008619854 -0.014858734 -0.030288532
000130 c9 fd 14 bd c4 f8 e2 3d 4e a8 6f be 17 2e 1e bd
       -0.03637484 0.110826045 -0.23404047 -0.038618173
000140 d0 7c dd bd 8b 3b 39 3d cc b5 35 3d a5 b9 d7 bc
       -0.10814822 0.0452228 0.044362828 -0.02633364
000150 1c a9 36 3c 7e 45 a3 3c 53 c3 05 3e 3d a0 0d be
       0.011148717 0.019930597 0.13062792 -0.13830657
000160 69 96 86 be f3 96 6e be d5 6d e6 3c 83 4e 21 3d
       -0.2628663 -0.2329977 0.028128544 0.039381515
000170 a5 f1 9c 3c c8 6d 25 3e 10 62 8b 3d b1 e5 b8 bd
       0.019158194 0.1615516 0.06805813 -0.09028185
000180 39 71 39 3d 0d 0f c3 bc 87 3c d7 bb 13 3f c7 bd
       0.045273993 -0.023810888 -0.0065684947 -0.09728827
000190 39 d3 c5 bd 42 c8 08 be 02 af a0 3e 68 b9 4a 3c
       -0.09659428 -0.13357642 0.3138352 0.012373306
0001a0 0d 14 5b 3d d0 4a a3 3d d5 03 3c 3b 00 83 59 3e
       0.05348592 0.07973254 0.0028688808 0.21241379
0001b0 8b a8 86 bd c8 69 88 bd 9a 90 e0 3d b0 2f 87 3d
       -0.06575116 -0.06660801 0.109650806 0.066008925
0001c0 1b 35 9d 3d 44 80 d8 bd 7f 68 ec bd 1a b1 8d bd
       0.07676145 -0.1057134 -0.115433685 -0.06918545
0001d0 23 e5 c5 bd b5 9e 5b bd 6e d4 5c be a8 a0 c0 3d
       -0.09662845 -0.05361815 -0.2156541 0.09405643
0001e0 be 3b ea 3b 5c 7e fd 3d e1 d9 a9 bd a0 bc e6 bd
       0.007148235 0.12377617 -0.0829351 -0.11266446
0001f0 8b 32 9a 3d 6c 2d cf 3d 2b 4c b1 bd 7e 01 d5 bd
       0.075291716 0.101160854 -0.08657106 -0.10400675
000200 72 4a cf bd 61 4b 4f bd 02 ca 32 be cc bf 9e be
       -0.10121621 -0.050608996 -0.17459872 -0.31005704
000210 7f 13 0f be b7 d2 73 bd 6b cb 6f bd cd cd 37 bd
       -0.13972281 -0.059527125 -0.058543604 -0.044874
000220 fc 68 14 bc 31 72 0b 3e 12 d2 ec 3c 27 93 ae 3c
       -0.009058233 0.1361778 0.028908763 0.021310402
000230 dc 0c ed 3d c2 21 ed bd 77 21 00 be 5c 4e 3b be
       0.11574718 -0.115787044 -0.12512766 -0.1829161
000240 e8 f5 31 3e 27 e3 e8 3d 39 54 0f 3e e5 b5 9b 3d
       0.17378962 0.11371451 0.13996972 0.07603053
000250 fc 4f 23 bd d2 b9 91 3d 03 6b 5d be 6b 4e ca 3d
       -0.0398712 0.071155205 -0.21622853 0.09878238
000260 fc f8 f3 3d b4 f7 db 3d fb 09 c9 bb 2f 89 6c be
       0.119127244 0.10740605 -0.006135223 -0.23099206
000270 db eb 48 3d 1a 30 94 bc eb 45 2c be 18 8d 02 bc
       0.049053054 -0.018089343 -0.16823547 -0.00796821
000280 02 b5 b1 3d 4f 7b 29 3d be 5b 45 bd c4 ef 84 3d
       0.086771026 0.041377362 -0.048183195 0.06491044
000290 a5 51 2c 3d 6c 9d b6 bd aa f1 9f 3c da 6e 33 3e
       0.04207005 -0.089167446 0.019524414 0.17522755
0002a0 67 12 88 3d e5 c3 a3 3d 4c 66 7d 3e b2 50 02 be
       0.06644135 0.07996348 0.24746054 -0.12726095
0002b0 4f e5 60 3d 07 8a 8a 3d 84 61 14 bd 96 48 d4 3d
       0.054906186 0.06764608 -0.03622581 0.10365407
0002c0 89 59 59 bc 9a 7e c8 bd 9b c5 73 bd 8f 99 14 be
       -0.013265976 -0.09789772 -0.059514623 -0.14511703
0002d0 f8 52 7d 3c a1 34 ef 3d f9 0e 7f bc d3 db c2 3d
       0.015461676 0.1167996 -0.015567535 0.095145844
0002e0 30 e2 01 be 5d cd ca 3c c2 20 04 3e 75 2f d3 bc
       -0.1268394 0.024756128 0.12903121 -0.025779465
0002f0 8d c6 c7 bd 28 c5 33 be 60 8e d1 3b 63 4b a6 3d
       -0.097546674 -0.17555678 0.0063951463 0.081198476
000300 c8 29 7f 3c 3a c4 ee bd 7d c5 3a bd 5b 89 64 3d
       0.015573926 -0.11658521 -0.045598496 0.055795055
000310 38 a7 84 3e b3 2a 86 3b 38 6a 75 3e 5b 66 4c 3e
       0.25908828 0.0040944456 0.239663 0.1996092
000320 99 be 97 3d 94 88 ca 3e 6b d3 3c 3e 53 aa f1 3d
       0.074094005 0.39557326 0.18440025 0.11800065
000330 77 fd f8 3d 03 de 22 bd f3 aa 0d bc 37 c6 cf 3c
       0.121577196 -0.039762508 -0.0086467145 0.02536307
000340 5f c8 9a bd 00 38 cc bd 97 61 a5 3c 29 e6 66 be
       -0.07557749 -0.09971619 0.020188136 -0.22548737
000350 29 3c 39 be 03 b8 73 be fb e4 ae be c7 49 b8 bd
       -0.18089356 -0.23800664 -0.34159073 -0.08998447
000360 37 b5 fe bd 68 8b b7 3c b6 a4 a0 bd 05 2c d2 bd
       -0.12436908 0.022405341 -0.07843916 -0.10262302
000370 6d b5 a5 3d 65 ab 3a 3d fe dd c4 bd 4c 59 ca bd
       0.08091245 0.04557361 -0.09612654 -0.09880313
000380 e2 89 52 3e 3e 7b 2e 3e 14 81 b8 3d 77 60 19 bd
       0.2056041 0.170392 0.09008995 -0.03744551
000390 f4 a7 d4 bd 15 da 27 be 4b 91 32 bd ca f8 57 3e
       -0.10383597 -0.16391785 -0.043595593 0.21090999
0003a0 54 30 44 bd 3d 62 5c be 89 c0 09 3b 21 57 2e 3d
       -0.04789765 -0.2152185 0.00210193 0.04256356
0003b0 ea 19 5f 3d dd a1 41 b9 a1 d8 d0 bc b8 7b 54 3d
       0.054468073 -0.00018466213 -0.025493922 0.0518758
0003c0 34 1f fa bd dc b9 b0 3e d0 17 03 bd 04 2d 28 bd
       -0.12212983 0.345168 -0.03200513 -0.041058555
0003d0 45 a6 5d 3e 0d 3d 47 3d 17 fd 5c 3d 56 5b 0a be
       0.21645458 0.048642207 0.053952303 -0.13511404
0003e0 fa 65 86 bd 23 aa 2c be 3e ee 0e 3e e0 1e 5f be
       -0.06562419 -0.16861777 0.1395807 -0.21789122
0003f0 e4 93 8d bd d1 c9 1f 3e 94 4a b1 bd c3 5d 0b be
       -0.069129735 0.1560433 -0.08656803 -0.13609986

conv2.bias f4 [64]
000000 b9 44 88 be e0 ab 24 be ed 88 22 be 8d 48 4d be
       -0.2661493 -0.1608119 -0.15872546 -0.20047207
000010 4b dd d9 bd 02 97 bb bd 96 c5 96 be 0d 35 2f be
       -0.106379114 -0.09159662 -0.2944762 -0.17110081
000020 84 43 80 be f7 60 95 be 5d 18 cc bd f8 a9 6b be
       -0.2505151 -0.2917554 -0.099655844 -0.23014057
000030 3e 2d 86 be 57 de 6d be c8 5a 4f be 6d d0 b5 bd
       -0.26206392 -0.23229347 -0.20249474 -0.08877645
000040 4e bc bb bc 59 af a6 be 59 79 04 be c0 48 7f be
       -0.02291694 -0.32555655 -0.12936915 -0.24930096
000050 a3 7b 49 be 13 8f 3a be b7 9a d7 be 82 67 2e be
       -0.1967607 -0.18218641 -0.42110226 -0.17031673
000060 f5 af a5 3c 5c 8e c2 bd f5 61 55 be b7 4f 16 be
       0.020225504 -0.09499809 -0.20838149 -0.14678846
000070 e6 44 4c be 96 7a db bd 7c 0b 38 be 2c df 6b be
       -0.19948158 -0.10716741 -0.17973131 -0.23034352
000080 b0 5c 3f be 94 fb 66 bd 55 6c 8b bd 66 34 11 be
       -0.18687701 -0.056392267 -0.06807772 -0.14180145
000090 e9 e2 b4 bc 73 8a 8f be bd e8 0e be 86 46 af bd
       -0.022080855 -0.28035316 -0.1395597 -0.08558373
0000a0 13 5c 6e bb f5 69 4c bd 73 87 31 be 2d d3 67 be
       -0.0036370798 -0.049905736 -0.17336826 -0.22639151
0000b0 fb 62 8b be b0 d7 01 bd 39 3f 61 3d 2d d1 93 be
       -0.27223954 -0.031699836 0.054991934 -0.28870526
0000c0 0a 8e f6 bd c4 42 89 be 06 e9 0c be bb 61 d9 bd
       -0.120388106 -0.2680875 -0.13760766 -0.10614344
0000d0 8f 24 4e be 48 2d 4e be 57 5f 61 be b8 8f 20 bd
       -0.20131133 -0.20134461 -0.22009026 -0.03919956
0000e0 4d 48 51 be a7 51 1a be ad e4 a2 be e8 50 85 bd
       -0.20437737 -0.1507021 -0.3181509 -0.06509572
0000f0 f1 eb 4f be e7 21 ad bd 64 72 5a be ac ed 9f be
       -0.20304848 -0.08453732 -0.21332699 -0.31236017

conv3.weight f4 [256, 128, 5]
000000 30 38 16 3d 8e 61 6b bd b3 c4 e2 bd f6 eb 86 be
       0.03667468 -0.057466082 -0.11072674 -0.263519
000010 c2 98 cc bc 5d 83 da 3d 7a 3c ca 3b d8 53 13 3d
       -0.024975184 0.10669587 0.00617176 0.03596863
000020 a3 27 0f 3d 47 b7 c5 3c ce 57 ed bd d7 9e c5 bc
       0.03494991 0.024135245 -0.11589013 -0.024123592
000030 ba 99 48 bd 0d dd bc bd 61 3e 0e 3e 85 fc 04 be
       -0.04897473 -0.092218496 0.13890983 -0.12986954
000040 d3 03 08 bb c0 24 c6 bd 7a ad 1c 3d 92 c9 1e bd
       -0.0020754233 -0.09674978 0.038251378 -0.03876645
000050 45 49 4e be 6c 63 49 3d a3 06 a5 bc 69 b7 3d bd
       -0.20145138 0.04916708 -0.020144766 -0.04631749
000060 fd 8b 51 bd c5 d0 03 3e a6 28 22 3d 46 ab 79 3d
       -0.051158894 0.12872608 0.039589547 0.060954355
000070 48 88 76 be fa 3e 1b bb a4 a4 18 3c 7d 78 f5 bd
       -0.24075425 -0.002368866 0.009316597 -0.11985872
000080 6e 58 00 bf e8 a4 ea 3d bd 0b cb 3b 3e 2c af bd
       -0.50134933 0.114572346 0.0061964677 -0.085533604
000090 1c e2 54 bd 47 e3 31 3e da cd 24 be 1f 78 15 3d
       -0.051973447 0.17371856 -0.16094151 0.03649151
0000a0 aa be e0 bd f1 70 24 3e fd c6 20 be f9 ed 65 bd
       -0.10973866 0.16058709 -0.15700908 -0.05613515
0000b0 31 a5 de 3d 43 0d d4 3d 15 8e 80 be 6f 9c 27 be
       0.108713515 0.10354092 -0.251084 -0.16368268
0000c0 bc 5f 04 be 14 cf 13 be bd 49 53 bd 28 6f ed 3d
       -0.12927145 -0.14434463 -0.051583994 0.11593467
0000d0 47 50 b0 3c 1d 28 c9 bd e7 cb 01 be 6b e9 3f 3e
       0.021522654 -0.09822104 -0.12675439 0.18741386
0000e0 60 7c 52 3c dc e1 8a bd 28 af f8 ba 1d ff ab 3b
       0.012847036 -0.067813605 -0.0018973099 0.0052489177
0000f0 6e 78 a6 3d c4 9c ea bd 8b 3c 15 bd 15 ce 04 be
       0.08128439 -0.11455682 -0.03643469 -0.12969239
000100 79 f8 f9 3d f2 b0 65 3e a6 a1 bc bb cb c1 6d 3d
       0.122055955 0.2243078 -0.0057565747 0.058046144
000110 40 56 a5 bd c1 bd 3b 3e 8f f1 2c be cd ce 7c bc
       -0.080730915 0.18334104 -0.16889022 -0.0154301645
000120 1d e8 23 be e9 95 e0 bd c0 28 3e bd 32 36 e8 3d
       -0.16006513 -0.10966093 -0.04642558 0.11338462
000130 f1 94 84 bd 95 ff b1 bd ce 42 c2 bd d4 c2 30 be
       -0.06473721 -0.086913265 -0.09485398 -0.17261821
000140 ca e5 ec bd dd a8 d3 bc d2 fa aa bd 0e 04 46 be
       -0.11567266 -0.025837356 -0.083486214 -0.19337484
000150 d6 b5 65 be 6e d1 2f bd f9 c5 2a be 05 ca 04 be
       -0.22432646 -0.042924337 -0.16677083 -0.1296769
000160 f3 94 f2 bc dd 14 c5 3b ec 38 e4 3c 32 6d 16 3d
       -0.02961204 0.00601445 0.027859174 0.03672523
000170 af 35 98 be 32 32 d1 3d 0c 37 85 3d d6 33 f2 3d
       -0.29728457 0.10214652 0.0650464 0.11826293
000180 39 02 ae 3d 31 a4 35 be d4 c7 d2 bd a2 8a 12 3d
       0.08496518 -0.17738415 -0.102920204 0.03577674
000190 4f 85 27 bd 0a 05 9c be 87 b7 68 bc 2e ef 22 be
       -0.040898617 -0.30472594 -0.014203913 -0.15911552
0001a0 e5 bc 15 bd 5b 94 15 be db 23 df bc 55 ef 95 bd
       -0.036557097 -0.14607374 -0.027238777 -0.073210396
0001b0 7e 25 95 be 77 5e cf 3c 83 82 ef bb 7c 14 b1 bd
       -0.29130167 0.025313599 -0.0073092594 -0.08646485
0001c0 36 1a 35 bd 05 0c 46 3d 9d 0c 8e bd c9 5a 86 3e
       -0.04421445 0.048351306 -0.069359995 0.2624114
0001d0 70 af 75 3b e9 49 f8 bc 6e c6 06 be b7 7c 3b be
       0.0037488602 -0.03030868 -0.13161632 -0.18309294
0001e0 e4 2e 7f 3c 1d 1e 31 be d6 8a b8 be c7 4e 15 be
       0.015575144 -0.17296644 -0.36043423 -0.14580832
0001f0 fe 25 ed bd a3 d1 3f be e5 8e f8 bd 4c 51 b4 be
       -0.11579512 -0.18732314 -0.1213663 -0.35218275
000200 67 83 f6 3c e0 67 04 be 50 34 3d be 27 00 38 be
       0.030091954 -0.1293025 -0.18476987 -0.17968808
000210 b8 8a d7 bc 4e b0 b5 bd 15 d9 c2 bd 1d 5d 04 3e
       -0.026311263 -0.08871518 -0.09514061 0.12926145
000220 3b bc d0 3c 2e 78 c9 3d cb f0 63 ba 54 ee 7a 3d
       0.02548038 0.098373756 -0.0008695244 0.061262444
000230 8d 91 8c 3d 3e d2 c4 bd 93 20 85 bc 7f 70 0d be
       0.06863699 -0.09610413 -0.016250884 -0.13812445
000240 7e 2f 4a 3d 7a e3 5c bd 30 7b a5 be bc b5 d2 bd
       0.0493617 -0.053927876 -0.32320547 -0.10288569
000250 73 a6 1b 3e aa 5d 81 3c 5e ef 27 bd a0 83 47 bc
       0.15200214 0.015791733 -0.040999763 -0.012177378
000260 36 54 87 bd 6b 25 59 bc 4e ab 69 be 72 53 9f 3d
       -0.06607859 -0.01325355 -0.22819254 0.07779588
000270 1b 2e 03 be fb 7c 31 be 5b 11 82 be 76 12 17 3c
       -0.12810557 -0.17332833 -0.25403866 0.00922071
000280 60 94 1c 3d ed fa 05 be d0 13 f2 bd f1 23 82 bd
       0.03822744 -0.13084002 -0.11820185 -0.063545115
000290 92 96 00 bd c4 e5 2a 3d 3c 57 08 be 55 1c b6 bd
       -0.031393595 0.041723028 -0.13314527 -0.08892123
0002a0 3a 43 7b bd 20 83 7a 3c 9b ed f7 3c c9 bc 32 3c
       -0.06134341 0.015290052 0.030264666 0.010909268
0002b0 88 02 1e be d0 c1 92 3d 99 7b fe 3d 71 35 b0 bd
       -0.15430653 0.07165873 0.12425918 -0.08603943
0002c0 32 3a c5 bd 55 43 18 be d9 fd 06 be 55 cb 51 3c
       -0.096302405 -0.14869435 -0.13182773 0.012804826
0002d0 73 7e ed bb 26 76 0c be 1e ba 79 bd 4c 7f 34 bd
       -0.00724774 -0.13716945 -0.06096851 -0.044066712
0002e0 78 31 44 ba 35 1d 0d 3d 72 ac c1 bd de d1 a0 bd
       -0.0007484178 0.034451682 -0.094567195 -0.07852529
0002f0 45 24 f9 3d e6 30 5b 3b 80 88 a1 bc 76 e1 8e bd
       0.12165121 0.0033445894 -0.019718409 -0.06976597
000300 b3 0c 0e be e9 71 75 be 69 74 1e 3d 33 f0 3b be
       -0.13872032 -0.23969235 0.038685236 -0.18353347
000310 27 70 dd 3d 11 c1 13 be 05 17 b8 bd 41 f6 87 3d
       0.10812407 -0.14429118 -0.089887656 0.06638766
000320 af b1 4b bd 40 97 24 3e 08 d2 a1 3d 5e b9 cc 3d
       -0.04973 0.16073322 0.079013884 0.099962935
000330 a7 70 65 bc 88 d1 60 3a 8b 1f 47 be 7a 78 15 be
       -0.014003909 0.00085761445 -0.19445626 -0.1459674
000340 8a 1c a4 be 30 f2 6e 3b 5c 42 32 bb 74 2c c6 bd
       -0.32053024 0.0036460273 -0.0027200198 -0.096764475
000350 0e 63 0c 3c 4c d0 c4 3d bd 2d 0c 3e 90 45 80 be
       0.008568538 0.09610042 0.13689323 -0.25053072
000360 14 58 4b be fc 6c 42 3d 8a 38 43 be 9f 7b 83 bd
       -0.19857818 0.047467217 -0.19064537 -0.06420063
000370 30 bd ae 3d 81 e9 1d be 60 fd 93 bd 5e 12 ca 3d
       0.085321784 -0.15421106 -0.07226062 0.098667845
000380 a3 4c 16 3d 47 98 24 3d 0a ce d2 bd f7 07 a1 3d
       0.03669418 0.040184285 -0.10293205 0.07862847
000390 f7 a4 c2 bc 09 1d 84 3d c9 15 11 bd 57 37 91 be
       -0.023760302 0.064508505 -0.035421167 -0.28362533
0003a0 42 68 3b be 4b 36 b3 be 3b 02 0e be b3 e1 9e 3b
       -0.1830149 -0.3500236 -0.13868038 0.004848683
0003b0 25 65 16 be 1d 22 82 3c 66 16 ad 3d 12 f4 8b 3d
       -0.14687021 0.015885407 0.08451538 0.06833662
0003c0 29 25 2c 3d de 2a 5b bd f8 9d d2 bb 6c 1d 09 bb
       0.042027626 -0.05350768 -0.0064275227 -0.0020922078
0003d0 8c 29 b9 bd 14 dd 9e 3d de a0 8d 3c 98 e7 35 be
       -0.090411276 0.07757011 0.017288622 -0.17764127
0003e0 27 d4 47 3e df 8d 34 bd 13 21 97 bc f8 8c 4e be
       0.19514523 -0.04408061 -0.018448388 -0.20170963
0003f0 4b e8 5e b9 59 f8 72 bd 52 08 01 be d2 0f b4 3d
       -0.00021258106 -0.059318874 -0.1260083 0.0879208

conv3.bias f4 [256]
000000 ce aa 89 3d 70 0b 5f bd c0 90 4e bd b7 ff 1f bd
       0.067220315 -0.054454267 -0.050431013 -0.039062228
000010 a3 85 0b 3d e1 a8 73 bd 9e 88 21 bd c0 13 a3 bd
       0.034062993 -0.059487227 -0.03943693 -0.079627514
000020 ca 46 da bd e8 c6 61 bd 31 5c d9 bd 74 5e 1f 3d
       -0.10658033 -0.055121332 -0.10613287 0.038908437
000030 4c 25 aa bd 75 9a 84 3d 5f 8c 09 be 40 fc 19 3d
       -0.08307895 0.06474773 -0.13432454 0.03759408
000040 5f 75 56 bd 02 32 bf bd d3 a4 ad 3d b7 f4 2d bb
       -0.052358028 -0.0933571 0.08478703 -0.0026543566
000050 f1 4e 11 3b f4 08 88 bd 6a 0b f7 bd bb 99 c8 3b
       0.0022172297 -0.06642333 -0.12062724 0.0061218417
000060 0f 8d cf bd 92 67 23 be ff 93 2a bd 5a 62 d8 bd
       -0.10134327 -0.15957478 -0.041645046 -0.10565634
000070 01 77 a1 3e b8 1f a6 bd a5 5f 4f bc 6f 0d 85 be
       0.31536105 -0.081115186 -0.012657081 -0.25986812
000080 6a 04 3f 3d 5c 79 d6 bd ec 00 35 3c ed 7b 93 3c
       0.04663507 -0.10472366 0.011047583 0.018003428
000090 cd a7 d6 3d 9c 9d 84 3d 60 97 47 bd dc c0 54 3d
       0.10481224 0.06475374 -0.048728347 0.051941738
0000a0 37 3d 86 bd fe 11 05 be d2 8d 13 bd 43 3d 35 be
       -0.065546446 -0.12995145 -0.036023922 -0.1769915
0000b0 5c eb 9e bd 45 2b 30 be 1a 6f 79 bd 43 fc de bb
       -0.07759735 -0.17204006 -0.06089697 -0.0068049743
0000c0 df 87 a0 bd bb 5a 5b be ad a9 07 be 46 ff e1 bd
       -0.07838415 -0.2142133 -0.1324832 -0.11035018
0000d0 eb a9 c1 bd 95 9a 54 be 0f 40 96 bd 53 cd ad 3d
       -0.094562374 -0.20762093 -0.07336437 0.08486428
0000e0 76 74 ef bd dc ec 8c bd c3 e4 00 be 4d c2 39 3d
       -0.11692135 -0.06881115 -0.12587266 0.045351315
0000f0 33 08 45 3b 13 d4 3c bd 5d 4c 15 3d 43 71 d2 bd
       0.0030064702 -0.046100687 0.03644978 -0.10275509
000100 3c f5 5b 3d 67 f3 1a be 77 ed 91 be e7 c9 ba 3d
       0.05370067 -0.15131913 -0.28501484 0.09120541
000110 3f 1a 7b 3d a0 41 d4 bd bf a3 a0 bc cf 8f 73 bd
       0.061304327 -0.103640795 -0.01960933 -0.05946332
000120 50 30 2c 3d 09 08 05 be 97 fe b5 bc 5b 1e 76 3c
       0.042038262 -0.12991346 -0.022216124 0.015021886
000130 21 5f 32 ba 64 d1 4e 3e 38 80 1b be a4 66 7a bd
       -0.00068043364 0.20197064 -0.1518563 -0.061133042
000140 f7 43 16 be 59 08 98 bd 32 ad fb 3c a4 6e 0f bd
       -0.14674364 -0.07423467 0.030722234 -0.035017624
000150 b9 3a 9a 3e 5c b9 ad 3e 8e 3b a4 bc b2 c5 9d bb
       0.30122927 0.3393048 -0.02004793 -0.004814827
000160 34 d8 94 bd a5 ef c1 3b 14 c9 d8 ba 6c df a0 bd
       -0.072678 0.0059184604 -0.0016539418 -0.07855114
000170 1b 28 29 3d 65 21 67 3d ec ba 3f 3d b3 02 53 be
       0.041298013 0.056428332 0.046809122 -0.20606498
000180 c2 0f 7e 3e f0 6d 6b 3d 4d c3 0b b8 51 58 54 be
       0.24810699 0.05747789 -3.332207e-05 -0.20736815
000190 b5 80 ff bd f2 76 fc 3d 34 51 27 3c 8e 95 7f 3d
       -0.12475721 0.123273745 0.010212231 0.062398486
0001a0 42 5b 9d bd 56 9d 44 bc 2d 58 9c 3d 0b d2 34 3c
       -0.07683422 -0.012000402 0.07634006 0.011036406
0001b0 23 0e 09 bd 17 eb a6 3c d4 e1 65 3d 3a 3e ae bd
       -0.033460747 0.020375771 0.05612357 -0.085079625
0001c0 03 d4 ee bd 62 82 5a 3e ee 62 e4 bd 29 63 c9 bd
       -0.11661532 0.213388 -0.11151682 -0.098333664
0001d0 ca fe 94 ba f2 4a a3 3d 90 e2 a1 bd 71 8b 34 3e
       -0.0011367437 0.07973279 -0.079045415 0.17631318
0001e0 02 79 00 be a1 4e 26 bd 42 a6 8a bd 94 76 f3 bd
       -0.12546161 -0.04060233 -0.067699924 -0.11887851
0001f0 36 53 af bc 43 76 17 be ff d4 9b bd ef 03 95 be
       -0.021401983 -0.14791207 -0.07608985 -0.29104564
000200 e7 b2 eb bc 75 32 1c 3d f5 0e 25 be 90 2f 9d be
       -0.02877183 0.038134057 -0.16118987 -0.3070035
000210 0a 7f 4a 3d df 0f 8f bd e4 27 4f be 66 34 1a be
       0.04943756 -0.06985449 -0.20230061 -0.15059051
000220 a7 1f 23 bd a5 83 27 be f2 f8 28 3e fd 6b 90 bd
       -0.039825108 -0.16358812 0.16501215 -0.07051847
000230 a5 42 d6 3d d6 a5 81 bd c7 03 9e 3b 3d ea 87 bd
       0.1046193 -0.06330459 0.0048222276 -0.06636474
000240 a5 b8 f0 bd 25 d0 22 be 9e 1d 3c 3e 0b 7b 38 be
       -0.11753968 -0.15899713 0.18370673 -0.18015687
000250 0d f0 44 3c aa 9c 95 bd 46 a5 32 3d 03 30 42 bd
       0.012020123 -0.07305272 0.04361465 -0.04740907
000260 a6 a1 cd bc 39 a5 0f bc a0 ba a6 3e fa 0a 1e 3c
       -0.025101494 -0.0087674195 0.3256426 0.009646172
000270 d2 56 29 3d e2 16 17 3e 97 72 57 be f1 74 48 3e
       0.041342564 0.14754823 -0.21039806 0.1957586
000280 9e d9 b8 bb 31 b1 f3 bd 14 2a cc bd a9 fe 03 3d
       -0.0056411764 -0.11899031 -0.09968963 0.032225285
000290 56 25 e9 bd 3b 03 dc 39 bb fd bc bd c7 97 24 3c
       -0.113840744 0.00041964077 -0.09228083 0.010045952
0002a0 66 89 30 bd 05 75 9a bb c3 46 9c bd c8 ca 8e bc
       -0.043099783 -0.004713657 -0.07630684 -0.017430678
0002b0 d6 e6 37 be 06 1e 84 3e 74 4f 0f bd c6 68 44 3e
       -0.1795915 0.25804156 -0.03498788 0.19180593
0002c0 05 ae b6 bd d9 ce 4f 3d 73 f9 bc 3d 01 95 a0 bd
       -0.0891991 0.050734375 0.09227266 -0.0784092
0002d0 5d a3 a6 bd b5 0d c0 3d a8 94 7f bd 78 ac d6 bc
       -0.08136628 0.093776144 -0.06239763 -0.026205286
0002e0 ed 11 a3 bd f4 7d 8f bd 78 d1 dc bd 63 fa 86 bd
       -0.079624034 -0.070064455 -0.107821405 -0.06590726
0002f0 93 97 9a bd 0e e1 a8 bd 0c 38 10 bd ad 27 e8 bd
       -0.07548442 -0.08246051 -0.0352097 -0.113356926
000300 50 1b 85 3e 3e ef 9e bd a3 40 ee 3d 8d d5 5f 3c
       0.259974 -0.077604756 0.11633422 0.013661754
000310 a8 c3 aa 3c ff 2f 00 3e 22 84 30 bd 3e 75 7c be
       0.02084525 0.12518309 -0.04309476 -0.246541
000320 fb 8b 4f be d5 51 50 3e e5 16 4d 3e 9d c8 74 3d
       -0.20268242 0.20343716 0.20028265 0.059761632
000330 76 8c 8e 3d dd 9e 97 bd 75 c6 36 bd 7f d6 98 bd
       0.069603845 -0.07403348 -0.044622857 -0.07462787
000340 f2 71 e1 bc 6f df 56 3e f4 20 d3 bc 52 3c 33 bd
       -0.027520154 0.2098367 -0.02577255 -0.043758698
000350 42 cb 2e bd 3f 23 00 3c 54 67 99 3d f8 d1 25 be
       -0.04267431 0.007820903 0.074904114 -0.16193378
000360 6d 6d 7e be 54 15 26 be 4e eb 5a 3e 06 a9 db 3d
       -0.2484643 -0.16219074 0.21378824 0.10725598
000370 4b 26 3d 3c 81 b7 3c be e2 0b b3 bd 87 cf 3e be
       0.011544774 -0.18429376 -0.08742501 -0.18633853
000380 92 9c b0 bd 34 72 51 3d 3a a8 51 3e 65 1a ac bd
       -0.086236134 0.051134303 0.2047433 -0.08403472
000390 f1 c0 35 3e d9 81 fc bc 36 d3 4d bd 40 89 fe 3c
       0.17749383 -0.030823635 -0.050250255 0.031071305
0003a0 c7 43 8a 3c 67 15 ed 3c bf 05 cf bd b6 c4 1f 3e
       0.016878022 0.02894087 -0.10108518 0.15602383
0003b0 73 42 e0 bd c1 99 92 3d dc 97 24 3d f2 75 de bd
       -0.10950174 0.071582325 0.040183887 -0.1086234
0003c0 41 c7 b4 3d 37 e2 06 3d 27 93 0f be 53 62 ee 3d
       0.08827067 0.03293058 -0.14020978 0.116398476
0003d0 a6 29 05 be 74 ab 0e 3e 30 fc a8 3d f3 9d 60 3c
       -0.13004169 0.13932592 0.08251226 0.013709533
0003e0 5f f2 1d 3e bc ec 9f bd 08 2c e7 bd 9f 94 ed bd
       0.15424488 -0.078088254 -0.11287695 -0.11600613
0003f0 bc 5d 83 3c ab 1d 57 bc eb 8a a5 be 8d 23 b9 bd
       0.016035907 -0.013129632 -0.32332548 -0.09039984

fc.weight f4 [12, 256]
000000 ed c8 17 be 87 f8 8f bd f3 15 3b 3d f8 64 8c bd
       -0.14822741 -0.07029825 0.04567523 -0.06855196
000010 ed 09 44 bd 83 e7 99 bd b9 7c a8 bd c2 de 25 be
       -0.04786103 -0.075148605 -0.08226914 -0.16198257
000020 f0 07 09 bc dc 0f 6a bd e4 67 90 bc 29 b6 45 3d
       -0.008363709 -0.05714403 -0.017627664 0.048269425
000030 b7 e9 b6 3d 5f 3b b2 3c 2d 07 78 bd 48 bf 4f bc
       0.08931296 0.021756826 -0.06055372 -0.012679882
000040 9b d4 ee bc 69 71 e6 bd ae c6 3c 3d 38 ab 17 be
       -0.029154113 -0.112521 0.046087913 -0.14811409
000050 28 08 5c 3c fc df 05 bd ab 40 82 bc c1 c9 f0 bd
       0.013429679 -0.03268431 -0.015899977 -0.117572315
000060 49 61 39 3c eb d7 73 bd 82 76 4d bd f2 d7 b0 3d
       0.0113146985 -0.059532087 -0.050161846 0.08634938
000070 0b f0 18 3d 9c f3 78 bd b3 0f 49 bc 9f af 3f be
       0.037338298 -0.0607792 -0.012271809 -0.18719338
000080 53 27 f2 3c a9 4d b9 bd 3e 95 9b bd a3 8c 03 bc
       0.029559767 -0.090480156 -0.07596825 -0.008029136
000090 37 38 32 3a 89 7e ad bd c3 f1 aa bd e4 8a 69 be
       0.0006798538 -0.084714 -0.08346894 -0.22806889
0000a0 c5 fb c9 3c b2 6b be bd ba 70 70 bd 30 26 ba 3b
       0.024656186 -0.09297885 -0.058701254 0.005680822
0000b0 d6 07 ae bc 85 f5 47 3d 8b ec b5 3c 89 4e 51 3c
       -0.02124397 0.04881813 0.022207519 0.012775072
0000c0 c0 c0 29 3d 74 54 85 3c 82 67 60 bd 40 ca e3 3d
       0.041443586 0.016275622 -0.054786213 0.111225605
0000d0 53 74 ed 3d 84 fb 6b 3d 2d 9a 58 bd 23 a2 22 3d
       0.11594453 0.05761291 -0.05288141 0.039705407
0000e0 97 08 43 bd 90 3d c3 bd 35 f2 8f 3d 2d 66 3a be
       -0.047615614 -0.095332265 0.07028619 -0.1820304
0000f0 0c 64 30 3d b4 a6 95 bd 0b 16 b9 bd 48 b7 2d be
       0.043064162 -0.07307187 -0.090374075 -0.16964447
000100 04 30 8a bb 5f e7 ab 3c c1 59 82 3c 5a 56 ee 3c
       -0.0042171497 0.02098435 0.015911939 0.02909391
000110 41 a9 b8 3b 8c 31 68 be 8d 08 e9 bd 3c 38 fe 3b
       0.005635411 -0.2267515 -0.11378584 0.0077581685
000120 c0 40 79 3c f9 4b b0 b9 1b 17 ec b9 6b cd d5 3b
       0.0152131915 -0.0003362594 -0.00045030643 0.006524732
000130 73 bf 97 bd 59 d5 04 3c 22 69 1b be 8e db 40 bb
       -0.07409563 0.008107507 -0.15176824 -0.002942774
000140 23 cd 37 3d 87 98 a6 bd fc d7 b1 3d d2 15 18 bc
       0.044873368 -0.08134561 0.08683774 -0.009282546
000150 b1 34 6e 3d 0d 36 13 3d b1 f0 de bd e4 6d b7 3c
       0.05815572 0.03594022 -0.10885752 0.022391267
000160 ae e2 07 bc b3 2d 15 be c3 27 1d be fb 7a 45 bd
       -0.008293791 -0.14568214 -0.15347199 -0.048212986
000170 25 b1 ac 3c fb 33 bd 3d 27 9a 52 3d a1 ef c3 bd
       0.021080563 0.0923843 0.051416542 -0.0956719
000180 ec 12 17 3b 06 3e d3 3c 58 68 bd bc ba 67 89 be
       0.002305205 0.025786411 -0.023121044 -0.2683695
000190 3f 60 67 3c 89 29 e7 3c 74 b6 38 bd 93 d8 86 3c
       0.014122068 0.028218048 -0.045095876 0.016460693
0001a0 ae 08 02 bd 49 7b 23 bb 12 e5 8a 3b bc e5 6f 3d
       -0.03174656 -0.002494531 0.004238733 0.0585687
0001b0 5d 45 2c bd 75 9b b7 bd d7 61 d6 bd 31 b0 b7 3b
       -0.042058337 -0.08965198 -0.1046788 0.0056057204
0001c0 e3 81 95 bd 47 22 d5 3c 29 e8 0a bd 5b 41 28 bd
       -0.073001646 0.026017321 -0.03391281 -0.041077953
0001d0 5c 67 98 be 3e ad dc 3c 6b e4 17 bd b1 bf 0a 3d
       -0.29766357 0.026938077 -0.03708307 0.033874217
0001e0 1b 83 21 3c fb 92 cf 3c 10 4a 81 3c d9 17 68 3c
       0.009857918 0.02533864 0.015782386 0.014165842
0001f0 28 c8 9f 3c de 64 10 be 43 4f 47 3c ed 12 0a bc
       0.019504622 -0.14100978 0.012164894 -0.008427364
000200 9b b7 54 3c df 49 b2 bc 10 c4 00 bc c5 f5 36 be
       0.012983228 -0.02176374 -0.007859245 -0.17867191
000210 3b a9 e7 3c 74 a4 da bd 8f b9 2e bd 41 1c 66 bd
       0.028278938 -0.10675898 -0.04265743 -0.05617929
000220 40 e4 03 bd cb 43 6a bb c5 49 a2 3c 37 62 4a 3c
       -0.032200098 -0.0035745974 0.019810567 0.012352518
000230 89 cd 50 3c 3d fa be 3a 23 d5 47 3c 7b 82 6d 3c
       0.012744316 0.0014570426 0.012196812 0.014496441
000240 39 60 f1 bc 46 5c c7 be cd 5a 00 bb 82 bf 14 3d
       -0.029464828 -0.38937587 -0.0019585371 0.03631545
000250 16 25 db 3c 72 c8 0d bc 23 87 e0 bc 73 ca 70 3c
       0.026751082 -0.008653747 -0.027408188 0.014696705
000260 24 6a 3b bd a2 b4 44 3c 10 d8 6a bb e3 53 19 be
       -0.04575552 0.012005957 -0.003583435 -0.14973406
000270 db 46 85 3d 58 9e 88 3c d6 0d e1 be 52 7c 40 b9
       0.06507655 0.016677067 -0.43955868 -0.0001835686
000280 77 42 87 bd c5 b8 a1 bd c6 44 e1 bc cb 70 65 3d
       -0.06604474 -0.0789657 -0.027498614 0.05601577
000290 31 7e 59 3c 38 0e 38 bd b0 a2 c6 bb 72 51 4b 3d
       0.013274715 -0.044935435 -0.0060618743 0.04963822
0002a0 85 9a b7 bc 0f 74 e9 bc c9 4d 4b 3b 31 c3 bb bd
       -0.022412548 -0.028497724 0.0031021705 -0.09168089
0002b0 f9 3e 8e bd f8 c5 05 3d 2f 40 1e 3c b5 b8 2b bd
       -0.06945605 0.0326595 0.009658857 -0.041924197
0002c0 19 ae 3e bc 32 16 2f bc 85 1d 4e 3d b3 2b 0b 3e
       -0.011638188 -0.010686444 0.05032112 0.13590889
0002d0 59 fb 72 bd b3 8f 8c 3c 27 c1 76 3d 17 3f 30 bd
       -0.059321735 0.017158365 0.0602428 -0.043028917
0002e0 5d ad 8b bd 51 84 31 3d cc f0 72 ba 3f 0a 89 bd
       -0.06820176 0.043339077 -0.0009267449 -0.066914074
0002f0 67 00 4e bb 75 8b 85 bb 88 03 00 bd 11 97 3d 3d
       -0.0031433345 -0.0040754625 -0.031253368 0.046286646
000300 23 b7 54 3d d6 35 0b bd 6e 23 ba 3c eb 76 cb bd
       0.051932465 -0.03398689 0.022721972 -0.09934791
000310 2f 9c 3d bd eb 4e 9a 3c b7 cf 74 3d f2 55 c9 bb
       -0.046291526 0.01883646 0.059768405 -0.0061442787
000320 ba 57 af bd 38 dd 3d 3d ef c5 f3 3c f1 e0 53 3c
       -0.085616544 0.04635355 0.029757468 0.012932048
000330 bd 7f ec bc 47 a8 a3 bc ea 18 40 bd b4 c1 00 3d
       -0.028869504 -0.019977702 -0.04689876 0.03143473
000340 88 9f a8 3b 72 47 38 3c ce 77 61 be 63 61 44 3d
       0.0051459707 0.011247503 -0.22018358 0.047944438
000350 93 ec 6a bc 80 b5 20 be 0d e7 74 3d 50 f7 12 be
       -0.01433863 -0.15694237 0.05979066 -0.14352155
000360 5e 5d 64 3d 5b 41 cf bd f5 b2 78 3d aa 75 b0 bc
       0.055753104 -0.101198874 0.06071754 -0.021540482
000370 a7 b6 66 bd 81 36 16 3c 04 69 99 3c 62 1d 45 bd
       -0.056326535 0.009168268 0.018726833 -0.048123725
000380 b3 39 7c bc af 99 03 3e ad 0f 50 3d c7 de 07 bd
       -0.015394616 0.12851594 0.0507962 -0.03317144
000390 fe d5 1a bd b1 7a 8c bb 07 81 c5 bd 3d f6 99 be
       -0.037801735 -0.004287087 -0.09643751 -0.30070677
0003a0 7a 40 eb 3c 9e f9 1a 3d 91 1d 80 3d c4 47 c9 bb
       0.028717268 0.03783571 0.06255639 -0.0061425883
0003b0 e6 78 a9 3b 4c 94 4a 3d 39 fe 90 3d 91 76 cf 3c
       0.005171883 0.049457833 0.07079739 0.025325092
0003c0 06 6a 73 3c 38 91 52 3d 84 e4 0c 3d 82 c2 39 bd
       0.014856821 0.051408023 0.034397617 -0.045351513
0003d0 72 45 0e 3c 37 81 25 3d 12 a4 5c 3c 92 28 81 bd
       0.008683549 0.040406432 0.013466852 -0.06306566
0003e0 fb 9e 0a 3d d7 02 8b bc ee d4 b3 bc e7 96 9f bb
       0.03384302 -0.016969128 -0.021952119 -0.004870284
0003f0 3d ff 4e bd 38 70 a9 bc c9 0d 10 bd 7f 21 fb bc
       -0.050536383 -0.020683393 -0.035169397 -0.03065562

fc.bias f4 [12]
000000 9b a1 ca bd 92 f0 a4 be ff 1d ce be 4c 8d aa bb
       -0.09894105 -0.3221479 -0.4025726 -0.005204832
000010 9c 66 be be 23 2b 2b be b3 c6 25 bd 1c b5 82 bd
       -0.3718766 -0.16715674 -0.040472697 -0.063822
000020 63 f9 87 be de 7b a5 3e aa 81 8f bc dc 96 08 bf
       -0.26557454 0.32321066 -0.017517883 -0.53355193
