src/main/python/saved_models/javascript_1_66_CNNClassifier1_64embs_130id_64hd_0hl_Falsebid5kernel0.3dropout_2.pt (torch, 836171 bytes, 9 tensors)

emb.weight f4 [130, 64]
000000 97 56 a1 bf a9 3a 92 be 11 64 cf 3e 16 c8 96 3f
       -1.260455 -0.2856038 0.40506032 1.1779811
000010 6a 2d 88 3f 4d cc 73 3f 5f 29 4f 3f 71 17 e7 3f
       1.0638859 0.95233613 0.809225 1.8054029
000020 1c 14 51 bd 24 ed 59 3f 07 d2 83 bf 30 f3 76 bf
       -0.05104457 0.8512747 -1.029847 -0.96464825
000030 f2 9d f5 3d b8 d5 10 bf 59 06 4f be 49 d3 0b 3e
       0.11993016 -0.5657611 -0.20217265 0.13654818
000040 7d 75 4e be 8c 13 14 3f d6 c4 b0 bf 8e 9d 83 be
       -0.20162006 0.57842326 -1.381007 -0.25706142
000050 69 0e b9 bf cd 8c bc 3e 73 8b 6e be 5c 0b b7 bf
       -1.4457523 0.36826172 -0.23295383 -1.4300342
000060 28 e8 b5 3e eb 83 20 bf 32 90 b0 bf aa 7e 8e 3f
       0.35528684 -0.6270129 -1.3794005 1.1132405
000070 ac 34 a4 3e cf 9d fa bf 71 9d f6 3e 58 ef 5d bf
       0.32071435 -1.9579409 0.48166993 -0.86693335
000080 b6 dc 64 be d0 14 41 bf da bc 89 bf 2b 05 87 be
       -0.2234982 -0.7542238 -1.0760758 -0.2637113
000090 64 bc b4 3e 03 c6 d8 3f 4f 86 96 bf 2b 8a 0b 3f
       0.3529998 1.6935428 -1.1759738 0.545077
0000a0 a6 19 17 bf 47 35 18 3e ac 54 fa 3e ab 43 7b bf
       -0.5902351 0.14864074 0.48892725 -0.9815013
0000b0 4f 6e 41 bf 72 dd 92 3f 66 53 3c 3f a1 e1 48 3f
       -0.7555894 1.147383 0.73564756 0.7846928
0000c0 7c c4 e7 3f 60 a8 e7 3e b1 66 d7 bf 1a 2c 71 be
       1.8106837 0.45245647 -1.6828214 -0.2355198
0000d0 bf e9 71 bf 5f 8a 2d 3f 29 75 79 be 45 05 4b bf
       -0.94497293 0.6778926 -0.243611 -0.79304916
0000e0 ab f6 f7 bf 5f 69 8e 3f 9a c7 ee 3d bd 05 75 bf
       -1.9372152 1.1125907 0.11659165 -0.9571188
0000f0 83 0b c7 3e 05 f3 ee bf b7 5f 4b 3f da 49 1e 40
       0.3887597 -1.8667914 0.79442924 2.4732575
000100 80 c6 b0 bf e0 dc 37 3f 90 be 22 3f f8 42 8f 3d
       -1.3810577 0.71821404 0.63572025 0.06995195
000110 fd 5d 0c bf 92 1e ab 3d ac a7 bc 3d f7 13 8d be
       -0.54830915 0.0835544 0.09211668 -0.27554294
000120 46 36 e3 3e 0f ec 62 3f af 3f 35 3f fb 0e 08 40
       0.44377345 0.88641447 0.708003 2.1259143
000130 5a ee a7 bf 0a 61 28 bf b0 8f 8e bf 01 0f a1 3f
       -1.3119614 -0.6577307 -1.11376 1.2582704
000140 68 63 60 be d1 78 93 3e 01 13 fd 3d d6 50 8c be
       -0.2191292 0.28803113 0.1235714 -0.27405423
000150 11 c6 52 bf 15 97 2e be 99 fb 26 bf a0 86 7a 3f
       -0.82333475 -0.1704982 -0.6522766 0.9786167
000160 b1 0f 9e be 77 0a 21 c0 61 cd 42 bf 2f 18 9e bf
       -0.30871347 -2.5162637 -0.76094633 -1.235113
000170 30 66 ae bd 9d 19 45 bd da e2 92 3f b8 7b aa bf
       -0.085155845 -0.04812013 1.147548 -1.3319006
000180 ed 03 da 3e 83 9b 58 3f 84 f6 10 40 ae 1b 8b be
       0.4258112 0.8461229 2.2650461 -0.27169555
000190 5c a6 0e 40 fa e4 67 3f e4 7f 3a bf ab db 42 bf
       2.2289038 0.90583766 -0.72851396 -0.76116437
0001a0 63 1a ae be a1 4b 44 3f 10 90 dd be 6e c1 eb 3e
       -0.34004506 0.766779 -0.43273973 0.46046013
0001b0 93 29 f0 3e 8d 42 a0 be 59 7a 4d 3f 40 e6 9a 3f
       0.4690672 -0.31300774 0.8026481 1.2101517
0001c0 1d 73 5c 3f 2b f8 bb 3f 14 95 31 bf 90 2e 12 bf
       0.8611315 1.468511 -0.693681 -0.571023
0001d0 45 9d 9f bf 1f f4 b1 3d df d8 a1 3e cb a4 10 40
       -1.246987 0.086891405 0.31610772 2.2600582
0001e0 26 9e c3 bf 26 35 cd be 6c 13 e4 be 61 39 a7 be
       -1.5282638 -0.40079612 -0.44546068 -0.32660964
0001f0 87 4d 93 bd 22 c5 05 c0 72 be be 3f 11 4f 7c be
       -0.071925215 -2.090157 1.4901869 -0.24639536
000200 16 26 f5 be 3a 4c f5 3f 3d cd 43 3f c6 a8 9a 3f
       -0.4788062 1.9163888 0.76485044 1.2082756
000210 91 79 7d 3f 9b 71 82 bf 3f e9 33 3f 2c 43 54 bf
       0.9901362 -1.019092 0.7027778 -0.82914996
000220 80 59 b9 bf 39 92 f1 bf 45 a9 05 c0 97 f1 24 3f
       -1.4480438 -1.8872749 -2.0884564 0.64431137
000230 d5 56 47 bf 44 29 7b bf b8 6a ea 3f 6a 5b 16 bf
       -0.7786687 -0.9810984 1.8313818 -0.58733237
000240 d5 11 d9 3f 49 d5 00 3f 4b c4 ef be 6f 0f 9d 3f
       1.6958567 0.5032545 -0.46829447 1.2270335
000250 ab ef 3f 3e bb 22 0e 3e 60 73 3d 3f 08 8f 1a bf
       0.1874377 0.13880436 0.74004173 -0.603745
000260 5d a2 09 c0 bf 72 01 3e e9 05 51 3f 56 bf 03 3d
       -2.1505349 0.12641428 0.81649643 0.032164894
000270 0c af ec bf e2 aa 74 3f 68 fa 4a 3f c9 67 75 bf
       -1.849092 0.95573246 0.7928834 -0.9586149
000280 13 69 ac bf c8 36 a6 bf f4 b0 fc be 1f 44 dc bf
       -1.3469566 -1.2985468 -0.49353755 -1.7208289
000290 65 0b d4 3f f8 e7 a5 3f 10 f8 c3 3f 9d 84 97 bf
       1.6565977 1.2961416 1.5310078 -1.1837345
0002a0 4d 53 82 be 76 35 4a 3f 97 37 d9 3d f3 d4 ec ba
       -0.25454178 0.78987825 0.10606306 -0.0018068835
0002b0 d5 5b 0e 3e 46 7a 0f bf 0f 6e 8c 3f e2 43 63 40
       0.13902219 -0.5604595 1.0971087 3.5510182
0002c0 47 a9 88 3f 9d a3 de 3d 7f 13 88 be 29 4c c2 be
       1.0676659 0.108710505 -0.26577374 -0.3794873
0002d0 a0 d1 1a 3f 68 09 22 bf 3d 89 79 bf ab 10 4f 3f
       0.6047611 -0.632956 -0.97475034 0.8088481
0002e0 c7 6c 4d be f2 b8 89 be c7 e5 c7 3f 40 3c 8b 3f
       -0.20061027 -0.26898915 1.5616997 1.0877762
0002f0 ff 84 3b bf f7 17 9a 3f 5d 17 73 bf 58 02 03 3e
       -0.7324981 1.2038563 -0.94957525 0.12793863
000300 4b 7c ba 3f d0 dd 00 bf a6 bf a7 bf 30 00 33 40
       1.4569181 -0.5033846 -1.3105361 2.7968864
000310 15 af 36 3e 69 c2 de 3f 00 a3 9e 3d c3 3a 05 40
       0.17840226 1.7403079 0.077459335 2.0817115
000320 e4 eb 2d 3f d9 15 18 bf ec 8a b3 bf 15 c5 25 3f
       0.67938066 -0.59408337 -1.402677 0.6475385
000330 d0 08 b9 bf c8 74 ee bf 35 6f 7a bf cd 08 74 3f
       -1.4455814 -1.8629389 -0.9782594 0.9532593
000340 d5 fd 55 be 7e 60 5c bf ba 24 e3 3d f4 92 c6 be
       -0.2089761 -0.86084735 0.110909894 -0.3878399
000350 71 37 a0 bf 7e 96 3a 3f 82 a3 70 3e 06 3e 2c 3f
       -1.2516919 0.7288588 0.23499873 0.6728214
000360 96 af d0 3e 72 56 2e bf 61 46 9f 3f 2f c2 0c 40
       0.4075896 -0.68100655 1.2443353 2.199352
000370 80 f0 2a 3f e5 35 50 40 f9 77 6e 3f e8 63 68 3f
       0.66773224 3.2532895 0.93151814 0.90777445
000380 0d 13 83 3f 94 6b 4e 3d dd 85 e1 3f de 29 ac 3e
       1.0240189 0.050395563 1.7618977 0.33625692
000390 fe f3 0e 3d c2 fb 89 bf d5 64 cc 3e d8 4d 1f be
       0.034900658 -1.0779955 0.3992068 -0.15557039
0003a0 7e 43 09 3f 8b 7b 5b bf 2f 21 9b 3f 83 bb e0 bf
       0.5361861 -0.85735387 1.2119502 -1.7557224
0003b0 0b d0 77 be 00 f7 7b bf f5 fc 36 bf 4c 4e d4 be
       -0.24200456 -0.9842377 -0.7147973 -0.41465986
0003c0 ad 18 10 3f 26 0d aa bf 08 b0 e6 3f 68 65 b8 bf
       0.5628765 -1.3285263 1.802247 -1.4405947
0003d0 9d cc c2 3e f5 47 e2 bf e8 94 1e 3f 34 3f a9 b9
       0.38046733 -1.767821 0.6194596 -0.00032281282
0003e0 5f 76 84 be 0b f2 d2 3e a7 78 47 c0 41 28 8f be
       -0.2587156 0.4120029 -3.116739 -0.279604
0003f0 30 97 c6 be 14 a3 11 bf e7 b9 da bf c1 2b 09 bf
       -0.38787222 -0.5688946 -1.7087983 -0.5358239

conv1.weight f4 [64, 64, 5]
000000 35 8c 90 bd 41 f7 6a be c0 4c 0a 3e 58 b4 1e bc
       -0.07057992 -0.22945882 0.1350584 -0.009686552
000010 b2 87 5c 3d 50 fb 84 3d fe 97 e9 bd 3e db 01 3e
       0.053840347 0.064932466 -0.11405943 0.1268129
000020 f7 8c e0 bd 7d 9f 09 3e 5f 1a b3 bb 91 35 f8 bd
       -0.10964387 0.13439746 -0.00546579 -0.12119592
000030 b8 cd 35 39 1e 38 41 3d 68 8a 43 bd 21 4f 7f be
       0.00017338141 0.04717266 -0.047739416 -0.24932529
000040 71 99 9e bc 8f b2 62 bd c7 ee b7 bd 57 5c 98 be
       -0.019360276 -0.055346068 -0.0898109 -0.2975795
000050 7d 77 ab 3d 51 d5 20 be e3 5a b7 3c 95 74 c5 ba
       0.083724 -0.15706374 0.022382205 -0.0015064651
000060 5e 8a f6 3c df 40 d2 bc 21 22 20 be a3 dc 8d 3d
       0.030095275 -0.025665699 -0.15638019 0.06926849
000070 8e 5f 6d 3d 1d 96 1e be 49 2d 00 bd c3 6c 43 bd
       0.057952456 -0.15486951 -0.031293187 -0.047711145
000080 a2 00 2f bd 72 70 c4 3c 38 d6 7d be b1 2a c8 3c
       -0.042725213 0.0239794 -0.24788749 0.02443442
000090 a4 8c 84 be 23 fa 07 3e 6d 98 98 bd ae 1c ac bd
       -0.2588855 0.13279013 -0.07450948 -0.08403908
0000a0 51 21 6a 3e c4 49 33 bb 10 b6 30 bc bb 96 c8 bd
       0.22864272 -0.00273572 -0.010785595 -0.097943746
0000b0 00 ad 71 be 7c 56 c9 bd 5e d1 f2 bd 79 0b 15 3d
       -0.2360115 -0.09830949 -0.1185634 0.036387894
0000c0 02 61 a9 bb f7 cd 2f bd 92 41 34 bd 33 ac 19 be
       -0.005169035 -0.042921033 -0.044007845 -0.15007095
0000d0 6b 0b 82 3e 8d 95 8c bc 55 65 9a 3d 04 70 c8 3d
       0.25399336 -0.017161155 0.07538859 0.0978699
0000e0 02 95 cd bc 88 91 11 3e d4 f4 e5 3d 3a 5e c7 3d
       -0.025095467 0.14215672 0.11228338 0.09734769
0000f0 ee af 2d 3e e4 c7 4a be 33 f0 8d bc 79 f4 9e 3c
       0.16961643 -0.19802815 -0.01732645 0.019403683
000100 56 e1 c3 bd 90 ea 6d 3c a3 8b 7e 3c da f5 48 3d
       -0.09564464 0.014521256 0.015536222 0.049062587
000110 81 88 a2 3d 9d cc 47 bd c6 e8 5e bd c3 e0 09 be
       0.07936192 -0.04877912 -0.05442121 -0.13464646
000120 3c a8 82 bc 7d 02 30 3e a1 7b 17 3e 14 f3 7a 3b
       -0.015949361 0.17188449 0.14793254 0.0038291859
000130 f8 2e 9c 3d 90 c0 14 3e 3b 4b bc bc 47 b3 49 3d
       0.07626146 0.14526582 -0.022985091 0.049243238
000140 88 33 f7 3b 6b 44 d9 3c f9 3b d4 3d 15 d2 0a bd
       0.007543985 0.026521882 0.103630014 -0.033891756
000150 28 0f a2 3d 23 38 f7 3c da a1 9f bd 6e 13 df 3d
       0.07913047 0.030178135 -0.077945426 0.10892378
000160 0a f6 2a bc d9 af 15 be b4 28 3b bd f3 92 cb bd
       -0.010434637 -0.14617862 -0.045693114 -0.09940138
000170 ed 3f a5 3d 8f 8a fa bc 2a c9 cc bc 9e 08 47 be
       0.080688335 -0.030583648 -0.024998266 -0.19436881
000180 80 47 3e be b0 b5 ee bd 78 aa 4c 3c 84 27 92 3c
       -0.18581963 -0.11655748 0.012491815 0.017841108
000190 17 39 40 be 25 f1 79 bd 54 fa 00 bc 97 36 2e be
       -0.18771778 -0.06102099 -0.007872183 -0.17013012
0001a0 27 48 08 3e d8 10 69 3e 9a 27 f9 3d be 75 cf bc
       0.13308774 0.22760332 0.121657565 -0.025324699
0001b0 41 ae 32 3d e9 7d b2 3d cb 7d c7 be 3d f5 75 bd
       0.043623213 0.08715422 -0.3896316 -0.06004833
0001c0 75 51 21 be b0 7c 8c 3d 9c aa 3f bd 98 ff a7 bd
       -0.1575373 0.0685972 -0.046793565 -0.082030475
0001d0 58 3a 82 3d 2f 13 9c bd d5 ff 0b 3b 71 94 e8 bd
       0.063587844 -0.076208465 0.0021362205 -0.11356438
0001e0 44 d9 49 3e 82 29 ca bc 42 56 e5 bd 42 18 4b bd
       0.19711787 -0.024677996 -0.11198093 -0.04958368
0001f0 4f ed 42 3d a7 21 85 be fe 36 d7 bd 0d bc ff bd
       0.047589596 -0.26002237 -0.10508536 -0.1248704
000200 b2 ed 3e 3d 79 c4 84 bd 5c 5f 51 be 91 67 a2 bd
       0.046613403 -0.06482787 -0.20446533 -0.0792991
000210 16 23 9b bc 77 a1 3d 3b 98 0e bd 3d a3 06 8b 3e
       -0.018937629 0.0028935352 0.09231299 0.271535
000220 6e 3d 95 3e f2 05 30 3d 12 9a 81 bd 16 5b 83 bd
       0.2914843 0.04297442 -0.06328215 -0.06413858
000230 cd 87 b5 bd 66 e2 47 3e 61 de df 3d 3a db f6 3c
       -0.088637926 0.19519958 0.10931087 0.030133832
000240 d0 76 b3 3d 1b 96 0e 3e 05 45 87 bc 6d cd 6f 3e
       0.08762896 0.13924448 -0.016512403 0.23418207
000250 92 86 56 bd c4 b2 84 bc c5 b9 a5 3d 3a 40 ae bc
       -0.05237443 -0.016198523 0.08092073 -0.02127086
000260 f9 a5 70 3e e5 c9 bd 3c 28 64 2c bb 43 99 df 3d
       0.23500814 0.02316756 -0.0026304815 0.10917904
000270 2c a8 9c bd ca ae db 3c 8e 1a 86 bd 57 2d 27 3e
       -0.07649264 0.026816744 -0.06548034 0.1632589
000280 d6 d5 9e bd 0b 8f 6d bd 7a b6 f6 3d eb cb ec bd
       -0.0775563 -0.057997745 0.120465234 -0.11562332
000290 cd 09 88 3d 56 79 ac bc 6a 57 ca 3d 2b 8e e8 bd
       0.06642494 -0.021053951 0.09879954 -0.113552414
0002a0 32 aa 90 bd f5 9b df bc af 95 1d 3e 9f 17 04 be
       -0.07063712 -0.027296046 0.15389131 -0.12899636
0002b0 74 5b e3 bd 73 f6 da bb 1d 21 a7 3d eb 67 2b 3d
       -0.11101428 -0.006682211 0.08160613 0.04184715
0002c0 37 17 46 be fc ef 0b bd 9e 60 96 3d 0c 1c 92 3d
       -0.19344793 -0.034164414 0.07342647 0.07134256
0002d0 e4 dd 40 bd 14 ca 85 be eb 7d ca 3c 96 13 7e 3d
       -0.04708661 -0.26130736 0.024718245 0.062030397
0002e0 96 ab 2c be 9f e4 16 be 2a d4 10 be d7 d6 8c 3d
       -0.1686233 -0.1473565 -0.14143434 0.06876915
0002f0 93 2e 94 3d 32 e8 df 3d 5f 68 9a 3d 20 da 34 3e
       0.07235446 0.109329596 0.075394385 0.17661333
000300 13 77 1b 3e 53 60 58 3d 75 48 b9 3d b1 15 47 3e
       0.15182142 0.052826237 0.09047023 0.19441868
000310 ff dc 91 b8 6e 9d f7 bd 7b 96 46 be db e4 0a 3e
       -6.9553025e-05 -0.12090574 -0.19393341 0.13563864
000320 b1 65 31 3d 46 26 88 3c e4 04 76 bd 7f b0 0c bd
       0.04330987 0.016619813 -0.060063258 -0.034348007
000330 5f 9b 01 3d 52 af 12 be 96 1f 44 be df 7d 2a be
       0.031642314 -0.14324692 -0.19152674 -0.16649579
000340 8f 16 d3 bd 42 3a 2e 3e 83 e1 8a be 04 26 57 be
       -0.10307037 0.17014411 -0.27125177 -0.21010596
000350 6a 52 87 3b ee 89 67 3c 75 76 18 be 52 d5 1c bd
       0.0041296976 0.014132006 -0.14888938 -0.038289376
000360 86 ff 99 3a ea 2c 06 be e4 78 de 3d fe 77 48 bd
       0.0011749126 -0.13103071 0.10862902 -0.04894256
000370 a0 ed b7 3c fb 5d 29 3e c0 43 35 be 07 82 d2 3d
       0.022452176 0.16539757 -0.17701626 0.10278707
000380 32 51 ea 3d 66 70 4a bd ae bd d1 bd ad a1 71 be
       0.11441268 -0.049423598 -0.10241257 -0.2359683
000390 38 f8 41 ba bf a5 28 be 7e a5 cf bd 77 2d d1 bd
       -0.0007399353 -0.16469477 -0.10138987 -0.1021375
0003a0 79 3f 1d bd d7 8c 5f 3d 68 c1 71 bd ef a3 a3 3e
       -0.03839061 0.054577675 -0.059022337 0.3196101
0003b0 50 de a6 3d 5a 39 e0 3d 6e f6 a2 3a 13 b8 09 bd
       0.081478715 0.10948439 0.0012433061 -0.033622812
0003c0 cd ba a1 3d e3 ec 0b 3c 4c 5b 13 be 15 d7 f6 bd
       0.078969575 0.008540365 -0.14390296 -0.120527424
0003d0 7e 99 01 be 28 86 56 3c 99 ad db 3d ad 2b 38 be
       -0.12656209 0.013093509 0.107264705 -0.17985411
0003e0 a3 af 81 bd f0 f7 f8 bd 1e 77 1e 3e 79 ae 02 3e
       -0.06332328 -0.12156665 0.15475127 0.12761869
0003f0 86 6e f7 bc 7a 6f c7 bb fb 33 32 3d 8a c3 90 3d
       -0.030204069 -0.006086287 0.043506604 0.07068546

conv1.bias f4 [64]
000000 c8 cc 9d bd 2c b3 38 be 9e 72 0d bd b7 98 91 be
       -0.077050745 -0.18037099 -0.034533136 -0.28436825
000010 01 52 99 be 39 cd 06 bd 91 05 8e be 58 51 f1 bd
       -0.29945377 -0.03291056 -0.27738622 -0.11783093
000020 7c ad 78 be ed ad 63 be eb a4 cd bb 39 41 06 be
       -0.24284929 -0.22234316 -0.0062757633 -0.13110818
000030 39 f4 25 be 96 72 41 bd 3c bf 22 be 55 7a 6d be
       -0.16206445 -0.04722842 -0.15893263 -0.23191197
000040 d7 34 b3 be 9a dd e5 bd 7d f6 5f be 34 6d 8d be
       -0.3500125 -0.11223908 -0.21871372 -0.27622378
000050 79 39 7f be 74 88 78 be ca d2 2d be d8 41 3e be
       -0.24924268 -0.24270803 -0.16974941 -0.18579805
000060 13 d0 25 be 5a 9a 65 be 0c b9 61 be 97 2c 43 be
       -0.16192655 -0.22422162 -0.22043246 -0.19059978
000070 7d 81 4c be e0 c9 1c be c6 bb 71 be 78 e3 7a be
       -0.19971271 -0.15311384 -0.23606786 -0.24500835
000080 c3 cf a0 be f0 59 2f be d0 d1 fc bd 81 eb 61 be
       -0.3140851 -0.17124152 -0.12344706 -0.22062494
000090 73 73 71 be 8a 9d 97 be a6 6a 52 be 72 95 2e be
       -0.23579197 -0.2961238 -0.20548496 -0.17049196
0000a0 77 70 a0 be 42 80 05 be 79 d3 b5 be 1b 3c 70 be
       -0.31335804 -0.13037208 -0.35512903 -0.23460428
0000b0 37 80 0a be aa 45 2d be 93 2f 80 be 45 1a 18 be
       -0.13525473 -0.16921106 -0.25036296 -0.14853771
0000c0 65 4c 29 bd 0e a5 a2 bd f1 cc 92 be 00 32 5a be
       -0.04133262 -0.07941638 -0.28671983 -0.21308136
0000d0 77 ea 5a be b2 90 78 3d ce e5 61 be 51 77 30 be
       -0.21378504 0.060684867 -0.2206032 -0.17233016
0000e0 50 14 82 be b9 4f 57 be 32 08 05 bd 1d 59 14 be
       -0.25406122 -0.21026506 -0.03247852 -0.14487119
0000f0 28 dd dd bd 0d b4 1b be 1a 26 1c be d8 ea 2f be
       -0.10833198 -0.15205403 -0.1524891 -0.1717943

conv2.weight f4 [64, 64, 3]
000000 bb 93 2b bd fd b4 21 be 64 f4 c3 3c 4f ee a9 3c
       -0.041888934 -0.15791698 0.023920245 0.020743517
000010 95 04 31 be 70 d2 50 3e 30 bf ef 3d 97 9b 79 bd
       -0.17286904 0.20392776 0.11706388 -0.060939398
000020 e1 1a d1 3d c6 1a 51 3d be 75 9d bd 44 8f 0b be
       0.10210205 0.051050924 -0.07688473 -0.1362887
000030 a6 41 6c bd 33 ab a2 bd c0 2d 9b bd a7 45 ba bd
       -0.057679795 -0.0794281 -0.075770855 -0.090953164
000040 49 9d 10 be 91 6d cb 3d 43 d3 22 3e 28 f9 2e 3d
       -0.141225 0.099330075 0.15900902 0.042718083
000050 35 6b ac 3d af 8e 77 be 17 7b fb bc 8d 1f 43 bc
       0.084188856 -0.24175523 -0.030698342 -0.011909378
000060 85 b9 31 bc b3 98 17 3d 5c 73 1e be e0 3f 17 be
       -0.010847454 0.03701086 -0.15473694 -0.1477046
000070 35 01 e1 bd cb c9 57 be 6f 96 8f be 78 65 8b be
       -0.10986558 -0.21073072 -0.2804446 -0.27225852
000080 08 87 12 3e 37 55 de 3d 6d 3f c1 bd 4e 19 63 bd
       0.14309323 0.10856097 -0.09435926 -0.055444054
000090 79 e6 57 3e 79 46 8b bc 73 f3 de 3d d4 c6 90 bd
       0.21084012 -0.017001377 0.10886278 -0.070691735
0000a0 13 21 1d be 88 f0 da bd c2 d5 04 3e de 20 15 bd
       -0.15344648 -0.10690409 0.12972167 -0.036408298
0000b0 c4 7d 93 3e 10 1a f3 bd bb 81 34 bc c7 6b 67 3c
       0.2880689 -0.118702054 -0.011017258 0.014124817
0000c0 15 d4 c0 3d fd d4 28 3d 65 a6 b2 3d 31 62 44 3b
       0.094154514 0.041218746 0.087231435 0.0029965753
0000d0 ca 47 83 be ed c8 db 3c 8f ef 60 bc eb 37 53 bd
       -0.25640708 0.026829207 -0.01372899 -0.051567
0000e0 41 c5 77 3d de 1d 49 be 12 cc 24 bd a2 22 5e bd
       0.06049085 -0.196403 -0.04023368 -0.054232247
0000f0 bc d2 00 be f3 f5 a3 3c 4d de b2 3c 83 06 e2 bd
       -0.12580389 0.020014739 0.021834517 -0.11036398
000100 7a 79 31 bc d9 04 c1 bb 90 11 2b 3c ef 17 33 bd
       -0.010832185 -0.0058904705 0.010441199 -0.043723997
000110 3b 93 21 3e 52 48 ce 3c df 6f 82 bd 6f 6a 85 3d
       0.1577882 0.02518097 -0.06368994 0.06514441
000120 49 fe 51 bd 41 24 87 3c c5 dc a1 bd 0a fe 8d 3b
       -0.051267896 0.01649678 -0.079034366 0.0043332623
000130 ce db d2 bd 69 2d 53 3e 34 4e 89 bd 81 f7 88 3c
       -0.10295831 0.20622791 -0.06704369 0.016719582
000140 1b 9d 5a 3d 32 6f 7b bd ee 38 2a 3e eb bd c9 bd
       0.053372484 -0.06138534 0.1662328 -0.09850677
000150 a9 21 c3 3c 09 a4 c4 3d 71 7c c9 3d ad 58 02 be
       0.023819761 0.096016 0.098381884 -0.1272914
000160 09 1d 29 bd 08 52 9c 3d fa 75 ca bd c3 de ec bc
       -0.041287456 0.07632834 -0.098857835 -0.028914815
000170 08 4b fd 3d 61 d5 f2 bd 72 df a2 bd 52 64 24 3e
       0.12367827 -0.11857105 -0.07952775 0.16053894
000180 c8 68 cb bd 62 cb 04 3b 14 34 e7 bc cb c7 d7 3d
       -0.09932095 0.0020262827 -0.028223075 0.10536154
000190 d5 e9 60 3e a1 56 00 3c 85 a2 86 3d a1 ad 19 3c
       0.219642 0.007833154 0.06573967 0.009379775
0001a0 cc 69 47 be 4d ae 8d 3d ba 1d 81 bd 03 61 76 3c
       -0.19473952 0.06918011 -0.06304498 0.015037778
0001b0 65 a7 4c bd 73 e5 e1 bd 31 85 f5 3c 58 04 83 bd
       -0.049964327 -0.11030092 0.029970737 -0.06397313
0001c0 fc a8 eb bd 71 66 00 3e 34 a5 05 bd b8 7e c3 3c
       -0.115068406 0.12539078 -0.032628253 0.023864135
0001d0 5e af 6f 3d 98 8a 4a 3d eb 33 c4 3c b5 ad e3 3d
       0.058516853 0.04944858 0.023950538 0.11117116
0001e0 83 b3 8d 3d db 2d ae bd 9a 9e 26 bd 6e 20 36 be
       0.06919005 -0.0850484 -0.040678598 -0.17785808
0001f0 6a 3a f6 bd 9d 66 98 bd a3 8d 93 bd 99 ed 7d be
       -0.1202286 -0.07441447 -0.072047494 -0.24797668
000200 c4 ef c8 bc ff 29 45 be 6c 8b e8 bd bf 55 40 be
       -0.024528392 -0.19254301 -0.113547176 -0.1878271
000210 0d 51 27 3e 7b d2 c4 bc ac 8f 81 bc 68 a4 2a 3c
       0.16339512 -0.024026146 -0.015815578 0.010415174
000220 8d 45 1b bd 99 d7 8a bd 54 c9 f2 bd e5 90 ca bd
       -0.037908126 -0.06779403 -0.118548065 -0.09890918
000230 d9 7a 14 3e 00 ed 55 3e 08 6c 60 3e ee 51 f9 3d
       0.14499988 0.2089119 0.2191621 0.1217383
000240 7e 41 fd 3d bb 62 b1 3d 44 8d 9b be f5 22 84 3d
       0.12366007 0.086614095 -0.30381215 0.0645198
000250 25 99 35 3e cf ad 1e 3e 15 af 79 3d f4 f6 ae bc
       0.17734201 0.1549599 0.060957987 -0.02135799
000260 e2 23 af bd ae 11 ce bd cc c3 18 3e 63 02 dc bd
       -0.08551766 -0.10061966 0.1491844 -0.10742643
000270 c3 0f 67 3e 12 1b a4 3d 3e c5 6d 3e fb 51 d1 bd
       0.22564606 0.08012976 0.23219773 -0.10220715
000280 e4 ae cd 3d fd e5 fa bd aa b5 68 3d 28 d0 c3 3d
       0.10043123 -0.12250898 0.056813873 0.09561187
000290 fb a3 ae bd 06 b0 d2 bd ae c2 69 bd 96 73 2d be
       -0.085273705 -0.1028748 -0.057070427 -0.16938624
0002a0 10 3d 6d be 6c 93 dc bd 2d 7d 9e be 7c c6 54 3e
       -0.23167825 -0.10770306 -0.30954877 0.20778841
0002b0 44 e2 7a 3e d8 b9 e0 bb 10 59 36 3e 95 f9 15 bd
       0.24500376 -0.006858092 0.17807412 -0.036614973
0002c0 b5 61 bd 3c d6 54 74 3d 64 b7 da bd 72 35 0f bd
       0.02311788 0.05965122 -0.1067951 -0.03496308
0002d0 88 75 e4 3c 70 c4 85 3d a8 c9 c7 3d 8b 8a 3d 3d
       0.027888075 0.06531608 0.0975526 0.046274703
0002e0 8a d2 8d 3d c5 13 60 bd 84 8a 17 be ab 19 9c bc
       0.06924923 -0.054706354 -0.14798933 -0.019055208
0002f0 0a 62 93 3b 08 29 2e 3d 5d 0a 31 bd c7 00 81 3e
       0.004497771 0.0425196 -0.043222774 0.25195906
000300 a6 53 26 3d da 38 66 bd bf e5 92 3d 25 e2 a7 bc
       0.040607117 -0.05620656 0.07172727 -0.020493576
000310 2d f6 6c 3c cf 50 ab bd 24 7b 25 bc 97 45 14 3c
       0.01446299 -0.083650224 -0.01010016 0.009049795
000320 f4 ef 00 3e a4 d5 b2 bd 3f a7 0c be a0 3f ab 3d
       0.12591535 -0.08732155 -0.13735674 0.08361745
000330 22 4b 28 be 66 23 ae 3d 6a e9 0f 3e 3f 23 29 bc
       -0.16434911 0.085028455 0.14053884 -0.010323345
000340 3e 40 6e bd 2b 16 c1 bd b4 52 d4 be c8 29 12 be
       -0.058166735 -0.09428056 -0.41469347 -0.14273751
000350 00 41 38 be e3 ad 82 3c 18 b0 a7 bd 0a 7c b0 3d
       -0.17993546 0.015952056 -0.08187884 0.086174086
000360 01 42 f3 bc 97 ba 8a bb 30 c8 12 be 24 8e e9 3b
       -0.029694559 -0.004233669 -0.14334178 0.00712754
000370 ea 29 a0 bd ef 93 19 3e 6d 69 d5 3d 5b 08 8d 3d
       -0.078204945 0.14997838 0.10420499 0.06886359
000380 84 f2 de 3d db 4c 08 3e 43 12 06 3d 01 3e 01 be
       0.108861 0.13310568 0.03273226 -0.12621309
000390 37 ef 9d 3c e1 91 60 3d 9d 45 59 bd 7f 75 9b 3e
       0.019279106 0.05482662 -0.053044904 0.3036308
0003a0 e5 8d a8 3d 70 2d 6a 3e aa de 03 3d 91 8b ae bd
       0.08230189 0.22868896 0.03219477 -0.08522714
0003b0 37 46 56 3d a8 0c 14 be a9 e7 e3 ba e7 28 af 3d
       0.052313056 -0.14457953 -0.0017387766 0.085527234
0003c0 88 6e b3 3d 10 c6 87 3d fd a9 0a bd 40 00 16 be
       0.087613165 0.06629574 -0.03385352 -0.14648533
0003d0 7d a2 fb bd ca 0a 82 3d c5 f8 1f 3e c0 cd 8d 3e
       -0.122868516 0.06349714 0.15622242 0.27696037
0003e0 cf 4e c8 bd 96 14 00 be 63 68 98 bd 77 13 20 bd
       -0.097806565 -0.12507853 -0.07441785 -0.039081063
0003f0 e9 88 3a be 59 4b 11 be f9 c5 00 3e 43 28 6b be
       -0.1821629 -0.14188899 0.1257552 -0.22964577

conv2.bias f4 [64]
000000 17 75 46 be a8 57 8a bd d1 6c 7b be be 17 11 be
       -0.19380604 -0.06755 -0.24553229 -0.14169213
000010 13 a1 b0 bc 01 6a 3c be 07 d3 41 be 05 42 80 be
       -0.021561181 -0.18399812 -0.18928157 -0.2505037
000020 f4 f7 94 be 16 47 02 be 36 cd 4b be eb e5 f1 bd
       -0.29095423 -0.1272243 -0.199025 -0.118114315
000030 31 c8 19 be fb 2b 47 be c7 83 89 be ec 9b 77 be
       -0.15017773 -0.19450371 -0.2685835 -0.24180573
000040 aa 77 fb bc a4 02 36 be 9e 57 a4 3c 1c 2d 6b be
       -0.030696709 -0.17774445 0.02006131 -0.22966427
000050 73 18 0c be 06 5b 7f be 6c 46 13 be 2a ea 4d be
       -0.13681202 -0.24937066 -0.14382333 -0.20108858
000060 05 33 23 be 46 fa 3e be 81 7f 9a be e3 0d 2c be
       -0.15937431 -0.18650159 -0.30175403 -0.16802172
000070 90 0a 11 be 36 68 df bd 53 92 84 be 3a 6a a7 bd
       -0.14164186 -0.109085485 -0.25892887 -0.08174558
000080 79 d0 94 be 93 2c 4d be 9b cd 01 be 07 35 89 be
       -0.29065302 -0.20036535 -0.12676089 -0.2679827
000090 ed 35 0b be 16 4a 51 be b3 cd 80 be 4e c2 88 be
       -0.1359479 -0.20438418 -0.25156936 -0.26710743
0000a0 f4 6a 03 be 63 82 57 be c7 36 4e bd b1 4e 51 be
       -0.12833768 -0.21045832 -0.05034521 -0.20440175
0000b0 86 76 63 be 8d bd b6 bd bc 82 20 be 76 67 50 be
       -0.22213182 -0.08922873 -0.15674871 -0.20351967
0000c0 c5 b0 a5 be 68 05 a2 be 34 5f 23 be 85 6a 54 be
       -0.32361427 -0.3164475 -0.15954286 -0.20743759
0000d0 41 e8 99 be 11 e5 2e bd 41 2c ad bd cd 96 23 be
       -0.30060008 -0.042698923 -0.084557064 -0.15975495
0000e0 ec 34 8f be 3a 22 82 bc 19 0f 9d be 43 a4 37 be
       -0.27970064 -0.015885461 -0.3067558 -0.17933755
0000f0 65 11 be bc 96 fe 73 be e7 e4 d2 bd 97 5a 10 be
       -0.023201654 -0.23827586 -0.10297566 -0.14097057

conv3.weight f4 [256, 128, 5]
000000 d7 94 0f bb 2e 5e 7f bd d6 dd 0b 3d b5 7c 4a 3d
       -0.0021908784 -0.062345676 0.034147106 0.049435336
000010 fc 11 0b 3d cb d6 49 bd 73 64 75 bd 52 f7 61 bd
       0.033952698 -0.04927711 -0.05991025 -0.055167504
000020 dd c3 7f 3b e3 3e fd 3d 7d f8 38 bb cf a3 fc bd
       0.0039026656 0.1236551 -0.0028224282 -0.123359315
000030 fc 42 8e bd 30 c8 4b be e6 d8 78 bc fd b2 04 bd
       -0.0694637 -0.19900584 -0.015188431 -0.03239726
000040 cc 5c 1f be ed 4d 59 3d 8a 90 b5 3d 6d fe 2b 3e
       -0.15562743 0.05305283 0.08865459 0.16796274
000050 3d b9 69 3d 54 c4 a8 bd cd e3 95 bd 65 43 c3 3d
       0.057061423 -0.082405716 -0.0731884 0.09534339
000060 74 91 08 3e c0 4c 92 bd 42 68 b5 3d 93 00 5b bd
       0.13336736 -0.07143545 0.08857776 -0.053467344
000070 4f 16 94 3d 97 a1 1d 3e 0c d4 bc bc 49 6d 8f bd
       0.072308175 0.15393673 -0.02305033 -0.07003266
000080 a1 12 6c bd 63 1d 2d bd ff d6 ca bc 25 82 a4 bb
       -0.057634953 -0.042264353 -0.024760721 -0.0050203972
000090 68 b4 95 bd 23 b7 16 3e 76 e9 56 3d 90 67 df bc
       -0.073098004 0.14718299 0.05246874 -0.027271062
0000a0 ed 89 5f 3c c3 c2 fd 3d d6 63 4a 3d 2a a0 e7 3d
       0.013643724 0.123906635 0.049411617 0.11309846
0000b0 c0 13 86 bc 9a d6 d2 bc f6 de 57 3e f3 4c 3b 3e
       -0.01636684 -0.025737096 0.21081147 0.18291073
0000c0 5f b9 f0 bd cd 32 a6 ba e8 6f 07 3c b8 5c 0c 3e
       -0.11754107 -0.0012679935 0.008266427 0.13707244
0000d0 43 75 3c be b7 3d 1f 3e 54 36 e0 3d fa b3 47 bd
       -0.18404107 0.15550886 0.10947862 -0.048755623
0000e0 d3 fd a5 3d 8b a3 59 bd de 83 4e 3c ee 11 39 3e
       0.08105054 -0.053134482 0.012604682 0.18073246
0000f0 73 eb 94 bb 42 0f 8b 3d fc 5e 21 bd 4e fa 05 3c
       -0.0045446693 0.067900196 -0.039397225 0.008177353
000100 35 66 30 3c 29 f5 17 3e 52 46 af 3d 5e d0 70 3c
       0.010766556 0.14839615 0.085583344 0.014698116
000110 eb e8 f1 bb 03 4f aa bd 27 f2 54 3d 72 12 ab bd
       -0.0073825023 -0.083158515 0.051988747 -0.083531275
000120 ac d9 6f bc e1 2f 25 be 27 fa 29 3e e9 64 3f 3e
       -0.014639299 -0.16131546 0.16599332 0.18690838
000130 5f 2a 2a bd 1f 7e fa bc e9 07 6a bc 90 5a 30 3e
       -0.041544314 -0.030577717 -0.0142841125 0.17222047
000140 56 6b 76 3c ca 9b 0e 3e 50 07 7c 3b be 61 1f 3d
       0.015040239 0.13926616 0.0038456507 0.038911574
000150 1d 08 03 3e bd 95 c7 be 7c ad 8f bd a9 c8 9b be
       0.12796064 -0.3898143 -0.070155114 -0.3042653
000160 b9 bf 97 3b e3 09 d6 bd fa 82 3c bd 01 6e e5 3a
       0.0046310094 -0.104511045 -0.046023346 0.0017504097
000170 41 6d 18 be ac 42 0b 3e 44 9a ca 3d 16 2c c3 bd
       -0.14885427 0.13599652 0.09892705 -0.09529893
000180 f8 97 0d ba 42 68 6c bd 99 b0 23 3e 70 3e 9e bd
       -0.0005401368 -0.057716615 0.15985335 -0.07726753
000190 1c ef f7 3d ab ef 1d 3c 11 51 bd 3d c6 b5 b1 3b
       0.12106153 0.009639661 0.09243978 0.0054232804
0001a0 ce fc 8e 3c 02 c4 8e 3c 7a 16 8c 3d b9 ba ab bc
       0.017454531 0.017427448 0.068402246 -0.02096306
0001b0 d2 d6 3a ba 72 50 8a bc 4c d3 78 bc bf 3f 2c bd
       -0.00071273476 -0.016884062 -0.015187096 -0.04205298
0001c0 24 07 2c 3e 94 59 ac bd 9c 05 97 3e 59 28 20 3e
       0.16799599 -0.08415523 0.29496467 0.15640391
0001d0 ae 36 c2 3e 9a f5 07 3e 05 4e 7e bd f2 a9 c1 3d
       0.37932342 0.13277283 -0.062086124 0.094562426
0001e0 72 f6 52 3c 6e 80 02 bd 01 85 df 3d c4 40 86 3d
       0.01287614 -0.03186076 0.1091404 0.06555322
0001f0 ba cd 94 3b b9 1f ca 3d 22 40 58 3e 93 45 e0 bc
       0.004541126 0.09869332 0.21118215 -0.027376926
000200 f1 45 50 be ef 41 a9 bc 10 97 f4 bd b1 d5 a6 bd
       -0.2033918 -0.020661322 -0.119428754 -0.08146227
000210 1b 64 f9 3b 4d d5 ff 3d 1e 9a 58 3c 1a 54 cd 3d
       0.0076108105 0.12491856 0.013220338 0.10025807
000220 2b 16 85 3d 8b bd fe bd c5 ce 12 be 0f 2b 23 3d
       0.06498369 -0.12438496 -0.14336689 0.039835986
000230 ed 75 00 be 0d 51 a5 bd 72 23 c6 bd f4 64 76 3e
       -0.12544985 -0.080721 -0.096747294 0.24061948
000240 b5 90 42 3d fd f9 9f 3c 58 03 0d 3d 34 7c a0 3d
       0.047501285 0.019528383 0.034427017 0.0783619
000250 c2 b5 f5 3d 52 99 69 3d 6a 24 84 3e 4d 0f 32 3e
       0.11997558 0.057030983 0.25809032 0.1738865
000260 0b c7 92 3d 63 43 30 3e 35 fb 77 3d 2a 93 00 3e
       0.07166871 0.17213206 0.060542304 0.12556139
000270 c7 00 17 3d 4c ae bf 3d 60 35 84 3e b4 59 be bd
       0.036865976 0.09359416 0.25821972 -0.09294453
000280 1f 1b 5d bc 23 4a 29 3d ad 62 8e bc 5f cd f1 3c
       -0.013495236 0.041330468 -0.017381037 0.029516874
000290 a2 45 53 3e ab bb e5 3d f9 30 ef bd b7 5d d9 bc
       0.20632032 0.112174354 -0.11679263 -0.026533945
0002a0 2a e4 05 3e 94 9a 9f bd 15 e7 b7 3d 3b 41 ad be
       0.13075319 -0.07793155 0.08979622 -0.3383883
0002b0 ce d0 67 3c ca 3c d8 3d b3 57 e9 3d de 71 9e 3d
       0.014148904 0.105584696 0.113936804 0.07736562
0002c0 77 4e a3 bd 0d cb cb 3d b9 4e 0e bd ae 5d 28 bd
       -0.0797395 0.09950838 -0.034743045 -0.041104965
0002d0 fc 0e 85 3d 2e b9 51 bc c2 05 eb bd c6 2e ea 3d
       0.06496999 -0.012800498 -0.114757076 0.114347026
0002e0 3a 9e 9b 3c 1b f1 73 3d ff 6a 16 be 15 48 4d bb
       0.018996347 0.059556108 -0.14689253 -0.0031323482
0002f0 90 ff 4b 3d a8 17 01 bd 50 08 9b be d7 14 8b be
       0.04980427 -0.0315167 -0.3027978 -0.27164337
000300 23 f7 01 be f8 7f b1 bb 13 1b cc bd fd 23 28 be
       -0.12691931 -0.0054168664 -0.099661015 -0.16419978
000310 f1 25 4c be 8d a0 bf ba 71 5f 08 bd af 07 7e bd
       -0.19936348 -0.0014619991 -0.033294145 -0.062019046
000320 6c eb 4e 3c 3e ac 40 be 0a a8 10 3e e4 33 5f bc
       0.012629371 -0.18815705 0.14126602 -0.0136232115
000330 28 32 52 bd 04 e6 fe 3c c0 4a 56 be f5 51 8d 3d
       -0.051317364 0.03111554 -0.20926952 0.06900398
000340 7c 8d 59 bd 9a be 07 be 47 3e 4e 3e 8b 12 c2 3d
       -0.053113446 -0.13256302 0.20140944 0.09476193
000350 34 1d 7f 3c 3f 9d 3e bc d1 ff f4 bd 21 8a b7 3b
       0.015570927 -0.01163417 -0.119628556 0.005601183
000360 31 50 bc bd 0a 54 9c 3d 5e ae a2 bd 70 15 17 3e
       -0.09194983 0.07633217 -0.07943414 0.14754272
000370 51 09 a5 3d 55 01 6e 3e a6 0c 86 3d d2 3d da bd
       0.080584176 0.23242696 0.06545381 -0.106563225
000380 3f 97 c6 bc 4a c5 c9 bd 1d b5 48 be d5 60 b3 bc
       -0.024242042 -0.09852083 -0.19600339 -0.021896759
000390 01 98 72 bd f3 95 3a 3e e0 13 f9 3d 89 23 4c bc
       -0.059226993 0.18221264 0.12161994 -0.012459644
0003a0 2b 9f 1f be e6 c5 0a 3d 0c 24 c5 3c 17 19 01 3e
       -0.15588062 0.033880137 0.02406504 0.12607227
0003b0 e2 0c 53 3d 6d 6c 14 be fb 91 19 3e a0 74 97 3c
       0.051525958 -0.14494486 0.14997093 0.018488228
0003c0 12 91 08 be 94 47 19 3e 86 0d a6 bd 45 20 fa bd
       -0.1333659 0.14968711 -0.08108048 -0.12213186
0003d0 ca 35 2e be a7 34 0a 3d c5 be 49 3e 1e 46 e7 3c
       -0.17012706 0.03374162 0.19701679 0.028231677
0003e0 77 e7 7a 3e 38 97 6d 3e 93 29 68 bc 60 1e c4 3d
       0.2450236 0.23202217 -0.014170068 0.09576106
0003f0 1f 8a c3 bc b0 44 85 3d ff 20 f0 bd 92 c3 27 be
       -0.023869572 0.06507242 -0.117250435 -0.16383198

conv3.bias f4 [256]
000000 7f 59 ab 3d 90 ac 0f be a2 fa e4 bd 88 60 94 bd
       0.083666794 -0.14030671 -0.11180617 -0.072449744
000010 3f 22 b9 3d 0b ca 94 3c 56 76 62 3d 81 e1 97 bd
       0.09039735 0.018162748 0.055288635 -0.07416058
000020 f2 31 a3 bc b0 40 9e 3e cf cb de bd ad e0 46 3d
       -0.019921277 0.30908728 -0.10878717 0.04855411
000030 61 c1 bd bd 48 0d 29 be e7 c6 aa bd a5 2b bb 3e
       -0.092654 -0.16508973 -0.08338719 0.36556736
000040 aa ae c1 3c bb 47 62 3e b9 89 5c be 7f 63 28 3d
       0.023642857 0.22097676 -0.21536912 0.041110512
000050 63 a3 23 be 1d c0 36 be 35 4b 0d be 7b 3c d4 3d
       -0.15980296 -0.17846723 -0.1379822 0.10363098
000060 49 5f 57 bd 6e 57 fc bc db 4e 02 be e0 39 48 bd
       -0.052581105 -0.030803408 -0.12725393 -0.04888332
000070 dc 67 fb bd 15 ec da 3c 41 a5 ea 3d 91 cd a3 bd
       -0.12275669 0.0267239 0.11457301 -0.07998193
000080 dc 26 0e be 2b 8c 06 bd bd 01 c2 bd 44 18 e1 bd
       -0.13882011 -0.03284852 -0.09472988 -0.109909564
000090 55 53 44 be e0 6d 88 3e 15 cb 8d 3e 04 05 cb ba
       -0.19172414 0.26646328 0.27694002 -0.0015489166
0000a0 94 50 e3 bd aa 68 03 3e dc 4d ad bd a6 1b ec 3d
       -0.110993534 0.12832895 -0.08462116 0.11528711
0000b0 e1 6a 37 be 27 ce 38 bd 09 33 c0 bd fd 09 e4 bd
       -0.17911865 -0.045118477 -0.09384734 -0.111347176
0000c0 5b 11 e0 bd 87 07 ba bb a6 3a a6 bd 31 6e 0e be
       -0.1094081 -0.005677167 -0.08116655 -0.13909222
0000d0 63 53 90 be d9 e4 11 be c0 56 8a bd 38 a6 c7 bd
       -0.2818862 -0.14247455 -0.067548275 -0.097485006
0000e0 7d 8f 5b bd 97 5d 4b 3d b5 db 60 be 5f 49 24 bc
       -0.053603638 0.0496498 -0.21958812 -0.010027259
0000f0 be c2 2f be 04 3c 82 bd 59 59 ee bb da 97 0b be
       -0.17164132 -0.06359103 -0.0072738347 -0.13632146
000100 e5 0f 2c 3b 3d 52 3e bd 8b e4 23 3b 36 a4 7a bb
       0.002625459 -0.046465147 0.0025008048 -0.003824485
000110 25 4c 9d bd 28 fe be bd 0c f8 90 bd a8 b4 13 be
       -0.07680539 -0.0932582 -0.07078561 -0.14424384
000120 da 6a 28 bd 1f f8 79 bd 1b ec 94 3d d8 d0 bd bd
       -0.041117527 -0.061027642 0.07271596 -0.092683494
000130 34 79 a6 bb 80 66 d2 bd e2 79 34 be e6 1f de bd
       -0.0050803665 -0.102734566 -0.1762462 -0.10845928
000140 aa 84 21 be 38 50 e0 38 3e 29 07 be 49 d9 31 3e
       -0.15773264 0.00010696094 -0.13199326 0.17368044
000150 62 6c db 3e 32 8c 91 bd ff 2a 35 3d e4 88 4b 3c
       0.42856127 -0.07106818 0.044230457 0.012422774
000160 ad 8a 34 be 26 3f 7d 3c fb d4 49 be 3e 71 43 be
       -0.17631026 0.01545695 -0.19710152 -0.19086167
000170 b6 2e 7e bd 9e 40 a8 bd 32 8e b4 3c ed af 79 bc
       -0.062056266 -0.0821545 0.02204046 -0.015239698
000180 d9 cf 6e bd 3b 81 f2 bd 6a 76 46 be b6 ec f9 bd
       -0.058303688 -0.11841055 -0.19381109 -0.12203352
000190 91 ed 0c be 1f 34 26 be 93 f2 0b 3e e9 7d 68 bd
       -0.137625 -0.1623082 0.13666753 -0.056760702
0001a0 9e 0c 84 bc 37 69 f4 bd 3b aa 99 3d 5a cc 67 be
       -0.016119298 -0.11934131 0.07503172 -0.22636548
0001b0 65 f6 15 bd 02 21 27 3e 76 62 86 3d f6 d6 f8 3d
       -0.036611933 0.16321185 0.06561749 0.121503755
0001c0 9a 2f 24 bd fc 06 8b 3e 63 63 b9 bd c8 35 c0 3d
       -0.04008446 0.27153766 -0.0905216 0.09385258
0001d0 08 37 26 bd 74 2e fa bd cc 3a 9b bd 01 b8 ff 3d
       -0.040579826 -0.122158915 -0.07579574 0.12486268
0001e0 d8 7a f3 bb a5 76 b2 bd 4d 07 23 3d cd b6 02 be
       -0.0074304156 -0.08714036 0.039801884 -0.12765045
0001f0 27 a9 85 3e 97 eb cc bd ea d6 09 bc 98 e9 84 3d
       0.26105615 -0.10005873 -0.008413056 0.06489867
000200 fe 68 32 be 3a c8 61 be 39 28 3f 3d ea c1 b1 3e
       -0.17422864 -0.22049037 0.04666922 0.34718257
000210 91 ae dc bd 29 be 47 bd 2a 81 a3 3e 7a 72 8b 3d
       -0.107754834 -0.048765335 0.31934482 0.06808944
000220 26 6d d7 bd e2 5f 99 bd 80 34 a9 bc be ca 42 bd
       -0.10518865 -0.07488991 -0.020654917 -0.04755663
000230 8a d0 a3 3d da 45 07 3c ac 07 2c 3e 31 69 1d be
       0.0799876 0.0082564 0.16799802 -0.15372159
000240 b7 dc c1 3c 64 95 61 be a9 37 cf 3d dc 01 9a bd
       0.023664815 -0.22029644 0.10118038 -0.07519886
000250 33 93 34 3e 9b ed 1e 3d 92 8a 83 bd 9e 91 1e be
       0.17634277 0.038800817 -0.064229146 -0.15485236
000260 d8 b3 b2 3d 40 25 31 be 01 82 d2 bd e0 34 0a be
       0.08725709 -0.17299366 -0.102787025 -0.13496733
000270 fd 88 0d 3c 07 3a d8 3b 00 cf 6f bd 45 65 96 3d
       0.008638618 0.0065987143 -0.05854702 0.073435344
000280 b7 b0 19 3e 28 9d 9e bd 91 ab cb bd 93 aa a7 bc
       0.15008818 -0.07744819 -0.09944833 -0.020467078
000290 d4 9c f5 3e 01 a7 e1 bd 3c 8b 8d bd 1b d7 2c be
       0.47971213 -0.110181816 -0.069113225 -0.16878931
0002a0 95 52 3e be bb 19 dc bd b6 31 6c 3d 51 26 09 bd
       -0.1858619 -0.10747095 0.057664596 -0.033483807
0002b0 af 64 a9 bc ac 89 65 bc 77 83 9b 3d bf 2b 49 be
       -0.020677892 -0.014009874 0.07593434 -0.19645594
0002c0 a2 d3 9f bd 46 c5 10 3e 20 dc 67 bd 12 3c b9 bd
       -0.07804038 0.14137754 -0.056606412 -0.09044661
0002d0 10 cf f6 bd 0e 3a 2d be 21 9a 06 3d 19 f5 54 3d
       -0.12051213 -0.16916677 0.032861833 0.051991556
0002e0 f6 20 d8 bd 46 de ee 3c 2c 9c 35 3e 87 dc 8b bd
       -0.10553162 0.029158723 0.17735356 -0.06829172
0002f0 67 05 b8 bc 9e 2b 11 3e 1a f6 26 be 16 82 b8 bd
       -0.022463514 0.14176795 -0.16304818 -0.09009187
000300 37 45 b8 3d a0 e6 c9 bd 37 40 a8 bd 57 80 cd 3d
       0.08997577 -0.09858441 -0.08215373 0.100342445
000310 24 7e 24 be 61 2f 67 bc 19 cd 22 3e 66 8a e1 bd
       -0.16063744 -0.014110417 0.15898551 -0.110127255
000320 24 42 48 be 8f 4e 27 3d e1 00 ca bd e2 fe 33 3b
       -0.1955648 0.040846404 -0.09863449 0.0027465154
000330 8e 5b 26 be 84 30 bb 3e e8 67 f0 3c e1 a8 d7 bc
       -0.16245863 0.36560452 0.029346421 -0.026325645
000340 fb 9c 08 be 58 29 8c bd 27 2f d7 bd 9b ac 0f be
       -0.13341133 -0.06843823 -0.105070405 -0.14030688
000350 ed ce 26 bc ee 49 c6 bd 34 0e 12 be 8d c9 6b bd
       -0.010181171 -0.0968207 -0.1426323 -0.05756526
000360 d7 1c 9c bd df e9 88 bd 48 ab 84 bc 4b 51 80 3c
       -0.07622688 -0.06685232 -0.016194955 0.015663764
000370 58 bd 90 3e a8 38 fd bd 8b 26 30 bc cd 3a e6 bd
       0.28269458 -0.12364322 -0.010751377 -0.11241684
000380 d4 3c 68 3e 4b f2 af 3d b5 e3 b9 bd d6 dd e2 bc
       0.22679454 0.085911356 -0.09076635 -0.02769367
000390 2f ff 2e be e5 35 5d be 50 36 2e be 8f 39 5c 3d
       -0.17089532 -0.2160259 -0.17012906 0.05376583
0003a0 da d5 52 bd cc a0 d9 bd a3 10 47 be 66 b5 ec bd
       -0.051473476 -0.10626373 -0.1943994 -0.115580365
0003b0 be ec 04 3d ec b9 0f be 3e 1f f1 bd 52 6c 1b 3e
       0.032452337 -0.14035767 -0.11773537 0.1517804
0003c0 a6 d6 90 bc 4e c2 5d bd ed 1e f3 3c fb 57 9a 3d
       -0.017680477 -0.05414038 0.029677832 0.07536312
0003d0 d4 09 40 be a2 3b bf 3e c8 7d 89 3a b1 1b 2f 3c
       -0.18753749 0.37350184 0.0010489756 0.0106877545
0003e0 88 a7 27 bc ee 36 32 3d a6 24 00 be 61 97 78 bd
       -0.010232814 0.043509416 -0.1251398 -0.06069124
0003f0 8a 8a 46 3e 62 0e 5a be 6b 89 e1 3b 56 13 89 bd
       0.19388786 -0.21294549 0.0068828366 -0.06693141

fc.weight f4 [12, 256]
000000 57 c5 1d 3d 36 4a 1d 3d 8e d6 03 bd 53 74 91 3b
       0.038518276 0.03840085 -0.032187037 0.0044389158
000010 e4 9d 9f bd ab 09 38 bd 0d b1 75 bc 94 dd 8a bd
       -0.07793787 -0.044931095 -0.0149958255 -0.06780544
000020 c2 46 35 3d f5 a3 98 3d fe 29 91 bd 40 ce cb 3c
       0.044256933 0.07453147 -0.070880875 0.024878621
000030 05 08 de 3b e6 9b 9b bd 0e 1c 2e bd 3a 34 30 3d
       0.0067758583 -0.07598095 -0.042507224 0.043018557
000040 1a 7a 8c be d2 38 28 3c 04 7e 95 bc 86 9c 87 3d
       -0.27436906 0.010267453 -0.018248565 0.06621651
000050 3e 02 13 bd 34 c2 f2 3c d3 c2 52 bd ce 7c f0 3c
       -0.03589081 0.029633619 -0.05145533 0.029356387
000060 eb 84 a2 3c 5b 54 34 3d d9 6e 1a bd ac f5 27 be
       0.01983877 0.04402576 -0.03770337 -0.1640231
000070 70 4f 59 3d 96 c6 3d be f6 97 88 3d 23 db 05 3b
       0.053054273 -0.18532786 0.06669609 0.0020424805
000080 c2 8b c7 bc 94 79 d9 3c ae 64 1d bc 68 0b 2d bb
       -0.024358634 0.02654723 -0.009606523 -0.0026404504
000090 10 65 db 3b f9 6c af 3d a3 a5 0f 3d 3c ee 46 3d
       0.006695397 0.08565707 0.035070073 0.04856704
0000a0 e2 88 6b bd 09 7b 35 3d 03 4a 27 bd f4 0e f5 3b
       -0.05750359 0.04430679 -0.040842067 0.007478589
0000b0 17 52 02 be 99 c9 98 bd 9d fa 0c bd e2 9a a7 3c
       -0.12726627 -0.07460327 -0.03441869 0.020459596
0000c0 ba fc fc 3c 8f fb 6e 3d 87 37 ce bd 55 3d 1a bd
       0.030882228 0.058345374 -0.10069185 -0.037656147
0000d0 35 5b 05 bd e7 c1 35 be d2 47 ab bd c1 6e ac bc
       -0.032557685 -0.17749749 -0.08363308 -0.021048905
0000e0 6b e3 61 bb 56 1d bf bd 52 5b ba bc 19 29 81 bd
       -0.0034467827 -0.09331767 -0.022748623 -0.06306667
0000f0 33 f0 32 bd 0b 10 30 3d 8a ba e7 bd ff 63 e8 bc
       -0.043686103 0.04298405 -0.113148764 -0.028367994
000100 7b 9e d9 bd b9 e7 af bd 79 f9 0c bc 19 17 2a bd
       -0.10625931 -0.085891195 -0.008604401 -0.041525934
000110 b7 5b 24 bc 86 d3 e8 3c cc 59 11 bd 45 eb 30 bd
       -0.010031632 0.028421175 -0.035486028 -0.04319312
000120 d1 e0 e1 3c cd 33 3a bd cf 9c 1f bd 5d 4b 96 bd
       0.027573021 -0.045459557 -0.038967904 -0.07338593
000130 d1 0c 74 bd 74 27 99 bd ee 8d 89 bd 81 d6 79 bd
       -0.059582535 -0.07478228 -0.06716524 -0.060995582
000140 4f 79 ac bd 9c bd 50 bd 4d 1a 32 3d 7c 07 2f 3d
       -0.08421575 -0.050962076 0.043482114 0.042731747
000150 bc 06 20 3d 5a 5c 83 bd db 2f a2 bd 98 94 a0 3c
       0.039068922 -0.06414099 -0.07919284 0.019602105
000160 c2 c2 eb be 0e ea ea 3c 91 f0 df bb 09 d1 2e be
       -0.46047026 0.02867606 -0.0068340977 -0.17071928
000170 ee 51 91 bb 35 25 75 3d fc c7 35 be 1d 5c 14 3c
       -0.0044348156 0.059849937 -0.17752069 0.009055165
000180 44 19 ba bc 68 bb 97 bd ad d8 1f be aa 0b 39 3c
       -0.022717126 -0.07408792 -0.15609999 0.011294285
000190 84 85 c8 be b9 aa 8d 3d b0 f6 17 bc a0 3a 84 3d
       -0.39164364 0.069173284 -0.0092751235 0.06456494
0001a0 26 fe 64 bd 9e 9c c4 bd e4 f6 38 3d 17 89 29 3d
       -0.055906437 -0.09600185 0.04515733 0.041390505
0001b0 33 fb 8b 3d 1a 11 d9 bd 47 fc 73 3c 27 2c 3a 3c
       0.06835022 -0.10598965 0.014891691 0.011363066
0001c0 d1 19 12 3d 17 60 01 3d 4a 3b 9b bc f0 89 e1 3c
       0.03566915 0.03158578 -0.01894917 0.027531594
0001d0 50 ca 66 3d 9c c6 ba be 2b 38 cc bd cd ae 96 3c
       0.056345284 -0.36479652 -0.09971651 0.018393898
0001e0 86 be a0 3c 02 99 a3 3c 23 0c 96 bd 6f a6 18 3d
       0.019622099 0.01997042 -0.07326534 0.0372681
0001f0 5a 3b 41 3d 60 fd 85 3c 22 38 07 3d 0f 32 97 3d
       0.047175743 0.01635617 0.033012517 0.07382595
000200 77 fb 04 be 70 58 03 bd bb 43 fb 3b 17 ad c7 3c
       -0.12986551 -0.032066762 0.007667986 0.024374528
000210 8b 6e 83 bd 5d 5e b9 bc 04 5f b1 3c f4 a8 3b bd
       -0.06417569 -0.022628004 0.021651752 -0.045815423
000220 79 a0 98 3d 4e d9 71 bd 69 98 40 3c 42 c9 80 bc
       0.07452483 -0.05904513 0.011755087 -0.015720967
000230 a0 77 7e 3d f4 69 cd 3b 6c e4 3d 3c 24 35 2d 3c
       0.062125802 0.006268734 0.011590105 0.010571752
000240 84 23 f6 39 eb ad 8f bd 32 77 cb 3d 05 f2 33 3d
       0.00046947238 -0.07015594 0.09934844 0.04393198
000250 6c 13 d6 3c 80 ca 27 bd 37 ec fb bc c6 71 46 bd
       0.026132308 -0.040964603 -0.030752284 -0.048448347
000260 b9 5e ae 3c c0 f5 17 bd 22 13 b8 be da 36 07 bd
       0.021285402 -0.0370996 -0.35952097 -0.033011295
000270 f6 89 41 3c 64 63 de 3c 78 df 00 3d 01 8b 5b bc
       0.011812678 0.027147003 0.031463116 -0.01339984
000280 ec 1a d8 3c 27 f6 3a bd 2e 08 6f 3c 35 aa 70 bc
       0.026380025 -0.045644905 0.0145893525 -0.014689018
000290 45 88 5f 3b 26 a5 cd bc 0f 32 5a bb a0 76 1b bc
       0.0034108323 -0.025103163 -0.0033293997 -0.009488732
0002a0 b2 37 b7 bc 11 42 54 bd 6c 6a d5 bb bd 76 94 bd
       -0.022365425 -0.05182082 -0.0065129306 -0.0724921
0002b0 ad 52 08 be 6d 3f 0b bd 8f 1e 7b 3d 8d 2b b3 bc
       -0.13312788 -0.033996034 0.06130844 -0.021871353
0002c0 84 73 78 3b a4 7a d9 bb fd 9c 21 bd f3 c4 72 bd
       0.003791065 -0.0066369344 -0.039456356 -0.059269857
0002d0 51 93 c2 3c e0 9a b7 3c 19 ac 0b bd 42 d3 8a 3b
       0.023751887 0.022412717 -0.034099672 0.0042366097
0002e0 54 e2 69 3d a9 96 c3 3d 7f 33 d1 3c 81 d2 ef bc
       0.05710061 0.095502205 0.02553725 -0.02927518
0002f0 f6 af 05 bd d1 3b 38 bd 37 d9 59 bd 8f 9e a8 bd
       -0.032638513 -0.04497892 -0.053185668 -0.08233368
000300 5d 8b 83 3c 72 51 46 bd 36 1d 11 3d 87 03 25 3d
       0.016057665 -0.048417516 0.03542825 0.040286567
000310 9b 7c 9b bc 5e a9 b0 be ca 56 de bb 41 98 56 be
       -0.018980315 -0.34504217 -0.0067852484 -0.20956518
000320 18 5d 79 bc 7a e6 99 bd 49 d4 7b bc 82 f8 ce 3c
       -0.015219949 -0.07514663 -0.015370437 0.025264982
000330 6e 44 60 bc ac 27 a1 3c 59 18 d2 3b b8 62 6d bd
       -0.01368819 0.019672237 0.006411594 -0.057955474
000340 58 03 58 bc ef 0a 0e be 21 c4 32 bc 8c f8 b3 bc
       -0.013184391 -0.13871358 -0.010911019 -0.021969102
000350 07 29 a2 3d 4f 9d 03 3b 39 72 b5 3c 38 ab c1 3c
       0.079179816 0.0020082777 0.022149192 0.023641214
000360 56 2d 17 3c 34 bc 79 bd 84 b8 10 bd 24 14 f8 bd
       0.0092271175 -0.0609705 -0.035332218 -0.121132165
000370 6d 7d d3 3c 2c e1 a0 bc 74 22 e0 bd 01 ba 81 3c
       0.025816644 -0.01963862 -0.109440714 0.015835764
000380 b8 f5 fa 3c 94 03 25 3e 11 81 e8 bc 8b aa 55 3c
       0.030634746 0.16114646 -0.028381856 0.013041149
000390 22 e2 0a bc 06 2a 47 bd 15 1d 83 bd b3 8e ba bb
       -0.008476766 -0.04862406 -0.06402031 -0.0056932806
0003a0 e8 15 c8 3c 6a a8 bd bc dd 50 8a bd 24 a2 d7 bc
       0.024424508 -0.023151595 -0.06753705 -0.026322432
0003b0 56 23 76 bd b9 9b 93 bd fd ac 11 3d fd c8 87 3d
       -0.060092293 -0.07207436 0.035565365 0.06630132
0003c0 78 ab a1 bd e8 72 7e be b3 36 01 bd 6e d2 37 bd
       -0.07894033 -0.24848521 -0.031546306 -0.044878416
0003d0 72 cd aa bc 80 ab 15 3d b3 bf 0f be c2 81 41 3d
       -0.020849917 0.03654051 -0.14037971 0.047242887
0003e0 b2 bd 09 bb 04 0a d2 3c 1c d9 02 bd e3 5d 59 bd
       -0.0021017608 0.025639541 -0.031945333 -0.053068053
0003f0 a8 65 7d 3d 7b 24 fb bc 67 dc 9d 3d fc 53 2d 3d
       0.061864525 -0.030657044 0.07708054 0.042316422

fc.bias f4 [12]
000000 45 db 07 be b4 50 bd be ef 9e f5 be 87 05 e3 bd
       -0.13267238 -0.36975634 -0.4797282 -0.11085039
000010 d4 0f e0 be 5f 96 e3 bd f7 a0 ed ba b5 35 97 bd
       -0.43762076 -0.111126654 -0.0018129636 -0.07383291
000020 21 1c 98 be 06 e3 97 3e b0 0d 0a 3d ca 66 e5 be
       -0.2970896 0.29665393 0.03370446 -0.44804984
