src/main/python/saved_models/java_1_28_CNNClassifier1_32embs_109id_32hd_0hl_Falsebid5kernel0.3dropout_0.pt (torch, 386507 bytes, 9 tensors)

emb.weight f4 [109, 32]
00000000: d7e2 dabf a2c0 88be 1426 82bf 4787 f1bf
00000010: f9e9 043c 7ac5 9cbf f0f3 72bf d661 aabf
00000020: 6f23 5ebf 10a4 fd3d d08b 06bf 1314 cf3d
00000030: d3b9 823e 8d10 a83f b618 09be 0653 dfbd
00000040: 444b 46bf fe7a 70bf 3ae9 ab3e 326b c1be
00000050: c195 5d3f 147a babe 80c4 9cbf 4bc2 023f
00000060: 4beb 913f 8df1 0abf e330 1cc0 bbfb 67bf
00000070: 733a 063f e37d 00bf 7256 a6be f972 8c3e
00000080: 678e f03f d4b9 93bd 9e8e 213e 2401 46bf
00000090: 78d5 4b3e d632 3b3d bda0 1c3e 2c8c f3be
000000a0: 5d5e e3bd 65e1 953e 29a2 21be 02d3 ebbc
000000b0: e8da 1640 84c7 84bf fc92 c93f ab3d 21bf
000000c0: 8b69 6dbf 658e 0b3f f2bd 873d b9c3 dfbe
000000d0: cb39 433f b80d e23e 4223 953f 2efc 0040
000000e0: dab5 0c3e 054b 703f 1277 3ebe 1507 25bf
000000f0: 0206 c53f 4b9d 5ebf 9f31 55c0 8e74 3fbf
00000100: daf7 353f 7944 b8bf f4a5 fd3d 8594 cebe
00000110: d225 19bf 6d41 0e3f 6eb3 a03f d01f 963d
00000120: 0ed3 7cbe 3071 f5be fc94 a2bf 6159 77bf
00000130: bd41 16bf 3410 1b3e f7e1 4c3f 9632 48bf
00000140: e6f8 79bf 76fb 0abf 4b61 4bbf d519 803f
00000150: 5186 1dbf 74fc 243e 0643 5c3f 98c2 0c3f
00000160: 3190 88be 33fb fc3d c799 5dbe 1e9c 943f
00000170: 9ea5 a1bf a43e e8be 3179 e8be c5eb a43f
00000180: 1e89 903f 42ab 2f3f 12b1 983f c37a d2be
00000190: a107 ae3f 9395 babe c023 96bf f61b 8c3f
000001a0: b09d d53f 10c3 593f 7e04 2cbf 4775 39bf
000001b0: 1f22 1ac0 1fc5 f2bd 243c 88bf 272b 47bf
000001c0: 2df1 353f 045e 57bf 58dd b53f 36e6 843f
000001d0: b4bc 0d3f 5e79 3a3f afe8 633f a152 083d
000001e0: 06e2 0840 c278 463e 374d c53e b64d da3f
000001f0: 795c 09c0 a853 b23f 6bea e1be dcdf 69bd
00000200: db1e 933f d4a8 bcbf 6dcf f83e a625 7a3f
00000210: c692 0bbe 7d52 58bf 05c3 b03e 29fd cbbe
00000220: e433 a7bf fc53 74bf bdfb a03e 8f6e 4d3f
00000230: 8863 c63f 7022 883f e7fe fe3f c597 56bf
00000240: d6b9 efbf 3e99 e1bf 5a3c f63f 9bff b13f
00000250: 0b2d 743f 1758 453f b371 a03f 4947 66be
00000260: 4e29 e4be d257 383f 3077 8e3f 4776 af3f
00000270: 6836 333f 2255 0b40 8c02 aebf 438e c73f
00000280: c4bc 943f 02da 78bf 4c65 803d f3f3 0f3f
00000290: 3934 69be c7c0 a8bd a429 993d 6ba3 7b3f
000002a0: 2345 643f 88ba 953f f259 863d b95f 0fc0
000002b0: 0b1a 78bf dc78 ea3d c495 c43e 93b1 be3e
000002c0: 0d57 d23e 7619 423f a1a0 313f ab7a 0840
000002d0: dce7 bf3c de4d 543f 90dc 383f 1204 173f
000002e0: 5088 8f3f a774 143f 4bd7 853f 34e0 ab3f
000002f0: 7b86 3cbe 9129 0b3f 8742 95bf 4114 38be
00000300: cc8b 0d3d 27dc ba3e 72c8 cd3f 4a87 20be
00000310: e0ff d83e 8a4f 9fbf b4f8 17c0 31df 47bd
00000320: 7b97 5fbf 6a8f 903f e9a5 58bf 6450 cf3e
00000330: be13 a1bf 6c2d 023f 7022 3a3f 463a 78bd
00000340: fd3e 673d 28e9 c93d 57ee 963e 8674 0140
00000350: 6901 c03e 46fc 1140 6897 ff3f c14f 0140
00000360: 7dfa dcbf ca46 bb3f a33f f93f 9b2b 1fbe
00000370: 904c 6cbe 6a64 b43d c994 d93e b7be 763f
00000380: 25fd 1340 e58b c0bf b040 253f 1595 afbd
00000390: ed03 3a3f 6eae d03f 5df8 b7be e1fc 3d3f
000003a0: 0b34 353f d66f ef3e 1869 ebbe 0d54 13c0
000003b0: 2702 273f 126a a9bf 8302 bbbe daf2 bf3e
000003c0: c08e 8a3e 7dae 6f3f 961a c63f a758 283e
000003d0: c4da 3c3d fab4 f6bd c946 e83e 18e8 423f
000003e0: 7a54 a93d ff6b 8a3e ac81 293d 7caf 643d
000003f0: 10b2 5ebe 0b00 b2bf d63b 68bf 9a34 e3be
-1.7100476 -0.26709467 -1.016787 -1.8869408 0.008112424 -1.2247765 -0.9490347 -1.3311107
-0.8677282 0.12384808 -0.52557087 0.10111251 0.25532398 1.3130051 -0.13388333 -0.10904507
-0.77458596 -0.9393767 0.33576375 -0.37777096 0.8655663 -0.36421263 -1.2247467 0.5107772
1.1399931 -0.5427483 -2.4404838 -0.90618485 0.52432936 -0.5019209 -0.32487828 0.27431467
1.8793458 -0.07213178 0.1577706 -0.7734549 0.1990565 0.045702778 0.15295692 -0.4756788
-0.11101983 0.29273525 -0.15784515 -0.02878714 2.357111 -1.0373387 1.5747981 -0.6298472
-0.9273917 0.5451415 0.06628026 -0.43704012 0.7626006 0.44151092 1.1651385 2.0153918
0.13741246 0.9386447 -0.18600109 -0.6446393 1.5392458 -0.8695876 -3.3311536 -0.74787223
0.71081316 -1.4395896 0.12385169 -0.40347686 -0.59823334 0.5556858 1.2554758 0.073302865
-0.24689886 -0.47937918 -1.2701716 -0.96620756 -0.5869406 0.151429 0.80032295 -0.7820219
-0.97645414 -0.5428995 -0.7944533 1.0007883 -0.61533076 0.16111928 0.8603977 0.54984426
-0.2667251 0.123526 -0.21640693 1.1610143 -1.2628667 -0.4536029 -0.45404962 1.2884451
1.1291845 0.68620694 1.1929038 -0.41109285 1.3596078 -0.3644224 -1.172966 1.0946033
1.6688747 0.85063267 -0.67194355 -0.72444576 -2.4083326 -0.11854004 -1.0643353 -0.7780022
0.7107113 -0.8412783 1.4208174 1.0382755 0.55366063 0.7284144 0.8902692 0.033281926
2.1387954 0.19382003 0.38535473 1.7054965 -2.146269 1.393178 -0.4412416 -0.057098255
1.1493791 -1.4739022 0.48595753 0.97713697 -0.13630208 -0.8450087 0.34523788 -0.39841583
-1.3062711 -0.9544065 0.3144206 0.80246824 1.5499125 1.063551 1.992154 -0.8382533
-1.8728588 -1.7624891 1.9237168 1.390613 0.9538123 0.7708754 1.2534698 -0.2248813
-0.44562763 0.72009003 1.1130123 1.370797 0.7000489 2.177071 -1.3594527 1.559029
1.1620107 -0.97207654 0.06269321 0.5623161 -0.22773828 -0.08239894 0.074786454 0.9829623
0.89167994 1.169755 0.065601245 -2.2402174 -0.9691474 0.11448833 0.38395512 0.37244853
0.4108204 0.758201 0.69385725 2.132487 0.023425989 0.82931316 0.7221155 0.58990586
1.1213474 0.579905 1.0456327 1.3427796 -0.18410675 0.543603 -1.1660928 -0.17976476
0.03455715 0.36496088 1.6076796 -0.15676609 0.42382717 -1.2446148 -2.3745546 -0.048796836
-0.87340516 1.1293766 -0.8462816 0.4049102 -1.258415 0.5085056 0.727088 -0.06060245
0.056456555 0.09858924 0.29478714 2.022737 0.37501076 2.2810225 1.996808 2.0204928
-1.7263943 1.4630978 1.9472545 -0.15543978 -0.23076081 0.08808215 0.42496327 0.9638476
2.3123257 -1.5042692 0.6455183 -0.08573357 0.7266224 1.6303232 -0.35931674 0.7421399
0.70782536 0.46765012 -0.45978618 -2.302005 0.6523766 -1.3235495 -0.36525354 0.3748997
0.27062035 0.93625623 1.5476863 0.16440068 0.04610707 -0.12046237 0.45366505 0.76135397
0.08268066 0.2703552 0.04138343 0.055831417 -0.21747613 -1.3906263 -0.907163 -0.4437607

conv1.weight f4 [32, 32, 5]
00000000: 51f3 8d3d 4542 513e 5a45 b93c df6d 80bc
00000010: 1466 f0bb 7002 333c 38c6 9d3d a6f6 15be
00000020: e3f8 4abe 7b59 a03b f990 96bb de6d 793d
00000030: d63d 203e 8eaf 9abd 5d93 153e f654 3cbe
00000040: fcaa e43d eeb6 693d 31de 683d 676c 53bc
00000050: 751f 873d 9f02 e1bd 7402 223e 27ed cd3d
00000060: d1f6 08be 7ddf d83d 8665 c53d f6f9 e33e
00000070: d463 af3e 25f9 e23c 25f2 c3bd 4a0a 153e
00000080: 44a8 10be 953a dd3d 2a72 9fbd 7dd7 0a3d
00000090: 22ec 9cbd af3b c1bc b127 243e 819f 4f3e
000000a0: 62f6 48bd a2ee b83d 92a7 003e e7bb 14bd
000000b0: f0c1 803e 7a7d 75bd af15 e8bd a5ed b93d
000000c0: e7c6 9c3e 5af6 223e ad85 8f3d 3ed1 6ab9
000000d0: 0a7a 363d 5ba0 2bbe 95e8 703e 8873 28bd
000000e0: b5c8 68bd 2259 aebe 0c87 39be 4b32 e83d
000000f0: b250 1f3d 9316 7b3e b02d 3b3b 487d 213d
00000100: 75dc 65bc d4bd 233e c621 e93d 61a3 e43d
00000110: 7373 ee3d d1b7 39bd 9127 36bc 11a1 c2bd
00000120: 1b5b 30be b0c6 50be 4593 2bbd 86e2 833d
00000130: df78 edbc 7fc2 363e 70ea 263b 6294 19bd
00000140: 9a9f dfbc a2ed a4bd 9a13 0ebe 85ca 85be
00000150: 06cd 80bd 6979 d13d 2cb6 b43d 438e ed3c
00000160: 5d64 4fbe 87d7 873c d4fb 97bb 0eb7 cf3b
00000170: fb42 b3bd 3b91 e63d 52cd 25be 9bc5 f1bd
00000180: ecef 8c3c 3055 6abe 5c58 c0bd 8515 04bd
00000190: a7cd f93d 35cd b2bd e767 163d 840a 873e
000001a0: 06f9 45bc 2448 3a3e f0f6 5fbd abdd 363e
000001b0: e587 0b3c 8d1c 07be 9fce 34be a1d9 fdbc
000001c0: 4145 c9bd 600f 5bbd 8b39 15bd d182 88bc
000001d0: 1465 e03d ee20 97be 52e4 97be 828f 49ba
000001e0: 19eb 0abe db3f 20ba 6ad9 133d fe7f 9dbd
000001f0: ad2b bc3d f68d d73d a479 a93d 6a20 0e3e
00000200: e749 50bc df32 943b 9446 44be 6b2c babb
00000210: bd04 9b3d fa57 903e 0ea6 aabd abb7 a0bd
00000220: 284a ba3b d469 8c3e 1e52 7d3e 3821 1a3c
00000230: 9d66 d83d 4d3e 1dbe ed81 8bbe 83d7 24be
00000240: e905 6e3e e386 86bd 690c 3ebc 726d a0be
00000250: 6e79 1c3d 03ac 5d3d 8716 103d da56 443b
00000260: b090 73be c04b e2be ee58 a83c 6e6a fe3b
00000270: 478d 7abd 68ff 743d dc8d 3a3d 6ef9 be3c
00000280: f371 273e 2e9c 033e 8c53 31bd 20b9 f73b
00000290: 3f9e 043c dcfe c9bd a0fd d43d 193c 2a3e
000002a0: 6ae6 0dbe 0d8f a43b bf0a c63d ee71 96bd
000002b0: 3a2e 583c 991b 913c 2e7b b8be c9f3 3f3e
000002c0: fdf5 0e3c 36cf 0b3e cfa8 883c 57df a5bc
000002d0: 81b8 98be fcc5 40be 9ca9 563b 704a f13d
000002e0: 21e1 583d 678e 22be 5f47 ba3c 49ae 54be
000002f0: 8df3 90bd 3e6b b9bd 0aea acbd c35d 8d3d
00000300: 0080 99be 3ad7 a23e 0839 803d e498 bdbb
00000310: e447 d3bd 82f5 133e bbd0 3d3d cd40 cdbc
00000320: dce2 783d 4afd b43e 40fd 84bd f4df 203e
00000330: 8836 b63a 3306 be3d 1f82 103d ba26 803e
00000340: d257 443e 129d 91bc 61bb 83be a8d3 cfbc
00000350: 362d b03e c49b e1bc 5f03 1d3d 1613 e1bd
00000360: 8c1a ed3d 63bf c03d 690c c3bd de14 783e
00000370: 141f 54bd 06b1 6f3c b89b 8b3d 26e0 633d
00000380: 6798 babd cae8 813d 8d6d 1c3b d3bc eb3c
00000390: 6e73 99bd 6b4d 223c d779 64be a800 47be
000003a0: c13e 95bd 17e8 02be 4403 2bbe 710e b2bd
000003b0: 899b 553e 5fd3 383d e58e 123e 80f9 ab3e
000003c0: a46e 003e ba34 713d 18a8 8e3d f4cc 52bd
000003d0: 768a b63e bae9 453c 1d6f 8bbd 99bb 863e
000003e0: daea ff3d 2912 433e 6464 ff3a 6ef9 2abe
000003f0: bf79 f8bb e986 603d 5ccc 0c3d 71bb 043e
0.069311745 0.20435436 0.022616077 -0.01567739 -0.0073363874 0.010925874 0.07703823 -0.1464487
-0.19821505 0.0048934794 -0.004594919 0.060895793 0.15648589 -0.07553016 0.14606996 -0.18391785
0.11165425 0.05705922 0.056852523 -0.012904263 0.06597797 -0.10986828 0.15821248 0.10054999
-0.13375403 0.10589502 0.09638505 0.44526643 0.3425585 0.027706692 -0.0956767 0.14554706
-0.14126688 0.10802189 -0.07785447 0.033896912 -0.07662226 -0.02358803 0.16030766 0.2027569
-0.049063094 0.090298906 0.12563923 -0.03631201 0.25147963 -0.059934117 -0.11332261 0.0907853
0.306205 0.15914288 0.070079185 -0.00022393928 0.04454998 -0.1676039 0.23526223 -0.041125804
-0.056832034 -0.34052378 -0.18117923 0.113377176 0.038895316 0.2452033 0.0028561167 0.039426118
-0.014029612 0.15990382 0.11383395 0.111639746 0.11643114 -0.045341317 -0.011117832 -0.09503377
-0.17222254 -0.20388293 -0.041888494 0.0643969 -0.0289883 0.17847632 0.0025469325 -0.037495025
-0.027297784 -0.08053137 -0.13874665 -0.26131073 -0.06289105 0.10228235 0.08823809 0.0289985
-0.2025313 0.016582264 -0.0046381745 0.0063389605 -0.0875301 0.11258169 -0.16191605 -0.118052684
0.017204247 -0.22884059 -0.09391853 -0.032247085 0.12197428 -0.087305464 0.036720183 0.2637521
-0.012083298 0.18191582 -0.054678857 0.17857997 0.0085162865 -0.13194485 -0.17656945 -0.030987563
-0.09827662 -0.05348146 -0.03643183 -0.01666394 0.10956779 -0.2951731 -0.29666382 -0.0007688926
-0.13566245 -0.0006113031 0.036096014 -0.07690428 0.09188018 0.10525124 0.08275154 0.13879552
-0.012712932 0.004522666 -0.19167548 -0.0056815646 0.07569263 0.2819212 -0.08332454 -0.07847532
0.0056851096 0.2742449 0.24738356 0.009407334 0.10566447 -0.15355797 -0.27247563 -0.16097836
0.23244442 -0.06568696 -0.0115996385 -0.313335 0.038201742 0.05411912 0.035177734 0.0029958994
-0.23785663 -0.44198418 0.020550217 0.0077641523 -0.06116989 0.059813887 0.045545444 0.023312297
0.16352062 0.12852547 -0.043292567 0.0075599104 0.008094369 -0.09863064 0.10399938 0.16624488
-0.13857427 0.005021936 0.096700184 -0.07345949 0.013194615 0.017713355 -0.3603148 0.1874534
0.00872564 0.13653263 0.016682057 -0.020248098 -0.29828265 -0.18825525 0.0032754904 0.11781776
0.052949075 -0.15874635 0.02273911 -0.2076961 -0.070777036 -0.09053658 -0.08443077 0.06902649
-0.2998047 0.3180483 0.06260878 -0.0057860482 -0.103164464 0.14449123 0.04634164 -0.025055313
0.060763225 0.35349494 -0.06493616 0.15710431 0.001390175 0.09278526 0.035280343 0.25029546
0.19174126 -0.017775092 -0.25728896 -0.02536948 0.34409493 -0.027540095 0.038333293 -0.109899685
0.11577329 0.09411504 -0.095238514 0.2422671 -0.05178745 0.014629608 0.0681681 0.055633686
-0.091111 0.06343229 0.0023869008 0.028776562 -0.074927196 0.009906153 -0.22312103 -0.19433844
-0.0728736 -0.12783848 -0.16700464 -0.08694161 0.20860113 0.045123454 0.14312322 0.3358879
0.12542206 0.058888175 0.06965655 -0.05146499 0.35652512 0.012079651 -0.068083026 0.26315
0.12495966 0.19049896 0.0019484875 -0.16696712 -0.0075828726 0.05481616 0.03437458 0.12962128

conv1.bias f4 [32]
00000000: 9b76 e1bd 6d1a 96be 01a1 75be 6ed8 e7be
00000010: be28 84be 8613 a6be a11e 85be 5fc2 28be
00000020: b0a4 89bd 71b8 c5bd dcdb 5cbe dc90 bdbe
00000030: 33f0 50be 9b1a 64be 5c71 aebe 289a 08be
00000040: 2ba4 86bd 913f aabd 1b81 cbbe 1172 d5bd
00000050: 1833 89be e088 1fbe 9018 70be 5186 86be
00000060: 7868 c3be f8b9 20be a1f9 a6bd b006 c3be
00000070: 9cb8 d8be 2452 82be b5ad 40be 8b26 91be
-0.1100895 -0.29317036 -0.239872 -0.4528231 -0.25812334 -0.3243677 -0.2599993 -0.16480397
-0.06720865 -0.0965432 -0.21568245 -0.3702458 -0.20404129 -0.22275774 -0.3407086 -0.13340056
-0.06574281 -0.083129056 -0.39746937 -0.10422147 -0.26796794 -0.15579557 -0.2344687 -0.2627435
-0.3816564 -0.15695941 -0.08153082 -0.3809104 -0.42328346 -0.25453293 -0.18816264 -0.28349718

conv2.weight f4 [32, 32, 3]
00000000: 2814 86bd 12e1 5b3e 1870 083e 9689 a9bd
00000010: 2bf5 0cbe 8e4b c73d f5c9 87bd 7862 5d3e
00000020: df9e e63d 590e d0bb 502d 003e dfee 00be
00000030: 9637 4f3e 2c51 a5be 3b66 81be d30d 593e
00000040: 87bf dfbd 5366 24bd 0764 ddbd 5068 29be
00000050: 4ed7 86bd 7979 573c ffdd 0c3e ef3a 403e
00000060: 7666 a0bc 6131 323d 6e13 733e a104 db3d
00000070: 4a85 30be 6cce c43d df8c b93d 629c e43d
00000080: 2302 1cbd 4dcc 07bd 990b 55be eed3 5d3d
00000090: d3b0 8ebe e5d0 ff3d 2a59 cf3d 2bb3 b23c
000000a0: 15a1 a93e 1693 8aba b791 ab3d ef42 3fbe
000000b0: 4e17 11be 86b6 483d 1fc2 8cbe 3785 123d
000000c0: 466b 33bc de85 6a3d d18e 84bb 4eb3 2cbb
000000d0: 9547 863e f141 36be 4995 233d 2267 e8bd
000000e0: f704 9bbe 248f 32bd 1ca7 e63d 7d88 8f3d
000000f0: 8fe3 b53c b76b efbc dc68 383e 6238 143e
00000100: eacf 873d 8027 0dbe 276a 0d3c 876c a73e
00000110: 268e 623c 7388 a3be 197f cc3e 771a 0bbe
00000120: 2864 08bd 7568 22bd 9355 1d3e b291 fd3d
00000130: cf7c 8d3e 26c4 4abb 6f58 44be 8d7e 8d3c
00000140: f93c 3bbd 3f92 203d 58a3 76be d541 333e
00000150: c32c b0bd 12dc 473e 669e 49bd d367 82be
00000160: d951 623d ea71 033e b8b3 2f3d 786c 26be
00000170: 867b 433e 3bc2 983d 4f20 ddbd 86fb 213e
00000180: 3205 f33c adcf cfbd dc91 b83d 8756 56bd
00000190: d585 243e 4c04 0a3e 1998 3ebe ccec 4dbe
000001a0: 228b c03c 7d14 173e 60ac b3bd 03b5 98bd
000001b0: d977 adbe f150 36be d2f4 a9bc 78af 293e
000001c0: f258 c33c 7f50 9bbb 701a be3d a680 90bd
000001d0: 0e55 acbc 2788 1b3e de7e 53bd bc17 82be
000001e0: 754a 04be aca8 493e 0d62 7e3c 7f04 f2bd
000001f0: d89b fb3d c42f e93c df85 69be 7a42 243d
00000200: f46b 763d 9de6 673e e289 2fbd 8bdb 2cbe
00000210: 2f7b 26be e7ad d23b b91e 57bd 5855 6c3e
00000220: da78 62bc 586c 2bbd 6b53 063e 228a 1fbe
00000230: 2609 15bd c10f 1fbe d771 1a3c 2fc8 5bbd
00000240: 3d27 8f3d cb34 4b3c efcf 613e e502 593c
00000250: 1ad9 103e 2bba 9d3d 5000 c03d e6c2 7d3d
00000260: f052 033d 2d99 843e 9385 f33d e2ab d6bd
00000270: 8953 64be 4058 46be c90f afbd d62c 1c3e
00000280: 9ac1 f23d bf30 453d ae87 d03e ed45 843e
00000290: 345b 10be 11cd b13e 086e 4a3e fe0d af3c
000002a0: bfb8 78be e581 15be c007 213e c69d 46bc
000002b0: 06db 003e 502e a53d f6f9 353e eabe 08be
000002c0: a493 e8ba de81 11be 8154 a3bc b5da 29be
000002d0: 9177 193e 8e12 4abe 7456 bdbd 6977 36be
000002e0: 8d0b d23d c19a 013e d8fa 343e 449e 2e3e
000002f0: ee20 723d ee93 b83d 1eaf 33bd 19ba 183c
00000300: 5fb2 c93e 9075 e43d be64 093e 1f99 c2be
00000310: 138d d8bd 82bf 5d3c b453 8c3c 79ba a6bb
00000320: 14de 813d 6892 3b3e f2b1 543e b823 073e
00000330: a108 50be b59e 133e 48f3 d6bd 481d 383d
00000340: 8d45 053e 696a 87be dfac 7b3d 2935 13be
00000350: 810b 17be 0dad 17be d351 373d 2707 2dbe
00000360: 957e a33e 6b65 ef3d 246b 81be 8610 7ebe
00000370: af82 043e e477 2fbe f740 afbe aacd 1ebe
00000380: fe7c 8a3b 02f5 a8bd 9e36 c1bd 0ce9 52be
00000390: 7230 09be 2208 413d 23cc 113e 3fad 7e3d
000003a0: 134f 553c 79f1 923d e932 f73d 121a 3bbe
000003b0: dd00 d8bd c9ef 64bd 2ffc 623d 1bec 3f3d
000003c0: 97d1 9d3e b133 b63d 1693 283e 3ebf c5bd
000003d0: 138e 7e3e b561 c33d 171f 903e d5b2 af3d
000003e0: 48f8 093e 0fd3 6e3c 3646 f2bd e502 57be
000003f0: b3b5 573e 51a5 2e3d 6f58 3cbd e89a b6be
-0.06546813 0.21472576 0.1332401 -0.082781956 -0.13765399 0.09731208 -0.06630317 0.21619594
0.11260771 -0.0063493666 0.12517285 -0.12591122 0.20236048 -0.32288492 -0.25273308 0.2119668
-0.10925203 -0.040136646 -0.10810094 -0.16543698 -0.06584035 0.01315152 0.1375656 0.18772481
-0.019580107 0.043504123 0.2373788 0.10694242 -0.17238346 0.09609684 0.09060072 0.1116264
-0.038087975 -0.03315382 -0.20805205 0.05415719 -0.2786928 0.12491015 0.101244286 0.02181395
0.33130708 -0.00105724 0.08377402 -0.18677877 -0.14169046 0.049002193 -0.27491853 0.035771575
-0.010950869 0.057256572 -0.0040453454 -0.002635199 0.26226488 -0.17798592 0.03993729 -0.11347796
-0.30277225 -0.04359354 0.11262342 0.07008455 0.022203235 -0.029226167 0.1800875 0.14474633
0.06631453 -0.137846 0.008631266 0.32699987 0.013827836 -0.3194004 0.39940718 -0.13584314
-0.03329864 -0.0396504 0.15364675 0.12381305 0.27634284 -0.0030939667 -0.1917436 0.017272258
-0.045712445 0.03920197 -0.24085748 0.17505582 -0.086022876 0.19517544 -0.049223326 -0.25469837
0.055253837 0.12836424 0.042896003 -0.16252315 0.19090089 0.074589215 -0.10797178 0.15818605
0.029665563 -0.10147033 0.090121955 -0.052328613 0.16066678 0.13478202 -0.18612708 -0.20109862
0.023503844 0.1475391 -0.08773112 -0.074564 -0.338805 -0.17804314 -0.020746622 0.16570842
0.023846123 -0.0047398205 0.09282386 -0.07055788 -0.021036651 0.15188657 -0.05163466 -0.25408733
-0.12919028 0.1969325 0.015526307 -0.11817264 0.12285584 0.02846516 -0.22804974 0.04010246
0.060161546 0.22646566 -0.042856105 -0.16880624 -0.16257928 0.006429422 -0.052519534 0.23079431
-0.013822759 -0.04185137 0.13117759 -0.15580037 -0.036385678 -0.15533353 0.009426556 -0.053657707
0.06989906 0.012402724 0.22051977 0.013245319 0.14145318 0.07701524 0.093750596 0.061953448
0.032061517 0.25898114 0.11890712 -0.10482003 -0.22297491 -0.19369602 -0.08547933 0.15251479
0.11853333 0.04814219 0.40728515 0.258346 -0.14097291 0.34726766 0.19768536 0.021368977
-0.24289225 -0.14600332 0.15725613 -0.012122577 0.12583551 0.08065474 0.17771134 -0.13354078
-0.0017744196 -0.14209697 -0.019937756 -0.16587336 0.14987017 -0.1973364 -0.09245005 -0.17818989
0.102561094 0.1265669 0.17673814 0.17052561 0.059113435 0.0901259 -0.043868177 0.009321713
0.393939 0.11155236 0.13417336 -0.38007447 -0.10573783 0.013534429 0.017129757 -0.0050881472
0.06341186 0.18317568 0.20771006 0.1319722 -0.20315792 0.1441601 -0.10495621 0.0449498
0.13014813 -0.26448372 0.06144416 -0.14375748 -0.14750482 -0.14812107 0.044755768 -0.1689726
0.31932512 0.11689266 -0.25277054 -0.2481099 0.12940477 -0.17135578 -0.34229252 -0.15508142
0.004226326 -0.082498565 -0.094342455 -0.20596713 -0.13397387 0.047126897 0.14238028 0.06217694
0.013019341 0.071749635 0.12070257 -0.18271664 -0.1054704 -0.05589274 0.055416282 0.046856027
0.30823967 0.08896578 0.16462359 -0.09655617 0.24858885 0.095401205 0.2814872 0.085790314
0.13473618 0.0145766875 -0.11829798 -0.20997198 0.21065407 0.042638127 -0.045982774 -0.3566506

conv2.bias f4 [32]
00000000: 6c73 6b3c 03b3 fdbd a943 213d 3653 febd
00000010: 527c 46be ce2e 9dbe b414 8abe ea11 bfbd
00000020: dcb8 3bbe 78b1 30be d3cf 51be adc1 f4bc
00000030: 26ea a9be 2fae 41bd d496 87be d699 033e
00000040: d434 4c3e 5980 b7be c69b e6be b38a b3be
00000050: e5a4 e5bd 4793 60bd 58c6 d23b 7b73 81be
00000060: 3441 b2bd 58d7 c1be 9503 84be ef64 96be
00000070: 0ee0 c8bd 21f1 14bd 11d0 91be efa9 8cbe
0.01437078 -0.123876594 0.039371166 -0.12418215 -0.19383362 -0.30699772 -0.2696892 -0.09329589
-0.18332237 -0.17255199 -0.20489435 -0.029877508 -0.33186454 -0.047285255 -0.2648226 0.12851653
0.19942027 -0.3584011 -0.4504072 -0.35066757 -0.11213092 -0.054827955 0.006432336 -0.25283417
-0.08703843 -0.37859607 -0.25783983 -0.2937388 -0.0980836 -0.03636277 -0.28479055 -0.274734

conv3.weight f4 [256, 64, 5]
00000000: cd6b 0abe e090 c33c 9b98 18be 9eb6 4abe
00000010: 922e dcbd 2939 2ebd c9eb 96bd 45c4 653c
00000020: 77da b03d 44c2 adbd 392e 5d3d 901a 183e
00000030: 072a 863b ef18 eabd 70c4 0c3c d186 3ebd
00000040: 12dd 603e 861d 363c 7d5a 043d 1cf7 493d
00000050: 6c53 70bc 76c8 123d 8d6f a03e ad72 7f3d
00000060: 76cd f93d f473 373e af3d 523e bc10 2b3e
00000070: 9834 eebc b214 a9bd 08a7 043e 41cb 0f3d
00000080: fbc1 443d c133 78bc d7c5 8e3c fa30 c33b
00000090: 43a9 96bc 1814 b13d 9fb5 a2bd 6e5a a13d
000000a0: 1852 4ebd 5daf 0f3e 19e3 9ebd 6ee8 42be
000000b0: e226 a03c 6d85 233d 8a39 c73d 4f5e 963c
000000c0: 48d3 e33c 4a16 bd3b e12b 3abe 1b9a b33d
000000d0: 66e6 8e3a 82a4 20bc bf24 babd 3da9 57bd
000000e0: 1804 02bc 39ce 4aba 4ca3 853e 1809 6b3d
000000f0: ad88 a1bc 0a34 b0bd 2020 54be c2c9 563d
00000100: 3b93 5d3d afc2 12be e465 623d 2982 8a3e
00000110: 2f40 a73c 2673 abbc 6462 cbbd 63ab 433d
00000120: d76d d4bd bcfb e93d c7f3 86bd a13a af3d
00000130: cc8d 01be bac2 f73d 8b6e b5bd ed38 073d
00000140: 1b79 49bd 118f 16bc 327f 3d3b fca2 343e
00000150: 579d edbd bca7 67bc 6e33 2cbd b623 b0bb
00000160: 50c4 8cbe ba2f b93d 1e4d e23d f78f 893e
00000170: bc5b c9bc 393b 3abd 9959 9cbd 5f80 0d3e
00000180: d2f8 4b3e 6eed 3bbe 5f88 023e ccd9 d7bd
00000190: c8ec 94bd 173b f0bd c0ea 563d 9634 86bd
000001a0: 568d e83d 73e9 21bd 1550 e1bc b5ca 0b3c
000001b0: 8771 8dbd 11bf 17bd e970 493e 0b9f b73c
000001c0: 44e0 b33c 8b0a 9b3b fd25 6b3d 9993 0ebe
000001d0: 36da 2fbc eeb8 1e3e b6aa 16bd 8977 48bd
000001e0: 0024 4fbe 84ea 5fbd 159d a2be bb1a 03bd
000001f0: ac83 9a3d 98b1 dabd 7e37 1f3e e19f 7d3e
00000200: 3d28 b83d b97b 943d 79ea 33bd 8cc8 2abd
00000210: a78e eabc 4bcb 04be 573e 03be 7040 b73d
00000220: 76b8 f23d 5fcc 603d 2a28 02be c0c0 2d3e
00000230: d833 b3bd a0d8 77bd dc98 87be 6947 1fbc
00000240: 36ea 47bc 0484 473c 9230 ccbd fcbc 613c
00000250: ee7f 2f3c 2543 ddbc afdc 6abe 185c 653e
00000260: 453d 443d 3884 b23d 095e 68bd aaf0 3f3d
00000270: 2de7 253d 9023 d73d e8e8 b2bd b9fc 18bd
00000280: 06b9 97bd 53b7 cbbd 6303 d7bc 7734 51be
00000290: ea9d 5ebe a676 ebbd 4632 be3c 2dad 61bd
000002a0: a95f 313e 1366 923d f09e 3abe 6c94 443e
000002b0: 35bd f7bd c580 8d3c 8b37 ffbd 1b3e 063d
000002c0: 8d11 4dbe 8ac4 323e 4f81 c6bd 9bb3 8cbd
000002d0: bccc 9b3e bf57 483c f4f7 75bd 555b 0f3e
000002e0: 8859 37be 8136 823d fbf7 21bc 3cf1 b53a
000002f0: 23b8 5e3c cdbc c93d d361 2dbd f777 b23b
00000300: ac30 db3d 0af2 743d 74e0 83bd 6897 fabc
00000310: 6c49 4f3d fd65 8fbd 8bec 0fbe 2758 87bd
00000320: 5219 d4bb a9bd a1bd 632a b8bd fb27 343e
00000330: a400 bb3d d6a5 5dbd d92f 56be b549 f7bd
00000340: f749 63be 7e4e 92bd 2a07 38bd c0cc 9bba
00000350: d273 2abe c461 543d 5072 ddbd b5b2 00bc
00000360: 5176 b63d ebcc 93bb 6219 9bbd fa94 89bc
00000370: a637 f53d 581d da3c b3ab 163d b7c8 94be
00000380: 6cc5 c93d dc3e 6d3d ba73 1c3d 282b 57bd
00000390: 5597 89bd e448 223e 41a3 22bd 47d0 1c3e
000003a0: 3c81 aa3d beec a5bd 3ff3 823b 8202 21be
000003b0: 67ee e03c 46aa 5f3d 8959 69bd 3f0f dcbd
000003c0: e55b 4bbe 4852 1dbd d574 74bd 8dc5 a4bd
000003d0: 4fca b93c 05ea 23be d520 dbbd f6e7 cebc
000003e0: dff5 01be 5928 83bd e2e5 07bd 4d68 b03c
000003f0: f955 4a3e 26c7 13ba 5494 653d 82c0 02be
-0.13517685 0.023872793 -0.14901964 -0.19796225 -0.1075107 -0.04253498 -0.07369191 0.014023845
0.08635419 -0.08484319 0.05399916 0.14853883 0.0040943655 -0.11430537 0.008591756 -0.04651529
0.21959332 0.011115437 0.03231286 0.049307927 -0.014668327 0.035835706 0.31335106 0.062365223
0.12197392 0.17915326 0.20531343 0.16705602 -0.029077813 -0.082559004 0.12954342 0.035105947
0.048036557 -0.015149058 0.017428322 0.005956766 -0.018391257 0.08646411 -0.07944798 0.07878576
-0.05037126 0.1403174 -0.07758159 -0.19033977 0.01954979 0.039922167 0.097277716 0.018355517
0.027810708 0.0057704793 -0.18180801 0.08769628 0.0010902404 -0.009804847 -0.0908904 -0.052651633
-0.007935546 -0.0007736418 0.26101148 0.05738172 -0.019718492 -0.08603676 -0.2071538 0.052438505
0.054095488 -0.14332078 0.05527295 0.2705243 0.020416347 -0.02092893 -0.09930876 0.04777087
-0.10372513 0.11424968 -0.065894656 0.085561045 -0.12651747 0.12097688 -0.08858975 0.033013273
-0.04918776 -0.009189383 0.0028914926 0.17640299 -0.11602276 -0.014139112 -0.042041235 -0.005375351
-0.27493525 0.09042306 0.11049865 0.2686765 -0.024579875 -0.045466635 -0.07634277 0.13818501
0.19919136 -0.18352291 0.12747334 -0.10539588 -0.07271725 -0.117300205 0.05246997 -0.06552999
0.11355083 -0.039529275 -0.027504006 0.008532216 -0.06906419 -0.03704745 0.19671978 0.022414705
0.021957524 0.0047314814 0.057409275 -0.13923492 -0.010733178 0.15500233 -0.036783896 -0.048942123
-0.20228577 -0.05466701 -0.3176047 -0.032007914 0.07544646 -0.106784046 0.15548512 0.2476802
0.0899205 0.07250161 -0.043924782 -0.041695163 -0.028632475 -0.12968175 -0.1281675 0.08947837
0.118515894 0.054882403 -0.12710634 0.1696806 -0.08750123 -0.060509324 -0.2648381 -0.009721615
-0.012201836 0.012177471 -0.099702016 0.013777968 0.010711653 -0.027009556 -0.22935747 0.22398412
0.047909994 0.08716625 -0.056730304 0.046860375 0.04050367 0.1050483 -0.087358296 -0.03735039
-0.07408337 -0.09947076 -0.026246732 -0.2043017 -0.21739927 -0.1149724 0.023217332 -0.055096794
0.17321648 0.07148375 -0.18224692 0.19197243 -0.12096635 0.017273316 -0.12461766 0.032774072
-0.20026226 0.17457786 -0.096926324 -0.068701945 0.30429637 0.012227952 -0.06005092 0.13999684
-0.17905247 0.06358052 -0.009885783 0.0013881098 0.013593706 0.09850464 -0.04232962 0.00544643
0.10702643 0.05980114 -0.064392954 -0.030589774 0.05060713 -0.070018746 -0.14055078 -0.066086106
-0.006472745 -0.07897503 -0.089924596 0.17593376 0.091309816 -0.05411323 -0.2091669 -0.120746054
-0.22196184 -0.071438774 -0.044928707 -0.0011886582 -0.16645744 0.05185105 -0.10812819 -0.007855107
0.08909286 -0.004510512 -0.07573201 -0.01679467 0.11973505 0.02662532 0.03678484 -0.29059383
0.09852108 0.057921275 0.038196303 -0.05253139 -0.067183174 0.15848118 -0.039706472 0.15313827
0.08325431 -0.081017956 0.0039962824 -0.15723613 0.02745743 0.054605745 -0.056970153 -0.107450955
-0.19859274 -0.038408548 -0.059681732 -0.08045492 0.022679476 -0.1600724 -0.106996216 -0.025257092
-0.12691449 -0.0640418 -0.033178218 0.02153411 0.19759358 -0.00056372804 0.05604966 -0.12768748

conv3.bias f4 [256]
00000000: 4d6f cebd f813 70be 2ad6 33be 231f 20be
00000010: 8929 08be 1be9 33be 6b01 37be f9a8 e8bc
00000020: 234f cc3c 7496 33be 89cd 7fbd 01d5 acbd
00000030: 0c4f d7bd 9f07 4ebe b26b 7d3c 11bf 7ebd
00000040: 91eb acbe f76c bbbd 2f63 ad3d 84bd db3d
00000050: d423 f2bc c515 6bbe b5f4 563c df5f 20be
00000060: df61 98bd f5c6 20be 59f9 4bbe 7e80 e2bd
00000070: ed53 6ebd eabe 133e 46c2 58bc d7ef 5d3d
00000080: da75 b53c bfb2 6d3c 92e1 31bd e59c 0cbd
00000090: 2d7a 44be 98da b53d e804 25bd 1aa8 eebc
000000a0: 82b2 a83e 2502 45be 588b 02be 6d0c 9c3d
000000b0: 388b 8b3c 5946 ddbd 0716 2bbc 72f6 8a3c
000000c0: 4c0f d7bc a2fa 19be 842b aa3d 9121 303d
000000d0: 61d7 043c 3c0d 67bd c94a d1bd 23f8 c23d
000000e0: b744 02be e0d5 f03c 54bf 32be cb65 29be
000000f0: 5d3d 21be dffd 883c 0b7d d5bd 43c3 893d
00000100: fef4 8e3e fd14 0f3e c883 6cbe 11a5 93be
00000110: af50 aeba de72 39be ae7c 26be 9df8 19be
00000120: cc30 1fbe 3b0d 0ebe 7a0d abbd c97e 6cbd
00000130: 0f5d 01be da87 44bd dbfd 88bd 0b4e 463c
00000140: 1e7f 01bd 4b8a 0bbe 469a 123d 1f3e 1dbe
00000150: 6f63 07be e991 abbd 67d1 1a3d 6a83 e53d
00000160: 7983 38be 9760 0cbb 37b1 b0bd 095e ae3c
00000170: ab79 733c 014c 7abd af52 54be 3e7d 78be
00000180: 093f 403d a43b 90bd 53f9 9ebd 7a87 71bd
00000190: e52f 31be 35de 98bd 22b9 53bd 2e65 dabd
000001a0: 56bd 563c 7dd7 6bbe 77e9 78be 8e46 6bbd
000001b0: f801 17be 40ca 8abc 7103 f0bd f7b8 77be
000001c0: e0d7 813d bfe0 6dbe a5f3 893e 8ac4 a0bc
000001d0: 74f8 3fbc 209a 17be b4bd 2abe d8be 2abe
000001e0: e8e1 e3bd 9765 ea3a e670 aebd f1c8 8cbd
000001f0: d894 8cbc cb35 35be 720f bebd a7d4 76bd
00000200: 12f8 023c 297c bdbc b1d3 f03c 2335 37be
00000210: 99e4 333e f5d4 e5bc f75c 173e 0357 54be
00000220: 6f07 643e e61a 3a3e d666 d4bd fe44 75be
00000230: b3b8 1abd 3874 abbb 119f 1c3c b37e ffbd
00000240: 44f0 bcbc 7f47 a1bc d294 98ba c8f4 803d
00000250: f3a5 bfbd 15a8 3ebd 3d75 b6bd 5d73 3ebd
00000260: d9f0 34be 95bf 02bd dc8e 98bd aafc 15bd
00000270: f94a 92bd 8e0b 28bd 21eb 2f3d bb70 a43d
00000280: df7f 993d d2d4 4ebb 64cc ffbd 7fd9 023e
00000290: ada9 21bd aaef 27be 94c7 e0bd 6333 983a
000002a0: d1ae b43d af4c 05be 779c d7bc 7c71 b2bd
000002b0: 2252 a13a 9ac9 acbd d975 05be f194 51bd
000002c0: 9662 28be 0cc3 8ebd 7f53 98bd 8465 93bd
000002d0: f92e c13d bb4a 91bd 8670 a4bb ecf5 a0be
000002e0: 8bed 94bd 0a3b 3fbe 6ff9 5fbd 0db4 b9be
000002f0: 090b 8e3e 303e d93d de6c 783d 6b88 12be
00000300: 1b50 c439 25e9 68bc c92f 523d 6e47 1dbe
00000310: 5e4a 3cbe a19b d6bb f615 2bbc 668d 65be
00000320: 3045 08bd 29c9 843d d9d0 f3bd e77a 98bc
00000330: 4ee4 51be a7e5 21bb 9545 d8bd 5e20 1cbd
00000340: 1fff 843d 2773 6ebc b9dc 85bc 067b 1d3d
00000350: b452 24be 0782 6dbe f59d b93c 7a24 70be
00000360: 6781 373d 9388 b73d f9f6 f0bd cfcf adbd
00000370: 03dc 2b3e 6d35 5fbe 989b 633d 2326 3bbe
00000380: 124f a0bd 1720 84bd 6619 903a 3c82 8fbd
00000390: ebab 54bc 4e1c 52be 7c88 d1bb d613 5cbd
000003a0: 31b4 20bd d40f 703d 6911 d53c b8e9 3abe
000003b0: 4ae8 973d 4d68 d9bd a85d 21be d6eb 0fbe
000003c0: 0685 49be fa5c 1dbe be0b f23c 438a cfbd
000003d0: 5a72 71be bc45 21be 7559 61be bac2 3dbe
000003e0: c5b6 42bd 626a afbd 2a27 d83d bd8b cb3d
000003f0: abb9 e1bd f029 163c 5c64 983e 7ef0 893d
-0.10079823 -0.23445117 -0.17562166 -0.15636878 -0.13297094 -0.17569391 -0.17871635 -0.028400885
0.02494008 -0.17537862 -0.062451873 -0.08439065 -0.10513124 -0.20120095 0.015467571 -0.062193934
-0.33773473 -0.09151643 0.084661834 0.107295066 -0.0295581 -0.22957523 0.013119866 -0.15661572
-0.074405424 -0.15700896 -0.19919337 -0.11059664 -0.058185507 0.14428297 -0.013229912 0.054183807
0.022150923 0.014507948 -0.04342801 -0.034329314 -0.19187231 0.08879584 -0.040287882 -0.029132891
0.3294869 -0.192391 -0.12748468 0.076195575 0.017034158 -0.108044334 -0.010442263 0.016963217
-0.026252411 -0.15037015 0.08309081 0.04300076 0.008107991 -0.056409106 -0.10219342 0.095199846
-0.12721525 0.029398859 -0.17455798 -0.16542737 -0.15746064 0.016722618 -0.10424241 0.06726696
0.2792129 0.1397285 -0.23097146 -0.28836873 -0.0013299192 -0.18110225 -0.16258499 -0.15036245
-0.15545958 -0.13872235 -0.0835218 -0.0577381 -0.12633155 -0.04798112 -0.06689044 0.012103568
-0.03161537 -0.13626973 0.035791658 -0.15355729 -0.13221525 -0.083774395 0.037797358 0.11206706
-0.18018903 -0.0021419877 -0.08627551 0.021285074 0.014860551 -0.06110764 -0.20734666 -0.24266526
0.046935115 -0.070426255 -0.077623986 -0.05896709 -0.17303427 -0.07464258 -0.05169023 -0.1066383
0.013106665 -0.23031421 -0.2430781 -0.057440333 -0.14746845 -0.016942143 -0.117194064 -0.24191652
0.06340003 -0.23230265 0.269437 -0.019624967 -0.011716951 -0.14804888 -0.16673928 -0.16674364
-0.111270726 0.0017883059 -0.085176274 -0.06874264 -0.017160818 -0.17696302 -0.0928029 -0.060261395
0.007993715 -0.023130493 0.029397817 -0.17891364 0.17567672 -0.028055647 0.14781557 -0.20736317
0.2226846 0.18174323 -0.10371177 -0.239521 -0.0377738 -0.00523236 0.009559409 -0.12475338
-0.023063786 -0.019687412 -0.0011641032 0.06296688 -0.09357824 -0.046547014 -0.0890908 -0.046496738
-0.17670001 -0.031920988 -0.07449123 -0.036617912 -0.07143206 -0.041026644 0.042948846 0.08029314
0.074950926 -0.0031559956 -0.12490156 0.1277828 -0.039468456 -0.16400018 -0.109755665 0.0011611994
0.08822406 -0.13017534 -0.026319725 -0.08713052 0.0012307803 -0.0843689 -0.13033237 -0.051167432
-0.16443858 -0.06970796 -0.074378006 -0.07197097 0.094327874 -0.07094332 -0.0050182967 -0.31437624
-0.0727187 -0.18674865 -0.054681238 -0.3627018 0.27742794 0.106075644 0.0606507 -0.14309852
0.00037443716 -0.014215742 0.051315103 -0.1535928 -0.18387744 -0.006549314 -0.010442248 -0.2241722
-0.033269107 0.06483681 -0.11905069 -0.018613292 -0.20497248 -0.0024703534 -0.10560147 -0.038116805
0.06493973 -0.014553822 -0.0163406 0.038447402 -0.16047174 -0.23194133 0.022658328 -0.23451415
0.044801142 0.08961596 -0.11765856 -0.08486902 0.16783147 -0.21797724 0.055568308 -0.18276267
-0.078275815 -0.06451433 0.0010993897 -0.07007262 -0.012980442 -0.2051861 -0.006394444 -0.053729855
-0.039234344 0.058608845 0.026009278 -0.18253219 0.074173525 -0.10615597 -0.15758383 -0.14054808
-0.1967965 -0.15367499 0.029546615 -0.10133793 -0.23578778 -0.15749258 -0.22006781 -0.18531314
-0.047537584 -0.08565213 0.10554345 0.09938762 -0.110217415 0.009165272 0.29764068 0.06735323

fc.weight f4 [8, 256]
00000000: 391f b3bc 4c78 013d 87f0 f7bd 37b8 aabd
00000010: 2945 2d3d 5735 9b3d 51e8 103d 4e22 88bb
00000020: d6c8 84be f7a2 41bd c3fc 12be f636 543c
00000030: b76c 543c eb92 4abd cf69 e33b aba3 42bd
00000040: e176 c4bc c7f1 68bd 2e6d 233d 71c7 e7bd
00000050: 53fd 0ebd f0db 11be f105 053d 057f 40bd
00000060: 891f 94bd 1d4d fa3b edfa 5dbc fc3c 30be
00000070: 13e7 233c d217 2abd d4b5 68bd 922f 5f3b
00000080: 8e95 51be c187 47be 97bd cf3c 84ab 0339
00000090: 7a1a b53c ea9b bebc 861e d2bd 887d 20bd
000000a0: f6ea 723d cb83 e0bc ef55 943b 1316 703d
000000b0: 01e9 e73c 3749 8fbd 204a 8abd 704a 25bc
000000c0: 257d 98be e57a bc3b d35f b9bd d9d9 52bc
000000d0: fbf5 ea3c 6a3c be3e 89d3 543b 2fbf 863d
000000e0: cf97 50bd 37f3 2bbc 1885 a2bc 3c87 8ebb
000000f0: f3cc 453d 8ea0 b83d a5cd 593d 774e 443d
00000100: f646 6f3d 3734 0dbe 5d92 c33c 73d8 afbe
00000110: 91f7 773c a6f7 943d 97d1 5bbb a65d efbd
00000120: 0a99 ebbd 76a5 d4bd 7c76 25bc 8d13 e2bd
00000130: cbce 753d 2dfb 8fbd 7002 96bd e9ef 18be
00000140: 02ec fbbc d639 51bd 2a3f 993e 8de8 a8bd
00000150: e028 b6bd c76b 8cbd 2a0a 8dbe 5b95 d23c
00000160: 6819 1cbd 914e 89bc f9e0 c8bc 4e38 883d
00000170: 40c5 8ebb c245 b0bd 0b96 64bd 9c0a 4abe
00000180: 475c 86bc bdb6 3fbe 8e50 b2bd e019 053e
00000190: 0938 e1bd 2138 b2bd 8bc7 dbbc 5d8a 50bd
000001a0: e25f 213c cafa bdbd 8300 ba3b 7b61 92bd
000001b0: 4f3d ebbd 9077 24be 41ab 203d 1133 c3bd
000001c0: 8ba5 373e 67b5 fabb d3f3 133e e033 56bc
000001d0: 29ac 49bc 79b2 dfbd 55ff 05bd 8295 b3bc
000001e0: 2591 f2bd ecfd 26be c0da 53bd a6f3 20bd
000001f0: 5568 33bc 70fd 4fbc bc8c db3b 68af 08bd
00000200: 8b41 ac3c 82df 093e 5128 ce3c 1c49 bebd
00000210: 53e4 efbc eb47 20bd 8784 9a3b 2ff0 56bd
00000220: 30ec 583d d4f6 793d 573a 263d 4367 87bd
00000230: e4c5 0ebd 2cde 81bd 0b5f d43c 7586 103d
00000240: de9c 3a3c dbb7 76bd 79d0 2dbe 4da3 eabc
00000250: 497e 30bd e612 c9bc 94a8 f13c a58a 5d3d
00000260: bedd e0bc fbb9 33bc 9c7e 19bd fd58 18be
00000270: dbef 7ebd 021f a1bd e4df 16bd a8bd 093b
00000280: 703f 87bc 6d46 83be f1a1 c93c 1c73 cf3c
00000290: 1bd9 7e3d 63c6 02bd 0473 d33b 8e14 7ebd
000002a0: 54ee 813d 198b 0fbd c91c 36bc d81e bdbc
000002b0: ee4e aabb ed57 d1bc 3add f3bc c369 21bd
000002c0: 105a 25be e97e 13be dc92 b2bc faa5 953c
000002d0: 9b61 e93c f77f a7bc c693 c2be 4acb 963c
000002e0: 7286 5ebe 0cd1 1dba 073d b7be 9191 89bc
000002f0: 5a37 893d 3c77 233d a5c4 3e3c af0c 84bd
00000300: 9e6c 08be 4778 0cbe f2b4 3b3d a39b 98bc
00000310: 225d dcbd 0ce8 0abd f7ce 02be d984 d7bc
00000320: f8f3 2bbe 4124 893d 2488 8f3d d44e 15be
00000330: 5c2f bd3d 50db b63d 0b49 213c 9971 77bb
00000340: 2ca7 713d 1066 043e 2d25 963d e4b6 dfbc
00000350: 2845 353c d51a 17be 9f66 86be 5888 2bbe
00000360: 9010 df3c dbab 103d 23ab be3c 8917 48bd
00000370: cad1 353d 2144 acbb c1b0 fa3c b14e 943c
00000380: cad7 9ebd 664c 1dbc c8cb 143d 63a7 3a3d
00000390: 801c ab3c 0fe7 323d 365b 28be 7d21 f63c
000003a0: 7279 ccbc 3978 ab3d 889a 37be b205 3abd
000003b0: 97c8 853d e88b 80bd 9ccd f93b cdb2 16bd
000003c0: 7e75 77bc a1cf 1e3d 0741 533d cc8c fa3b
000003d0: c7bb 16be ba7f e9bc 3868 a3bd 479d 92be
000003e0: 1708 e9ba 83bb 433d f25e 5cbd b69e 6fbd
000003f0: 5d11 953d 496f 06bd 995a 153c 5cd2 39bd
-0.021865474 0.031608865 -0.12106424 -0.083359174 0.042302284 0.07578533 0.035377804 -0.00415448
-0.25934476 -0.047274556 -0.14354233 0.012952557 0.012965373 -0.04945652 0.0069401036 -0.047519367
-0.023982467 -0.0568712 0.039899044 -0.11317337 -0.034909558 -0.14244056 0.03247637 -0.046996135
-0.07232577 0.007638587 -0.013548595 -0.17210764 0.010003823 -0.041526623 -0.05681403 0.0034055454
-0.20467207 -0.1948538 0.025358958 0.00012557028 0.022107352 -0.023267705 -0.10259728 -0.039182216
0.059306107 -0.027406594 0.0045268456 0.0586148 0.028309347 -0.069963865 -0.067524195 -0.010088548
-0.29782978 0.005751955 -0.0905148 -0.012869322 0.028681746 0.37155467 0.0032474718 0.06579434
-0.050926026 -0.010494999 -0.019838855 -0.0043496173 0.048291158 0.090149984 0.053174634 0.047926392
0.058417283 -0.1378945 0.023873502 -0.34344825 0.015134708 0.07273798 -0.0033541673 -0.11687784
-0.11503799 -0.10383122 -0.01009905 -0.11038885 0.060011666 -0.0703033 -0.07324684 -0.14935268
-0.030752186 -0.051080547 0.29931003 -0.082474805 -0.08894515 -0.068564944 -0.27546817 0.025705984
-0.038110167 -0.016761096 -0.024521338 0.06651364 -0.00435701 -0.08607055 -0.055807155 -0.1973061
-0.016401423 -0.18722053 -0.08706771 0.12998152 -0.10997016 -0.08702112 -0.026828548 -0.050913204
0.00984952 -0.0927635 0.0056763305 -0.07147499 -0.11486303 -0.16061234 0.03922582 -0.095312245
0.17934243 -0.0076510194 0.1444848 -0.013073891 -0.012309113 -0.10922713 -0.032714207 -0.021921877
-0.1184409 -0.16307801 -0.051722288 -0.03929486 -0.010950168 -0.012694702 0.0067001265 -0.033370405
0.021027347 0.13464168 0.025165709 -0.09291288 -0.029283678 -0.039131086 0.0047155055 -0.05247515
0.05295962 0.06102641 0.04058298 -0.066114925 -0.034856692 -0.06341204 0.025924226 0.03528448
0.011389939 -0.060233932 -0.16974057 -0.028642321 -0.043089185 -0.024545144 0.02949933 0.0540873
-0.027449485 -0.010969634 -0.03747426 -0.14877696 -0.062240463 -0.078672424 -0.036834612 0.0021017585
-0.016509742 -0.25639668 0.024613352 0.025323443 0.062218767 -0.031927478 0.00645292 -0.06203132
0.063442856 -0.035044763 -0.011115261 -0.023085997 -0.0051973974 -0.025554622 -0.029768575 -0.039407503
-0.16147637 -0.14403881 -0.021798544 0.01826762 0.028488925 -0.02044676 -0.38003367 0.018407483
-0.21730974 -0.0006020225 -0.35788748 -0.016793044 0.067000106 0.039908633 0.011643563 -0.06447732
-0.13322684 -0.13717757 0.04582686 -0.0186289 -0.10759951 -0.033912703 -0.12774263 -0.026308464
-0.16792285 0.06696368 0.07008389 -0.14580852 0.09237549 0.08928549 0.009844075 -0.0037756918
0.05899732 0.12929559 0.073313095 -0.027308889 0.011063851 -0.1475633 -0.2625017 -0.1675123
0.027229577 0.035320144 0.023274964 -0.04885057 0.044389524 -0.005257145 0.030601861 0.01810393
-0.07756002 -0.009600734 0.036327153 0.04556979 0.020887613 0.043677386 -0.16441044 0.030045265
-0.024960253 0.0837254 -0.17930043 -0.045415588 0.065324 -0.06276685 0.0076233875 -0.03679161
-0.015103696 0.03877223 0.051575687 0.007646179 -0.14720069 -0.028503288 -0.079788625 -0.28635618
-0.00177789 0.047786247 -0.053801484 -0.058500968 0.072787024 -0.032820974 0.009115838 -0.04536663

fc.bias f4 [8]
00000000: 3868 3c3b da98 a5be 3d08 5dbe fe35 88be
00000010: 04bd 4fbe 8f68 173e b67a dfbd a0a4 d2bd
0.0028748643 -0.3234318 -0.21585174 -0.26603693 -0.20286947 0.1478598 -0.10912077 -0.10285306
