src/main/python/saved_models/kotlin_1_55_CNNClassifier1_32embs_178id_32hd_0hl_Falsebid5kernel0.3dropout_1.pt (torch, 398411 bytes, 9 tensors)

emb.weight f4 [178, 32]
000000 c3 d8 a3 be 12 3b 51 be dc 81 13 be 4b 71 f3 bf
       -0.32001314 -0.2043269 -0.14405006 -1.9018949
000010 95 12 6e 3f d4 b1 bd 3e ab 1e b6 3d d8 c6 83 3f
       0.92997104 0.37049735 0.08892568 1.0295057
000020 e6 20 69 3f 25 cd 7d 3f e8 57 2e 40 66 32 e8 3e
       0.91065824 0.9914115 2.7241154 0.4535095
000030 e3 f5 c1 3f 4c 89 91 3f 7c 6f f3 3d 1b 47 77 bf
       1.5153164 1.1370025 0.11886498 -0.96592873
000040 35 74 59 3f 60 b8 02 bf 69 91 cd 3f ae c8 30 40
       0.8494294 -0.51062584 1.6060001 2.7622485
000050 6d ec 48 bf 5f 32 25 3f 6e 97 05 3f 01 28 1d 3e
       -0.7848576 0.64529985 0.5218419 0.15347292
000060 25 d4 86 3f bd 5c 09 bf b6 2f 4e c0 d8 46 31 bf
       1.0533491 -0.5365713 -3.221662 -0.69248724
000070 7b 1d e9 be 57 3c 82 be 07 b2 87 3f e5 4c b1 be
       -0.45530304 -0.2543666 1.0601205 -0.34628978
000080 d9 09 6d 3f 75 b2 bb bf dc c3 c0 bf d1 82 d5 3d
       0.9259315 -1.4663836 -1.5059772 0.10425342
000090 46 e6 7e bf 8f 97 2c bf d9 6c e6 be e9 73 1b be
       -0.9957012 -0.6741876 -0.4500492 -0.15180935
0000a0 0a 64 04 bf 27 55 99 3d fc c8 92 3e 60 6d 77 3e
       -0.5171515 0.07486945 0.28668964 0.24162817
0000b0 88 e1 35 bd 54 ec 3b be d0 da 25 3f 4d 32 9a 3e
       -0.044404536 -0.18351871 0.64787006 0.301165
0000c0 09 10 1e 3d 37 cb 91 bf 45 5c a1 bf f8 54 e7 bf
       0.03858951 -1.1390141 -1.2606283 -1.8072805
0000d0 dc a6 a7 3f ef 37 76 3f d2 45 17 bf 66 04 70 bf
       1.3097796 0.961791 -0.5909091 -0.9375671
0000e0 f3 64 f7 bf f3 dd 22 bc 0c 0b f3 3f 6f 65 50 3f
       -1.9327682 -0.009940612 1.8987746 0.81404775
0000f0 c9 02 88 3e af 41 cc bf 62 9d 49 bf 0b 98 76 3f
       0.26564625 -1.5957545 -0.7875577 0.9632575
000100 e7 cc d5 bf f8 a1 7e 3f c8 11 bf 3e 85 da a0 bf
       -1.6703156 0.99465895 0.37318254 -1.2566687
000110 ad 89 98 3f a3 f4 70 3f 4f f6 84 3d ef f0 a6 3e
       1.1917015 0.94123286 0.06492292 0.32605693
000120 71 e9 72 3f 5a 4d dd 3e bd 09 62 bf 91 2d 10 3e
       0.94887453 0.43223077 -0.8829611 0.14079882
000130 c8 6f 0b 40 ee 3c 69 bf 20 af 3b bf cf 6e ca be
       2.1786976 -0.91108596 -0.73314095 -0.39537665
000140 be b9 e8 bf 03 cd b0 be 4f eb 45 bf 39 d2 fb 3e
       -1.8181684 -0.34531412 -0.7731218 0.49183825
000150 e9 11 13 be 56 ae bd 3e e7 48 42 3f 19 d7 ba bf
       -0.14362301 0.3704707 0.7589249 -1.4596893
000160 fb ae 1e bf f7 fe 6e 3d 74 1b cf 3f 9b b8 7b bf
       -0.6198575 0.058348622 1.6180253 -0.9832856
000170 56 22 67 bf 33 22 70 bf d2 c7 08 be ba 05 9a bd
       -0.9028677 -0.93802184 -0.13357475 -0.075206235
000180 7b fc 14 40 21 89 14 bf f2 c7 c8 bf 87 77 e6 3e
       2.3279102 -0.5802174 -1.5686018 0.45013067
000190 7c 8c 7e bf dd bc a9 be 4a 36 15 bf 43 d4 96 bf
       -0.9943311 -0.33151904 -0.58285964 -1.1783527
0001a0 25 74 a6 bf dc 6d 9f bf 31 1d 6a 3f 97 b2 c8 be
       -1.3004194 -1.2455401 0.9145079 -0.39198753
0001b0 54 8d 76 3f 62 58 db 3f f6 c4 ff 3e 65 1b 9c bf
       0.963094 1.7136347 0.49954957 -1.219586
0001c0 af ba c0 bf 51 97 65 3f 9f 5f 19 40 77 9d 40 3d
       -1.5056971 0.89684016 2.3964612 0.04702517
0001d0 45 11 8e 3f 55 41 00 3f de 73 58 3f 62 b1 97 3f
       1.109902 0.5009969 0.845518 1.1851008
0001e0 67 75 6a 3f 1b d3 80 be 49 2a bd 3f bb c2 52 bf
       0.9158539 -0.2516106 1.477853 -0.82328385
0001f0 52 70 2a 3e 99 3a 25 bf a6 1a b6 3e c9 48 4b 3f
       0.1664441 -0.6454254 0.35567206 0.79407936
000200 ee e2 c9 3f 07 a1 a1 bf b4 79 dc bf 4c 81 12 3d
       1.5772378 -1.2627267 -1.7224641 0.03576784
000210 f7 07 e1 bf 43 40 84 bf b3 43 41 bf 9f c5 3b 3f
       -1.7580556 -1.0332111 -0.75493926 0.7334842
000220 f9 2b ca bf dc ee bf bf 5d 6c c1 bc af 85 7d 3c
       -1.5794669 -1.4994769 -0.023611242 0.015473767
000230 3a 6c f1 3f f7 b1 81 3f 05 84 14 bf 2d d1 d3 bf
       1.8861153 1.0132436 -0.58013946 -1.654821
000240 53 e1 0f c0 d5 c2 76 3e 31 e1 ec 3f d4 fe 1b 3d
       -2.2481277 0.2409776 1.8506223 0.03808482
000250 07 24 a4 3f 4b d8 53 3f b8 a6 c1 3f 40 a8 02 3f
       1.2823495 0.8275191 1.5129004 0.5103798
000260 67 4b fc 3f 6a 30 3b 3e 40 29 34 bf 6d 34 7c 3f
       1.9710511 0.18280187 -0.7037544 0.98517495
000270 7e 66 6f bf 33 23 7b be e4 44 4f 3f b5 36 ce bf
       -0.93515766 -0.24525146 0.80964494 -1.6110445
000280 85 85 12 3f d4 ff dc bd 59 c4 2b bf d3 f5 4a bf
       0.57234985 -0.10790983 -0.6709648 -0.7928135
000290 b6 50 4f bf bb 8b 1a be 31 93 34 3f e1 37 67 be
       -0.8098253 -0.15092365 0.70537096 -0.2257991
0002a0 03 f2 a3 3f 5a 03 14 3d 46 0b 8f be 41 c9 3a 3f
       1.2808231 0.03613601 -0.27938288 0.7296334
0002b0 71 ca 92 be ea 7f e4 be 07 6f 40 3e 44 81 0f 3e
       -0.28670076 -0.4462884 0.18792354 0.14014155
0002c0 6e 43 1f 3f 00 27 24 be a3 77 03 be f5 7b 35 3e
       0.62212265 -0.16030502 -0.12838607 0.17723067
0002d0 79 0b ae be 09 31 04 bf 98 d8 10 bf 5e c2 d0 be
       -0.33993128 -0.5163732 -0.56580496 -0.4077329
0002e0 9d 26 5c 3f 12 64 ec 3e d4 96 73 bd dc 2c 62 3f
       0.8599642 0.46170098 -0.059470013 0.883497
0002f0 58 8e 04 bf 54 cc cd be 82 8d 79 be 9f 0c 94 3e
       -0.517797 -0.40194952 -0.24370387 0.2891588
000300 44 11 29 bf 4d 86 f4 be 3a 5e 4e bf 74 5c e1 be
       -0.6604197 -0.47758713 -0.8061253 -0.4401585
000310 04 11 3b be 20 da e9 3e c3 8e 7a be 73 67 b3 be
       -0.1826821 0.4567423 -0.24468522 -0.35039863
000320 4b 70 11 3e 47 a7 b9 3f ef 39 09 3f 60 61 85 3f
       0.14202993 1.4504174 0.53604025 1.0420341
000330 bb 26 8d be ed 21 35 3f 05 c2 4a 3f cb 5a e4 3e
       -0.27568612 0.7075489 0.792023 0.4460052
000340 66 50 71 bf f6 53 69 bf 27 27 88 3e 9d 80 f6 bd
       -0.94263303 -0.9114374 0.2659237 -0.1203625
000350 6f c2 00 bf 74 4b 82 be 11 e0 73 3f 47 d3 45 3f
       -0.5029668 -0.2544819 0.95263773 0.7727551
000360 d9 c9 7e bf e0 31 ef 3e 9b 85 63 bf 9a c3 ed 3d
       -0.99526745 0.4671774 -0.8887574 0.11609574
000370 14 7a 68 bf c9 07 7e bf 2d 14 ad 3e c0 14 1e 3f
       -0.90811276 -0.9923063 0.33804455 0.6175041
000380 6f c4 11 3e 53 86 ec 3f 2d 59 e8 3e 7e 4b de bf
       0.1423509 1.8478492 0.45380536 -1.7366788
000390 36 16 12 3f 05 b0 9c 3d 70 54 c7 3f ea e9 78 3f
       0.5706514 0.076507606 1.5572643 0.97231925
0003a0 7b 66 0c 40 d3 fd fc bf 61 56 73 3f 70 cb 2e bf
       2.193755 -1.9764961 0.9505368 -0.6827917
0003b0 7e ed 1f 3f 57 93 13 3f 74 45 38 c0 6d 92 93 3e
       0.6247176 0.576467 -2.879239 0.28822652
0003c0 fc c9 44 bf fc 08 57 bf cf 04 c2 3e 63 68 04 bf
       -0.76870704 -0.83998084 0.37894294 -0.5172178
0003d0 72 54 81 3e a1 a9 c0 3d 88 c0 94 3f 50 3d 83 3f
       0.2525974 0.09407354 1.1621256 1.0253086
0003e0 7f c0 73 c0 c4 46 e6 3e 5c 96 ee bc df 86 02 40
       -3.808624 0.44975865 -0.029124431 2.0394819
0003f0 26 b2 10 3e ad 00 3a bf 7d d5 15 bf 1a bd ec 3e
       0.14130458 -0.7265728 -0.5852888 0.46238023

conv1.weight f4 [32, 32, 5]
000000 ff e6 7b 3e b1 0d 1d be 1d 5c f3 bd be 0d 34 3d
       0.24599837 -0.15337254 -0.118828036 0.043958418
000010 9d 29 10 be d2 b2 14 be 66 c5 ac 3e 86 21 0d be
       -0.14078374 -0.1452134 0.33744353 -0.1378232
000020 ca e7 4c 3e b7 5f 6c ba 25 76 9c bd 66 a7 31 bd
       0.20010296 -0.0009016948 -0.07639722 -0.043372534
000030 aa 50 c4 3d 2f 54 d1 bd ad ff 6a 3c 91 f1 66 be
       0.09585698 -0.10221135 0.014343184 -0.22553088
000040 6e 16 6a 3d 75 fd 26 3e ef 25 9e 3d 21 d0 23 bd
       0.057150297 0.16307624 0.07722079 -0.03999341
000050 a2 e6 eb bd 8e 6f fc 3d 62 bb 90 3d 1a 3c c4 bd
       -0.11518599 0.12325965 0.070669904 -0.09581776
000060 7d eb c6 bc f7 aa 11 3d 3e 41 a3 bd 59 af 17 3d
       -0.024282211 0.035563435 -0.07971428 0.03703246
000070 be 42 12 3e 24 5a cc 3d 95 9e 93 3e aa 99 81 3b
       0.14283273 0.099781305 0.28831926 0.0039550858
000080 94 c5 50 bd 84 26 49 be 67 47 ed bc 79 7d a0 bd
       -0.050969675 -0.19643599 -0.028964711 -0.07836432
000090 28 b0 44 be 90 b3 40 bc 88 e3 59 be 76 df f3 bd
       -0.19207823 -0.011761561 -0.21278203 -0.11907856
0000a0 04 ef 48 3e 09 eb 6e bd b5 38 e2 bd 68 ac ca bc
       0.19622427 -0.058329616 -0.11045972 -0.024740413
0000b0 7b d7 a0 3c 9b 79 f5 3d a0 0d 4a be f5 db d0 bd
       0.019634 0.11986085 -0.1973176 -0.101982035
0000c0 41 38 4b bd 46 a2 0c 3d 2a 6e 83 3c 9f b0 4e bd
       -0.049614195 0.034334444 0.016043741 -0.050461408
0000d0 75 98 c0 3c a7 a4 5f bd 40 a6 35 bd af 41 60 3b
       0.023510197 -0.054600384 -0.044348 0.0034218838
0000e0 3f fa a9 bc 18 89 04 be b6 31 4f be 49 c4 cb bd
       -0.02074921 -0.12942922 -0.20233807 -0.09949548
0000f0 13 45 bf bd 04 9b af bc 21 bc 5e bd 4d 26 e0 bd
       -0.09339347 -0.021436222 -0.054378632 -0.10944805
000100 27 2f f5 bd 8e e4 bd bd 29 cb b7 3c 6a c2 02 be
       -0.11971884 -0.09272109 0.022435741 -0.12769476
000110 0a c6 50 3d a2 d4 ee 3c 9f 33 3e bb 95 aa a9 be
       0.050970115 0.029154126 -0.0029022468 -0.33137956
000120 f2 3d 42 bd c4 93 80 be f4 d1 c3 bd ca 8c 07 3e
       -0.047422357 -0.25112736 -0.0956153 0.132373
000130 b5 08 51 be 8e c6 81 bd e8 c8 16 be 7c ce 28 bd
       -0.20413478 -0.063366994 -0.14725077 -0.041212544
000140 2c 25 c4 3d 5a 17 78 3c 93 7a 27 3d 5f e3 da 3c
       0.095774025 0.015142286 0.04088838 0.026719747
000150 e0 24 41 bd 75 64 1b be 3e cc 32 bd f5 bd 2d 3e
       -0.047154307 -0.1517504 -0.04365181 0.16966994
000160 f6 2f d2 3d c5 6a 14 bd 0a 82 6f 3e 24 be 66 3e
       0.10263054 -0.036234636 0.2338945 0.2253347
000170 7c 2d 84 bd 30 5f da 3c ff 52 d8 3d 30 c7 35 be
       -0.06453988 0.026656717 0.10562705 -0.17751765
000180 f5 a7 1a 3d 98 e8 f6 bd 9a 0a 8f 3c d3 9f 12 be
       0.037757833 -0.120560825 0.01746111 -0.1431878
000190 ab aa b2 bd 47 29 43 3d bf 1c 17 3d 4c 7f e2 3d
       -0.087239586 0.047646787 0.03689265 0.11059436
0001a0 a6 e8 7d bc 02 d4 11 3e 05 ed a2 3e fe 17 a8 3c
       -0.015497362 0.14241031 0.31821457 0.020519253
0001b0 08 76 83 3c 53 ee 16 bd db 8e 01 bf d8 43 5a 3d
       0.016047493 -0.036848377 -0.50608605 0.053287357
0001c0 2a 09 90 3d 54 04 4a bd 10 92 5c bd dc 0e 46 be
       0.07032998 -0.049320534 -0.053850234 -0.19341606
0001d0 58 4c 32 be 62 b9 e3 3c e1 49 f9 bd d1 d3 d4 bd
       -0.17411935 0.027798358 -0.121722944 -0.10391963
0001e0 1e 6a 89 3e ed 1c 6f bd 93 d5 1d be 88 1a 5e bd
       0.26838773 -0.058377195 -0.15413503 -0.05422452
0001f0 b9 8d 20 be c2 88 87 3e 88 70 0e be 60 08 8d 3d
       -0.15679063 0.26471525 -0.13910115 0.06886363
000200 ff 8c 30 3d 38 90 d4 3c 4a cc 8e bd f1 29 35 3e
       0.043103214 0.025947675 -0.06972559 0.1769178
000210 61 18 80 3d 0d ff 83 bc 5f 1d 44 3d 8d 2d 3a 3e
       0.0625465 -0.016112829 0.047879573 0.18181439
000220 bf 9a 39 bd 23 85 a8 bd ef 76 af bd 89 4b 77 3d
       -0.045313593 -0.08228519 -0.08567607 0.06037477
000230 67 7a 8b be 03 0c d7 be 31 fc 21 3e c2 ec 45 3d
       -0.27241823 -0.42001352 0.1581886 0.048321493
000240 50 5e a6 bd cb 1e d8 bd eb 60 9f 3e f4 2e 9c bd
       -0.081234574 -0.10552748 0.3112863 -0.07626143
000250 b1 04 12 bd 08 7e e1 3d 23 0c 53 be 91 bc 1f be
       -0.035649005 0.11010367 -0.20610099 -0.15599276
000260 7b 50 6b 3d 4d 71 3f bc 2f a0 b9 bd 15 4a 8c 3d
       0.0574498 -0.011684728 -0.09063756 0.068500675
000270 30 4f cd 3e a5 98 32 be 83 f6 1c be b2 11 b2 3d
       0.40099478 -0.17441042 -0.15328412 0.08694781
000280 84 4a 72 be c9 94 04 3e 93 e3 63 3c 79 ab 88 be
       -0.23661238 0.12947382 0.013909238 -0.26693323
000290 0e 2d 1f 3d be 38 0a bd f8 e4 bf bd 82 11 8f be
       0.038861327 -0.03374552 -0.09369844 -0.27943045
0002a0 8c 4c ea bd 77 6c 73 3e c8 7f 06 be 7e be 60 3e
       -0.114403814 0.23771845 -0.13134682 0.21947667
0002b0 7d ff 14 be eb e3 19 3e 5c e6 31 3e 9c 2d 7f 3d
       -0.14550586 0.1502835 0.17373031 0.062299356
0002c0 dc e0 6f 3e 63 a1 0a be 12 55 ef 3c a6 7c 2d bd
       0.23425621 -0.13538127 0.02921537 -0.042355202
0002d0 17 0c 86 3e e2 2f ec bc d0 ad 3b be 9b 2d 98 3e
       0.261811 -0.028831426 -0.18328023 0.29722294
0002e0 8f ac c7 bd 65 9e 19 be 11 9b d9 3d ce 3e 42 3d
       -0.0974971 -0.15001829 0.1062528 0.047423176
0002f0 f9 36 bf 3d 8b 55 23 3e 8e b2 84 3e 37 76 7c be
       0.09336657 0.15950601 0.25917476 -0.2465447
000300 10 e9 4b bd 1c cd 33 be 14 2d f6 bd d8 a4 5e 3d
       -0.049782813 -0.17558712 -0.12020317 0.054356426
000310 49 ea 9c be 4c a9 56 3d 64 9d 82 bd a0 83 42 be
       -0.30647495 0.052407548 -0.06377676 -0.18995523
000320 bd 49 9f bd b4 55 c9 be 71 bc 3b be 3e 59 14 be
       -0.07777736 -0.393232 -0.18333603 -0.14487168
000330 cd 39 05 bd c4 c4 73 3e f2 2c 91 bd 50 2a 5f 3c
       -0.032525826 0.23805529 -0.07088651 0.013620928
000340 e0 9d 6d 3e be f9 80 bc 07 25 13 be 3f f8 ff bd
       0.23204756 -0.015744086 -0.14369594 -0.12498521
000350 63 dd 09 bc b9 e0 42 bd d8 db a2 bd c6 f0 7f 3d
       -0.008414599 -0.047577593 -0.07952088 0.06248548
000360 fb b7 96 bd ba 98 4a 3e 97 45 1f 3d 6d 64 36 be
       -0.0735931 0.19784823 0.038884725 -0.17811747
000370 e9 85 38 bd f6 ed a3 3c 9f 36 61 3c b7 57 2e 3e
       -0.04504958 0.02001093 0.013745933 0.17025648
000380 4a da 0e be d8 90 85 3e d1 37 06 3e 0e 9b 43 3e
       -0.13950458 0.2608707 0.1310723 0.19102117
000390 4d bd 28 3e d5 16 3e bb 6d c7 9d 3d 67 d7 cd bd
       0.16478463 -0.0029005308 0.07704053 -0.1005085
0003a0 b3 52 02 be 84 d9 1c bc 15 d6 11 bc e0 c1 89 bb
       -0.1272686 -0.009573344 -0.008901139 -0.00420402
0003b0 d7 35 35 3d ae 31 17 bd d0 60 f1 3d 1b 33 34 3d
       0.0442408 -0.036912613 0.11786044 0.04399405
0003c0 f9 7b b0 bd 4f ac 7d be ba 61 25 be 8b d1 b5 3c
       -0.08617396 -0.24772762 -0.16150561 0.022194644
0003d0 a4 bc a9 bc dc c3 07 bf a9 a6 c8 bc fe 57 3e 3c
       -0.020719834 -0.5303323 -0.024493532 0.011617659
0003e0 4c b1 ae 3d 25 45 53 bd c6 1c 33 be ed a2 59 3e
       0.085299104 -0.051579613 -0.17491445 0.21253558
0003f0 42 31 65 3e f5 bb 03 3e 9b 65 36 be 4d 4a a1 3d
       0.22382072 0.12864669 -0.17812197 0.078755

conv1.bias f4 [32]
000000 c5 39 be be 06 c5 7a be bc da 57 be e3 06 6d bd
       -0.3715345 -0.24489221 -0.21079534 -0.057867896
000010 36 89 88 be 6d f4 a1 be c3 12 3f bd c6 a7 41 be
       -0.26667184 -0.31631795 -0.046648752 -0.18911657
000020 e4 de 88 be 1e a5 00 be 26 d7 c8 be 07 70 d7 be
       -0.26732552 -0.12562987 -0.39226645 -0.42077658
000030 47 ba b8 be 17 37 65 be c9 8c aa be 83 76 eb bd
       -0.36079618 -0.22384296 -0.33310536 -0.11497214
000040 f4 cc 2c bd e0 cb a3 be a2 d6 8a be c8 2c c2 bd
       -0.042187646 -0.31991482 -0.27116877 -0.094811976
000050 0b ab b8 be d8 dd 81 be 58 2f 16 be 6b 00 9c be
       -0.36067995 -0.25364566 -0.14666498 -0.3046907
000060 70 72 91 be e7 96 77 be 3a 44 f0 be 1a bb 31 be
       -0.2840762 -0.24178658 -0.46927053 -0.1735653
000070 41 cc 95 be 17 21 3a be 19 c6 84 bd 97 03 c5 be
       -0.29257396 -0.18176685 -0.06483097 -0.384793

conv2.weight f4 [32, 32, 3]
000000 ed 5f aa 3d 59 06 bc 3e 7b 01 72 bd 4e b0 8b 3d
       0.08319078 0.36723593 -0.059083443 0.06820737
000010 95 09 17 3c b3 1c 1a 3e 41 85 d7 3d f8 de 86 bd
       0.009218593 0.1505001 0.10523463 -0.06585497
000020 46 8b 40 3d fa 6c c2 bc 14 ae 88 be b8 40 57 bd
       0.04700782 -0.023733605 -0.2669531 -0.052551955
000030 5d 08 5d 3e de 7b f7 3d 76 cc 3b 3e 7d 9d 2a 3e
       0.21585222 0.12084173 0.18339714 0.1666164
000040 09 89 6d 3d 2d 5a bb 3d 21 24 e4 3d 05 42 dd 3d
       0.057992015 0.09148059 0.111397035 0.10803608
000050 55 1f ef 3d dd 60 b6 bd f1 68 4e bd 4d 88 a1 3d
       0.11675898 -0.08905194 -0.05039305 0.078873254
000060 31 4a 09 3e 03 f6 87 3e 70 f4 be 3d f9 2e 7c bd
       0.13407208 0.2655488 0.093239665 -0.061568234
000070 e0 0e e2 3d e8 71 68 bd 66 e7 af bd 42 33 94 bd
       0.110379934 -0.056749254 -0.085890576 -0.07236339
000080 97 b0 8c bc 70 8f 8e bd 12 51 09 be b1 22 38 bd
       -0.017174048 -0.06960952 -0.13409832 -0.04495496
000090 ea 1b 40 be 04 18 e8 bd 2b 43 d6 bd f0 13 36 be
       -0.18760648 -0.113327056 -0.1046203 -0.17781043
0000a0 fe 29 91 3d dc fc 06 3c ef fa c9 3d ff 51 02 3e
       0.070880875 0.008238997 0.09862315 0.12726592
0000b0 f4 53 69 3e cb 93 9c 3c ce 74 70 bc 61 16 3c be
       0.22785932 0.019113442 -0.014676286 -0.18367912
0000c0 be 03 5c bd 29 1f a1 3d 57 e6 84 3d 0f 83 48 be
       -0.053714506 0.078672715 0.06489246 -0.19581245
0000d0 36 17 2f be 4b 7e 5c be bc bf 1f 3b 92 70 1a 3d
       -0.17098698 -0.21532552 0.0024375757 0.03770501
0000e0 7c 71 0a bc 19 65 2b bb 18 b9 ea 3d 9b 59 04 be
       -0.008449908 -0.0026152788 0.11461085 -0.12924807
0000f0 ca 07 d3 bd 92 86 e8 be 0c 88 20 be 17 1b d5 bd
       -0.1030422 -0.4541517 -0.15676898 -0.104055576
000100 fb f0 a8 bd fe 2f be bc 2f 5d 0a 3d 38 a2 27 bd
       -0.082490884 -0.023216244 0.033780273 -0.04092619
000110 4b 80 94 bd 12 38 2e be 22 f9 4c bd 35 b5 ee bd
       -0.072510324 -0.17013577 -0.05004228 -0.11655656
000120 ae 1a fa bd bd e9 a1 bd 36 c0 1a 3d 77 07 d1 bd
       -0.1221212 -0.0790591 0.037780963 -0.10206502
000130 ed 9f 7a be 9b 5c 52 3e 60 ab 03 be 7f d2 aa be
       -0.2447507 0.20543139 -0.12858343 -0.3336372
000140 9e d1 e8 bc 74 b5 38 3d 82 82 2d bd 55 a7 2c bd
       -0.028420266 0.045094922 -0.04236079 -0.042151768
000150 74 04 f0 3d 8d 53 af bd 23 04 47 be 2f d9 4a 3e
       0.11719599 -0.08560858 -0.19435172 0.19809411
000160 41 d5 6a bd 59 d5 65 3d 87 92 d2 bd 92 45 3d be
       -0.05733228 0.056111667 -0.10281854 -0.1848357
000170 72 33 74 bc 38 21 08 be 09 da 49 bd 14 c7 7a 3d
       -0.014904844 -0.13293922 -0.0492802 0.061225012
000180 90 7c 3e 3d 1c 81 9e be 0f 61 9f be a5 e9 19 bd
       0.04650551 -0.30957878 -0.31128737 -0.037576336
000190 7e 75 cd bd fd ca 6d 3e c6 ae e9 bd bc 05 8b bc
       -0.100321755 0.23221965 -0.114102885 -0.016970508
0001a0 a9 fb 1a be 90 72 cf bd 39 b6 2e 3d 9f a6 8e bd
       -0.15135063 -0.10129273 0.04265425 -0.06965374
0001b0 e4 60 74 3d f5 61 42 be dd 9d e1 3d ec da 10 3e
       0.059662715 -0.1898268 0.11016438 0.14146012
0001c0 9d 13 06 3e f2 c2 34 3e 24 80 ed bd 0c ff 93 bd
       0.1309342 0.1765249 -0.115967065 -0.07226381
0001d0 3c 32 8d bd 4a 71 17 3e 45 eb db 3c 46 a5 8c 3d
       -0.06894347 0.1478931 0.026845584 0.06867461
0001e0 22 3f 88 bd 76 92 b2 be ba 49 b4 bd d1 7a 83 3e
       -0.06652667 -0.34877366 -0.08803125 0.2567964
0001f0 c2 43 46 3e 00 01 e2 3d ee 68 06 bc 15 92 23 3e
       0.19361785 0.11035347 -0.008203728 0.15973695
000200 7e 0d 82 bd 5d ff ad 3b 94 8d dd 3d 94 86 cc bd
       -0.0635023 0.0053099827 0.108180195 -0.09986606
000210 d8 5e 19 be 41 f3 1e 3e 7d 8f ff 3c 73 bf 8d 3d
       -0.14977586 0.15522482 0.03119635 0.06921282
000220 94 14 36 be 28 89 78 bd fc bf 78 3c 0a 25 29 bd
       -0.17781287 -0.060677677 0.015182491 -0.04129509
000230 0c 92 e1 3d 65 28 bb 3d aa f8 31 3e d1 f4 31 bd
       0.11014184 0.09138564 0.17380014 -0.043446366
000240 57 54 55 be 83 ad bf 3c ad fe 07 bd 3c 91 a5 bd
       -0.20832954 0.023398167 -0.033201862 -0.08084342
000250 f1 0b 37 3e e3 d5 2e be 5c e9 52 3c 43 9d 54 be
       0.17875649 -0.17073779 0.01287302 -0.20763116
000260 fa cc ca 3d 66 f4 20 bd df 20 45 3e 79 23 f9 3a
       0.099023774 -0.039295577 0.1925082 0.0019007764
000270 59 31 ce bd 32 bc 05 3e f0 0d 72 be 32 84 15 bd
       -0.10068006 0.13060072 -0.23638129 -0.036503024
000280 03 fa 2a bd 46 a3 39 3e 24 f7 93 bb 23 96 50 3d
       -0.041742336 0.1812869 -0.0045155454 0.05092443
000290 bd bd a3 3d 14 8e dd bd b6 ee 2a 3e 0b 90 15 be
       0.07995174 -0.10818115 0.16692623 -0.1460573
0002a0 10 6b 17 3d 3c 66 94 be db 56 36 be ba 13 ce bd
       0.036967337 -0.2898425 -0.1780657 -0.10062356
0002b0 21 97 26 be d6 9c 30 bd c4 5b f2 bd 94 8e 2d 3e
       -0.16268589 -0.04311832 -0.11833909 0.1694892
0002c0 ff b2 ad 3c 13 a1 de bd 9d 9d 32 be b4 25 15 be
       0.021203516 -0.10870566 -0.17442937 -0.14565164
0002d0 f4 ef 42 3c 74 81 52 3e bf a5 08 3e dd 39 ae 3d
       0.01189803 0.20557195 0.13344477 0.0850713
0002e0 b4 74 3c 3e 13 b0 6b 3d 8b 69 a0 bd ab 7d 32 bd
       0.18403894 0.057540964 -0.07832631 -0.043576878
0002f0 f0 e3 bf 3b 7c 7e 8b 3d 72 f2 0d 3e 01 42 59 bd
       0.0058560297 0.06811234 0.13862017 -0.05304146
000300 5f e3 25 3d 34 22 ae 3c 6e 1a 8d bd 0b 0a e7 bd
       0.04050004 0.021256544 -0.06889807 -0.112812124
000310 75 f3 ba bd 9d 87 b9 3a a1 04 13 3d e2 3b 11 3c
       -0.09128467 0.0014154796 0.035893086 0.008864375
000320 8f 78 f1 3d d3 15 b5 3d f0 06 dd bb c3 b2 27 bc
       0.11790573 0.08842053 -0.006745212 -0.010235491
000330 49 f3 c1 3d 44 06 12 3e 7f 5b 26 3e 4f 80 6a bd
       0.09470231 0.14260203 0.1624584 -0.05725127
000340 6f a1 8f 3c 54 80 0c be 1a c4 c2 3d 7c 4e 20 3d
       0.017533032 -0.13720828 0.0951006 0.03913735
000350 3d 61 79 3d 4b 45 56 3e af 84 c1 3d 36 90 08 3e
       0.06088375 0.2092487 0.094491355 0.13336262
000360 dc 7c 95 bc eb bc a7 be 22 ae 0d be 93 a2 07 be
       -0.018248014 -0.3276132 -0.13835958 -0.13245611
000370 b9 b9 1b 3d 84 fa 86 3e 3d 9e ec 3c a8 a8 83 3e
       0.038018916 0.26363003 0.028884048 0.25714612
000380 0c f1 07 be 9e a6 09 3e 90 98 2d 3d 47 71 08 3e
       -0.13275546 0.13442466 0.042381823 0.13324462
000390 26 ea 79 bc 58 36 e3 3d 28 d7 12 3e 31 a8 09 bc
       -0.015253579 0.110943496 0.14339888 -0.008401916
0003a0 6f ba a5 bb 33 ad e9 3e 6b 3a 42 be 57 29 c6 3d
       -0.005057625 0.45639953 -0.18967597 0.09675854
0003b0 c0 5a 9b bd 72 e3 ec bd 16 47 87 bd 10 f7 03 3e
       -0.075856686 -0.11566819 -0.066053554 0.12887216
0003c0 97 22 22 3e 18 28 e5 bc 27 6a bf bd b6 41 a1 3e
       0.15833507 -0.02797322 -0.09346419 0.31495446
0003d0 24 75 11 3c 1b 90 c0 be 49 93 fd 3c f5 27 99 3c
       0.008878026 -0.37609944 0.03095402 0.01869581
0003e0 20 d4 89 3e c4 ce 59 be 5e c4 be 3d 94 7d 23 3e
       0.2691965 -0.21270281 0.09314798 0.15965873
0003f0 e1 06 36 be d8 ea a5 bc 15 77 77 be 07 5d 02 3e
       -0.17776062 -0.020253584 -0.2416652 0.127308

conv2.bias f4 [32]
000000 63 36 72 be 79 f3 aa be 13 e5 93 be 38 90 d8 3d
       -0.2365356 -0.3338888 -0.28885707 0.105743825
000010 8a 9a 41 be f6 e5 57 be d1 d7 cf bd 31 d5 a8 be
       -0.18906608 -0.21083817 -0.101485856 -0.32975152
000020 e2 18 0c be ba bf 9e be 91 f3 a3 be 86 17 48 3d
       -0.13681367 -0.3100565 -0.32021764 0.04885056
000030 47 fc c2 be ce 42 7b be 9f 43 04 be ce 17 88 be
       -0.38083097 -0.24537203 -0.1291642 -0.26580662
000040 b0 c8 ed be 6e a4 8d be dc d8 eb bd 9f 9a 60 be
       -0.46442175 -0.27664512 -0.11515972 -0.21933983
000050 75 cf aa be bf c0 7c be bf 43 14 be c5 d8 ce be
       -0.33361402 -0.24682902 -0.14478968 -0.40399757
000060 34 b2 dc 3d 54 98 5c 3e d4 fc 5c 3c bf 51 ce bd
       0.10776177 0.21542484 0.013488013 -0.100741856
000070 c9 a9 9d bd fe 69 5a be 0b 8e e7 3d 7e e0 80 be
       -0.076983996 -0.21329495 0.113063894 -0.25171274

conv3.weight f4 [256, 64, 5]
000000 e8 d4 40 3e f7 7a 96 be 27 8d ac 3d 20 cf e7 bc
       0.18831217 -0.2939069 0.0842536 -0.028297007
000010 ea 03 60 be 89 57 2d be 6a f4 0e bd 98 63 52 3e
       -0.21876493 -0.16927923 -0.03490106 0.20545805
000020 e4 25 98 3d 43 bb 66 be cb 0d 10 3e 59 ef 4f 3e
       0.07429102 -0.22532372 0.14067762 0.20306148
000030 6a 82 60 be d1 9a 0f be 5a d2 7f be 4b 48 8c 3d
       -0.21924749 -0.14023902 -0.24982587 0.06849726
000040 b0 49 38 39 f4 2a f0 3c b0 f9 81 be 6f 11 4a 3e
       0.00017575058 0.029317357 -0.2538581 0.19733213
000050 c4 01 16 3e b4 47 2a bd 9d 6d 08 3e 31 e4 b9 36
       0.14649111 -0.041572288 0.13323064 5.5399946e-06
000060 c6 ef 55 3c a2 71 bd bd 0a 5b 6f bd c9 92 16 be
       0.013057655 -0.09250189 -0.05843643 -0.14704432
000070 70 22 dc bd 53 17 48 bd d2 61 85 be c7 23 8a be
       -0.10748756 -0.04885037 -0.26051193 -0.2698042
000080 5c 0d 07 be ec b5 89 be 2e 11 a2 ba 61 72 e0 bd
       -0.1318869 -0.26896608 -0.0012364739 -0.10959316
000090 e7 f8 d9 bd 91 e9 16 be 60 ed 9c bd c0 5a 3d be
       -0.106431775 -0.14737536 -0.07662463 -0.1849165
0000a0 8d ee 0c 3e d3 ba 57 3d 43 d4 7f bd 8e 24 f3 3d
       0.13762875 0.052668404 -0.062458288 0.11872207
0000b0 b7 aa ad 3c c7 af 5e 3c b9 be 5b 3e 2b ef 0c 3c
       0.021199567 0.013591713 0.21459474 0.008601944
0000c0 c5 bb 24 3d 56 11 a6 3d 44 92 db bc b5 50 9b 3d
       0.040218133 0.08108775 -0.026803143 0.07583753
0000d0 c8 ac ef 3c b9 25 40 3a 53 8b 50 3e 12 18 fa 3d
       0.029257193 0.000732984 0.20365648 0.12211622
0000e0 f1 75 85 3d 26 74 5e be 0d 28 2c 3e 37 9a 64 3d
       0.06516636 -0.21723995 0.16812153 0.055811133
0000f0 89 51 8f 3d 71 6e 62 bd 6d 4a 34 be 6a 8f f5 3d
       0.069979735 -0.055281106 -0.17606516 0.11990245
000100 7d e1 1d 3e 58 c3 bb bd 5c 45 36 3e ac 4e b9 3d
       0.15418048 -0.09168118 0.17799896 0.090482086
000110 8f 84 d2 3d 0d e8 92 3d f6 ac 9b bb ba f6 17 be
       0.1027919 0.071731664 -0.004750843 -0.14840212
000120 74 cc 9b be 87 e2 58 3d 41 9c 47 be cf 49 2c 3e
       -0.30429423 0.05295041 -0.194932 0.1682503
000130 3a 0f fc 3e 0c 8e e8 3d 9e 59 a4 3d dc af 06 bd
       0.49230367 0.11355218 0.080249056 -0.032882556
000140 6b 67 d3 3d af d7 b9 3d 31 2e dd bd 11 d0 f6 bd
       0.1032246 0.090743415 -0.10799826 -0.12051404
000150 97 64 bd bd 1c b3 a4 bd 83 6c c8 bd 21 a4 25 3e
       -0.092477016 -0.08041975 -0.09786322 0.16175891
000160 7a 44 4d bd be 9d d8 3c 33 49 4b bd ba a0 a7 3c
       -0.050114132 0.026442405 -0.049630355 0.020462383
000170 45 ab 27 3d 6a be d2 3d 3a d6 4e 3a 42 5d f0 3d
       0.04093482 0.10290225 0.00078901986 0.117365375
000180 aa 68 93 bc b8 e1 43 3e 70 b1 92 3d be 34 09 3d
       -0.017994244 0.19129074 0.0716275 0.033497564
000190 32 da 3b bd e5 60 2e 3c 26 a2 90 3e c5 8d cc 3c
       -0.045862384 0.010643219 0.2824871 0.024969945
0001a0 7d d1 78 be 60 ce ab be 0f 1d 48 bd 5c 08 fd be
       -0.24298663 -0.3355589 -0.048855837 -0.4942044
0001b0 54 09 6e 3d ca 1d 4e be 68 21 dc 3d 07 d6 98 be
       0.058114365 -0.20128551 0.10748559 -0.2985079
0001c0 c9 4a d2 bd 54 cd f7 bd 7a ff 26 3e f1 c5 73 3d
       -0.102681704 -0.1209971 0.16308394 0.059514944
0001d0 52 a9 c2 3d 46 5a 90 bd 7c 58 60 3c a6 c7 f0 3d
       0.095049515 -0.07048468 0.013692971 0.1175683
0001e0 80 44 6e bd c0 af 66 be 09 74 c0 3d e1 7d 35 3e
       -0.058170795 -0.22527981 0.09397132 0.177238
0001f0 d6 0e 35 be 7d 51 bf be fc 72 76 bd bd b9 b1 3d
       -0.1768144 -0.37366858 -0.06016825 0.08678005
000200 8a 44 5a 3e bc 5a 5b be d0 42 86 be 9e c1 fd 3c
       0.21315208 -0.21421331 -0.2622285 0.030976113
000210 a0 c0 2e be 1e 9d 49 3e d2 ad db bd 40 47 f2 3d
       -0.17065668 0.19688842 -0.10726513 0.11829996
000220 53 0b ab 3b d0 b2 37 3d 36 7b 00 3d 99 3e 9e bd
       0.005219856 0.044848263 0.031367503 -0.07726783
000230 0f 30 cc 3d 68 27 6c bd 8f 0e 27 3d ce 95 c1 bd
       0.09970104 -0.05765477 0.04078537 -0.09452401
000240 97 53 4f be e7 14 7b bd 5b 69 96 3d cd fd 27 be
       -0.2024673 -0.06129923 0.07344314 -0.16405411
000250 97 c3 91 3d 20 d8 65 be c2 b1 88 3e 7e 33 27 be
       0.07117384 -0.22445726 0.26698118 -0.16328236
000260 84 81 b1 3e 4f dc c4 bd b1 06 e0 3d 04 ec ef 3c
       0.34669125 -0.09612333 0.10938776 0.029287346
000270 56 b7 81 bc cb 8d 69 3c f7 47 9b 3d 6e 52 56 be
       -0.015834492 0.0142549975 0.075820856 -0.20929882
000280 17 11 97 3d c6 fd ed bd 36 ed 4d be b4 ee 18 bf
       0.073763065 -0.11620669 -0.2011002 -0.5973923
000290 6e 04 1b be 63 8d 3d be f4 06 3b be 93 c5 52 be
       -0.15138409 -0.18510966 -0.18264371 -0.20583181
0002a0 96 80 c9 be 3f de c7 bd 43 2e 9b 3b 1b f7 5c be
       -0.39355916 -0.09759187 0.0047357394 -0.21578638
0002b0 a4 95 42 3d 56 26 ea bc 9d 77 1f 3e 76 68 9b bd
       0.04750599 -0.028582733 0.15572973 -0.07588284
0002c0 a9 44 e8 bd d4 86 93 be 18 5d 15 3e 27 38 fc bd
       -0.11341221 -0.28813803 0.14586294 -0.12315398
0002d0 77 9f b9 bd 60 fb 67 bd 6d 1c 1d 3e c1 62 9c be
       -0.09063619 -0.056636214 0.15342875 -0.30544093
0002e0 ea 3c fb bc ce 77 c4 3d d6 dd 7a bd a9 02 59 3e
       -0.030668695 0.095931634 -0.061246715 0.21192421
0002f0 ae d4 49 3e ac e7 08 3e c5 df 23 3e d2 71 0f bf
       0.19710037 0.13369626 0.1600333 -0.5603305
000300 7b d3 87 be 31 a1 4a 3d a1 7a 48 be 33 20 af be
       -0.26528534 0.04947013 -0.19578029 -0.34204254
000310 7d 6b 8a be dc a9 22 bb 36 60 b9 bd 40 9f 0a bd
       -0.27035132 -0.0024820482 -0.09051554 -0.03384328
000320 b0 5a 27 3d 09 c5 34 3e 90 f7 60 bd 2e 61 57 3d
       0.04085797 0.17653288 -0.054923594 0.052582912
000330 5f f4 ba bc da 66 31 3d 08 0f 34 3d 74 94 53 be
       -0.022821603 0.043310978 0.043959647 -0.20662099
000340 52 f5 bd bd 3e d2 dd 3c a6 71 b8 bd 1e 2c a4 bd
       -0.09275307 0.02707779 -0.09006052 -0.08016227
000350 95 4d a0 3e 7a 4e 4d 3d 69 28 2a 3d bb 76 8c be
       0.3130919 0.05012367 0.041542444 -0.27434334
000360 2b b9 57 be ff 38 20 be 66 76 49 3e 14 30 32 3e
       -0.2106673 -0.15646742 0.19674072 0.17401153
000370 07 02 ba 3d ac a0 a0 3c 80 25 86 3d bd 38 be bd
       0.09082418 0.019607864 0.06550121 -0.09288166
000380 2d 9e 26 3e 7f de ce 3d f7 25 6c be 75 de 18 bd
       0.16271277 0.101010315 -0.23061357 -0.037321527
000390 62 de 8a 3d 6b 7d 17 be 8b cd bb bd a7 17 0f be
       0.067806974 -0.14793937 -0.091700636 -0.13973866
0003a0 f3 40 df 3d 62 49 d2 3d 98 02 b6 bb cb d6 d1 bd
       0.1090106 0.10267903 -0.0055545084 -0.10246047
0003b0 33 db 79 bd 25 9b 95 be bc 72 9b be a4 b4 5d be
       -0.06100006 -0.29219928 -0.30360973 -0.2165094
0003c0 c6 ba d1 3c e2 55 40 3e 25 fc de be f5 e5 a4 bd
       0.025601756 0.18782762 -0.43551746 -0.08051673
0003d0 93 14 cd bd f6 c8 7e 3e 80 7b 8b 3d 8e 84 8b be
       -0.1001369 0.24881348 0.06810665 -0.2724957
0003e0 b9 02 e3 3d 29 af d7 bc e1 57 1b 3e c3 a0 d8 3e
       0.11084504 -0.02632864 0.15170242 0.4231015
0003f0 73 08 97 3e 87 b6 ac bd 6c 69 67 bd fa 12 ee 3d
       0.29498634 -0.08433252 -0.056497023 0.11624713

conv3.bias f4 [256]
000000 18 64 14 be 90 1c d5 3d 54 97 cf bd 9d 9d 99 bc
       -0.14491308 0.104058385 -0.101362854 -0.018751914
000010 9a e3 a7 bd 2f a7 e5 bc ea 50 9b bd 6a cf 08 3d
       -0.081977084 -0.02803382 -0.075837925 0.03340093
000020 f6 f8 60 be d9 0e 8c bd ec ec 20 bd f1 9a 93 bc
       -0.21969971 -0.068387695 -0.039288446 -0.018018218
000030 90 b9 87 be 95 38 9a bc 9a 97 c8 bd e0 bf 0f bd
       -0.2650876 -0.018825809 -0.09794541 -0.035095096
000040 38 20 ed 3c a0 ec 9e bd a6 4e a7 bc 9b dd b6 bd
       0.028946027 -0.077599764 -0.020423245 -0.08928987
000050 20 d0 a4 bb 9d 7c 4e bc 6f 8c 04 be 91 3a a0 3d
       -0.0050296932 -0.012602952 -0.12944196 0.07823671
000060 98 74 31 3d 37 89 19 be 49 2b 83 bd 7c b9 04 3e
       0.043324083 -0.1499375 -0.0640474 0.12961382
000070 23 64 a5 bd f9 c4 b7 3c 4a 67 b7 bd 88 84 00 be
       -0.0807574 0.022432791 -0.08955248 -0.12550557
000080 b1 88 70 3d 56 40 fe bb d0 a5 18 bd c9 71 cd bc
       0.05872411 -0.0077591343 -0.037267506 -0.025078671
000090 c6 11 bc bd 2e 06 ad bd 1c 44 75 bc a8 62 9c bd
       -0.091830775 -0.08448444 -0.014969852 -0.07636005
0000a0 79 8f de bd 3b c3 37 bd dc 2b 47 3d 52 0f 86 bd
       -0.10867209 -0.04486392 0.048625812 -0.06545891
0000b0 56 3e dd bc 78 18 69 bd d3 f7 ea 3c df 42 7e bd
       -0.027007263 -0.0569081 0.028682625 -0.062075492
0000c0 ca ea 25 bb 55 45 73 bd e5 92 a5 bd 78 8d 17 be
       -0.0025316947 -0.059392292 -0.080846585 -0.1480006
0000d0 e7 37 21 3d fb 65 3e bd 39 65 49 bd a2 5a b5 3d
       0.039359953 -0.046483975 -0.0491688 0.088551775
0000e0 16 e2 a5 3c 75 49 c6 3d 71 fa 1a be 7e f1 06 be
       0.020249408 0.096819796 -0.15134598 -0.1317806
0000f0 0d 21 8d bd 05 7f 1b be e5 02 e6 bd 85 a3 3d 3e
       -0.068910696 -0.15185173 -0.11231021 0.18519409
000100 84 4a 12 be 32 2d e4 38 c2 60 a5 bd bb 11 e4 bd
       -0.14286238 0.000108803055 -0.08075096 -0.11136194
000110 19 f3 51 bd e4 ed 7c 3d b8 a8 2b bc 09 6e 56 bc
       -0.051257227 0.061750308 -0.010477237 -0.013087758
000120 fc a4 0f be 12 ee ac bd fc a6 66 bd 66 8e f6 bc
       -0.1402778 -0.08443846 -0.056311592 -0.030097198
000130 25 b9 14 be ac 89 cc 3d 45 bb 05 be 43 cb 35 bd
       -0.14523752 0.09987196 -0.13059719 -0.0443833
000140 b6 19 de bc 60 76 02 be 2d 40 d0 bc e1 34 9b bc
       -0.02711187 -0.12740469 -0.025421226 -0.018946113
000150 b8 e6 ac bd 89 6b 6f bd 61 b7 30 3e cf f9 10 bc
       -0.084424436 -0.058452163 0.17257454 -0.0088486215
000160 0c b3 63 bc 3c e3 06 bd 08 19 ae bd 6a 1d e3 3a
       -0.013897669 -0.03293155 -0.08500868 0.0017327492
000170 9b 0c c2 3d c4 c8 4d be 22 e1 db bd fe aa 67 bd
       0.094750606 -0.20096117 -0.107363 -0.056559555
000180 49 16 e1 bc f6 1b 37 3c d4 df 43 3d 60 50 49 3d
       -0.027476447 0.0111761 0.04782088 0.049148917
000190 a4 ca 32 3e d1 83 95 bd e9 47 8f bd 20 87 9c 3e
       0.17460114 -0.073005326 -0.06996138 0.30571842
0001a0 19 0f bf 3d c2 31 62 3d d7 12 a0 3b b5 90 86 3d
       0.093290515 0.055223234 0.0048850584 0.065705694
0001b0 b7 a5 10 3d 73 fd 33 bd 92 91 5e 3d 4e ac 2d be
       0.035314288 -0.04394288 0.054338045 -0.1696026
0001c0 e8 4d 30 be 1d eb eb bd 84 e3 02 bd 68 44 15 3d
       -0.17217219 -0.11519454 -0.031955257 0.03644219
0001d0 bf 4f bf bd 20 9c 2d be 65 44 45 bb ba 7a 04 bd
       -0.09341382 -0.16954088 -0.003010058 -0.032343604
0001e0 cc bf af 38 fa 94 fb bd 8b 31 5e be b9 4b 24 bd
       8.380375e-05 -0.122842744 -0.21698587 -0.040111277
0001f0 fc 86 83 bd ec 56 bb 3d e9 b0 f0 bd 2f 06 f1 bd
       -0.064222306 0.091474384 -0.11752493 -0.117687576
000200 55 07 b3 bd d3 48 ab 3d c4 18 26 be de 89 0f 3c
       -0.08741633 0.083634995 -0.16220385 0.008760897
000210 4e 19 0e bc 94 fd 91 bd 60 48 2a be d0 68 d4 bd
       -0.008673025 -0.07128444 -0.16629171 -0.10371554
000220 fa 18 b7 bd 5b 36 8b bd 6a f8 69 bd c5 7f 99 3d
       -0.08940311 -0.06797477 -0.05712167 0.07495073
000230 a1 25 7d bd 8f 53 9b bd 2b eb de bd e1 39 00 3e
       -0.061803464 -0.07584297 -0.108846985 0.12522079
000240 42 d9 4d be 24 8d 46 bc 3b 96 f1 3c bd 07 8e bd
       -0.20102409 -0.0121186115 0.02949058 -0.0693507
000250 30 99 41 3d 5f 40 34 be 4b bc 4e be 88 ab 0c be
       0.04726523 -0.1760268 -0.20189016 -0.13737309
000260 cc 97 c8 bd 7e b4 0b be ed d9 8a be 9e 03 b9 bc
       -0.09794578 -0.13643071 -0.2711939 -0.022584733
000270 a5 d1 a6 bd 6f 16 9f bd 8e a2 57 bc 34 0f 19 be
       -0.08145455 -0.07767951 -0.013161315 -0.14947206
000280 18 08 26 3d 34 9b ef bd 5a b0 07 be 70 4a 8e bd
       0.040535063 -0.116995245 -0.13250867 -0.069477916
000290 48 14 1f bd 3b c0 8b bc e4 b8 1a be 6f 99 40 bd
       -0.0388377 -0.017059436 -0.15109593 -0.047021326
0002a0 d9 1e d3 bc 9a 19 b3 bd 9d b6 93 bd 3b d4 c2 3d
       -0.025771545 -0.087451175 -0.07212565 0.09513136
0002b0 1b d2 0d be fc 87 d1 bd 27 bd d1 3d d0 a1 4d bd
       -0.1384968 -0.10231015 0.10241156 -0.050203145
0002c0 06 d4 05 bd aa f1 4f be 6c 33 30 be 81 18 6c be
       -0.032672904 -0.20307031 -0.17207116 -0.23056222
0002d0 7c 18 da 3c b7 13 3d be a9 75 3a bb f2 88 db 3c
       0.026623003 -0.18464552 -0.0028451479 0.026798699
0002e0 6a 1e 85 bd 0e fa fc bc 42 ae fa bd dd 26 e0 bd
       -0.06499942 -0.030880954 -0.12240268 -0.109449126
0002f0 a1 de 46 3e a3 e0 8b bd 3c c8 88 bd b2 4c ce 3b
       0.19420864 -0.068299554 -0.06678817 0.006295764
000300 97 fa 60 3d 1f e5 0d be f3 77 de bc ba 12 e4 bd
       0.05492648 -0.13856934 -0.027156806 -0.11136384
000310 58 45 91 3d 9c bb 20 be c2 b0 37 3d a4 0d 39 be
       0.070933044 -0.15696567 0.044846304 -0.1807161
000320 9d 99 00 be 66 e7 18 be a7 46 02 3d c8 67 1a be
       -0.12558599 -0.14932021 0.03180566 -0.15078652
000330 02 08 b5 bd 1a 05 33 bd bd d4 ad bd b9 16 87 3c
       -0.08839418 -0.043706037 -0.08487842 0.016490327
000340 41 20 2d 3e 8b 67 60 bd c8 17 1f 3d 67 b9 21 3c
       0.16906835 -0.054786246 0.03884104 0.0098708635
000350 a6 98 c0 bd 7c e4 0c 3c 6a ab e6 bd 31 81 a8 bd
       -0.094041154 0.008599397 -0.112631634 -0.08227766
000360 45 e8 48 bc d4 30 99 3d b9 8f eb bd f5 fa 07 be
       -0.012262409 0.07480016 -0.11502022 -0.13279326
000370 d4 a6 3e be d9 0c 1d be 4e 1d 94 bd e6 70 28 bd
       -0.18618327 -0.15336932 -0.07232152 -0.041123293
000380 85 04 90 bc fb aa 7c bd d2 11 aa bd 56 b2 ce 3a
       -0.01758028 -0.061686497 -0.0830418 0.0015769701
000390 b3 43 62 bd 21 a4 85 bd f7 cc b4 3c 5e 0e df 3c
       -0.055240344 -0.06525446 0.022070391 0.02722853
0003a0 d2 d0 b7 bd e9 5e b0 bd fe 2e e7 bd cb ee 43 bc
       -0.08975376 -0.08611853 -0.1128826 -0.011958788
0003b0 ef 0a 7b 3d 90 a8 46 bd 6f b6 45 bd 0e c3 0e be
       0.061289724 -0.048500597 -0.048269685 -0.13941595
0003c0 75 6a 87 bb 6e fb 9a bc bc 71 56 bd 46 a8 21 be
       -0.0041325637 -0.01891872 -0.05235456 -0.15786847
0003d0 f6 0a ab bd 9a bc ec ba ab 17 05 be a1 b9 75 be
       -0.083517 -0.0018061579 -0.1299731 -0.23996593
0003e0 22 89 54 bd 15 89 e9 bd b1 7b 4c 3d a9 06 b3 bd
       -0.051888593 -0.114030994 0.04992265 -0.08741505
0003f0 05 e3 98 bd c7 b2 4d 3d 5f 27 a7 3d 5d b3 1e bd
       -0.074651755 0.050219323 0.08161806 -0.038745273

fc.weight f4 [11, 256]
000000 9f 2f 51 be 04 e0 d1 3d da 0e 40 3d 1f 39 4c be
       -0.20428322 0.10247806 0.046889164 -0.19943665
000010 28 1a f4 3c f5 15 ca bd bd a6 c9 bd 88 54 de 3c
       0.029797629 -0.09867469 -0.09846256 0.027139917
000020 12 e1 59 3b cf fd 33 bc 02 f1 5a bc 96 97 86 3d
       0.0033245725 -0.010985806 -0.013363125 0.065718815
000030 14 bd 5b 3d 82 c5 6d 3e 46 1c 34 3e 24 9e 88 be
       0.053647116 0.23219875 0.1758891 -0.26683152
000040 80 ce 4e 3d f2 31 91 3d f9 15 97 3d 15 fe 73 bd
       0.050489902 0.070896044 0.07377238 -0.059568483
000050 7a 37 c9 3d 19 72 75 be bf 94 f7 bd 16 55 4c 3d
       0.098250344 -0.23969306 -0.12088918 0.04988583
000060 2b cb 5a be d3 9d dd bd 57 3e 53 3d ee e1 87 3d
       -0.21366565 -0.10821118 0.051573124 0.066348895
000070 53 a6 20 bd 85 a2 dd 3d c7 ea 95 bd 19 0f a2 3b
       -0.03922112 0.10822014 -0.07320171 0.0049456474
000080 51 ec 11 3d 75 e0 5d be 99 cf a3 be c9 d9 d5 bc
       0.03562576 -0.21667655 -0.31994322 -0.026104825
000090 49 20 4a be ed 0e 0c be e2 77 e1 3c 78 fe 8c 3d
       -0.19738878 -0.13677569 0.027522985 0.068844736
0000a0 36 03 97 bc 37 16 ab be 5e 92 8d 3b 55 4a 8c bd
       -0.018434148 -0.33415386 0.004320427 -0.06850115
0000b0 21 47 4b be c3 3e 20 bd 00 c5 60 be 5f 6a 23 be
       -0.19851352 -0.039122354 -0.2195015 -0.15958546
0000c0 5b 2c 57 bd 24 55 96 be b3 a2 83 be b9 ca 06 3c
       -0.052532535 -0.29361832 -0.25710067 0.008227044
0000d0 83 a4 01 bc 5f 00 84 3d ea a2 19 bd de 3c a2 3d
       -0.007912758 0.06445383 -0.037508883 0.07921766
0000e0 ce 74 9f 3c da d2 24 3e a9 60 94 bc 21 a6 b4 bc
       0.019464877 0.16096058 -0.018112497 -0.022051873
0000f0 5d fd cf 3d e5 c1 0a be f8 95 84 be 12 f7 e0 3d
       0.10155747 -0.13550527 -0.25895667 0.10984625
000100 30 22 3c 3d 0b 6a 94 3d d1 b5 be 3d 51 8b 9a 3d
       0.04593104 0.072467886 0.093120225 0.07546104
000110 3f 94 50 3c ac 61 ba 3c bc 19 e1 bc b2 48 ad 3c
       0.012730657 0.022751652 -0.027478091 0.021152828
000120 9a 1e 5c be 83 3c 4c 3d de 08 eb bc 82 ad c5 3a
       -0.21496049 0.049862396 -0.028690752 0.0015081617
000130 88 f9 73 be 69 1f e5 3d 88 69 90 ba 43 65 71 3c
       -0.23825657 0.11187632 -0.0011017779 0.014733615
000140 f5 dd 8c be 68 e8 0d bb 42 ed 61 bc da 99 43 3d
       -0.2751309 -0.0021653417 -0.013789477 0.047754146
000150 d3 64 bb 3b 92 cb bd bd 9c 83 6e 3d c4 d3 16 3d
       0.0057188063 -0.092673436 0.05823098 0.03682305
000160 d0 ed 98 3d 68 c6 0d bd 0e 4d 86 be 9a 1d 03 3d
       0.07467234 -0.034613043 -0.26230663 0.032010652
000170 74 b2 77 3e b5 3c 69 3d 8a 35 5e be ae b7 a0 3c
       0.24189168 0.05694266 -0.21700111 0.019618835
000180 a5 3d 9e bd 31 d4 3f bd 73 dc ec bd 2a 7f cb be
       -0.077266015 -0.04683322 -0.11565485 -0.39745456
000190 ac 61 b9 3e c5 0f cb 3c 31 3d 6e bd db 5b 2d 3d
       0.3620733 0.024787793 -0.058163825 0.04232393
0001a0 d5 56 42 3d 8e 2f d9 bc fb ea 60 bd a6 e9 84 bd
       0.04744609 -0.026511934 -0.054911595 -0.064898774
0001b0 e6 84 1a 3d 90 09 c8 3c b4 93 c1 be fe cb c1 bd
       0.037724398 0.024418622 -0.37808 -0.094627365
0001c0 d2 7d 06 be 86 05 ca be 64 3f 53 3d 45 b8 48 3e
       -0.13133934 -0.3945734 0.051574126 0.19601543
0001d0 d0 77 ce 3d 95 f7 4c bd d7 aa 2e bd 16 0f f3 3c
       0.10081446 -0.0500408 -0.042643394 0.02967028
0001e0 c4 ee a7 3d e3 cd af bd 2e eb 02 bd 2f 7c 1b bd
       0.08199838 -0.08584192 -0.031962566 -0.037960228
0001f0 42 b6 e9 bc 27 d6 58 3d 42 c4 9d 3d 60 de 1c bc
       -0.02852929 0.052938607 0.07703449 -0.009574503
000200 48 1a ce bd f9 40 69 be 3f f6 ef bd e7 8f aa 3b
       -0.100636065 -0.22778691 -0.117168896 0.005205143
000210 4f 0b 5d 3d 46 b0 2a 3b 6b cd 04 3c 9a 13 bb bd
       0.053965863 0.0026045009 0.008105616 -0.09134598
000220 b3 c5 68 bc 35 60 04 bd b5 44 d5 bd d8 41 1c bc
       -0.014207291 -0.032318313 -0.104134955 -0.009537183
000230 02 5f 73 3d cc 6b 50 bd 82 d5 25 bd ab 6c 07 be
       0.05941678 -0.050884053 -0.04048682 -0.13225047
000240 85 07 86 bd 5a 78 1e 3d f6 a5 ea bc c2 3e 0f be
       -0.06544403 0.038688995 -0.02864359 -0.13988784
000250 76 71 76 3d 9f 08 6f 3c 93 96 54 ba 7f bb c5 bd
       0.0601668 0.014589458 -0.00081095955 -0.09654903
000260 c1 b7 83 3d 63 58 79 bd b7 b2 7a be 9f b4 2f 3d
       0.06431533 -0.060875308 -0.24482237 0.042896863
000270 de c6 e2 3c 19 35 bc bc b5 31 4e 3c 25 e4 91 3c
       0.027682718 -0.022974538 0.012585093 0.017808983
000280 62 b1 a0 3d 2b c9 c9 3d 70 f4 b4 3d 5f 96 03 bd
       0.07846333 0.09852823 0.08835685 -0.032125827
000290 70 e5 63 3e 12 be bb 3d 88 f6 8e 3d c8 6b c1 bd
       0.22255492 0.091671124 0.06980616 -0.09444386
0002a0 17 c8 92 3d 6c 87 17 3c b1 08 ff 3c 8a 77 f2 3d
       0.0716707 0.009248596 0.031132074 0.118392065
0002b0 2e 79 a7 3c 1d 79 b2 3d 48 ff 37 be e7 98 47 be
       0.020443525 0.08714507 -0.17968476 -0.19491921
0002c0 17 22 5b bd 13 ce 29 be 66 b2 bc 3c b4 ec 49 be
       -0.053499307 -0.16582517 0.023034286 -0.19719201
0002d0 db 75 93 3c dc df 22 be f3 0f 4d bd 58 ef 27 3d
       0.018000534 -0.15905708 -0.05006404 0.04099974
0002e0 e7 dd cd 3d be cf 5e be cf 42 0a 3e 25 a0 3e be
       0.1005209 -0.21758935 0.13502048 -0.18615778
0002f0 04 f9 b4 bc 07 cc 36 bd 2a 4d e0 bc 16 6a e2 3d
       -0.022091396 -0.04462817 -0.027380545 0.110553905
000300 3e c8 1b 3e 17 47 5b 3d 87 85 34 3d e0 0f a5 be
       0.15213105 0.053534593 0.044072654 -0.32238674
000310 d2 b4 64 3d ac f8 4b bd 0f 77 91 3d 78 8b 9f bd
       0.055836506 -0.0497977 0.07102787 -0.077902734
000320 4f 7d 74 bb 72 12 2d bd aa 66 32 3e d6 25 80 bb
       -0.0037306135 -0.04225392 0.17421976 -0.0039107604
000330 31 74 58 3d 52 61 75 3d 36 7e 11 3d bc da ab 3d
       0.052845184 0.059907265 0.035520755 0.0839133
000340 09 d0 52 3d 7b 75 f7 bc 43 56 72 be e4 0e 10 bd
       0.05146793 -0.030207386 -0.23665719 -0.03517045
000350 8b d3 5b 3d fd c2 a5 3d f7 a9 97 bc 4d 21 22 be
       0.05366854 0.08093832 -0.018513663 -0.15833016
000360 be dc 2b 3d 6e 89 dc bc ad 3a 75 3d 6c 07 dc bd
       0.041958563 -0.026921 0.05987041 -0.10743603
000370 60 56 e7 3c f3 bc 06 be bf 94 b1 3c bd f8 71 bd
       0.028239429 -0.13158016 0.021677373 -0.059075106
000380 a4 f6 dd bd d3 c7 1d 3c bb 7e 5a be ac dd 79 bb
       -0.108380586 0.009630161 -0.21337406 -0.0038126511
000390 cb d0 7c 3d 5c 1b 69 bc 05 34 21 3d 05 55 ff bc
       0.061722558 -0.014227714 0.03935625 -0.03116847
0003a0 f9 78 d0 bd 37 df 8f 3d f3 e8 fd 3d f0 3a c1 bb
       -0.10179324 0.07024997 0.12397947 -0.0058969185
0003b0 a3 1b bf be 16 5e dd 3d 0c e8 b9 3d 50 4d 93 3d
       -0.37325773 0.10808961 0.090774626 0.071924806
0003c0 da 7b 36 be 57 45 dd 3b 43 ae c6 3d 93 3c c8 bd
       -0.17820683 0.0067526507 0.097012065 -0.097771786
0003d0 9a 09 37 3d 4a f3 78 3d ba 2b 7c 3c df 75 f9 bd
       0.04468689 0.060778894 0.015391285 -0.12180685
0003e0 45 75 3f be 79 fc fd 3c 7f 97 b0 3c 79 18 50 3d
       -0.18697079 0.031004177 0.021556614 0.05080459
0003f0 6e 43 5b 3d a4 d6 c1 3d be 8d 73 3e db 11 23 bd
       0.053531103 0.094647676 0.23784539 -0.03981195

fc.bias f4 [11]
000000 b2 39 bc 3e 2c 8e 1f be 13 9d 5f be f5 69 d0 bd
       0.36762768 -0.15581578 -0.21837263 -0.1017646
000010 16 87 89 be b3 a6 e8 3a 68 a7 23 be c7 cd d9 bd
       -0.26860875 0.0017749876 -0.15981829 -0.10634952
000020 47 bd 2a be a5 03 c0 3d 58 bd a2 bd
       -0.16673766 0.09375695 -0.07946271
