src/main/python/saved_models/kotlin_1_37_CNNClassifier1_32embs_178id_32hd_0hl_Falsebid5kernel0.3dropout_0.pt (torch, 395339 bytes, 9 tensors)

emb.weight f4 [178, 32]
0	0xbfde9f22	-1.7392313
1	0xbf49f0f2	-0.7888328
2	0xbed1d2bc	-0.4098109
3	0xbffe19eb	-1.985166
4	0xbee15b1e	-0.4401483
5	0xbf9381ac	-1.1523948
6	0xbf9d4d5f	-1.2289237
7	0xbfe01217	-1.750552
8	0xbe7c5273	-0.24640827
9	0x3eb342a9	0.35011795
10	0xbf4ec7c5	-0.80773574
11	0xbf244e95	-0.64182407
12	0xbf9a5872	-1.2058241
13	0x3fe21532	1.7662718
14	0xbf043418	-0.5164199
15	0x3daf04c8	0.08545834
16	0xbf2318f6	-0.6370996
17	0xbf362231	-0.7114592
18	0x3eb80a8b	0.35945544
19	0x3f14fe75	0.5820077
20	0x3fcd93a9	1.6060687
21	0x3f8eb986	1.1150367
22	0xbf7f2b6b	-0.99675626
23	0x3f2640b9	0.6494251
24	0x3fa04ad4	1.2522836
25	0x3db45009	0.08804328
26	0xc0194892	-2.3950543
27	0xbfaca5fc	-1.3488154
28	0x3e50d739	0.20394601
29	0xbfab295a	-1.3371994
30	0xbeec3066	-0.46130675
31	0x3e389d2b	0.18028705
32	0x3ff08e67	1.8793458
33	0xbd93b9d4	-0.07213178
34	0x3e218e9e	0.1577706
35	0xbf460124	-0.7734549
36	0x3e4bd578	0.1990565
37	0x3d3b32d6	0.045702778
38	0x3e1ca0bd	0.15295692
39	0xbef38c2c	-0.4756788
40	0xbde35e5d	-0.11101983
41	0x3e95e165	0.29273525
42	0xbe21a229	-0.15784515
43	0xbcebd302	-0.02878714
44	0x4016dae8	2.357111
45	0xbf84c784	-1.0373387
46	0x3fc992fc	1.5747981
47	0xbf213dab	-0.6298472
48	0xbf6d698b	-0.9273917
49	0x3f0b8e65	0.5451415
50	0x3d87bdf2	0.06628026
51	0xbedfc3b9	-0.43704012
52	0x3f4339cb	0.7626006
53	0x3ee20db8	0.44151092
54	0x3f952342	1.1651385
55	0x4000fc2e	2.0153918
56	0x3e0cb5da	0.13741246
57	0x3f704b05	0.9386447
58	0xbe3e7712	-0.18600109
59	0xbf250715	-0.6446393
60	0x3fc50602	1.5392458
61	0xbf5e9d4b	-0.8695876
62	0xc055319f	-3.3311536
63	0xbf3f748e	-0.74787223
64	0xbcd0ea8a	-0.025502462
65	0xbf82fc7f	-1.0233306
66	0xbf189f97	-0.59618515
67	0xbf80b53b	-1.0055307
68	0xbe57a92e	-0.2106063
69	0xbbf75140	-0.0075475276
70	0x3fd632dd	1.6734272
71	0x3c2974fa	0.010342831
72	0xbf343681	-0.70395666
73	0xbe3db651	-0.1852658
74	0xbf7f0943	-0.9962351
75	0xbf54cd25	-0.83125526
76	0xbeec0b14	-0.46102202
77	0xbf0f6190	-0.56008244
78	0x3eca88f6	0.39557618
79	0xbf7b7683	-0.9822771
80	0xbf01a91b	-0.5064866
81	0x3dcc570c	0.099775404
82	0xbf276acd	-0.6539734
83	0x3f3b5047	0.7316937
84	0xbfb799f5	-1.4343859
85	0xbf003549	-0.50081307
86	0x3e2fc099	0.17163314
87	0xbe23d53d	-0.15999313
88	0x3e825f52	0.2546335
89	0xbf008046	-0.5019573
90	0xbf85460b	-1.0412
91	0x3f3b75dd	0.7322672
92	0xbf863002	-1.0483401
93	0xbef116d1	-0.4708772
94	0x3e950fd3	0.29113635
95	0x3ffecf66	1.9907043
96	0x3fb7a74c	1.434793
97	0x3f8e5c8b	1.1121992
98	0x3fca8deb	1.582456
99	0xbe076f93	-0.13226156
100	0x40067c7d	2.1013482
101	0xbe5a6ed4	-0.2133134
102	0xbfc33e94	-1.5253472
103	0x3f9cfea4	1.226521
104	0x3f41a247	0.7563824
105	0xbe3f80f2	-0.18701532
106	0x3f21599a	0.63027346
107	0x3ef0d622	0.4703837
108	0xbf851b67	-1.0398988
109	0xbf3025c5	-0.6880763
110	0xbf0f7520	-0.56038094
111	0xbf3483cf	-0.70513624
112	0x3f7fd35b	0.9993188
113	0xbfbbd5ad	-1.4674584
114	0x3ff41d79	1.9071494
115	0x3d24233d	0.04007267
116	0xbf1a6be7	-0.60320896
117	0xbf3de687	-0.7417988
118	0x3f9bcf14	1.217257
119	0xbf99de09	-1.2020885
120	0x40157468	2.3352299
121	0xbf790c3b	-0.9728429
122	0x3f51ae42	0.8190652
123	0x3f9c93f7	1.2232655
124	0xc02d4082	-2.7070622
125	0x40168ff1	2.3525355
126	0xbf3aaffb	-0.72924775
127	0x3f4c3122	0.7976247
128	0x3fad8965	1.3557554
129	0xbf999b4d	-1.2000519
130	0x3f985afa	1.1902764
131	0x3fc4783a	1.534919
132	0x3f4419e5	0.7660201
133	0xbf96f5ea	-1.1793797
134	0xbcdbffed	-0.026855433
135	0xbe22b21c	-0.15888256
136	0xbff43cd2	-1.9081061
137	0xbfd714ea	-1.6803257
138	0x3fa5bc97	1.2948178
139	0x3f48e5cd	0.7847565
140	0x401a8884	2.4145823
141	0x3f0c425a	0.54788744
142	0x3fe8142f	1.813116
143	0xbfd03085	-1.6264807
144	0xbf3b1bb2	-0.73089135
145	0xbfe4c929	-1.7873889
146	0x400ce1ae	2.2012744
147	0x3f105366	0.56377256
148	0x3e568e9f	0.20952843
149	0xbf603e3f	-0.8759498
150	0x3f444717	0.76670974
151	0xc00d006a	-2.2031503
152	0x3f94a7a4	1.161366
153	0xbee3b146	-0.44471186
154	0x3f2a20b9	0.6645618
155	0x3fb9f21c	1.4527011
156	0x3f338c57	0.70136017
157	0x402046fc	2.5043325
158	0xbfb1264a	-1.383981
159	0x4016551f	2.3489454
160	0x3ea38405	0.3193666
161	0xbef08b5d	-0.46981326
162	0xbf3e1b21	-0.74260145
163	0xbe8ba11e	-0.2727136
164	0xbe732540	-0.23744678
165	0xbf4cd8a6	-0.8001808
166	0x3f113bd0	0.5673189
167	0x3e26ef55	0.16302235
168	0x3ed68c1b	0.41903767
169	0x3f529a37	0.82266563
170	0x3f58d7eb	0.84704465
171	0xbfac0d37	-1.3441533
172	0xbf2721cc	-0.65285945
173	0xbf41f169	-0.7575899
174	0xbe57f73d	-0.21090408
175	0xbf27509b	-0.6535737
176	0x3ec928b2	0.3928886
177	0x3f6ef6ab	0.93345135
178	0x3f13a66c	0.57675815
179	0x3f8c3ced	1.0956093
180	0xbe0455c7	-0.12923346
181	0x3f3a90c4	0.72877145
182	0xbe5d7110	-0.21625161
183	0xbdcfa5a2	-0.10139014
184	0x3f80e5af	1.0070094
185	0xbe9d66c8	-0.30742478
186	0xbe414a19	-0.18875922
187	0x3f5567e2	0.8336164
188	0x3e8d320d	0.27577248
189	0x3eaa1d79	0.3322561
190	0x3e886745	0.26641288
191	0x3f0f3a2a	0.55948126
192	0xbf474241	-0.7783547
193	0x3f12257b	0.5708844
194	0x3f963247	1.1734093
195	0x3e4d3f3e	0.20043656
196	0x3f0dbe2c	0.55368304
197	0xbf9dc9b5	-1.2327181
198	0xc0038bbf	-2.0554044
199	0xbf4d0bd3	-0.8009617
200	0xbee2cb84	-0.44295895
201	0x3f8a8b7c	1.0823817
202	0xbf2af1b2	-0.6677505
203	0x3c692ef1	0.014232383
204	0xbf74bb44	-0.95598245
205	0x3e6b3360	0.22968817
206	0x3ecec98b	0.4038814
207	0xbed6da23	-0.419633
208	0x3f4d5a16	0.80215585
209	0x3f402594	0.7505734
210	0xbe801711	-0.25017598
211	0x3f99a9cd	1.2004944
212	0x3f20e480	0.62848663
213	0x3fa4bcab	1.2870077
214	0x3f96981e	1.1765172
215	0x3f7348f3	0.95033187
216	0xbf2e4bdd	-0.6808451
217	0x3f271840	0.6527138
218	0x3f1e4997	0.6183104
219	0xbe9b988e	-0.30389827
220	0x3eb49c7e	0.35275644
221	0xbe77f012	-0.24212673
222	0x3fa7f8f2	1.3122847
223	0x3fa13a83	1.2595981
224	0x3fd33060	1.6499138
225	0xbedd2fb4	-0.43200457
226	0xbe8ac40a	-0.2710269
227	0xbfb8367b	-1.4391626
228	0x3f9f9f05	1.2470404
229	0x3fa30d8e	1.2738512
230	0x3ec82a80	0.39094925
231	0x3ec64074	0.3872105
232	0xbda37d3d	-0.07982872
233	0x3eaef67d	0.3417243
234	0x3f72e659	0.9488273
235	0xbfb124d0	-1.3839359
236	0x3fdcaedc	1.7240863
237	0xc0175850	-2.3647652
238	0xbf6df31e	-0.9294909
239	0x3e96560e	0.2936253
240	0x3e5c4b92	0.21513203
241	0x3f703f28	0.9384637
242	0x3fbb9c4f	1.4657077
243	0xbf0e751b	-0.5564744
244	0xbf3eade3	-0.7448408
245	0xbe4f024d	-0.20215721
246	0xbe6b2e10	-0.2296679
247	0x3aae803e	0.0013313366
248	0x3ec0242a	0.3752759
249	0xbf14c0de	-0.5810679
250	0xbf1282d5	-0.57230884
251	0x3f813e6c	1.0097175
252	0xbdd85eb5	-0.10564939
253	0xbf970047	-1.179696
254	0xbdb9eaa7	-0.090779595
255	0x3f102843	0.56311435

conv1.weight f4 [32, 32, 5]
0	0xbd9250f3	-0.07144346
1	0xbe69ef22	-0.22845128
2	0x3dc8eb7a	0.098105386
3	0xbe7da8b2	-0.24771383
4	0x3e167e61	0.14696647
5	0x3ef5aa00	0.47981262
6	0x3e323097	0.17401348
7	0x3e8f19dc	0.27949417
8	0xbbb343ba	-0.00547072
9	0xbd33d422	-0.043903477
10	0x3eb87535	0.36026922
11	0xbcd73877	-0.026272042
12	0x3e903907	0.28168508
13	0x3da8525a	0.08218832
14	0x3d0a3eca	0.033751287
15	0xbb01d3bc	-0.0019810041
16	0x3ec5b5ba	0.3861521
17	0x3d93cdf7	0.07217019
18	0x3deaf418	0.114723384
19	0x3d9a6d47	0.07540374
20	0x3e7c6713	0.24648695
21	0x3e91b4ad	0.28458157
22	0xbd12815c	-0.035767898
23	0xbdd4bdfa	-0.10387798
24	0x3d9d58cf	0.076829545
25	0x3e77ee4b	0.24211995
26	0x3d5b1bfd	0.05349349
27	0x3d8567bf	0.065139286
28	0x3e8e014e	0.2773537
29	0x3d35e844	0.04441096
30	0x3db642e3	0.088994764
31	0x3dd8bf41	0.10583354
32	0x3cbf8639	0.023379432
33	0x3dae1a47	0.08501106
34	0x3dd962f8	0.1061458
35	0xbd99aa89	-0.0750323
36	0x3eeb0e50	0.45909357
37	0x3d542678	0.0517945
38	0x3df01141	0.11722041
39	0x3d997068	0.07492143
40	0xbcc9728d	-0.024590755
41	0x3dafb9a6	0.085803315
42	0xbe81e9b6	-0.2537362
43	0xbdc599dc	-0.09648487
44	0xbd73eeeb	-0.05955402
45	0xbe403e1d	-0.18773694
46	0x3da41415	0.08011643
47	0xbdfc2218	-0.1231119
48	0x3ddc87ce	0.1076809
49	0xbe44c551	-0.19215895
50	0x3dcca2db	0.09992
51	0x3e8e8914	0.27838957
52	0x3e846dbf	0.2586498
53	0xbe1c0d89	-0.15239538
54	0xbd03d929	-0.032189522
55	0x3e77d756	0.24203238
56	0x3d8b520c	0.068027586
57	0x3e1f1218	0.15534246
58	0xbbe59954	-0.0070068035
59	0x3c689ea8	0.014197983
60	0x3dfba2d1	0.12286914
61	0xbe124fae	-0.14288208
62	0x3d988740	0.07447672
63	0x3e9382d1	0.28810742
64	0x3e0254ee	0.1272771
65	0xbd3bd6b5	-0.045859057
66	0xbe1a9e63	-0.15099482
67	0xbd5fdf25	-0.054656167
68	0xbd5dd9cd	-0.05416279
69	0x3ac73027	0.0015196846
70	0xbd709901	-0.058739666
71	0x3e8bd80e	0.27313274
72	0xbc200b7a	-0.009768361
73	0x3dc82582	0.09772779
74	0xbd2121a2	-0.039338715
75	0xbd80d6a8	-0.062909424
76	0x3db10dae	0.08645187
77	0xbcfc4f9a	-0.030799676
78	0x3e07d9f9	0.13266744
79	0xbe5fdd6e	-0.21861812
80	0x3dd7cea0	0.105374575
81	0x3dc68ee2	0.096952215
82	0x3daf4ed7	0.085599594
83	0xbe024f75	-0.12725623
84	0x3e5f1807	0.2178651
85	0xbe9a78dc	-0.30170333
86	0xbd498e26	-0.04920783
87	0xbde4dd06	-0.111749694
88	0xbe64aa43	-0.22330575
89	0xbe4e3068	-0.20135653
90	0xbe800155	-0.25001016
91	0xbb448550	-0.0029986687
92	0x3dce6948	0.100786746
93	0x3d2ae54f	0.041722592
94	0x3e40718f	0.18793319
95	0x3c851195	0.016243735
96	0x3dde9244	0.10867742
97	0x3d8428f0	0.06453121
98	0xbdf3458d	-0.118785
99	0xbd1969e8	-0.037454516
100	0x3e0e8cbe	0.13920876
101	0xbd22c776	-0.039741002
102	0x3cde0234	0.02710066
103	0x3da7e7c5	0.081985034
104	0x3e47c490	0.19508576
105	0xbe3296db	-0.1744036
106	0x3d9f9034	0.077911764
107	0xbd935bb8	-0.07195228
108	0xbe44115e	-0.1914725
109	0xbe520abf	-0.20511912
110	0xbe7407f8	-0.23831165
111	0x3e4099fe	0.18808743
112	0x3e4c70e6	0.19964942
113	0x3daf6df1	0.085658915
114	0x3e043bc4	0.12913424
115	0xbec8ca4b	-0.39216837
116	0xbd42437d	-0.047427643
117	0xbddca0ed	-0.10772882
118	0xbdebd9fa	-0.11516185
119	0xbe516d40	-0.20451832
120	0x3e5ca8cb	0.21548764
121	0x3c27aa4f	0.010233476
122	0xbd9780e4	-0.07397631
123	0xbb52cc3a	-0.0032165186
124	0xbba5c1b1	-0.00505849
125	0x3e6ff585	0.23433502
126	0x3e3249b2	0.17410925
127	0x3cf0a7b4	0.029376842
128	0xbcac1ac6	-0.02100886
129	0xbe882417	-0.26590034
130	0xbdffdc67	-0.1249321
131	0x3ec0ceca	0.37657768
132	0x3e3d9306	0.18513116
133	0xbde72e2b	-0.11288103
134	0xbb899fb0	-0.0041999444
135	0x3ded57e4	0.115890294
136	0x3e691186	0.22760591
137	0x3c544091	0.012954847
138	0xbd99d053	-0.07510438
139	0x3e21acb7	0.15788542
140	0xbe0a852d	-0.13527365
141	0x3e55df28	0.20885909
142	0x3c963b99	0.018338965
143	0xbe158c4f	-0.14604305
144	0x3dd52ac6	0.10408549
145	0xbe249568	-0.16072619
146	0x3ea565d8	0.32304263
147	0x3d46cd89	0.048535857
148	0x3e0f9f95	0.1402572
149	0x3e9dae48	0.3079703
150	0x3c879f2b	0.01655539
151	0xbd2987da	-0.041389324
152	0xbd95df3c	-0.07317969
153	0x3e49ec68	0.19719088
154	0xbe2c9b76	-0.16856179
155	0x3e3267ef	0.1742246
156	0x3e9d7b53	0.3075815
157	0x3dfe12e9	0.124059506
158	0xbda6cbc2	-0.081443325
159	0x3d20145b	0.039081912
160	0xbdd4daa3	-0.10393264
161	0xbe1252b7	-0.14289366
162	0x3e38759f	0.18013619
163	0x3db5561c	0.08854315
164	0x3dbd9a33	0.09257927
165	0x3dffe674	0.12495127
166	0x3d1dec43	0.038555395
167	0xbe2b8cf0	-0.16752982
168	0x3d02e242	0.031954058
169	0x3d34f347	0.04417732
170	0x3de50724	0.111830026
171	0x3e477b12	0.19480541
172	0x3c5f96ad	0.013646764
173	0xbe21668d	-0.15761776
174	0xbde5799e	-0.11204837
175	0x3d6f7009	0.058456454
176	0xbe095f06	-0.13415155
177	0x3dece7cc	0.11567649
178	0x3d9831b2	0.07431354
179	0x3d4dea56	0.05027231
180	0xbdbbc474	-0.0916833
181	0x3b2ec5a4	0.0026668096
182	0xbda35ced	-0.079767086
183	0x3d862e39	0.06551785
184	0xbb8fd2dd	-0.0043891505
185	0xbcfdbf64	-0.030975051
186	0x3e6a2044	0.22863871
187	0x3cd7ba2f	0.026333896
188	0x3e18705b	0.1488661
189	0xbdb865ff	-0.09003829
190	0xbe4bbca5	-0.19896181
191	0xbe364971	-0.17801453
192	0xbda8d6fd	-0.08244131
193	0x3e8780f0	0.2646556
194	0x3e31b386	0.17353639
195	0x3dcb1c12	0.09917463
196	0xbdfe2a96	-0.124104664
197	0x3e512700	0.20425034
198	0x3e859e12	0.2609716
199	0x3e32158c	0.17391032
200	0x3d96c41b	0.07361623
201	0xbe91d5ff	-0.2848358
202	0x3e144eb9	0.14483155
203	0xbe9e9f29	-0.30980805
204	0x3e3b2643	0.18276314
205	0x3cc1b867	0.0236475
206	0x3e3765fe	0.1791
207	0x3e0c054f	0.136739
208	0xbd51dcea	-0.05123607
209	0x3e078900	0.13235855
210	0xbdd8d73c	-0.10587928
211	0xbdd71e4c	-0.105038255
212	0xbd017d86	-0.03161385
213	0x3db4737b	0.08811089
214	0x3e696b2d	0.2279479
215	0x3e9261ea	0.28590328
216	0x3e9cd3cc	0.30630338
217	0xbe12bbeb	-0.14329498
218	0xbb8d9e91	-0.004321881
219	0xbd8b94b0	-0.06815469
220	0x3d3c5087	0.045975234
221	0x3ea33f77	0.31884357
222	0xbdc3175f	-0.09525942
223	0x3cb87975	0.022518853
224	0xbcf52501	-0.029924871
225	0xbe1626e6	-0.14663276
226	0x3dcfddbd	0.10149715
227	0xbdba8881	-0.09108067
228	0xbe1abecc	-0.15111846
229	0xbdb9f815	-0.09080521
230	0x3d43492e	0.04767721
231	0xbe1edf36	-0.15514836
232	0xbe09e186	-0.13464937
233	0x3e575cd5	0.21031506
234	0xbe1f8099	-0.155764
235	0xbd8f3462	-0.06992413
236	0xbdba7c15	-0.09105698
237	0x3d2462ec	0.0401334
238	0x3d293b04	0.041316047
239	0xbe5c2e76	-0.21502098
240	0x3d9ed304	0.07755092
241	0x3e182213	0.14856748
242	0x3d17a8f2	0.037026353
243	0x3d8a7034	0.06759682
244	0xbcd3f238	-0.025872335
245	0xbad4d5c0	-0.0016238019
246	0xbe0de7c7	-0.13857947
247	0xbc9a6982	-0.018849138
248	0x3aa4e345	0.0012579939
249	0x3e24dbc8	0.16099465
250	0xbc90840e	-0.017641094
251	0x3d599f8b	0.053130668
252	0xbd94126c	-0.07230076
253	0xbd421567	-0.047383692
254	0x3e8035f0	0.2504115
255	0xbdf4b974	-0.11949435

conv1.bias f4 [32]
0	0xbebb7dd4	-0.36619437
1	0xbe79576e	-0.24349758
2	0x3caf2071	0.021377774
3	0xbe41a4ef	-0.18910573
4	0xbe5a30f1	-0.21307732
5	0xbdf9f71e	-0.12205337
6	0xbe184287	-0.14869128
7	0xbe1936af	-0.14962266
8	0xbea9f5ae	-0.3319525
9	0xbebbe59c	-0.36698616
10	0xbd3cda0b	-0.04610638
11	0xbd2884eb	-0.041142385
12	0xbeb445de	-0.35209554
13	0xbebe3571	-0.37150148
14	0xbed0b299	-0.4076126
15	0xbde17683	-0.110089324
16	0xbe5cc1c2	-0.21558288
17	0xbe346e5d	-0.17620225
18	0xbe7fad2f	-0.24968408
19	0xbe1c9e79	-0.15294828
20	0xbec6625a	-0.3874691
21	0xbe815df9	-0.25267008
22	0xbe034375	-0.12818702
23	0x3c9ead5b	0.019369772
24	0xbe6f6299	-0.23377456
25	0x3d083528	0.03325382
26	0xbed02f16	-0.40660924
27	0xbece3ab4	-0.40279162
28	0xbedee782	-0.43536
29	0xbe995628	-0.29948545
30	0xbd6219dc	-0.055200443
31	0xbe47a932	-0.19498137

conv2.weight f4 [32, 32, 3]
0	0x3caed729	0.02134283
1	0xbdb422d7	-0.08795708
2	0xbd65f633	-0.056142997
3	0xbeba9f5a	-0.364497
4	0xbe1b4ed0	-0.15166783
5	0xbdd5b990	-0.10435784
6	0xbdf505a3	-0.11963966
7	0xbde59a60	-0.11211085
8	0xbdbbfcb5	-0.091790594
9	0xbcabd7a7	-0.020976854
10	0x3d957c81	0.07299138
11	0x3e46afdd	0.19403024
12	0xbe0ccafe	-0.1374931
13	0xbe747c50	-0.23875546
14	0xbd55bad1	-0.052180115
15	0xbe1a1a18	-0.15049016
16	0xbe140301	-0.14454271
17	0xbc8a2ce9	-0.016867118
18	0xbd2dd6ff	-0.042441364
19	0x3e5d9501	0.21638872
20	0x3e15bb51	0.14622237
21	0x3dbea7e8	0.09309369
22	0xbc20533f	-0.009785472
23	0x3c1c194a	0.009527514
24	0x3e9bd587	0.30436346
25	0x3e76ea69	0.24112858
26	0x3c1fc7ba	0.009752208
27	0xbe0525c1	-0.13002683
28	0xbe94bb1b	-0.29049
29	0xbc13e383	-0.009026411
30	0x3da4bbe4	0.0804365
31	0xbcb7b88a	-0.022426862
32	0x3cb7a725	0.022418568
33	0xbd46e5b5	-0.04855891
34	0x3de55ca2	0.11199309
35	0xbdcbb121	-0.09945894
36	0x3e44cf4e	0.19219705
37	0x3dfa2c48	0.12215477
38	0x3adb3742	0.0016724842
39	0xbddecee8	-0.10879308
40	0x3dc546f6	0.09632675
41	0xbd369730	-0.044577777
42	0x3d94e0df	0.07269453
43	0xbe3da65d	-0.18520494
44	0x3ad22a59	0.0016034349
45	0x3e5da457	0.21644722
46	0xbd2b1321	-0.04176629
47	0x3c780967	0.01513896
48	0xbc1e67f9	-0.009668344
49	0x3dd9ad5d	0.106287695
50	0xbd8db27d	-0.069188096
51	0x3d8a4ded	0.067531444
52	0x3e0d65cb	0.13808362
53	0x3ca0bea8	0.019622162
54	0x3d2b099d	0.041757215
55	0xbe850ea7	-0.2598774
56	0xbd7d341c	-0.061817273
57	0xbdb93475	-0.090432085
58	0xbda08f81	-0.07839871
59	0x3db2b060	0.08725047
60	0x3dcee4e1	0.10102249
61	0x3e4b7c0b	0.19871537
62	0xbaa410a7	-0.001251717
63	0x3dbe37fe	0.092880234
64	0xbecce073	-0.4001499
65	0x3d3df556	0.04637655
66	0xbec67f1e	-0.38768858
67	0xbecdd140	-0.40198708
68	0xbb3291c7	-0.0027247535
69	0xbe3ea268	-0.1861664
70	0x3e18b29f	0.14911889
71	0x3cc4f4ab	0.024042448
72	0xbdd3943b	-0.10331007
73	0xbe43b6fa	-0.19112769
74	0xbdfd5b34	-0.12370911
75	0x3bfeb095	0.007772515
76	0x3d99093c	0.074724644
77	0xbce925cd	-0.028460408
78	0x3bd50db2	0.0065018767
79	0x3e03667b	0.12832062
80	0xbde5d2d3	-0.11221852
81	0x3df4f536	0.11960833
82	0xbd9916f1	-0.07475079
83	0x3ddda6ad	0.108228065
84	0xbdf168bf	-0.11787557
85	0x3e55dcb8	0.20884979
86	0x3dab07c9	0.08351094
87	0xbe00f31e	-0.12592742
88	0xbc185132	-0.009296702
89	0xbc5622b6	-0.013069799
90	0x3e2ecbf3	0.17069988
91	0xbd55cef6	-0.052199326
92	0x3da0e3c3	0.07855942
93	0xbda912f3	-0.082555674
94	0xbdec38ae	-0.11534248
95	0xbdd07524	-0.10178593
96	0xbe85ba26	-0.26118582
97	0x3dec0284	0.11523917
98	0xbe166354	-0.14686328
99	0x3e8da756	0.2766673
100	0xbdb7d022	-0.08975245
101	0xbd20cb35	-0.039256293
102	0xbd6cdb52	-0.057826348
103	0xbe3d296d	-0.18472834
104	0xbd82796a	-0.06370814
105	0x3cbf847c	0.023378603
106	0x3d44fc29	0.04809204
107	0x3c9d3a76	0.019192915
108	0x3e813b03	0.25240335
109	0x3ddd69cf	0.10811197
110	0xbdacbe20	-0.08434701
111	0xbdf0f4ec	-0.11765465
112	0xbe742c7f	-0.23845099
113	0xbd8d2d45	-0.068934
114	0x3c12407b	0.008926506
115	0x3c3a0a68	0.01135502
116	0xbd3b9c38	-0.04580328
117	0x3e88d20b	0.2672275
118	0x3e851119	0.25989607
119	0x3d3d97f3	0.04628749
120	0x3d119be9	0.035549078
121	0x3e358389	0.17725958
122	0xbda60e2a	-0.0810817
123	0xbce8f8d9	-0.028438972
124	0xbd04cea2	-0.032423623
125	0xbd784142	-0.06060911
126	0x3dc63afc	0.09679219
127	0x3e006964	0.12540203
128	0x3dd73c61	0.10509563
129	0xbd08ab12	-0.03336627
130	0xbe691b1c	-0.22764248
131	0xbdfdefa0	-0.123992205
132	0xbdb44b30	-0.088034034
133	0xbd949920	-0.07255769
134	0x3d56b446	0.052418016
135	0xbd9741f7	-0.07385629
136	0xbe0ee1db	-0.13953345
137	0xbe03a721	-0.12856723
138	0x3e3d2011	0.18469264
139	0xbca5e353	-0.020249998
140	0x3c0830d8	0.0083124265
141	0x3e2c421e	0.16822097
142	0xbe2fc546	-0.17165098
143	0xbc964f23	-0.018348282
144	0xbd22ea72	-0.039774366
145	0xbe26c03d	-0.1628427
146	0xbd4e0a3d	-0.050302733
147	0xbd14320a	-0.036180533
148	0xbafde92a	-0.0019371856
149	0x3af81bce	0.0018929185
150	0x3d32ccab	0.043652218
151	0x3e60ac93	0.21940832
152	0x393bc48c	0.00017906929
153	0x3d158e5d	0.03651272
154	0x3e290c17	0.16508518
155	0x3d406d6f	0.046979364
156	0x3e4d4c7c	0.20048708
157	0xbe2d47b2	-0.16921881
158	0x3d9be6e9	0.07612402
159	0x3d5796fb	0.05263422
160	0x3ce5dc0d	0.02805903
161	0x3c70bf75	0.014694084
162	0x3e84b87a	0.25921994
163	0x3e476ab2	0.19474295
164	0x3db63cc1	0.08898307
165	0x3d94dc52	0.07268585
166	0xbd2100df	-0.03930747
167	0x3dbf2c57	0.09334629
168	0x3d285fb5	0.0411069
169	0x39e9bfb1	0.00044584044
170	0x3c6054cd	0.013692093
171	0xbe92b1bc	-0.28651226
172	0xbe845afd	-0.2585067
173	0x3ec0516f	0.3756213
174	0x3e26289d	0.1622643
175	0xbe16c787	-0.14724551
176	0x3d7067c2	0.0586927
177	0x3cb14154	0.021637596
178	0x3e449064	0.19195706
179	0x3ea55db0	0.3229804
180	0xbccfed79	-0.02538179
181	0xbeb8cb3b	-0.36092553
182	0x3d87e893	0.06636157
183	0x3e1b4266	0.15162048
184	0xbdf1638b	-0.117865644
185	0x3d7424d3	0.05960543
186	0xbd914e63	-0.07095029
187	0x3ea09f7f	0.31371686
188	0x3d2d9963	0.04238261
189	0xbc846788	-0.016162649
190	0x3d983af3	0.07433119
191	0xbd2279d1	-0.039666954
192	0xbd6195ad	-0.055074383
193	0x3e221c45	0.15831096
194	0xbd38c1e2	-0.045106776
195	0x3e11fc54	0.14256412
196	0xbe41fa56	-0.18943152
197	0xbd983313	-0.07431617
198	0x3e115d62	0.14195779
199	0x3e0ab4f5	0.13545592
200	0x3d2f11d6	0.04274162
201	0xbd210f00	-0.039320946
202	0xbe12f701	-0.14352037
203	0xbe629f59	-0.22131099
204	0xbe250a8e	-0.16117308
205	0xbe0fefe8	-0.1405636
206	0x3c8be4c7	0.017076863
207	0x3d485079	0.04890487
208	0xbe2739df	-0.1633067
209	0xbdcd393f	-0.100206845
210	0xbd474fe3	-0.04866017
211	0x3efcbc7d	0.49362555
212	0xbdf012d8	-0.11722344
213	0xbaadf6f5	-0.0013272451
214	0x3e1c450f	0.15260719
215	0x3e12d908	0.14340603
216	0xbdc4c42d	-0.0960773
217	0xb9fe978a	-0.0004855956
218	0xbe3530f8	-0.17694461
219	0x3c68bc1e	0.014205007
220	0x3e71597f	0.23569296
221	0x3dd0893a	0.10182424
222	0x3de1e910	0.11030781
223	0x3eb1915b	0.3468121
224	0xb63f892c	-2.8541062e-06
225	0x3d7de415	0.061985094
226	0xbe0e06c0	-0.13869762
227	0xbd6c0764	-0.057624236
228	0x3db7ea8a	0.08980282
229	0xbd98c037	-0.07458537
230	0x3da6608c	0.081238836
231	0xbd4cd5ed	-0.050008703
232	0xbe24b3a0	-0.16084146
233	0x3caf1f38	0.021377191
234	0xbc96a73f	-0.018390296
235	0xbdaf0f0a	-0.0854779
236	0x3d9048a2	0.070451036
237	0xbdb65d0e	-0.089044675
238	0xbecea19c	-0.40357673
239	0x3db05cd7	0.08611458
240	0x3e6e7269	0.23285832
241	0x3a8b26ef	0.0010616462
242	0x3cc4e5ec	0.024035417
243	0xbcd65fbe	-0.0261687
244	0x3e0092a9	0.12555946
245	0xbe0eff94	-0.13964683
246	0xbdcef100	-0.10104561
247	0x3ecaa9dd	0.3958272
248	0x3d2082cb	0.039187234
249	0x3db4ef8f	0.08834755
250	0xbc00f745	-0.007871454
251	0x3c3e9ce8	0.011634089
252	0xbdb8441f	-0.08997368
253	0xbe0eb68b	-0.13936822
254	0x3d4b1d86	0.049588703
255	0xbdf92b5c	-0.12166473

conv2.bias f4 [32]
0	0xbed4b5e1	-0.41545013
1	0xbec33321	-0.38124946
2	0xbedb9a56	-0.42891186
3	0xbde11119	-0.10989589
4	0xbbc8ea58	-0.0061314516
5	0xbe748118	-0.2387737
6	0xbe011f6c	-0.12609643
7	0xbe921a20	-0.28535557
8	0xbe855224	-0.2603923
9	0xbee1aa74	-0.44075358
10	0xbefd924d	-0.4952568
11	0xbe538b17	-0.20658527
12	0x3df15951	0.11784614
13	0xbd2ce091	-0.04220635
14	0xbee05ca0	-0.43820667
15	0xbf19fafe	-0.6014861
16	0xbef48b08	-0.47762322
17	0xbecbbf97	-0.3979461
18	0xbed16672	-0.40898472
19	0xbe86ef91	-0.2635465
20	0xbec1755a	-0.37784845
21	0xbe49ba8a	-0.19700065
22	0xbeedafbc	-0.46423137
23	0xbeddd541	-0.43326762
24	0x3c41f9ef	0.011839374
25	0xbd55f788	-0.052238017
26	0xbeef0f88	-0.46691537
27	0x3dc93b4a	0.098257616
28	0xbea359e2	-0.31904513
29	0xbeb53728	-0.35393643
30	0xbe799b33	-0.2437561
31	0x3d2d4d53	0.04231007

conv3.weight f4 [256, 64, 5]
0	0x3e135746	0.14388761
1	0xbd21dd19	-0.039517496
2	0x3cfde371	0.030992242
3	0x3e7af09f	0.24505852
4	0xbc1fd479	-0.009755247
5	0xbe9cdacb	-0.30635676
6	0xbdbd38d7	-0.09239357
7	0xbc084667	-0.0083175665
8	0xbe96df81	-0.29467395
9	0x3b94776a	0.004530837
10	0x3da80899	0.08204765
11	0xbe470634	-0.1943596
12	0xbeeb2634	-0.45927584
13	0x3cb62441	0.022234084
14	0x3df5afa0	0.119963884
15	0xbd3e365f	-0.04643857
16	0xbe3277a6	-0.17428455
17	0xbe097aa9	-0.13425697
18	0x3db48dc3	0.088161014
19	0xbe351108	-0.17682278
20	0xbc4608fd	-0.012087104
21	0x3cb6d847	0.022319926
22	0x3d9cd138	0.07657093
23	0xbe02e7e8	-0.12783778
24	0xbb8b7b12	-0.0042566145
25	0x3e3056bb	0.17220585
26	0x3cb827f4	0.022479989
27	0xbd29772a	-0.04137341
28	0x3d0806ec	0.033209726
29	0xbcc45af1	-0.023969145
30	0xbc14473e	-0.009050189
31	0xbe54f3df	-0.20796154
32	0xbe65f0f3	-0.22455196
33	0x3da4fd90	0.08056176
34	0xbd9eab9f	-0.07747578
35	0xbd71eaf2	-0.059061952
36	0x3d30f6dc	0.043204173
37	0x3e0d06ab	0.13772075
38	0xbe406d18	-0.18791616
39	0x3bd44bba	0.006478754
40	0xbc88d866	-0.01670475
41	0xbd36416f	-0.044495996
42	0xbd60cd9a	-0.054883577
43	0xbc246018	-0.010032676
44	0xbb754e4a	-0.0037430697
45	0x3d1092dd	0.03529631
46	0x3d3d8e61	0.04627836
47	0xbdc39754	-0.09550348
48	0xbe164c0c	-0.14677447
49	0xbeb1c8ca	-0.34723502
50	0x3c798bf1	0.015231119
51	0xbc3f6bed	-0.011683446
52	0x3e943519	0.2894676
53	0x3d7d64a0	0.06186354
54	0xbb5bdd85	-0.0033548784
55	0xbc87f6ad	-0.016597116
56	0x3cca907c	0.024727099
57	0x3d93416a	0.07190211
58	0x3da457fc	0.08024594
59	0x3d31ef83	0.043441307
60	0xbca2536a	-0.019815166
61	0xbd8c7007	-0.06857305
62	0x3d0e8e2d	0.03480356
63	0x3dacd42c	0.08438906
64	0xbda689ca	-0.0813175
65	0xbc18ec9b	-0.009333755
66	0x3cac09c7	0.021000756
67	0x3d2a4984	0.041574016
68	0xbda4bfc9	-0.080443926
69	0x3e28c73c	0.16482252
70	0x3de00eb1	0.10940302
71	0xbe6b5b7a	-0.22984114
72	0x3dbf7085	0.09347633
73	0xbb816e90	-0.0039499477
74	0x3e0367e5	0.12832601
75	0xbcf21478	-0.029550776
76	0x3d4aec89	0.049541984
77	0xbdf779ca	-0.12083776
78	0xbe0b0d4e	-0.13579294
79	0x3ea50567	0.32230684
80	0xbdf46c20	-0.11934686
81	0x3c33e643	0.010980192
82	0x3e26f353	0.16303758
83	0xbe03183d	-0.12802215
84	0x3c83fb15	0.016110936
85	0x3d5d0ae0	0.05396545
86	0xbdc99412	-0.09842695
87	0x3af0df6b	0.0018377131
88	0xbda06ae0	-0.07832885
89	0xbea2c6d9	-0.31792334
90	0x3c828a7f	0.01593518
91	0xbe480951	-0.19534804
92	0x3d9a60a5	0.07537965
93	0x3e38fdc4	0.18065554
94	0x3af7a59e	0.0018893962
95	0x3d8b2f48	0.067961276
96	0x3e351447	0.17683516
97	0xbd1ca309	-0.03824142
98	0x3d52ae1a	0.051435567
99	0x3e11e322	0.142468
100	0x3e0825b1	0.13295628
101	0xbdd5a0e5	-0.10431079
102	0xbe07c0fb	-0.1325721
103	0xbe4ed1d0	-0.20197225
104	0xbd7d3337	-0.06181642
105	0x3e162dc9	0.14665903
106	0xbd666fa5	-0.056258816
107	0x3c8579c4	0.016293414
108	0x3dd5a85a	0.10432501
109	0x3e443b42	0.1916323
110	0x3d74112f	0.0595867
111	0xbdc60865	-0.0966957
112	0x3d5dde7e	0.054167263
113	0x3cb39a49	0.021924155
114	0x3d8a84ec	0.06763634
115	0xbe248050	-0.16064572
116	0x3cc4d959	0.02402942
117	0x3da3caef	0.07997691
118	0xbe04f727	-0.12984906
119	0xbac80bcf	-0.0015262308
120	0xbcf7a7cf	-0.030231385
121	0xbe3d8d28	-0.18510878
122	0x3dbd0401	0.09229279
123	0x3df231d2	0.11825909
124	0xbc08d877	-0.0083523905
125	0x3d07cea7	0.033156063
126	0x3dcc0f19	0.09963817
127	0xbd0470f6	-0.03233429
128	0xbdba0a0c	-0.090839475
129	0xbe6ce430	-0.23133922
130	0xbd69f490	-0.057118
131	0x3e3cc1c4	0.1843329
132	0x3d09a406	0.03360369
133	0xbdfedee2	-0.12444855
134	0xbe7d3ebf	-0.24730967
135	0xbe20f3a7	-0.15717946
136	0xbe182e61	-0.14861442
137	0xbc16aa69	-0.009195902
138	0xbd822cda	-0.06356211
139	0x3db2b29e	0.08725475
140	0xbd357cb4	-0.04430838
141	0x3e0d10ef	0.13775991
142	0x3e340f4d	0.17583962
143	0x3d99aa07	0.07503133
144	0x3d59e535	0.053197104
145	0xbdd33229	-0.10312302
146	0xbd974c72	-0.07387628
147	0x3e1259dd	0.14292093
148	0xbe537a13	-0.20652036
149	0x3bdf20f5	0.0068093487
150	0xbd22326b	-0.039598864
151	0xbdc79289	-0.09744746
152	0xbdaaebf5	-0.083457865
153	0xbd91ea9f	-0.071248285
154	0x3e4a4f99	0.19756927
155	0xbd51c12c	-0.051209614
156	0xbe288fa8	-0.1646105
157	0x3d065c4f	0.032802876
158	0x3dcd3c26	0.10021238
159	0xbe105bae	-0.14097473
160	0x3c35aa53	0.011087972
161	0x3e2baef6	0.16765961
162	0xbe1c0b24	-0.15238625
163	0x3cb2be7f	0.021819351
164	0xbe426fe3	-0.18987994
165	0x3c01a940	0.0079138875
166	0xbe20fe42	-0.15721992
167	0xbdffadfc	-0.12484357
168	0x3ed91d60	0.42405224
169	0xbe08d657	-0.13363014
170	0x3c18428d	0.009293211
171	0xbdf4d809	-0.11955268
172	0xbd7230d6	-0.059128605
173	0x3e4edc0e	0.20201132
174	0x3d1d0dc4	0.038343206
175	0xbe144d36	-0.14482579
176	0xbe9c62cc	-0.30544126
177	0x3e8a02ec	0.26955354
178	0x3d824377	0.06360524
179	0xbe065b83	-0.13120846
180	0x3c4d7991	0.012541191
181	0x3c3fc044	0.011703555
182	0xbe3f15b1	-0.18660618
183	0xbe11f59b	-0.14253847
184	0xbe25790d	-0.16159458
185	0x3caf935b	0.02143257
186	0x3e240616	0.16017947
187	0xbd311db3	-0.043241214
188	0xbbfd24c7	-0.0077253315
189	0xbbecfc73	-0.0072322427
190	0x3d309f61	0.043120746
191	0x3d9d3ceb	0.07677635
192	0x3ea3a84b	0.31964335
193	0xbc1f8b6a	-0.009737829
194	0xbdfa968d	-0.122357465
195	0x3d0bbe81	0.034117226
196	0x3e817445	0.2528402
197	0xbc84eaef	-0.016225306
198	0xbe7b051d	-0.2451367
199	0x3d3be58f	0.04587322
200	0xbd44797c	-0.04796742
201	0x3e0e4c37	0.13896261
202	0xbdc964be	-0.09833668
203	0x3d9c82b6	0.07642119
204	0x3daf3d21	0.08556581
205	0xbe15b7d1	-0.14620902
206	0xbda03057	-0.0782172
207	0xbe894774	-0.26812327
208	0xbec44849	-0.383364
209	0x3d423240	0.047411203
210	0x3d7347da	0.059394695
211	0xbd9caf43	-0.07650616
212	0xbe1dac38	-0.15397727
213	0xbd75f2d5	-0.060046036
214	0x3cf864f5	0.030321578
215	0xbdccf6cd	-0.10008011
216	0xbd205442	-0.039142855
217	0xbc361632	-0.01111369
218	0x3bc79c86	0.006091657
219	0x3e41dd09	0.18931974
220	0xbc9fc987	-0.019505275
221	0xbd0d5880	-0.03450823
222	0xbe0619ff	-0.13095854
223	0x3dac0807	0.083999686
224	0x3d3fd862	0.046837218
225	0x3e959cd4	0.29221213
226	0x3b474097	0.0030403489
227	0x3e458dbc	0.19292349
228	0x3e1d222c	0.15345067
229	0xbe82f32b	-0.25576147
230	0x3e419dc6	0.18907842
231	0x3d9afceb	0.075677715
232	0xbed9bab7	-0.42525265
233	0x3e1ac225	0.15113123
234	0x3e87838b	0.26467547
235	0xbe5de19e	-0.21668097
236	0xbe0a60f0	-0.13513541
237	0xbe5787d8	-0.21047914
238	0x3d373b18	0.04473409
239	0xbe8e929c	-0.2784623
240	0xbe650683	-0.22365765
241	0xbe17cd1e	-0.1482434
242	0xbe5cfd95	-0.21581109
243	0x3da706b4	0.081555754
244	0x3dd6e527	0.10492926
245	0xbd99a6c3	-0.075025104
246	0xbc88d41a	-0.0167027
247	0x3c9f0343	0.019410735
248	0x3dbae093	0.091248654
249	0xba827b30	-0.0009954926
250	0xbe53dd75	-0.20689948
251	0x3d578338	0.052615374
252	0xbe30b6f9	-0.17257299
253	0x3ea4e5c7	0.32206556
254	0x3d93e89e	0.072221026
255	0xbb316caf	-0.0027072837

conv3.bias f4 [256]
0	0xbe02f513	-0.12788801
1	0xbd171ac7	-0.03689077
2	0xba8c1769	-0.0010688129
3	0xbda7a399	-0.08185501
4	0xbe135d98	-0.14391172
5	0x3da292ae	0.07938133
6	0xbcd8a51b	-0.026445916
7	0xbdfaf1f1	-0.12253178
8	0xbbdae03c	-0.006679563
9	0xbdfd2447	-0.12360435
10	0xbe133c44	-0.14378458
11	0xbe074b97	-0.13212429
12	0xbdb71df4	-0.0894126
13	0x3dcd53ab	0.10025724
14	0x3d876595	0.06611172
15	0x3d833f8e	0.064086065
16	0xbd5c4837	-0.053779807
17	0xbe1b5ab4	-0.15171319
18	0x3d67f215	0.05662735
19	0xbe300378	-0.17188823
20	0xbe116a01	-0.14200594
21	0xbc86c557	-0.01645152
22	0x3da20752	0.079115525
23	0xbd1db702	-0.038504608
24	0xbd25b151	-0.040452305
25	0xbdee3fec	-0.11633286
26	0xbd36ca0b	-0.044626277
27	0xbe346e4d	-0.17620201
28	0x3da947c4	0.08265641
29	0xbcc251e6	-0.023720693
30	0xbe1076e3	-0.14107852
31	0xbdba855e	-0.09107469
32	0xbd3a572d	-0.045493294
33	0xbe370512	-0.17873028
34	0xbda9b0fa	-0.08285709
35	0xbd87d44c	-0.06632289
36	0xbdb655f9	-0.08903117
37	0xbdd59aa7	-0.10429888
38	0xbd6db1db	-0.058030944
39	0xbdf5dfe3	-0.12005594
40	0xbe44948f	-0.19197296
41	0xbd8cf5fc	-0.06882855
42	0x3d88511a	0.06656094
43	0xbdd0937f	-0.10184383
44	0xbe205b5b	-0.1565985
45	0xbdb7ad41	-0.089685924
46	0xbc19005f	-0.009338467
47	0xbde56f6c	-0.11202893
48	0xbd036d32	-0.03208656
49	0xbe28db44	-0.16489893
50	0x3d7f9532	0.062398143
51	0xbc8b69aa	-0.017018158
52	0x3d93e4c1	0.07221366
53	0xbcd49046	-0.025947701
54	0xbde6e74d	-0.11274586
55	0xbdf01286	-0.11722283
56	0x3dd6ab95	0.104819454
57	0x3da0eedf	0.07858061
58	0x3bddd139	0.006769326
59	0xbda32063	-0.07965162
60	0xbc939e97	-0.018019957
61	0xbe288de5	-0.16460378
62	0xbe3568da	-0.17715779
63	0x3b962dc3	0.004583092
64	0xbd3dcec5	-0.04633977
65	0xbd1c5f65	-0.038176913
66	0x3d9b2352	0.07575096
67	0x3c790cb5	0.0152007835
68	0xbdbe4aa5	-0.09291581
69	0x3c97f20b	0.018548032
70	0xbdc4ea30	-0.0961498
71	0xbdcad00a	-0.099029616
72	0xbdbdebed	-0.09273515
73	0xbd2ebb0f	-0.04265886
74	0xbd3e47a3	-0.046455037
75	0xbe426dcf	-0.18987201
76	0x3cb0cb08	0.021581188
77	0x3e0f47e6	0.13992271
78	0xbde61312	-0.11234106
79	0xbd8e2fb9	-0.06942696
80	0xbe11557d	-0.14192767
81	0xbcea611f	-0.028610764
82	0xbc588295	-0.013214727
83	0xbe344f32	-0.17608336
84	0xbd472ada	-0.04862485
85	0x3d35a009	0.044342075
86	0xbca88b23	-0.020574158
87	0xbd965793	-0.07340922
88	0xbdd15447	-0.10221153
89	0x3d82442e	0.063606605
90	0x3d53f419	0.05174646
91	0xbd9d09bd	-0.07667873
92	0xbd9bd5ea	-0.0760916
93	0xbdb98281	-0.09058095
94	0xbdbed024	-0.093170434
95	0xbdc749a0	-0.0973084
96	0xbd8d1f3d	-0.06890724
97	0xbd97369e	-0.07383464
98	0x3d40c0b4	0.047058776
99	0xbe46c394	-0.19410545
100	0x3d78ba51	0.06072456
101	0x3e3133cd	0.17304917
102	0xbe4896e1	-0.19588806
103	0xbdd9f2a0	-0.1064198
104	0xbe1aa3fd	-0.15101619
105	0xbd6430df	-0.05571067
106	0x3cd36145	0.025803218
107	0xbe1b9d51	-0.1519673
108	0xbd429af6	-0.047511064
109	0x3d0021e5	0.031282324
110	0xbd04720a	-0.03233532
111	0xbdc3404b	-0.09533747
112	0xbcd50298	-0.026002213
113	0xbdfa3bec	-0.122184604
114	0xbcfa1903	-0.030529505
115	0x3d963f72	0.0733632
116	0xbd53fc15	-0.051754076
117	0x3d091531	0.033467475
118	0xbd3e8d19	-0.04652128
119	0x3e4cf26a	0.20014349
120	0x3c41835c	0.011811104
121	0xbd8e920e	-0.069614515
122	0xbc73d3d1	-0.014882044
123	0xbd971ba3	-0.07378318
124	0xbdb784d0	-0.08960879
125	0xbd98586c	-0.0743874
126	0xbd80cc24	-0.06288937
127	0xbd390d3c	-0.045178637
128	0xbca96648	-0.020678654
129	0xbe1adc7c	-0.1512317
130	0xbd98b8cf	-0.074571244
131	0xbe0d6b9d	-0.13810582
132	0xbde46f63	-0.11154058
133	0x3e1ebc3b	0.15501492
134	0xbe102137	-0.1407517
135	0xbe1eb2c6	-0.15497884
136	0x3d2fc757	0.042914715
137	0xbe0c091f	-0.13675354
138	0xbe2c9a1e	-0.16855666
139	0xbcd09b71	-0.025464745
140	0xbc3a4007	-0.011367804
141	0x3dc58f79	0.09646506
142	0xbe47f30d	-0.1952631
143	0xbe00aa21	-0.12564899
144	0xbd971a04	-0.07378009
145	0xbd814d12	-0.06313528
146	0xbc9b4907	-0.01895572
147	0x3cb06831	0.021534057
148	0xbbccb558	-0.006247204
149	0xbe2bc4fc	-0.16774362
150	0xbe1f524f	-0.15558742
151	0xbdbf5557	-0.09342449
152	0x3d4acbaa	0.049510635
153	0x3cbd2906	0.02309085
154	0xbe0feda9	-0.14055504
155	0xbe2851d9	-0.16437472
156	0x3d725764	0.059165373
157	0xbd5ff56b	-0.05467741
158	0xbe3127e8	-0.1730038
159	0xbc0dc5c8	-0.008653112
160	0xbde2bd70	-0.110712886
161	0x3e2fd387	0.17170535
162	0x3b2c3823	0.0026278577
163	0xbcdfe342	-0.027330045
164	0x3d0872b3	0.03331251
165	0x3c790fe4	0.0152015425
166	0xbda91846	-0.08256583
167	0xbd857f0e	-0.065183744
168	0x3d08d741	0.033408407
169	0xbd90e932	-0.070757285
170	0xbcc72f91	-0.024314674
171	0xbde583ed	-0.112068035
172	0x3b290220	0.002578862
173	0xbd175cca	-0.036953725
174	0xbdd62aea	-0.10457404
175	0x3bb7a8cd	0.0056048394
176	0x3d8d02a7	0.068852715
177	0xbd541035	-0.05177327
178	0x3d479332	0.04872436
179	0xbe39a500	-0.18129349
180	0xbd8dd1c2	-0.06924774
181	0xbe34b692	-0.1764777
182	0xbda7b6b5	-0.081891455
183	0xbe05d2b3	-0.13068657
184	0x3dde9799	0.10868759
185	0x3de5b228	0.11215621
186	0xbdd1ef70	-0.10250747
187	0xbdfa55fc	-0.122234315
188	0xbb858084	-0.004074158
189	0xbe0bfba9	-0.1367022
190	0xbe2a94e2	-0.16658357
191	0x3d528ecd	0.051405717
192	0xbe2c8325	-0.16846903
193	0xbb7d922b	-0.003869186
194	0xbe36f956	-0.17868552
195	0xbdcad3d6	-0.09903686
196	0xbd89b880	-0.06724644
197	0xbde5dfc1	-0.11224318
198	0xbc8b61c2	-0.017014388
199	0xbcb8db07	-0.022565378
200	0xbd5d01d2	-0.053956814
201	0xbe1b4a02	-0.1516495
202	0xbcc7f8af	-0.024410574
203	0xbdae72f4	-0.08518019
204	0xbe31a487	-0.17347918
205	0xbe3c1c6b	-0.18370216
206	0xbda59a8c	-0.08086118
207	0x3d4521b9	0.048127864
208	0xbe13b092	-0.14422825
209	0x3d52f7ff	0.05150604
210	0xbe0d4d0d	-0.13798924
211	0xbd4716e5	-0.04860582
212	0xbe4ab308	-0.19794858
213	0xbd5d0578	-0.053960294
214	0xbc673139	-0.014110857
215	0xbdba8646	-0.09107642
216	0xbdd28649	-0.10279519
217	0xbd99436b	-0.07483562
218	0xbdb3cd62	-0.08779408
219	0xbdf9ffaa	-0.12206967
220	0x3e37e52a	0.17958513
221	0xbd8428e5	-0.064531125
222	0xbd633e23	-0.05547918
223	0xbd792450	-0.060825646
224	0xbdebd5e5	-0.115154065
225	0x3e0d429d	0.13794942
226	0xbd19d801	-0.037559513
227	0x3ca30344	0.019899018
228	0xbdbb00bd	-0.09131
229	0x3c3a72a4	0.0113798715
230	0xbdcc9fba	-0.09991403
231	0xbc824445	-0.015901694
232	0xbd088007	-0.03332522
233	0x3d968d5e	0.073511824
234	0xbd78c532	-0.060734935
235	0xbe5c1ac0	-0.2149458
236	0xbd3d2fca	-0.046188153
237	0xbba91653	-0.005160132
238	0xbd93d107	-0.07217603
239	0x3c4c8531	0.012482927
240	0xbdcb427a	-0.09924789
241	0x3c96262e	0.018328752
242	0xbe4f59c8	-0.20249093
243	0xbd93c8c0	-0.072160244
244	0xbe2e823d	-0.1704187
245	0xbce388b9	-0.027775155
246	0xbe093722	-0.13399938
247	0xbce82cc5	-0.02834166
248	0xbceab999	-0.028652953
249	0xbd154091	-0.03643853
250	0xbc9ef99e	-0.019406136
251	0xbdf5b317	-0.11997049
252	0xbe7d1e31	-0.24718548
253	0xbdb3ec39	-0.0878529
254	0x3cd4c876	0.025974493
255	0x3cd75cc3	0.02628935

fc.weight f4 [8, 256]
0	0xbc91ccb2	-0.017797802
1	0x3de63a56	0.112415954
2	0xbd84f1f8	-0.064914644
3	0xbe02b6b2	-0.12765005
4	0xbaa2423e	-0.0012379361
5	0xbc141a13	-0.00903942
6	0x3d91e3b9	0.07123513
7	0xbb98ca86	-0.0046628146
8	0x3c4f3d82	0.012648942
9	0x3cc6e13c	0.024277322
10	0xbd6336d9	-0.05547223
11	0x3d6e13b8	0.058124274
12	0x3ce0b92e	0.02743205
13	0x3cef7c2b	0.029234013
14	0x3c52b838	0.012861304
15	0x3e2ef48c	0.17085475
16	0x3cb4ef0e	0.022086646
17	0x3d207f41	0.03918386
18	0x3d8e887b	0.06959625
19	0x3c8101b7	0.015747888
20	0xbde164d1	-0.11005557
21	0x3ced1e57	0.028945131
22	0xbd6f34bf	-0.058399912
23	0x3d8d6037	0.06903117
24	0x3cc982d2	0.024598513
25	0xbdb1fe32	-0.08691062
26	0x3b25c8e5	0.0025296744
27	0x3c7c61c5	0.015404169
28	0x3b182b43	0.0023219145
29	0xbe5fba4e	-0.21848413
30	0x3cb36676	0.021899443
31	0x3db20a24	0.086933404
32	0x3d5b1fb9	0.05349705
33	0x3d04c080	0.032410145
34	0x3d6aeb81	0.0573535
35	0xbc5f7595	-0.013638874
36	0xbd97a580	-0.074046135
37	0xbe4f9504	-0.20271689
38	0xbd4586a2	-0.0482241
39	0xbccff0bb	-0.025383344
40	0x3ec39ba8	0.38204694
41	0xbd107cd5	-0.0352753
42	0x3c88f6c1	0.016719224
43	0xbd39c81b	-0.04535685
44	0xbd8095a6	-0.06278543
45	0xbc2c80ce	-0.010528756
46	0x3c994b12	0.018712554
47	0xbe3bf5f3	-0.18355541
48	0xbe119475	-0.14216788
49	0xbcc66543	-0.024218207
50	0x3d49a0c0	0.04922557
51	0xbd39bb7a	-0.045344807
52	0xbced480f	-0.028965024
53	0x3cc50a80	0.024052858
54	0x3dc810a3	0.09768798
55	0xbe90b2c1	-0.28261378
56	0x3b1b057f	0.00236544
57	0x3d44b94b	0.04802827
58	0xbdf33608	-0.1187554
59	0x3e0b2712	0.13589123
60	0x3d9545f2	0.07288732
61	0x3dd9bf01	0.10632134
62	0x3d7979bf	0.06090712
63	0x3e312b26	0.17301616
64	0xbd8f7741	-0.07005168
65	0x3c25d0db	0.010120596
66	0xbe2abbe3	-0.16673236
67	0xbe1ce4fc	-0.15321726
68	0xbd5a2521	-0.053258065
69	0xbeaf4e23	-0.342393
70	0xbd2ff1d0	-0.04295522
71	0xbc45db25	-0.012076174
72	0x3d99fae2	0.07518555
73	0xbe6f8e01	-0.23394014
74	0x3b8dbf6a	0.004325797
75	0x3e0b835a	0.13624325
76	0xbd5a2669	-0.053259287
77	0x3d4a48c0	0.049385786
78	0xbd0edb5f	-0.034877177
79	0x3bf3e265	0.00744276
80	0x3d878e22	0.066189066
81	0x3c669e5a	0.01407584
82	0xbe46e67e	-0.19423863
83	0xbe5da985	-0.21646698
84	0x3d2a5781	0.041587356
85	0x3d86fdb3	0.06591358
86	0x3d27f9a0	0.041009545
87	0x3d300aa9	0.042978916
88	0x3de6ced2	0.112699166
89	0x3cf590d9	0.029976295
90	0xbd338b66	-0.043834113
91	0xbe622bbc	-0.22086996
92	0xbc45b27a	-0.012066478
93	0xbbbd82d1	-0.005783417
94	0xbd41f933	-0.047356796
95	0x3d1a20d1	0.037628952
96	0x3dfc7730	0.12327421
97	0xbdf9f3fd	-0.1220474
98	0x3d975ae3	0.07390382
99	0xbd1c1b08	-0.038111717
100	0x3d4c97e1	0.04994953
101	0x3cc09683	0.02350927
102	0x3d4cc7c6	0.049995206
103	0xbd26d57d	-0.040730942
104	0xbd26fa98	-0.04076633
105	0xbdf0c959	-0.11757154
106	0x3dd66cb5	0.10469953
107	0x3d82b0dc	0.063813895
108	0xbd32c539	-0.043645117
109	0xbe1758b7	-0.14779936
110	0xbc0d2fc9	-0.00861735
111	0x3cd9080e	0.026493099
112	0x3dde7406	0.108619735
113	0x3b0a7b07	0.002113046
114	0xbc9b10d3	-0.01892892
115	0x3d8d9e5c	0.0691497
116	0x3dce3d8f	0.10070335
117	0xbe426656	-0.1898435
118	0x3d070788	0.032966167
119	0x3dead1a6	0.114657685
120	0xbe904749	-0.28179386
121	0xbd7e755f	-0.062123653
122	0xbdf9562d	-0.1217464
123	0x3d694998	0.05695495
124	0xbdf9b648	-0.121929705
125	0x3bcfaa26	0.006337422
126	0x3d030373	0.03198571
127	0x3d2c377d	0.042045105
128	0x3b0c279a	0.002138591
129	0x3a323a82	0.00067988795
130	0x3d34f2f0	0.044176996
131	0x3d910442	0.0708089
132	0x3dbf95d6	0.09354751
133	0x3daec828	0.085342705
134	0xbde892a1	-0.11356092
135	0x3c61332e	0.013745112
136	0x3d59f401	0.053211216
137	0xbe19e007	-0.15026866
138	0x3cb806f7	0.022464259
139	0x3d84984b	0.0647436
140	0xbd37b92f	-0.04485434
141	0x3be31cde	0.0069309315
142	0x3cb2f46d	0.021845067
143	0xbda2f64f	-0.07957136
144	0xbe8aeb45	-0.2713262
145	0xbe440882	-0.1914387
146	0xbe2d57ca	-0.1692802
147	0xbbb5690d	-0.0055362047
148	0x39869b20	0.0002567405
149	0x3d6ff6eb	0.05858509
150	0x3b6a9987	0.0035797076
151	0xbc785265	-0.015156363
152	0xbe9ac4bb	-0.30228218
153	0xbdcab3a8	-0.09897548
154	0x3ce796f0	0.028270215
155	0xbd32d652	-0.043661423
156	0x3ddefad3	0.10887685
157	0xbca5c215	-0.020234147
158	0xbe61bcc2	-0.22044662
159	0xbe5276a1	-0.20553066
160	0xbe0abd0c	-0.13548678
161	0xbe3394cb	-0.17537229
162	0xbd49a4a2	-0.04922927
163	0x3d56f9d1	0.052484337
164	0x3c72d0b9	0.014820271
165	0x3c655709	0.013997802
166	0x3d5872c4	0.052843824
167	0xbc2d7d85	-0.010589008
168	0x3d1bb815	0.03801735
169	0xbc6490f9	-0.01395058
170	0x3d94fa48	0.072743
171	0xbddba1a5	-0.107241906
172	0xbeab39f5	-0.33442655
173	0x3d40d9bb	0.047082644
174	0xbdbedf72	-0.093199626
175	0x3d55e78e	0.05222278
176	0x3c5df3ff	0.013546943
177	0x3c9188f2	0.017765496
178	0x3dff8441	0.12476397
179	0x3cd865b5	0.026415685
180	0xbe78d451	-0.24299742
181	0xbdb0aedb	-0.08627101
182	0x3d43a61c	0.047765836
183	0x3d58cda2	0.05293048
184	0x3e853e9c	0.2602433
185	0x3dc8e8e7	0.098100476
186	0xbc719860	-0.014745802
187	0xbe1a4828	-0.15066588
188	0x3d32ee70	0.043684423
189	0x3d1e99b1	0.03872079
190	0xbddaf73e	-0.10691689
191	0xbe3f1e0b	-0.18663804
192	0xbd9178ae	-0.07103096
193	0xbcfe736d	-0.031060899
194	0xbdd9c9ac	-0.10634169
195	0xbb70eda5	-0.003676274
196	0x3cb381f7	0.021912558
197	0x3b229850	0.0024810024
198	0xbc0c5974	-0.008566249
199	0x3d9713a0	0.0737679
200	0xbb93c015	-0.004508982
201	0x3e442343	0.19154076
202	0x3e214f78	0.15752971
203	0x3be8f110	0.007108815
204	0x3dbd0206	0.092289016
205	0xbab58b5b	-0.0013850735
206	0xbd83756e	-0.06418882
207	0x3dd70495	0.10498921
208	0x3d907b0f	0.070547216
209	0x3d4d3d66	0.050107382
210	0x3d40af8a	0.047042407
211	0x3da032a7	0.07822161
212	0x3dd5b9e5	0.10435847
213	0xbcf7c542	-0.030245427
214	0xbd801d55	-0.06255595
215	0xbbd7f9df	-0.0065910663
216	0xbc691fbc	-0.0142287575
217	0xbd980782	-0.07423307
218	0xbdbdf855	-0.09275881
219	0x3e243e12	0.16039303
220	0x3d5880cb	0.0528572
221	0xbca38d0c	-0.019964717
222	0x3cf681f3	0.030091261
223	0xbd097c2a	-0.033565678
224	0x3e3a6e89	0.18206228
225	0x3e09624a	0.134164
226	0x3d9d0613	0.07667174
227	0xbbe17f22	-0.0068816105
228	0x3cf25196	0.029579919
229	0x3ac60029	0.0015106249
230	0xbda536f4	-0.08067122
231	0x3bdc2bff	0.006719112
232	0xbcd0a802	-0.025470737
233	0x3e09504d	0.13409539
234	0xbd43686d	-0.04770701
235	0x3e2bf776	0.16793618
236	0x3c83985e	0.016063865
237	0xbeb8bf92	-0.36083657
238	0xbd4c3cca	-0.04986266
239	0x3d82569d	0.063641764
240	0x3ced873a	0.028995145
241	0x3dbdd914	0.0926992
242	0x3b980049	0.004638706
243	0x3cf8b1da	0.030358244
244	0xbe909bed	-0.28243962
245	0xbe249c1e	-0.16075179
246	0xbd98051d	-0.0742285
247	0xbe960e49	-0.29307774
248	0xbe13e76e	-0.14443752
249	0x3d1a2588	0.03763345
250	0x3ca8eace	0.020619776
251	0x3d31ea9d	0.043436635
252	0xbe4b420e	-0.19849417
253	0x3d782b36	0.060588084
254	0x3de406e8	0.1113413
255	0x3d3a374f	0.045462903

fc.bias f4 [8]
0	0x3e29a5a5	0.16567095
1	0xbd00564f	-0.03133231
2	0xbe268e3b	-0.16265194
3	0xbda0fff9	-0.07861323
4	0xbe4f5d0d	-0.2025034
5	0xbe5bebaa	-0.21476617
6	0x3e3f55cc	0.18685073
7	0x3cdb4479	0.026766049
