src/main/python/saved_models/kotlin_1_66_CNNClassifier1_64embs_178id_64hd_0hl_Falsebid5kernel0.3dropout_1.pt (torch, 848459 bytes, 9 tensors)

emb.weight f4 [178, 64]
000000 72 c3 bf 3e 12 6c c3 3e a4 da 92 bf 72 99 82 be
       0.374538 0.3816839 -1.1472974 -0.25507694
000010 d8 04 bc 3e 08 ae 2d bf db b4 93 3f 4c 84 9e 3f
       0.36722445 -0.67843676 1.1539568 1.2384124
000020 60 21 ca 3e 67 cf 45 3f 47 52 68 bf 74 d4 12 40
       0.39478588 0.77269596 -0.90750545 2.294217
000030 e8 ed fb bf 34 90 2f bf 79 32 2a bf d0 4a be 3f
       -1.9681978 -0.6857941 -0.66483265 1.4866581
000040 f8 7c 9f bf e1 32 26 c0 33 77 2b bf de 9c 8f 3f
       -1.2460012 -2.5968554 -0.6697876 1.1219747
000050 fe 32 97 3f dd 03 43 be 33 3e 17 bf a8 b9 a5 3f
       1.1812437 -0.19044442 -0.59079283 1.2947283
000060 95 fc 80 bf a0 84 24 bf ef 5a 27 3f 40 ee a8 3f
       -1.0077082 -0.6426487 0.6537313 1.3197708
000070 fc 32 04 bf 16 b4 fd 3f f0 12 0e 3f b1 d0 c4 3f
       -0.51640296 1.9820583 0.55497646 1.5376188
000080 10 97 16 bf 03 27 ea bf c5 4b 6c 3e 14 31 7d bf
       -0.58824253 -1.8293155 0.23075779 -0.9890301
000090 dd a7 3f 3f be 65 92 bf 12 9b 8f 3f 35 57 60 3f
       0.74865514 -1.1437299 1.1219199 0.8763307
0000a0 42 a0 cb 3f ce 8b 2e c0 b9 93 d5 3f ef 2e 95 be
       1.5908282 -2.727283 1.6685706 -0.2913737
0000b0 8f 9f ba 3e 09 fd 72 bc 35 0f 01 bd 5d 41 88 bf
       0.3644986 -0.014830836 -0.031508643 -1.0644947
0000c0 84 d4 a0 3f 7c 93 b2 3f fd 65 20 bf af 44 b9 3f
       1.2564855 1.3951259 -0.6265562 1.4474086
0000d0 0d fd 91 3e 75 a8 9e bd cd f4 a9 3f 19 32 bb bf
       0.28513375 -0.077469744 1.3277832 -1.4624664
0000e0 35 37 fc be 88 c5 28 bd 29 3e 0b c0 52 22 87 bf
       -0.4926087 -0.041204005 -2.175669 -1.0557349
0000f0 b6 ea 24 3f 75 33 cc be ad 5f 72 3f 62 a1 4d be
       0.6442064 -0.3988301 0.9467724 -0.20081094
000100 d5 3b 24 bf 65 d8 d0 be 5f d2 90 bd 99 77 c7 3e
       -0.64153796 -0.40790096 -0.07071375 0.38958433
000110 ad 9d ac bf 48 9e 1d 40 29 10 86 3f cf 96 89 bf
       -1.3485619 2.4627857 1.0473682 -1.0749148
000120 ca 75 14 c0 ae 6e 8d be 6c bb 90 3f ba 9a 8b bf
       -2.3196893 -0.27623504 1.1307197 -1.0906594
000130 27 0d 7a be d8 01 05 c0 b4 a0 4a bf cb cd 20 3f
       -0.2441908 -2.0782375 -0.79151464 0.62814015
000140 a5 1b b2 be e7 cc 7a bf ec 3d 60 3f f0 23 89 bd
       -0.34786716 -0.97968906 0.87594485 -0.06696308
000150 f4 00 14 3f 46 9a da 3f fd c4 c1 be 60 e7 50 bf
       0.57813954 1.707833 -0.37845603 -0.8160305
000160 db 79 95 bf 9e 87 5c 3f 51 75 f9 bf 59 87 84 3f
       -1.1677812 0.86144435 -1.9488927 1.0353805
000170 eb 54 24 3b ad 9a 81 3f 7f 5e 9a bf e3 28 02 40
       0.002507503 1.0125328 -1.2060088 2.0337455
000180 28 99 47 3f 6c 1c 28 bf 1c bb 6e 3f 05 2f 88 be
       0.7796807 -0.6566837 0.93254256 -0.26598373
000190 91 55 a4 bf 8e 61 05 bf 67 5d 78 3e 28 ad b8 3e
       -1.2838613 -0.5210198 0.2425438 0.36069608
0001a0 7e a1 90 bf 25 ac b0 3f db 95 e6 be 87 ec 3a c0
       -1.1299284 1.3802534 -0.45036206 -2.9206865
0001b0 20 15 f3 3f 2d c7 f6 3d 08 a8 63 3f 81 80 0a bf
       1.8990822 0.120497085 0.8892827 -0.5410233
0001c0 63 fd bb be 55 36 ea 3f 61 61 de bf 1a 2f 07 c0
       -0.36716756 1.8297831 -1.7373468 -2.1122499
0001d0 55 4a a1 3e ab e7 67 3f 7e 35 16 40 9d 39 40 3f
       0.31502023 0.9058787 2.347015 0.7508791
0001e0 bc 0c 2a be c6 10 e7 be 85 df 93 3f 24 4b a3 bd
       -0.1660642 -0.45129985 1.1552588 -0.07973316
0001f0 95 d6 8d bf 2e a5 8c bf 75 4a e5 3c f9 ce ca 3f
       -1.108111 -1.0987909 0.027989605 1.5844413
000200 86 33 e2 3e 51 b3 6e 3e 89 5e 14 3f a2 75 40 3f
       0.44179934 0.23310591 0.5795675 0.75179493
000210 d1 3a d6 be 23 4e 4d 3f a3 34 59 3e 0c 45 5e 3e
       -0.41841748 0.8019735 0.21211486 0.21706027
000220 84 9e d6 bf 9a ec 20 3f 75 37 00 c0 ed 64 5d 3f
       -1.6767125 0.62861025 -2.0033848 0.86482126
000230 4b e2 a5 bf 95 c6 d9 3e 1a 35 aa bd 7e 2c 36 3f
       -1.2959684 0.4253432 -0.083109096 0.7116164
000240 0c ab 8d 3f e2 ac e1 3e 66 d8 0e bf 51 8e 16 be
       1.1067824 0.44077212 -0.5579895 -0.14702727
000250 a3 64 c9 bf 29 54 06 3f 8e 23 7a bd f5 04 81 3f
       -1.5733837 0.5247217 -0.061069064 1.0079638
000260 99 a9 f7 be 96 70 43 3f 7e 51 74 3f c6 2b 11 bf
       -0.4837158 0.7634367 0.9543685 -0.5670742
000270 ff 92 25 bf a3 90 49 40 e5 90 67 3e d7 69 12 c0
       -0.64677423 3.149453 0.22613867 -2.28771
000280 9a 13 8e bf a7 ea e7 3f 9d 92 6c 3e 5d 87 32 3f
       -1.1099732 1.8118485 0.23102804 0.697378
000290 63 0b 9f 3f 3b 1f 9d bf 87 4b bd 3e 4b 22 1a 40
       1.242535 -1.2275156 0.36971685 2.408343
0002a0 59 55 8c 3f 74 97 4d be 8d a6 2a bf 92 19 5e 3f
       1.0963546 -0.20077306 -0.66660386 0.8675777
0002b0 9c a8 81 3f 60 59 b4 be 99 f8 99 bf 71 b0 61 3f
       1.012958 -0.35224438 -1.2028991 0.88159853
0002c0 20 23 5f be f8 55 37 3e 38 ba 8f be 0b c7 ac 3e
       -0.21790743 0.17903888 -0.2807176 0.33745608
0002d0 83 85 df bd 8a c3 62 bf 76 a0 ab 3f 3a 3e 7c 3f
       -0.10914137 -0.8857962 1.3408344 0.9853245
0002e0 93 c9 1c 40 dd b4 68 be eb 4f 50 3e da 2f 88 3f
       2.449803 -0.22725244 0.20342986 1.0639603
0002f0 66 c2 a5 be fe 56 1f 40 da 13 64 bf 26 05 ac bf
       -0.32374877 2.4896846 -0.8909279 -1.3439071
000300 c0 e0 67 bf 89 bb 9a bf cc e4 44 be 3b 3a c5 3d
       -0.90577316 -1.2088481 -0.19227904 0.09630247
000310 44 ff c4 3f f2 3b 5a 3f 29 a7 12 bf 8a 8b 89 3f
       1.5390401 0.8524772 -0.57286316 1.0745709
000320 e0 ae 96 bf 52 c5 16 c0 be d0 36 bf ac 64 1a bf
       -1.1772118 -2.3557935 -0.71412265 -0.60309863
000330 21 dc 7e bf 76 fd 4a 3d e4 bb 15 3f bd 0a b3 3f
       -0.9955464 0.049558125 0.58489823 1.3987652
000340 8a c6 f9 3e 34 21 db 3f 04 66 66 bd 84 ba f4 bf
       0.48784286 1.7119508 -0.056249633 -1.911942
000350 b9 11 9e 3f 2e 4a 1b 40 47 db 9b 3f 7e 64 f1 bd
       1.2349159 2.4264026 1.2176293 -0.117867455
000360 84 85 88 3f 36 65 e2 3f 0f f8 8d be f9 07 c2 3d
       1.0665746 1.7687137 -0.27728316 0.09474177
000370 ca 38 0d 40 2c 24 b4 3f 4b ec 9a 3f de 58 82 bf
       2.2065911 1.4073539 1.2103361 -1.018337
000380 3d 9c 4f bf cd f0 95 bf 20 d7 cd 3d 14 57 f0 3f
       -0.81097776 -1.1714112 0.100507975 1.8776574
000390 8e 50 f4 bd 30 a0 27 be 6b 6f 8a bf 94 3b 7f 3f
       -0.11929427 -0.163697 -1.0815252 0.99700284
0003a0 a2 ab 2f bf d7 f6 96 bd e0 f0 f9 3f ea c5 e6 3f
       -0.68621266 -0.073713 1.9526634 1.8029149
0003b0 24 cd b5 3f a1 5f 4d 3f 5e d9 08 bf 2b 86 62 3f
       1.4203229 0.80224043 -0.53456676 0.88485974
0003c0 7b 8e 93 3d 6f cb 25 bf 08 47 03 c0 20 c5 1f 3f
       0.0720491 -0.6476354 -2.0512104 0.62410164
0003d0 d6 73 79 bf d1 c0 57 3f a9 a5 70 bf 10 87 58 bc
       -0.97442377 0.8427859 -0.9400278 -0.013215795
0003e0 4a 15 06 3f 0e ce 93 bf a7 ae 6b 3f f4 d8 07 3e
       0.52376235 -1.1547258 0.92063373 0.13266355
0003f0 52 10 af bf af ff 7c be 67 4a 56 3e 5d 58 19 bf
       -1.3676856 -0.2470691 0.2092682 -0.59900457

conv1.weight f4 [64, 64, 5]
000000 47 7e 83 bd a8 1c a0 be 12 96 1b be b3 83 50 be
       -0.0642057 -0.31271863 -0.15193966 -0.2036274
000010 7f 09 e3 3c 25 f7 2a be 2e b1 19 be d6 f1 a9 3b
       0.027714489 -0.1669584 -0.15008995 0.0051863
000020 ad f0 35 3e e9 fd 6d 3d e9 c7 80 bd d9 85 8c 3e
       0.17767592 0.058103476 -0.0628813 0.27445868
000030 e1 43 70 bd ab 5b 9f 3d c7 33 3f 3d 16 11 e0 bd
       -0.058658484 0.07781156 0.046680238 -0.10940759
000040 3f 1a 07 be 3a d9 fc 3b cd 24 27 3e f2 ce 3c bd
       -0.13193606 0.007716325 0.16322632 -0.046095796
000050 d1 2e d7 bd 02 66 a6 3c 41 b8 1c be ad 52 7e 3e
       -0.105069764 0.020312313 -0.15304662 0.24836226
000060 cf 52 fa bc 66 d0 35 3e 0c b4 38 bb 69 dd 2c 3e
       -0.030557064 0.17755279 -0.0028183488 0.16881336
000070 10 f4 cc 3b fc 41 0c be 4a ad ae bd 79 c0 11 be
       0.0062546805 -0.13697046 -0.08529146 -0.14233579
000080 9a 9b 76 be d8 17 bf bc 10 56 e4 bd 97 63 95 bc
       -0.24082795 -0.0233268 -0.111492276 -0.018235965
000090 7e 46 9a 3c f0 c4 c5 bd 1d c2 9c be 26 48 cd 3c
       0.018832441 -0.096567035 -0.30616847 0.025058817
0000a0 2d 94 af bd a5 db 0b bb 0b c0 26 3d fd 83 ee bd
       -0.08573184 -0.0021340635 0.04071049 -0.116462685
0000b0 f4 36 52 3e 0f f6 1f 3e 23 9d e8 bc 6b 56 33 3e
       0.20528775 0.15621208 -0.028395241 0.17513435
0000c0 5f 5d 13 3d 13 f3 cd 3d d1 3c 0d be b1 d8 19 bd
       0.035977717 0.10056128 -0.13792731 -0.03756017
0000d0 bb f2 b4 bd 1a 78 2e bc 5e 3d 97 be 0d 5a 11 be
       -0.0883536 -0.010648752 -0.29539007 -0.14194508
0000e0 08 70 04 3e 26 e5 96 3a 59 34 a6 3d de b7 2e be
       0.12933362 0.0011512383 0.08115453 -0.17062327
0000f0 34 58 5b 3d b4 6e 20 3d da 93 05 3d f5 f2 ac 3d
       0.053550914 0.039168075 0.032611705 0.08444778
000100 75 9c cb 3d 3a f0 62 be 7c 60 38 3b 4e 19 3e 3e
       0.09941951 -0.22161952 0.002813368 0.1856434
000110 d7 3b 97 3d 2d c8 86 3e c2 ef 80 bb 82 ab 02 be
       0.073844604 0.26324597 -0.0039348314 -0.12760738
000120 a6 0f 5f 3d 05 73 43 be b3 58 49 3d 8c 7e 52 3d
       0.054458283 -0.19086845 0.049156856 0.051390216
000130 16 63 6f 3e 48 0a 82 bc 0a 8c 10 be 88 34 4c 3d
       0.23377642 -0.015874043 -0.1411592 0.049854785
000140 95 c7 1d be 6a 92 60 3e b9 16 57 3e f5 59 02 3d
       -0.15408166 0.21930853 0.21004762 0.03182407
000150 50 6a 1e bd fc c9 eb bd f5 89 2f be 78 fa 4e bb
       -0.038675606 -0.11513135 -0.1714247 -0.0031582396
000160 f1 ee 3c 3d 11 ee c0 3d 8f c5 8d 3e a0 a6 d7 3d
       0.04612631 0.094204076 0.27689788 0.10529828
000170 0f 02 a3 3c 7f 5c c7 bb 56 1c 41 3e fb 46 dd bd
       0.019898443 -0.0060840244 0.18858466 -0.10804554
000180 02 11 c5 3c 40 19 d0 bd 1f 84 82 bd c9 62 ab bd
       0.024055962 -0.10161066 -0.06372856 -0.08368451
000190 7b 72 20 bd d6 0d cf bd a7 f2 33 3d 43 3e 4a be
       -0.039171677 -0.10110061 0.043932583 -0.19750313
0001a0 45 b4 04 bc 82 ba 24 bd d5 8e 5a 3e 69 3a e2 3d
       -0.00809962 -0.04021693 0.21343549 0.11046297
0001b0 9e a0 d3 bd f3 a7 5f bd a5 31 03 3e cb 41 1b be
       -0.1033337 -0.05460353 0.12811907 -0.15161817
0001c0 1b be fe bc 16 5a 18 bd a3 43 f0 bc d0 3d 8a 3e
       -0.031096509 -0.037195288 -0.029329127 0.27000284
0001d0 72 4e ea bc 2f 63 83 3c e3 ca 48 be ae 99 86 3d
       -0.028601859 0.016038505 -0.19608645 0.06572281
0001e0 eb cb 55 3e 31 99 08 bd 21 97 e3 bc 8c ef e7 3d
       0.2087857 -0.03334922 -0.027782025 0.11324987
0001f0 fa 23 71 3c d3 49 22 3d 22 0e 86 bd 83 8d 9e bd
       0.01471805 0.039621186 -0.06545664 -0.07741835
000200 3b ba 9f bd 28 f6 2e 3e d1 3c 6f bd 41 2d a7 bc
       -0.077991925 0.17086089 -0.05840761 -0.020407321
000210 8d c1 26 3d d2 40 1e 3c 37 39 42 bb 40 e7 17 be
       0.04071193 0.009659009 -0.0029636153 -0.14834309
000220 4c a2 13 be db 4a 59 be 30 96 85 3c 0c ef c7 bd
       -0.1441738 -0.21219961 0.016306967 -0.097623914
000230 cf 1b d1 bc 20 fa d1 3d 52 51 84 bd 98 96 87 bd
       -0.025525955 0.10252786 -0.06460823 -0.0662052
000240 df d5 0e be 60 67 ca bd ed fc 9b bb bc dc fb bd
       -0.13948773 -0.098829985 -0.0047603757 -0.12297961
000250 e2 75 9c 3d 86 cb 6e be 15 b4 cb bd 98 62 01 3e
       0.07639672 -0.23319826 -0.09946457 0.12635267
000260 11 77 e0 3a 15 7b fc 3d f2 f6 b7 bd 1c 7d 11 3e
       0.0017125328 0.123281635 -0.08982648 0.14207882
000270 35 09 37 3d a1 fd 05 3e 01 c6 ca 3d f7 57 6a 3e
       0.044686515 0.13085033 0.099010475 0.22885118
000280 ec 44 29 3d 77 16 3a be 2c b1 a8 3d b1 57 a6 bd
       0.041325495 -0.18172632 0.08236918 -0.081221946
000290 ab 05 25 be 9a 94 15 be 34 a0 96 3b 84 96 79 3c
       -0.16115443 -0.14607468 0.0045967344 0.01523364
0002a0 af 5d e2 bd 56 96 90 bd 61 83 a3 3c f4 c8 32 be
       -0.11053025 -0.07059924 0.019960107 -0.1745947
0002b0 8d a7 f0 bd bd 3c 92 3d 4f 3e 96 bd b7 c5 34 bd
       -0.11750708 0.07140491 -0.07336103 -0.044133868
0002c0 99 53 11 be 4a eb 2e be ed e2 83 3b 9a 72 20 bd
       -0.14192046 -0.17081943 0.0040248544 -0.039171793
0002d0 e7 ae df bc 5a 8a 84 be d2 df 9c bc 26 e6 35 be
       -0.02730508 -0.25886804 -0.019149695 -0.17763576
0002e0 02 23 be bc 1f 9c de 3d 33 ab eb bd e1 bd 11 be
       -0.023210052 0.108696215 -0.11507263 -0.1423259
0002f0 00 aa a4 bd c5 d0 ea bd ea ad 33 be f4 f1 87 3d
       -0.080402374 -0.11465601 -0.17546812 0.06637946
000300 08 6d 87 3d 9c f9 8b 3d 74 79 32 3e 97 6a d7 bc
       0.06612593 0.068347186 0.17429143 -0.026295943
000310 14 bf 91 be de 02 9c bd fb ff 23 3d 56 8f 12 3b
       -0.28466094 -0.076177344 0.040039044 0.0022363267
000320 3f a5 38 3e 32 7d c8 bd 0f bc c6 bc bf f4 2e be
       0.18031786 -0.09789504 -0.024259595 -0.1708555
000330 b8 ed 07 3e b5 85 4b 3e e2 3d 26 3e 1d c5 1e bd
       0.13274276 0.19875224 0.16234544 -0.0387622
000340 b0 95 6d 3d a2 0b 5f 3d 6e 9d a3 be f5 e3 b0 3d
       0.05800408 0.054454453 -0.31956047 0.08637229
000350 df 76 f2 bd 94 9b 9d 3e 9b fe e2 3c 99 85 8a 3c
       -0.11839079 0.3078276 0.027709296 0.016909407
000360 b2 c9 c9 3d 2c 63 8b 3c 4a 2c 82 3e 53 63 2a be
       0.098529235 0.017015062 0.25424415 -0.16639452
000370 56 ee 05 be 5b e6 c4 3d f2 84 a2 bd f3 bc 90 bd
       -0.13079199 0.09614249 -0.079355136 -0.07067289
000380 d3 23 ee 3d 1b c5 5b bd 9f f5 1b 3e a1 60 17 3d
       0.11627927 -0.05365477 0.15230416 0.036957387
000390 49 fe 03 be 7a 1a 47 bc 2f 0e 12 3d b4 49 f1 bd
       -0.12889971 -0.012152309 0.035658058 -0.11781636
0003a0 84 59 34 be 8d 03 3a 3e 06 ad e2 3d 54 04 63 be
       -0.17612273 0.18165417 0.11068158 -0.2216962
0003b0 bb 68 0a 3a 33 9e 2e bd 9a 57 6b be 85 ac cd 3c
       0.0005279888 -0.04263134 -0.22982636 0.025106678
0003c0 7d 52 2a 3d 15 3e 59 be 37 67 02 bb 17 41 b4 3d
       0.041582573 -0.21215089 -0.0019897947 0.088014774
0003d0 bc bc 01 be dc fa 99 3c db 14 0a 3d 81 79 0c be
       -0.12669653 0.018796377 0.033711296 -0.13718225
0003e0 ef f8 1c 3d d7 1f 65 3e ed 75 e8 bd 5c 97 15 3e
       0.03832334 0.22375427 -0.113506176 0.1460852
0003f0 1b d5 53 3c fa 5f 75 bd a4 c2 29 be 0b 1f 04 be
       0.012929226 -0.059905984 -0.16578156 -0.12902467

conv1.bias f4 [64]
000000 6b 47 6b be 59 93 db bd f1 ab fd bd 09 d6 18 be
       -0.22976463 -0.10721464 -0.12386311 -0.14925398
000010 c7 82 2a be 54 62 8e be 3a ed 86 be 3b 31 4a 3e
       -0.1665145 -0.27809393 -0.26352865 0.19745342
000020 96 00 63 be 7b ac 9d be 18 c2 4c be 79 03 80 be
       -0.22168192 -0.30795655 -0.19995916 -0.2500265
000030 a1 a4 32 be 9f 30 a0 be 0a 3e 00 be b1 9a 12 be
       -0.17445613 -0.31287095 -0.12523666 -0.14316823
000040 cb e7 7a bc 67 17 49 be 84 f6 9a bd e3 56 14 be
       -0.015314053 -0.19637834 -0.075665504 -0.1448627
000050 f5 86 56 bd 79 62 89 be 90 e9 a4 be 39 0d 41 be
       -0.0523748 -0.2683294 -0.32209444 -0.188527
000060 04 e4 3e bd 34 d3 bc be 49 3d d9 bb e3 89 8d be
       -0.04660417 -0.36879885 -0.00662962 -0.27644262
000070 ec 19 99 be 84 7d c1 bd 1b 54 73 be f9 73 33 be
       -0.2990259 -0.09447768 -0.23762552 -0.17524709
000080 72 81 20 be a5 07 9d be 7e 00 6f be 2e bb 96 be
       -0.1567438 -0.30669895 -0.23340032 -0.29439682
000090 9c 7b 39 be 24 eb 84 be ff c8 75 be 4b b5 9d be
       -0.1811356 -0.25960648 -0.24002455 -0.30802378
0000a0 34 3a 4e be d1 06 7f be 1c 5a 94 be c4 98 65 bd
       -0.2013939 -0.24904944 -0.28974998 -0.05605389
0000b0 1d 8f 74 be ed 9d 2c be ee 51 0d be 09 1e 3d be
       -0.23882718 -0.16857119 -0.13800785 -0.18468489
0000c0 72 3f 83 be e8 0d 74 be 1d fd 4b be 6c ca 91 be
       -0.25634342 -0.2383343 -0.19920774 -0.28474748
0000d0 7d 56 11 be 9f c7 a7 be 3f 1d f7 3c e7 39 17 be
       -0.14193149 -0.32769486 0.030165313 -0.14768182
0000e0 d5 c3 f7 bd 14 e5 85 be ce 15 9c bd a3 93 28 be
       -0.12097899 -0.26151335 -0.076213464 -0.16462569
0000f0 10 f0 8b be f6 c4 a7 bc 74 36 4d be af f5 33 be
       -0.2733159 -0.02047966 -0.20040303 -0.1757419

conv2.weight f4 [64, 64, 3]
000000 6e e0 d6 bc 2c e0 26 3d 1e 73 e7 3d 8f d3 15 be
       -0.026230063 0.04074113 0.11301254 -0.14631484
000010 e1 9c 4a bd 00 2d 1b 3e 14 54 3e 3c 35 6a 6f be
       -0.049466018 0.15153885 0.0116167255 -0.23380359
000020 64 e8 f0 3d 18 f2 de 3d 41 a1 11 be d6 f5 89 bb
       0.11763075 0.108860195 -0.1422167 -0.004210214
000030 1d 14 fb bc 96 b1 50 3c 40 30 d5 bc ce 93 c9 bc
       -0.03064924 0.012737652 -0.026023984 -0.024606612
000040 a8 49 80 3e fa a7 c9 3e 86 d3 8e be 8c 1b 6e bd
       0.25056195 0.39385968 -0.27895755 -0.05813174
000050 74 d7 68 be 7c 05 04 3e 5e 5f 59 3d 42 38 84 3c
       -0.22738439 0.12892717 0.053069465 0.016140107
000060 9b 68 8d be a5 e0 af bd 3c c5 41 be 6e 8c 20 3d
       -0.2761887 -0.085877694 -0.18922895 0.039196424
000070 a8 bc 83 3d 0b 2e 97 bd 42 23 68 bd 9a f1 1f be
       0.06432468 -0.07381829 -0.05667425 -0.15619507
000080 54 ca c9 3c 5f 1d a0 bd 00 b4 05 be 36 07 09 be
       0.02463261 -0.07818102 -0.13056946 -0.13381657
000090 94 e1 c7 3d fb 9d 2c 3e c3 43 0c 3d f8 f5 39 3d
       0.097598225 0.1685714 0.03424431 0.04540059
0000a0 fe e3 db 3c e9 67 1b 3f 83 2e 94 bd 3f 41 9a 3e
       0.026842114 0.6070543 -0.07235434 0.30127904
0000b0 f3 a6 06 be 6c 55 f5 3d d5 73 ba bd e8 d7 45 be
       -0.13149624 0.119791836 -0.091041245 -0.19320643
0000c0 33 71 8e 3d 17 16 ee bd 94 0f a6 3d 18 e4 39 3c
       0.06955185 -0.11625307 0.0810844 0.011345886
0000d0 a5 3c 30 be 07 c7 30 be c6 ff 58 3e 9b b4 34 3e
       -0.17210634 -0.17263423 0.2119132 0.1764702
0000e0 5d 4a 1c 3e 73 fe 17 3c 8e 11 33 be 24 f6 46 be
       0.15262742 0.009276974 -0.17487165 -0.19429833
0000f0 fd 86 87 bd 4f 8e 47 bd 0e d4 31 be 54 0c dc bd
       -0.06617544 -0.0487197 -0.17366049 -0.10744539
000100 02 bd 49 3d 5d d9 a6 3d 02 52 e5 3c ad 88 d1 3d
       0.049252518 0.081469275 0.027993206 0.10231147
000110 a8 aa 64 3e fd 35 5e 3e c7 22 25 bd 87 c2 22 be
       0.22330725 0.21700282 -0.04031637 -0.15894519
000120 fe 18 a5 bd ea 36 6d 3e 43 e6 b3 3e 7c 5f 57 bd
       -0.080614075 0.2316548 0.35136613 -0.052581295
000130 35 33 16 bd 61 f8 0c 3d 6f 6d 84 bd e3 9c 82 3d
       -0.03666993 0.03441656 -0.06466185 0.0637758
000140 f0 f9 b3 be d1 e6 56 be 78 bc 8c be 7d 44 8c bd
       -0.35151625 -0.20986487 -0.2748754 -0.068490006
000150 48 13 ff 3d 9e 52 2d 3e 58 f9 43 be 02 85 7d bd
       0.124548495 0.16926047 -0.19138086 -0.061894424
000160 33 29 01 be b8 dc bb bd bb c8 21 be b4 5e 0a 3c
       -0.12613373 -0.09172958 -0.15799229 0.008445431
000170 57 73 82 bd d3 1d 51 3c 96 bb b2 bd aa 09 52 3e
       -0.063696556 0.012763458 -0.087271854 0.20511499
000180 4e ce 86 bd 08 ba 37 bd e4 54 de bd 08 22 fa bd
       -0.06582318 -0.044855148 -0.10856035 -0.12213522
000190 fb 1e 2f be 6e f4 26 be 9b 6a 6e 3e f8 46 66 3e
       -0.17101662 -0.1630418 0.23282854 0.2248801
0001a0 9c c6 b3 3d ef 0c 2c be 12 e6 41 3e b1 e3 3e be
       0.08778116 -0.16801809 0.18935421 -0.18641545
0001b0 4a 88 e8 3c 85 6b 47 3e ed 66 36 3e 43 a4 14 be
       0.0283853 0.19474609 0.178127 -0.14515786
0001c0 a5 da f0 bd ff e3 a1 bd 32 d7 74 3e 99 95 39 3e
       -0.11760453 -0.07904815 0.23910215 0.18123473
0001d0 3c 5d 88 be 48 0f 17 be 06 be 3d bd 2f 85 1e be
       -0.26633632 -0.14751923 -0.0463238 -0.15480493
0001e0 5c bc 8f bb b4 5a c6 bd f1 ae 4a bd 7b 61 d8 3d
       -0.004386468 -0.09685269 -0.049483243 0.10565468
0001f0 3a ca e1 bd aa 39 7f bd 99 65 37 3d 41 f5 3a be
       -0.110249 -0.062310852 0.044774625 -0.1825762
000200 11 14 37 bd a6 94 7d bd d5 56 8c 3d 28 2d 4e be
       -0.04469687 -0.06190934 0.068524994 -0.20134413
000210 fb 44 60 be 0a 32 bf 3d ea 24 67 be 65 89 84 bc
       -0.21901314 0.09335716 -0.22572675 -0.016178796
000220 b3 27 21 bd c0 ba c6 3d 29 c4 bb bc 7e 6c 7c 3c
       -0.0393445 0.097035885 -0.022920685 0.015406726
000230 98 2e 50 bd 4f 75 98 3d e0 26 1d be d9 c3 58 3e
       -0.050825685 0.0744425 -0.15346861 0.2116846
000240 1d e7 1e 3e 30 78 72 3d ca 2e 5b be 06 ab fb bd
       0.1551785 0.05919665 -0.21404567 -0.122884795
000250 b1 05 97 3c 66 09 0c 3d 81 b1 49 3e 84 1c 4a 3d
       0.018435331 0.03418865 0.19696619 0.0493436
000260 1e 7b a5 be e9 e2 59 be 51 a3 eb bd 45 ae 11 bd
       -0.32320493 -0.21277966 -0.115057595 -0.035566587
000270 94 b4 06 bc f4 ba 9e bd d9 11 ca bd 2e 56 11 be
       -0.008221764 -0.07750502 -0.098666854 -0.14193031
000280 8b b6 e3 3d 13 0d 03 3d c5 37 b2 3c 2a 36 25 3e
       0.11118802 0.03199489 0.021755109 0.16133943
000290 13 36 3a be 16 67 dc 3d 43 a8 0e 3d e0 79 c0 3d
       -0.1818469 0.107618496 0.034828436 0.09398246
0002a0 19 9a 79 3c 54 b6 55 3e 0e 3c 56 3e 93 bb 08 be
       0.015234494 0.20870334 0.20921347 -0.13352804
0002b0 ca f2 92 3e 49 dd 36 bd ed 2b 4f be 2e 60 05 be
       0.28700858 -0.044644628 -0.202316 -0.13024971
0002c0 ad 87 31 3e c0 d5 00 bb 87 ff e6 3d b1 a4 01 3e
       0.17336912 -0.0019658655 0.11279207 0.12660481
0002d0 51 13 60 3d ba bd 50 bd 70 82 b7 3d 2f a6 b0 bd
       0.05470592 -0.050962187 0.08960426 -0.08625447
0002e0 0a 7d fa bd 90 80 c2 3e a1 2d ed bb b3 e6 64 be
       -0.122308806 0.3798871 -0.0072381054 -0.2235363
0002f0 a2 96 eb 3d c3 1e 86 bd 23 84 2f be 8a ee fa 3d
       0.1150334 -0.06548836 -0.1714025 0.12252529
000300 5a 3c 1a be 15 d4 79 3e d9 32 8e 3e bf 6b db be
       -0.15062085 0.24397309 0.2777317 -0.4285564
000310 6e db 89 bc 12 23 87 3d 32 ad 1b 3e b6 0c 7e 3e
       -0.016828265 0.06598486 0.15202788 0.24809536
000320 73 d1 e8 3d d1 a1 cf bd b5 7a 3a bd b5 01 da ba
       0.11368074 -0.10138286 -0.04552718 -0.0016632589
000330 2e 05 01 be 4a 73 8f be 83 c3 6c 3d 02 33 b3 bb
       -0.12599632 -0.28017646 0.057803642 -0.005468727
000340 e8 e5 8e 3d 3d 00 92 bd f9 f7 4f bd 47 40 bf bd
       0.06977445 -0.07128952 -0.050773595 -0.09338432
000350 62 21 d5 bd c2 ae ad 3d 91 b1 76 3b 98 a7 18 be
       -0.10406758 0.08480598 0.003764246 -0.14907682
000360 f0 7d fb 3c 2a 8b 8f bc 0b 0c ef 3c aa 75 11 bd
       0.0306997 -0.017522413 0.029180547 -0.035512604
000370 ef 69 37 be 50 e9 16 bd 16 72 23 bd b5 98 13 be
       -0.17911504 -0.036843598 -0.039903723 -0.14413722
000380 6d 6b 2e 3e 7b 33 20 be 42 98 cd 3d c0 c2 32 3d
       0.17033167 -0.15644638 0.100388065 0.04364276
000390 2d ae 3c 3d e2 b1 e8 3d 8a bc 08 3e 1e 0f 99 3d
       0.046064544 0.113620535 0.13353172 0.074735865
0003a0 b3 12 a4 3e a0 a2 4c 3e 9d 18 ff bc 20 41 7b bd
       0.32045516 0.19983912 -0.031139666 -0.061341405
0003b0 6a 3b e9 bc b3 0c 5b 3e ef 65 9f 3e e3 d0 d4 3d
       -0.028470714 0.21391563 0.31132457 0.103914045
0003c0 4e f2 04 3e 4d ca de bd 22 28 9d 3c 2b 62 0f bd
       0.12983057 -0.108784296 0.019184176 -0.03500573
0003d0 10 1e b0 3c 1f 7d 23 3e a5 6b 0c 3e 74 d4 9a 3d
       0.02149871 0.15965699 0.13712938 0.075600535
0003e0 fe e2 86 3e 53 6f 85 bc 46 87 f7 bd 09 6e e7 bc
       0.26345056 -0.016288435 -0.12086348 -0.028250711
0003f0 36 d8 88 be d0 aa d4 bd 17 68 76 3e 07 5e bd 3d
       -0.26727456 -0.103841424 0.24063145 0.0924645

conv2.bias f4 [64]
000000 3d bd a3 be 02 1f 8a bd ef d3 c2 be 67 d6 d6 be
       -0.31980315 -0.067441955 -0.38052318 -0.4196045
000010 11 44 4e be 66 42 44 3c 03 4a af 3d c3 9a a5 be
       -0.20143153 0.011978721 0.085590385 -0.32344636
000020 88 07 b0 be 61 78 f2 bd 29 c9 aa bd e8 63 71 be
       -0.34380746 -0.11839367 -0.083391495 -0.23573267
000030 f3 1f 43 be 2c 0a 08 be 28 db 31 bd 7d 75 9c be
       -0.19055156 -0.1328513 -0.043421894 -0.30558386
000040 e5 ee 11 be 77 a0 d2 bd 13 54 ae be 77 31 4c be
       -0.14251287 -0.102845125 -0.3404852 -0.19940744
000050 fe e2 45 be f2 54 b5 bd df 53 46 be cc 7a ed be
       -0.19324872 -0.08854093 -0.19367932 -0.4638275
000060 c4 56 a1 bd 10 c7 7d be 57 c0 bd bd 3b 45 80 3e
       -0.07877877 -0.24782968 -0.092652015 0.2505282
000070 e6 c6 57 bd db 24 4d be 64 a9 8c be 63 ea cc bd
       -0.05267992 -0.2003359 -0.27472985 -0.10005643
000080 76 cf 43 be 20 f1 80 be 25 53 1b be 1d 6f 58 be
       -0.19122109 -0.25183964 -0.15168436 -0.21136136
000090 4e 95 b2 be 35 ac de bd 40 de d2 be 1e f2 46 be
       -0.34879535 -0.1087269 -0.41185188 -0.19428298
0000a0 0e 55 2b be 0a e6 7e be f2 b1 4a be ae cb 7c be
       -0.16731665 -0.2489244 -0.19794443 -0.24687073
0000b0 d8 d6 c1 be c7 94 55 be 27 ef d0 bc 0d 8e c6 bd
       -0.37859225 -0.20857535 -0.025504662 -0.09695063
0000c0 4b 7e 2c bd 6c 05 8e be b9 44 74 be eb 59 90 be
       -0.04211263 -0.27738512 -0.2385434 -0.28193602
0000d0 5e 4e cc 3d 35 54 a1 3b 2f 35 c5 bd 4e d3 82 be
       0.09975885 0.0049233683 -0.096292846 -0.25551838
0000e0 b2 de d2 be ad 9f 8f be 90 b1 43 bd fb 9f 84 be
       -0.41185528 -0.2805151 -0.04777676 -0.25903305
0000f0 cd 78 48 be cf 7b 7a 3c a7 db cb be d7 89 05 3c
       -0.19577332 0.015288307 -0.3981602 0.008150539

conv3.weight f4 [256, 128, 5]
000000 49 21 c0 3d 1b 56 80 3d 4e 88 54 3e a0 25 ef bd
       0.09381349 0.06266423 0.20755121 -0.11677098
000010 45 f8 49 3d 13 40 04 be 31 ce 61 bd 98 e7 22 be
       0.049309034 -0.12915067 -0.05512828 -0.15908659
000020 44 c7 10 bd 03 7a 3f be 73 8d 4a be ad b0 99 be
       -0.035346285 -0.18698888 -0.19780521 -0.30017605
000030 d5 b5 15 3d e0 a5 09 be 41 8c 34 be d1 94 02 3e
       0.03655036 -0.13442183 -0.17631628 0.12752081
000040 10 4a 06 3d b2 ed 28 be b8 07 3a be 75 a8 23 be
       0.032785475 -0.16496924 -0.18167007 -0.1598223
000050 b6 c2 73 3d d5 4b 19 bc d8 8e d8 3b c9 20 0c 3c
       0.059511863 -0.009356459 0.006608825 0.008552738
000060 28 7a 35 bc 43 d9 b1 bd 17 f2 49 be 19 6a 90 bd
       -0.011076488 -0.086840175 -0.19721256 -0.070514865
000070 ea d8 3c 3b f0 ed 5a be 13 89 40 3d 50 0b 4f bd
       0.0028815814 -0.21379828 0.047005724 -0.050547898
000080 26 bd 93 3d 0a 83 00 be e2 51 4a bb 0f b6 4a be
       0.072138116 -0.12549987 -0.003087156 -0.19796012
000090 e9 aa 1f 3e 53 7c 19 bd 94 f4 b0 bd dc 1d 71 bc
       0.15592541 -0.03747208 -0.086403996 -0.014716592
0000a0 98 8c 4d be 5a 90 04 bd 1e f7 42 be 73 18 a4 bd
       -0.20073164 -0.032364227 -0.1903958 -0.08012476
0000b0 ab 2f f4 bd 60 fe 88 3d eb 13 1c be b2 ea ea 3d
       -0.119231544 0.06689143 -0.15241973 0.11470546
0000c0 b2 52 cb 3c 46 0e 9d 3d f6 e6 00 3d cd 3f 51 be
       0.024819706 0.07668738 0.03147026 -0.20434494
0000d0 18 2c a3 3d ed 69 15 be 3a 0f 1b 3e 6a ac 79 be
       0.079673946 -0.14591189 0.15142527 -0.24382177
0000e0 4a 02 e6 bd 60 e7 c8 3c 4b de 3d be bd 45 24 be
       -0.11230905 0.02452439 -0.1854183 -0.16042228
0000f0 01 e0 29 3e 40 d8 1a be 6a 14 13 be 47 b8 bd bd
       0.16589357 -0.15121555 -0.14363256 -0.09263664
000100 e7 71 00 bd e3 58 d6 bd 6f c4 38 3e 30 19 f2 3d
       -0.031358626 -0.104661725 0.18043683 0.118212104
000110 c2 5d 96 3d e9 5b cd 3d 86 a1 01 be 7c 58 ea bc
       0.07342102 0.10027296 -0.12659273 -0.028606646
000120 b3 d7 06 be e7 51 14 be 65 49 be 3d 58 e2 13 be
       -0.1316822 -0.14484368 0.09291343 -0.14441812
000130 32 e3 fe 3b 07 9f 38 3e 41 9c 91 bd 56 11 0d 3e
       0.0077785486 0.18029414 -0.07109881 0.13776144
000140 54 85 ee 3d ba fc 08 3c e3 9d d0 bc db 78 0d 3e
       0.11646524 0.008361036 -0.025465911 0.13815634
000150 18 9e d5 3d e7 3f 6f bd 5c 1c ac bd ab 80 3c bd
       0.104305446 -0.05841055 -0.084038466 -0.046021145
000160 de e8 2a be a6 31 db 3c e8 12 4b 3e a4 8e 13 3e
       -0.16690394 0.026757073 0.19831431 0.14409882
000170 c8 05 5e bd e7 30 ac bc 9a 4e 4c 3c 3a ce e4 3d
       -0.054204732 -0.021019412 0.012469912 0.11172147
000180 81 05 89 3d 9d fb c8 bd 4d 95 14 bd fe 89 a8 bd
       0.06690503 -0.098136164 -0.036275197 -0.08229445
000190 34 45 dc bd 05 e3 a4 3c 83 86 6b 3e 73 05 81 bd
       -0.10755387 0.020127783 0.23000531 -0.062998675
0001a0 06 a1 ff 3d a3 53 2b be d3 64 56 bd 1c 42 1b bd
       0.12481885 -0.16731124 -0.052342247 -0.037904844
0001b0 79 3b 1f bb 0f 4d 56 3d e5 1d b9 3d 6c 14 6a be
       -0.0024296923 0.052319583 0.09038905 -0.22859353
0001c0 87 21 84 bd b4 dd 54 3d 82 8b 66 be af c1 c3 3b
       -0.06451707 0.051969245 -0.22514156 0.0059740166
0001d0 5c 5c 1b be d3 d8 61 3e b6 46 f8 bd ee 0e c6 bd
       -0.15171951 0.22055368 -0.12122862 -0.09670816
0001e0 ac 57 df bd 48 24 af bd 25 a3 dc bd 58 54 ee bd
       -0.10905394 -0.08551842 -0.10773305 -0.11637181
0001f0 0a d6 15 3e 76 25 07 be 59 11 40 3e ec 3d 53 be
       0.1463243 -0.13197884 0.18756618 -0.2062909
000200 5e 10 87 bd 72 5f 00 be 31 3c 44 3d ca 92 a7 3d
       -0.06594919 -0.1253641 0.047908965 0.08182295
000210 d2 fb 82 3d 8c fa 85 bd f8 f1 1c be 54 a2 f5 bb
       0.06395687 -0.06541929 -0.15326679 -0.0074961577
000220 e0 f6 62 3c 3f 03 08 be 43 0e 54 3d 5c 81 a6 3d
       0.013852805 -0.13282488 0.051771414 0.08130142
000230 e2 9c 15 bd 6d d4 70 bc 4c 72 9e 3d 49 1f 3e bd
       -0.03652657 -0.014699084 0.07736644 -0.046416555
000240 35 2b c0 bd 3f d7 87 bd fa 60 94 bc 63 ac 15 3e
       -0.09383241 -0.06632852 -0.018112648 0.14616542
000250 11 45 46 3e 58 ec 0f 3e 67 0e b8 3c 6f a8 a4 bd
       0.19362284 0.14055002 0.022467805 -0.08039939
000260 86 60 17 be 0d 32 86 be 0b b2 f8 3d b2 03 f4 bd
       -0.14782915 -0.2621006 0.12143334 -0.11914767
000270 f5 b6 f6 bd b2 0d 08 3d 73 90 c5 3b 31 98 85 be
       -0.12046615 0.033216186 0.0060291826 -0.26092675
000280 70 62 24 3d 62 85 5f 3d 86 bd 09 be a2 95 57 bd
       0.04013294 0.054570563 -0.13451204 -0.052632935
000290 b6 20 1f be 77 78 09 3e 5b c4 7d bd 27 9d 1f be
       -0.15539822 0.1342486 -0.061954837 -0.15587293
0002a0 df 2a 04 be fa 78 a0 bd c5 4d 1a be 14 35 75 bc
       -0.12906979 -0.078355744 -0.15068729 -0.014966268
0002b0 1d 7b cf bd 9c 6d 48 be e5 08 39 3e 44 39 e7 3d
       -0.10130904 -0.19573063 0.18069799 0.112902194
0002c0 12 81 76 3c 0d 62 99 bc 8a ae 64 be 76 0d 8b 3c
       0.015045421 -0.018723512 -0.22332206 0.016974192
0002d0 bc 43 14 3d a8 0c 7e bc e4 63 81 3d 45 83 69 be
       0.03619741 -0.015505947 0.06317881 -0.22803982
0002e0 58 a2 b3 bb d4 76 89 3d b4 23 95 3c e5 64 19 3e
       -0.0054819994 0.06712118 0.018205501 0.14979894
0002f0 67 64 86 3d c0 33 a0 bd 1c 56 fe bd 02 74 bf bd
       0.06562119 -0.078223705 -0.12418768 -0.093482986
000300 ed 58 2e 3d 3d 1d 8e 3d 08 c7 e6 bc 0a 20 93 bd
       0.042565275 0.069391705 -0.028171077 -0.07183845
000310 d7 9f 0f be bf e2 0d be 88 09 e8 3d 65 26 4c 3b
       -0.14025818 -0.13856028 0.11329943 0.0031150815
000320 6e 12 81 3c ab c6 a6 3d ff e2 06 be 68 56 4b 3d
       0.015755858 0.08143362 -0.1317253 0.04964295
000330 ee 21 2f bd 8c 20 ff bd 38 a6 9f bc 3c 87 8e bd
       -0.042756967 -0.1245738 -0.019488439 -0.06959388
000340 54 03 8a 3c 22 29 a5 bb 4b 9f 48 bd f2 87 54 3e
       0.01684729 -0.005040304 -0.04898004 0.20754984
000350 0a 8f 27 3e 8b 18 d5 3b c8 4b 6a bc d2 65 ad bd
       0.16363159 0.00650317 -0.014300294 -0.08466686
000360 4e 4e 77 bd 64 f8 19 3d 93 7e 0b 3e 94 04 80 3e
       -0.06037741 0.0375904 0.13622503 0.25003493
000370 d6 bd 3b 3b 88 0e 1c be 0e 0b c5 bd 2e 54 14 bd
       0.0028647087 -0.15239918 -0.09621249 -0.036213093
000380 4b 2c e8 bc 77 7e da bc 3a 38 35 be 89 65 54 bd
       -0.028341433 -0.026671631 -0.1769723 -0.051854644
000390 45 71 9d 3c fd fa 55 bd 2e c2 45 3d cb e7 69 3d
       0.01921905 -0.052241314 0.048280887 0.05710582
0003a0 83 94 a9 3d 4b 52 ee 3d bc ba 79 3d ee be ec bc
       0.082802795 0.1163679 0.0609691 -0.028899636
0003b0 3c f3 8c bc 36 a5 2f 3c df a0 ba 3d 18 0c 00 bd
       -0.017205827 0.010720542 0.09112715 -0.031261533
0003c0 ea 16 68 bc c0 7c 6e bd 8a 1d 0b bc 11 45 c7 3d
       -0.014165619 -0.05822444 -0.008490929 0.0972997
0003d0 33 fe 1b ba f5 2e 5d be 23 d7 a3 3d f0 26 2c be
       -0.00059506594 -0.21599944 0.080000184 -0.16811728
0003e0 94 25 25 be e3 d6 c9 bd f3 fe ec bc dd 59 a4 3d
       -0.16127616 -0.098554395 -0.028930163 0.080249526
0003f0 94 de cd bc 32 de f9 3c e4 a1 3d be db ee 9c bd
       -0.025130548 0.030501459 -0.18518788 -0.076627456

conv3.bias f4 [256]
000000 df bd 99 bd ca d9 98 3d d8 a5 04 be 41 aa 67 be
       -0.07506918 0.07463415 -0.1295389 -0.2262354
000010 26 3e ce bd 96 92 2e be d9 b1 4c be df 98 aa 3e
       -0.100704476 -0.17048106 -0.19989718 0.33319756
000020 7d c0 8c be eb de db bd 12 04 ac bd 96 2c f2 bc
       -0.27490607 -0.107358776 -0.08399214 -0.029562276
000030 ef 02 ac bd a9 41 65 be b4 27 55 be ea c1 af 3d
       -0.08398997 -0.22388329 -0.20815927 0.08581908
000040 b1 00 01 be 15 f5 02 be e2 b3 5a 3c a7 6c d2 3b
       -0.1259792 -0.12788804 0.0133485515 0.006421644
000050 a2 4a 09 bd 14 ec 5c be 14 05 1b 3d c0 2a 96 3d
       -0.03351844 -0.21574432 0.03784664 0.07332373
000060 67 1b cb be 37 9c a7 bd 5d b6 65 bd 3a 1b 17 be
       -0.39669344 -0.081840925 -0.05608212 -0.1475648
000070 a2 08 57 be 1e de 35 be 68 a6 3d 3e cf 32 cc bd
       -0.20999387 -0.17760512 0.1852051 -0.099706285
000080 02 f9 bd bd cb 34 66 bd e1 5a f5 bd ec 36 57 bd
       -0.0927601 -0.05620269 -0.119802244 -0.052542612
000090 49 6f ee bd e9 29 7b ba 82 73 93 be 03 02 87 be
       -0.1164232 -0.0009581135 -0.28799063 -0.26368722
0000a0 f5 54 0b be 31 94 1b be 1f 2c 8a be b9 db ab bd
       -0.13606627 -0.1519325 -0.26986787 -0.08391518
0000b0 e5 e1 13 3e 0e 72 26 bc 91 95 29 be 50 27 11 3d
       0.1444164 -0.010159029 -0.16560961 0.035437882
0000c0 f6 03 32 3c 71 fd 3f bd f1 f9 46 be fc bf 2f be
       0.010865202 -0.04687256 -0.19431283 -0.1716308
0000d0 5d 21 8c bd 9d 54 95 3e 62 52 25 be 67 38 56 bc
       -0.06842301 0.29166117 -0.16144708 -0.013074971
0000e0 5b e2 9d bd 5d aa fc bd 57 b8 8a be c7 3a 42 bc
       -0.077091895 -0.12337182 -0.27093765 -0.011854834
0000f0 70 57 a9 b9 4c c4 6c be 2b 09 45 3d 34 96 45 3d
       -0.00032299338 -0.23121756 0.048104446 0.048238948
000100 bf 50 61 bd c3 e0 3a be cb e6 10 3e fa 72 94 be
       -0.055008646 -0.18249802 0.1415054 -0.2899397
000110 32 36 6d bb 78 cf cf bd ed 78 56 be 43 f6 f8 bd
       -0.0036195633 -0.101469934 -0.20944567 -0.12156346
000120 0e 6c 64 be 7c 2e 07 3e 2c 2c 1f 3d 37 ea 25 be
       -0.22306845 0.13201326 0.038860485 -0.16202627
000130 92 41 8e be 67 ab 58 be c6 96 f1 bc 91 cf 40 bb
       -0.277844 -0.21159135 -0.02949084 -0.0029420594
000140 e1 68 26 be 95 1f c2 3d 5e d9 87 bd cb 24 f8 bc
       -0.16250946 0.0947868 -0.066332564 -0.030290982
000150 52 12 44 be 8d 62 a2 be 74 c2 75 3e 57 29 9b bd
       -0.19147614 -0.31715813 0.23999959 -0.07576244
000160 6a 26 62 3c ea 37 03 bc 2c 3e 66 be 4d 09 a6 3b
       0.013803104 -0.008008936 -0.22484654 0.0050670267
000170 e5 ba 19 bd 1c 43 24 be 28 d8 31 be 3e 2e bc bd
       -0.037531752 -0.16041225 -0.17367613 -0.091885075
000180 c3 9f 13 be c9 49 eb bd 47 10 7a 3d 03 77 84 bd
       -0.14416413 -0.11488683 0.06105068 -0.06468012
000190 ae ef 06 bc cd c4 68 bc ff 08 2e be 13 a7 ec bc
       -0.008235855 -0.014207077 -0.16995619 -0.028888261
0001a0 70 e7 bb bd e5 d1 ef bd 81 c3 59 bd 7d a3 e2 bd
       -0.091750026 -0.11709956 -0.053164963 -0.11066339
0001b0 07 5a 53 be c7 3f f2 3d 51 ed bc bd c7 67 3e be
       -0.20639811 0.11828571 -0.09224952 -0.18594275
0001c0 ed d6 06 3d 19 b5 b9 bd b4 ef 2b be fb a9 56 be
       0.032919813 -0.09067745 -0.16790658 -0.2096328
0001d0 72 0a 0f be b9 a1 27 3e 62 30 df 3d 24 98 8a bd
       -0.13968828 0.16370286 0.108979 -0.067673
0001e0 2b ed 19 be 91 7b 8b bd d8 49 41 3d 4f b1 ac 3e
       -0.15031879 -0.06810678 0.047189564 0.33729026
0001f0 2d 8c 45 be 73 20 64 be 8d 6f c9 bc 52 79 f2 bd
       -0.19291754 -0.22278003 -0.024589324 -0.11839546
000200 07 45 c2 bc 6a 80 ab bd d8 7c 0f be 2f 5d 85 be
       -0.023714555 -0.083741024 -0.14012468 -0.26047656
000210 e7 99 86 3e 37 c3 61 be ea a2 22 be b3 93 c9 be
       0.26289293 -0.22047125 -0.1588246 -0.39370498
000220 42 15 8b bd 18 03 a5 3e a5 63 92 bc fd 2c b2 bd
       -0.06791164 0.32228923 -0.01786978 -0.08699987
000230 0d 9d 72 bd 89 85 80 3d 39 53 e9 bc d0 d0 ca 3d
       -0.059231807 0.0627547 -0.028482066 0.09903109
000240 ed e6 69 bd 02 2e f4 bd cf 12 d2 bd 4e fc ce 3d
       -0.057104994 -0.11922838 -0.10257494 0.10106717
000250 d8 7f 4e be 48 7a 88 3d b1 4e 8f be 7e c6 6f be
       -0.20165956 0.06663948 -0.27989724 -0.23415563
000260 11 2f 88 3e 90 c7 dd 3d 61 03 3b 3d b9 0a c4 bb
       0.2659841 0.10829079 0.04565752 -0.0059827236
000270 b4 c8 18 be ca 97 98 bd 26 8b 6c be a1 f4 86 bd
       -0.14920312 -0.074508265 -0.23099956 -0.06589628
000280 30 7b 48 bd 8c 8b 41 be c8 a0 66 bd 40 7e 1f 3e
       -0.048945606 -0.18900889 -0.056305677 0.15575504
000290 b5 c2 70 3d eb 98 1a bb b4 9d ab 3d a3 80 cd 3c
       0.058779437 -0.0023589681 0.08379689 0.025085753
0002a0 08 ea 0d be af ad 3f be ac f6 64 3c 7c 45 c2 bd
       -0.13858807 -0.18718599 0.013974827 -0.09485909
0002b0 dc 55 a9 3e ee c3 8c bd 6d 1c 02 bd ce ab 29 3d
       0.33073318 -0.06873308 -0.03176539 0.04142361
0002c0 96 6f bd bd 6f 0b 51 3e 3d 09 93 bd 91 9b 4b 3e
       -0.09249799 0.20414518 -0.071794964 0.19883563
0002d0 59 ba ae 3e 64 20 d9 bd aa b8 68 be 70 15 02 3e
       0.34126547 -0.10601881 -0.22726694 0.1270349
0002e0 0e 8e 0c be 84 74 63 be bf c7 94 bb 4c e7 ad 3e
       -0.13726065 -0.22212416 -0.004540413 0.33965528
0002f0 da e6 cc bd da c8 18 be 32 b3 e9 bc 61 e2 8c be
       -0.10004969 -0.14920369 -0.02852783 -0.27516463
000300 56 50 72 bd 8f b2 33 be dd f8 1e be c2 6d 4f be
       -0.059158646 -0.17548583 -0.15524621 -0.20256713
000310 d1 9f 0a be 35 31 ba bd c4 0b a7 3d 6e a1 52 be
       -0.13537528 -0.09091417 0.08156541 -0.20569393
000320 e8 c1 a4 bd 9e 14 48 3c 51 46 a0 3d b2 8d 04 3e
       -0.08044797 0.012211947 0.07825912 0.12944677
000330 47 33 f7 3c 5b 1a 3f bd b7 aa 46 3e 14 13 0d be
       0.030175818 -0.046655994 0.1940106 -0.13776809
000340 92 d4 e0 bd 72 f2 22 be 29 8d 07 bd 62 78 94 3d
       -0.109780446 -0.15912798 -0.033093605 0.07249524
000350 45 09 3f be fd ce 76 3c b5 08 a6 3d a2 b5 c1 3d
       -0.1865588 0.015063998 0.081071295 0.09458472
000360 63 5d ab bc 38 dc 0b be 34 88 b2 bc fa de 6f 3d
       -0.020918554 -0.13658226 -0.021793462 0.058562256
000370 d3 6a 44 bd a4 2b 10 3c 19 85 15 bd bc a0 c8 bd
       -0.047953438 0.008799467 -0.036503885 -0.09796283
000380 c3 cf eb bd 86 ad 18 3d 01 96 af bd 0f 12 8f bd
       -0.11514237 0.03727486 -0.08573533 -0.06985866
000390 29 18 be bd 3b 2e 2f be 36 9f 20 be fa 4f b4 bd
       -0.09281952 -0.1710748 -0.15685734 -0.08804317
0003a0 c5 70 a8 3d ae 13 64 bd 30 01 2f 3c cb d2 04 be
       0.08224634 -0.05568283 0.0106814355 -0.12971036
0003b0 b7 be 15 be c2 de e1 bd 5e e3 19 be 29 89 df 3c
       -0.14623533 -0.11028816 -0.1502814 0.027287083
0003c0 fa c2 80 bd 28 73 eb 3d 09 7d 19 be 77 94 14 be
       -0.06287189 0.11496574 -0.14989103 -0.1450976
0003d0 ea 9e 4f bd 48 e3 87 be da 1a 70 bd bc e2 84 3e
       -0.05068866 -0.2654059 -0.058619358 0.25954235
0003e0 43 ef d5 3c 5a 2d a9 bd 51 cc d1 bd 47 57 e1 bd
       0.026115065 -0.08260603 -0.102440484 -0.11002975
0003f0 4d ae 26 bb 80 d3 c5 bd 8e f5 d7 bd 6a f0 42 be
       -0.0025433481 -0.09659481 -0.10544883 -0.19037023

fc.weight f4 [12, 256]
000000 b5 22 39 bb d2 dd 1b 3d 9b bb a8 bd 98 95 e3 bd
       -0.0028249447 0.03805334 -0.08238908 -0.11112517
000010 9f 8b 48 3d e8 ed ce bc 50 86 06 be 0d f9 0c 3c
       0.048961278 -0.025259927 -0.13137174 0.0086043
000020 b0 6e b8 3b 3f ce 2d 3d 28 24 d1 3b aa b6 6c 3d
       0.0056284294 0.04243302 0.006382484 0.05779139
000030 11 ad 43 3d a4 2a 2e be db 41 ad 3c f5 d8 ca 3c
       0.04777247 -0.17008454 0.021149566 0.024761656
000040 25 ce 08 bd ba f4 08 bd 1f d0 d0 bc 7c 38 7d 3c
       -0.03339972 -0.033436514 -0.025489865 0.015455361
000050 df 50 db bc 46 39 c3 bd f4 c1 3b 3c af 83 60 3c
       -0.02677196 -0.095324084 0.011459816 0.013703271
000060 bf 93 1e bd 78 93 be 3c 32 e0 81 3c 02 de 93 bd
       -0.03871512 0.023263678 0.015853975 -0.07220079
000070 0e 5b 85 3d 70 05 85 bd b2 13 db 3d 8f a7 50 3d
       0.06511508 -0.06495178 0.10697116 0.050941046
000080 95 ca 6b 3b b2 0b 69 bb c2 dc 95 3d 51 66 b5 3d
       0.0035978903 -0.003555995 0.07317497 0.08857406
000090 be 5d 91 bd a0 3b 81 bd 19 10 d1 3c 29 7e d7 3c
       -0.07097958 -0.06310201 0.025520371 0.026305275
0000a0 e0 64 36 3d f6 e6 ef bd f4 2b 98 bd de 85 1d be
       0.044529796 -0.11713974 -0.074302584 -0.15383098
0000b0 79 84 0f bb 11 97 4a bd d3 1b 22 be bc 24 13 bc
       -0.0021899028 -0.049460474 -0.15830927 -0.008980926
0000c0 aa 0a df be b4 ed 4e 3d b8 b8 7f 3c ed b5 27 bd
       -0.43562824 0.05051966 0.015608005 -0.040944982
0000d0 ac f4 0f 3d 7c 6d 44 3d 90 cd 86 bd 0a ad 99 3d
       0.035145447 0.047955975 -0.06582177 0.07503708
0000e0 d1 e6 14 bc 49 6b 03 be ec 57 9b bd a5 6d 21 bd
       -0.009088234 -0.12833895 -0.07585129 -0.039411206
0000f0 06 4d 04 be b8 0f bb bd 4a 1e 83 3d ce 04 ca 3d
       -0.12920007 -0.091338575 0.064022616 0.09864198
000100 9f a3 f5 bd 85 ab 61 3c 0a 74 8f 3c c0 f6 05 be
       -0.11994099 0.013773804 0.017511386 -0.13082409
000110 b8 92 2e 3d 57 04 92 bd 50 68 89 be 11 93 cf 3d
       0.04262039 -0.07129734 -0.26837397 0.101354726
000120 7d ac a4 bc c6 f3 11 bd 90 68 ef 3d b3 b7 21 3d
       -0.02010178 -0.03563287 0.116898656 0.03948183
000130 4e f7 25 be 71 43 b2 3d c5 f3 92 bc 7f 26 3a 3d
       -0.1620762 0.0870427 -0.017938504 0.04544687
000140 09 ad 75 3d 1b 74 c9 bd 7b cb 4c bd e7 a3 c2 3c
       0.059979472 -0.098365985 -0.04999874 0.023759795
000150 f3 30 ea bd ef 91 e9 bc 88 d9 bd 3d 31 10 84 bd
       -0.114351176 -0.02851197 0.092700064 -0.06448401
000160 2f e3 11 3d 29 7e 5b 3d 34 ea 0c bd 84 33 e2 bd
       0.03561705 0.053587113 -0.03440304 -0.11044982
000170 ab d7 98 bd 42 fb 23 3c ed 6d 04 3c 42 69 1e 3e
       -0.074630104 0.010008635 0.008082849 0.1546984
000180 8c f7 96 bd 77 ea 74 bd ec cd 17 3d a9 62 5e 3d
       -0.073714346 -0.059793916 0.037061617 0.05429331
000190 fb 56 d3 3c d2 8a 3a 3d 2b ba 10 bd fb 67 81 bd
       0.025798311 0.045542546 -0.035333794 -0.06318661
0001a0 6e dd 6d 3b 82 98 db 3c f8 ea 58 bd f6 30 25 be
       0.0036295312 0.02680612 -0.05295846 -0.16131958
0001b0 2b e0 09 bd 9a 69 0b 3d 57 87 61 bd 6a c6 05 bd
       -0.03366105 0.034036256 -0.05506071 -0.032659926
0001c0 23 77 7b 3b 40 da de bc 51 61 e7 bc 20 6a 98 bd
       0.0038370572 -0.02720368 -0.028244646 -0.07442117
0001d0 55 90 fe bc 6a 44 97 3d e6 62 0a bd 20 29 f5 bd
       -0.031074682 0.07386096 -0.033785723 -0.119707346
0001e0 95 f0 51 3d 3c 27 f7 bc 57 df 41 3c 61 33 b8 bb
       0.051254828 -0.030170076 0.0118330335 -0.005621359
0001f0 80 45 b1 bd c5 75 62 bd e5 ea 07 3e 0d 9a a5 3c
       -0.08655834 -0.055288095 0.13273199 0.020215059
000200 f1 2a 16 be 73 6d bf bd da 0b a1 bd 05 a4 00 bd
       -0.14664818 -0.09347048 -0.07863589 -0.03140642
000210 d2 db a5 bc 6e 8d 05 3b e2 e4 e4 bd 30 39 92 be
       -0.02024642 0.0020378488 -0.111764684 -0.28559256
000220 d3 fa 66 be 08 2e c7 3d 0f c9 4f be 7d 85 bc 3c
       -0.2255662 0.09725577 -0.20291542 0.02301287
000230 e8 15 48 bd 52 81 91 39 65 3f e5 3d 4e 0e 8c bb
       -0.048849016 0.00027752906 0.11193732 -0.004274166
000240 6e 0c f0 bc 7c 00 6b bd 41 dc f9 bb 75 ed 3a bc
       -0.029302802 -0.05737351 -0.0076251333 -0.011409153
000250 d2 97 cc bd 9f ad d3 bc 5a fe c5 bd 29 82 40 be
       -0.09989895 -0.025839625 -0.09667654 -0.18799652
000260 b2 00 66 3d ca f6 8d 3d 59 86 ba bd f6 b6 35 bb
       0.056153007 0.06931837 -0.09107656 -0.0027727461
000270 c1 80 4c bd 52 9e 24 bd 65 56 7b bd 05 0e 5b bd
       -0.049927477 -0.04019005 -0.06136169 -0.053480167
000280 e5 6f 55 bd 2b e3 b3 bb 36 02 3d 3c ad db 8f 3d
       -0.052108664 -0.005489727 0.011536172 0.07024322
000290 26 f0 d0 3d 5c 04 dc bc 92 2d 11 be a4 48 92 3a
       0.10202055 -0.026857547 -0.1417754 0.0011160565
0002a0 39 83 40 be bc 59 d7 bd 1a b8 cd ba 64 49 c9 bc
       -0.18800057 -0.10515162 -0.0015695125 -0.024571128
0002b0 0a a4 72 bb 38 ad 08 bd c0 da 0f bd 70 0c 91 3d
       -0.0037024044 -0.03336832 -0.035120726 0.070824504
0002c0 b0 51 1f 3c 3a d8 3e 3d 7a d8 8d bd 77 78 c9 3d
       0.009724066 0.04659293 -0.06926055 0.0983743
0002d0 28 84 f4 3c 74 b9 a0 be f2 18 20 be 76 b7 0e 3d
       0.029848173 -0.3139149 -0.15634516 0.03484293
0002e0 00 5c 93 bd 66 8d a4 bd 51 6e b7 bd bc ef d1 3d
       -0.07195282 -0.08034782 -0.08956588 0.10250804
0002f0 72 97 0f bd b4 cd a3 bd 76 d9 a4 bc 26 91 54 be
       -0.03505654 -0.07998219 -0.020123225 -0.20758495
000300 00 9d 9d 3d af 8a 98 bd e1 e4 d1 bd 60 f8 20 be
       0.07695961 -0.07448327 -0.10248733 -0.15719748
000310 4c 02 62 bd e8 8e 08 be 3f 8e 0d 3c 74 f6 c2 3c
       -0.05517797 -0.13335764 0.008639871 0.023799159
000320 b8 d1 9e bd 5c 4c b6 3d 88 7d 0d 3d b2 6f 5f 3e
       -0.077548444 0.08901283 0.034543544 0.21819952
000330 bb f1 65 3e 55 75 41 bd a5 0c d4 3d e8 ca 24 be
       0.22455494 -0.047231037 0.10353974 -0.16093028
000340 2c f0 ce bd fe 75 1c bd be e5 7f bd 3b bf 8c 3d
       -0.10104403 -0.038198464 -0.06247496 0.06872412
000350 eb 23 ce bc 8e f3 2d 3d b1 b0 ee 3d bb 68 5c bd
       -0.025163611 0.0424686 0.11654795 -0.053810816
000360 83 4c 08 bd 65 8b d3 bd 3d a0 bf bc c7 ab 7d 3d
       -0.033276092 -0.10329322 -0.023391837 0.061931398
000370 93 4b 5e 3d ee ae f5 bc b1 8b 7a 3d 19 2a 9a bd
       0.054271292 -0.02999064 0.061168376 -0.07527561
000380 b8 1e 7d be 99 1f 81 3b 08 72 97 bd 0f 4e 2a bc
       -0.2471875 0.0039405343 -0.073947966 -0.010394587
000390 3e 0c b6 3b 78 0a 91 bd f1 b9 95 bd 33 4b 53 bd
       0.0055556586 -0.07082075 -0.07310856 -0.051585387
0003a0 b5 cb 4d 3d c7 a6 3d bd e7 8e 26 3c 5d d0 89 bd
       0.0502431 -0.04630163 0.0101659065 -0.06729195
0003b0 cb b1 a3 be 56 b3 59 bd 2b f8 2d 3c f0 49 0e 3c
       -0.31971583 -0.053149544 0.01061825 0.00868462
0003c0 11 c7 58 bd 71 a9 8e 3c 45 f7 c6 bd ec a0 84 bd
       -0.05292422 0.01741478 -0.09715132 -0.06476006
0003d0 2d b6 fa bc 5a 7a ca bd dc 1c d2 3d 9f 52 b0 3c
       -0.030604446 -0.09886618 0.10259411 0.021523772
0003e0 94 28 c0 3b e6 39 9a 3d 3c e5 fe ba 80 57 28 be
       0.0058642123 0.075305745 -0.0019446979 -0.16439629
0003f0 5b 3b 1b 3b 9e 68 9e bb aa 1f df bd 03 aa d5 bd
       0.0023686502 -0.0048342487 -0.10894711 -0.10432818

fc.bias f4 [12]
000000 32 8a b6 3e 03 e2 45 be fb 43 7f be e7 59 15 be
       0.3565231 -0.19324498 -0.24928276 -0.14585076
000010 b5 53 5a be 6d 92 be bc 47 a4 24 be 35 b1 d7 bd
       -0.21320994 -0.02326318 -0.16078292 -0.105318464
000020 f7 fd 16 be 82 cd 25 3e fb 65 09 be 03 2e 63 be
       -0.14745317 0.16191676 -0.13417809 -0.22185521
