src/main/python/saved_models/python3_1_28_CNNClassifier1_64embs_102id_64hd_0hl_Falsebid5kernel0.3dropout_0.pt (torch, 824907 bytes, 9 tensors)

emb.weight f4 [102, 64]
-0.9891686 -0.28159368 -1.0927982 -1.1356169 0.16096205 -1.0904504 -1.3748318 -1.1630898
-0.36757842 -0.18079261 -0.78441995 0.19729513 -0.2452244 2.130409 0.19412312 0.17711912
-0.5210592 -0.80986017 0.27554742 -0.29383793 0.51647294 0.7906344 -0.36498228 0.34634823
1.3920853 0.2779017 -2.6330898 -1.369813 0.31726146 -1.0024444 -0.93433213 0.14447749
2.2993796 0.3298406 -0.4755674 -1.1935093 -0.19346741 0.50709933 0.5474682 -0.25791913
0.42337292 0.76581997 0.22126104 -0.5218242 2.7215273 -1.4162807 1.9973662 -0.11170719
-1.240614 1.0581446 0.18571693 -0.63273394 0.84938365 0.98006064 0.69930273 2.393036
-0.12801605 0.7828662 -0.72550446 -1.1937195 1.0623798 -0.6304782 -3.649598 -0.40052322
-0.025502462 -1.0233306 -0.59618515 -1.0055307 -0.2106063 -0.0075475276 1.6734272 0.010342831
-0.70395666 -0.1852658 -0.9962351 -0.83125526 -0.46102202 -0.56008244 0.39557618 -0.9822771
-0.5064866 0.099775404 -0.6539734 0.7316937 -1.4343859 -0.50081307 0.17163314 -0.15999313
0.2546335 -0.5019573 -1.0412 0.7322672 -1.0483401 -0.4708772 0.29113635 1.9907043
0.6614453 1.1899205 0.8165339 -0.9135236 1.3851457 -0.81384623 -0.92757654 1.1119633
1.3352057 0.6042736 -0.10344208 -0.15121692 -2.102083 -0.62002194 -1.478231 -1.1334175
0.8737963 -0.5602594 1.2857845 0.81682384 0.2053041 0.30510718 0.535687 -0.431185
2.5581384 -0.23336388 -0.01347213 1.8606348 -1.9804063 1.7985829 0.10181159 0.340006
1.0823725 -1.3230145 0.10077008 1.1173023 0.00055460626 -1.7612412 0.650755 -0.29694906
-1.2712758 -1.8689253 0.5513008 0.7168586 1.9229916 0.820428 1.7617263 -1.7860947
-1.2097584 -0.6563663 0.98493165 0.22626136 0.27993348 -0.4865836 0.5046826 -1.6506977
0.5626791 0.34358025 -0.064703934 1.233651 1.6349945 1.271508 -0.82380265 2.342509
0.6181656 0.17653154 -1.1209948 -0.6685977 -0.7252672 -0.43288952 1.0447108 0.90746385
0.612592 1.4657019 1.2910388 -1.8703312 -0.09383461 -1.1583534 0.25345826 0.18054806
0.66987234 1.293757 0.18880679 1.514028 -0.82974225 0.24834873 -0.50988865 0.019907476
1.4035903 -0.5139296 -0.14077231 1.0618876 -0.3039938 1.1515688 -0.53908485 1.1391275
0.18505713 1.2697103 1.0699922 0.15737028 0.79249907 -1.9297493 -2.737855 0.041637074
-0.22080556 0.22397058 -0.8410952 0.574341 -1.6301267 0.4157804 0.8324266 -0.10333832
0.67806154 1.3044834 -1.0103661 0.75822663 -0.52959174 1.8355044 2.0867705 0.65522325
-0.5643231 1.6347737 0.44959548 -0.34052426 0.39627144 -1.1229721 1.3788203 1.804602
1.7259537 0.04397037 -0.48230422 -1.5686387 0.8289367 1.3021643 0.50421584 0.4627863
0.5366947 0.8677982 1.1367158 -1.7236952 1.645381 -2.5771143 -0.30007026 0.6186612
0.12706324 1.1575764 1.1709918 -0.7632387 -0.82563055 0.16706282 -0.5781726 0.49700972
0.16563062 -0.78068995 -0.8013248 0.529033 -0.6571782 -0.9287678 -0.633607 1.0049087
00000000: 273a 7dbf 0c2d 90be d0e0 8bbf e55b 91bf
00000010: 3cd3 243e e193 8bbf 7dfa afbf 20e0 94bf
00000020: 3d33 bcbe b321 39be bfcf 48bf bc07 4a3e
00000030: 1b1c 7bbe 9f58 0840 36c8 463e b75e 353e
00000040: 2364 05bf ff52 4fbf 8d14 8d3e ed71 96be
00000050: 9237 043f 0467 4a3f f5de babe 8e54 b13e
00000060: da2f b23f 2249 8e3e 8b84 28c0 0856 afbf
00000070: 1870 a23e 1950 80bf 6430 6fbf e8f1 133e
00000080: 0929 1340 dee0 a83e 927d f3be eac4 98bf
00000090: 521c 46be 43d1 013f e026 0c3f fa0d 84be
000000a0: 56c4 d83e c70c 443f 4192 623e 4596 05bf
000000b0: 812d 2e40 b048 b5bf b2a9 ff3f bdc6 e4bd
000000c0: 71cc 9ebf 4871 873f 942c 3e3e dafa 21bf
000000d0: 3571 593f 41e5 7a3f 8105 333f 8027 1940
000000e0: a416 03be eb69 483f a9ba 39bf cdcb 98bf
000000f0: 10fc 873f 0567 21bf 0393 69c0 6111 cdbe
00000100: 8aea d0bc 7ffc 82bf 979f 18bf 3bb5 80bf
00000110: 2ea9 57be 4051 f7bb dd32 d63f fa74 293c
00000120: 8136 34bf 51b6 3dbe 4309 7fbf 25cd 54bf
00000130: 140b ecbe 9061 0fbf f688 ca3e 8376 7bbf
00000140: 1ba9 01bf 0c57 cc3d cd6a 27bf 4750 3b3f
00000150: f599 b7bf 4935 00bf 99c0 2f3e 3dd5 23be
00000160: 525f 823e 4680 00bf 0b46 85bf dd75 3b3f
00000170: 0230 86bf d116 f1be d30f 953e 66cf fe3f
00000180: 7b54 293f 514f 983f 5e08 513f afdc 69bf
00000190: 744c b13f 3a58 50bf a875 6dbf d054 8e3f
000001a0: 05e8 aa3f adb1 1a3f 71d9 d3bd 9cd8 1abe
000001b0: 8788 06c0 c2b9 1ebf ac36 bdbf d313 91bf
000001c0: 1db1 5f3f 296d 0fbf 9694 a43f 5e1b 513f
000001d0: 3d3b 523e 0237 9c3e c922 093f 48c4 dcbe
000001e0: 8ab8 2340 f1f6 6ebe 35ba 5cbc 4829 ee3f
000001f0: f47d fdbf f737 e63f 9882 d03d 4415 ae3e
00000200: 2f8b 8a3f 8a58 a9bf 8b60 ce3d c303 8f3f
00000210: ff62 113a 5a70 e1bf e197 263f b509 98be
00000220: 2ab9 a2bf f238 efbf 0d22 0d3f 0c84 373f
00000230: 9724 f63f 9207 523f 3f80 e13f c09e e4bf
00000240: 5dd9 9abf 9f07 28bf 7b24 7c3f 0fb1 673e
00000250: 7153 8f3e 7c21 f9be e132 013f 104a d3bf
00000260: bd0b 103f c0e9 af3e 7f83 84bd 47e8 9d3f
00000270: 8047 d13f c6c0 a23f bbe4 52bf abeb 1540
00000280: 1a40 1e3f afc4 343e c27c 8fbf 3829 2bbf
00000290: 1cab 39bf b2a3 ddbe 15b9 853f 8d4f 683f
000002a0: d4d2 1c3f 1f9c bb3f c240 a53f 0367 efbf
000002b0: 5c2c c0bd ed44 94bf 48c5 813e 97e1 383e
000002c0: c17c 2b3f d499 a53f 9156 413e abcb c13f
000002d0: fd69 54bf 214f 7e3e 1088 02bf 0115 a33c
000002e0: d9a8 b33f e490 03bf 9e26 10be efeb 873f
000002f0: 13a5 9bbe 9b66 933f 7701 0abf eece 913f
00000300: 9e7f 3d3e de85 a23f 81f5 883f ad25 213e
00000310: 38e1 4a3f 0602 f7bf 0439 2fc0 a38b 2a3d
00000320: da1a 62be 8b58 653e 0452 57bf 0308 133f
00000330: fea7 d0bf 2be1 d43e e919 553f 0ba3 d3bd
00000340: 7195 2d3f 50f9 a63f ad53 81bf 241b 423f
00000350: 5393 07bf cff1 ea3f a68d 0540 b6bc 273f
00000360: 7b77 10bf 4440 d13f 6131 e63e 3259 aebe
00000370: 17e4 ca3e 8dbd 8fbf 2f7d b03f 33fd e63f
00000380: 0dec dc3f 461a 343d 94f0 f6be 27c9 c8bf
00000390: 3235 543f 52ad a63f 4a14 013f 53f2 ec3e
000003a0: d364 093f 0628 5e3f e77f 913f 0ba2 dcbf
000003b0: d89b d23f 71ef 24c0 cfa2 99be 9560 1e3f
000003c0: de1c 023e 772b 943f 0fe3 953f 9d63 43bf
000003d0: 865c 53bf 8412 2b3e 1f03 14bf 0f78 fe3e
000003e0: 139b 293e 4cdb 47bf 9f23 4dbf b56e 073f
000003f0: d53c 28bf bac3 6dbf 1134 22bf d9a0 803f

conv1.weight f4 [64, 64, 5]
-0.021130096 -0.24081863 0.048173588 -0.3249603 0.07074392 0.09293939 -0.052687846 -0.10982067
-0.10830646 0.07133589 -0.14422949 0.09171623 0.015466709 0.07530597 -0.031726267 0.041181162
0.029736914 -0.10115605 -0.046022814 -0.066943936 -0.14113832 0.03741746 -0.11948471 0.16152981
0.109257855 -0.10054127 0.11138405 0.021783624 -0.14661331 -0.056968108 0.04692383 0.2052671
0.14484215 0.065542586 0.028327165 0.112851515 -0.03560565 0.054694064 -0.02430987 0.12300808
-0.0013447687 -0.070955865 -0.006431685 0.095238686 0.027012983 -0.09444534 0.022493549 -0.176191
-0.024843344 0.010810461 0.060197342 -0.16390617 -0.013291399 0.03511261 0.043127596 -0.07954033
0.12051198 -0.1245661 -0.2070746 -0.030863779 -0.07525466 -0.09499407 0.08076102 0.053749077
-0.00037881124 -0.087929204 -0.049015306 0.034138717 -0.24573018 0.076562956 0.11514236 0.013615539
-0.11399874 -0.06884655 -0.14973725 -0.028002605 -0.12510829 0.03915137 -0.020191003 0.19368596
-0.07252055 0.008885473 0.18046543 0.18510923 0.14038834 0.15340531 -0.02800901 0.051758308
0.06712946 0.21495377 -0.121550575 0.027259702 0.099090904 0.10123746 0.012446809 -0.024929672
-0.033557687 0.06120498 0.031462237 -0.07853503 -0.13716659 -0.01941982 -0.006055606 0.0014760509
-0.09596614 0.013190555 -0.17896423 0.10291601 0.023760894 -0.025965068 0.09836626 -0.09499458
-0.09495927 -0.30583867 -0.05038622 -0.113763325 -0.05997216 0.116918705 0.25900096 -0.128016
-0.018705605 0.22974655 -0.023749307 0.013709173 -0.14512303 0.14302836 -0.16449827 0.09138138
0.120780505 0.09220298 0.08526269 -0.096840434 -0.08816238 0.05316599 -0.30026644 0.0042969
-0.15752052 -0.22642717 0.07180591 -0.15613075 -0.24713732 -0.024565415 -0.24366985 0.011964123
-0.11265003 -0.055217747 0.050166562 0.15880337 -0.036158796 0.025065387 -0.008862267 -0.0039136945
-0.17725608 -0.14372788 -0.105161496 0.28949523 -0.07361244 0.014109594 -0.045339756 0.040076353
-0.12412983 0.060217243 -0.046641435 -0.13952203 0.01066976 -0.07019917 0.050745055 0.036224395
0.08290895 -0.091902144 -0.13913432 0.03690279 -0.06939528 0.0032770466 0.07794663 -0.1633394
0.2921717 -0.15996659 0.21537982 -0.067346774 -0.031267606 0.12310632 -0.06284725 0.029384464
0.0469085 0.15120377 0.058694072 -0.117409706 -0.08796856 0.16336152 0.04326261 0.07398791
0.042902462 0.115703255 -0.027754849 -0.03423655 -0.14234874 -0.06559325 -0.23032746 0.03185261
0.08443776 -0.03775124 -0.06548851 -0.18066399 0.09487077 0.25079003 -0.21098916 0.21417962
0.07558699 -0.018326644 0.24976979 0.08649474 -0.06735542 -0.20147115 0.02699718 -0.0762244
-0.17808272 -0.1261173 0.0060664425 0.09820988 0.23377728 0.11722673 0.020239236 -0.030881647
0.1190814 0.07509279 0.14384286 0.042028606 0.17044006 -0.032585002 0.15588076 -0.04553983
-0.077244975 -0.1051368 -0.12116647 0.13607837 0.03540392 0.09560306 0.057303037 -0.08767867
0.020912137 -0.003043539 -0.11927553 0.057997964 -0.1506342 0.025862105 0.16385028 -0.15817192
0.023738889 -0.15180351 -0.1272977 -0.084624015 0.01506999 0.070619136 -0.008922087 -0.11813431
00000000: 0619 adbc 2999 76be ab51 453d 3261 a6be
00000010: 30e2 903d 0257 be3d 36cf 57bd a9e9 e0bd
00000020: c7cf ddbd 8d18 923d e5b0 13be b8d5 bb3d
00000030: 1468 7d3c 043a 9a3d 67f3 01bd 94ad 283d
00000040: d49a f33c e72a cfbd 6b82 3cbd e719 89bd
00000050: 9086 10be 0d43 193d 66b4 f4bd 1268 253e
00000060: 95c2 df3d 95e8 cdbd 521d e43d 9273 b23c
00000070: cd21 16be 6457 69bd 3433 403d 8a31 523e
00000080: 8051 143e 313b 863d 5f0e e83c b21e e73d
00000090: 3bd7 11bd e206 603d 7e25 c7bc a9eb fb3d
000000a0: f342 b0ba 4f51 91bd e2c0 d2bb 800c c33d
000000b0: 554a dd3c 8f6c c1bd 6444 b83c 6a6b 34be
000000c0: 4584 cbbc 5c1e 313c 7d91 763d 05d7 27be
000000d0: 2bc4 59bc 3dd2 0f3d 90a6 303d 0ae6 a2bd
000000e0: fcce f63d 831c ffbd 5d0b 54be 09d6 fcbc
000000f0: 1d1f 9abd 408c c2bd 0966 a53d fe27 5c3d
00000100: 2f9b c6b9 3a14 b4bd 46c4 48bd 0ad5 0b3d
00000110: b1a0 7bbe 0acd 9c3d c2cf eb3d b613 5f3c
00000120: 2c78 e9bd 6cff 8cbd b954 19be b865 e5bc
00000130: 631c 00be 305d 203d 9a67 a5bc 9d55 463e
00000140: a785 94bd 6094 113c eecb 383e 468d 3d3e
00000150: f6c1 0f3e 4816 1d3e 2773 e5bc 8500 543d
00000160: 2c7b 893d d71c 5c3e 82ef f8bd bd4f df3c
00000170: 2cf0 ca3d 9655 cf3d b3ed 4b3c 5039 ccbc
00000180: c973 09bd 13b2 7a3d 8cde 003d f9d6 a0bd
00000190: 6675 0cbe 5016 9fbc 1b6e c6bb 0d78 c13a
000001a0: e589 c4bd 331d 583c 6642 37be a1c5 d23d
000001b0: 35a6 c23c b2b4 d4bc 4074 c93d 858c c2bd
000001c0: 017a c2bd e396 9cbe c861 4ebd bffc e8bd
000001d0: 5ea5 75bd 1373 ef3d c69b 843e a016 03be
000001e0: 7f3c 99bc ae42 6b3e e88d c2bc 709c 603c
000001f0: 229b 14be 0776 123e 3c72 28be 2926 bb3d
00000200: c55b f73d ead4 bc3d 359e ae3d 4754 c6bd
00000210: 7a8e b4bd 95c4 593d 86bc 99be 02cd 8c3b
00000220: 0f4d 21be 86dc 67be fa0e 933d bde0 1fbe
00000230: 9111 7dbe 693d c9bc 9784 79be 2b05 443c
00000240: 0fb5 e6bd 012c 62bd 747b 4d3d 5a9d 223e
00000250: 3f1b 14bd ed55 cd3c 0b33 11bc 733e 80bb
00000260: 9e82 35be 672d 13be e95e d7bd b838 943e
00000270: 1ec2 96bd ed2b 673c 2eb6 39bd 1a27 243d
00000280: c837 febd 5ba6 763d 170b 3fbd ddde 0ebe
00000290: 38d0 2e3c 95c4 8fbd 0cda 4f3d 0860 143d
000002a0: 2bcc a93d 3137 bcbd 3a79 0ebe 6127 173d
000002b0: 1d1f 8ebd b8c3 563b 7ca2 9f3d 7242 27be
000002c0: 8797 953e 48ce 23be 878c 5c3e 1bed 89bd
000002d0: 7612 00bd 2b1f fc3d 0fb6 80bd b0b7 f03c
000002e0: 2123 403d 29d5 1a3e 3269 703d 8074 f0bd
000002f0: dc28 b4bd 3e48 273e 2234 313d f986 973d
00000300: 7eba 2f3d d4f5 ec3d 235e e3bc a03b 0cbd
00000310: dec3 11be c155 86bd f6da 6bbe e277 023d
00000320: b4ed ac3d 0ba1 1abd d71e 86bd fbff 38be
00000330: 9b4b c23d 8d67 803e 8b0d 58be e751 5b3e
00000340: 5acd 9a3d c221 96bc a7c3 7f3e 2724 b13d
00000350: a3f1 89bd 744e 4ebe 3129 dd3c 8a1b 9cbd
00000360: 515b 36be e524 01be 02c9 c63b 4322 c93d
00000370: 5063 6f3e 9114 f03d c1cc a53c 82fb fcbc
00000380: f3e0 f33d 40ca 993d 8b4b 133e 3026 2c3d
00000390: d787 2e3e da77 05bd 359f 1f3e f987 3abd
000003a0: 9d32 9ebd f651 d7bd 2026 f8bd 2158 0b3e
000003b0: b303 113d 8acb c33d 97b6 6a3d e090 b3bd
000003c0: ee4f ab3c 1c76 47bb bb46 f4bd 468f 6d3d
000003d0: da3f 1abe c4dc d33c 5ec8 273e d2f7 21be
000003e0: 0f78 c23c 6172 1bbe 545a 02be 5b4f adbd
000003f0: 1fe8 763c c4a0 903d f22d 12bc 67f0 f1bd

conv1.bias f4 [64]
-0.2666117 -0.07076472 -0.14926904 -0.2293773 -0.07593639 -0.064708985 -0.09327675 0.03716609
-0.05982029 -0.16573694 -0.18933739 -0.21248263 -0.028682556 -0.18989652 -0.031085577 -0.15584938
-0.14198732 -0.059969403 -0.13715628 -0.13207531 -0.11207031 -0.1471866 0.11685435 -0.057274994
-0.094972365 -0.12805606 0.024235722 -0.15566537 -0.026465116 -0.1354875 -0.1487165 -0.05007563
-0.06382376 -0.19980223 0.013025913 -0.06947055 -0.059640165 -0.1032377 -0.23508161 -0.135196
-0.10705345 -0.16959885 -0.19965774 -0.07994204 -0.03200346 0.119568124 0.08780885 -0.11192458
-0.1951223 -0.11052237 -0.24204464 0.0639141 -0.12456507 -0.13136028 -0.073591396 -0.053653628
-0.11763978 0.07206095 -0.016121266 -0.090637006 0.0065440116 -0.015183202 -0.13281241 -0.15066223
00000000: 5481 88be 18ed 90bd fcd9 18be e2e1 6abe
00000010: 8a84 9bbd 2586 84bd e107 bfbd 783b 183d
00000020: 1f06 75bd f2b6 29be a9e1 41be 0c95 59be
00000030: aef7 eabc 3c74 42be 2ea7 febc fb96 1fbe
00000040: 2065 11be 7aa2 75bd b272 0cbe c03e 07be
00000050: 1e85 e5bd 16b8 16be 5551 ef3d 2f99 6abd
00000060: df80 c2bd 2121 03be fe89 c63c be66 1fbe
00000070: 5fcd d8bc 3cbd 0abe 2349 18be 1b1c 4dbd
00000080: 08b6 82bd f598 4cbe a46a 553c 9346 8ebd
00000090: 3f49 74bd 4a6e d3bd 3cb9 70be d270 0abe
000000a0: d73e dbbd 52ab 2dbe 1473 4cbe a7b8 a3bd
000000b0: 0f16 03bd 22e0 f43d 20d5 b33d b738 e5bd
000000c0: 24ce 47be 8d59 e2bd 8dda 77be 65e5 823d
000000d0: f91b ffbd 4f83 06be 16b7 96bd e8c3 5bbd
000000e0: 20ed f0bd b194 933d bf10 84bc e59f b9bd
000000f0: 266f d63b f7c2 78bc faff 07be 3347 1abe

conv2.weight f4 [64, 64, 3]
-0.29856738 -0.059062563 -0.053204946 -0.20372538 -0.08285893 -0.048340593 -0.10210977 0.057726406
-0.14302403 -0.4341788 -0.06822861 0.06257324 0.1109695 -0.09675569 -0.049931977 0.07417401
-0.05927799 0.01632159 0.112523556 -0.012242469 -0.052752204 -0.20929936 -0.078186005 0.05008397
-0.2317428 0.15337627 0.13881059 0.122260705 -0.09036869 -0.031057611 -0.13772385 0.17514616
0.18099052 -0.090351336 0.14506298 -0.046781298 0.08405543 0.064972505 0.031334493 -0.1102468
-0.15754756 -0.045408197 0.010807986 -0.03327645 -0.15853833 0.23817822 0.046616185 -0.04063746
-0.011848881 -0.056335658 0.10883566 0.04278615 -0.033870198 0.07379565 0.028951533 0.11933488
0.10684002 0.16237354 -0.08670277 -0.008606744 -0.06335252 0.035629172 -0.15119651 -0.045722753
0.06940127 0.06843772 0.00421261 0.012237351 -0.017344702 -0.105364345 -0.07786382 -0.13897595
0.17030977 -0.12165767 -0.15804859 0.022647865 0.12781537 0.108958066 0.10610144 -0.15321119
-0.07540609 -0.019130573 0.076473735 0.082086265 -0.25923178 -0.1395053 -0.13084114 0.24521402
-0.06307803 -0.009514317 -0.018984927 -0.060640916 -0.11338675 -0.08787034 -0.10188912 -0.01727246
-0.11404677 -0.14529209 0.051675502 -0.03244459 0.02922235 -0.033987623 0.25934047 -0.07784054
0.11180682 0.20612879 -0.07361978 0.11850131 0.14640835 -0.097067915 -0.12015495 -0.3812388
0.01568077 0.045360085 0.31860518 -0.036369104 0.1454506 -0.16478437 0.03236437 -0.028246682
-0.20194739 0.044037472 0.16838938 -0.14275512 -0.028093554 0.0006770203 0.12679036 0.11400335
-0.0008141762 0.024017321 0.010512868 -0.008559446 0.041103575 -0.028625447 0.08925717 0.19193329
-0.05573055 -0.06642707 0.08159195 -0.060063925 0.105944194 0.039832458 0.05019757 0.113924176
0.042244114 -0.09233449 -0.082944654 0.002880974 -0.025694273 0.0046545146 0.033074725 0.08089798
0.011462844 -0.33335593 0.016534986 0.06913612 -0.13407925 0.037324518 -0.043202065 -0.08658412
-0.08398905 0.13709274 -0.0058180746 0.14053236 -0.057139516 0.09597021 0.014490677 0.032414623
0.08125941 -0.06710949 -0.16333993 -0.19979076 0.26702347 0.066117115 0.12636368 -0.19371015
0.13099402 -0.1343825 -0.051848788 -0.044084065 0.14889783 -0.09433458 0.08468639 -0.0035412977
0.04158431 -0.021869052 0.063332595 0.041502807 -0.11291071 0.09298328 0.0007238287 0.03473667
-0.051029436 0.15087262 0.015729444 -0.27444258 -0.033633705 -0.37076268 -0.034393642 -0.05055042
0.30801737 -0.26323065 0.08616661 -0.18998106 0.040906105 0.05388469 -0.2874843 -0.047545895
-0.0040516336 0.23626165 0.27433696 -0.07602998 0.021258216 -0.14965968 0.09272304 0.09145796
-0.029449927 0.015483994 -0.031301916 -0.19303735 -0.04383205 -0.0749399 -0.1379422 -0.10198668
0.032994296 -0.29188842 -0.14331281 -0.08065636 0.036138665 0.12046733 0.08746071 0.15154134
0.081858166 -0.30275977 0.104295395 0.06657508 0.07968279 0.21722785 0.14313518 0.19412896
-0.09292808 0.053055502 -0.040003527 0.15184267 0.05776352 0.05886951 0.016457697 0.0999613
0.07248972 0.2386459 0.28183883 0.20552142 0.11628338 -0.090664744 -0.036554553 -0.16829993
00000000: d3dd 98be 96eb 71bd 6eed 59bd 639d 50be
00000010: f1b1 a9bd c900 46bd ed1e d1bd 8672 6c3d
00000020: e474 12be af4c debe 71bb 8bbd 6626 803d
00000030: fa43 e33d d927 c6bd 7985 4cbd 8be8 973d
00000040: 7acd 72bd dbb4 853c c072 e63d a394 48bc
00000050: b212 58bd 9252 56be fc1f a0bd d924 4d3d
00000060: fc4d 6dbe ab0e 1d3e 5d24 0e3e d263 fa3d
00000070: 3813 b9bd 886c febc 7b07 0dbe 8459 333e
00000080: 9455 393e 1f0a b9bd 648b 143e bf9d 3fbd
00000090: 4125 ac3d 4e10 853d 9958 003d 13c9 e1bd
000000a0: 2654 21be f2fd 39bd fb13 313c e34c 08bd
000000b0: df57 22be fee4 733e 9df0 3e3d 7773 26bd
000000c0: cf21 42bc 38c0 66bd 3be5 de3d 8840 2f3d
000000d0: 7abb 0abd 2c22 973d c42b ed3c d865 f43d
000000e0: f1ce da3d 4045 263e 3991 b1bd 4d03 0dbc
000000f0: f7be 81bd e5ef 113d 42d3 1abe c847 3bbd
00000100: 4122 8e3d 1329 8c3d ef09 8a3b 2c7f 483c
00000110: 7a16 8ebc 43c9 d7bd 1177 9fbd b64f 0ebe
00000120: af65 2e3e a827 f9bd 7dd7 21be 0488 b93c
00000130: 08e2 023e 6825 df3d b64b d93d 65e3 1cbe
00000140: 826e 9abd b8b7 9cbc 439e 9c3d d81c a83d
00000150: 07ba 84be 7ada 0ebe 38fb 05be 6219 7b3e
00000160: 0e2f 81bd f0e1 1bbc 4786 9bbc 9c62 78bd
00000170: 5037 e8bd 5df5 b3bd 3eab d0bd f97e 8dbc
00000180: 5a91 e9bd 73c7 14be b1a9 533d 9ee4 04bd
00000190: b663 ef3c 9b36 0bbd 46c8 843e dc6a 9fbd
000001a0: f9fa e43d 6d13 533e f8c5 96bd d1b0 f23d
000001b0: 12ec 153e 8bcb c6bd cc13 f6bd bb31 c3be
000001c0: f574 803c 7fcb 393d 3820 a33e c5f7 14bd
000001d0: 01f1 143e 3cbd 28be 8090 043d 9665 e7bc
000001e0: 4ccb 4ebe a360 343d 446e 2c3e 662e 12be
000001f0: 7424 e6bc 107a 313a 55d5 013e 977a e93d
00000200: 716e 55ba f9bf c43c 2a3e 2c3c eb3c 0cbc
00000210: 395c 283d ea7f eabc 77cc b63d 298a 443e
00000220: b845 64bd ea0a 88bd ae19 a73d 9705 76bd
00000230: 45f9 d83d 5c27 233d f89b 4d3d 1451 e93d
00000240: 2a08 2d3d dd19 bdbd e3de a9bd b9ce 3c3b
00000250: cc7c d2bc e684 983b 5d79 073d d7ad a53d
00000260: a7ce 3b3c a1ad aabe 6174 873c 3d97 8d3d
00000270: 124c 09be 98e1 183d a6f4 30bd 0453 b1bd
00000280: 7302 acbd 0a62 0c3e 8ca5 bebb b7e7 0f3e
00000290: 200b 6abd 088c c43d 4e6a 6d3c 32c5 043d
000002a0: 556b a63d b370 89bd 9542 27be f395 4cbe
000002b0: 4db7 883e 6968 873d 7b65 013e f45b 46be
000002c0: 4c23 063e 919b 09be 655f 54bd 7e91 34bd
000002d0: ac78 183e 7d32 c1bd 0f70 ad3d 1e15 68bb
000002e0: 4f54 2a3d ba26 b3bc 85b4 813d d9fe 293d
000002f0: bb3d e7bd 056e be3d 52bf 3d3a 0a48 0e3d
00000300: 3e04 51bd 5a7e 1a3e 09db 803c bd83 8cbe
00000310: 7fc3 09bd 9bd4 bdbe 59e0 0cbd f50d 4fbd
00000320: 74b4 9d3e 2bc6 86be 1f78 b03d 658a 42be
00000330: 298d 273d 31b6 5c3d 2431 93be 7cbf 42bd
00000340: 91c3 84bb 93ee 713e e575 8c3e 9bb5 9bbd
00000350: b625 ae3c 6340 19be 94e5 bd3d 504e bb3d
00000360: f940 f1bc 94b0 7d3c 7036 00bd 95ab 45be
00000370: 3c89 33bd 177a 99bd b840 0dbe 64de d0bd
00000380: 0725 073d 6672 95be 98c0 12be 292f a5bd
00000390: 2306 143d 93b7 f63d 9a1e b33d a72d 1b3e
000003a0: 41a5 a73d 5403 9bbe d398 d53d 8458 883d
000003b0: bb30 a33d fa70 5e3e 0792 123e bec9 463e
000003c0: 1451 bebd ba50 593d bdda 23bd a57c 1b3e
000003d0: 7199 6c3d 2821 713d 4bd2 863c 83b8 cc3d
000003e0: 7e75 943d 975f 743e 2e4d 903e 3574 523e
000003f0: fb25 ee3d 70ae b9bd 3aba 15bd d156 2cbe

conv2.bias f4 [64]
-0.16787162 0.080659606 -0.1308763 0.067478575 -0.13166218 -0.0110421255 -0.12336149 -0.14332102
-0.10352869 -0.18952902 -0.07586941 -0.25962403 -0.008214094 0.020066483 -0.21190745 0.0434898
-0.116273485 -0.10823723 -0.08940048 -0.16056207 0.14033493 0.211438 -0.0025895408 -0.089241944
-0.020990409 -0.015034706 -0.19826663 0.0041877003 -0.024298478 -0.14271335 -0.114142194 0.020410934
-0.018832082 -0.029745802 -0.12806727 -0.12161568 -0.10185931 -0.087081805 -0.18637234 -0.078274816
-0.15517783 0.13994257 -0.030766813 0.027911564 -0.21951583 -0.0991354 -0.07544363 -0.07963985
-0.015867861 -0.13443415 -0.14223945 -0.21161436 -0.05821503 -0.18886094 0.12648337 -0.10306857
-0.04349783 -0.1594453 -0.16285878 -0.12317223 -0.115034446 0.027295433 -0.061012182 0.031158851
00000000: 8ae6 2bbe dd30 a53d 7004 06be 3532 8a3d
00000010: 73d2 06be 08ea 34bc f3a4 fcbd bfc2 12be
00000020: da06 d4bd e513 42be 6c61 9bbd 71ed 84be
00000030: 6894 06bc 7762 a43c 44fe 58be 5c22 323d
00000040: cb20 eebd 7bab ddbd 9917 b7bd 626a 24be
00000050: f6b3 0f3e 3483 583e 49b5 29bb 7bc4 b6bd
00000060: 14f4 abbc 2154 76bc 6806 4bbe fa38 893b
00000070: 9a0d c7bc 7323 12be 62c3 e9bd d534 a73c
00000080: bd45 9abc 78ad f3bc 1124 03be a411 f9bd
00000090: 9d9b d0bd f257 b2bd 64d8 3ebe 8c4e a0bd
000000a0: f0e6 1ebe 1b4d 0f3e af0a fcbc cba6 e43c
000000b0: c2c8 60be 8007 cbbd 3182 9abd 381a a3bd
000000c0: 51fd 81bc 1ba9 09be 38a7 11be 6fb1 58be
000000d0: e272 6ebd c364 41be db84 013e 9d15 d3bd
000000e0: c82a 32bd a145 23be 74c4 26be b941 fcbd
000000f0: 2e97 ebbd ac9a df3c e9e7 79bd d940 ff3c

conv3.weight f4 [256, 128, 5]
0.040307082 -0.09346812 0.17679189 0.0145905465 0.08882437 -0.051370665 -0.06063206 -0.008772375
0.10847036 -0.064191766 -0.007351924 -0.10805724 -0.03217141 0.07101151 0.01890875 -0.09529773
-0.035192296 0.06341023 0.07039291 -0.12913914 0.118583 -0.058336727 -0.07365986 0.11295878
-0.010108876 -0.038601764 0.03858616 0.06311899 -0.035332818 0.086839855 -0.16038433 -0.15996903
0.03606373 -0.081349835 -0.06506604 -0.032240253 0.021697257 -0.0020120025 0.03164456 -0.06461178
0.060988955 0.043208133 -0.1566908 0.040340926 -0.11215087 -0.05378621 0.09271446 -0.08437389
0.03968543 -0.006319237 0.01445622 0.055716656 -0.078361765 -0.0033217976 0.07492162 -0.05637486
-0.08948114 0.011014649 0.05115171 0.058649674 -0.071465135 -0.011487798 0.0054620057 -0.061834116
-0.022645807 -0.06993879 0.0069456194 0.04216498 0.004795842 0.024742687 -0.144986 0.015790295
-0.0059857555 0.02149281 -0.04983536 0.0541474 0.013354784 -0.12093216 -0.07836335 0.058959108
0.084121384 -0.02298308 -0.15071073 -0.09932124 0.1196573 0.06291947 -0.055861928 -0.06264862
-0.0029442082 -0.03178285 -0.061199185 -0.027000682 -0.0921581 0.062447194 -0.06526714 0.030803682
-0.18917646 0.15744996 -0.0026148998 0.040048826 -0.26907647 0.04475513 0.020283684 0.04856873
0.0025800318 -0.03246982 -0.026822962 0.058359463 0.08223687 -0.014607107 -0.010843996 0.06473612
0.007282898 -0.046564292 0.026129747 0.014391402 -0.07208599 0.0993665 0.017353004 0.085605815
-0.14255169 -0.12509374 -0.009584965 0.11232763 0.101276055 0.038758602 -0.0061467704 -0.011661698
-0.05614951 0.084113814 0.0026258747 -0.0015012956 0.092945 -0.17745982 0.05770958 -0.15134943
0.022439305 0.08803189 -0.14292268 -0.14220248 -0.029297011 -0.046023406 -0.18727893 -0.023566762
-0.015927736 -0.14142182 -0.040219944 0.062391255 0.23331314 0.01748839 -0.023557056 -0.078331836
0.13053381 -0.043930747 -0.052984733 -0.07329743 0.14277478 -0.1286143 -0.058867816 -0.007426546
-0.06995671 -0.13100894 0.020267075 -0.073374756 -0.01567263 -0.021086443 0.059165195 -0.15963037
-0.15328912 0.08149157 0.048974708 -0.045240916 -0.06072572 -0.114129975 0.0919646 -0.007670875
-0.13674818 -0.11421388 0.04804087 -0.23487924 -0.022706185 -0.19573185 -0.011371088 -0.06180027
0.0005026056 -0.18940991 0.071850844 -0.12047744 0.07526527 0.08661555 -0.002439168 0.04608641
0.01884641 0.043751895 0.06857622 0.044910308 -0.15573174 0.10944506 -0.03463386 0.018830964
-0.009589379 0.123689406 -0.033402797 -0.057334937 0.014676552 0.14556877 -0.010769311 -0.061330866
-0.08213322 0.04381564 -0.05010669 0.039745018 0.07625415 -0.058105387 -0.025659312 0.02498838
0.15346672 -0.15608323 0.09170867 0.0044554183 -0.020818384 0.023586972 0.026847428 0.029697444
0.14082322 -0.10221316 -0.02867753 -0.006592488 -0.05543223 -0.06014911 0.028023116 -0.23627782
-0.18397789 -0.05101016 0.09195562 -0.1390313 0.005494151 -0.023531739 -0.049259387 -0.020121079
0.06944914 -0.03679265 -0.14371035 -0.032574046 -0.068086304 0.11207831 -0.010547444 0.014835989
-0.13175061 0.0116113275 -0.0060207634 -0.05730127 0.01771917 0.06982029 -0.11513519 -0.038359072
00000000: 0a19 253d 376c bfbd ef08 353e 300d 6f3c
00000010: 8de9 b53d 0c6a 52bd 5359 78bd 02ba 0fbc
00000020: b525 de3d f976 83bd 69e8 f0bb 1d4d ddbd
00000030: 2bc6 03bd 7c6e 913d 86e6 9a3c 752b c3bd
00000040: cc25 10bd 39dd 813d 282a 903d 0d3d 04be
00000050: a5db f23d 7ef2 6ebd fbda 96bd ef56 e73d
00000060: b39f 25bc e21c 1ebd 850c 1e3d 8744 813d
00000070: 25b9 10bd 18d9 b13d ca3b 24be ecce 23be
00000080: 90b7 133d be9a a6bd 5841 85bd 5b0e 04bd
00000090: 72be b13c cddb 03bb ba9d 013d 2e53 84bd
000000a0: 8ecf 793d 03fb 303d 8e73 20be 873c 253d
000000b0: 5baf e5bd ee4e 5cbd 14e1 bd3d 38cc acbd
000000c0: 308d 223d 9a11 cfbb c8d9 6c3c 2637 643d
000000d0: 227c a0bd 84b2 59bb 8270 993d 53e9 66bd
000000e0: e341 b7bd c976 343c 7584 513d a43a 703d
000000f0: 505c 92bd 5137 3cbc a0fa b23b c545 7dbd
00000100: b383 b9bc 113c 8fbd 1498 e33b 30b5 2c3d
00000110: 7026 9d3b 2db1 ca3c 3677 14be a65a 813c
00000120: 2824 c4bb b111 b03c 2a20 4cbd aac9 5d3d
00000130: 06ce 5a3c 48ab f7bd f77c a0bd 1b7f 713d
00000140: d547 ac3d 0347 bcbc ea53 1abe ef68 cbbd
00000150: e30e f53d ecdb 803d 7acf 64bd eb4d 80bd
00000160: 9ef3 40bb bc2e 02bd ffab 7abd 8930 ddbc
00000170: 63bd bcbd a1c8 7f3d c7aa 85bd 0158 fc3c
00000180: 79b7 41be 903a 213e bd5e 2bbb 3d0a 243d
00000190: 64c4 89be 2851 373d f829 a63c 01f0 463d
000001a0: c015 293b 13ff 04bd d4bb dbbc 550a 6f3d
000001b0: ce6b a83d a652 6fbc 04ab 31bc 5f94 843d
000001c0: 60a5 ee3b 33ba 3ebd 0d0e d63c eac9 6b3c
000001d0: d2a1 93bd aa80 cb3d e327 8e3c 1a52 af3d
000001e0: 12f9 11be 9318 00be 420a 1dbc 070c e63d
000001f0: d269 cf3d 57c1 1e3d d96a c9bb b510 3fbc
00000200: 07fd 65bd dd43 ac3d de16 2c3b 1fc7 c4ba
00000210: f359 be3d 07b8 35be e160 6c3d 58fb 1abe
00000220: a2d2 b73c 104a b43d 535a 12be 879d 11be
00000230: 4900 f0bc 0a83 3cbd 0cc6 3fbe 150f c1bc
00000240: e27a 82bc e2d0 10be abbd 24bd f98d 7f3d
00000250: a4e9 6e3e d043 8f3c bafa c0bc 716c a0bd
00000260: a8aa 053e baf0 33bd 8506 59bd f71c 96bd
00000270: 8d33 123e 78b3 03be 611f 71bd 625a f3bb
00000280: 7745 8fbd 3527 06be 2307 a63c 8145 96bd
00000290: e363 80bc 7abd acbc 3457 723d 2576 23be
000002a0: d3f7 1cbe 0de5 a63d b499 483d 8a4e 39bd
000002b0: 88bb 78bd fabc e9bd f057 bc3d f75b fbbb
000002c0: b707 0cbe f7e8 e9bd 81c6 443d 2f84 70be
000002d0: 5202 babc ee6d 48be cd4d 3abc 4822 7dbd
000002e0: 4ac1 033a acf4 41be 8926 933d e0bc f6bd
000002f0: ae24 9a3d 7e63 b13d 73da 1fbb 1ac5 3c3d
00000300: c963 9a3c 3035 333d b071 8c3d dff3 373d
00000310: 2478 1fbe bb24 e03d 3cdc 0dbd 6543 9a3c
00000320: c51c 1dbc df50 fd3d 5fd1 08bd 0ad8 6abd
00000330: ec75 703c fb0f 153e c471 30bc 1336 7bbd
00000340: 7635 a8bd 0778 333d ac3c 4dbd accb 223d
00000350: 232b 9c3d eaff 6dbd 7a33 d2bc 6eb4 cc3c
00000360: 6126 1d3e 48d4 1fbe c1d1 bb3d c2fe 913b
00000370: 518b aabc 7739 c13c 23ef db3c 0e48 f33c
00000380: f633 103e 2255 d1bd 24ed eabc cc05 d8bb
00000390: e80c 63bd ea5e 76bd bc90 e53c d0f2 71be
000003a0: b364 3cbe 08f0 50bd 3a53 bc3d 395e 0ebe
000003b0: 4708 b43b a2c5 c0bc 36c4 49bd f6d4 a4bc
000003c0: 5a3b 8e3d e4b3 16bd ce28 13be 5d6c 05bd
000003d0: d570 8bbd 5089 e53d 30cf 2cbc a612 733c
000003e0: a2e9 06be 703d 3e3c d349 c5bb bdb4 6abd
000003f0: cb27 913c f1fd 8e3d 00cc ebbd 671e 1dbd

conv3.bias f4 [256]
-0.0404577 -0.030796599 -0.107736446 0.11540944 -0.022178309 -0.03793123 -0.038597308 -0.0106406985
0.054816272 -0.09050049 -0.04562067 -0.05249175 -0.14704947 -0.009143917 -0.04637293 -0.031659834
0.03258682 -0.11572593 -0.04266754 0.051538248 -0.09127355 -0.04541057 0.14589036 -0.013981918
0.010815864 -0.036469176 0.027762562 -0.019212946 0.012351863 -0.044511832 -0.04545858 -0.042033613
0.020291412 -0.033298098 -0.060030296 0.042810544 -0.033000596 0.0037745526 -0.017171303 0.022989733
-0.06368187 0.021404611 0.029716175 0.13760619 -0.05659395 0.07913478 -0.05656166 -0.0034896354
-0.13148561 0.014426335 0.006868813 0.0015277793 0.043642446 0.11870911 -0.0014477428 0.037645485
-0.03530726 0.07285315 0.025066715 -0.11785002 -0.08846991 -0.047540605 -0.0075931195 0.008728023
-0.043493796 -0.023102982 -0.052099142 0.0508399 -0.06860479 0.007864172 0.10742686 -0.09766199
-0.012009128 -0.04015712 -0.00034741953 0.02955634 0.010309884 -0.029458735 -0.01647319 0.023752794
-0.065982826 0.019532131 -0.050038107 -0.056660447 -0.051952187 -0.020428834 -0.01851343 0.014960471
-0.027284415 -0.017665245 0.0019285398 -0.034497388 -0.03338404 0.020918608 0.0018931167 -0.16560876
-0.060937352 -0.04743387 0.008966735 -0.028652536 0.028775 -0.030669808 -0.025347712 0.0010457605
0.05570153 0.023250578 -0.045213144 -0.016169516 -0.05750643 -0.087990396 -0.087634146 0.019626569
0.013734896 -0.01247401 -0.10344421 -0.046261106 0.0024778198 0.004925684 -0.09170555 -0.005806885
0.035228215 -0.035273597 -0.036910005 -0.00962566 -0.018634297 -0.08580867 0.02295234 -0.012341419
0.0011710067 -0.035565145 -0.005657791 0.007660756 0.026994051 -0.053653967 0.027610775 -0.06442245
0.041806765 -0.04009851 0.019041108 0.0057653426 0.003212437 -0.021477384 -0.04708458 0.02264098
0.01889357 0.07666649 -0.06761962 -0.01581169 -0.0020360863 0.08528189 -0.03678649 -0.012591819
0.00020141208 -0.02657753 0.029412957 -0.02248539 -0.019063061 -0.061926126 0.014317552 -0.016834795
0.025479143 -0.036016867 0.023900157 -0.034749735 0.10716578 0.0023911956 0.012253112 -0.02153103
0.04620606 0.16909927 -0.083591394 0.013812693 -0.099931516 -0.05734776 0.03735868 0.02404089
-0.09001551 0.023845084 0.01161051 -0.009352516 -0.046142228 -0.0062403795 -0.01195621 -0.06865355
-0.024158806 -0.014715774 0.022807948 0.0007529007 -0.111568734 -0.07414841 0.058455583 -0.043369234
-0.0037002845 -0.098227926 0.051229104 0.029590579 0.029643496 0.0020072039 -0.0033038745 -0.046663314
-0.012893607 0.02674228 -0.0014066177 -0.017366936 0.07477769 -0.042660214 -0.116756715 -0.02914918
0.040565547 0.047195666 -0.059855532 0.007550993 0.104615234 -0.12863845 -0.04144711 0.016722512
0.007662614 -0.03564245 -0.022130469 -0.008211566 -0.047975443 -0.005907584 0.08138672 -0.12813956
0.040695135 0.010721716 -0.01523929 -0.03985943 -0.099431716 0.0025128685 -0.036854044 0.08449902
-0.0612045 0.0075012506 0.10893605 0.010589092 -0.06624228 0.007571102 -0.010865021 -0.013211196
-0.018238828 0.026653986 -0.024212684 -0.006552373 -0.023776498 0.02399407 0.07334586 -0.0178813
-0.0681381 -0.03400858 -0.05030019 -0.08153904 0.00047914608 -0.047459666 0.00955326 0.01164185
00000000: f9b6 25bd 2649 fcbc eda4 dcbd c95b ec3d
00000010: 49af b5bc c75d 1bbd 3618 1ebd 5356 2ebc
00000020: 0787 603d 5258 b9bd bddc 3abd 9701 57bd
00000030: 2394 16be 5ed0 15bc 8bf1 3dbd bead 01bd
00000040: c279 053d b701 edbd 29c4 2ebd c519 533d
00000050: a1ed babd 6f00 3abd 4864 153e 6a14 65bc
00000060: 0635 313c b460 15bd 506e e33c 7864 9dbc
00000070: 785f 4a3c 0a52 36bd c732 3abd 702b 2cbd
00000080: 2d3a a63c 9663 08bd 54e2 75bd 1c5a 2f3d
00000090: a22b 07bd 7c5e 773b d5aa 8cbc f754 bc3c
000000a0: a46b 82bd b958 af3c 566f f33c a3e8 0c3e
000000b0: 0fcf 67bd 6a11 a23d 33ad 67bd 5eb2 64bb
000000c0: 2aa4 06be 6f5c 6c3c c813 e13b c43f c83a
000000d0: 6cc2 323d c31d f33d 30c2 bdba 2732 1a3d
000000e0: 589e 10bd 0834 953d b658 cd3c 5a5b f1bd
000000f0: b62f b5bd f0b9 42bd b4cf f8bb fbff 0e3c
00000100: 8d26 32bd 7742 bdbc e965 55bd 803d 503d
00000110: ab80 8cbd bad8 003c 9d02 dc3d 0203 c8bd
00000120: efc1 44bc cb7b 24bd dc25 b6b9 2320 f23c
00000130: caea 283c 7253 f1bc c9f2 86bc 3895 c23c
00000140: 0122 87bd d901 a03c c2f4 4cbd c914 68bd
00000150: d1cb 54bd 5f5a a7bc 7aa9 97bc c31c 753c
00000160: 9183 dfbc b4b6 90bc 0fc7 fc3a 224d 0dbd
00000170: b4bd 08bd 805d ab3c 7522 f83a 5895 29be
00000180: 7299 79bd 054a 42bd 36e9 123c b9b8 eabc
00000190: 8cb9 eb3c 403f fbbc 01a6 cfbc e611 893a
000001a0: 4a27 643d ff77 be3c 6b31 39bd ef75 84bc
000001b0: dd8b 6bbd 4f34 b4bd 8879 b3bd e6c7 a03c
000001c0: 5408 613c ca5f 4cbc 8fda d3bd 497c 3dbd
000001d0: eb62 223b a267 a13b 1fd0 bbbd af47 bebb
000001e0: 764b 103d 0c7b 10bd f22e 17bd f2b4 1dbc
000001f0: f4a6 98bc 75bc afbd 8c06 bc3c aa33 4abc
00000200: 777c 993a c2ac 11bd fe64 b9bb 1407 fb3b
00000210: a122 dd3c 43c4 5bbd fe2f e23c ebef 83bd
00000220: 923d 2b3d 563e 24bd 19fc 9b3c 33eb bc3b
00000230: c087 523b 57f1 afbc c3db 40bd 9479 b93c
00000240: b0c6 9a3c 5203 9d3d 287c 8abd 8487 81bc
00000250: dc6f 05bb 46a8 ae3d 6ead 16bd eb4d 4ebc
00000260: 2532 5339 1fb9 d9bc 71f3 f03c 4833 b8bc
00000270: 232a 9cbc 40a6 7dbd 2a94 6a3c 20e9 89bc
00000280: a3b9 d03c 6c86 13bd 43ca c33c bd55 0ebd
00000290: bc79 db3d 9bb5 1c3b 47c1 483c d861 b0bc
000002a0: 9142 3d3d 5c28 2d3e f731 abbd a24e 623c
000002b0: e5a8 ccbd 7ce5 6abd 6a05 193d 67f1 c43c
000002c0: 0d5a b8bd c456 c33c 023a 3e3c 4c3b 19bc
000002d0: a2ff 3cbd 197c ccbb fbe3 43bc 3c9a 8cbd
000002e0: b0e8 c5bc 6e1a 71bc bcd7 ba3c 505e 453a
000002f0: 267e e4bd 1fdb 97bd 1f6f 6f3d f0a3 31bd
00000300: 7980 72bb b92b c9bd 9cd5 513d f167 f23c
00000310: ebd6 f23c 4b8b 033b d185 58bb 0822 3fbd
00000320: b53f 53bc a012 db3c 425e b8ba 1b45 8ebc
00000330: 0c25 993d 7abc 2ebd 251e efbd 43ca eebc
00000340: 0f28 263d 3e50 413d 132b 75bd 526e f73b
00000350: 8340 d63d ccb9 03be 72c4 29bd a6fd 883c
00000360: aa16 fb3b d1fd 11bd f54a b5bc ce89 06bc
00000370: e681 44bd 6894 c1bb 15ae a63d 0437 03be
00000380: f1af 263d 23aa 2f3c 37ae 79bc a443 23bd
00000390: dba2 cbbd f0ae 243b 44f4 16bd d20d ad3d
000003a0: 92b1 7abd 0dcd f53b dd19 df3d df7d 2d3c
000003b0: 08aa 87bd 0217 f83b 3303 32bc c673 58bc
000003c0: 9869 95bc 7659 da3c ae59 c6bc 4ab5 d6bb
000003d0: eec6 c2bc 368f c43c 5b36 963d ce7b 92bc
000003e0: fd8b 8bbd 954c 0bbd 9207 4ebd f1fd a6bd
000003f0: e635 fb39 1165 42bd 4785 1c3c 75bd 3e3c

fc.weight f4 [8, 256]
0.06027877 -0.037836686 0.018084522 0.07974951 -7.804366e-05 0.069657296 0.027536197 -0.05046001
0.087826185 -0.18810456 0.0058135497 -0.01759365 0.0177102 -0.025484147 0.0001832529 0.014434096
0.09913715 0.12010657 -0.031549364 0.08584269 0.001766865 -0.07233469 0.019323727 -0.057881482
-0.08433958 -0.06846281 -0.0022433307 -0.009571996 -0.03513009 0.04703582 -0.05127623 -0.017588953
0.008914894 -0.07827176 -0.00084459275 0.028025163 -0.0336631 -0.03455841 -0.0009579132 -0.0422877
-0.014473664 0.060749732 -0.023586717 0.11937939 0.086027205 0.028438678 -0.14316308 0.014719884
0.03158453 0.079394445 -0.0021696286 -0.029909492 -0.009410708 0.059580468 0.03451581 0.08492187
-0.2004301 0.106202826 -0.036804356 -0.076655 0.006258906 -0.14899337 -0.011410187 0.0067653786
0.002898331 0.051457994 -0.031105032 0.033905413 -0.03476231 0.07178507 0.0649131 -0.06455357
-0.022851042 -0.021439727 -0.032650925 -0.02986684 -0.0084324805 0.09342686 -0.03421374 -0.006587564
0.0739957 0.098118715 -0.12653299 0.00356501 -0.022994883 -0.0034011826 0.04505728 0.0030450488
-0.024250807 -0.040625237 0.07334354 -0.024200596 0.00018600379 0.05381334 -0.034546558 -0.10379833
-0.015423542 -0.048078064 -0.01451314 -0.052012403 -0.08952874 -0.08016833 -0.05032734 0.0061080037
0.09772596 0.005844584 0.0022681896 -0.0033095237 -0.07284515 -0.014075655 -0.17366602 -0.039615605
-0.15758292 0.10946261 -0.028100243 0.03661621 -0.04248322 -0.0021566378 0.06225531 0.05034943
-0.011553184 -0.005788253 -0.044705182 0.046346743 -0.05250354 0.01441757 0.054123662 -0.032622002
0.08814064 0.0069783945 -0.02149906 0.11842992 0.075544216 -0.037585758 0.09901276 -0.1555961
0.06438998 -0.041544277 0.011481015 -0.13797516 0.03464468 -0.0071252193 -0.02063471 0.031324983
0.00011399035 0.123239204 0.018584898 0.04910891 -0.04022362 0.08114748 0.0729344 -0.038856354
-0.023838473 0.041597012 0.081573844 0.026768163 0.07002331 -0.010642613 -0.051336724 0.024375003
-0.027802093 0.03653766 -0.038618527 0.0018956328 0.075956926 -0.075769454 0.06463991 -0.05023743
0.018701166 0.108120345 0.017002644 -0.06203149 -0.032669585 -0.013235471 0.15586978 -0.062122073
0.025049387 0.010163622 0.009616781 -0.016079262 -0.019068737 -0.013187679 -0.02723909 0.03860404
0.04026155 -0.017919263 -0.04709819 0.0023473077 0.009070193 -0.015253361 0.043803778 -0.031374663
0.047949024 -0.068417445 0.03708494 0.07870547 -0.042639323 -0.02941858 -0.07168733 0.028928928
0.029782686 -0.00054909656 0.06164221 0.061738245 0.096488796 0.04761236 -0.12617631 -0.03572178
-0.094087176 0.024537262 0.025315017 0.07797741 0.06460525 -0.01748626 -0.027712192 0.04385507
0.041941352 -0.0016175482 -0.033192534 0.07420106 -0.053489145 -0.034372117 0.09894344 -0.09426916
0.014280278 0.09418357 -0.0050946465 -0.0011850664 0.04334763 0.08506979 -0.046163056 0.07696276
0.057578266 -0.04832158 0.18634859 0.02448701 -0.070209876 -0.05696171 0.024971293 0.0033989118
-0.027418539 -0.0034153338 -0.048131105 -0.014391271 0.03499697 -0.030829472 0.07992824 0.034905836
-0.082626075 -0.07627001 0.01899893 0.028130224 0.014926142 -0.0047770366 0.068284586 0.015876414
00000000: dfe6 763d a4fa 1abd fe25 943c b653 a33d
00000010: 5fab a3b8 7ca8 8e3d 9793 e13c 28af 4ebd
00000020: 37de b33d 7b9e 40be 977f be3b 8f20 90bc
00000030: fb14 913c 21c4 d0bc 9327 4039 fd7c 6c3c
00000040: 6b08 cb3d 6ffa f53d e839 01bd 4bce af3d
00000050: 2796 e73a 3624 94bd cb4c 9e3c 2215 6dbd
00000060: 3bba acbd 3b36 8cbd d804 13bb dcd3 1cbc
00000070: 92e4 0fbd a2a8 403d 0607 52bd b516 90bc
00000080: c70f 123c f24c a0bd a967 5dba 0795 e53c
00000090: 52e2 09bd 1f8d 0dbd 771c 7bba de35 2dbd
000000a0: f222 6dbc b6d4 783d ee38 c1bc 2e7d f43d
000000b0: 082f b03d 3bf8 e83c 5899 12be ab2b 713c
000000c0: c85e 013d 8e99 a23d 5430 0ebb c004 f5bc
000000d0: 5f2f 1abc a60a 743d 7360 0d3d 84eb ad3d
000000e0: 8c3d 4dbe de80 d93d 2ac0 16bd 4cfd 9cbd
000000f0: 8217 cd3b b891 18be cbf1 3abc 1cb0 dd3b
00000100: edf1 3d3b 9ec5 523d fbcf febc 67e0 0a3d
00000110: ed62 0ebd 0d04 933d 29f1 843d a934 84bd
00000120: 1c32 bbbc 5ea2 afbc fabc 05bd 4eab f4bc
00000130: 6328 0abc 9556 bf3d b523 0cbd 7edc d7bb
00000140: 0f8b 973d 77f2 c83d dd91 01be f1a2 693b
00000150: c45f bcbc 60e6 5ebb fc8d 383d 718f 473b
00000160: a1a9 c6bc a666 26bd 2335 963d 5440 c6bc
00000170: 030a 4339 606b 5c3d b180 0dbd 3894 d4bd
00000180: 06b3 7cbc 81ed 44bd 85c8 6dbc f50a 55bd
00000190: d85a b7bd 4b2f a4bd 0a24 4ebd a625 c83b
000001a0: 8c24 c83d ed83 bf3b e8a5 143b 98e4 58bb
000001b0: d72f 95bd 939d 66bc 81d5 31be f943 22bd
000001c0: 6b5d 21be ef2d e03d 7b32 e6bc e1fa 153d
000001d0: e302 2ebd 6156 0dbb 6dff 7e3d 343b 4e3d
000001e0: 9149 3dbc 63ab bdbb c81c 37bd 15d6 3d3d
000001f0: f40d 57bd ac37 6c3c c6b0 5d3d a69e 05bd
00000200: 1483 b43d 04ab e43b cc1e b0bc 638b f23d
00000210: edb6 9a3d 86f3 19bd 34c7 ca3d 9654 1fbe
00000220: e5de 833d 552a 2abd de1a 3c3c 5c49 0dbe
00000230: 94e7 0d3d ac7a e9bb 200a a9bc a04e 003d
00000240: 1a0e ef38 d664 fc3d 5b3f 983c 6d26 493d
00000250: 86c1 24bd a630 a63d a15e 953d d727 1fbd
00000260: e748 c3bc a161 2a3d 3010 a73d e848 db3c
00000270: 6268 8f3d 5b5e 2ebc 7546 52bd 16ae c73c
00000280: 37c1 e3bc 83a8 153d 762e 1ebd e276 f83a
00000290: 4e8f 9b3d 042d 9bbd ee61 843d c3c5 4dbd
000002a0: 3033 993c 336e dd3d 2149 8b3c bb14 7ebd
000002b0: 8bd0 05bd 97d9 58bc 549c 1f3e b773 7ebd
000002c0: 5f34 cd3c 5285 263c b48f 1d3c a8b8 83bc
000002d0: 0a36 9cbc 2311 58bc 8324 dfbc 451f 1e3d
000002e0: 4ce9 243d 6bcb 92bc 08ea 40bd 4ad5 193b
000002f0: 269b 143c 3ce9 79bc 976b 333d b882 00bd
00000300: 3266 443d 721e 8cbd 61e6 173d 5530 a13d
00000310: 92a6 2ebd 3cff f0bc cfd0 92bd 5cfc ec3c
00000320: d2fa f33c 3ff1 0fba 8b7c 7c3d 3ee1 7c3d
00000330: eb9b c53d 2e05 433d 5d34 01be 0051 12bd
00000340: c7b0 c0bd 5e02 c93c 7061 cf3c 9fb2 9f3d
00000350: c24f 843d 583f 8fbc ae04 e3bc 60a1 333d
00000360: b2ca 2b3d e903 d4ba e5f4 07bd baf6 973d
00000370: 6f17 5bbd c7c9 0cbd dca2 ca3d 3010 c1bd
00000380: d4f7 693c 51e3 c03d fef0 a6bb 3b54 9bba
00000390: 498d 313d 1239 ae3d 7915 3dbd a79e 9d3d
000003a0: 30d7 6b3d d9ec 45bd 2ad2 3e3e fb98 c83c
000003b0: 32ca 8fbd af50 69bd 9990 cc3c 47c0 5e3b
000003c0: d89c e0bc cbd3 5fbb 1f25 45bd 5ec9 6bbc
000003d0: fc58 0f3d 178e fcbc 6bb1 a33d 6cf9 0e3d
000003e0: dc37 a9bd 7333 9cbd a5a3 9b3c 5b71 e63c
000003f0: c78c 743c b088 9cbb cad8 8b3d 410f 823c

fc.bias f4 [8]
0.06536935 0.016241495 -0.048531577 -0.13170741 0.034287877 -0.13234654 -0.12702844 -0.04858733
00000000: 5ee0 853d e20c 853c 0cc9 46bd 4fde 06be
00000010: 7271 0c3d da85 07be be13 02be 8203 47bd
